models/resnet_uncertloss_dropout_cath95_ss3-ss4-buried.pth (torch_old, 361324 bytes, 132 tensors)

weight f4 [24, 22, 1]
000000 ce 71 b8 c0 f9 e5 dd bf ac 2d ad 3d 3d 7f 7c bd
       -5.763892 -1.7335807 0.08455977 -0.06164478
000010 6c 3f c4 bd c4 4d 9a bd 47 95 a6 bd 4f 26 d0 3d
       -0.09582409 -0.07534364 -0.08133941 0.10163557
000020 be 8a 9b bd 9a 04 c5 be 8f 66 41 bf e4 66 53 c0
       -0.07594822 -0.38480073 -0.75547117 -3.303155
000030 b1 19 58 3e 53 3f 0d c0 47 3b 39 bd 12 c9 e7 bd
       0.2110355 -2.20699 -0.045222547 -0.11317648
000040 49 42 b3 be d0 4d 41 3e 8a 12 fa bd 6e ba 87 bf
       -0.3501151 0.1887734 -0.12210567 -1.0603769
000050 ec f6 5f 3e fd 85 0f bf a1 95 67 3f 88 fd eb bb
       0.21871537 -0.56063825 0.9046269 -0.007201854
000060 a4 06 2d bd 15 36 83 bd a3 52 64 bf 9b e8 e7 3e
       -0.04224266 -0.064068 -0.89188594 0.4529465
000070 d0 e4 91 c0 c5 e5 d4 be c9 97 d8 be 28 33 e3 3d
       -4.559181 -0.4158155 -0.42303303 0.11093742
000080 4d 82 88 be 2d 16 f6 bf fc 6f 34 bf ff d8 2c 3e
       -0.26661912 -1.9225518 -0.70483375 0.16879652
000090 14 f2 46 bf db e5 ee bd f7 00 d6 bd ad cc 83 be
       -0.7771313 -0.11664935 -0.10449403 -0.25742093
0000a0 85 e2 18 be 20 1e 96 c0 79 5e 48 bd 70 3d 30 3f
       -0.1493016 -4.6911774 -0.04891822 0.68843746
0000b0 78 48 39 3f 6e a3 0f c1 fb 2d 90 bf 10 d8 08 be
       0.72376204 -8.9774 -1.1264032 -0.13363671
0000c0 96 f5 a1 c0 52 dd 5c be 07 cc 42 3d 6b a3 5f 3e
       -5.0612288 -0.21568802 0.047557857 0.21839683
0000d0 b3 3d d3 c0 e1 73 56 bd 01 16 29 c0 f8 52 3a 3f
       -6.6012816 -0.052356604 -2.641968 0.7278285
0000e0 35 8a fc 3d e5 5e c8 be fb 69 46 c0 c0 ab 41 bd
       0.123310484 -0.391349 -3.1002185 -0.047282934
0000f0 6a 10 88 c0 4d 85 8d c0 82 03 1b c1 51 75 1d 3d
       -4.2520037 -4.422522 -9.688356 0.03844196
000100 a2 3e b0 be b0 75 c5 3e af ab fb 3f 8a 0f ad bf
       -0.34422785 0.3856635 1.9661769 -1.3520367
000110 b6 0a 4d 3e 4f 60 99 be 51 e6 89 bc a0 f1 24 3e
       0.20023617 -0.2995629 -0.016833456 0.16107798
000120 54 bf b5 be fc 86 2c c0 70 69 01 bf 9f c0 29 bd
       -0.35497534 -2.6957388 -0.5055151 -0.041443463
000130 bf b3 d6 bf 84 63 2f c0 eb 88 cd bf b8 3f b8 3e
       -1.6773604 -2.740449 -1.6057409 0.35986114
000140 44 6c 10 be 62 80 d1 bd 05 e4 e3 be d3 a6 ef bd
       -0.141038 -0.10229565 -0.44509903 -0.11701741
000150 ba d7 9e 3e 4c 7e a3 3e 9c fe 50 3e df 3d 26 c0
       0.3102396 0.31932294 0.20409626 -2.5975263
000160 23 1f a8 3e 3f f3 89 bd 19 98 b9 bf 03 22 3c 3e
       0.32836255 -0.06735849 -1.4499542 0.1837235
000170 67 15 28 bd 43 7a ac bd 4b 56 18 3e 52 82 d2 3e
       -0.041036036 -0.08421757 0.14876668 0.41115052
000180 91 64 8a bd 20 9a 59 be a5 29 21 be f4 d5 52 be
       -0.06757463 -0.212502 -0.15738542 -0.20589429
000190 8d a4 da be c4 db c3 c0 f5 ba 4a 3e e7 39 38 bf
       -0.42703667 -6.120577 0.19797881 -0.7196335
0001a0 e7 a6 bf bf 27 e7 15 c0 9b a3 23 be 13 c0 a5 bf
       -1.497281 -2.3422334 -0.1598038 -1.2949241
0001b0 79 79 0e bf 07 2e 4b c1 0d 6b 11 3f 39 55 d9 bc
       -0.556541 -12.698737 0.5680397 -0.026529895
0001c0 f1 21 60 c0 d6 fc ca be b3 36 1c be 25 a4 89 bd
       -3.5020716 -0.39646024 -0.15255241 -0.06720761
0001d0 ee ce 76 bd 99 88 bc bf 92 00 07 be 8d e3 ad 3e
       -0.060255937 -1.4729186 -0.13183811 0.3396267
0001e0 b3 01 1b be db e7 08 bf 74 a7 0a 3e 1b 22 61 bf
       -0.15137367 -0.53478783 0.13540441 -0.87942666
0001f0 ae 92 98 3d 2d c7 fb 3e f4 58 09 bf 63 86 99 3d
       0.07449852 0.49175397 -0.53651357 0.07496335
000200 33 2f 18 bf 0e ca 29 be 88 d3 07 bd 97 30 85 bf
       -0.5944702 -0.16580984 -0.033160716 -1.0405453
000210 b5 ea 01 3e 69 ac 74 bc b1 97 8a bb 36 80 0b 3f
       0.1268719 -0.014933684 -0.004229509 0.5449251
000220 63 0d 73 3e ae 7a 83 bd 02 0d 07 3e a8 0a 7e bd
       0.23735575 -0.06419884 0.13188556 -0.06202188
000230 e7 d4 07 be fe e6 d1 bd 36 9e 9b bd 31 b4 88 bc
       -0.1326481 -0.102491364 -0.07598536 -0.016687484
000240 8a 59 02 be 3f 46 a3 3e 0b 9a 19 bf c7 12 aa be
       -0.12729469 0.3188953 -0.60000676 -0.3321745
000250 ad 5f 3a 3e b6 d6 41 3e 2e 53 e1 bd dc 8d c4 be
       0.1820056 0.18929562 -0.110021934 -0.3838948
000260 e4 83 bf bc ac 13 fc 3f 86 24 c7 bd 83 9a 88 bd
       -0.02337832 1.9693503 -0.09723763 -0.06670096
000270 db 5c 97 be 56 24 e4 3d 91 82 17 be 6e 3f 36 be
       -0.2956303 0.11139743 -0.14795901 -0.17797634
000280 32 79 3a be fd 92 aa bd f8 af 18 3e 15 e4 75 be
       -0.18210295 -0.08328817 0.14910877 -0.24012788
000290 a4 f3 99 be 6e f1 fd bd 63 11 44 be 50 1f 8c bc
       -0.30068696 -0.12399565 -0.19147258 -0.017104775
0002a0 37 f8 20 3e b3 ff 47 3d 2b f3 2c bc 5f 4c 6e bd
       0.15719686 0.04882784 -0.010556023 -0.058178302
0002b0 3a 6c be bd 08 06 7c be 5b 4f 59 bc a2 e2 2c be
       -0.09297986 -0.24611676 -0.013263549 -0.16883329
0002c0 e4 ac 21 c0 81 c0 67 be 1a 56 5b 3d b9 0d 6d bf
       -2.5261774 -0.22632028 0.05354891 -0.92599064
0002d0 fd c1 31 bf 8e 81 cf be c8 3c 2a be 09 20 c2 bf
       -0.6943663 -0.4052853 -0.16624749 -1.5166026
0002e0 e7 9d 64 bf 98 9f 24 bf 8f 8a 16 bf 21 72 98 be
       -0.8930344 -0.6430602 -0.58805174 -0.29774573
0002f0 b0 a2 69 bf 3c 46 45 c0 c2 2c de 3d 3d a8 61 be
       -0.91263866 -3.0824118 0.108483806 -0.22036834
000300 ad ff 17 bf ac e5 1e 3e a2 30 b3 bf 03 66 8a be
       -0.59374505 0.155173 -1.3999217 -0.27030954
000310 e4 46 1a bf 68 bf 85 c0 b2 88 f3 be 75 bc b6 be
       -0.6026442 -4.179615 -0.47565228 -0.35690656
000320 20 09 d2 bf 63 36 f0 c0 fc 65 2b c0 62 00 1b c0
       -1.6409035 -7.506639 -2.6780996 -2.4218984
000330 0f f2 96 3d 11 fb f6 bf 6f f3 1c bb 84 f3 65 3e
       0.07370388 -1.9295369 -0.0023948809 0.22456175
000340 a5 21 c0 bd 70 42 45 be 58 41 4f c0 b1 63 14 c1
       -0.09381417 -0.19263625 -3.2383633 -9.274339
000350 b6 fa 9f 3e 24 26 a7 be 03 b9 be 3d 94 37 b1 3d
       0.31245965 -0.32646286 0.09312632 0.08653179
000360 3c b2 5b 3e 7a 41 a7 c0 de 8f d8 bf 0b eb 56 c0
       0.2145471 -5.2267427 -1.6918905 -3.358096
000370 03 15 b8 3f c2 c0 21 c0 d2 22 80 3e 12 b7 e1 3d
       1.4381412 -2.52739 0.25026566 0.11021246
000380 2f 97 cd be d5 04 12 bd f9 5c d8 3e 80 e7 06 3f
       -0.40154406 -0.03564914 0.42258433 0.5269699
000390 d9 3e 2a c0 f6 7e ac bf 20 43 08 c0 73 99 35 bf
       -2.660086 -1.3476245 -2.129097 -0.7093727
0003a0 05 c6 30 3f fb 90 c0 bf ef 99 09 3d 5f 0c fc be
       0.69052154 -1.5044245 0.03359407 -0.49228188
0003b0 94 d7 12 3f 02 97 1f be 76 f7 ff bf ad 53 9d 3e
       0.57360196 -0.15584949 -1.9997394 0.30727902
0003c0 79 68 6d 3e 36 66 ac c0 1d ee 7d bf 56 a4 5f 3c
       0.23184384 -5.387477 -0.9919146 0.013650021
0003d0 33 ac 6a 3d 19 a8 42 be 1d 2b 38 be 5f b5 b9 be
       0.05729313 -0.19009437 -0.17985196 -0.36271188
0003e0 b0 06 04 bf 99 a4 7d 3e 7a 23 bf bd d1 97 09 be
       -0.51572704 0.2476982 -0.093329385 -0.1343682
0003f0 90 74 65 be 41 ca d6 be 7b 8b dd be 0f 0f 87 be
       -0.22407746 -0.41951182 -0.43270478 -0.26378676

weight f4 [24]
000000 4e 92 ab 3c fc 69 2f 3b 24 43 21 3b 18 9b 8b 3d
       0.020943787 0.0026766052 0.002460667 0.06816691
000010 7c a5 28 3d f1 d6 13 3c bc 6c b2 bc 8a 8c 12 3e
       0.041173443 0.009023414 -0.021780364 0.14311424
000020 40 10 d4 3c eb cd 55 3c ab 4a fc 3c 62 0c c4 3c
       0.025886655 0.013049583 0.030797323 0.023931686
000030 b7 59 05 3d c4 28 8b 3d 2d af 4c 3d 20 29 18 3e
       0.032556262 0.06794885 0.04997175 0.14859438
000040 d8 8a da 3c 04 3c 46 39 00 a1 c4 3c 51 0c 24 3d
       0.026677534 0.00018905109 0.024002552 0.04005081
000050 00 7e 4d 3c 39 21 cd 3c ca 94 f7 3b 7b ae 3b 3c
       0.012542248 0.025040256 0.007555579 0.011455174

weight f4 [24, 24, 3]
000000 ae a9 ba 3e 1a 65 c5 3e 46 47 77 be af 0a 1a 3e
       0.3645758 0.38553697 -0.24148282 0.15043138
000010 0a c0 23 3e 27 7b 8f be 5e c5 c3 bc 54 1a 08 bd
       0.15991226 -0.28023645 -0.023897823 -0.033228233
000020 2b ec d6 3c 73 72 97 be 10 9f 7a 3e d7 eb 06 3f
       0.02623566 -0.29579505 0.2447474 0.52703613
000030 fe 96 9d be 41 10 15 be 9c 5c a7 3e ae 61 08 3f
       -0.3077926 -0.14556982 0.32687843 0.5327405
000040 18 78 83 be b4 5c 9b bf 6f 1f 8d 3e 5e e4 80 be
       -0.25677562 -1.2137666 0.27563044 -0.2517423
000050 64 fc 05 3f 91 96 d8 be d8 e5 33 3d 23 ac 26 3e
       0.5233824 -0.42302373 0.043920368 0.16276602
000060 de 70 2b 3f 3c 79 f7 bd dd 8f bc be 1c 7a c1 3b
       0.66969097 -0.120836705 -0.3682851 0.005904449
000070 d6 b3 24 bd bf ad 84 bd 7b bb 35 3e 9a 1f 32 be
       -0.040210567 -0.06478452 0.177473 -0.17394868
000080 15 fe 31 be 65 38 92 3b ea 6f 84 3d ac de 5e bf
       -0.17382081 0.004462289 0.064666584 -0.8705852
000090 c0 ad 5e bf cd bb 03 bf d0 57 ef 3e 51 7c a3 be
       -0.8698387 -0.51458436 0.46746683 -0.31930783
0000a0 4e 59 54 3e 19 57 0b 3f 9d f0 6c bf c5 25 a6 bd
       0.20737192 0.54429775 -0.92554647 -0.08112673
0000b0 21 41 d3 3e 8e 82 cb bc 12 09 2f be f0 b3 0b bf
       0.41260627 -0.024842527 -0.17093304 -0.5457144
0000c0 ec ef dc bd a1 19 06 bf 3c 40 b0 3e ee a9 49 3d
       -0.10787949 -0.52382857 0.34424007 0.049234323
0000d0 3a 39 f4 3d db 4b b3 be 75 03 24 3d 85 be 70 bd
       0.119249776 -0.3501881 0.04004236 -0.058775444
0000e0 12 ab af bd 98 f1 86 3e 7b 19 94 be 13 84 6d be
       -0.08577551 0.26356196 -0.2892569 -0.23194914
0000f0 f1 3c 28 bd 5a 10 a8 3d 00 d8 83 3e 9d 40 a1 be
       -0.041073743 0.08206244 0.25750732 -0.3149461
000100 18 96 3b 3e 40 a2 35 3e 1c c3 a7 bc 54 57 c6 3e
       0.18318975 0.17737675 -0.020478778 0.387385
000110 72 bd 0b be 1b 93 c9 3e 47 46 85 bd 71 cc ca be
       -0.13646486 0.39370045 -0.06507545 -0.396091
000120 de ab 52 be b8 5e 03 3f 33 e9 72 3f 14 9c a3 be
       -0.20573375 0.51316404 0.94887084 -0.31955016
000130 00 12 d0 3e f6 50 03 be ff 39 87 be de 01 bf 3d
       0.40638733 -0.12823853 -0.26411435 0.09326528
000140 81 24 04 bf 27 45 da 3e 61 99 4f be bb f3 07 3f
       -0.516182 0.42630884 -0.20273353 0.5310628
000150 26 a3 11 3f 4e 11 0e 3d 49 08 2e be 06 54 03 bf
       0.5688957 0.03468447 -0.16995348 -0.51300085
000160 9e d5 01 bf 45 c9 2e bf 1f 38 2c be b2 1d 9d 3d
       -0.5071658 -0.6827586 -0.16818283 0.076716796
000170 aa 6b b4 be 46 90 7a 3e 0c ee 65 bf cb c8 48 be
       -0.3523839 0.24469098 -0.89816356 -0.19607846
000180 45 12 0c bf 09 e7 4f 3d fc e9 61 bf af b1 94 3e
       -0.5471538 0.05075744 -0.88247657 0.29041812
000190 d7 88 89 3e 8a 6d 0c bf 94 1f ce 3d a6 a8 4b be
       0.26862213 -0.54854643 0.10064617 -0.19888553
0001a0 02 14 94 be d4 73 78 3e 1c e3 34 3e 61 ab ca 3d
       -0.28921515 0.24262935 0.1766476 0.09895969
0001b0 50 67 2b 3f 90 02 81 3c b8 d4 00 bf 04 b8 9f 3e
       0.6695452 0.015748292 -0.50324583 0.3119508
0001c0 8f 11 43 3d 19 91 43 3f b9 20 8f 3e 48 2c f4 be
       0.047624167 0.76393276 0.27954653 -0.47690034
0001d0 c3 95 b0 be 83 3a 47 bd 40 1c 7a be 4a 40 67 bf
       -0.3448926 -0.048639785 -0.24424839 -0.9033247
0001e0 24 4b 27 3e dc c9 7c be 7e 1f c7 be 19 e5 86 3d
       0.16337258 -0.24686378 -0.38891214 0.06586666
0001f0 cd 90 51 bd 5c f4 10 bd dd be 83 be d2 e0 69 be
       -0.051163483 -0.03538929 -0.25731555 -0.22839668
000200 15 5a c3 3e 88 29 72 be cd ce 4f be 90 9d ad be
       0.38154665 -0.23648655 -0.20293732 -0.33909273
000210 0f 39 e2 3d 6d f7 dc be 71 f0 4a 3e 41 aa 40 be
       0.11046039 -0.4315752 0.19818284 -0.18814947
000220 eb 6b 1e bf 4d 51 b3 3e 0f 71 cb bd ae 53 05 bd
       -0.6188342 0.35022965 -0.099336736 -0.032550506
000230 f8 d8 10 be ce 2d 24 bb ee 91 b2 be 87 12 3a be
       -0.14145267 -0.0025051716 -0.3487696 -0.1817113
000240 b9 2c 6a 3e 8d 1c 8d 3e 9a 3e 27 3b b7 ee 82 3e
       0.22868623 0.27560845 0.0025519491 0.2557275
000250 c5 2a 2b be b9 23 84 3e 86 51 39 3d ad ed 11 be
       -0.16715534 0.25808504 0.045243762 -0.14250822
000260 36 49 da bc 15 9c c0 3c 28 d7 90 be 3e 27 85 bd
       -0.026646238 0.023511926 -0.2828915 -0.065016255
000270 a3 18 5e bf ca 34 e4 3e 63 ce c0 3b 38 61 08 3e
       -0.8675634 0.44571525 0.005883978 0.13318336
000280 52 7a 25 be 7f 6c 81 3e 33 56 51 bf 45 c0 8b be
       -0.16159943 0.25278088 -0.81772155 -0.27295128
000290 db 3b eb be 0d 62 1c 3f 59 5f 21 bf 12 97 c5 3d
       -0.45944104 0.61087114 -0.63036114 0.09647955
0002a0 67 5a 84 3f 8f 40 9d bf f5 f5 be 3e d2 ac aa be
       1.0340089 -1.2285327 0.37297025 -0.33334976
0002b0 47 a7 a9 bd 2d 69 4b be c9 cb 64 bd 75 3f fe 3c
       -0.08283859 -0.1986434 -0.055858407 0.031036118
0002c0 bc 13 8e be 4c be 7d be 84 ff e3 3e 7d 17 c2 3e
       -0.2774943 -0.24779624 0.4453088 0.37908545
0002d0 5d 82 ee 3e 18 df 97 ba 8a 19 73 bf 7b f9 24 be
       0.46583834 -0.0011586873 -0.94960845 -0.16110794
0002e0 b4 48 c4 bd e8 4c 38 be ed 15 9c bf 67 4f 6d 3f
       -0.095841795 -0.17998087 -1.2194191 0.92699283
0002f0 44 c2 ae bd d9 67 a8 bf 5f 2c 80 3f 88 22 92 bf
       -0.08533147 -1.3156692 1.0013541 -1.1416788
000300 7e bf 30 3e 6f d6 87 be ce 8b 09 be 75 44 68 3c
       0.17260548 -0.26530787 -0.13432238 0.014176478
000310 7f 99 a3 bd 61 4a fb 3c 1c a1 5b 3e d9 b9 f3 bd
       -0.079882614 0.030675115 0.21448177 -0.11900682
000320 4c 2f 01 bf 7d 63 80 be 8a 16 d5 bd 59 89 55 bd
       -0.50462794 -0.25075904 -0.104046896 -0.052132938
000330 60 e2 30 3d 47 4c bf 3d 8c ef ec be f1 e0 d0 bc
       0.043184638 0.093407206 -0.4627651 -0.025497885
000340 33 33 30 be 3b 36 aa 3e 93 13 1b 3f f4 03 41 bf
       -0.17207031 0.332445 0.6057674 -0.75396657
000350 f1 04 b0 3e f8 f6 df bd e8 2c 3e 3e b2 b5 52 3e
       0.3437877 -0.109357774 0.18571818 0.20577124
000360 07 3d 2b bf c5 cd c3 3e e8 73 8a bd ab 35 99 3e
       -0.66889995 0.38242927 -0.067603886 0.29923758
000370 07 53 7c bf 26 2f 3d 3e 14 74 ce 3e e7 56 93 3b
       -0.9856419 0.18475017 0.40322936 0.0044964436
000380 6d 10 16 3f c4 48 b0 3e 85 38 85 be ed e9 77 be
       0.58618814 0.34430516 -0.26019683 -0.2421033
000390 b2 c5 e5 3e da 59 33 3f b8 50 b8 be 9b ff cf 3e
       0.44877392 0.7005898 -0.35999084 0.406247
0003a0 c7 b3 61 bf 66 b9 7c be 2f 87 79 bf 25 df 34 bf
       -0.88164943 -0.24680099 -0.974719 -0.7065299
0003b0 5e ea a4 bf 15 88 bc bd 7c b1 1e 3e 3c 10 a9 3e
       -1.2884023 -0.09205643 0.15497392 0.33020198
0003c0 a6 34 0a bf 71 e1 7f bf b3 70 53 3f ef 51 c2 bd
       -0.53986585 -0.9995337 0.8259384 -0.09488284
0003d0 f6 d5 d7 3e 13 91 c9 3e a3 1f 2e be 06 af 7a be
       0.42155427 0.39368495 -0.17004256 -0.24480829
0003e0 3f 5c 1c 3e 63 d0 8f 3e 76 65 75 3e 7b a9 85 3e
       0.15269564 0.28088674 0.23964486 0.26105866
0003f0 a5 87 b0 3e 61 1d a0 3e 4d 5b 9f be 22 c7 2e be
       0.3447849 0.31272414 -0.31124344 -0.1706815

bias f4 [24]
000000 94 4b 3f be 79 de 90 be f9 7c ad bd 5b 11 e4 3c
       -0.18681175 -0.28294733 -0.08471102 0.027840307
000010 d7 93 e4 bd d0 64 a4 be 46 41 71 be 10 f4 f7 be
       -0.11161011 -0.32108164 -0.23560056 -0.48428392
000020 66 85 e2 be 59 10 d1 be 07 7b 8d be 40 a7 99 be
       -0.442424 -0.40832785 -0.27632925 -0.30010414
000030 ee c0 87 be 5e 74 a6 bd 6f 75 a0 be 70 1f b3 be
       -0.2651438 -0.08127664 -0.31339595 -0.34984922
000040 7c 63 e8 be 0b c7 ed be ae 4c f5 be 1e 70 bb be
       -0.453884 -0.4644092 -0.47910064 -0.36608976
000050 d4 5d 8f be c7 11 84 bd 15 f7 eb be 12 69 b8 be
       -0.28001273 -0.06448703 -0.46086946 -0.36017662

weight f4 [24]
000000 1e c2 aa 3d 0f 4e 4b 3d 4d 73 af 3b bc 84 3b 3c
       0.08337806 0.04963499 0.005354321 0.011445221
000010 8e 90 83 3d 93 d8 f4 3c 7c 8c d9 bc cb 43 97 3c
       0.06424056 0.029888427 -0.026556246 0.018464943
000020 09 2f 6b 3c 43 68 52 3c 8f 00 9f 3d 34 51 12 3e
       0.014354476 0.012842241 0.077637784 0.14288789
000030 9c 16 0d 3e ae 00 02 3e a5 29 88 3d f3 72 6b 3c
       0.13778156 0.12695572 0.06648568 0.014370668
000040 0a 2e 15 3c ce 6d 19 3c 5a d7 fd 3c fd 2a 89 3b
       0.009105215 0.009364558 0.030986477 0.004186033
000050 fa 2a 0b 3d 8b 25 eb 3d d0 4e 0d 3d bc d7 b2 3d
       0.033976533 0.1148177 0.03449899 0.08732554

weight f4 [24, 24, 3]
000000 3a bb b6 3e ed f6 c6 be 48 dc 12 bc 83 5a 9e be
       0.35689718 -0.38860264 -0.008963652 -0.3092843
000010 b0 d5 dc 3d ac fd 1f be e6 3b 0d 3e a1 69 a7 bd
       0.10782945 -0.15624112 0.1379238 -0.08174444
000020 0a e5 84 be 56 45 72 be d3 fd b2 bd 69 f7 c4 be
       -0.25955993 -0.23659262 -0.087398194 -0.3847001
000030 e6 a9 bc 3e fa b6 de 3d 20 28 84 bf db 5f ef 3e
       0.36848372 0.10874744 -1.0324745 0.4675282
000040 a8 d0 13 be 58 1d 22 3e 8b ee d2 3e 7b 79 77 3e
       -0.14435065 0.15831506 0.4119762 0.24167435
000050 e1 37 2d 3e 24 59 6b be c0 f6 5a 3e 1e f1 5c bc
       0.16915847 -0.22983223 0.2138319 -0.013485221
000060 a8 19 bc be 72 d6 a7 3e 79 eb 3c 3d 08 d2 7e be
       -0.36738324 0.32780796 0.046123 -0.24884808
000070 5a de 7f 3d fe 02 e9 3e 89 de f5 3c 25 2c a4 3e
       0.06246791 0.45510095 0.03001334 0.3206493
000080 97 ed 93 3e 57 e1 89 bc f9 d5 db 3e 98 20 41 bf
       0.28892204 -0.016831083 0.42936686 -0.7544036
000090 21 59 19 3d ae 7d 73 3d fa ba ca bd 1b f4 e4 bd
       0.037438516 0.05944603 -0.09898944 -0.11179372
0000a0 02 b6 2c 3e 41 cd dd 3d 5b f9 51 3e de 4e 6f 3e
       0.16866305 0.10830165 0.20505278 0.23369929
0000b0 10 44 a0 bd 6c 27 8f 3e c2 78 2f bf 39 6f 13 bf
       -0.07825482 0.27959764 -0.68543637 -0.5759159
0000c0 22 b5 03 be d4 18 ae be e3 ab 61 3e 74 8b 2a be
       -0.12862065 -0.34003317 0.22038226 -0.1665476
0000d0 dc 96 db bd 2d ad 2a 3e 98 cc e7 3e 01 58 35 3e
       -0.107221335 0.16667624 0.4527328 0.17709352
0000e0 dd 46 14 bf 62 a0 f5 3d 56 e9 cf bd 2c a5 38 be
       -0.5792063 0.11993481 -0.10151927 -0.18031758
0000f0 47 37 a7 be ce 36 99 be 50 1f 29 be 8b 4e 5e 3e
       -0.3265936 -0.29924625 -0.16515851 0.2170965
000100 d0 72 99 3d 30 a3 34 3d 2d 44 e7 3e c5 26 e7 3d
       0.07492602 0.04410094 0.45169201 0.112866916
000110 24 8a 4a bc 73 12 c7 3d 88 cf a1 3d a3 5f b4 bd
       -0.012362037 0.09720316 0.079009116 -0.08807304
000120 d8 93 14 bf 6c d8 01 be 6f 99 31 3e 8d 45 a3 3e
       -0.5803809 -0.12680215 0.17343687 0.31889
000130 c5 78 a0 3b f3 4d f3 be 09 3d 9f 3c 80 cb 19 bc
       0.0048972094 -0.47520408 0.019438284 -0.009386897
000140 1e 4e ed be 2b 66 8d 3e 88 a7 de 3e 1c dd fb 3d
       -0.4634866 0.2761701 0.4348719 0.12298033
000150 b1 b7 0f 3e 3b f8 19 be 54 72 e1 3e dd 3c 0d bf
       0.14034916 -0.15036099 0.44032538 -0.55170995
000160 68 ae 06 3d ca 97 d9 bd 5e bf 6d 3e 7e 4c d2 be
       0.03288117 -0.106246546 0.23217532 -0.41073984
000170 f2 53 15 be 09 ae 85 3b e3 39 86 3d 5b d2 bd be
       -0.14582804 0.0040795845 0.0655401 -0.3707455
000180 ab 2b 60 3e f9 9b 00 bd b4 ae cf bc 15 d7 bf bd
       0.21891658 -0.031398747 -0.02535186 -0.093671955
000190 6b da 12 3f 15 b6 97 be 7e 42 0a bf ae e8 42 be
       0.5736453 -0.29631105 -0.5400771 -0.19034073
0001a0 98 06 1a be 6b 75 d1 3e ca a0 51 be 5a 16 5b 3d
       -0.15041578 0.40909895 -0.20471492 0.053488113
0001b0 08 68 d8 bd 58 7f 3b 3e e4 84 0b 3e 57 45 88 3c
       -0.105667174 0.18310297 0.13624913 0.016634626
0001c0 d6 20 7f bd d9 a6 3a be f7 07 b6 be 9d f1 5e bd
       -0.062287174 -0.1822771 -0.35552952 -0.05442964
0001d0 4a e2 9b be 1e c4 17 bb c3 69 82 be 95 50 19 be
       -0.30446082 -0.0023157666 -0.25471315 -0.14972146
0001e0 26 ec 66 be 50 3d c4 3e ef f9 73 3e 6c a0 40 bf
       -0.22551021 0.38328028 0.23825811 -0.75244784
0001f0 02 1c 9f bd f8 a8 ea 3d d3 e4 61 bf ee 1e 81 bd
       -0.07769014 0.114580095 -0.88239783 -0.063047275
000200 75 d2 3f 3e 56 4c 39 3d d4 ca bb 3e 04 18 28 be
       0.18732627 0.045238815 0.36678183 -0.16415411
000210 d8 f4 55 3e b3 99 f7 3d d8 31 68 3e 64 7c 10 3e
       0.20894182 0.12089863 0.22675264 0.14109951
000220 f6 67 2d be 4b b3 a9 be 84 9f cd be 13 6a 5b 3e
       -0.16934189 -0.33144602 -0.40160763 0.21427183
000230 77 e8 c2 3d e6 04 45 bf e4 7e c1 be 12 95 bd bd
       0.095169954 -0.769606 -0.37792122 -0.092569485
000240 f4 4c 70 bd d8 20 f0 be 44 f0 81 3e 6e b8 af 3e
       -0.05866714 -0.46900058 0.2537862 0.34320396
000250 01 5b 8a bf 13 dc ac bd 5e 3b 52 3e 96 28 f7 be
       -1.0809022 -0.08440413 0.2053046 -0.48273152
000260 83 8f 0d bf d6 ad 22 3d 96 42 b8 3e 7b 1c 53 be
       -0.55297107 0.039716564 0.359883 -0.20616333
000270 a2 bc 54 3d c8 ab cc bd db 42 31 be d9 33 9c 3c
       0.051937707 -0.09993702 -0.1731066 0.019067692
000280 38 32 02 bf 65 48 b0 3e 2f 3d 41 bf 5a b6 c9 be
       -0.5085788 0.34430233 -0.75483984 -0.39396936
000290 96 67 33 bf 25 31 6c 3e 08 da 05 bf 66 a7 3f bb
       -0.70079935 0.23065622 -0.52285814 -0.0029244064
0002a0 f6 ac 60 3e 3f ec f8 3d a3 e3 da bc 68 bd d4 bc
       0.2194098 0.12154435 -0.026719874 -0.025969222
0002b0 d7 c1 83 3d 2d e4 ed 3e 95 ef e6 be 10 a4 5d be
       0.064334564 0.46463147 -0.45104662 -0.21644616
0002c0 b1 92 28 bf 89 b7 67 bd c5 41 1e 3d 59 02 01 be
       -0.65848833 -0.056571517 0.03863694 -0.12598552
0002d0 0c 0c 0e be 8d a3 36 3e 3c 91 08 3f 2f fb 43 3d
       -0.13871783 0.17835827 0.5334661 0.04784697
0002e0 e8 93 25 3f 7e 88 f9 3e 10 a2 df 3c 89 d9 bb be
       0.6467881 0.48736948 0.027298957 -0.36689404
0002f0 6d 9d 52 3d 49 85 8b 3f e2 e2 98 3e 77 c8 dd 3c
       0.051419664 1.090005 0.29860598 0.027073128
000300 12 36 bf 3e ae d4 b7 bd 5d a0 1e 3e 55 f5 47 3d
       0.3734594 -0.08976112 0.15490861 0.04881795
000310 6d cb 34 3e 6c 02 38 3d 81 81 27 bc 0f c3 d0 be
       0.17655726 0.044924185 -0.010223747 -0.40773818
000320 04 54 4c bf b3 fa f7 3d 1b 67 da 3c 6a a3 b8 3d
       -0.798157 0.12108364 0.026660493 0.09015544
000330 41 2a f3 3e 26 60 3b 3e 1c 4f 00 bd f8 bc b3 bd
       0.47493175 0.18298396 -0.031325445 -0.08776277
000340 32 f9 6c 3e e5 ab 9c be e2 e7 e8 be 65 fe 59 be
       0.23141935 -0.30599895 -0.45489413 -0.2128845
000350 d0 9f c9 bc da c6 9f 3d f8 b9 91 3e 8a 51 4a bd
       -0.024612337 0.078016 0.28462195 -0.049394168
000360 26 a1 8b bd 66 5a 37 bd af 53 ee 3d 8f c4 f4 3c
       -0.06817846 -0.044763945 0.11637055 0.029878883
000370 ee 89 d3 be 11 95 08 3e d1 2d b1 3e 09 96 ef be
       -0.4131617 0.13338114 0.34605268 -0.46794155
000380 62 5d 22 3e 15 27 b7 bd 8b 0c 07 bf 42 e8 4a be
       0.15855935 -0.08943001 -0.52753514 -0.19815162
000390 27 2f 4a 3e 9d 8f 02 bd 09 48 3f be a9 84 64 3e
       0.1974455 -0.03187524 -0.18679823 0.22316231
0003a0 26 0e 15 3d 69 d5 68 be 3e c9 c8 3c e0 44 a2 3e
       0.036390446 -0.2273766 0.024510022 0.31693172
0003b0 f3 87 c8 3e 10 5d 3e 3e 51 85 a7 be 64 41 cd bc
       0.3916622 0.18590188 -0.327189 -0.025055595
0003c0 ea 88 54 3e 22 4c 68 3e c1 24 49 3e 6c 1b 62 be
       0.20755354 0.22685292 0.19642927 -0.22080773
0003d0 fa fd e6 3e d5 0f 27 be 57 98 6a be ae aa 7c 3e
       0.45115644 -0.16314633 -0.22909676 0.24674484
0003e0 08 4f 90 3e 57 6a fe bb 77 cc b4 bd bd 85 72 be
       0.28185296 -0.0077641415 -0.08828061 -0.2368383
0003f0 ac 0b 1a be ab fa 21 be fe 0f 02 3f f6 d7 33 3d
       -0.15043515 -0.15818278 0.5080565 0.04390713

bias f4 [24]
000000 4a 3e 31 bd 7c fc 8f bc 25 0c 10 3c 24 bf 5b bd
       -0.043272294 -0.017576449 0.008791958 -0.053649083
000010 2e 8b 19 3c 43 3f 0d bc 6d 6b cb bd 08 8a e9 bd
       0.009371562 -0.00862104 -0.09932599 -0.114032805
000020 a8 83 38 be 08 97 06 bd 45 a6 cb bc 79 3d a0 bd
       -0.18018973 -0.03285888 -0.024859557 -0.07824225
000030 0d 1a a8 bd 95 9d cc 3b 9b 1e 3e 3c b7 45 46 3b
       -0.08208094 0.006244371 0.011603977 0.0030253956
000040 8d 6e 08 3c 40 0f 78 bc 9b 9c 1f bb 07 d0 0c bd
       0.008327139 -0.015140355 -0.0024354819 -0.034378078
000050 a3 3e e5 3b ae a0 ce 3c 4a e0 ce ba fc ef 77 bc
       0.0069959923 0.025223102 -0.0015783396 -0.0151329

weight f4 [24]
000000 18 e1 b4 3d 16 e0 3d 3d 1c d1 29 3c e7 f5 33 3e
       0.08831996 0.046356283 0.010364797 0.17574273
000010 0b 32 a7 3d 7b 0e ee 3d 68 0b 0b 3e 94 c6 d8 3d
       0.08163842 0.11623856 0.1357857 0.10584751
000020 b7 91 a8 3c 18 89 11 3d a9 38 77 3d 30 48 6d 3d
       0.020577295 0.035531133 0.06035677 0.05793017
000030 17 a7 0a 3e 53 21 06 3e 20 26 90 3e e6 fc ec 3e
       0.13540302 0.1309865 0.28154087 0.46286696
000040 26 13 0b 3d b2 f3 86 3b 3c 35 0c 3e 3f 9c 06 3e
       0.03395381 0.004118406 0.13692182 0.1314554
000050 3f da 8b 3b e7 6f 4a 3e f6 92 a7 3d 49 97 6d 3d
       0.0042679603 0.1976925 0.081823274 0.058005605

weight f4 [24, 24, 3]
000000 46 66 54 3e de 8b 8a 3e 25 88 5c bf ce 86 8d bd
       0.20742139 0.27059835 -0.8614524 -0.069104776
000010 70 a8 dc be 4c ee b6 3e cd a7 ac bd 5f 3f 57 bd
       -0.43097258 0.3572868 -0.08430443 -0.05255067
000020 39 a9 40 bd 04 0b ca 3d e0 7d 0a 3e 05 31 06 be
       -0.047036383 0.09865382 0.1352458 -0.13104637
000030 23 6e 65 bd 64 59 02 3e 98 3e 81 be da ec a2 3e
       -0.056013238 0.12729412 -0.25243068 0.31821328
000040 58 3f d0 be b8 f3 10 be 2b cc a6 3e cb 19 49 bd
       -0.40673327 -0.14155471 0.32577643 -0.049096864
000050 4a 18 47 be ba dc c2 be 49 d8 8e 3d ec 2b 9a 3e
       -0.1944286 -0.38059026 0.06974847 0.30111635
000060 c9 f9 a4 be bb 7c 6c 3d fb 9c e0 3d 2b 75 8d 3e
       -0.3222182 0.05773614 0.10967442 0.27628455
000070 36 c7 85 be 45 b2 d2 bd ae 45 52 3e 42 0c 98 bd
       -0.26128548 -0.102879085 0.20534393 -0.07424213
000080 06 c8 02 bf 39 e3 f4 bd 57 1a 79 be bb 0a 95 3d
       -0.5108646 -0.11957402 -0.24326454 0.07277437
000090 80 04 92 3e f9 96 21 be 3a 1d a6 3c f6 1b db bd
       0.28519058 -0.15780248 0.020277608 -0.106986925
0000a0 f7 df 0f 3c e7 b9 8f 3d 68 b9 0e be a5 cf da 3d
       0.008781425 0.0701788 -0.13937914 0.10684136
0000b0 cf 28 4e 3e c6 e2 de 3d 9e e5 d5 3e 0f 6f 00 be
       0.20132755 0.10883097 0.41776747 -0.12542365
0000c0 8e 07 86 be d4 03 cc be d9 ea 91 be b6 1b 74 3e
       -0.2617764 -0.3984667 -0.28499487 0.23838696
0000d0 33 4e 51 be fb f0 71 3d f8 41 08 3e 5c bc 8f 3e
       -0.20439987 0.059067708 0.13306415 0.28073394
0000e0 eb d5 4c 3e 8e 6b a1 3d d9 75 bc 3c 0b 7e 89 be
       0.20003478 0.078818426 0.023005413 -0.26853976
0000f0 f7 63 dd bd 18 b0 85 3e e7 87 20 3d 13 04 b7 be
       -0.108100824 0.2611091 0.039192107 -0.35745296
000100 41 20 91 bd 5d b5 45 3e 69 71 97 3e 13 2b ab bd
       -0.0708623 0.19307466 0.29578713 -0.08357825
000110 af 28 d6 3d 93 32 62 3e 6c 55 7b 3d 5e 1b f0 3e
       0.104569785 0.22089605 0.06136076 0.4689588
000120 01 9c 4a bf 3d 96 e3 3d ce 25 17 3e f1 f4 01 3e
       -0.79144293 0.1111264 0.14760515 0.12691094
000130 b8 bb 9c 3e 52 ec f8 3d de 4b 30 be bb 92 31 3e
       0.30611968 0.121544495 -0.17216441 0.1734113
000140 48 b5 07 bf 11 d6 dc bc a0 ca ab 3d ac c1 ff bb
       -0.5301099 -0.026957544 0.08388257 -0.00780507
000150 8c 7d 13 3e 92 b8 88 3d 01 e3 37 3e 29 48 3a bf
       0.14403361 0.06675829 0.17957689 -0.7276636
000160 ba b4 9f be 74 90 bd be ac 8f 02 be 02 d5 81 3d
       -0.3119257 -0.3702427 -0.12750119 0.06339456
000170 f9 31 c2 be 0a d8 0a be 8e 55 52 bf 0e f8 ad be
       -0.3792875 -0.13558975 -0.82161796 -0.33978313
000180 6b b2 92 3e 7b aa 7c be 9c ba e5 bb 97 99 98 bf
       0.28651747 -0.24674408 -0.007010771 -1.1921872
000190 52 43 4b ba 24 1d c8 be df cf 1b 3e 06 64 a1 be
       -0.0007753867 -0.39084733 0.15216015 -0.31521624
0001a0 5d 1a f3 3d 3c fa 06 bf 5a 2b 6b 3e 78 9e 4e bd
       0.11870263 -0.5272558 0.22965756 -0.050444096
0001b0 96 97 40 bf 38 fe ac 3e 71 ec ed be 3f a6 18 3f
       -0.752313 0.33787704 -0.46469453 0.5962867
0001c0 7c 4d 08 bf 38 72 4a 3e 23 4b 81 bd b1 1c 21 bf
       -0.5324323 0.19770133 -0.06313159 -0.62934405
0001d0 e7 37 01 be 96 d8 fc be 27 b9 f3 3d 3a 0e 05 be
       -0.12618981 -0.49383992 0.119005494 -0.12993708
0001e0 58 89 d2 bc 5b 2a 18 bd 53 ba 27 bf 62 80 e9 bd
       -0.025700256 -0.03714977 -0.65518683 -0.1140144
0001f0 bf 7b d8 be 67 d2 f8 bd 1f 98 20 3f b7 60 cb 3b
       -0.4228191 -0.12149506 0.6273212 0.0062065977
000200 4c c2 25 3e 13 31 66 bd ac d8 8e be ef e7 9e bd
       0.161874 -0.056199145 -0.27899683 -0.077590816
000210 30 59 e7 3e 38 b0 79 bf 24 f2 9c bd 68 e8 d3 bd
       0.45185232 -0.97534513 -0.07663372 -0.10347062
000220 76 6a ba 3d 76 6b 96 be 80 06 86 3e c0 ee 1f bf
       0.09102337 -0.2937886 0.26176834 -0.6247368
000230 8d b8 80 be 8d 76 8e 3e 8c 3e 59 bf 81 b3 20 3f
       -0.251408 0.27824822 -0.84861064 0.627739
000240 d0 47 96 bc b2 cb 27 3e 64 a4 a5 bd f8 98 5f 3e
       -0.01834479 0.16386297 -0.08087996 0.21835697
000250 24 76 5b bd 01 fb 09 3e 08 0a 67 3d 50 62 1e 3d
       -0.053579465 0.13474657 0.05640605 0.038667977
000260 54 aa 38 bd de 95 85 3d d7 f4 8c bd 13 22 29 bd
       -0.045084313 0.065227255 -0.06882637 -0.04129226
000270 74 89 51 3e 2e 56 cb 3b cd b0 78 be 23 6e de be
       0.2046259 0.006205342 -0.24286194 -0.43443403
000280 cc 0c 97 3e cb db e0 be 9f 40 84 3e 03 97 c9 bd
       0.2950195 -0.4391769 0.25830552 -0.09843256
000290 ac 5e df bd 56 03 a4 be e5 16 48 3e 36 86 e8 3d
       -0.10906729 -0.32033795 0.19539984 0.11353724
0002a0 64 2f 64 be bd d9 99 be b0 24 06 be 70 13 80 be
       -0.22283703 -0.30048934 -0.13099933 -0.2501483
0002b0 ac ba 82 3d a5 80 fd 3c 06 5e a4 be 11 84 61 3c
       0.06383261 0.030945132 -0.32102984 0.013764397
0002c0 3d dd c2 be c1 97 9f 3e ba 90 1d bc 3e f2 75 bd
       -0.38059416 0.31170467 -0.009617025 -0.060045473
0002d0 0c b9 11 3f 48 a6 48 bb af fd 46 be 7e be 16 bf
       0.56922984 -0.003061669 -0.1943271 -0.5888442
0002e0 71 be dd bd 53 08 cf be 4a d7 6b be 66 48 1f 3d
       -0.108273394 -0.40436038 -0.23031345 0.038887404
0002f0 7d fa a0 bc 6c 91 3f 3e 66 99 2b 3e 8d 90 2c 3f
       -0.019650692 0.18707818 0.16757736 0.67408067
000300 d5 51 8b 3c 80 95 00 bd aa d3 87 3e ec 42 63 be
       0.017006794 -0.031392574 0.26528674 -0.22193497
000310 4b 2b 42 3d bb a9 bf be 29 3d 28 3e 61 75 83 3e
       0.04740457 -0.37434182 0.16429581 0.2567549
000320 5b 36 1f 3f 30 ac 5b bd 01 fe 63 3d af 32 5b 3e
       0.62192315 -0.053631008 0.05566216 0.21406053
000330 c0 dd 3b be 21 bc 19 be df 99 16 3e 67 44 57 3e
       -0.1834631 -0.15013172 0.14707135 0.21022187
000340 97 51 ca 3d f2 e4 0f be c1 ff 3c be 55 66 51 bb
       0.09878843 -0.1405218 -0.18456937 -0.0031951864
000350 ae bb 44 3d 8b a9 bc bd c2 a4 ab 3e e2 65 a0 bd
       0.048030548 -0.09212025 0.33524138 -0.078319326
000360 3a d6 aa 3d 2e e9 e2 be 4c 66 fd bc b1 a6 32 bd
       0.08341642 -0.44318527 -0.030932568 -0.043616
000370 17 ad a9 be ac b7 80 be 8a 01 07 be 22 1e ca 3c
       -0.3313987 -0.2514013 -0.13184181 0.024672572
000380 28 b1 38 bd 90 28 9b bd be c8 8e be 7a b8 0f 3f
       -0.045090824 -0.07576096 -0.2788753 0.56140864
000390 ab 22 09 bf 0f ba 71 be 9d 0e aa 3e 2c 17 8f bf
       -0.53568524 -0.23606132 0.33214274 -1.1178946
0003a0 d3 1c 53 3f 3b 1c e1 be 86 b9 d4 be a6 57 c7 3e
       0.8246586 -0.4396685 -0.41547793 0.38934058
0003b0 0f ab d6 be c0 d2 3f be 05 d4 79 3e 44 29 fe 3d
       -0.41927382 -0.18732738 0.24397285 0.124102145
0003c0 61 fc b8 3e 3f c1 5b be d4 73 7b be 29 59 13 bf
       0.3613005 -0.21460436 -0.24555904 -0.5755792
0003d0 5c bc c2 3d 7e b3 b8 bf 27 2e 83 3e 83 2e ab be
       0.09508583 -1.4429777 0.2562115 -0.33433923
0003e0 85 48 99 3d 26 5e b2 3e 3a 6a 05 3e c5 d2 20 bf
       0.07484535 0.34837455 0.13028803 -0.6282161
0003f0 ea c0 ba bd 98 f6 4a bf 06 6b aa 3e cc 61 2c 3f
       -0.09118827 -0.7928252 0.33284777 0.67336726

bias f4 [24]
000000 b9 4c ce be be b8 81 bf a4 0e 01 bf 39 ea 78 bf
       -0.4029291 -1.0134504 -0.50412965 -0.97232395
000010 c3 bf 5e bf 48 9f 14 bf 82 48 b5 be 5c 46 a0 be
       -0.87011355 -0.58055544 -0.35406882 -0.3130368
000020 28 4f 04 bf 68 74 ac be 77 52 dd be b5 ed 23 bf
       -0.5168328 -0.3368256 -0.43226978 -0.6403459
000030 12 5d e6 be 49 bd 89 be ff b6 1a bf ab 26 f0 be
       -0.44992882 -0.26902226 -0.6043548 -0.469045
000040 97 16 8d bd 75 53 11 bf 5d 1c a1 bf bf cf b5 bf
       -0.06889074 -0.5676797 -1.2586781 -1.4204024
000050 4c 98 14 bf 02 23 21 bf b1 d0 9e be 44 ed 87 be
       -0.58044887 -0.6294404 -0.31018594 -0.26548207

weight f4 [24]
000000 5f 03 ae 3d 29 b3 cd bb 4c 0c fd 3d 7a b2 6c 3b
       0.08496737 -0.006277461 0.12355861 0.0036117123
000010 b2 f7 9a 3c 47 2f 13 3c 5b 09 72 3c 02 ca 4c 3d
       0.018916938 0.00898344 0.014772738 0.049997337
000020 60 4a 6e 3c 06 7f c1 3c 67 d5 a5 3c 83 86 aa 3d
       0.0145441 0.02362014 0.02024336 0.08326437
000030 bc 97 23 3d e0 cc da 3d 1c 24 24 3c 30 8a f1 ba
       0.039939627 0.10683608 0.010018375 -0.0018428024
000040 1c 45 fd 3d 41 84 02 3d 33 78 24 3c 49 cb 1c bc
       0.12366697 0.03186441 0.010038423 -0.009569951
000050 b3 4e 0a 3e 6a 14 8c 3c 90 92 1d 3e 93 06 76 3c
       0.13506584 0.017099578 0.1538794 0.015016216

weight f4 [24, 24, 3]
000000 9a be b2 3e e6 57 8d bd 1b 12 4c bf 34 08 72 be
       0.34911042 -0.06901531 -0.79715127 -0.23635942
000010 9d cb 3d be c1 bd 58 3e 34 81 71 3e de 47 31 bd
       -0.18534704 0.21166135 0.23584443 -0.04328143
000020 37 a4 e7 be db 88 c7 bd 41 6c c0 bd 73 f9 9e 3d
       -0.45242473 -0.097429 -0.09395648 0.077624224
000030 61 fd b7 be b5 eb c8 3d 59 51 9e be 86 fa 33 bf
       -0.359355 0.098105825 -0.30921438 -0.70304143
000040 23 96 07 be 6a ae b1 3e fb 3c 5a 3e 54 73 1e 3e
       -0.13240866 0.3470338 0.21312325 0.15473682
000050 12 a2 a1 3e a2 93 2f 3e f7 dd 6f 3d 37 98 b4 3d
       0.31568962 0.17146161 0.05856129 0.08818095
000060 19 4b e8 be 12 69 72 3e a3 ea ba be f9 b2 c1 3e
       -0.45369795 0.23672894 -0.3650714 0.37831858
000070 fe 0c 09 be 66 75 2b 3e 0b cf 03 3e dc a9 4d 3d
       -0.13383862 0.16744003 0.1287195 0.05021082
000080 9b bb 24 be 79 64 aa bd 42 c8 65 be c9 3f cc bd
       -0.16087191 -0.08319945 -0.22439674 -0.099731036
000090 ec ce 8b 3e 76 05 aa be 24 a6 05 bf 34 70 d1 3c
       0.27306306 -0.3320729 -0.52206635 0.025566198
0000a0 4a 29 f9 3b dc b9 8f 3d a5 35 ac 3d 2a 02 69 3d
       0.007603799 0.07017872 0.084086694 0.05688683
0000b0 07 49 cf 3e da ae 3e bc 0a b1 d9 3d 09 cc cd 3d
       0.40485403 -0.011638368 0.10629471 0.10048682
0000c0 df 97 9d be fb 76 f3 bd 82 15 24 bf b8 4d 14 3e
       -0.3077993 -0.11887928 -0.6409532 0.14482772
0000d0 43 3f 99 3e 51 99 7b be e4 7b ba bd 9c 0c 30 be
       0.29931077 -0.24570204 -0.091056615 -0.1719231
0000e0 9f 98 1c 3e 5c 5f 1e be 9a 77 d4 be 8b 8d 5d bf
       0.15292595 -0.15466064 -0.414975 -0.865441
0000f0 69 0b d9 3e c5 ee 92 b9 34 21 d7 bd a5 91 57 3e
       0.42391518 -0.00028025187 -0.1050438 0.21051653
000100 0a dd ee 3d 29 53 85 3d 0a c1 0b be f3 6e ed bd
       0.116632536 0.06510002 -0.13647857 -0.115934275
000110 ba 26 0b 3d 7b bc b0 be fe 8e 09 3d b5 cd cd bd
       0.03397248 -0.345188 0.033583634 -0.10049001
000120 02 77 5d bc 7a 72 fa 3c 43 60 1c bd 2f 50 d3 be
       -0.013517143 0.030572165 -0.03817774 -0.41272113
000130 cc ec 14 be 5c 55 e7 be 41 c7 c5 be 56 c2 28 be
       -0.14543456 -0.45182312 -0.3862858 -0.16480383
000140 61 1a 91 3e 1c 00 ab be d9 88 3c be ee 52 d6 bc
       0.28340438 -0.3339852 -0.18411578 -0.02616259
000150 36 00 68 bd fd c3 d3 3c d0 0c 9c bd b6 e7 0d 3e
       -0.056640826 0.02585029 -0.07619631 0.13857922
000160 b1 c3 f4 3d ad dd 63 be 0e db 84 bd b4 d5 77 3d
       0.11951388 -0.22252531 -0.06487094 0.060506538
000170 4f dc 93 bc 11 78 78 bd 33 61 1a 3c 3c 5c a2 be
       -0.018049387 -0.06066138 0.009422588 -0.31710994
000180 75 4b f7 3d 2b c8 8e 3e 94 d1 cd be f0 22 98 be
       0.12074939 0.2788709 -0.40198958 -0.29714155
000190 35 74 c5 bc 3a 00 75 3d a4 14 99 3e 28 c1 2a bd
       -0.024103263 0.05981467 0.2989856 -0.041688114
0001a0 2b b9 db 3d 39 9e 9e be df d7 5e be 49 bf 1e 3e
       0.10728677 -0.3098009 -0.21762036 0.15502657
0001b0 aa 66 1d be f2 d5 da bd d9 03 fe 3d 70 6b bc bc
       -0.15371194 -0.10685338 0.12403078 -0.023000449
0001c0 c5 ab 76 3d 98 73 5d be 49 9e f9 bc 58 a4 d5 bd
       0.060222406 -0.21626127 -0.030470984 -0.10431737
0001d0 1c 50 95 be c0 00 bc 3e ae 27 cd 3d 88 9d 84 bc
       -0.2916268 0.36719322 0.10017334 -0.016188398
0001e0 d5 44 88 3e 00 ca 8f 3b 07 11 dd bd fa 55 28 3e
       0.26615015 0.004388094 -0.10794263 0.16439047
0001f0 a0 cb ee bd d5 84 fd bd ab dc 5e 3e f1 ee 4b 3e
       -0.11659932 -0.12378851 0.21763866 0.19915368
000200 f2 30 8a 3e ec 45 8b 3d 43 46 92 be 93 e4 1a 3d
       0.26990467 0.06800446 -0.2856923 0.03781564
000210 73 a5 e1 bd 87 61 6f bd d8 5f 6e be 22 f0 64 bd
       -0.11017885 -0.05844262 -0.23278749 -0.05589307
000220 75 ec 5f 3e e2 b5 4c 3d a4 f8 d8 3e 46 d8 22 bd
       0.21867545 0.049978144 0.42377198 -0.039757036
000230 0f df 82 3e 85 05 35 3d fa e6 ad bd f8 20 25 3e
       0.25560805 0.044194717 -0.08491321 0.16125858
000240 9c 1a 0e 3f 90 3e 3e 3e 38 2d 84 3e d7 60 51 be
       0.5550935 0.18578553 0.2581575 -0.20447098
000250 df e2 55 bd cf 26 06 be b7 04 2f be e9 fc f3 be
       -0.052218314 -0.13100742 -0.17091642 -0.47653893
000260 ce 59 67 bf 16 e3 b0 bd 46 d7 a3 3e b0 80 fa 3e
       -0.90371406 -0.08637063 0.32000178 0.48926306
000270 18 da 94 be 56 07 30 be a4 1d 4f 3f b3 f4 d4 be
       -0.29072642 -0.17190298 0.80904603 -0.4159294
000280 1a 83 6a be eb 69 ba 3d 94 c4 18 be 6e fc 1d be
       -0.22901574 0.091022335 -0.14918739 -0.15428326
000290 97 60 9f 3d b4 fb eb bd 3f 59 bd 3d a2 8c fc bd
       0.07782095 -0.11522618 0.09245538 -0.12331511
0002a0 32 9e a4 bc 33 fd 85 3e ca 19 cb be e9 19 6a be
       -0.020094965 0.26169738 -0.39668113 -0.22861446
0002b0 8c 24 1a bf 96 f1 ec 3d b9 89 51 3e f1 fb 27 be
       -0.60212016 0.11569516 0.20462693 -0.16404702
0002c0 d6 27 a6 3e f1 a0 75 3e e2 f9 ac bc 6d 14 20 3b
       0.32452267 0.23987176 -0.021115247 0.0024426237
0002d0 23 1b ab bd 5f 60 2b be 17 66 08 3f 94 71 ec 3d
       -0.08354785 -0.16735981 0.53280777 0.11545101
0002e0 24 07 4a be 05 85 4b 3d 9e cc 1b be 9f 20 a3 bf
       -0.19729286 0.049687404 -0.15214774 -1.274433
0002f0 3f 9d b5 be 61 7e 5e 3e 83 fe 80 3e 48 00 ce bc
       -0.35471532 0.21727897 0.25194177 -0.025146618
000300 0a dd 51 3e 2a 92 82 be 0b 5b ad be ef 16 24 3e
       0.20494476 -0.2550214 -0.33858523 0.16024373
000310 7b c1 3f 3e 0a 80 27 be eb a3 76 3e ff 60 04 3e
       0.1872615 -0.16357437 0.24085967 0.12927626
000320 9f 41 75 be 25 56 4e 3f 4a df 76 bd 24 ab 16 3f
       -0.23950814 0.80600196 -0.06027154 0.5885489
000330 41 c8 10 bf f2 0b 72 be dd 5a c3 3e e7 69 5f 3d
       -0.56555563 -0.2363737 0.3815526 0.054544356
000340 f7 a6 d7 3e f9 2b d7 bd f9 48 9f 3d 56 50 27 be
       0.42119572 -0.10506434 0.0777759 -0.1633924
000350 39 18 98 bd 96 be d4 3d f0 2b fd bd 12 19 14 bf
       -0.07426495 0.10387914 -0.12361896 -0.57850754
000360 ed 59 1a 3e 42 0e d2 be a1 35 26 be 48 4a ce be
       0.15073366 -0.41026503 -0.16231395 -0.40291047
000370 0a 2e 6d 3e 16 6b 00 3d 01 07 9f 3e 3d 45 d2 3d
       0.23162094 0.031352125 0.3106003 0.102671124
000380 8d 8a a2 be 1f 18 fd 3e 93 28 3e be cb 41 89 be
       -0.3174633 0.49432465 -0.18570165 -0.2680801
000390 e3 63 c9 bd b6 ed 17 be 91 a9 c6 3c 79 ec c6 be
       -0.09833505 -0.14836773 0.024250777 -0.3885229
0003a0 be 55 04 3e ed b9 bf 3d a9 a3 94 bb 29 c1 19 3d
       0.12923333 0.093616344 -0.0045361114 0.037537728
0003b0 af f7 9a 3e 66 1d 4e bd 3c 6c 71 3e 08 09 ba bb
       0.30267093 -0.050321005 0.23576444 -0.005677346
0003c0 15 47 d5 bd 7a d3 4b 3d 33 07 04 3f 97 42 b2 3e
       -0.104139484 0.049762227 0.51573485 0.3481643
0003d0 40 91 21 3e a6 a5 c7 be 3d 7f 5b 3e 16 80 85 3e
       0.15778065 -0.38993567 0.21435256 0.26074284
0003e0 33 d5 ac bd d3 57 e2 3d 8f 4c cf 3c 1c df 8d be
       -0.08439102 0.110519074 0.02530506 -0.2770928
0003f0 0f c0 09 3e 38 ea 0d be e1 d5 81 be ab 60 25 3e
       0.13452171 -0.13858879 -0.2535849 0.16150157

bias f4 [24]
000000 25 fd 45 bd 55 1b 93 bd 5d 9a 05 bd 15 41 8b bc
       -0.04833712 -0.071829475 -0.032617915 -0.016998807
000010 96 aa a7 bc e1 44 55 3c 6f d3 5a be 4b 5d c5 bd
       -0.020467084 0.01301691 -0.21369718 -0.09636935
000020 80 49 45 be 4f 50 c2 bb 4a 09 92 3c c0 89 70 bd
       -0.1926632 -0.0059299837 0.017826695 -0.05872512
000030 b5 21 89 bd 3e c7 32 ba 38 0c c1 bd 49 b5 6a be
       -0.06695882 -0.00068198505 -0.09426159 -0.22920717
000040 3c 76 89 3b 1e 60 65 3b 57 90 15 3b 4d 97 a5 bd
       0.004195003 0.0034999917 0.002282163 -0.08085499
000050 26 2a 90 3b 13 4c 70 3a 36 73 6f 3d 95 c5 0c bf
       0.0043995557 0.00091666094 0.058459483 -0.54988986

weight f4 [24]
000000 67 3c 14 3e 5a 47 a2 3d f4 49 33 3b 5a 24 89 3d
       0.14476167 0.079237655 0.0027357312 0.06696387
000010 80 f4 b1 3d 33 4c 63 3e fa 2b 37 3d 0c 80 7d 3e
       0.08689213 0.22197036 0.044719674 0.24755877
000020 8c f5 40 3d bf 97 a0 3d ab 31 df 3d cb 71 10 3e
       0.04710917 0.07841443 0.10898145 0.14105909
000030 6a d6 28 3e f8 d6 80 3e 9c 52 7c 3e 28 1a 0c 3e
       0.16488042 0.25164008 0.24640888 0.13681853
000040 17 5e c6 3c 81 b0 a5 3b f2 4e 6f 3e b2 dd 85 3e
       0.024214787 0.0050564413 0.23369959 0.26145703
000050 0d 7d 90 3b c0 88 76 3e 39 83 27 3e e4 9c e2 3c
       0.0044094385 0.24075603 0.16358651 0.027662702

weight f4 [24, 24, 3]
000000 0c d1 80 3e 27 90 58 3d 97 bb f2 3c eb e3 e1 be
       0.2515949 0.05287185 0.029630465 -0.441192
000010 8e be 74 3e 4d 8f 01 bd db 51 41 be 13 38 23 be
       0.23900816 -0.031630803 -0.18878882 -0.1593936
000020 7e 4f 30 bf 58 73 92 3e a9 dd ee bc bb 8c 38 be
       -0.68871295 0.28603625 -0.02915843 -0.18022434
000030 58 7f a0 3e de be df be c8 0e 51 3e 67 66 47 bf
       0.31347156 -0.43700308 0.20415795 -0.7789063
000040 e2 af 33 3e ff 80 64 be e3 d9 f7 bd c8 d2 38 bd
       0.17547563 -0.22314833 -0.121021055 -0.04512289
000050 83 c5 fc bd 00 90 b4 bd 83 68 78 3e 30 3e b2 bd
       -0.1234236 -0.08816528 0.24258618 -0.087032676
000060 3f d9 6a 3e 15 d7 f9 bd 26 a0 73 be a0 2f 75 3e
       0.22934435 -0.12199227 -0.2379156 0.23943949
000070 bf 5a 99 3e 26 df 25 3d 0a 05 a4 bd f9 c7 2b 3e
       0.29952046 0.040496014 -0.080087736 0.16775502
000080 d7 09 29 3e f5 58 27 bf d9 9f c5 bc 8f dc 6b 3e
       0.1650766 -0.6537011 -0.024124073 0.23033355
000090 e9 31 b4 3e 8b 0e 1e bf a4 c4 91 bd ba e3 a7 3b
       0.35194328 -0.6174094 -0.07117584 0.0051235827
0000a0 58 e1 88 3e e0 bd ea 3e ad a9 46 be e4 bb 5c 3e
       0.26734424 0.45847988 -0.19400664 0.2155605
0000b0 8a 70 21 bf f0 e2 8f 3b 6c 41 bc be 2f 0f 8c 3e
       -0.63062346 0.0043910667 -0.36768663 0.27355334
0000c0 56 a6 0f bf 5a ff 80 3e fc 21 de 3d a6 64 8f 3d
       -0.56113183 0.25194818 0.10846326 0.07001619
0000d0 54 67 3d be 56 29 78 3d cf 65 80 be 87 64 0d 3f
       -0.18496448 0.060586296 -0.25077674 0.5523152
0000e0 8d e1 9f 3e 83 74 79 bf 71 67 8f be 5d 9f c5 3e
       0.3122677 -0.9744341 -0.28008607 0.38598147
0000f0 1f fd d7 3d 9a f7 f2 3e 9e 60 1c bf dc 29 a0 3e
       0.10546326 0.4745453 -0.61084926 0.31281936
000100 fc aa 15 3e ad 63 49 bc 3f be 5d bc 10 36 d3 3c
       0.14616007 -0.012291831 -0.013534128 0.025782615
000110 23 30 51 3e db 5f 76 bd 48 12 c3 bd 37 d5 b1 3e
       0.20428519 -0.06015001 -0.09524971 0.34732983
000120 87 77 85 be fd 9d 07 3e d7 17 de 3d aa 27 c3 3c
       -0.26067755 0.13243861 0.10844391 0.023822624
000130 13 62 f3 bd 04 6c 29 be 1c 1c 22 3e c2 2c ed be
       -0.118839405 -0.16545111 0.15831035 -0.4632321
000140 ee 25 c4 bd c2 29 9d be b0 9d 2d 3d 05 06 50 be
       -0.09577547 -0.3069592 0.04238671 -0.20314796
000150 89 37 8f be bd 09 27 bd 84 dc c7 bd bc aa 26 be
       -0.27972057 -0.04078077 -0.09758857 -0.16276067
000160 bb 1b 4f be d6 b8 15 3e 22 42 43 be 3d 8c 06 3e
       -0.20225422 0.1462129 -0.19068196 0.13139434
000170 59 0b d7 3b a1 37 e3 3d 49 fc 2d be ec b5 df bd
       0.006562632 0.11094595 -0.1699077 -0.10923371
000180 d3 25 4a be 32 38 4e 3d 29 4b 40 be 30 d6 9f be
       -0.19740991 0.05034656 -0.18778671 -0.312181
000190 1a 7e 19 bd 2d 36 f3 bc 71 45 c2 bd 82 e8 02 3e
       -0.037473775 -0.029688919 -0.09485901 0.12784007
0001a0 c4 0f 07 3f bd 21 0d 3e d0 8d 21 bf 60 d9 ce bc
       0.5275843 0.13782401 -0.63107014 -0.025250137
0001b0 1b 01 bf be 5c 68 73 3e 3a 07 9f bd 5a e7 0d 3e
       -0.3730553 0.23770279 -0.0776505 0.13857785
0001c0 f5 10 15 3e c5 d5 c1 3c 30 b0 03 be 2a 3e d3 bd
       0.1455725 0.023661504 -0.12860179 -0.10314591
0001d0 ea ef 61 bc f5 62 50 3e 8a 3c 26 be 8c f0 47 3e
       -0.01379011 0.20350249 -0.16234031 0.19525355
0001e0 d3 11 3b be 38 44 c1 bd 8b 82 42 3e ee e8 94 be
       -0.18268518 -0.0943684 0.1899511 -0.2908396
0001f0 42 58 c9 be 70 f3 c1 3d d7 2b f3 3e 55 62 dd bd
       -0.39325148 0.0947026 0.47494385 -0.10809771
000200 78 0f 21 bf da 8d c4 3e 5a fa 3e 3d 31 33 26 be
       -0.6291423 0.38389474 0.046625473 -0.16230465
000210 54 2d 5c 3e 02 8f 33 bf df 6c fc bd fa 65 51 3c
       0.21501666 -0.7014009 -0.12325453 0.012780661
000220 fc 5e 2a be b4 e7 7c 3e a7 73 8b be 57 a0 94 3c
       -0.16637796 0.24697763 -0.27236673 0.018142862
000230 6a b3 7f be a4 8b 16 3d 2e d9 6e 3e a9 fe e5 bc
       -0.24970785 0.036754265 0.23325035 -0.028075533
000240 1a 93 9d 3e 2d 8b 1b be e5 ad 49 be e7 4d aa be
       0.30776292 -0.1518981 -0.19695242 -0.3326256
000250 36 cf bf 3d 32 45 53 3d c1 a5 bf bd cb f4 d5 3c
       0.09365694 0.05157966 -0.09357787 0.026117703
000260 3f 22 0f be fa 60 80 bc 1b d4 1e 3e d5 b2 f0 bd
       -0.13977908 -0.015671242 0.155106 -0.117528595
000270 8e 29 bd be e8 5d d1 be 34 03 17 bf 99 3a 99 3d
       -0.36945766 -0.40891957 -0.5898926 0.0748188
000280 5b b1 23 3e 3b 31 a1 be 50 d8 12 3c ac 14 9d be
       0.15985624 -0.31482872 0.008962706 -0.30679834
000290 ab 12 0e bd cd 26 8a bd cf 30 32 3d bc 89 7b 3e
       -0.034685772 -0.06745682 0.04350358 0.2456426
0002a0 8d c4 49 bd b2 d3 2f 3e 6f 14 0f be 59 0b c4 3c
       -0.04925971 0.17170599 -0.13972639 0.023931192
0002b0 5f eb b5 be 93 8b cc bd d6 a9 aa bd e2 6b 45 3e
       -0.35531136 -0.09987559 -0.08333175 0.19279435
0002c0 46 6d 33 3e 1d a5 81 3e 92 f3 dd 3d d7 2b 2a bf
       0.17522153 0.25321284 0.10837473 -0.66473144
0002d0 d8 ae d3 3e 6d d6 45 bb 1e a8 08 bf ee e8 81 be
       0.41344333 -0.0030187622 -0.53381526 -0.25373024
0002e0 fb 31 e7 3c 12 e7 bf bd 43 54 48 3e f7 88 e1 3d
       0.028222075 -0.09370245 0.19563393 0.11012452
0002f0 7b db 74 3d 68 a5 f2 3b 7d 34 42 be 92 94 03 be
       0.059779625 0.007404972 -0.18965335 -0.12849644
000300 84 58 d7 be 3f 92 9c 3d 55 89 05 3d d3 48 a2 3d
       -0.4205972 0.07645082 0.032601673 0.07924046
000310 a7 dd ee be 51 0f 03 be 66 93 72 bf 20 44 e7 3d
       -0.46653482 -0.12798811 -0.9475616 0.11292291
000320 c2 9c 7d 3e 82 71 3c be c5 30 0c 3e e3 9b b3 be
       0.2476683 -0.18402675 0.13690479 -0.3507987
000330 88 c1 44 3d 4e b7 97 be 69 ce b6 bd 3c 73 36 3e
       0.04803613 -0.29632038 -0.08926088 0.17817396
000340 36 14 9f 3d 2d ec f3 bd 6d ac 21 bd 34 f0 21 be
       0.07767527 -0.11910281 -0.03947108 -0.15814286
000350 cc 46 45 3e 2f ca 44 3e 3a ab 8b bd b5 b0 59 bf
       0.19265288 0.19217752 -0.06819768 -0.8503526
000360 26 0f 10 be b2 c8 50 be 40 e1 28 bf f7 58 5d 3e
       -0.14068279 -0.20389059 -0.65968704 0.21615969
000370 61 21 c9 bc db 2a 96 3e 8b 2c 9b bd 9a 2b a5 bd
       -0.02455205 0.2932957 -0.07576855 -0.08064957
000380 38 7e fc bc 73 14 37 be 5e ac 2f 3c d4 c0 e3 be
       -0.030821905 -0.17878895 0.010722248 -0.44483054
000390 d1 dd 6c be 02 82 03 bf 98 a6 0c be 7b 55 da 3e
       -0.23131491 -0.5137025 -0.13735425 0.4264334
0003a0 0a 5c 20 3d 51 53 d4 bd 3c 38 79 be 16 40 c2 be
       0.039150275 -0.10367454 -0.24337858 -0.3793952
0003b0 08 0d f0 be b6 69 86 3e f5 65 28 3d 46 d0 ec 3e
       -0.46884942 0.26252526 0.04111286 0.4625265
0003c0 25 15 d6 3d be 58 c1 bd c4 88 57 3c cb e4 c3 be
       0.10453252 -0.09440754 0.013155166 -0.38260493
0003d0 e0 42 af 3d 3e a9 21 be 18 bc 49 bf 37 1b 72 3d
       0.08557677 -0.15787217 -0.78802633 0.059107985
0003e0 bd a4 65 3e 93 99 d7 3d 6c 0c 5c 3d d7 93 f6 be
       0.22426124 0.10527339 0.053722784 -0.48159668
0003f0 38 40 06 be 64 74 84 be 5e 9d d8 bd e5 05 04 bf
       -0.13110435 -0.2587005 -0.105768904 -0.51571494

bias f4 [24]
000000 69 60 87 bf 0c 18 0e bf 29 08 f3 be db fe 6d be
       -1.0576297 -0.5550544 -0.47467163 -0.23241751
000010 9e 81 4b bf 5d eb 68 bf 3c e6 0a bf f7 69 2d bf
       -0.79494655 -0.90984136 -0.5425756 -0.67739815
000020 b3 86 13 bf 0c 6c bb bf 55 06 3d bf a4 1e 8d bf
       -0.5762741 -1.4642348 -0.73837787 -1.1024976
000030 09 fc 67 bf f7 f3 34 bf a5 40 c1 be 8d c8 33 bf
       -0.9061895 -0.7068476 -0.37744632 -0.7022789
000040 17 16 a0 bf 06 49 1b bf dc 0d ef be 48 3a 5a bf
       -1.2506741 -0.606583 -0.4669026 -0.8524518
000050 75 04 e0 be d6 65 78 be b4 f1 05 bf 90 7e 6a bf
       -0.437534 -0.24257597 -0.52321935 -0.9159937

weight f4 [24]
000000 87 a1 b4 ba c8 65 d7 3b d3 e4 c0 3d c3 18 91 3d
       -0.0013781049 0.0065734126 0.09418645 0.07084801
000010 2f 21 f1 bb f4 71 1d 3d 5b 25 81 3d 84 89 57 3d
       -0.007358692 0.038438752 0.06305953 0.05262138
000020 3e 00 16 3d dd a8 57 3b d5 55 68 3c 32 a4 b4 bb
       0.036621325 0.0032907047 0.01418062 -0.0055127377
000030 61 80 e7 3c 37 ba be 3c 44 05 85 3e de 87 5b 3b
       0.028259458 0.023282154 0.2598058 0.0033497731
000040 42 f6 cb bc 62 39 03 3e 06 95 27 3e 11 71 6f 3c
       -0.024897698 0.12814859 0.16365442 0.0146143595
000050 13 39 98 3d 55 3d 8d 3e 24 0f e6 3d d1 6f a9 3c
       0.07432761 0.27585855 0.112333566 0.020683201
