models/resnet-uncloss-dropblock-simpleblock-ss3_ss4_buried.pth (torch_old, 304685 bytes, 216 tensors)

weight f4 [24, 22, 1]
000000 90 da 04 c1 33 a7 fa 3d 9f 2f b8 3d 6a 08 29 bf
       -8.30336 0.12238922 0.08993458 -0.66028464
000010 d8 81 8d be cd 88 2c be 0d f4 0c bf 03 70 0a bf
       -0.27638125 -0.1684906 -0.5505989 -0.54077166
000020 52 23 8e 3d 73 54 06 bf 1b 45 8a 3e 89 4c b2 bb
       0.069403306 -0.5247261 0.27005848 -0.0054412526
000030 1c 8e f8 be fc e3 84 bf 36 0e 29 3d d1 8b d4 be
       -0.4854592 -1.0382075 0.04127332 -0.4151292
000040 65 24 ba be fa b4 0d bf 66 34 06 be 63 d5 8e bd
       -0.36355892 -0.55354273 -0.13105926 -0.06974294
000050 4b 06 e7 be 07 61 6b bf 01 30 08 3f 72 88 d9 bd
       -0.4512199 -0.91944927 0.5319825 -0.10621728
000060 98 fe a7 bd 39 11 fa be 7b 3e d1 be 84 cb 8b bd
       -0.08202857 -0.48841265 -0.4086798 -0.06825927
000070 22 90 4b bf 23 f8 36 bf 4a 9e bf 3d 54 d4 25 bf
       -0.79516804 -0.71472377 0.09356363 -0.6477711
000080 91 ff 0e be 90 4c 5c be bc 91 31 bf f4 20 e0 be
       -0.13964678 -0.21513581 -0.69363 -0.4377514
000090 b3 be 0b bf d9 ef 01 bf 4d 26 fc be 1e f0 1b be
       -0.5458786 -0.50756603 -0.4924797 -0.15228316
0000a0 4b 17 2c 3e ae 8b fc 3d 9c 3f e8 bd bb 1a dc 3e
       0.1680576 0.12331329 -0.113402575 0.42989144
0000b0 86 d6 38 c0 f1 d4 5e bf dc 87 b7 3d 9f b5 95 bf
       -2.8880935 -0.8704367 0.0896146 -1.1696051
0000c0 91 35 0e bf 6a 90 cc 3e 77 f7 95 bf 46 22 9b be
       -0.55550486 0.3995393 -1.1716145 -0.30299586
0000d0 52 05 62 3e e8 a1 c0 be f2 0c 1b 3e 2c e0 00 3e
       0.22072342 -0.37623525 0.15141657 0.12585515
0000e0 a8 04 55 bf ef 92 45 bf 0e 33 05 bf dd 88 6b 3d
       -0.8321023 -0.7717733 -0.5203103 0.05750357
0000f0 31 79 17 bf ef fa 2a bf 4d 29 9e bd 95 a9 40 3f
       -0.591693 -0.66789144 -0.07722721 0.7525876
000100 06 06 d3 3e 59 c1 13 c0 ff ba 87 bc 92 cd b5 be
       0.41215533 -2.308676 -0.016568659 -0.355084
000110 69 2f 65 be a8 e0 16 bb 00 9d 8f 3d 58 79 31 be
       -0.22381367 -0.002302209 0.07012367 -0.17331445
000120 56 e9 fb bc 63 3d c7 b9 a1 37 1d be db 79 af 3d
       -0.030750912 -0.00038001974 -0.15353252 0.08568164
000130 72 bd b5 be bb 1f bd be 8d f6 e9 bc 2c 71 3f 3e
       -0.35496098 -0.3693827 -0.028559947 0.18695515
000140 08 70 68 3d f0 6b 72 3d 4c 97 98 bc 23 23 3a 3e
       0.056747466 0.05918497 -0.018626831 0.18177466
000150 fa 20 d8 bb f5 67 4a 3d e4 6f 6a 3d c3 47 27 bf
       -0.006595728 0.049415547 0.057235613 -0.65343875
000160 10 8a ae bf 71 95 e9 3d 14 5d b9 3d fe 7e b1 be
       -1.3635883 0.11405457 0.09050956 -0.346672
000170 b6 ce d9 bd ab 0e 02 bf eb c3 9b be 3a e8 d6 be
       -0.1063513 -0.5080363 -0.3042291 -0.4197405
000180 e5 79 19 be e1 fc e6 be 9f a3 6d be f0 32 df be
       -0.14987905 -0.45114806 -0.23206948 -0.4359355
000190 ac 2b be be 36 6e 52 bf 91 a8 36 be fd 78 e2 be
       -0.37142694 -0.8219942 -0.1783774 -0.44232932
0001a0 92 d4 fa 3d 30 0e 7c be 79 3b 36 bd fa 69 29 be
       0.12247576 -0.24614787 -0.04449031 -0.16544333
0001b0 00 65 db be a0 08 37 bf 79 8d 91 c0 0b 6f b1 bd
       -0.42850494 -0.71497536 -4.5485196 -0.08663758
0001c0 de 9c a0 bc 15 ac f0 3d c0 1a c8 3c a1 df e7 be
       -0.01960605 0.11751572 0.024426818 -0.45287803
0001d0 a6 37 ce 3e f4 38 4f 3d 7c 5e 12 bf 6c 76 75 bb
       0.4027683 0.050591424 -0.5717542 -0.0037454618
0001e0 76 b3 cb be 22 c5 c8 be 93 20 19 3e da 49 92 bc
       -0.39785355 -0.392129 0.14953832 -0.01785748
0001f0 06 fc 3e 3d 76 17 11 be ac 2a 7a 3e 2a ed be 3d
       0.046627067 -0.14169106 0.2443034 0.09322579
000200 7b 8f b4 be 13 1a 75 be a5 b3 9e be e1 4a 04 be
       -0.35265717 -0.23935728 -0.30996433 -0.12919189
000210 76 70 b5 bd a2 e1 35 bd c3 c5 11 bf f8 09 da 3d
       -0.08859341 -0.044404633 -0.56942385 0.10646433
000220 df 2b 16 3e 82 c6 a3 be 08 ed d0 be 46 0e 7e be
       0.14665173 -0.31987387 -0.4080584 -0.24810132
000230 e8 2f 27 bf 04 3b 25 be 04 d4 b0 bc 79 d4 af be
       -0.65307474 -0.16135794 -0.021585472 -0.3434179
000240 b3 c2 cf 3d 66 aa 04 bd df a3 97 be 2a 4d 72 be
       0.10144558 -0.032389067 -0.2961721 -0.23662248
000250 f2 e4 a8 be c3 21 90 be f4 fc 15 bf 30 5b 37 bf
       -0.3298717 -0.28150758 -0.585891 -0.71623516
000260 1c 77 c5 be cd 51 de c0 63 50 70 3d e7 df b9 3d
       -0.38567436 -6.9474854 0.058670413 0.09075909
000270 47 bd 0c be e7 a8 b7 be 7c b6 ad bd 5b 53 5f be
       -0.13744079 -0.3587105 -0.08482072 -0.21809141
000280 73 29 ca 3d f8 cf 6c be fa 38 3f be cb 4d 94 bb
       0.09871187 -0.23126209 -0.18674079 -0.004525875
000290 9f 5b 6c be f3 c0 46 be 73 01 7e be 1a 22 9b 3d
       -0.23081826 -0.19409542 -0.2480524 0.07574864
0002a0 3a 7f c7 3c 0e b0 80 3d 89 c4 a3 3d a1 d3 79 be
       0.024352659 0.0628358 0.079964705 -0.24397136
0002b0 b6 16 25 be c8 d8 a9 bc 67 f1 4a be 92 e1 37 c0
       -0.16121945 -0.020733252 -0.1981865 -2.8731427
0002c0 39 9c 18 3e 1f b9 a6 3d 86 5c ac be 3e 05 d8 3d
       0.14903344 0.08140778 -0.3366434 0.10547875
0002d0 1d 3a 1a 3e ab 15 59 be 1e b5 ca bc b9 01 b6 3d
       0.15061231 -0.21199672 -0.024744567 0.08887047
0002e0 2e e9 c7 be 50 18 9f bd bc d3 0e be 1d 1d c2 3d
       -0.3904509 -0.07768309 -0.13947958 0.09478209
0002f0 fd 28 07 bd 71 dd 8d 3e dc 0c 19 be fb bd 03 be
       -0.032998074 0.2770801 -0.14946312 -0.1286544
000300 8a dc 81 bd da d3 de bd f3 a5 b8 be c5 6b c2 be
       -0.063408926 -0.10880251 -0.3606411 -0.37972847
000310 bb 2d 5f be 46 a7 88 3f c8 62 2b be 70 bc 23 bd
       -0.21794789 1.0676048 -0.16736901 -0.03997463
000320 e6 39 ae 3d e4 9c 2a bf b9 a7 9c be 23 18 d3 3d
       0.08507137 -0.66645646 -0.30596712 0.10307338
000330 a0 4a 38 3e c3 a9 7c be 5c 50 ab 3d fc 33 a5 bc
       0.17997217 -0.24674134 0.08364937 -0.02016639
000340 a6 d1 fa bd ae f0 30 be 21 90 f5 be fc a6 09 bf
       -0.122470185 -0.17279312 -0.47961524 -0.5377042
000350 e8 ee d1 bd 31 74 b9 bd 7a 47 56 bd 3d 89 66 be
       -0.10250646 -0.09055365 -0.05231426 -0.2251329
000360 ce b6 5d 3d f6 ba 24 3d 31 f4 37 3e fd 49 b9 3e
       0.054129414 0.040217362 0.17964245 0.3618926
000370 b0 bb 8f c0 66 6c 7f bd f5 23 10 bf 75 67 46 be
       -4.491661 -0.062359236 -0.56304866 -0.19375403
000380 13 7e ea bd 74 d6 f4 bd 56 96 18 3e 7f 21 11 3e
       -0.11449828 -0.11954966 0.14901099 0.14172934
000390 20 a1 a2 ba a6 3f 1b 3e 26 3e 99 bc e6 1d 84 bd
       -0.0012407638 0.15160999 -0.018706392 -0.06451015
0003a0 42 0c e1 3d 58 be 4c c0 42 6a 13 3e c5 aa 1b 3e
       0.10988666 -3.1991177 0.14396003 0.15201862
0003b0 66 02 b6 bd 9e a8 1a bc 39 52 b0 bd 50 bb 0a 3e
       -0.08887176 -0.0094396155 -0.08609433 0.13548017
0003c0 85 9a 08 bb 05 d9 79 3d b2 20 2f bd e2 b1 a0 bc
       -0.0020844054 0.06099798 -0.04275579 -0.019616071
0003d0 20 21 4c be 6a 3f 93 3e 21 46 08 3e 9d 32 a3 be
       -0.19934511 0.2875932 0.13308002 -0.31874552
0003e0 1f bc fd bc bb 8c d2 bc b2 ec bc be 39 f8 2a 3e
       -0.030973492 -0.025701871 -0.36899334 0.16696252
0003f0 b2 11 56 be 5b 7b 88 bd a6 57 5f 3e e0 94 8b 3e
       -0.20905188 -0.06664153 0.21810779 0.2726202

weight f4 [8, 24, 1]
000000 bb eb 11 be e0 7c 86 3c 64 6e 1d 3d 80 03 a7 be
       -0.1425008 0.016416967 0.038435355 -0.32619858
000010 05 c1 87 bf 8e fd d5 3d eb 15 34 bd e0 36 3d 3d
       -1.060578 0.10448752 -0.043966215 0.04619491
000020 9b 63 22 be b3 31 78 3e 50 eb d8 bd 01 c2 b8 3b
       -0.15858309 0.24237709 -0.10591757 0.0056383614
000030 25 04 f1 bd aa 5c ce 3e 2d 93 9f bd a7 9f ab bd
       -0.11768369 0.40305072 -0.077917434 -0.08380061
000040 c5 57 44 be 2e 22 01 be c0 f2 04 3e d8 42 1e bf
       -0.19174106 -0.12610695 0.12983227 -0.61820745
000050 19 5c f0 3e f2 20 a6 be 7c b7 c8 3b d4 6b b2 bf
       0.46945265 -0.3244701 0.0061253887 -1.3939157
000060 e2 04 b1 3c a3 8d f2 3d 24 5e 2a 3e 8e 29 70 bc
       0.021608774 0.11843421 0.16637474 -0.014658345
000070 01 af 52 bf b2 b1 1c 3d 45 24 ff bd ad 18 13 3d
       -0.82298285 0.0382554 -0.1245809 0.035912205
000080 4c ce 3b 3d e3 5d 35 3e ad 81 2c 3e f8 e4 90 3e
       0.045851037 0.17711596 0.16846342 0.2829969
000090 e9 b4 1b c0 28 c4 10 be 40 92 d4 bd b2 b6 23 be
       -2.4329169 -0.14137328 -0.103794575 -0.15987661
0000a0 bd ce 36 3e e4 bd 6d be ee de fc bd 4a a0 62 3e
       0.17852302 -0.23216969 -0.12347208 0.22131458
0000b0 52 51 0d bf 1d ae 01 c0 b3 d4 24 bd ad ec 29 c0
       -0.5520221 -2.026252 -0.04024191 -2.6550705
0000c0 4e ff 97 3d a8 00 f6 bd 45 b2 cb bd fc 73 cf 3c
       0.074217424 -0.12011844 -0.099461116 0.02532386
0000d0 ca 8a 4c 3e 4e 2d de bd 65 88 e7 be 94 15 d7 3d
       0.19974819 -0.10848485 -0.45221248 0.105021626
0000e0 80 73 69 bb a1 30 99 bb 18 66 dc bd a7 e9 e6 3d
       -0.0035621822 -0.0046749865 -0.1076166 0.112750344
0000f0 4a 00 7c 3d 0c ce 1b bf 9e 68 a6 3d 25 03 39 3f
       0.061523713 -0.6086128 0.08125423 0.72270423
000100 a8 12 2d 3e ff 27 94 3d 19 ff 2b bf 8a 53 1d c0
       0.16901648 0.07234191 -0.67186123 -2.4582238
000110 3f e8 c1 be fa e9 91 be a9 c3 0f be f0 93 85 be
       -0.37872502 -0.28498822 -0.14039482 -0.2608943
000120 56 82 e4 bd 89 85 33 3f 4c 31 96 be 1a c0 fc bd
       -0.11157672 0.70125633 -0.29334486 -0.12341328
000130 2c 7a 10 bd 9e 02 c2 bd 18 cd 1b 3d 55 cc 0e bf
       -0.035272762 -0.094731554 0.03803739 -0.55780536
000140 45 06 b9 3e 36 3b ce 3e b8 e1 07 bc 79 94 a3 3e
       0.36137596 0.4027955 -0.008293562 0.31949213
000150 3d a2 c2 3e 9b e6 92 3d f0 f2 1f 3e 8c b5 1f 3e
       0.38014403 0.07172891 0.15620017 0.15596598
000160 ad 99 4e bc ba a7 89 be 98 0d 4f bb bb 38 ba 3e
       -0.012609881 -0.26885778 -0.0031593796 0.36371407
000170 1a 67 a0 3d ba dd b8 3b 6a 42 92 3e 84 f1 e4 3c
       0.07832165 0.0056416662 0.28566295 0.027947195
000180 51 fe 5b bd 25 10 54 bf 1d 25 ad 3c 67 55 5b 3d
       -0.053709332 -0.82837135 0.021135861 0.053548243
000190 d0 8f 24 be 18 02 54 bc 5e d5 8a 3e 85 4a 02 c0
       -0.16070485 -0.012939952 0.2711591 -2.0357983
0001a0 21 d1 d5 3e 9a 0c 8b 3e 31 11 7d be 0a a8 cd be
       0.41761115 0.27158052 -0.24713589 -0.40167266
0001b0 61 5c 7d 3e 0e 13 f0 bd b6 12 17 be e8 11 14 bd
       0.24742271 -0.117223844 -0.14753231 -0.03614989
0001c0 8c 54 eb 3d 1a 8b 8d bf 22 15 50 be 07 39 9e be
       0.114907354 -1.1058075 -0.20320562 -0.30902883
0001d0 53 c3 d3 bf 17 c1 65 3d ef 85 f3 bd eb c8 de be
       -1.6543983 0.056092348 -0.1189078 -0.43512663
0001e0 c1 5c 96 c0 d8 fc 41 bf ea a6 20 3e 87 85 e4 bd
       -4.6988225 -0.75776434 0.15688673 -0.11158281
0001f0 03 a0 bd be 05 1f 29 bf 45 61 5b be ee af 59 3e
       -0.37036142 -0.6606296 -0.21423824 0.21258518
000200 39 a5 03 bf 44 dc bf bf 34 b9 c3 3d 05 d4 2c be
       -0.51423985 -1.4989095 0.09556809 -0.16877754
000210 c6 b8 93 be e2 60 27 bf 88 f0 b2 bd e4 56 16 3e
       -0.28851908 -0.65382206 -0.08737284 0.14681584
000220 ca 5c 88 3c 09 5e a1 bf af 01 f6 3d 8a 3b 09 bf
       0.016645808 -1.2606822 0.1201204 -0.53606474
000230 6c 5c 71 3c e2 81 07 3d e4 5c c5 bd dd 75 2d be
       0.014731508 0.03308285 -0.09636858 -0.16939493
000240 53 6d 18 3d 7c 3b ce be 8e 4d fb be 61 d2 46 3e
       0.037213635 -0.40279758 -0.49082607 0.1941619
000250 52 3b 83 be 73 5d d0 be 01 6f d4 3e 3b 89 8c be
       -0.25631195 -0.40696296 0.4149094 -0.2744845
000260 18 f4 92 be c9 4a 19 bf 9b 13 9d be 96 05 05 bf
       -0.28701854 -0.5987974 -0.3067902 -0.5196165
000270 d2 f8 7c be dd 3e a4 be 51 8d 74 3e 56 0f 86 3e
       -0.24704292 -0.3207921 0.23882033 0.26183575
000280 b6 78 a8 3e 84 ef f0 bd ec 97 79 bf f8 cc ad 3c
       0.32904595 -0.11764434 -0.9749744 0.0212159
000290 ca 1f 3b 3e 69 be 60 3b 58 26 8e bc a5 e9 68 be
       0.18273845 0.003429318 -0.017352268 -0.22745378
0002a0 65 94 e0 be 11 bd 78 be c0 35 a7 bf 8c a9 a7 3d
       -0.43863216 -0.24290873 -1.3063278 0.081866354
0002b0 7d e8 b3 bf 28 b9 f3 be 36 4e 92 be dc c6 51 3c
       -1.4055325 -0.476022 -0.28575295 0.012803759
0002c0 78 3c ab 3d 5c 5c b8 bf 35 7c 14 bf fb 9f b0 3e
       0.08361143 -1.4403186 -0.58002025 0.34497055
0002d0 a1 6b 42 3e 3e 12 ef bc bc a8 15 c0 59 44 7e 3d
       0.1898637 -0.029183503 -2.3384237 0.0620769
0002e0 5a 1c a3 bf d1 19 cc 3e c8 f8 a6 3c ef 7c f5 bf
       -1.2743027 0.39863446 0.0203823 -1.9178752
0002f0 e8 6c 36 3e f4 e1 14 bf 05 2d 11 c0 2f fa da 3d
       0.17814982 -0.5815728 -2.2683728 0.1069225

bias f4 [8]
000000 39 5d d8 3c bc c1 86 3d 7e f1 4a 3d dc b6 43 bd
       0.02641164 0.06579921 0.04954671 -0.04778181
000010 02 e5 ae 3d 68 21 0f 3e 87 7d 49 bd d7 7b c5 3d
       0.085397735 0.13977587 -0.049191978 0.09642761

weight f4 [24, 8, 3]
000000 45 1c 99 3e e4 38 9a 3e 52 89 94 bf e5 c8 20 3f
       0.2990438 0.3012153 -1.1604407 0.6280654
000010 78 da 8b bf a4 98 af 3e dc 9c 0d bf 96 f6 b4 be
       -1.0926046 0.34296143 -0.55317473 -0.3534438
000020 ee 4b 15 3f 57 f1 6b 3f a5 dc 71 3f 3b d3 dc be
       0.58318985 0.9216513 0.944773 -0.43129906
000030 52 58 1d 3f a2 c1 a7 be 92 c7 6f bf 06 bd bd 3e
       0.6146289 -0.32764918 -0.93663895 0.37058276
000040 0b ce bf be e6 6f cc bc 72 20 91 3c d7 27 61 3d
       -0.37461886 -0.024955701 0.017715666 0.054969635
000050 32 d9 78 bb 5e 13 2f bf 4c 2a 72 bf 65 85 a3 bf
       -0.0037971255 -0.68388927 -0.9459579 -1.2775084
000060 af 3a 1d bf ee 4a b2 3e af c5 09 3e a1 8c 07 3f
       -0.6141767 0.34822792 0.13454317 0.5294896
000070 07 e8 6c 3e ae 83 0d be b1 2e 93 bf 86 5d 82 3f
       0.23135386 -0.13819763 -1.1498624 1.0184791
000080 d7 6d f5 b9 b8 8e 3d bf ae fd 93 bf f7 7c 17 3d
       -0.0004681188 -0.74045897 -1.1561792 0.03698441
000090 c0 04 e8 bd 6a 32 f7 be 78 24 55 3f c0 7b 51 3c
       -0.11329031 -0.4828065 0.8325877 0.012785852
0000a0 5f b4 5d 3e a1 51 39 bc 05 7a dd 3d 19 44 2c 3b
       0.21650837 -0.011310966 0.10814289 0.0026285707
0000b0 6f 68 c2 bd 40 67 96 bf 60 6f d4 3e 47 cb 06 c0
       -0.094925754 -1.1750259 0.41491222 -2.106157
0000c0 fe 1d 6a be d7 c9 70 3f 4c 5c d8 3d 92 39 c7 3e
       -0.22863004 0.94057983 0.10564479 0.3891111
0000d0 3c 12 eb 3e 06 70 72 3c fb b5 6e bd 99 45 bd be
       0.4591235 0.014797216 -0.05827902 -0.3696716
0000e0 a7 a3 9f 3d 50 8c a8 be 53 2a 2b 3f 99 52 a5 bd
       0.07794886 -0.3291955 0.66861457 -0.08072395
0000f0 29 f7 e3 3d c3 21 c6 bd 55 8b 3d 3e 04 6c 36 3e
       0.111311264 -0.09674408 0.18510182 0.17814642
000100 a6 28 2e bf 67 af 8a be b7 31 a4 3b b3 4a 57 3d
       -0.68030775 -0.27086946 0.0050108093 0.052561473
000110 62 5f 2d 3e 77 fd 97 be 27 fe 30 be 2e d6 bd be
       0.16930917 -0.29685566 -0.17284451 -0.3707747
000120 88 74 12 3d 3b 46 87 3d 91 86 e7 3e 35 ae 4d 3d
       0.035755664 0.06605192 0.45219854 0.050214965
000130 74 1b a2 3e 4a 11 81 3f d3 64 ab bc e4 07 f0 3d
       0.3166157 1.0083401 -0.0209221 0.11720255
000140 e6 47 52 bc b2 84 0c 3e 32 3e f0 3e df ed e9 bd
       -0.012834525 0.13722494 0.4692245 -0.114223234
000150 f6 08 83 3e 43 1f e2 be 78 b2 c1 3e 67 33 ad be
       0.25592774 -0.44164476 0.37831473 -0.3382828
000160 31 71 51 3f a8 4f 0f c0 fd 39 6c 3c 01 ef be 3e
       0.8181334 -2.2392368 0.014418122 0.3729172
000170 c9 52 87 be bd 66 82 be 78 ca 48 c1 18 d6 00 bf
       -0.26430348 -0.25469008 -12.549431 -0.5032668
000180 56 eb 87 be a1 92 51 3f 49 25 06 3e f9 92 5d 3f
       -0.26546735 0.8186436 0.1310016 0.8655239
000190 2e 59 5f bf 8b 82 da 3e 03 a1 4d bd 1f b9 fd 3d
       -0.8724545 0.4267772 -0.05020238 0.12388825
0001a0 fe e6 59 3f dc fa 32 be 4b 2b af bd 92 b2 55 bd
       0.8511809 -0.17478508 -0.08553179 -0.05217225
0001b0 72 e4 6d 3f 26 24 c3 be 01 c8 d5 bd 72 c3 78 3f
       0.92926705 -0.38113517 -0.10438538 0.97173226
0001c0 98 5b 34 3e 39 e5 08 3f f3 81 b4 3c a7 c7 f4 bd
       0.17613065 0.53474766 0.02203462 -0.11952143
0001d0 eb e3 64 3e 6d 95 8b bd 9c 83 1b 3f d0 42 93 be
       0.22352569 -0.0681561 0.60747695 -0.2876191
0001e0 4e 1c 5e 3d 4d d3 69 3f 2a 7f f4 be aa 4f 80 be
       0.054226212 0.91338044 -0.47753268 -0.2506078
0001f0 b1 ab 32 3e 88 b0 e0 3d 19 5e cd 3d c7 6d db bd
       0.17448308 0.10971171 0.10027713 -0.10714298
000200 1d 5a 0e bf 13 3d ea be ee 24 2d 3e be 11 a1 3d
       -0.5560625 -0.4574972 0.16908619 0.07864712
000210 f3 65 88 bc 78 9c 03 3f 8c 87 8e 3d 72 e4 80 3e
       -0.016650176 0.5141063 0.06959447 0.2517429
000220 83 98 98 3f 0a 5b 5e 3e 2b a2 ac be ec 70 98 be
       1.1921543 0.21714416 -0.33717474 -0.29773653
000230 17 ff 06 3e 18 3a 96 3d 4b ab ba 3e 4a 10 3a bf
       0.13183247 0.07335299 0.3645881 -0.72681105
000240 87 71 83 bd b6 4f b8 bd 27 1b f4 3c 33 55 40 bf
       -0.06418138 -0.08999579 0.029798103 -0.75130004
000250 68 22 40 3e 47 8e 6a bf 7a a7 ed 3e fd 20 f7 3e
       0.18763125 -0.9162335 0.46416837 0.48267356
000260 43 b7 84 3f 58 87 43 bf 0b e1 9a 3e ab 81 03 be
       1.0368427 -0.76378393 0.3024982 -0.12842433
000270 90 ed 59 3f 56 83 84 bf ea 6e 95 bf 91 d3 09 bf
       0.85128117 -1.035258 -1.1674473 -0.5383845
000280 c8 3f 65 be 45 99 54 bf 13 80 f9 bd e4 1b 98 bd
       -0.22387612 -0.8304637 -0.12182631 -0.07427195
000290 7c 85 ad bb a8 fc db 3f 91 bf 9a 3f 82 e9 45 c0
       -0.0052954536 1.718648 1.2089711 -3.0923772
0002a0 ac 56 ce be 83 b3 3f 3e 97 30 fd 3d fb 86 1d 3f
       -0.403005 0.18720822 0.123627834 0.6153409
0002b0 9f 7c 3e bf 91 f7 01 bf b3 49 eb be 08 1d 3c bf
       -0.74408907 -0.5076838 -0.45954666 -0.734818
0002c0 ea 33 f2 3e d5 9f 3e 3e 3c 6a d7 3e 27 4d c0 3e
       0.47305232 0.18615659 0.42073238 0.37558863
0002d0 c8 78 d1 3d be 08 3f 3d e1 61 9e be 2c 4d a4 3e
       0.10228115 0.046639197 -0.3093405 0.32090127
0002e0 ee 64 b0 bf b6 ee 5e bf 67 fa 5e 3e 7f cd e8 bd
       -1.3780801 -0.87082994 0.21775208 -0.1136732
0002f0 7c 3d a7 bc 21 7f aa 3e e1 d7 e3 be b3 47 b4 3e
       -0.02041506 0.33300117 -0.4450064 0.35210952
000300 0d 20 86 be f0 63 a4 3e 69 e3 2c 3f a7 c6 81 3e
       -0.26196328 0.32107496 0.675345 0.25346872
000310 7c f0 d2 3e bd a9 44 3f d8 9e ee be 92 51 0a 3f
       0.411991 0.768215 -0.46605563 0.54030716
000320 df 7e 08 be 14 96 a3 3e b4 0b 34 bf 05 c5 97 3f
       -0.13329647 0.31950438 -0.7033036 1.1857
000330 00 2b 85 be 1f 08 c9 be f2 0d 0d be cd c4 a3 3e
       -0.2600937 -0.39264008 -0.13774851 0.31986085
000340 22 6f 94 3d d1 dc f4 be de 9d 0a 3e 9f f4 1f 3c
       0.072477594 -0.4782472 0.13536784 0.009762912
000350 a2 95 ac 3e c9 db 5e 3f a9 ce 34 3f 96 c6 16 3e
       0.3370791 0.87054116 0.7062784 0.14724192
000360 38 74 6a 3c a3 71 34 be c1 90 53 3d 47 4c 1f 3f
       0.014309935 -0.17621474 0.05165172 0.62225765
000370 8d 47 21 3e 05 36 03 3e 41 eb 3d bf 10 56 0d bf
       0.1574995 0.12813576 -0.74187094 -0.55209446
000380 57 d1 88 be c9 61 f7 3c 72 4d 08 3e 64 59 6a bf
       -0.26722214 0.030197995 0.13310793 -0.9154265
000390 41 17 20 3d fb 88 c9 3e f4 cd c0 3e 37 0e ce 3e
       0.039084677 0.3936232 0.3765713 0.4024522
0003a0 73 00 42 bf 2a fb 32 3f 1e 1d e3 3e 86 78 fa bc
       -0.75781935 0.69914496 0.44358152 -0.030575048
0003b0 ed b4 6d 3e 5f cc c0 be e3 87 1a be 64 e7 7e 3f
       0.23213549 -0.37655923 -0.15090899 0.99571824
0003c0 85 a2 4e 3e 67 6b e8 3e 8e 67 62 bd dd 7b db 3d
       0.20179184 0.4539444 -0.05527454 0.107169844
0003d0 3f af 87 bf f7 bd a2 3c f1 db b8 bd 64 71 30 3f
       -1.0600356 0.019865973 -0.090263255 0.6892302
0003e0 46 83 1e bf cf ec 9b 3c 45 fe 93 be e2 38 0e be
       -0.6191906 0.019033818 -0.2890493 -0.13888887
0003f0 60 3b 73 be 77 32 15 3f 26 3c 49 bf 6a 57 c1 3e
       -0.23753119 0.5828013 -0.78607404 0.37762004

bias f4 [24]
000000 30 22 00 3f 69 bb 18 3e 5e 1e be 3e 6a 15 b2 3d
       0.50052166 0.14915241 0.37132543 0.08695491
000010 25 58 24 3e 4f a0 b2 bd a8 94 89 bc 09 7a b3 3d
       0.1604925 -0.08721983 -0.016794518 0.08763511
000020 48 b5 28 3e 65 65 a3 bd bf 23 43 3d 22 2f 01 be
       0.16475403 -0.07978324 0.047641512 -0.12615636
000030 45 2f a7 3e dc ba 08 3e ba e6 52 bd 6c 83 53 3e
       0.3265325 0.13352531 -0.05148957 0.20655602
000040 d9 bc eb 3d 1c bd cd 3c 8c fe d1 be 47 ee 46 3e
       0.11510629 0.025114588 -0.41014516 0.19426833
000050 a3 29 5b 3d 9a 57 0c 3d 61 4e fd 3d 19 45 ec 3d
       0.053506505 0.03426323 0.12368465 0.11536617

weight f4 [8, 24, 1]
000000 2a 13 00 3d cf b1 85 bc 33 ac af bd 08 75 ef 3c
       0.031268276 -0.016320137 -0.08577766 0.02923061
000010 66 a2 cd 3d ed 13 a9 ba f6 52 97 bf a3 f4 b6 3c
       0.10040741 -0.0012899615 -1.1822193 0.022333449
000020 ad 79 57 c0 dc f4 22 3d a3 62 c5 bf c9 07 1b bf
       -3.3668015 0.039784297 -1.5420727 -0.60558754
000030 b5 fd 79 bd 44 7e 76 bd 36 fc 90 be dc ac 0b be
       -0.06103297 -0.06017901 -0.28317422 -0.1364016
000040 6a 26 e2 bc a2 8a 91 3d 20 18 ce 3c 9c 85 ff bf
       -0.027606208 0.0710652 0.025157988 -1.9962649
000050 ec 24 cb 3d a1 40 64 3c 03 f9 4b c0 a3 9a 39 bf
       0.09919152 0.013931424 -3.1870735 -0.7250158
000060 82 1f 83 be 2e 6b 76 be 73 c8 0f bf 80 bf f0 bd
       -0.25609976 -0.24064323 -0.56165236 -0.11755276
000070 af e3 e7 bd 57 7d b3 be 4c 80 6b bd 09 f5 08 3d
       -0.11322724 -0.35056564 -0.0574954 0.03343681
000080 5a a6 88 be f5 86 08 3f a0 58 f2 be ab ba ad be
       -0.26689416 0.5333093 -0.4733324 -0.3393148
000090 c1 3f 6f bc f8 7b dc 3d e9 c7 10 bf 8a de 94 bd
       -0.014602602 0.10765833 -0.5655504 -0.072690085
0000a0 20 99 d5 be 7c e2 8d be 17 78 56 bd 1f d1 97 3e
       -0.41718388 -0.27711856 -0.05236062 0.29651734
0000b0 3a db 3b bf 53 a2 83 bd 33 28 4a 3e 40 58 92 bd
       -0.7338139 -0.06427445 0.19741897 -0.071457386
0000c0 eb d8 89 bd d4 b5 23 bf 3b c7 4b 3d b9 b0 bb 3a
       -0.06730827 -0.6394932 0.049750548 0.0014319635
0000d0 d3 90 c1 3d 57 e5 5d 3d 6d 84 3a 3d 96 9b b8 be
       0.09451451 0.054173794 0.045536447 -0.36056203
0000e0 2a a8 95 bd 78 57 c0 bc a9 59 be 3c 21 b6 a3 3e
       -0.073074654 -0.023479208 0.023236113 0.3197489
0000f0 95 91 5d 3e ba 8b bc 3e ce 5c 89 3d 4d 00 6e 3e
       0.21637566 0.36825353 0.06707154 0.23242302
000100 9f ac bb be 6c 5f 3d 3e 25 e4 47 be 43 b1 95 3b
       -0.36655137 0.18493432 -0.19520624 0.0045682504
000110 04 4d b8 3d 61 ab 20 bd 9e 25 98 3d 99 7a ab 3e
       0.089990646 -0.03922594 0.0742905 0.33491972
000120 c6 cf 68 be fb 4e f0 3c c2 9c 2d bd 79 84 91 3d
       -0.2273551 0.029334536 -0.042385824 0.07105345
000130 35 f1 52 be 33 0c cb be 05 58 16 bf 47 6e 8a 3c
       -0.20599826 -0.39657745 -0.5872806 0.016898287
000140 cc 4e 42 be 15 12 b4 bd 41 46 8d 3e 91 91 5a 3e
       -0.18975371 -0.087925114 0.27592662 0.21344592
000150 6f b5 38 3e 0c 12 fe bd 23 08 2c 3e 12 29 9f 3d
       0.18037961 -0.12405786 0.16799979 0.077715054
000160 e4 8b 1e bd cd 65 a8 be bb 82 a9 3d 6a 0b e7 bc
       -0.03870763 -0.32890168 0.08276888 -0.028203685
000170 c3 b0 1b be 9a 3d 79 3e e5 77 0b be ac b7 70 be
       -0.15204148 0.24339905 -0.13619955 -0.23507565
000180 5d fd 36 bf 99 ef e7 be bd 82 c2 bf e5 cc c9 be
       -0.7148035 -0.45299986 -1.5196148 -0.39414135
000190 78 79 0e c0 0a 78 2b 3e 2d 7e d4 3d d0 36 8e 3c
       -2.2261639 0.1674501 0.103756286 0.017360121
0001a0 b3 2b 01 be ab 92 1b 3e 47 c6 88 3b 47 ed 96 be
       -0.12614326 0.15192668 0.004174027 -0.29477903
0001b0 bd 17 9f bc b1 3c 94 be e4 09 9d bd 8f a8 96 bf
       -0.019420499 -0.28952554 -0.07667902 -1.177019
0001c0 c8 f6 54 c0 f2 e6 23 be 10 81 80 3d 93 d2 eb be
       -3.3275623 -0.16006067 0.06274617 -0.46059093
0001d0 f6 9d 37 c0 78 d5 8e bd 2e c0 64 bf a2 b8 d1 bc
       -2.8690162 -0.0697431 -0.8935574 -0.025600735
0001e0 bd e4 84 bc 0d 0f ef bd 93 c7 01 be ce f0 df c0
       -0.016222352 -0.116727926 -0.12673788 -6.998145
0001f0 50 88 03 bd a8 fc 3f c0 f5 f6 fd 3d ef 73 a4 bd
       -0.03211242 -2.999796 0.12400619 -0.08029925
000200 da 90 11 3d a4 8d ba bc 9b b5 8b bd 0a 39 ab be
       0.03553853 -0.022772618 -0.06821748 -0.33441955
000210 dd 9b e8 bd 8c 54 8f be af da 04 be e1 66 f7 bd
       -0.113578536 -0.27994192 -0.12974046 -0.120801695
000220 73 bc 00 3e 13 c4 ff be 86 d9 29 bd 27 b2 10 3e
       0.12571888 -0.4995428 -0.041467212 0.1413046
000230 0c 4a 16 be d3 bd f4 be 41 d6 1f bd 9a fb d3 ba
       -0.14676684 -0.47801074 -0.039022688 -0.0016173006
000240 46 f1 8a 3d 90 7c 69 3d c4 9e 6d 3e a3 e5 01 bc
       0.067843005 0.057003558 0.23205096 -0.007928285
000250 f5 f7 72 bf b8 96 76 be e2 3b 50 be 98 c4 10 bd
       -0.949096 -0.24080932 -0.20335343 -0.035343736
000260 20 d6 db bd c5 07 ad bc ab 00 b3 bd d7 d3 12 bf
       -0.107342005 -0.021121869 -0.08740362 -0.5735449
000270 37 15 2c 3c c0 52 23 3e 3f 15 80 3e ec 53 dc 3d
       0.010503105 0.15949535 0.2501621 0.10758194
000280 0e fd 3e bd 81 ee e4 3e 4c 97 f4 3c 39 12 7b be
       -0.04662805 0.44713214 0.0298573 -0.2451867
000290 05 3c 06 be 87 8a ed bc bd 58 98 3d 55 da e8 3d
       -0.13108833 -0.028996719 0.074388005 0.113697685
0002a0 4e 14 7b bf f6 e5 a3 3e b3 6b 31 3c 63 e5 55 3e
       -0.9807786 0.32011384 0.0108289 0.20888285
0002b0 cf 0d 44 bf 93 a4 19 bd 94 b7 f0 be 23 5a 7d be
       -0.7658357 -0.037510466 -0.4701506 -0.24741416
0002c0 40 11 ae 3c be ac ec bd 3b 17 99 bd 94 bd a0 be
       0.02124846 -0.115563855 -0.07475134 -0.31394637
0002d0 35 89 82 3d 21 11 f1 3d 5c 0b 84 3d 70 9a a1 3d
       0.063738264 0.11770845 0.06447479 0.07890785
0002e0 87 0d 6b be 67 43 76 be 26 a2 36 be 78 93 1f bd
       -0.22954379 -0.2404915 -0.17835292 -0.038958997
0002f0 2c 10 52 3f 82 e8 5f 3c 3d 84 65 3d 92 c5 5e 3e
       0.82055926 0.013666274 0.056034315 0.21755055

bias f4 [8]
000000 d1 c7 32 3e d4 b2 1e bd a9 9c 02 bd 07 6b ba 3d
       0.17459036 -0.038744763 -0.031887684 0.09102445
000010 69 16 43 3e e4 22 8a 3e a4 b6 d6 3d 6b 6d 6f 3d
       0.19051518 0.26979744 0.10484055 0.05845396

weight f4 [24, 8, 5]
000000 91 9d fb bf f2 1f ff bf ad 6c 3c bf f6 5b e0 be
       -1.965746 -1.9931624 -0.73603326 -0.4382016
000010 0d 54 a5 be 46 cf 9e bd 68 7a 37 3d 1a 42 be 3d
       -0.32290688 -0.07754378 0.04479447 0.092899516
000020 c2 9e 0f be 20 e0 06 3e b8 2b 32 3e 02 e8 2e be
       -0.14025405 0.13171434 0.1739949 -0.17080691
000030 db f3 c4 3e 27 66 18 3f 49 49 ca be 39 36 b4 be
       0.38467297 0.5953087 -0.39509037 -0.3519762
000040 ad c2 82 bf 7e 25 33 bd 38 6b 10 bf e0 91 02 3f
       -1.021566 -0.043736927 -0.564136 0.5100384
000050 18 63 98 bf 88 47 9b bf 6f 97 af 3f 94 b6 af be
       -1.1905241 -1.2131205 1.3718089 -0.34318984
000060 d6 81 cb be 3e 18 84 bf e4 d5 14 bf ae 3e 00 bf
       -0.39747494 -1.0319898 -0.5813887 -0.5009564
000070 3c 95 17 3f 55 c3 9c bc f3 4f c5 bf 2b f3 71 bf
       0.5921209 -0.01913611 -1.5415024 -0.9451167
000080 88 bd 25 bd a3 12 7e bd cb b5 81 bf 21 54 d3 bf
       -0.040463954 -0.062029492 -1.0133604 -1.6510049
000090 ec d1 85 bf 95 07 62 3f 19 9f 8c bf 29 10 a7 be
       -1.0454688 0.8829282 -1.0986053 -0.32629517
0000a0 32 cc 0d 3f e4 26 37 bf 41 45 80 3e 14 38 9e 3e
       0.553897 -0.7154372 0.25052837 0.3090216
0000b0 73 5b 97 bd 50 a9 14 bd a2 98 18 3e 84 d3 6b 3d
       -0.073904894 -0.03629428 0.14901975 0.057574764
0000c0 66 d5 51 3c a6 d9 ab 3e 09 10 7e 3f 89 93 d8 3e
       0.012807226 0.3356449 0.9924322 0.4230006
0000d0 aa 7a b7 bd 55 e3 62 3e 49 66 ae 3e 3d c9 ca 3e
       -0.08958943 0.22157033 0.34062412 0.39606658
0000e0 7f 66 2c be 69 af a4 3e 30 ef 47 3d 91 d6 1c be
       -0.16835974 0.32165077 0.04881209 -0.15316226
0000f0 57 b3 8f 3f 44 91 ab bf 8e 22 72 be 79 75 2d bd
       1.1226605 -1.3403707 -0.23645994 -0.04234836
000100 58 44 80 bd 9c 79 c2 3e 99 62 0d bf d7 c5 99 3d
       -0.062630355 0.37983406 -0.55228573 0.07508438
000110 81 ff c1 3d 02 6f 0a 3e 74 c9 7e 3f e1 6d c5 3e
       0.09472562 0.13518909 0.99526143 0.38560393
000120 a5 d0 01 bf d9 71 24 3f e0 9a 3e 3f d2 63 fc bc
       -0.5070899 0.6423622 0.7445507 -0.030809317
000130 62 2d 31 3f bf 46 07 bf b6 45 51 bb f3 f9 67 bd
       0.69209874 -0.52842325 -0.003193242 -0.056634855
000140 3b 39 e9 bd 84 7f 0c bd 81 cd 5d bf 24 6e 42 3e
       -0.11387869 -0.034301296 -0.866417 0.18987328
000150 9e e5 39 3e 6d 6e 92 3e bb 13 de bc f7 2c a5 bd
       0.18153998 0.28599873 -0.027109018 -0.08065217
000160 7c 54 ab 3d fb 25 55 3e de 46 e1 bd 3a ef 21 3e
       0.083657235 0.2081527 -0.10999845 0.15813914
000170 9f 06 21 3e 25 8d c8 bd 9a eb 80 bd fa 4d 51 bd
       0.15725182 -0.09792546 -0.062949374 -0.051099755
000180 f1 db 40 be 9b 06 1a 3e 9d 65 9c 3e f6 5a 16 3e
       -0.18833901 0.15041582 0.30546275 0.14683136
000190 fa 93 cc bd 03 5d fe bd 19 e7 59 3f 6d 34 a6 3d
       -0.09989162 -0.12420084 0.8511825 0.08115468
0001a0 9b be 95 3e 26 55 98 bd f2 7c 17 3e 3a 83 dc bd
       0.29246983 -0.07438116 0.14793757 -0.10767217
0001b0 12 45 a2 3e 26 37 6e 3e 74 58 6d 3e c3 6f e0 3d
       0.3169332 0.23263225 0.23178273 0.10958817
0001c0 f9 12 00 bf 05 2b 6d 3e 3e 12 91 3d ab 84 47 3d
       -0.5002895 0.23160942 0.070835575 0.048710506
0001d0 38 05 43 bc 77 22 46 3f 7c e0 2f be e5 52 08 3e
       -0.0119031 0.7739634 -0.17175478 0.13312872
0001e0 86 09 1a c0 96 ee bd be 03 e1 60 3f 8c f0 0b 3d
       -2.4068313 -0.3709609 0.8784334 0.03416495
0001f0 de ce 71 bf 23 45 3c be f8 09 88 3d 37 f7 81 3b
       -0.9445628 -0.18385749 0.066425264 0.003966238
000200 36 2f d2 3d aa 30 1c be ff 1b 80 3e 6e 42 6c 3d
       0.10262911 -0.15252939 0.2502136 0.05768054
000210 b1 ea a3 3e f9 47 9a be 2c 83 84 bd 62 fc 40 c0
       0.32014993 -0.30133036 -0.064703315 -3.0154042
000220 01 e4 b7 be d8 33 89 bd 92 f9 4c be a4 31 19 c0
       -0.3591614 -0.066993415 -0.20017079 -2.3936548
000230 09 d7 c2 bf 68 b5 25 be 11 26 9d 3d f6 c3 a3 3c
       -1.5221874 -0.16182482 0.07673276 0.019990902
000240 67 a9 ed be 80 98 b5 bf ba eb 09 be 69 37 cf 3f
       -0.46418306 -1.4187164 -0.13468829 1.6188785
000250 81 bf 21 3e 14 bd a8 be 6b ad 8c c0 35 0a 8c bd
       0.15795709 -0.32956755 -4.396169 -0.06837884
000260 05 56 92 3e ad 3c 67 bd cd 07 b2 3a f8 c4 dd 3e
       0.28581253 -0.05645435 0.0013582647 0.43314338
000270 b3 b6 a3 3d 48 f8 11 bf a8 1c 54 3e bc eb 54 bd
       0.079938315 -0.5701947 0.20714056 -0.051982626
000280 12 b4 58 bf 4d 99 e5 bd 2a 9c dd be b0 52 20 3d
       -0.84649765 -0.112108804 -0.43283206 0.039141357
000290 60 49 b9 3d 7c 9e b1 bd ba 44 39 3c 0b 5b e5 bd
       0.09047198 -0.086728066 0.01130789 -0.11199006
0002a0 5f 5e be 3d 2d d6 c9 bc 65 47 f6 3c 61 88 00 3e
       0.092953436 -0.02463826 0.03006334 0.12552024
0002b0 da d0 a9 3e 59 aa 04 bf cc 00 01 bd 92 db 20 bf
       0.33167154 -0.5182243 -0.0314949 -0.6283504
0002c0 d9 92 f4 bd 72 71 9c 3e 11 b0 34 3e 7c 39 3c 3d
       -0.119420715 0.30555302 0.17645289 0.04595326
0002d0 c8 0d 27 bf 43 53 54 be 7e bd b6 3f 7c 54 08 bf
       -0.65255404 -0.20734887 1.4276578 -0.5325391
0002e0 94 6a 8a be 1b 60 0d 3d e2 f9 48 3f f3 04 95 3e
       -0.27034438 0.03451548 0.7850629 0.29105338
0002f0 57 ae 0d 3f 5e 17 4a 3f 5a db 57 3e 23 f9 89 3e
       0.55344146 0.78941905 0.2107977 0.2694789
000300 bc e7 e7 be 91 12 30 3f 32 ec 55 3f 04 58 3e bf
       -0.45293987 0.6877833 0.8356353 -0.7435305
000310 d9 6e 2d bf bc 4a 76 3f 3f 33 73 bd 4e 7c a4 3c
       -0.67747265 0.96207786 -0.059375044 0.020078804
000320 38 61 89 be 31 f8 0c 3f e9 3d 08 3d 0a 8b ef 3d
       -0.26831985 0.5506621 0.033262167 0.116964415
000330 56 7a ef 3e 99 63 49 be 45 fb b4 bd 4c 7a 05 be
       0.46773022 -0.196669 -0.08836988 -0.13034934
000340 3a ed 3c be e7 93 ce bd ee 71 34 3e ab da b3 3e
       -0.1844987 -0.10086804 0.17621586 0.35127768
000350 01 9f 20 bf fe 61 37 3f a2 fd 38 be f9 37 11 3f
       -0.6274262 0.716339 -0.18065503 0.5672603
000360 5e b8 44 bd 51 88 46 3e dd bf 0a 3e 83 6d d1 3e
       -0.04802739 0.19387938 0.13549753 0.40903863
000370 39 ee 30 3e af 20 ce 3e 66 1f 78 3f de a8 ec 3e
       0.17278375 0.4025931 0.9692291 0.46222585
000380 cc 7d 96 3e da 66 e7 3d 89 f8 d2 3d ac f4 51 3f
       0.2939285 0.11298914 0.103013106 0.82013965
000390 1c 32 c2 be 4e aa 88 3e 28 e4 3e 3e 5f 7b 1b bd
       -0.37928855 0.26692432 0.18641722 -0.037959453
0003a0 6d ad 5d 3f 31 e8 d0 be 45 a8 01 3f 96 ea 2c bf
       0.8659275 -0.40802148 0.50647384 -0.6754545
0003b0 6d 7a 97 3e 82 e5 1c bf a2 51 98 be 1a 52 a5 bd
       0.2958559 -0.612877 -0.2974978 -0.080723
0003c0 a5 f7 08 3f 45 0d a5 bf c4 87 25 3e 80 ae 66 be
       0.53502876 -1.2894675 0.16165072 -0.22527504
0003d0 68 d4 9b bd a3 55 5b be 18 12 65 3d fb 16 7c 3d
       -0.07608873 -0.21419387 0.05592546 0.061545353
0003e0 fe ec a1 3c 3b dd 0d 3d 6f 7c bf 3f aa 51 5a bf
       0.019766327 0.03463481 1.4959849 -0.8528086
0003f0 9b 0a 0c 3f 1d 5e 85 3e bb ad 17 bf 73 71 c3 be
       0.5470368 0.26048365 -0.59249467 -0.38172492

bias f4 [24]
000000 e4 32 2a 3f 66 14 83 3d 91 8d ba 3e f6 27 a8 3e
       0.664839 0.06400375 0.36436132 0.32842988
000010 06 1d b0 3c b0 09 9a bd 98 39 10 3e 6c 8f 58 3e
       0.021498214 -0.07521379 0.1408447 0.21148461
000020 58 1f 24 3e b2 50 91 bd 5a 77 98 3b 43 ae 99 bd
       0.16027582 -0.070954695 0.0046528997 -0.07503941
000030 53 04 97 3e 50 45 83 3e d4 c0 26 be fa 2e 47 3e
       0.29495487 0.2563882 -0.16284496 0.19451514
000040 6a 99 62 3d 00 a5 12 3e cb 93 b1 bd 24 68 99 3e
       0.05532209 0.14320755 -0.086707674 0.29962265
000050 8e 77 ff bc 28 c8 0b be 64 4c ac 3e e4 33 3f be
       -0.031184938 -0.13650572 0.3365203 -0.18672138

weight f4 [24, 24, 1]
000000 62 ee 11 3f b8 3d 06 bf 35 43 81 3e 74 f4 bd 3f
       0.5700437 -0.52437925 0.25246587 1.4840226
000010 f1 3c fe bf 91 9f b3 bf 6a 57 f5 be f4 b2 0f c0
       -1.9862348 -1.4033071 -0.47918254 -2.2452974
000020 99 71 7d 3f 9e 8b 12 3f 93 e4 16 3f 97 24 39 bf
       0.9900146 0.5724429 0.58942527 -0.72321457
000030 30 2b 5f 3e a0 7f aa 3e 4e e0 6f 3f 84 00 28 3f
       0.21793818 0.33300495 0.93701637 0.65625787
000040 46 fb 44 be 28 39 b6 be 4f 23 6b 3e 8a fb 81 3e
       -0.19236478 -0.35590482 0.22962688 0.25387222
000050 39 39 da 3f 1f 41 fb be bc dd 16 bf 7d 23 79 bf
       1.7048713 -0.4907312 -0.5893209 -0.97319776
000060 2c 59 e6 3e a5 8d c4 bd e5 c0 8a be bf 94 8e bf
       0.44989908 -0.09597329 -0.27100292 -1.1139144
000070 9d c5 ba be 3a 44 6b be 05 46 59 3e bd 34 9b 3f
       -0.36478892 -0.22975245 0.21218117 1.212547
000080 78 52 cd 3d db 03 87 3f 1b 17 85 3e 56 b4 9e be
       0.10025495 1.0548052 0.2599419 -0.3099696
000090 1a a9 87 3d a6 32 33 be fb 32 5f 3f 90 8d 40 bf
       0.066240504 -0.1749979 0.87187165 -0.7521601
0000a0 be d3 ab bf eb fb 83 3c 09 d8 27 3e d8 e5 ea 3e
       -1.3423994 0.016111335 0.16391005 0.45878482
0000b0 c3 a3 e0 bd 13 cf 83 be d7 4a 66 3e 65 5d 55 3c
       -0.10968735 -0.25743923 0.22489487 0.013022755
0000c0 62 28 ae be e0 7f 0b bf 43 10 0f bf e6 56 9e 3e
       -0.34015185 -0.54491997 -0.5588419 0.30925673
0000d0 2b 90 73 bc 1d 37 b4 be 8f a2 e9 be 83 82 f9 be
       -0.014865915 -0.35198298 -0.45631835 -0.48732385
0000e0 0a 80 ae be e1 ba 79 be 81 f6 e0 3d 4f 0e 57 bf
       -0.3408206 -0.24387695 0.10984517 -0.8400621
0000f0 5b 2e 18 bf ef 25 16 bf 1f 71 64 bf 72 38 07 3e
       -0.5944573 -0.5865163 -0.8923511 0.13205126
000100 10 09 29 3e af 6f 1c bd 8f 16 a6 be 3a 9d 9e 3e
       0.16507363 -0.038192447 -0.32439086 0.3097933
000110 5b d0 e1 be 00 c0 a5 be 33 57 96 be 31 bd 75 3e
       -0.44104275 -0.32373047 -0.29363403 0.23997952
000120 b0 e0 3e 40 55 2a 30 bf 24 83 e7 3e a0 c1 ea 3f
       2.9824638 -0.68814594 0.4521724 1.834034
000130 5a 7c 7b bf dd 12 8e be 30 14 36 c1 9a 9d f0 3e
       -0.9823662 -0.27748767 -11.379929 0.4699524
000140 91 d2 fe c0 8b b5 37 3f 17 bc 48 c0 a2 98 18 bf
       -7.963204 0.7176139 -3.13648 -0.596079
000150 d7 7a b0 bf e9 b4 63 3f 8b 43 5f 40 a6 fa 4b 3f
       -1.3787488 0.8894792 3.4884975 0.79679334
000160 99 c9 51 40 51 10 bb 3e ae 74 02 3c 3e 2a 08 40
       3.2779295 0.36535886 0.007962389 2.1275783
000170 7f 39 f4 bf 86 87 12 bf 77 d8 9e be 4b 26 69 c1
       -1.9080046 -0.5723804 -0.31024525 -14.571849
000180 27 52 3b be c7 e7 c7 be 8d 70 93 3e 69 21 80 be
       -0.18293057 -0.3904402 0.28796807 -0.2502549
000190 23 00 7f be 74 50 0a 3e 7f 6d bb be e9 67 4f 3d
       -0.24902396 0.13507253 -0.36606976 0.050636206
0001a0 7e 09 4d bf 58 8c 98 bd a6 a6 da be 18 65 e8 3d
       -0.8009261 -0.074486434 -0.42705268 0.11347407
0001b0 6d 4a b6 3d 98 2c df be 41 e9 04 be 43 fc 01 bf
       0.08900914 -0.4358871 -0.12979604 -0.50775546
0001c0 52 70 ab be 51 ea 11 be c4 b3 b8 bd cc 88 8c 3c
       -0.3348413 -0.14249541 -0.090186626 0.017155074
0001d0 04 87 49 be f6 82 89 be aa 4e d2 3c 5c 70 3a 3b
       -0.1968041 -0.26857728 0.025672276 0.002844832
0001e0 3f 61 bc bd 12 af 0e be 8d c7 98 be f1 55 e6 be
       -0.09198236 -0.13933972 -0.29839745 -0.44987443
0001f0 35 54 69 3c 35 df 20 bf 7e 4c 3d be ab 66 09 bf
       0.014241268 -0.62840587 -0.1848621 -0.53672284
000200 56 2e 4c bc cf fd 7e 3c 0a dc db be c6 45 0d 3e
       -0.012462219 0.015563442 -0.42941314 0.13796148
000210 86 04 75 3e 9d cd f4 be ba 55 4c be 3d f6 38 be
       0.23927507 -0.4781312 -0.19954577 -0.18062682
000220 a0 38 ae 3d a8 eb 3e bd c7 b5 f9 3d 23 2b b3 be
       0.08506894 -0.046611458 0.121928744 -0.34993848
000230 79 12 9e be 87 2c 92 be 0d 86 be be 77 f1 c7 bd
       -0.3087347 -0.28549597 -0.37211648 -0.09762853
000240 09 97 21 bf 1f 7a 4d 3e f4 71 7f bf 0b ba 6d bf
       -0.63121086 0.20066117 -0.99783254 -0.92862004
000250 cd c2 3d 3e 68 4e 26 bf 23 2c 3c be 4f a5 5a be
       0.18531342 -0.6496339 -0.18376212 -0.21352123
000260 db 0c 1f bf 43 22 b1 3d 98 59 2c bd a3 20 1b bf
       -0.6212899 0.08649113 -0.04207763 -0.60596675
000270 0e 77 05 be 87 54 d8 be c1 d9 e0 be 1d 1b 44 bf
       -0.13033697 -0.4225199 -0.43916133 -0.7660387
000280 81 64 03 bf 7d 95 d5 be 1a a6 2d 3e d0 43 80 3e
       -0.5132523 -0.41715613 0.16957894 0.25051737
000290 0e dd 5d bf 66 28 91 bf 98 d8 48 be 5a af 3a 3e
       -0.8666543 -1.1340454 -0.19613874 0.18230954
0002a0 97 5d 55 bf cb 22 36 bf bc 37 0c be bc 78 b0 3d
       -0.8334593 -0.7114684 -0.13693136 0.08616778
0002b0 ab 03 e3 3e a0 d4 40 3c 7a 4d 37 bf 19 d2 01 bf
       0.44338736 0.011769444 -0.71602595 -0.5071121
0002c0 37 b2 5f 3f 90 0f 45 3e 60 20 fe 3e 88 9f 3a bf
       0.8738131 0.19244218 0.49634075 -0.72899675
0002d0 28 6b 81 bf 83 00 cc be d0 d5 94 3e 01 1f 9d 3e
       -1.0110826 -0.3984414 0.29069376 0.30687717
0002e0 ce 63 d8 3e 51 0f 60 be cf ce 5f bf 94 b8 e9 bf
       0.42263645 -0.21880843 -0.8742494 -1.8259454
0002f0 53 d7 5b 3f 11 96 2f 3d 42 25 4d 3f f4 1e 5c be
       0.85875434 0.042867724 0.80134976 -0.21496183
000300 d3 2c 3c be 55 2d 8d 3e a2 f9 5e be bf 57 fb be
       -0.18376474 0.27573648 -0.21774915 -0.49090382
000310 64 9c f4 be 86 ed 4d be ca 76 c4 be d8 10 a7 be
       -0.47775567 -0.20110139 -0.3837188 -0.32630038
000320 5d 54 c6 bd 66 5e 46 be 3b 0d eb 3c 4a 8a ce bd
       -0.0968406 -0.19371948 0.028692832 -0.1008497
000330 20 0f c3 be 53 cc b6 3d 41 15 bc bd 3a 19 64 be
       -0.38097477 0.089256905 -0.09183741 -0.22275248
000340 34 dd 36 bf b4 e2 a0 3e cf 92 67 be 5b 36 df be
       -0.7143128 0.3142296 -0.22614597 -0.43596157
000350 bb 96 81 bd fc 7f 41 3c 88 4c f3 bc ad 40 a0 be
       -0.06327578 0.011810299 -0.029699579 -0.31299344
000360 c7 d1 2b 40 4c 38 b5 3d 11 10 b1 c0 25 e1 dc 3f
       2.6846788 0.088486284 -5.533211 1.7256209
000370 d7 10 fa be 68 de c8 3e 2e 17 17 3f eb 17 83 3f
       -0.48840973 0.39232183 0.59019744 1.0241674
000380 04 49 0a bf 88 74 3b 3e ad 8a 0f 40 a5 70 e1 3e
       -0.54017663 0.18306172 2.242839 0.44031253
000390 fb a9 38 3f 21 0a 95 be 5c 2d 78 bf 2e 86 92 3e
       0.7213437 -0.2910929 -0.9694421 0.28617996
0003a0 4d 41 8f bf 1e b5 1a c0 72 82 8c bf 39 48 fa 3f
       -1.1191803 -2.4173045 -1.0977309 1.9553291
0003b0 3b 82 2c 3f 0c cc 8e 3e b2 26 93 3f 11 3a 04 c0
       0.67386216 0.2789005 1.1496184 -2.066044
0003c0 56 2f 2b be b2 21 14 3f 0c c4 96 bc 64 dc ce bd
       -0.16717276 0.57863915 -0.01840403 -0.1010063
0003d0 cf c2 a7 be bf 29 86 bf e9 55 b8 3e b2 b7 a1 bd
       -0.32765815 -1.048149 0.36003044 -0.07896365
0003e0 ae a2 95 bf a0 fe 04 3d 31 66 4b 3d cb 4b 67 bf
       -1.1690271 0.03246939 0.049658004 -0.90350026
0003f0 09 38 c3 3e 47 7b 9f 3d c1 bd ae 3e ea db f1 3e
       0.3812869 0.07787185 0.34129146 0.47238094

bias f4 [24]
000000 5b 2a 6f be 43 b4 4b 3d 9a c8 ce bc 95 c2 7a bf
       -0.23356001 0.049732458 -0.025242139 -0.9795316
000010 d0 17 e3 bd 52 76 33 bd e3 0f 99 3d ec 03 ba 3d
       -0.11088526 -0.04381401 0.07473733 0.09082779
000020 19 e6 70 be 1c 7e 43 bf 67 ef dd 3e 3b 3b 86 be
       -0.23525275 -0.763643 0.43346712 -0.26217064
000030 4f b4 21 bf d2 cf a9 be 7e 96 4c be d1 e8 9c 3e
       -0.63165754 -0.33166367 -0.19979283 0.30646375
000040 e3 93 96 bc c8 f3 c8 3c 20 d8 5c 3e b7 ef 7f be
       -0.018381065 0.024530306 0.2156682 -0.24993788
000050 ef 51 08 3e 06 60 fb 3d f8 b9 cf bd 19 d6 a5 bf
       0.13312505 0.122741744 -0.101428926 -1.2955962

weight f4 [8, 24, 1]
000000 d8 ed db bd 92 d2 cd bf a8 fa 67 bd 70 06 8a be
       -0.107387245 -1.6079886 -0.05663553 -0.26958036
000010 a2 27 2d bf e5 e6 4d 3e 76 fd 98 3f c4 18 56 bf
       -0.676386 0.2010761 1.195235 -0.8363154
000020 15 10 da be 24 65 9b bf 7c 6c 0c c0 84 e2 b1 bf
       -0.42590395 -1.2140241 -2.1941214 -1.3897252
000030 f3 f8 24 c0 4c ff fd 3d 3d 7d bd 3e 26 e9 b9 3d
       -2.5776947 0.1240221 0.37009612 0.09077673
000040 e0 b9 cc 3d 48 6f cb 3f 68 c2 b5 bf fd 19 e4 bf
       0.0999639 1.5893335 -1.4199953 -1.7820431
000050 ba 21 c1 3e 9a 7e e2 3e c1 72 c0 3f 14 2c 42 c0
       0.37721044 0.44237214 1.503502 -3.0339403
000060 2f e9 06 3e 1c b8 c7 bc c5 9e 90 be e6 dc de 3d
       0.1317489 -0.024379782 -0.28246132 0.10881977
000070 d7 51 65 be 84 41 16 3f 3b e6 f2 ba 04 27 4e bf
       -0.223945 0.5869372 -0.0018531749 -0.80528283
000080 11 88 a1 3e 06 d5 48 3f 24 17 05 bf 38 07 7d 3e
       0.31549123 0.7845005 -0.51988435 0.24709785
000090 32 8c f5 be 6c 81 2f bf 9e 72 0b bd 88 ba 09 3e
       -0.47958523 -0.6855686 -0.034044854 0.13450062
0000a0 28 88 80 3e 6b f5 dd bc c4 35 e7 bd c2 ab 50 3d
       0.2510388 -0.027094563 -0.11289552 0.05094505
0000b0 f4 f8 25 be da 22 29 be 34 a1 07 bd 49 b8 14 3e
       -0.1620825 -0.16517201 -0.03311272 0.14523424
0000c0 58 f6 2b 3e a2 80 c4 bd 24 c1 31 3f 95 5d c3 be
       0.16793191 -0.09594847 0.69435334 -0.38157335
0000d0 71 56 a6 be f8 02 e8 3e cf 84 2e bf 3a b1 92 be
       -0.32487825 0.45314765 -0.681714 -0.28650838
0000e0 6d e8 b6 3e a0 e9 f7 be 9e bf 33 bd 36 7c 87 3f
       0.35724202 -0.4842043 -0.043883912 1.0584781
0000f0 9c e3 89 be 5f 39 cf 3e d9 ba f2 3e 91 fb 84 be
       -0.26931465 0.40473458 0.47408178 -0.2597318
000100 a5 05 d1 3d a7 6d 14 bf ff 06 4f be db 2d f5 be
       0.10206155 -0.57979816 -0.20217513 -0.47886547
000110 12 17 51 3d b2 66 3a 3e c4 f1 d6 ba d6 9f c5 3e
       0.051047392 0.18203238 -0.0016398956 0.38598508
000120 c1 59 ec 3a ac ef a1 bc ec 3a fd be b6 7a 22 bd
       0.001803212 -0.019767605 -0.49459016 -0.039667808
000130 c6 a6 91 3e 17 ac f9 3e f2 74 48 bc c6 5d 7c 3e
       0.2844755 0.48764107 -0.012234913 0.24645147
000140 2d 78 ae 3c ee 3a 12 3e c9 22 84 3c 99 eb d3 3d
       0.021297539 0.14280292 0.016129868 0.10347671
000150 1c 8d b8 3d d2 2b 64 bd 68 d1 e7 3d af 64 fa bd
       0.090112895 -0.055705853 0.11319238 -0.12226235
000160 56 73 3c bd 3d 26 6a 3d f1 d2 1b 3d 80 47 f7 bb
       -0.04600843 0.057165373 0.038042966 -0.0075463653
000170 90 d1 02 be 9a c5 fc bd 76 64 0e 3e bc da d7 3c
       -0.12775254 -0.12342377 0.1390551 0.026349418
000180 e1 10 8a 3c 06 c6 49 3c b4 1d 4d 3f 80 a7 67 3c
       0.016853752 0.012315279 0.8012345 0.014139056
000190 70 bb 96 bd 52 0a 44 be 38 91 8c bd b8 33 14 be
       -0.073599696 -0.19144562 -0.06863636 -0.14472854
0001a0 1a 94 f5 bc 12 c5 7a 3d 1d 99 20 bd e4 6d d8 bc
       -0.029977847 0.061223097 -0.03920852 -0.026419587
0001b0 68 4b f7 3b ac 5b fc 3d 63 f2 a4 3d 0a 3a 62 3e
       0.007546831 0.123221725 0.08054044 0.22092453
0001c0 04 84 09 3d 6d bb d4 3c 38 78 88 bd 50 a4 02 3e
       0.033573166 0.025968278 -0.06663555 0.12757993
0001d0 7d 0d 30 bd b7 c1 d9 bd 3b e5 68 bd ec 11 97 bd
       -0.042981613 -0.10632651 -0.056859236 -0.07376465
0001e0 db b1 04 be db 54 1e 3e 98 0d fe bc 78 ea 35 3e
       -0.12958471 0.15462057 -0.031012341 0.17765224
0001f0 16 67 ac 3d 7b ce b9 3e 89 08 5e 3e 67 34 32 bf
       0.084180996 0.36290345 0.21682943 -0.6961121
000200 26 cc 96 bd dc 30 73 3e 18 0c 20 bd 71 1a 2b 3f
       -0.07363157 0.23749107 -0.039074033 0.6683722
000210 2c 06 9b be 9d ce c7 3e 94 c4 60 bd 97 18 ba be
       -0.30278146 0.3902482 -0.05487497 -0.36346886
000220 69 9e c4 3e b3 4b 42 be 68 29 a4 bd e7 ed f0 3c
       0.38402107 -0.1897419 -0.0801571 0.029410316
000230 8e 9f 42 3d 80 c3 7e 3e 53 1d 67 3d ab 42 75 be
       0.047515444 0.24879265 0.05642445 -0.23951213
000240 ba 71 fb 3c 03 59 57 3f 21 8f 13 bf 44 26 2f 3f
       0.030693877 0.84120196 -0.5764027 0.68417764
000250 8b ce 21 3b 2a d9 d0 be c0 cb 93 c0 da 27 c7 bf
       0.002468976 -0.40790683 -4.618622 -1.5559037
000260 96 21 89 be e5 d9 f7 3e 2e 70 98 bd 8f e6 9c bf
       -0.26783437 0.48408428 -0.074432716 -1.2257861
000270 cc 2d 4f 3e ac 06 5f bf 60 eb 02 c0 9b ad a7 3d
       0.20232314 -0.87119555 -2.0456161 0.081874095
000280 8c 3b 7f 3f e2 bd c4 3e ea 07 e8 be af 70 88 3e
       0.99700236 0.3842612 -0.45318538 0.2664847
000290 78 da 08 be 39 30 80 be 62 7a d0 3d 80 28 c8 be
       -0.13364589 -0.2503679 0.10179593 -0.390934
0002a0 b4 2a 8b 3e d1 7a b0 be a8 bb 03 bf f9 d0 d7 bf
       0.27181017 -0.344687 -0.51458216 -1.6860648
0002b0 c2 f9 f4 3c b6 38 7e bf 90 a6 69 be 91 c8 f8 3e
       0.02990425 -0.99305284 -0.22817445 0.4859052
0002c0 55 b1 06 3f cf 78 20 3d 6c f9 73 be 2b 5c 31 bf
       0.5261434 0.039177712 -0.23825616 -0.6928126
0002d0 cb fc 20 3f 08 70 d6 3e 93 db 84 3f fc 6a b6 3e
       0.6288573 0.41882348 1.0379509 0.35628498
0002e0 64 48 82 3e 0a b3 d4 3d 76 07 8b 3e e8 fa 9a 3e
       0.25445855 0.103857115 0.2715413 0.3026955
0002f0 57 06 8b 3e 89 c5 42 bf 86 97 d7 3f da df c5 be
       0.27153274 -0.76082665 1.6843116 -0.38647348

bias f4 [8]
000000 1f 14 32 3e f9 f3 cb 3e 65 6e 8c be 6c 3a b8 3c
       0.17390488 0.39834574 -0.27427974 0.022488795
000010 9e df 2c be f7 67 08 be 93 cc 3c bc 14 af 67 be
       -0.16882178 -0.1332091 -0.011523384 -0.22625381
