models/resnet_mt_3-4_cath95.pth (torch_old, 355808 bytes, 131 tensors)

weight f4 [24, 22, 1]
-0.1080261 -2.7991288 -1.8534359 -3.3622327 -0.78496283 -3.5427334 -0.3986126 -0.92755085
-1.0546653 -0.02633208 -0.07074933 -1.3752584 -0.012114653 -2.4083397 -0.17678542 -0.6617277
-3.6857889 -3.6366107 -1.8516524 -0.9850354 -2.3951006 -7.5199804 -0.26980674 -0.028151365
0.32384178 -0.077253945 -0.07855278 -0.2950534 -0.28721085 -0.03528736 -0.11776825 -0.017319491
-0.025493631 -0.29367605 -0.0017947189 -0.1294095 -0.26566654 -0.14814308 -0.10122371 -0.04482028
-0.1455253 -0.06528198 -0.11042381 -0.74457276 -0.22642575 -0.019967938 -1.2418386 0.30709508
-0.05047299 -0.6682556 -0.09427152 -0.07134564 -0.17523544 -0.14639771 -0.048535116 -0.06329494
-0.17877853 -0.5523317 -0.49945435 -0.02337629 -0.47018504 -0.043732964 -0.7674882 -0.16954625
-1.1561526 0.3019365 -0.10597052 -0.52805907 -0.52897143 -5.7128778 -3.8426213 -1.4505733
-0.49979076 -0.5017892 -2.2725048 0.1592975 -0.48641872 -0.5119523 -0.32251588 -0.17651299
-1.0838457 0.45976126 -0.051170576 -0.10989885 -1.9606266 -0.9031226 -1.4873157 -4.742756
-3.431107 -0.571064 -0.13651356 0.020515308 -0.07586147 -1.4852126 -0.33154473 -0.019568644
-0.16749805 -0.757896 -0.069585964 -0.5057022 -0.15639284 -0.59141904 -0.4046907 -0.0581605
-0.121578686 -0.021650178 0.19866519 -0.38467702 -0.42284596 -0.8413782 -0.7579412 0.34710008
-0.1846571 -0.89744407 -0.90145737 -0.7398942 -0.42140192 -3.4093144 -0.43811327 -0.12902883
-0.16783632 -4.305783 -0.44155902 -1.2589908 -1.5272087 -1.4652145 -0.2208146 -0.040095977
-0.08908559 -2.419184 -4.897839 -0.9549776 -0.8973625 -0.87656474 0.06349696 -1.6652223
-2.2596998 0.4593765 -0.27421418 -1.247319 -5.198475 -3.4443698 -1.6504817 -1.4988006
-0.27506495 -0.03576928 -4.1579213 -1.9689243 -0.16201915 -3.7983384 -5.3756933 0.14882527
0.23647013 -10.911905 0.06845534 -0.40172568 -1.6770068 0.24679129 0.4172418 -1.4941922
-1.3997779 -0.9707211 -2.7639205 -0.1634515 -1.5379984 -0.9169075 0.096234985 -0.41902256
0.13208188 -0.3875577 -0.049263515 -0.14710785 -2.4026747 -0.8450253 -0.020786928 -0.46466896
-1.9831955 -1.7209855 -1.0360315 -0.21351925 -2.3403738 -0.6995181 -3.1808672 -0.020856062
-2.1302748 -1.8886693 -1.2989157 -0.09980134 0.3825338 -1.2999054 -2.0510564 -1.0596113
-0.4188452 -1.6354336 -3.1726491 -1.1878568 -0.9739889 -2.313396 0.042158406 -0.079732075
-1.2389228 -4.444537 -0.24618033 -2.5584939 -9.528189 -1.9570055 -0.0905345 -0.31310734
-0.0559911 0.50627494 -4.631818 -7.81453 -0.7106855 -0.006415369 -0.24472941 -0.035140336
-0.042064346 -0.18987523 -0.6664255 -10.095085 -0.07583124 -0.09424799 -0.91864634 -0.6326789
-0.92176545 -0.1237194 0.45779547 -0.22015134 -0.62902904 -0.2623859 -1.8929827 -0.07302247
-0.0738934 -8.070512 -0.12681495 -0.9685051 -0.5592211 -0.7715999 -0.54714316 -0.9676683
-4.194024 -2.1789112 -0.29483578 -0.3752083 -3.867848 -0.11471393 -0.04199624 -0.21210259
-0.4929951 -0.046428576 -0.106412105 -0.6915093 -0.5099795 -1.0587977 -0.12737794 -0.0027018327
00000000: ca3c ddbd ed24 33c0 633d edbf d22e 57c0
00000010: 53f3 48bf 25bc 62c0 f316 ccbe f973 6dbf
00000020: 46ff 86bf 60b6 d7bc 06e5 90bd 7808 b0bf
00000030: 8a7c 46bc 3d22 1ac0 3d07 35be fd66 29bf
00000040: f7e3 6bc0 3bbe 68c0 f202 edbf 482b 7cbf
00000050: 5449 19c0 aea3 f0c0 1c24 8abe b19d e6bc
00000060: 97ce a53e 5137 9ebd 48e0 a0bd 3d11 97be
00000070: 4d0d 93be 7b89 10bd 7b30 f1bd 9be1 8dbc
00000080: 05d8 d0bc b55c 96be c63c ebba ed83 04be
00000090: 7205 88be d2b2 17be 604e cfbd 7895 37bd
000000a0: 9604 15be 8fb2 85bd e125 e2bd 529c 3ebf
000000b0: 27dc 67be cd93 a3bc 91f4 9ebf 913b 9d3e
000000c0: c4bc 4ebd cd12 2bbf 6d11 c1bd aa1d 92bd
000000d0: eb70 33be 48e9 15be c2cc 46bd c7a0 81bd
000000e0: b811 37be 9c65 0dbf 7bb8 ffbe a27f bfbc
000000f0: 18bc f0be 5621 33bd 1b7a 44bf 889d 2dbe
00000100: cffc 93bf 6c97 9a3e 1207 d9bd e12e 07bf
00000110: ac6a 07bf e5cf b6c0 82ed 75c0 63ac b9bf
00000120: 93e4 ffbe 4275 00bf b870 11c0 e21e 233e
00000130: e00b f9be 4e0f 03bf cd20 a5be d2bf 34be
00000140: 75bb 8abf d465 eb3e 3d98 51bd a612 e1bd
00000150: d0f5 fabf 0b33 67bf 5c60 bebf a8c4 97c0
00000160: 4297 5bc0 4031 12bf 36ca 0bbe b80f a83c
00000170: 425d 9bbd 721b bebf 3bc0 a9be 6c4e a0bc
00000180: 9c84 2bbe 7905 42bf 1683 8ebd b375 01bf
00000190: 7225 20be 3d67 17bf 9f33 cfbe b439 6ebd
000001a0: 3ffe f8bd b75b b1bc e36e 4b3e 63f4 c4be
000001b0: 447f d8be 9064 57bf 6f08 42bf 1ab7 b13e
000001c0: c016 3dbe e5be 65bf e9c5 66bf b569 3dbf
000001d0: fec1 d7be 3532 5ac0 6250 e0be 2220 04be
000001e0: 49dd 2bbe f9c8 89c0 0614 e2be 9c26 a1bf
000001f0: 937b c3bf 268c bbbf 391d 62be ae3b 24bd
00000200: 8172 b6bd e9d3 1ac0 19bb 9cc0 6979 74bf
00000210: 8cb9 65bf 8c66 60bf b20a 823d 0126 d5bf
00000220: ec9e 10c0 6633 eb3e cd65 8cbe 26a8 9fbf
00000230: e859 a6c0 8e70 5cc0 fc42 d3bf b3d8 bfbf
00000240: 50d5 8cbe cf82 12bd b10d 85c0 b605 fcbf
00000250: 59e8 25be fa17 73c0 ae05 acc0 a765 183e
00000260: 3a25 723e 2a97 2ec1 5032 8c3d fdae cdbe
00000270: 29a8 d6bf dbb6 7c3e b8a0 d53e b141 bfbf
00000280: ec2b b3bf 2e81 78bf 13e4 30c0 d45f 27be
00000290: 22dd c4bf 73ba 6abf d916 c53d 208a d6be
000002a0: 7940 073e f66d c6be 8ac8 49bd 71a3 16be
000002b0: 6cc5 19c0 9453 58bf 5949 aabc 17e9 edbe
000002c0: 5ad9 fdbf 4149 dcbf ae9c 84bf caa4 5abe
000002d0: afc8 15c0 9e13 33bf 5493 4bc0 55da aabc
000002e0: 6c56 08c0 eabf f1bf df42 a6bf a564 ccbd
000002f0: 78db c33e 4d63 a6bf 8244 03c0 58a1 87bf
00000300: e172 d6be e355 d1bf af0c 4bc0 b10b 98bf
00000310: 5657 79bf ae0e 14c0 4bae 2c3d 924a a3bd
00000320: 0695 9ebf a639 8ec0 b216 7cbe 5dbe 23c0
00000330: 7673 18c1 287f fabf 276a b9bd 9b4f a0be
00000340: ec56 65bd 3c9b 013f da37 94c0 a110 fac0
00000350: 7cef 35bf 0438 d2bb 599a 7abe 50ef 0fbd
00000360: aa4b 2cbd a76e 42be dd9a 2abf 7885 21c1
00000370: 694d 9bbd 1705 c1bd 682c 6bbf 3ff7 21bf
00000380: d2f8 6bbf 9960 fdbd 2b64 ea3e 5a6f 61be
00000390: 0c08 21bf 7257 86be 424d f2bf ce8c 95bd
000003a0: 6c55 97bd d120 01c1 c7db 01be f3ef 77bf
000003b0: 1d29 0fbf 9287 45bf 9311 0cbf 1cb9 77bf
000003c0: 7235 86c0 4873 0bc0 b7f4 96be 4d1b c0be
000003d0: d28a 77c0 23ef eabd 4004 2cbd 6c31 59be
000003e0: db69 fcbe e42b 3ebd 97ee d9bd c106 31bf
000003f0: 048e 02bf af86 87bf 5d6f 02be 3b11 31bb

weight f4 [24]
-0.015480488 -0.01205424 0.010291722 0.011280766 0.013489902 -0.0010360855 0.023141103 0.09358302
0.006416943 -0.00030198004 0.001502397 -0.006401887 0.012937855 0.0060075955 -0.021023959 0.0053690905
0.0022411065 0.02629806 -0.015842784 0.012855214 0.005480205 -0.015839467 -0.0009176968 0.037453722
00000000: dfa1 7dbc 267f 45bc 9c9e 283c f6d2 383c
00000010: c004 5d3c 43cd 87ba 6992 bd3c 74a8 bf3d
00000020: 3845 d23b 1353 9eb9 14ec c43a ecc6 d1bb
00000030: 4cf9 533c 5ddb c43b 703a acbc 32ef af3b
00000040: 87df 123b 076f d73c bac8 81bc ad9e 523c
00000050: 4b93 b33b c5c1 81bc 9791 70ba 1369 193d

weight f4 [24, 24, 3]
-0.034791686 0.17555872 -0.013900896 -0.85496944 -0.17962405 -1.8898956 -1.4620416 -0.8448674
1.1744552 1.413622 0.18637496 0.775156 -0.079350635 0.46152663 -0.98358756 -0.12960199
-0.63192314 -0.6240067 0.6463963 -0.17823224 0.10449371 0.45425186 -0.40775955 -0.6912046
0.58353025 -0.24936403 0.33447158 -0.39019322 0.091035254 -0.35841793 -0.20630132 0.0941068
0.14737503 -0.49839947 0.49370828 -0.18473288 0.5104518 -0.8004006 0.47852913 0.77621484
0.1871563 0.10067207 0.08893927 0.09683898 -0.1415759 0.049568836 -0.80379856 0.13294369
0.53138995 0.08295253 0.6314433 1.4051511 -1.3409771 0.15454233 -0.015474957 0.15562943
-0.009353944 -0.043503426 -0.044960674 -0.080303416 0.10966993 -0.30331624 -0.30136663 -0.83758587
0.17368263 -0.9845124 0.29226032 -0.004655384 -0.10993759 -0.1214783 -0.40354317 -0.07764188
0.03184811 -0.0049502607 -0.09896889 2.3434503 -0.6480867 -0.6098085 -1.1880182 -0.27159548
-0.6226931 0.044887796 -0.21008836 -0.040622935 0.25878328 -0.40138173 0.5811255 1.0074773
0.49118242 -0.09083991 0.9058169 -0.19357836 0.06878009 -0.35730037 0.18349633 0.62909615
0.4789329 -0.084632605 -0.052515335 -0.08397506 -0.10963033 -0.21320665 1.0021727 0.2619942
-0.22234173 -0.09906288 -0.19173312 -0.11091539 -0.15813151 -0.19943592 0.19154531 0.40921876
1.4424692 1.0022138 -0.12827364 -0.13818134 0.08284845 0.44886133 0.11347906 -0.56386566
0.31435692 0.49198353 -0.31386915 1.1814566 0.38565585 -1.3767691 0.0048955637 0.09648033
0.058246523 -0.031433247 -0.16769078 0.42021468 -0.46775073 -0.094700135 0.11393636 -0.29654709
-0.19452663 0.42287117 0.019919781 -0.21307123 -0.011535787 -0.18272619 0.2858145 -0.20233056
-0.104202256 -0.014240048 -0.00942877 -0.20372331 1.5959232 -0.057096727 -1.5581387 0.5420487
-0.46922308 -0.031618923 0.5385998 -0.3723612 0.3644648 -0.17198627 -1.728758 -0.58979917
0.17729783 -0.00658466 -0.3956679 -0.15442522 0.8933699 -0.9740698 -0.3734303 -0.0273562
0.27277797 -0.7407825 0.38648155 0.45582142 -0.16730836 0.074862175 -0.34866142 0.5263203
-0.27359903 -2.0962162 0.84067446 0.6421757 0.30152944 0.31045836 -0.5117553 0.1299549
-0.076084584 -0.49184075 0.10197588 0.08070101 -0.143283 0.24915072 0.5234046 0.73501843
-0.21218137 -0.26810208 -0.019052511 0.82048 -0.46659973 -0.12889543 0.04264622 -0.008211233
0.016713286 0.98392165 -0.46876127 -0.34396783 -0.34800145 0.5038253 0.47391003 -0.105544426
0.5146693 -0.43917876 -0.14311743 -0.10041177 0.25775966 -1.1198646 0.6637248 -0.23830816
0.26679358 -0.0034444623 -0.024669629 0.85883445 -1.131254 2.1319666 0.04587463 -0.27770615
-0.4420533 0.50605756 -0.5247515 0.4627059 -0.20089293 0.36380544 -1.1074778 1.3773043
-1.0565901 0.5465946 0.041598205 0.21283601 0.27999035 -0.0934077 -0.26898715 -0.40123734
0.12832043 -0.11878718 -0.15179747 0.073760696 0.067086086 -0.42070925 0.22852159 -0.4752552
-1.0811573 -0.27523598 0.2816545 -0.22568475 -0.20294914 -0.55148417 0.2664538 0.16418421
00000000: ba81 0ebd aac5 333e 95c0 63bc 47df 5abf
00000010: 5eef 37be 19e8 f1bf 2e24 bbbf 3b49 58bf
00000020: 8c54 963f 91f1 b43f 14d9 3e3e a070 463f
00000030: 9682 a2bd 384d ec3e 65cc 7bbf 62b6 04be
00000040: b7c5 21bf e7be 1fbf 3a7a 253f 8382 36be
00000050: cc00 d63d b393 e83e dcc5 d0be c9f2 30bf
00000060: 3d62 153f 4959 7fbe dc3f ab3e 68c7 c7be
00000070: b170 ba3d 8e82 b7be a740 53be 11bb c03d
00000080: 7be9 163e 372e ffbe 55c7 fc3e 9e2a 3dbe
00000090: f8ac 023f 0ee7 4cbf c501 f53e 04b6 463f
000000a0: e7a5 3f3e 292d ce3d cb25 b63d 8453 c63d
000000b0: 46f9 10be b108 4b3d bec5 4dbf 6422 083e
000000c0: 2c09 083f 04e3 a93d 45a6 213f fedb b33f
000000d0: 23a5 abbf 5840 1e3e ad8a 7dbc 525d 1f3e
000000e0: 4941 19bc a630 32bd af28 38bd 1e76 a4bd
000000f0: a19a e03d 444c 9bbe ba4c 9abe 076c 56bf
00000100: dcd9 313e 0109 7cbf 25a3 953e 318c 98bb
00000110: f626 e1bd 9dc9 f8bd 369d cebe b502 9fbd
00000120: 2a73 023d cc35 a2bb 34b0 cabd 17fb 1540
00000130: 03e9 25bf 691c 1cbf fb10 98bf 900e 8bbe
00000140: d168 1fbf 44dc 373d 6721 57be 3c64 26bd
00000150: 3e7f 843e e881 cdbe a4c4 143f 04f5 803f
00000160: 437c fb3e 460a babd 9ee3 673f 6839 46be
00000170: 93dc 8c3d 13f0 b6be 76e6 3b3e 720c 213f
00000180: b136 f53e dc53 adbd 521a 57bd 1efb abbd
00000190: de85 e0bd d852 5abe 3247 803f 1b24 863e
000001a0: 8dad 63be 7be1 cabd b055 44be 9c27 e3bd
000001b0: 3aed 21be ee38 4cbe 7424 443e 1f85 d13e
000001c0: d5a2 b83f 8b48 803f 2a5a 03be 697f 0dbe
000001d0: 73ac a93d 27d1 e53e b667 e83d 8059 10bf
000001e0: 64f3 a03e 44e5 fb3e 75b3 a0be f839 973f
000001f0: af74 c53e f839 b0bf f76a a03b 7b97 c53d
00000200: e893 6e3d 26c0 00bd 22b7 2bbe 6126 d73e
00000210: 067d efbe 25f2 c1bd 7757 e93d 05d5 97be
00000220: fd31 47be 9282 d83e cf2e a33c 582f 5abe
00000230: 9900 3dbc 931c 3bbe 4756 923e be2f 4fbe
00000240: fe67 d5bd 174f 69bc 217b 1abc d89c 50be
00000250: 3647 cc3f 42de 69bd 1771 c7bf b4c3 0a3f
00000260: 023e f0be d882 01bd ade1 093f 21a6 bebe
00000270: 219b ba3e 2b1d 30be f147 ddbf 14fd 16bf
00000280: 908d 353e 22c4 d7bb fc94 cabe a521 1ebe
00000290: e4b3 643f a35c 79bf 4232 bfbe 1c1a e0bc
000002a0: 8ea9 8b3e eca3 3dbf e9e0 c53e 6d61 e93e
000002b0: e252 2bbe 5751 993d c083 b2be edbc 063f
000002c0: 2c15 8cbe 6828 06c0 7136 573f a065 243f
000002d0: 1162 9a3e 66f4 9e3e 6502 03bf e612 053e
000002e0: 3cd2 9bbd 8dd2 fbbe bbd8 d03d 9246 a53d
000002f0: c7b8 12be 5e21 7f3e d8fd 053f 2b2a 3c3f
00000300: 1346 59be ad44 89be 0314 9cbc fa0a 523f
00000310: 29e6 eebe 2afd 03be cead 2e3d 6888 06bc
00000320: 4dea 883c 4ae2 7b3f 7a01 f0be 8d1c b0be
00000330: 3f2d b2be b2fa 003f 56a4 f23e ad27 d8bd
00000340: 5ec1 033f 0adc e0be 608d 12be b0a4 cdbd
00000350: 13f9 833e b957 8fbf dee9 293f 0e07 74be
00000360: 2b99 883e 7dbc 61bb f617 cabc 93dc 5b3f
00000370: eecc 90bf 2472 0840 09e7 3b3d 802f 8ebe
00000380: cf54 e2be fd8c 013f 1d56 06bf cae7 ec3e
00000390: e0b6 4dbe b544 ba3e d5c1 8dbf 824b b03f
000003a0: 583e 87bf a0ed 0b3f e162 2a3d aff1 593e
000003b0: e55a 8f3e 894c bfbd afb8 89be fb6e cdbe
000003c0: 6e66 033e b146 f3bd cc70 1bbe d90f 973d
000003d0: 6e64 893d 3467 d7be 9001 6a3e a654 f3be
000003e0: 5d63 8abf bbeb 8cbe 0535 903e e719 67be
000003f0: e6d1 4fbe 112e 0dbf a26c 883e e81f 283e

bias f4 [24]
-0.46288848 -0.38663173 -0.46070662 -0.35491368 -0.53129613 -0.60519636 -0.42665306 -0.305236
-0.174574 -0.23834382 -0.222329 -0.38853097 -0.3006292 -0.22590035 -0.9338094 -0.36050525
-0.5199638 -0.39859232 -0.3082674 -0.37708116 -0.30423725 -0.31614786 -0.7377693 -0.48665792
00000000: b8ff ecbe 98f4 c5be bde1 ebbe 3fb7 b5be
00000010: 0603 08bf 26ee 1abf 4572 dabe e547 9cbe
00000020: 87c3 32be 6710 74be 37aa 63be 88ed c6be
00000030: 12ec 99be 6c52 67be 220e 6fbf 2594 b8be
00000040: 591c 05bf 4b14 ccbe 3ad5 9dbe c810 c1be
00000050: fcc4 9bbe 22de a1be 73de 3cbf 3a2b f9be

weight f4 [24]
0.062277418 0.10888 0.13521838 0.114066616 0.0578879 0.08577057 0.022172943 0.07128995
0.15180099 0.105750516 0.08980351 0.07943303 0.09231782 0.13537532 0.017759101 0.054232348
0.03371357 0.007194695 0.086049505 0.10060113 0.11425243 0.0798758 0.011157637 0.08429588
00000000: 9b16 7f3d 7afc de3d b076 0a3e c29b e93d
00000010: dd1b 6d3d 7ba8 af3d 08a4 b53c 7700 923d
00000020: b871 1b3e ba93 d83d e7ea b73d c9ad a23d
00000030: 2011 bd3d d49f 0a3e 897b 913c bd22 5e3d
00000040: 3e17 0a3d 7ac1 eb3b b93a b03d f707 ce3d
00000050: 2efd e93d ec95 a33d 86ce 363c 51a3 ac3d

weight f4 [24, 24, 3]
0.44055566 -0.50514674 -0.121135145 -0.36868572 0.42638224 -0.27511507 -0.0956653 0.0025989295
0.16714245 -0.15513144 0.039795388 -0.04106144 -0.43167555 0.27394152 -0.52068967 -0.17015098
0.31987336 -0.31883153 0.18845859 0.4681559 -0.019970113 -0.3171063 0.26183987 -0.3768664
0.15677205 -0.092732586 -0.14968222 -0.14343071 -0.20792413 -0.075700305 0.33816984 0.13714132
0.16079304 -0.2540606 -0.18299088 -0.22589158 -0.10567935 -0.24119222 0.40542263 0.30271065
-0.6961153 -2.242968 -0.5018725 -0.53121877 0.4161749 0.40137374 0.08089978 0.24191295
-0.21396878 -0.09510323 0.4631742 -0.16428445 0.43080086 -0.66889316 0.5120814 0.1673042
-0.70647514 -0.43911067 0.025913032 -0.2878568 -0.24758917 -0.048524506 0.67255807 0.09956066
-0.08323001 -0.24264021 0.026914991 0.26172185 -0.3432093 0.27215138 -0.23287545 -0.018909998
-1.2928299 0.4915104 0.83443016 -1.1531785 0.18670021 0.34232533 -2.513704 0.010128421
0.1556817 -1.42015 0.2025264 0.12398035 0.40272117 -0.5836533 0.7610798 -0.82662606
0.47910056 0.64187366 -0.005644819 0.39233544 -0.0051478054 -1.4348257 -0.6250756 0.21414141
0.5019475 -0.3745175 -0.8220808 -0.65433687 0.019713055 0.34361848 -1.2702127 -0.6818537
-0.08144983 0.44051808 0.037602164 0.5011257 0.8857067 -1.1256038 -0.84109575 -1.1619453
-0.3106406 -0.11023777 -0.54582053 0.059682146 0.0486291 -0.33321688 0.2414751 -0.22294526
-0.8216303 -0.7018609 -0.19088745 0.5170814 -0.79401946 -0.16996922 0.7971518 0.38261586
-0.5390291 -0.30333498 0.8902909 1.4716786 -1.6159567 -0.7273316 0.12610137 1.1453912
-0.4354157 0.6913118 -1.9091321 0.007817265 0.347543 -0.47430933 -0.49630016 0.21861437
-0.19818786 -1.2537996 0.4118696 0.9960091 -0.8352784 -0.39653522 -1.1951692 -0.11055122
0.13968542 1.0503561 0.68946344 -1.078482 0.84145725 -0.071739964 -0.20098126 -0.6642886
0.41534442 0.3458188 0.48337567 0.43654144 -0.4034538 -1.9799753 -1.1019895 -0.91789895
-1.6204892 -0.06986877 -1.4909544 -0.2760217 0.2554052 -0.02125467 -0.69005466 -0.5387789
-0.28284448 -1.0920818 -0.57484746 -0.736846 -0.22374098 -0.79041016 0.04132188 -0.0137495
0.51944464 0.03589434 0.8936574 0.60251445 0.69069564 1.0993389 0.3658032 -0.2397572
0.60488206 -0.31758484 0.87326366 0.7021175 -1.0482448 -0.6030036 -0.5186905 -1.6844405
-0.59793055 -0.47992003 -0.35403928 -0.04370173 0.7947098 -1.6865355 0.23822875 -1.5762348
-0.53542864 -0.3663652 0.248468 -1.0905946 -0.546019 0.35065678 0.2875975 0.62766635
0.14481176 -0.5842573 -0.09785349 -0.07451052 -0.030446447 0.17750277 -1.5329716 0.01273776
-0.252523 0.11605601 0.016791798 -0.15194581 0.15856834 -0.32598215 -0.025239483 0.28689453
-0.0028075462 -0.69875467 -0.36025885 0.027679373 0.11318746 -0.21402165 0.20610322 -0.29779333
0.3291679 0.31376913 -0.10051431 0.1545467 -0.28506732 -0.26461014 -0.78773445 -0.08579947
0.09229259 -0.084622465 -0.13737334 -0.08348858 0.10469527 0.0038576345 -0.19585252 -0.1047567
00000000: 8390 e13e 4c51 01bf b415 f8bd 60c4 bcbe
00000010: c64e da3e e2db 8cbe 2bec c3bd cd52 2a3b
00000020: 6427 2b3e c7da 1ebe 7d00 233d 0a30 28bd
00000030: 9404 ddbe 1042 8c3e eb4b 05bf 0f3c 2ebe
00000040: 71c6 a33e e33d a3be 4afb 403e 21b2 ef3e
00000050: 5d98 a3bc c25b a2be e00f 863e a2f4 c0be
00000060: da88 203e 95ea bdbd 4c46 19be 80df 12be
00000070: 10ea 54be c308 9bbd 9924 ad3e c66e 0c3e
00000080: eea6 243e 3b14 82be f661 3bbe 1f50 67be
00000090: 6a6e d8bd 18fb 76be 8e93 cf3e e4fc 9a3e
000000a0: 9d34 32bf ca8c 0fc0 b77a 00bf f4fd 07bf
000000b0: e014 d53e dc80 cd3e c9ae a53d 07b8 773e
000000c0: a21a 5bbe 7bc5 c2bd 2b25 ed3e 2f3a 28be
000000d0: ee91 dc3e 953c 2bbf c417 033f cb51 2b3e
000000e0: 8edb 34bf 1dd3 e0be 9147 d43c f761 93be
000000f0: 0488 7dbe a2c1 46bd c42c 2c3f 76e6 cb3d
00000100: 7f74 aabd ad76 78be d47c dc3c 6800 863e
00000110: 21b9 afbe 6d57 8b3e e776 6ebe 24e9 9abc
00000120: 737b a5bf 40a7 fb3e 379d 553f 5a9b 93bf
00000130: 572e 3f3e 4445 af3e 87e0 20c0 adf1 253c
00000140: 066b 1f3e 7ac7 b5bf 1563 4f3e 69e9 fd3d
00000150: 7831 ce3e 4d6a 15bf 20d6 423f c49d 53bf
00000160: ab4c f53e d551 243f 2cf8 b8bb 31e0 c83e
00000170: ecae a8bb 5ea8 b7bf f404 20bf e347 5b3e
00000180: a27f 003f c2c0 bfbe e373 52bf 9f82 27bf
00000190: 467d a13c c3ee af3e 5496 a2bf f78d 2ebf
000001a0: 2bcf a6bd 968b e13e ba04 1a3d c649 003f
000001b0: adbd 623f c913 90bf 0d52 57bf a0ba 94bf
000001c0: 490c 9fbe 57c4 e1bd e5ba 0bbf 4475 743d
000001d0: 4f2f 473d 679b aabe 4045 773e c34b 64be
000001e0: 5d56 52bf 28ad 33bf 0078 43be 725f 043f
000001f0: dc44 4bbf 690c 2ebe 2412 4c3f 3ae6 c33e
00000200: d0fd 09bf b94e 9bbe 1bea 633f f75f bc3f
00000210: abd7 cebf 6732 3abf b820 013e 2e9c 923f
00000220: ceee debe cff9 303f 715e f4bf fc13 003c
00000230: 28f1 b13e acd8 f2be 0e1b febe 72dc 5f3e
00000240: c2f1 4abe 817c a0bf 92e0 d23e 74fa 7e3f
00000250: ced4 55bf aa06 cbbe 4efb 98bf ae68 e2bd
00000260: b209 0f3e 1272 863f ad80 303f b30b 8abf
00000270: be69 573f 67ec 92bd 08ce 4dbe d10e 2abf
00000280: 06a8 d43e 290f b13e 047d f73e 5c82 df3e
00000290: 7f91 cebe d56f fdbf fe0d 8dbf 6dfb 6abf
000002a0: 316c cfbf 5c17 8fbd 98d7 bebf b752 8dbe
000002b0: 78c4 823e 461e aebc 6ca7 30bf 6aed 09bf
000002c0: fed0 90be 56c9 8bbf 3429 13bf f1a1 3cbf
000002d0: 5b1c 65be 5258 4abf 2241 293d 9545 61bc
000002e0: 53fa 043f f205 133d bbc6 643f 633e 1a3f
000002f0: 6ed1 303f 23b7 8c3f 8f4a bb3e e982 75be
00000300: 8dd9 1a3f 7b9a a2be 358e 5f3f f9bd 333f
00000310: e32c 86bf 725e 1abf e7c8 04bf bf9b d7bf
00000320: fa11 19bf 14b8 f5be a344 b5be 9600 33bd
00000330: 1a72 4b3f 65e0 d7bf 3df2 733e 10c2 c9bf
00000340: da11 09bf 3894 bbbe 656e 7e3e 9b98 8bbf
00000350: e7c7 0bbf 4989 b33e fb3f 933e beae 203f
00000360: 8949 143e e391 15bf 6967 c8bd f998 98bd
00000370: d46a f9bc 49c3 353e 6a38 c4bf 0ab2 503c
00000380: b24a 81be c6ae ed3d f48e 893c af97 1bbe
00000390: bd5f 223e 22e7 a6be 08c3 cebc d7e3 923e
000003a0: cffe 37bb 96e1 32bf d973 b8be dabf e23c
000003b0: d4ce e73d 7e28 5bbe b90c 533e 5e78 98be
000003c0: b288 a83e 59a6 a03e 72da cdbd 7d41 1e3e
000003d0: 58f4 91be fb7a 87be f7a8 49bf a2b7 afbd
000003e0: e603 bd3d 8b4e adbd 99ab 0cbe 10fc aabd
000003f0: 796a d63d 5ed0 7c3b 908d 48be ae8a d6bd

bias f4 [24]
0.09979379 -0.971509 -1.0494409 0.3431971 -0.25707147 -0.46474993 0.031610556 0.30472454
0.44772124 -0.40127525 -0.65878755 -0.00763832 0.16128738 -0.19356559 -0.29163274 0.91118157
0.3202951 -0.8844583 0.65209776 0.014753967 0.7645093 -0.3093487 0.24815677 0.24258623
00000000: b060 cc3d d0b4 78bf 1454 86bf 88b7 af3e
00000010: df9e 83be b4f3 edbe 127a 013d db04 9c3e
00000020: b83b e53e f373 cdbe 4da6 28bf df4a fabb
00000030: 8528 253e 0f36 46be e350 95be 3243 693f
00000040: b8fd a33e dc6b 62bf e1ef 263f 9fba 713c
00000050: e2b6 433f f462 9ebe cf1c 7e3e 8668 783e

weight f4 [24]
0.07952905 0.013002152 0.00780458 0.11747144 0.15810753 0.07356278 0.034352757 0.21677715
0.08138065 0.024945952 -0.0048223054 0.20267044 0.11445052 0.032583717 0.024171729 0.1680783
0.04943356 0.016679086 0.047250625 0.12883674 0.19731653 0.07377472 0.036189087 0.19127724
00000000: 20e0 a23d fa06 553c 90bd ff3b de94 f03d
00000010: f1e6 213e 15a8 963d 7ab5 0c3d d4fa 5d3e
00000020: e6aa a63d 745b cc3c 6e04 9ebb d788 4f3e
00000030: 0965 ea3d 8176 053d ca03 c63c b81c 2c3e
00000040: d87a 4a3d 94a2 883c df89 413d c7ed 033e
00000050: 580d 4a3e 3317 973d 023b 143d 2ede 433e

weight f4 [24, 24, 3]
-0.35431042 -0.009628819 -0.952844 -0.30525774 -0.52478254 0.13904822 -0.7251962 0.14405307
-0.84874916 -0.41451937 0.3207995 0.5169534 0.043465514 0.38132352 -0.68495846 0.18328248
-0.5900793 0.48342255 0.4044584 0.72995937 -0.7255312 -0.6292795 -0.64240426 -0.7364168
0.040868767 -0.82658654 -0.12853839 0.25248742 0.18754424 0.14060412 -0.9061203 0.028378962
0.07258502 -0.63056135 -0.105409406 -0.8809729 -0.057565782 -0.1814515 -0.65076685 -0.116320655
-0.8141884 0.44501582 -0.40671372 0.32267416 -0.44522855 0.11627683 -0.19989455 -0.08883741
-0.7437703 -0.42426735 -0.39092734 -0.15978678 0.51812154 -0.04701767 -0.45219335 0.08360375
0.064974196 -0.17878614 0.55516905 -0.3195197 0.4137527 -0.19987845 -0.008331309 0.077885576
-0.072552465 0.08240147 -0.6169351 -0.097281955 0.30382013 -0.23353843 0.05179587 -0.19407536
0.06936993 -0.20073295 0.2578766 -0.10772447 -0.6021649 -0.64282674 -0.72630566 0.043527313
-0.25734556 0.4450903 -0.019058356 -0.35507664 0.025741288 -0.05148263 0.030872343 -0.15719394
0.38763753 -0.21181461 0.12179563 -0.31367463 -0.24578379 0.13950256 0.2760197 0.31375682
-0.22982371 0.061077133 0.13185585 0.4141877 -0.039924853 0.05994071 0.111701384 -0.28359458
-0.24758571 0.13853624 0.0005582926 0.17917162 -0.08743243 -0.1929282 -0.49553785 -0.37153685
0.115347356 -0.0866279 -0.094593436 -0.031095589 0.35324094 -0.06993195 -0.053239252 -0.003269694
-0.07283524 0.28057 -0.33862182 0.14681865 0.26243576 -1.0067393 -0.5215885 -0.55867964
0.15254185 -0.2268417 0.027255228 0.091902986 0.13232668 -1.0732063 -1.6481495 0.7307714
0.45513034 0.28095788 0.17896448 -0.87044823 0.18441111 -0.0026126641 -0.77792317 0.43495432
-0.5597375 -0.064090095 0.43607116 0.057889514 0.5514066 0.3730342 0.066761896 0.07821622
-0.07330758 0.17108878 -0.51036 -1.2611446 0.6688603 0.43453887 0.4661315 -0.6022199
-0.27806348 0.40160948 -0.31987363 -0.53562015 0.6074711 -0.28136352 -0.042057134 0.18526949
-0.017746633 0.10332933 -0.48728117 -1.0704037 0.3544165 0.7083616 -0.14160138 -0.16705728
0.41740435 0.30659086 0.22821815 0.061428465 0.004055164 0.15518256 0.39539018 -0.6867557
0.7826103 0.11549076 -0.18761124 -0.9408657 0.74229056 0.027243622 0.11585216 -0.44756868
0.09223452 -0.1100481 0.0028340418 0.27949283 -1.185564 0.98493075 -0.37624595 -0.38837427
-0.4108377 0.0122164395 0.18053855 0.3226044 -0.89374614 0.32072854 0.13343452 -0.1707736
0.21956623 0.5683416 -0.41165963 -0.13235517 0.48526424 -0.1873653 0.45633185 0.46040055
0.33399907 0.3838746 -0.11942481 -0.7136733 -0.64336056 -0.3453619 -0.33919308 0.079173274
0.55127287 -0.17437732 0.31465414 0.6689152 0.41370228 0.15221857 -0.5530401 -0.4051868
0.36087114 -0.02840053 0.20214596 -0.040407445 0.35109112 -0.041829754 -0.03895331 -0.6566929
-0.29794767 0.26781288 -0.7254941 0.113962874 0.3669143 0.1907568 -0.36727563 -0.1228092
0.52086085 -0.6017838 -0.45498472 0.15245736 -0.057061728 0.2622109 -0.07149258 -0.27163905
00000000: 2d68 b5be 32c2 1dbc 96ed 73bf be4a 9cbe
00000010: 2658 06bf a862 0e3e 75a6 39bf a682 133e
00000020: a047 59bf e23b d4be d53f a43e 0f57 043f
00000030: e508 323d d63c c33e 7059 2fbf 67ae 3b3e
00000040: 700f 17bf 2983 f73e 2c15 cf3e 9ede 3a3f
00000050: 6abc 39bf 7618 21bf 9b74 24bf d085 3cbf
00000060: 0266 273d 2d9b 53bf 919f 03be 0846 813e
00000070: 990b 403e 87fa 0f3e 80f7 67bf ff7a e83c
00000080: 74a7 943d 786c 21bf e3e0 d7bd 7187 61bf
00000090: 19ca 6bbd 6cce 39be a898 26bf 8639 eebd
000000a0: a76e 50bf 1dd9 e33e c83c d0be 8c35 a53e
000000b0: fff4 e3be 8c22 ee3d 28b1 4cbe 63f0 b5bd
000000c0: bb67 3ebf 9239 d9be a127 c8be 259f 23be
000000d0: 9da3 043f 9a95 40bd e385 e7be 7138 ab3d
000000e0: 3111 853d b713 37be 8f1f 0e3f 1698 a3be
000000f0: 65d7 d33e f0ac 4cbe 0b80 08bc 7982 9f3d
00000100: 6396 94bd 1ac2 a83d 75ef 1dbf c33b c7bd
00000110: 508e 9b3e b324 6fbe e827 543d b1bb 46be
00000120: d211 8e3d f08c 4dbe 6708 843e a69e dcbd
00000130: 7b27 1abf 4b90 24bf 2bef 39bf b249 323d
00000140: ccc2 83be e0e2 e33e 4520 9cbc 9bcc b5be
00000150: 65df d23c 73df 52bd ffe7 fc3c 73f7 20be
00000160: 6d78 c63e eee5 58be fd6f f93d f699 a0be
00000170: bfae 7bbe c2d9 0e3e 7452 8d3e bca4 a03e
00000180: e856 6bbe 042c 7a3d 3805 073e 6910 d43e
00000190: 3e88 23bd 6484 753d b2c3 e43d 4f33 91be
000001a0: 1c87 7dbe 72dc 0d3e 625a 123a c478 373e
000001b0: c60f b3bd f88e 45be 23b7 fdbe 143a bebe
000001c0: 3c3b ec3d f869 b1bd 34ba c1bd 2dbc febc
000001d0: ffdb b43e 7b38 8fbd 6711 5abd 5d48 56bb
000001e0: a42a 95bd dfa6 8f3e d75f adbe a157 163e
000001f0: fb5d 863e d5dc 80bf d386 05bf a105 0fbf
00000200: ee33 1c3e 3149 68be 5b46 df3c a237 bc3d
00000210: a580 073e d35e 89bf 90f6 d2bf d613 3b3f
00000220: d806 e93e b6d9 8f3e 7742 373e b2d5 5ebf
00000230: 44d6 3c3e 3b39 2bbb f925 47bf 55b2 de3e
00000240: f54a 0fbf ab41 83bd b844 df3e 8e1d 6d3d
00000250: fc28 0d3f 57fe be3e 76ba 883d d32f a03d
00000260: 4922 96bd e631 2f3e f4a6 02bf 306d a1bf
00000270: 6e3a 2b3f e17b de3e caa8 ee3e 152b 1abf
00000280: 565e 8ebe c29f cd3e 7ac6 a3be 671e 09bf
00000290: 3a83 1b3f e10e 90be 1a44 2cbd 49b7 3d3e
000002a0: 6361 91bc 549e d33d eb7c f9be fd02 89bf
000002b0: 1476 b53e 3057 353f f4ff 10be 1011 2bbe
000002c0: 06b6 d53e 7af9 9c3e 05b2 693e 6a9c 7b3d
000002d0: 2ee1 843b 2de8 1e3e 9570 ca3e 39cf 2fbf
000002e0: 2659 483f 6b86 ec3d 291d 40be 93dc 70bf
000002f0: c106 3e3f 042e df3c e643 ed3d b927 e5be
00000300: 74e5 bc3d e660 e1bd 55bb 393b af19 8f3e
00000310: 90c0 97bf 6c24 7c3f 4fa3 c0be fed8 c6be
00000320: 5259 d2be 7627 483c 19df 383e 672c a53e
00000330: 8ccc 64bf 8836 a43e 0fa3 083e 46df 2ebe
00000340: f8d5 603e d67e 113f 0dc5 d2be 1d88 07be
00000350: 8e74 f83e b0dc 3fbe 54a4 e93e 9fb9 eb3e
00000360: ed01 ab3e 368b c43e ff94 f4bd 4bb3 36bf
00000370: 47b3 24bf 46d3 b0be b7aa adbe 9925 a23d
00000380: 3820 0d3f f88f 32be 591a a13e 073e 2b3f
00000390: c9d0 d33e 2fdf 1b3e 0994 0dbf a574 cfbe
000003a0: 1ac4 b83e 3aa8 e8bc 5aff 4e3e 4782 25bd
000003b0: 37c2 b33e ad55 2bbd 828d 1fbd 071d 28bf
000003c0: 998c 98be c51e 893e fbb9 39bf 5e65 e93d
000003d0: 31dc bb3e c055 433e 8d0b bcbe 6483 fbbd
000003e0: 2357 053f 810e 1abf c2f3 e8be c81d 1c3e
000003f0: 8fb9 69bd 8240 863e b46a 92bd 4614 8bbe

bias f4 [24]
-1.3531879 -1.1807616 -0.8827723 -0.64263195 -0.8835449 -0.51062316 -0.92544824 -0.76013184
-1.7374934 -1.8096607 -1.2170851 -1.3653613 -1.3799708 -0.45369127 -0.60095847 -0.7241639
-1.2183269 -0.51728815 -1.2371938 -1.0067425 -1.0794678 -0.96313614 -0.7821555 -0.61299545
00000000: 4335 adbf 3223 97bf 5efd 61bf 8783 24bf
00000010: 0030 62bf 33b8 02bf 2dea 6cbf 0098 42bf
00000020: 2f66 debf f6a2 e7bf 72c9 9bbf 29c4 aebf
00000030: e2a2 b0bf 394a e8be 6ad8 19bf ce62 39bf
00000040: 23f2 9bbf ff6c 04bf 5e5c 9ebf f0dc 80bf
00000050: 002c 8abf 1790 76bf 583b 48bf 45ed 1cbf

weight f4 [24]
0.018791031 0.0456133 0.03375935 0.048720222 0.0936889 0.20473634 0.060521998 0.12180294
0.012300401 0.0060421755 0.063107856 0.04847048 0.031040067 0.09839588 0.1294076 0.16536927
0.01413159 0.097680375 0.029758587 0.025058063 0.012406977 0.03694727 0.009743015 0.13611959
00000000: a6ef 993c 03d5 3a3d 3f47 0a3d db8e 473d
00000010: f7df bf3d 67a6 513e eae5 773d d273 f93d
00000020: 9f87 493c 71fd c53b b13e 813d fb88 463d
00000030: bd47 fe3c c783 c93d 6d83 043e 9056 293e
00000040: 2f88 673c a60c c83d 48c8 f33c 9146 cd3c
00000050: a246 4b3c 0556 173d 2ba1 1f3c ef62 0b3e

weight f4 [24, 24, 3]
0.54365593 -0.03443874 -0.10067238 -0.17269161 0.2586792 -0.9593241 -0.12494192 0.11925961
-0.37167445 0.5299886 0.027225483 -0.26386818 0.42708984 0.17208703 -0.08827246 0.04226021
0.1738418 0.21696988 -0.20098919 0.2559223 -0.084944375 -0.24412496 0.12655649 0.22426745
0.21427365 -0.012487873 0.23488793 -0.2274704 0.2860361 0.35459667 0.4807656 -0.06890302
-0.33180898 -0.08088076 -0.10208519 0.2620897 -0.49352217 0.12624837 0.08811031 -0.07394182
0.16682799 -0.36406532 -0.50874835 -0.045309145 -0.50052124 0.23064764 0.21119744 -0.11304543
-0.11329404 0.008838686 -0.16317044 -0.07877077 0.27321023 -0.6969431 -0.65884 -0.6097022
0.15195867 0.21855819 -0.02766385 -0.01580301 0.09589336 -0.4097155 -0.60559416 -0.030938167
-0.0038331344 0.42417252 -0.22941925 -0.2642116 -0.111452594 -0.4403259 -0.23437393 0.26410282
-0.14681007 0.25698796 0.15382358 -0.31324938 0.67632097 -0.050669864 0.05435321 -0.047941297
-0.5736473 -0.38791743 0.0033131875 -0.2559712 -0.48455027 0.12793192 -0.41506922 -0.77881473
-0.67060846 0.023310104 -0.5613615 -0.05529689 -0.33674735 -0.2279409 -0.9401732 -0.08244942
-0.6165881 -0.4112544 -0.011850576 0.17848225 0.2988704 -0.98240817 -0.09850769 0.27760208
-0.568303 -0.06687233 0.17222284 -0.19111148 0.04782008 -0.36865422 -0.12909594 -0.6636677
0.15090868 -0.32199913 -0.45403764 -0.4500065 0.92376316 -2.425224 -0.34251142 -0.1618675
0.07756331 -0.46812278 -0.021943325 0.52626926 0.71138257 -0.67685884 -0.2408953 0.6642635
-0.35072652 -0.6865008 0.49895608 0.03305039 -0.00670826 -0.5413926 0.28754175 0.17980026
0.90339637 0.55763495 -0.38052943 -0.7353924 -1.4390876 -0.52328914 -0.32470238 0.22286941
-0.15413022 -0.23787296 0.017007248 0.27919975 0.34711486 0.17167175 -0.018653648 0.08399138
-0.08353164 -0.257926 -1.1023532 0.12087975 0.14389111 -0.19748928 -0.12321078 -0.6636193
0.021364802 -0.5297954 -0.1683754 0.27232054 -0.18413351 -0.3557911 -0.1578971 -0.11178553
-0.28422865 -0.16148777 -0.79211444 0.4462321 0.7414709 -0.7955964 -0.01666982 0.15412354
0.04113953 -0.40020785 0.13777271 -0.22106984 -0.2669053 -1.1581808 0.16712928 -1.0301603
0.12413637 -0.3057263 -0.17732 0.035535555 -0.05215083 0.03972711 -0.074139684 0.38236135
-0.08170933 -0.4133364 -0.059994582 -0.67183715 -0.36521083 0.056458548 -0.024742283 0.41254064
-0.12522961 -0.40065977 0.16675082 0.27972764 -0.11133161 0.094126716 -0.049684934 -0.52738297
-0.23735642 -0.3096672 -0.46700457 -0.80206877 0.10424307 -0.57475424 0.038591232 0.27702105
-1.2576894 -0.43949443 0.42958453 0.0025430454 -0.46274287 -0.041970193 0.21187632 -0.0045382064
0.11847953 -0.6778648 -0.39737064 0.15421772 0.069083884 0.22736737 0.29091585 0.10559691
-0.12303284 -0.60705185 -0.06063317 -0.4988301 0.06739997 0.29852647 -0.07316302 -0.15913518
-0.5160038 0.23033474 0.2168656 -0.6475113 -0.08216685 -0.2604934 -0.13337477 -0.086440995
0.04941255 -0.01276784 0.29022554 -0.42649415 -0.1787385 0.059722036 -0.26994818 -0.30104366
00000000: 092d 0b3f a30f 0dbd 522d cebd 12d6 30be
00000010: 9a71 843e 4496 75bf 8de1 ffbd 623e f43d
00000020: 1d4c bebe 55ad 073f fa07 df3c bb19 87be
00000030: 85ab da3e 9537 303e 31c8 b4bd 0b19 2d3d
00000040: 9603 323e 5a2d 5e3e 1cd0 4dbe 3f08 833e
00000050: 51f7 adbd e5fb 79be 0698 013e 5ea6 653e
00000060: 8d6a 5b3e f099 4cbc 7686 703e 00ee 68be
00000070: 5373 923e b28d b53e e926 f63e 071d 8dbd
00000080: dee2 a9be d0a4 a5bd 0a12 d1bd 9f30 863e
00000090: f0ae fcbe 4147 013e 2e73 b43d cf6e 97bd
000000a0: f5d4 2a3e c566 babe 553d 02bf 1596 39bd
000000b0: 2922 00bf e52e 6c3e 2444 583e 5d84 e7bd
000000c0: b506 e8bd 23d0 103c 2716 27be 9252 a1bd
000000d0: 36e2 8b3e dd6a 32bf bda9 28bf 7215 1cbf
000000e0: 0e9b 1b3e b8cd 5f3e 4c9f e2bc 5075 81bc
000000f0: bd63 c43d 3bc6 d1be 3808 1bbf 0a72 fdbc
00000100: 5335 7bbb 242d d93e e1ec 6abe be46 87be
00000110: 4241 e4bd 6572 e1be b8ff 6fbe 7c38 873e
00000120: 6155 16be ed93 833e ee83 1d3e 3962 a0be
00000130: 5f23 2d3f 348b 4fbd 79a1 5e3d 185e 44bd
00000140: 8dda 12bf 1d9d c6be 1022 593b a80e 83be
00000150: f916 f8be 9600 033e f483 d4be 6760 47bf
00000160: ffac 2bbf d5f4 be3c 63b5 0fbf fe7e 62bd
00000170: 266a acbe 5769 69be 31af 70bf 3edb a8bd
00000180: b8d8 1dbf f08f d2be eb28 42bc 0dc4 363e
00000190: 8b05 993e 1a7f 7bbf 66be c9bd dc21 8e3e
000001a0: 4e7c 11bf 5cf4 88bd 2f5b 303e bab2 43be
000001b0: fdde 433d 3fc0 bcbe ba31 04be 20e6 29bf
000001c0: ce87 1a3e 12dd a4be 9f77 e8be 4167 e6be
000001d0: be7b 6c3f df36 1bc0 a85d afbe 98c0 25be
000001e0: 83d9 9e3d caad efbe 7dc2 b3bc 95b9 063f
000001f0: 2b1d 363f 9f46 2dbf 42ad 76be 2c0d 2a3f
00000200: 6d92 b3be 84be 2fbf 2c77 ff3e d95f 073d
00000210: f7d0 dbbb b598 0abf ac38 933e 8f1d 383e
00000220: fc44 673f 2ac1 0e3f c1d4 c2be ad42 3cbf
00000230: 0634 b8bf 47f6 05bf 643f a6be e137 643e
00000240: 50d4 1dbe f894 73be c952 8b3c 45f3 8e3e
00000250: 0ab9 b13e b8ca 2f3e 89cf 98bc ac03 ac3d
00000260: a312 abbd e00e 84be e919 8dbf cd8f f73d
00000270: 3158 133e a13a 4abe ef55 fcbd f4e2 29bf
00000280: 3d05 af3c aca0 07bf 9a6a 2cbe 996d 8b3e
00000290: 7f8d 3cbe 402a b6be c7af 21be d0ef e4bd
000002a0: 6b86 91be 0d5d 25be 03c8 4abf 8978 e43e
000002b0: 09d1 3d3f 35ac 4bbf 258f 88bc 90d2 1d3e
000002c0: ec81 283d 0be8 ccbe 4a14 0d3e 2260 62be
000002d0: d0a7 88be 453f 94bf f023 2b3e 4bdc 83bf
000002e0: 363b fe3d 2888 9cbe 6093 35be bb8d 113d
000002f0: 1c9c 55bd e5b8 223d 8cd6 97bd dec4 c33e
00000300: 3957 a7bd d4a0 d3be e1bc 75bd 85fd 2bbf
00000310: eafc babe 1441 673d 54b0 cabc 8738 d33e
00000320: 313c 00be 4723 cdbe bac0 2a3e 7638 8f3e
00000330: d401 e4bd 82c5 c03d 6e82 4bbd 9202 07bf
00000340: 900d 73be b38c 9ebe 391b efbe 6154 4dbf
00000350: 647d d53d 1823 13bf d711 1e3d b4d5 8d3e
00000360: f7fb a0bf 6a05 e1be 81f2 db3e 39a9 263b
00000370: a2ec ecbe f0e8 2bbd 1bf6 583e 3cb5 94bb
00000380: 65a5 f23d 8c88 2dbf 2a74 cbbe 40eb 1d3e
00000390: da7b 8d3d fed2 683e ecf2 943e 3143 d83d
000003a0: a4f8 fbbd c067 1bbf 7d5a 78bd a966 ffbe
000003b0: ff08 8a3d 76d8 983e 7ed6 95bd 55f4 22be
000003c0: d318 04bf dfdc 6b3e 0412 5e3e 4dc3 25bf
000003d0: 1847 a8bd 645f 85be 6593 08be fa07 b1bd
000003e0: d064 4a3d 3430 51bc 7198 943e 715d dabe
000003f0: 3a07 37be 189f 743d a636 8abe 6522 9abe

bias f4 [24]
-0.27205685 -1.2057551 0.11772249 -0.4396118 -0.8626094 -0.40403822 -0.13970336 -0.2916641
0.083086975 -0.049172293 -0.29334873 -0.32182762 -0.17547119 -0.76616615 -0.14932942 0.010897468
0.5756145 -0.4186177 -1.285435 -0.30119392 0.19956 -0.31466064 0.18798767 -0.6759057
00000000: 094b 8bbe 2f56 9abf 7d18 f13d cc14 e1be
00000010: f8d3 5cbf 19de cebe 660e 0fbe ff54 95be
00000020: 8129 aa3d e368 49bd ce31 96be 97c6 a4be
00000030: b8ae 33be 7723 44bf d0e9 18be 4b8b 323c
00000040: 795b 133f 0f55 d6be 2289 a4bf 1736 9abe
00000050: 7559 4c3e 331b a1be d77f 403e 2808 2dbf

weight f4 [24]
0.05549213 0.03594818 0.030359477 0.08562433 0.050353322 0.1131443 0.004292442 0.025101364
0.15252282 0.063423544 0.016599964 0.17910165 0.102823846 0.027827568 0.028102493 0.124397725
0.17180274 0.030379424 -0.0036904856 0.1011871 0.2344527 0.060972773 0.14705248 0.11341562
00000000: b74b 633d 663e 133d 70b4 f83c cf5b af3d
00000010: 493f 4e3d 33b8 e73d 9da7 8c3b 60a1 cd3c
00000020: f12e 1c3e 34e4 813d a6fc 873c 6c66 373e
00000030: 4f95 d23d a4f6 e33c 3337 e63c 3cc4 fe3d
00000040: 0fed 2f3e 45de f83c 13dc 71bb 2f3b cf3d
00000050: 5e14 703e 96be 793d ed94 163e 7346 e83d

weight f4 [24, 24, 3]
-0.25987363 -0.11043338 0.51446575 -0.26938993 0.10774845 0.5298213 0.19474746 -0.11224
-0.004707864 -0.014318897 -0.35439524 -0.017114202 0.43017587 0.057058837 -0.3402757 -1.0834757
0.46292445 0.21217108 0.33626717 -0.1656174 0.22466742 -0.26939574 -0.46512675 -0.33699206
0.19604339 -0.6536567 0.66226465 -0.47680968 0.19286866 0.21877638 0.16892566 0.08584747
-0.26798555 -0.65106314 -0.1294122 -0.30110028 -0.4715366 0.08119858 0.43842986 0.3217542
0.21471052 -0.007868087 0.10796477 -0.0026690925 -0.27880785 -0.5525958 -0.25952983 -0.60261744
-0.049266815 0.38830805 0.36835292 -0.25602716 0.2783518 0.39362374 -0.14708325 -0.20630494
-0.18496646 -0.21182248 0.3250161 0.211414 -1.7352223 0.4816487 -0.10746391 0.23474804
0.37357175 -0.28280643 -0.12050543 0.61514103 0.31208715 0.15866031 0.44964436 0.06254745
-0.31334767 -0.19320695 0.018408582 -0.43011913 0.11405352 0.4398839 -0.19814624 0.00957223
-0.20111798 0.062974684 -0.030972905 0.22652286 0.20384774 -0.5189445 -0.22996567 -0.15991147
0.05740621 0.38419688 -0.4522076 0.32041264 -0.041522212 -0.24776469 -0.07175386 -0.67008996
-0.25620398 0.6562998 -0.33226103 -0.14747699 0.17703371 -0.3049516 -0.15228923 -0.12771988
-0.18398921 0.03690352 -1.0518789 -0.41927582 -0.13887708 0.23807934 -1.2043716 -0.34651887
-0.07592235 0.29839027 0.19986846 0.0070794676 -0.029631304 -0.0015379972 -0.397558 0.31781727
-0.45020413 -0.42842665 0.5459817 -0.62348753 0.16669239 -0.1590204 -0.03115703 -0.08437928
-0.031588186 0.189319 -0.17776713 -0.4960232 0.6161751 0.27544904 -0.98047715 -0.7981128
-0.35170296 0.08300657 -0.29229984 0.31022924 0.54021806 0.036247592 0.042903442 -0.18205449
-0.5277974 -0.123864435 0.0920808 -0.257562 0.3359718 0.18081217 0.47790888 -0.74270886
-0.04708482 0.03416409 0.41245902 0.31314337 -0.5599246 0.55754143 -0.23542024 -0.5778286
0.15991548 0.115521476 0.18291652 0.22891037 -0.30219764 0.33341557 -0.5813236 0.29042333
0.13808073 0.1563764 0.65697384 0.3977738 -0.50919557 0.05380203 -0.6657301 0.473018
0.6142275 -0.063771315 0.4084501 -1.4922124 0.34396824 0.34075558 -0.05192468 -0.4711543
0.2791768 -0.23321196 0.14977354 -0.34997705 0.29271284 0.42960545 0.40667206 0.25311393
-0.6498801 0.2422688 -0.38874978 0.069940455 -0.11200806 0.007018001 -0.7060033 -0.22503293
0.57678473 0.41276523 -0.36551377 -0.5933445 -0.5674435 0.073599845 0.46351382 0.24163774
-0.52534103 -0.34818977 0.416896 -0.12985791 -0.23806447 0.11265812 0.88363755 0.18461138
-0.08971759 0.047467794 -0.19580321 -0.058930267 -0.035890836 0.26248872 0.36146277 -0.12235978
0.29852858 -0.08161651 0.44459125 0.5430123 -0.42057055 0.30994365 0.23671262 0.3131961
-0.19451131 0.10240864 -0.41942948 0.26545128 0.025956117 0.18074463 -0.19797425 0.05326708
0.40478116 -0.18458608 0.2934362 0.2821953 -0.10734251 0.2762112 0.015820494 0.32189557
-0.32502156 -0.023060394 0.15240514 0.085294396 -0.11723424 0.44421017 -0.039842512 -0.027969893
00000000: 280e 85be e52a e2bd 07b4 033f 7aed 89be
00000010: 38ab dc3d 5ea2 073f e16b 473e 16de e5bd
00000020: 6d44 9abb cf99 6abc 4b73 b5be 1533 8cbc
00000030: 0340 dc3e 87b6 693d 9e38 aebe 55af 8abf
00000040: 6f04 ed3e 6043 593e 362b ac3e 9c97 29be
00000050: 370f 663e 3dee 89be 1825 eebe 398a acbe
00000060: 99bf 483e 0c56 27bf 2d8a 293f 6620 f4be
00000070: 5d7f 453e ea06 603e d9fa 2c3e ccd0 af3d
00000080: 6735 89be 13ac 26bf a284 04be d129 9abe
00000090: 3f6d f1be 714b a63d e179 e03e f7bc a43e
000000a0: 13dd 5b3e 26e9 00bc a21c dd3d f1eb 2ebb
000000b0: e7bf 8ebe eb76 0dbf 18e1 84be 2345 1abf
000000c0: 00cc 49bd 50d0 c63e c198 bc3e fe15 83be
000000d0: 2184 8e3e 0d89 c93e fe9c 16be 9a41 53be
000000e0: d967 3dbe fee7 58be 8368 a63e e97c 583e
000000f0: c41b debf a99a f63e 0a16 dcbd ca61 703e
00000100: cc44 bf3e 01cc 90be 8dcb f6bd e279 1d3f
00000110: e3c9 9f3e d977 223e c937 e63e e118 803d
00000120: 1b6f a0be 0bd8 45be 98cd 963c 9338 dcbe
00000130: e494 e93d 7638 e13e d9e6 4abe d8d4 1c3c
00000140: dff1 4dbe dff8 803d e4ba fdbc 9cf5 673e
00000150: 76bd 503e 8cd9 04bf 1f7c 6bbe d5bf 23be
00000160: c622 6b3d 74b5 c43e c187 e7be 200d a43e
00000170: 3213 2abd 07b6 7dbe b0f3 92bd 048b 2bbf
00000180: 2b2d 83be 4403 283f 1e1e aabe 3504 17be
00000190: 5348 353e 9e22 9cbe b5f1 1bbe 00c9 02be
000001a0: ab67 3cbe 2528 173d f8a3 86bf 52ab d6be
000001b0: cb35 0ebe 12cb 733e d928 9abf ec6a b1be
000001c0: 2d7d 9bbd 9cc6 983e 51aa 4c3e e1fa e73b
000001d0: 59bd f2bc 9f96 c9ba b98c cbbe f2b8 a23e
000001e0: 2881 e6be bd5a dbbe 75c5 0b3f e19c 1fbf
000001f0: 69b1 2a3e 3ed6 22be 073d ffbc 0bcf acbd
00000200: 9d62 01bd d7dc 413e 9608 36be c1f6 fdbe
00000210: a7bd 1d3f a807 8d3e 8d00 7bbf 1f51 4cbf
00000220: 6912 b4be 59ff a93d 53a8 95be 5ed6 9e3e
00000230: bb4b 0a3f 5b78 143d 85bb 2f3d 7e6c 3abe
00000240: bb1d 07bf a3ac fdbd dc94 bc3d 2bdf 83be
00000250: 7f04 ac3e d326 393e 79b0 f43e 2b22 3ebf
00000260: 03dc 40bd a5ef 0b3d d42d d33e 5454 a03e
00000270: 3857 0fbf 09bb 0e3f 0112 71be 93ec 13bf
00000280: e2c0 233e 8696 ec3d 784e 3b3e 7b67 6a3e
00000290: a6b9 9abe 72b5 aa3e a0d1 14bf 5eb2 943e
000002a0: 0965 0d3e 2321 203e 702f 283f 02a9 cb3e
000002b0: a45a 02bf 845f 5c3d 4a6d 2abf 6a2f f23e
000002c0: 033e 1d3f 899a 82bd 5f20 d13e d100 bfbf
000002d0: 9b1c b03e 8477 ae3e f9ae 54bd 233b f1be
000002e0: 43f0 8e3e 1ecf 6ebe 3c5e 193e 3130 b3be
000002f0: 75de 953e 3ff5 db3e 5237 d03e 2698 813e
00000300: 8b5e 26bf 5015 783e 360a c7be f13c 8f3d
00000310: 7b64 e5bd 42f7 e53b a2bc 34bf 086f 66be
00000320: 2aa8 133f f755 d33e 9f24 bbbe 6de5 17bf
00000330: fa43 11bf 84bb 963d af51 ed3e e26f 773e
00000340: c07c 06bf ee45 b2be 6473 d53e 79f9 04be
00000350: 2cc7 73be 4db9 e63d 1236 623f c40a 3d3e
00000360: dbbd b7bd 976d 423d a380 48be dd60 71bd
00000370: 4502 13bd ec64 863e a611 b93e c497 fabd
00000380: bdd8 983e 8f26 a7bd 77a1 e33e db02 0b3f
00000390: 0655 d7be efb0 9e3e cb64 723e 3d5b a03e
000003a0: f92d 47be 9fbb d13d 76bf d6be 3be9 873e
000003b0: eca1 d43c 1f15 393e c3b9 4abe 952e 5a3d
000003c0: 7a3f cf3e 2204 3dbe 453d 963e e77b 903e
000003d0: 64d6 dbbd 8e6b 8d3e fb99 813c 7fcf a43e
000003e0: 3a69 a6be 27e9 bcbc 1810 1c3e d4ae ae3d
000003f0: 8118 f0bd 846f e33e e731 23bd 1e21 e5bc

bias f4 [24]
-1.4921674 -1.3456469 -1.8487207 -0.81109726 -0.94325864 -1.2974199 -2.4692068 -2.2894416
-2.2562082 -1.7682197 -2.4449058 -0.8745055 -0.9049182 -2.5270195 -1.1553181 -1.948468
-0.9231231 -2.555602 -1.447919 -2.1551247 -1.0749172 -2.6188476 -1.9144129 -0.3673972
00000000: 57ff bebf 283e acbf e1a2 ecbf 12a4 4fbf
00000010: 6679 71bf db11 a6bf 7c07 1ec0 3686 12c0
00000020: b765 10c0 0655 e2bf 5679 1cc0 98df 5fbf
00000030: b8a8 67bf b0ba 21c0 77e1 93bf 6667 f9bf
00000040: cc51 6cbf fc8e 23c0 6955 b9bf 90ed 09c0
00000050: e396 89bf 339b 27c0 7b0b f5bf 7c1b bcbe

weight f4 [24]
0.04597198 0.04218755 0.0063452274 0.07141811 0.12280687 0.09631363 0.0031285235 0.013244284
-0.015176249 0.043745954 0.0019239745 0.08278077 0.07716937 0.013662384 0.051875286 0.02324767
0.13582529 0.031502526 0.034857683 0.011817737 0.04261588 0.029123694 0.003729737 0.17305912
00000000: 1d4d 3c3d dacc 2c3d a0eb cf3b a843 923d
00000010: 2b82 fb3d 1540 c53d ea07 4d3b 8efe 583c
00000020: cda5 78bc f52e 333d df2d fc3a f788 a93d
00000030: fa0a 9e3d 31d8 5f3c 2e7b 543d e671 be3c
00000040: c915 0b3e cb08 013d eec6 0e3d 2e9f 413c
00000050: fd8d 2e3d d094 ee3c 9a6e 743b 6936 313e

weight f4 [24, 24, 3]
-0.04750836 0.093940005 0.12922996 -0.05397269 -0.3122921 0.1892232 0.008356468 0.08986182
-0.70577705 -0.19188534 -0.30017158 -0.061398033 0.37411422 -0.19742414 -0.5253494 -0.35961214
-0.24198332 0.310856 0.41782475 0.10300641 -0.3878193 -0.06451579 -0.03825475 -0.07004779
0.27677807 0.08648456 -0.44568372 -0.16849177 -0.24528831 0.2934466 -0.3794219 0.024376629
-0.17983139 -0.037188277 -0.27625948 0.24967661 0.57373464 -0.48323306 0.053575117 -0.16043474
-0.095765546 0.034241047 -0.04281631 -0.16099305 -0.22387482 0.37160286 -0.37253225 0.0032226644
-0.41234776 0.17945641 0.32379314 -0.12745333 0.2119909 -0.24049763 -0.09981753 -0.8120573
0.11491444 -0.28144026 -0.006626919 0.052556083 -0.2702842 0.08699043 0.21013817 0.050034646
-0.14040495 -0.1369897 -0.06539705 0.06660367 0.020447237 -0.4727607 -0.21703294 0.12447966
-0.24538548 -0.5375335 -0.1536196 -0.73365307 -0.2538366 -0.27044842 0.34479553 -0.10642839
-0.13307609 -0.49277416 -0.11457673 -0.22600614 -0.33845693 -0.18736906 0.4406048 0.2633436
0.2703227 -0.054725282 -0.27185634 0.2110872 0.03104508 -0.19931646 0.046550892 -0.06986248
0.06357408 -0.4048787 -1.5331568 0.53013384 0.58453214 0.30280122 -0.64874446 -0.10211892
0.35697278 0.27846 0.033662297 -0.72941035 0.20993222 -0.48784107 0.0565528 -0.14666726
0.6475426 -0.76211756 -0.8758363 0.44769654 -0.10282064 0.40941754 -0.48484057 -0.028385403
-0.45922032 -0.030399375 0.8062033 -0.31746483 -0.1489952 0.39355078 -0.25534573 0.31126034
0.14213893 0.1674634 0.5152025 -0.58664227 0.29674637 -0.31204134 0.1281559 -0.1968859
-0.28011525 -0.6483242 0.29214403 -0.3726138 -0.27857575 -0.28898463 0.119726695 0.012859515
-0.7250223 0.5234094 -0.2905498 -0.28064343 -0.5017183 0.29154682 0.0933778 -0.27363965
0.41777295 -0.42537513 -0.11703458 -0.25633314 0.030746447 -0.46095514 0.19739144 -0.7270728
-0.42886233 -0.08354287 0.47223738 -0.46264336 -0.3445998 -0.22524261 0.17610377 0.24277534
-0.17577296 -0.27761334 -0.5465944 -0.07106483 0.24930839 0.28999376 0.7921271 -0.33294842
-0.24887529 0.06528621 -0.51769745 -0.57136315 -0.30121076 0.0075142696 0.08672704 0.025034867
-0.28832453 -0.07374896 -0.30484772 0.38244036 0.54989564 -0.5554695 -0.339776 0.48415545
-0.41851288 0.3476039 -0.64862895 -0.13076067 -0.43979147 0.29625455 0.046061903 0.19715908
0.21867579 -0.10934167 0.34518054 0.045655873 -0.17746289 0.085480005 0.18115397 -0.2992937
-0.26543218 -0.76609045 0.29934862 -0.25235063 0.18910018 -0.44646755 0.05569422 -0.0012392792
0.04868479 -0.19826923 -0.39441016 0.10990984 -0.21376209 -0.14438029 -0.28676572 -0.19547576
-0.11867747 -0.17961583 -0.23269737 0.06505352 -0.4166259 0.06476202 -0.14107998 -0.111132
-0.10043344 -0.112652026 0.27436078 -0.35171038 -0.3175978 -0.047543604 -0.0868765 -0.3707232
-0.19892944 -0.9827947 0.022109943 -0.17040372 -0.34733 -0.019328022 0.079684235 -0.15426935
-0.13628793 -0.27140313 -0.15052272 -0.308116 -0.58247024 -0.33009395 0.023139289 -0.2744215
00000000: 2098 42bd 9e63 c03d dc54 043e 7812 5dbd
00000010: c0e4 9fbe bac3 413e 91e9 083c 7909 b83d
00000020: cead 34bf 977d 44be 17b0 99be 817c 7bbd
00000030: e68b bf3e 8e29 4abe 4c7d 06bf 151f b8be
00000040: 7aca 77be 8528 9f3e 20ed d53e 06f5 d23d
00000050: 4090 c6be db20 84bd 03b1 1cbd 3775 8fbd
00000060: dbb5 8d3e d11e b13d a830 e4be 1b89 2cbe
00000070: dc2c 7bbe a23e 963e 9643 c2be 7fb1 c73c
00000080: b825 38be bc52 18bd e271 8dbe 3aab 7f3e
00000090: 46e0 123f 536a f7be 9571 5b3d 0149 24be
000000a0: ba20 c4bd 5740 0c3d 2860 2fbd 5ddb 24be
000000b0: 713f 65be bb42 be3e 8cbc bebe 5633 533b
000000c0: 3f1f d3be 6cc3 373e 37c8 a53e 2083 02be
000000d0: 2414 593e 0345 76be 226d ccbd fde2 4fbf
000000e0: 4358 eb3d f018 90be a026 d9bb 0c45 573d
000000f0: b162 8abe 0a28 b23d 762e 573e 21f1 4c3d
00000100: 51c6 0fbe 0747 0cbe e3ee 85bd 8167 883d
00000110: f780 a73c b10d f2be e23d 5ebe 31ef fe3d
00000120: 5546 7bbe cc9b 09bf 754e 1dbe b0d0 3bbf
00000130: dff6 81be 3778 8abe 0a89 b03e 21f7 d9bd
00000140: 1945 08be e54c fcbe 34a7 eabd 276e 67be
00000150: 3a4a adbe addd 3fbe f496 e13e f9d4 863e
00000160: bd67 8a3e 9e27 60bd c130 8bbe 3e27 583e
00000170: 4052 fe3c 9d19 4cbe 26ac 3e3d 0f14 8fbd
00000180: 2133 823d 434c cfbe 7b3e c4bf dab6 073f
00000190: e6a3 153f c308 9b3e 1e14 26bf b923 d1bd
000001a0: 23c5 b63e 4f92 8e3e 7ae1 093d a3ba 3abf
000001b0: 79f8 563e 4ec6 f9be e9a3 673d f12f 16be
000001c0: 5ac5 253f 231a 43bf cf36 60bf 7b38 e53e
000001d0: a193 d2bd 2d9f d13e 063d f8be 8188 e8bc
000001e0: ed1e ebbe 1c08 f9bc 5763 4e3f c08a a2be
000001f0: 3392 18be 7d7f c93e adbc 82be 845d 9f3e
00000200: de8c 113e 877b 2b3e 50e4 033f 302e 16bf
00000210: 24ef 973e e2c3 9fbe 4d3b 033e 759c 49be
00000220: 446b 8fbe 93f8 25bf e793 953e 3cc7 bebe
00000230: 7ba1 8ebe cbf5 93be 4533 f53d b7b0 523c
00000240: 109b 39bf 29fe 053f f2c2 94be 7fb0 8fbe
00000250: 9c70 00bf a045 953e dc3c bf3d 7f1a 8cbe
00000260: 56e6 d53e c5ca d9be d3af efbd 193e 83be
00000270: f9df fb3c 5002 ecbe fb20 4a3e 7121 3abf
00000280: d893 dbbe 8618 abbd 19c9 f13e 97df ecbe
00000290: 636f b0be 00a6 66be 8c54 343e 199a 783e
000002a0: d4fd 33be 5623 8ebe 9ced 0bbf 708a 91bd
000002b0: b34a 7f3e 107a 943e d7c8 4a3f 3778 aabe
000002c0: 2ad9 7ebe c7b4 853d d287 04bf db44 12bf
000002d0: 4c38 9abe 433a f63b f29d b13d ec15 cd3c
000002e0: 469f 93be b209 97bd 0015 9cbe 39cf c33e
000002f0: f6c5 0c3f 4033 0ebf 1ff7 adbe 39e3 f73e
00000300: 5247 d6be 23f9 b13e 8c0c 26bf 20e6 05be
00000310: 592c e1be adae 973e 68ab 3c3d 12e4 493e
00000320: 8cec 5f3e 87ee dfbd 81bb b03e a701 3b3d
00000330: d5b8 35be 2410 af3d 6d80 393e 063d 99be
00000340: bae6 87be 811e 44bf 3944 993e 1a34 81be
00000350: 7aa3 413e 6597 e4be 9f1f 643d 4f6f a2ba
00000360: b469 473d 1707 4bbe 21f0 c9be 6918 e13d
00000370: 73e4 5abe 6dd8 13be f5d2 92be cc2a 48be
00000380: 2c0d f3bd 36ed 37be 3848 6ebe c83a 853d
00000390: fd4f d5be f3a1 843d 4577 10be 2d99 e3bd
000003a0: 0cb0 cdbd 1bb6 e6bd 0479 8c3e 6213 b4be
000003b0: 2e9c a2be 15bd 42bd 4eec b1bd 6ecf bdbe
000003c0: 29b4 4bbe 6f98 7bbf e91f b53c 507e 2ebe
000003d0: 3dd5 b1be cd55 9ebc 7d31 a33d c9f8 1dbe
000003e0: 108f 0bbe 5af5 8abe a122 1abe 61c1 9dbe
000003f0: c51c 15bf 1302 a9be 9b8e bd3c fa80 8cbe

bias f4 [24]
0.033948213 -0.63451093 -1.0478691 -0.57490915 -0.6055033 -0.7163366 -0.18246765 -0.030293845
-0.49514285 -0.3691289 -0.18434347 -0.10972632 -0.21249193 -0.2812362 -0.19486812 0.04279153
0.32990253 -0.08513689 -0.3394145 -0.055952486 0.03769259 -0.77043515 0.03421904 0.047466036
00000000: 480d 0b3d 4f6f 22bf 9320 86bf 3f2d 13bf
00000010: 4402 1bbf d661 37bf cdd8 3abe cc2a f8bc
00000020: 5d83 fdbe 77fe bcbe 89c4 3cbe 31b8 e0bd
00000030: 7c97 59be 31fe 8fbe 828b 47be 2c46 2f3d
00000040: fce8 a83e 405c aebd bdc7 adbe 6f2e 65bd
00000050: 8c63 1a3d 3d3b 45bf 4429 0c3d bf6b 423d
