models/resnet_cath95_ss3-ss4-buried.pth (torch_old, 360907 bytes, 132 tensors)

weight f4 [24, 22, 1]
00000000: e3fb 8bbe a8f9 fbbe e439 78bf 52ff 793e
00000010: 7d2a 843d 6ddc aebf 4356 e7bf d6d1 7fbf
00000020: b30e f6be efe0 15be e63a 3fbf 390c 35be
00000030: 0e01 6bbe e92a af3e baa5 70ba af4b c8be
00000040: a652 91be 3f84 96be 50e5 c2be ee98 e0bf
00000050: c29e 97bf e062 a3be e54f 913e addf 83bf
00000060: 3815 5fbf 5c74 ffbc 11b2 303e 84bd 06bf
00000070: bb76 00bd 9a52 8bbe 2de2 0ebf 5e20 88bd
00000080: 229e 63bf 13c0 9bbf aa7a 4ebe 2700 0e3e
00000090: eb84 1b3e 52cd afbc 2b07 0cbf c64b 80be
000000a0: 1a8a 3bbe 53c0 c0bf f559 01bf 496b 353f
000000b0: 995b 18bf e515 d83d 4b95 9d3e ec64 2fbd
000000c0: 7f0d 25be c137 c4c0 e007 40bd dfea 8bbf
000000d0: b5a7 48c0 80fa 60bf 5138 1dc0 c04f 5ec0
000000e0: 165a 713d 2d7f 0bc0 9cc9 5dbf 8c10 26c0
000000f0: 8fa1 973d 480c 493e 37b7 bdbf b4fd d5c0
00000100: 9e3a adc0 78da e33e 49a1 1fc0 523b 213e
00000110: 95bb 9dbd 30e4 313e a957 aac0 0b07 c3bf
00000120: c71c b63d d0b4 4cc0 32f8 59bf 99da abc0
00000130: 9bed a8bf 811b d4bf 4d8a f63a 3fc1 97c0
00000140: 2e7a 49c0 3d32 86c0 95da aebd 40dc 3abf
00000150: 06f6 35bf 4d0f afc0 cc9f 83c0 0e16 ac3e
00000160: c3ba bcbf 2147 6bbe bcdf d53e 1786 89bf
00000170: 2f7d f4be 236c 8c3d 322c 89bf 3163 08be
00000180: a607 643e be45 a7bc 161d 383e 4477 e33d
00000190: 23b5 46bf 7698 b0bd 5271 24be f0da 1f3d
000001a0: 87f5 aebf 570d 30bf c8b6 663e 844b 17bc
000001b0: 785c d3bd cb34 b5bf 02fd 06c0 ce41 863d
000001c0: f0b3 12bf b66c febd 2511 69be e6bd 16be
000001d0: 7778 19bf 62d2 12bf 1b24 92be 1e66 2bbd
000001e0: fcef 23bd 7160 ec3d 6aa3 b7bd 02ad a4bf
000001f0: e85a 26be 48f0 113e 4c45 89bf 0fb0 78bf
00000200: d792 1ebf 29f7 98be f11d d53d d8de 0ec0
00000210: cf24 b2bf 4a0d 84bf 474a f0bc b764 81be
00000220: f2fe 8abf 2b0a 8c3e 94ab 39be d1f0 ae3e
00000230: 6d20 963d c5fe 77bf afd2 7bbe 1681 13be
00000240: d136 14be 2cca 7dbc fb5d 50bf 579b 25bf
00000250: 7b0c 4abf d87e 15bd 482a 89bd 598c 063e
00000260: 89ef b53e 836d 82bf 678f 0abe 624a 2cbe
00000270: 7a5f 9abf 01e5 06c0 6b9a 8cbf 151a 65bf
00000280: 3a62 2d3e b835 cbbf d2e4 51bf 1dbb acbf
00000290: 660b e9bf 7f65 16be 4ba9 5ebf a3cf a6be
000002a0: df0e 1abf 0fe7 aebf 2272 8abd c627 513e
000002b0: 48fd 3bbe b50d 03bf 8c1a dabe 22ca 5abe
000002c0: e4f3 ee3e 78ac ccbe e879 7e3e d66e dabf
000002d0: 1345 83bf 4bd3 493e 20b8 2bbf 5c46 1abe
000002e0: 016d 0b3d 47a9 fabf 6fc0 8f3e 598a a43e
000002f0: 5985 90bf ece7 8ebf fd91 51bf 2416 edbf
00000300: 43d6 8fbf b492 82bf ba1c 5dbc 2978 4d3e
00000310: 7179 b13d 6c83 d63e 58dd f1be 026d e6be
00000320: 5123 1bbf 6e45 47bf 4650 03bf 44e3 053f
00000330: fe72 ebbf f6e3 9abf 6977 6f3e a45c 2ebf
00000340: 28c8 233e 0463 d73c 10eb b8bf edfa c2be
00000350: 189a 4abf 6da3 08bf 244d a0bf 4236 0dbf
00000360: ccf4 c23d 58e7 693f 8a0d c23e 91f0 9fbf
00000370: f69c 98be 7399 1bbf 0301 d3bf 3c9f ddbe
00000380: b8d2 d2be 8cc7 2e3e 715c 3dbd 1c0a e2bd
00000390: 7fa2 0f3d 3379 34bf 7c9d 27be 2282 bcbc
000003a0: 0665 9dbf 2bfc 86bc a059 f6be 40b6 f7be
000003b0: 87d3 d83d c305 633c a1ca 97be 98e3 a8bf
000003c0: 38cf d1bf 6d53 21be b330 13c0 bd9d 57c0
000003d0: 0c68 44bf 7f50 94bf f4ac 6fbe 831e cabc
000003e0: 7613 f5c0 5f37 813e 6b65 89be ca0c 59be
000003f0: ea37 bebe 9161 4d3d c361 98be 38d8 9fc0
-0.27340612 -0.4921391 -0.96963334 0.24413803 0.064534165 -1.3661019 -1.80732 -0.9992956
-0.4805809 -0.14636587 -0.74699247 -0.17680444 -0.22949621 0.34212425 -0.00091799686 -0.39120242
-0.28383368 -0.2939777 -0.38065577 -1.754667 -1.1845324 -0.31911373 0.28381267 -1.0302635
-0.8714175 -0.031183414 0.17255427 -0.5263293 -0.03136323 -0.27211457 -0.55813867 -0.066467986
-0.88913167 -1.2167991 -0.2016398 0.13867246 0.15187423 -0.021460209 -0.5469844 -0.2505781
-0.183144 -1.5058693 -0.5052789 0.7086683 -0.59514767 0.10551051 0.30777964 -0.042820856
-0.1611843 -6.131806 -0.04688251 -1.0931052 -3.135236 -0.8788223 -2.4565623 -3.4736176
0.058923803 -2.1796372 -0.86635756 -2.59476 0.07403862 0.19633591 -1.4821538 -6.6872196
-5.4134054 0.44502616 -2.494219 0.15745285 -0.07701794 0.17372203 -5.3232007 -1.5236524
0.088922076 -3.198536 -0.8514434 -5.3704343 -1.3197511 -1.6570894 0.0018809527 -4.7423396
-3.1480823 -4.1936326 -0.08537785 -0.72992325 -0.71078527 -5.470618 -4.1132565 0.33610576
-1.4744495 -0.22976352 0.41772258 -1.0744046 -0.47751758 0.06856563 -1.0716612 -0.13319089
0.22268543 -0.020418998 0.17979845 0.111067325 -0.7762014 -0.086228296 -0.16058853 0.039027154
-1.3668679 -0.68770355 0.22530663 -0.009234313 -0.103203714 -1.4156736 -2.1091924 0.0655552
-0.5730581 -0.12423079 -0.22760446 -0.14720878 -0.5994944 -0.5735227 -0.2854317 -0.041845433
-0.04002379 0.11541832 -0.08966716 -1.2865298 -0.16245615 0.14251816 -1.0724273 -0.97143644
-0.6194281 -0.29876068 0.104061015 -2.2323513 -1.3917483 -1.0316556 -0.029332293 -0.25272152
-1.0859053 0.27351508 -0.18131858 0.34168103 0.073304035 -0.9687312 -0.24592088 -0.14404711
-0.14474036 -0.015490096 -0.813934 -0.64690155 -0.78925294 -0.03649792 -0.06697518 0.13139476
0.35534313 -1.018967 -0.13531266 -0.1682525 -1.2060387 -2.1077273 -1.0984625 -0.89492923
0.16932002 -1.5875769 -0.8198978 -1.3494602 -1.8206604 -0.14687155 -0.8697707 -0.3258029
-0.6017894 -1.3664263 -0.0676005 0.20425329 -0.18358338 -0.5119279 -0.4259838 -0.2136617
0.4667045 -0.39975333 0.24851191 -1.7065074 -1.0255455 0.19709508 -0.6707783 -0.15065902
0.0340395 -1.9582909 0.28076503 0.321368 -1.1290694 -1.1164527 -0.81863385 -1.8522382
-1.1237262 -1.020102 -0.0134956185 0.20065369 0.08665741 0.41897142 -0.47239184 -0.4500504
-0.60600764 -0.77840316 -0.5129436 0.52299905 -1.8394468 -1.2100818 0.23385395 -0.6811011
0.15994322 0.026292332 -1.4446735 -0.38082066 -0.7914138 -0.5337437 -1.2523541 -0.55160916
0.095193475 0.9136863 0.37900954 -1.249529 -0.29807252 -0.6078102 -1.6484684 -0.4328555
-0.4117639 0.17068309 -0.046230737 -0.110370845 0.035067078 -0.70497435 -0.1636867 -0.02301127
-1.2296455 -0.016477665 -0.48115253 -0.48381233 0.10587221 0.013856354 -0.2964678 -1.3194456
-1.6391363 -0.1575448 -2.2998474 -3.3690026 -0.7672126 -1.1587065 -0.2340582 -0.024672752
-7.6586256 0.25237557 -0.26835188 -0.21196285 -0.37152034 0.050141875 -0.29762086 -4.995144

weight f4 [24]
00000000: 1a68 f63b 67e5 3d3d 0862 8039 d150 443c
00000010: 9565 dc3d e225 783d 90aa e53d 04c8 c73c
00000020: 517f 633d b4df a43d 8806 f73c c39e cc3b
00000030: 4de7 b83c 77ea 073d 31b2 b73d 0589 123c
00000040: 0d84 893c 5f53 8e3d 9abf 6c3d 3997 7d3b
00000050: a400 bc3c 27f1 9c3d 09f2 f13c c320 583d
0.007519734 0.046361353 0.00024487101 0.011982159 0.10761563 0.060583003 0.11214173 0.024387367
0.05554134 0.080504805 0.030154482 0.006244512 0.02257123 0.033182587 0.08969534 0.008943801
0.0167866 0.069494955 0.057799913 0.0038694872 0.022949524 0.07663184 0.029534357 0.05276562

weight f4 [24, 24, 3]
00000000: b7d5 8ebd 6866 c5be 167f 0fbf 91ce 833e
00000010: dfe7 f8be 45bf 0abf 7419 c03d aa1b 92bd
00000020: e881 81bc c9ee 17be 0ea2 eb3d f566 41be
00000030: 21c7 11bf 328e f6be f6cb 1dbf 2d96 f6bd
00000040: 1784 f2bb a09e f53e 34da 27be 7f27 43bf
00000050: ede0 d7be 4650 d1bd 9cf3 213f 4737 083f
00000060: 6311 e03e 4062 533f 516b 47be b323 b6bc
00000070: 01dc c1be 3f6a e6bd 4bfc 983e 972e de3e
00000080: 7785 ab3e 793b c53e f4ce 9abe ca0b 10bd
00000090: f222 fbbc 603c e0be d1be c13e f1c9 403e
000000a0: 3394 71bf d934 31bc 3e9c a73e eabb 793e
000000b0: cc51 873c b778 023f 2551 ddbd 436a c0be
000000c0: 4f55 e7be c839 ebbe 23c5 c13e 0731 c8be
000000d0: 5c75 e2bd 3022 81be 38a6 883d 3eb3 c53e
000000e0: c683 2bbf fa4a 0f3f 85b2 c0be cc8a 363d
000000f0: 3349 9bbe 8198 19be bcf1 413f 35ec 6f3c
00000100: 28e6 0ebe 5c1c 4c3e 5f28 bf3d f927 60bf
00000110: b225 293e fea8 cd3e ae4c 89bf 31de 68bf
00000120: 0265 bebe 122f 3f3e e782 033e 09ad e3bd
00000130: 187f a83e 4ced 273e 5a81 f93a a3b9 28be
00000140: 4e35 36be 2eb5 d9be 8990 873e 72a8 ad3d
00000150: 59a0 b8be 6ce3 493d 689b 09be c15c 4bbe
00000160: 83ae b23e a3dc debd a90c 943e 2e24 a0bb
00000170: 45ea 11bf c944 b1bd 901d 32bf 4e60 2b3e
00000180: 2f30 9fbc 5b89 313e 0dda cfbe 9e03 bb3d
00000190: 40e0 d63e f738 44be 2185 c33e 7df0 403e
000001a0: a77e 71be cf4b ee3e 47d3 bebd 3605 00bc
000001b0: 733b 4c3e 474c a8be 5ce0 de3e b236 8abd
000001c0: 286b 9dbe d625 a63d 5927 c0bd 7c95 d8be
000001d0: ac65 d7be 3951 6fbe fefb 7fbd ef05 f73d
000001e0: e268 1cbd 45ac 86bd 3277 f8be b1e0 08bd
000001f0: af2d 02bf 2955 e73d ba99 8c3e bbc4 eb3e
00000200: c8d0 f2be 2efd c3be 241a 283f e04c f43e
00000210: 21d5 913e 483c 913e 5018 473d 226c 4e3e
00000220: bdce 9abf 3c91 a0bd 72ef 11be 7032 773e
00000230: 85db 29bf aba8 573f 2fdf 343e 754b 0cbf
00000240: 7f55 bebd 716c 9dbe 4e48 053e c20c 5d3d
00000250: 9a01 e8be 77a9 173f e479 0cbf 7514 0fbe
00000260: 3e11 25be efb5 12bc ecbd 713c 3a5b 84be
00000270: 43d3 c33e ea47 84bd 8363 fabe b6fa a53e
00000280: 6b07 673c 455d b93e d51d 0abf 55b2 d9be
00000290: 3d82 22bf 7d43 91be bb92 19be cd1c 963e
000002a0: 53d8 ffbd 9fe2 c4be bc62 f2bd e8c6 d0be
000002b0: a11f 99bd c874 40bb 4aa6 16bf ed97 f13a
000002c0: 4e32 2a3d d142 d9bd d8e2 f93d 3376 523d
000002d0: 38e5 36bf 25cd ff3e aa2d 8e3e 2af0 b63d
000002e0: 433a e53e 0296 74be a1cf 773e ce14 a43d
000002f0: d612 15bf 9e08 cb3d c8b3 293c 0401 94be
00000300: b125 843c faec 8ebe 5f4e 5fbe 7363 9dbe
00000310: 3264 283f c99f 1abd cac6 0dbf 35e8 b5be
00000320: 8e92 04be c13f 95bf 1e73 22bf 89cd 0fbf
00000330: 5e5c 9ebe 4aa4 6b3e cbd2 493e 570f 67be
00000340: 90ac 113e f706 24be 6a82 273f 1b6d 5e3e
00000350: 43af 1e3e 8ee5 203c 79c0 8bbd 10fe c03d
00000360: 1a31 90be 6b6c b6be a736 83bf d66c 8c3e
00000370: b794 fcbb 769a c1be 724d e7bd aeaf abbd
00000380: 23fc 0e3f 2923 cebe a347 3b3e 5f8b c53e
00000390: dd7a 7dbe c7b6 693e faf3 fd3e 0c31 533f
000003a0: 258b 653e 269d 12bf 3b11 2abf 1bd0 543e
000003b0: be0a a9be 27b9 a9bb 706a e6be 587c 913d
000003c0: 1a14 39bf 1ab8 493e 180d 963e 4731 f83e
000003d0: 4e29 ebbc c8aa 8cbd 4614 58bf 2186 813e
000003e0: 2a39 1b3f 80d3 b73e 811e 42be a813 fc3d
000003f0: fcf0 06bf 84ba 1e3e a058 563e cbd6 bbbe
-0.069743566 -0.38554692 -0.5605329 0.25743535 -0.48614404 -0.54198104 0.09379855 -0.07134183
-0.015809014 -0.14837183 0.11505519 -0.18886931 -0.5694447 -0.4815536 -0.61639345 -0.120403625
-0.0074010002 0.47972584 -0.16391832 -0.7623214 -0.42163792 -0.10220389 0.63262343 0.53209347
0.43763265 0.8257179 -0.19474532 -0.02223382 -0.37863162 -0.112507336 0.29879984 0.4339492
0.33500263 0.38521937 -0.30236018 -0.035167493 -0.030656312 -0.43796062 0.37840894 0.18827035
-0.9436676 -0.0108158225 0.3273639 0.2438809 0.016518496 0.50965446 -0.10806493 -0.3758107
-0.45182273 -0.4594252 0.37845716 -0.39099905 -0.11057541 -0.25221395 0.06672329 0.38613313
-0.66997945 0.5597378 -0.376362 0.04456596 -0.30329284 -0.14999582 0.7575948 0.0146437185
-0.13954985 0.19932693 0.09333872 -0.87560993 0.16518286 0.40167993 -1.0726526 -0.9096404
-0.37186438 0.186703 0.12842904 -0.11116988 0.32909465 0.16399115 0.0019035742 -0.16477065
-0.17793772 -0.42521042 0.2647746 0.08479394 -0.36059836 0.049289152 -0.13438189 -0.19859602
0.34898767 -0.10881927 0.2891591 -0.0048871255 -0.5699809 -0.08655698 -0.6957636 0.16735956
-0.019432155 0.17337553 -0.40596047 0.09131549 0.41967964 -0.19162355 0.38187507 0.18841739
-0.2358347 0.46542212 -0.09317642 -0.007813742 0.19944553 -0.32870695 0.43530548 -0.067487136
-0.30745816 0.081126854 -0.09382505 -0.42301548 -0.42069757 -0.23370828 -0.062496178 0.120616786
-0.03818596 -0.065758266 -0.4852844 -0.033417407 -0.5085096 0.1129554 0.27461034 0.4604853
-0.47424912 -0.38279098 0.6566489 0.477149 0.28482917 0.28366303 0.04860717 0.20158437
-1.2094342 -0.07840201 -0.14251497 0.24140334 -0.66350585 0.8424174 0.17663263 -0.5480264
-0.09293651 -0.30746797 0.13015863 0.053967245 -0.45313722 0.5924296 -0.5487349 -0.13972647
-0.16119859 -0.008954509 0.014754754 -0.2585085 0.38247117 -0.06459029 -0.48904046 0.3241784
0.01410089 0.36203972 -0.5395177 -0.4251887 -0.6347998 -0.28371802 -0.1499738 0.29318848
-0.124924324 -0.38454148 -0.11835238 -0.40776753 -0.07476736 -0.0029366482 -0.58847487 0.0018432118
0.04155188 -0.10608447 0.1220147 0.051382255 -0.7144351 0.499612 0.27769214 0.089325264
0.44771013 -0.23885348 0.24200298 0.08011781 -0.58231866 0.09913753 0.010357805 -0.28907025
0.016131254 -0.27915174 -0.2180724 -0.30739936 0.65777886 -0.03775004 -0.55381453 -0.35528722
-0.12946531 -1.1660081 -0.63456905 -0.56172997 -0.30929846 0.2301189 0.19709317 -0.22564445
0.14225984 -0.16018282 0.6543337 0.21721308 0.15496545 0.009820355 -0.068238206 0.094234586
-0.28162462 -0.3562959 -1.0251054 0.27426785 -0.007708158 -0.37813157 -0.112940684 -0.083831176
0.5585348 -0.402612 0.18289046 0.38582894 -0.247539 0.2282363 0.49600202 0.82496715
0.2241636 -0.5727104 -0.6643254 0.20782511 -0.33016008 -0.0051795426 -0.4500308 0.07103795
-0.722963 0.19699135 0.29306865 0.48475096 -0.028706219 -0.068685114 -0.84405935 0.25297645
0.606341 0.3590355 -0.18956949 0.12308437 -0.5271146 0.15500838 0.20932245 -0.36687312

bias f4 [24]
00000000: 62f0 67be 6db2 37be a0ad 16be 9d8f 1abe
00000010: eda2 efbd 8c94 86bd da76 2bbe 9208 52be
00000020: ff43 85be 0262 94be 655a 32be 997c 3ebe
00000030: d3bd f1bd df60 50be db6e 44be 094e e5bd
00000040: 5cb4 41be 0b55 4ebe 3603 51be f4ee 94be
00000050: b24d 07be 72af 8abe 2aff e6bd 43a1 61be
-0.22650293 -0.17939158 -0.1471467 -0.15093847 -0.117009975 -0.06571302 -0.16744557 -0.20511082
-0.2602844 -0.28981024 -0.17417295 -0.18602218 -0.11803784 -0.20349453 -0.19182913 -0.11196525
-0.18916458 -0.20149629 -0.20411381 -0.29088557 -0.13213232 -0.2708698 -0.112791374 -0.22034173

weight f4 [24]
00000000: 0e64 e53d 873e ef3d 1a8e 1a3e 6820 2b3e
00000010: c8f0 323e 6dcf 9d3e 605b c43e 9c93 b33d
00000020: d4ca c03d f6b5 e33d 959b 643e 218b ba3d
00000030: abe0 933e abdf 423e 000c 2b3d 8537 6d3e
00000040: 7d49 eb3d bc95 053e e3a3 713e c9b5 2d3d
00000050: b791 3d3e 2294 563d 35cd 003e 62ed 043e
0.112007245 0.11681848 0.1509327 0.16711581 0.17474663 0.30822316 0.38350964 0.08768389
0.094136864 0.11118691 0.22324975 0.09108568 0.28882346 0.19030635 0.04175949 0.2316571
0.11488626 0.130454 0.23597674 0.042409692 0.18512617 0.052387364 0.1257828 0.1298118

weight f4 [24, 24, 3]
00000000: a2ea 21be b317 cc3d b9ca debe b04f 893e
00000010: 6bbe fe3d b922 483e 0f67 28be 78e6 6f3d
00000020: c070 83be c015 3fbe 5fc8 f73b 97f9 1dbe
00000030: cfc4 f1bd f4f6 5ebe ccdb e53e 3784 c3be
00000040: fa05 db3d 1fb4 81bd 2e1c 50bd 4a89 bb3e
00000050: 2c02 b4be 609d 173e cb26 06be 2756 91be
00000060: ada3 26bf d378 59be 9edd c33e ad8b dabe
00000070: b65d a23d 7a4a b03e 5122 a3be d60a 933d
00000080: c8a5 593e 4337 423e 9956 e9be 5f8b 53bc
00000090: 5a36 013f d093 a1be e020 ecbd 5369 efbe
000000a0: e430 023e ca6c b73e 7e9b 953d 55ce 81be
000000b0: 65a0 c93d d630 ffbd 53af 2cbe 8673 d03e
000000c0: b213 693e b956 80be 44f7 603d 1558 c23d
000000d0: e58a 03bf ecf7 26be b429 c33d 09bc 963e
000000e0: aeb3 623e 642a c5bc 3ce9 933e 194b 47bd
000000f0: 8231 cabd c0f8 a63d 472e be3a 44b8 71be
00000100: cb46 b63e a763 8a3e 4acc b63c 099d 0fbd
00000110: 190e 223e 27de ffbe 2b0a 043e af2b 65bd
00000120: 5df8 fdb9 c432 013e a178 d1be 3a56 ac3e
00000130: 7431 de3d 8b41 6f3c 41a5 53be 77db e33e
00000140: 3b88 c73e 6ae7 193f 77de 8ebe 678e 24be
00000150: fdd0 b13d e4b1 88bd 9d2f aabe 57dd 233f
00000160: 59c1 cdbe 7506 12bf b420 2cbe 5086 0a3e
00000170: d141 95bc b591 1d3f 17f6 5d3d 66bf 89be
00000180: 1fe4 293e 7992 a63e f77b bdbc f4cb 4ebd
00000190: 54ef 9b3e 779c c2be 4eb3 51bc e117 c43d
000001a0: ce63 e3bc c4a5 a5bc 65b0 13bd bf7c 52bc
000001b0: 4446 3ebe 9e3c 6e3e 637d 88bb 662d 2fbd
000001c0: 6277 d6bd be0e d1be 982d b7bd bbdf c0be
000001d0: 5538 a03e 4f60 28be 7683 993d a157 26be
000001e0: 2acd 273e c100 62be e6b4 ca3e 2f08 acbe
000001f0: 5436 e83e b079 27bf e3b1 173e ee1d 16bd
00000200: 88d3 53bd c853 373f c251 73be 4e49 c5be
00000210: 5a74 eb3e 5d0a 95be 4550 81bf d673 d73e
00000220: 8a2f 023d 462d f03c 0190 803e 806d 02bf
00000230: 89db 1abd 45e2 cf3e 1b71 563e 3529 7b3d
00000240: 586a b3bf f844 cdbd 997f 0d3f f9c6 173f
00000250: eeae dcbe 1724 23bf ae71 873d 814c 7d3f
00000260: 2434 223e dc8c d33d 59f9 63bf aa41 75bf
00000270: f390 6c3d 2c19 093c 0fe7 0fbe 6d39 12bf
00000280: a442 45be 769d 7bbf 9ef5 5c3f 7218 873e
00000290: cef5 acbf 8e6b af3e a7b4 ac3e 01fa 263f
000002a0: 9688 4bbf d7e7 3b3f 4895 dcbe 9535 50bf
000002b0: c9a7 f5be e1a9 23bd 4a00 813f 1b2f 8b3f
000002c0: e5fd 68bf 1c26 e4be b474 2bbf d09e 723e
000002d0: fd95 0b3f f94d 6d3e bcd6 eb3e 0fa5 34bf
000002e0: 0055 58bc 3d0b 173f 01dd 20be 4b14 403f
000002f0: d919 683f 88c9 043f 4613 41bf 56dd 93bf
00000300: b470 7b3f a2d5 933f 757e 4f3e fece 043f
00000310: 6404 9cbe 2818 1c3f bd45 443f 9a14 0abf
00000320: 8645 61bf 63b2 273e e827 643e 5a19 07bf
00000330: 822e c3be 0c7e 52be 548c b5bf c15e 96be
00000340: 32ee 223e 24b0 bebd 5704 14bf 04d7 d2bf
00000350: 0eb5 98bf 8c22 cdbd b2e0 5d3f ecb8 26be
00000360: 0835 5dbe 4227 0c3f 5c2e 80be f34f eabe
00000370: b438 10bd c9c8 133f 4839 b43e ecd2 3fbf
00000380: 09dd 41bd 0a63 abbb dfd1 973e 8979 c4bc
00000390: 7deb 023f 8675 2fbe d9cf ac3e 574b 963e
000003a0: 1c86 3d3e 4e3f b23c 6a7a b6be b9df 6bbe
000003b0: fccf cdbd 3f51 c6be 5aa2 833e dc8d 4d3d
000003c0: 2f13 b73e c2a9 17be ac81 3dbf d316 dcbd
000003d0: 9208 c23d d574 3f3f de14 97bd d1d0 bdbd
000003e0: c7bd 293d 0073 503e 7520 03be b31e 5bbe
000003f0: 82d9 453f 09b2 a73a fbd2 62be 174e 94be
-0.15812162 0.09965458 -0.4351404 0.2681861 0.12438663 0.19544496 -0.16445564 0.0585694
-0.2567196 -0.1866064 0.007561728 -0.15427242 -0.118051164 -0.21773893 0.44894254 -0.3818681
0.10694499 -0.063331835 -0.050808124 0.3662818 -0.35157907 0.14806128 -0.13100736 -0.28386042
-0.650935 -0.21237497 0.38255018 -0.4268469 0.0792803 0.3443182 -0.3186212 0.07179801
0.21254647 0.18966393 -0.4557388 -0.012911647 0.5047356 -0.31558084 -0.11529708 -0.46760044
0.12713963 0.35825187 0.073050484 -0.2535273 0.09845046 -0.124604866 -0.16863756 0.40713137
0.2276142 -0.25066164 0.05492331 0.094894566 -0.5138381 -0.16305512 0.095294386 0.29440334
0.22138855 -0.024068065 0.2888888 -0.048655603 -0.09872724 0.08152914 0.0014509641 -0.23605448
0.35600886 0.27029154 0.02231421 -0.03506187 0.1582569 -0.49974176 0.12894504 -0.055949863
-0.00048440965 0.12617022 -0.40912345 0.33659536 0.10849276 0.014603029 -0.20668508 0.44503376
0.38971123 0.60118735 -0.27904102 -0.16069947 0.086824395 -0.06674555 -0.3323945 0.6400961
-0.40186575 -0.570411 -0.1680935 0.13527799 -0.01821986 0.61550456 0.054189768 -0.26903838
0.16590928 0.32533625 -0.0231304 -0.050487474 0.3045603 -0.38009998 -0.012799097 0.09574867
-0.027757552 -0.020220645 -0.036056895 -0.012847125 -0.18581492 0.23265311 -0.004165338 -0.042767905
-0.10471989 -0.4083156 -0.08944243 -0.37670693 0.31292978 -0.16442989 0.07495777 -0.16244365
0.16386858 -0.220706 0.3959114 -0.33599994 0.4535395 -0.65420055 0.14813952 -0.036649637
-0.051715404 0.71612215 -0.23761657 -0.3853249 0.45987207 -0.2910947 -1.0102621 0.42080563
0.031783618 0.029318463 0.25109866 -0.50948334 -0.03780702 0.40602317 0.20941584 0.061318595
-1.4016829 -0.1002292 0.55272824 0.59287983 -0.4310221 -0.63726944 0.066134796 0.9894486
0.15840203 0.10329601 -0.8905235 -0.9580332 0.05775542 0.008367818 -0.14052986 -0.57118875
-0.19263703 -0.9828714 0.8631228 0.26385838 -1.3512514 0.34261745 0.33731577 0.65225226
-0.7950529 0.73400635 -0.43082643 -0.8133176 -0.47979572 -0.03995693 1.0078213 1.087375
-0.9101241 -0.44560325 -0.6697495 0.23693395 0.5452574 0.23174275 0.46062267 -0.7056436
-0.013203859 0.59001523 -0.15709306 0.75030965 0.9066444 0.5187001 -0.75420034 -1.1551921
0.98218846 1.154957 0.20263083 0.51878345 -0.304721 0.6097436 0.7666891 -0.53937685
-0.8799671 0.16376643 0.22280848 -0.5277306 -0.3812142 -0.20555896 -1.418345 -0.29369166
0.15911177 -0.0931094 -0.5781912 -1.6471868 -1.1930254 -0.10016355 0.8667098 -0.1628148
-0.21602261 0.547474 -0.2503537 -0.4576412 -0.035210326 0.5772825 0.35199952 -0.74931216
-0.047329936 -0.0052303122 0.29652306 -0.023983734 0.51140577 -0.17134675 0.33752325 0.29354355
0.1850819 0.021758702 -0.3564027 -0.23034562 -0.100494355 -0.3873386 0.25709802 0.050184116
0.35756823 -0.14810851 -0.7402599 -0.10746541 0.09474291 0.74787647 -0.07377027 -0.09268344
0.04144075 0.20356369 -0.1280535 -0.2139843 0.77285016 0.0012794147 -0.22150795 -0.28965828

bias f4 [24]
00000000: 66fa c13d 3c43 a1bd 7691 81bf 1fd8 29be
00000010: 247a a93c 237f 853d 895b 1c3c 5e7d 17be
00000020: f4be bc3e 2f2c bd3e 8f3c dabc 88a3 433e
00000030: 5baa b1bd 65e0 2d3e dda5 e63d 8324 fdbe
00000040: 1dd4 bbbe 8263 90bd 38b6 2abc 9083 a1bd
00000050: e347 d13b f230 2bbe b881 ce3d 7492 43bd
0.09471588 -0.07874152 -1.0122516 -0.1658635 0.020688124 0.0651839 0.009543308 -0.14793918
0.36864436 0.36947772 -0.026640205 0.19105351 -0.08675071 0.16980131 0.11262105 -0.4944192
-0.36685267 -0.070502296 -0.010419421 -0.07886422 0.0063867434 -0.1671789 0.10083336 -0.04774709

weight f4 [24]
00000000: d2bc da3d c801 e83d 77f8 3dbc dcef 6b3c
00000010: 2b87 fd3d 69ce 713e ff33 403e 4b36 703d
00000020: 5b8f 613e 236e 923e 4ac0 2a3e f1b2 ad3d
00000030: 0e77 0c3e 5f01 4c3e 04b2 ac3e e9e7 37bc
00000040: 1668 413c 78d7 213e 9307 e03d 60f4 403e
00000050: ed99 5d3d ad36 1b3d c469 aa3d 3b63 753e
0.10680546 0.11328465 -0.011594883 0.014400449 0.12379297 0.23613895 0.18769835 0.058645528
0.22027342 0.28599653 0.16674915 0.08481396 0.13717291 0.19922398 0.33729565 -0.011224725
0.011804601 0.15804851 0.10938945 0.18843222 0.054101873 0.03789394 0.083209544 0.23963635

weight f4 [24, 24, 3]
00000000: fe97 083b b71a 9cbd d9ea 88be 37eb 6f3d
00000010: 3755 9e3d 00b8 a7be 19da 5a3d ee25 853e
00000020: b546 bfbe ce2e 6e3e b529 40be 9dc0 2d3c
00000030: 8a17 3f3e 9054 2bbd bb18 12bf 6e23 ecbd
00000040: 9fd6 603e c93a 41bf e4cd 20be 4419 b63e
00000050: 6723 0bbe 235b 89be 31e1 1d3f ff12 8bbd
00000060: ea8d 3ebe 1065 7ebc 7f87 f63d 4678 89bf
00000070: 7cff 7c3e a023 b93e 524a 28be 5dda a73e
00000080: 8550 24be 8f33 b13e 7aa2 39be 0285 093f
00000090: a053 f93d c3c3 0d3f 9923 76bd 8bb3 1ebb
000000a0: e34a 80be fb4f 7fbd 5a14 81be 6264 603e
000000b0: 56c0 173a 28ce 093e 99ce afbd a371 323e
000000c0: 08df c63d 30cd 1ebd 0b09 ecbe 4dab c83e
000000d0: b84e f5be 3212 9e3e 4942 74be 1007 55bd
000000e0: 9768 9bbe ed43 9a3e 4fbb 07bd 3687 d73e
000000f0: 51f9 dabe 83c4 febd fcaa 92be 0a36 f3bc
00000100: 760d d9be 99e6 313e 826a dcbd f27d 113e
00000110: 86a3 023e cbc0 953d 0000 be3d 8aa2 403e
00000120: cec7 2d3e f830 e1be 12e9 1fbe 41fb 173e
00000130: 0f47 70be c647 47be db12 d0be 4af0 4b3c
00000140: 3888 973d ce46 e03d bda9 56bd cfbf 1dbd
00000150: 1c3f 803e 89db ddbe a2fb 4b3e c7f9 1cbf
00000160: e10f 0a3e 68b5 863e cfba 10bf 58d3 a9be
00000170: 0900 c73e c521 c0bd aecb 1abf 1185 8dbf
00000180: 6d40 4b3e f849 6b3c bfca 993c 649d f4be
00000190: 4de8 c83e 8321 273d f8d1 05bd c8e4 343e
000001a0: 5a62 463e b888 fb3e 4d3a 883e 8930 e03e
000001b0: df0e 33bf 4599 1ebf cd50 853e 7069 01be
000001c0: 69cc 963e 6ae3 00bb 418d 193e fd48 6dbd
000001d0: 08eb e2be f3e3 8d3e 76ef 3cbe 7768 2abe
000001e0: 497f 9fbd ab01 55bf f9be 073f 1b2c 0abf
000001f0: eb6c a73e 0dc5 293e acf9 533d 70e4 7fbe
00000200: b056 173d 35a0 6ebe b47a e3be 65c0 333e
00000210: 2848 3d3e ae3c c3be b2ab 38bf 45b8 fbbd
00000220: 2096 cf3e 378c 49be c97b 11be c0f7 423e
00000230: 8833 4cbe d743 0bbf 6d38 853e 2474 48be
00000240: e02c abbe 86d2 553d 765a 1abe 607c 64be
00000250: 508f 9e3e a90e c03c 4799 15bd 991c cfbd
00000260: 52da 90bd e230 6c3d c77b f13e 943e b9bd
00000270: 61d8 efbe d109 12bf a0dd 8ebe f85d 343f
00000280: 581c a3bc cd83 34bf 8a48 ab3d 1f5f a2be
00000290: 9bdc fdbe e5ea b73e 6a2a 72bf e1b3 213e
000002a0: 196c 6dbe a166 dcbd 56ae fa3d 2d88 90bf
000002b0: 6a98 18be f5a6 90be e3b0 1e3e fd0c c03d
000002c0: d67c ab3e 55b2 113c 5fa7 f43e a262 89bd
000002d0: a928 8a3e f797 f6bd 1cf7 d03e b97a b83e
000002e0: 8ebc 6dbe 6a53 1a3e a368 c6be be30 0ebe
000002f0: 370c 8d3e 2e52 2b3d f6f3 87be 3d36 d13d
00000300: 6d2b 303d b37c ef3d 204d 1abe afa0 623f
00000310: d38b 0bbe 3b14 e5bd 7d8d ed3e e09d f43d
00000320: cba1 a73d 826c 15be 108c 71be a2f1 253e
00000330: 60a2 bbbc f920 a03e 98c5 80bd e7ec 1dbd
00000340: affc 94be 9d21 55be 8f68 913e 5f1b 62bc
00000350: cedb 5c3e 0677 e1be 52e6 993e 9b29 4cbe
00000360: 3ad8 c0bd 8b87 e93c 2725 aebc 04fc 37be
00000370: 5acd a83d 2504 88be 0be7 273e 0626 c9bd
00000380: 90a0 2cbd cf2f 0abd 7ccb 273d b5e9 58be
00000390: dc75 9a3e 42f4 31bf 2309 33be 84e7 7dbe
000003a0: bcc5 eabd 55b8 7a3d 8c1e bbbe 06ac ca3e
000003b0: e3a8 4d3e 7c89 983c 70c4 223e 9343 2dbc
000003c0: ebc6 12bd 5d6a 6fbf 1ebc 9ebe a5dc c43c
000003d0: c4c3 10be e9a4 663e 900a 503e dadb 00bf
000003e0: 224c 43be 9f7d 503e 6529 d43e 6840 78be
000003f0: 3a96 ae3e c625 1e3f aecb ba3e 1db8 16be
0.0020842548 -0.07622283 -0.26741675 0.058573928 0.07731097 -0.32757568 0.05343065 0.260055
-0.37358633 0.23260042 -0.1876591 0.010605005 0.18661323 -0.041828692 -0.57068986 -0.11530195
0.21956871 -0.75480324 -0.15703541 0.3556615 -0.13587724 -0.26827344 0.6167174 -0.067907326
-0.18608823 -0.015527025 0.120375626 -1.073983 0.24706835 0.36159992 -0.16434601 0.32783785
-0.16046341 0.3460965 -0.18128386 0.5371858 0.12174153 0.55376834 -0.060092542 -0.0024215903
-0.25057134 -0.062332135 -0.2521084 0.21913293 0.0005788853 0.13457549 -0.08584327 0.17426161
0.097105086 -0.0387699 -0.4610065 0.39193192 -0.4791162 0.30873257 -0.23853411 -0.05200869
-0.30353233 0.30129948 -0.033137616 0.42095345 -0.42768338 -0.124398254 -0.28646076 -0.029688854
-0.42393082 0.17373122 -0.10762502 0.142082 0.12757692 0.07312163 0.09277344 0.18812004
0.1697075 -0.43982673 -0.15616253 0.1484194 -0.23464607 -0.19460973 -0.40639386 0.012447426
0.073990285 0.10951005 -0.05240797 -0.038513 0.2504815 -0.43331555 0.19920209 -0.6131863
0.1348262 0.26310277 -0.5653505 -0.33169055 0.38867214 -0.09381441 -0.6046704 -1.1056234
0.19848795 0.014360897 0.018773435 -0.4777633 0.3923973 0.040803444 -0.032670945 0.17665398
0.19373456 0.49127746 0.2660698 0.4378703 -0.69944566 -0.6195262 0.2603821 -0.12637877
0.29452828 -0.00196668 0.1499529 -0.057930935 -0.4431994 0.27712974 -0.18450722 -0.16641413
-0.077879496 -0.8320567 0.53025776 -0.5397355 0.32700285 0.16579075 0.051751778 -0.24989486
0.036947906 -0.23303302 -0.44429553 0.17553861 0.18484557 -0.38132232 -0.72136986 -0.12291006
0.40544224 -0.19682394 -0.14207377 0.19039822 -0.19941533 -0.5440039 0.26019612 -0.19575554
-0.33432674 0.052202724 -0.1507357 -0.2231307 0.30968714 0.02344449 -0.03652313 -0.101128764
-0.07072891 0.057663806 0.47164747 -0.09045139 -0.46844772 -0.5704623 -0.2790346 0.70455885
-0.019910976 -0.7051361 0.08363445 -0.31713197 -0.4958237 0.35921398 -0.9459597 0.15791275
-0.23185767 -0.107617624 0.12240283 -1.1291558 -0.14901891 -0.28252378 0.15497164 0.09377477
0.3349368 0.008892615 0.47783944 -0.06708266 0.26984146 -0.12040704 0.4081353 0.3603113
-0.23216459 0.15070882 -0.38751706 -0.13885781 0.27548382 0.04182642 -0.26553315 0.10215423
0.043010164 0.11693706 -0.15068483 0.88526434 -0.13627557 -0.11185499 0.4639701 0.11944175
0.081851564 -0.14592174 -0.23588586 0.16205457 -0.022904575 0.31275156 -0.06287688 -0.038556006
-0.29099032 -0.20813604 0.28400084 -0.013800471 0.21568224 -0.4403612 0.30058533 -0.19937746
-0.09416242 0.028507015 -0.02125795 -0.1796723 0.08242293 -0.26565662 0.1639673 -0.098217055
-0.04214531 -0.033737 0.040965542 -0.21182902 0.30168045 -0.6951333 -0.17483954 -0.24795347
-0.11463496 0.06121095 -0.36546743 0.39584368 0.20083956 0.018620245 0.15895247 -0.010575193
-0.035834234 -0.9352167 -0.31002897 0.024030993 -0.14137179 0.22523846 0.2031653 -0.50335467
-0.19072011 0.2036042 0.41437832 -0.24243319 0.3409899 0.6177639 0.3648352 -0.14718671

bias f4 [24]
00000000: 3c80 4cbe dd8c 07bf e0ba f9be 0cf8 15be
00000010: 51b2 dfbe 6783 e6be 1413 f4be a89f 48be
00000020: ba64 39be 96d3 d0bc 2477 84be 8180 82be
00000030: 8424 c9be 2f31 f4be 9d2c 9abe d2be 09bf
00000040: 1d05 debe c937 acbd 1719 c3be ea68 49bf
00000050: 86b8 a0be 5907 13be 80d9 94be 0a8e 5dbe
-0.19970793 -0.52949315 -0.48775387 -0.14645404 -0.43690732 -0.45022127 -0.47670805 -0.19592154
-0.1810483 -0.025491517 -0.25872147 -0.25488666 -0.39285672 -0.47693774 -0.30112162 -0.53806794
-0.43363276 -0.08409078 -0.3810508 -0.7867571 -0.3139078 -0.14358272 -0.2907219 -0.21636215

weight f4 [24]
00000000: fe08 983d 8808 543d 27dd bd3c 0420 3a3e
00000010: 62bd 873d 9161 303d 5398 5a3d 179b 4b3e
00000020: 6149 043e 8a94 033f 48b8 813d 0de4 eb3d
00000030: 1406 bc3d 104e 963d 75cf 1f3e 7966 053d
00000040: aa88 ef3d 922c 1d3e dfa1 3a3e da3a a83c
00000050: 66bd f43d 263b a33d 78d9 523e 0c3e 823d
0.0742359 0.05176595 0.023176743 0.18176275 0.06627919 0.043061797 0.053367924 0.19883381
0.12918617 0.5139853 0.06333977 0.115181066 0.09180847 0.07339108 0.15606482 0.03256843
0.116959885 0.15349033 0.18225811 0.020535875 0.119501874 0.07970266 0.2059077 0.06359491

weight f4 [24, 24, 3]
00000000: 7ee1 ae3d 6679 a3bd c95f 3fbe b499 ba3b
00000010: 67f9 b7bc 5fd2 1abd 310e e83d a376 e3be
00000020: bbe7 abbe bdf4 edbe 1ea4 ff38 bf05 9abd
00000030: b060 ba3d a643 01be 8183 a2be abf3 a63e
00000040: e29d f3be 1d54 39be 6e65 09be a92b 53be
00000050: 00fc 89bd 995b 5e3e cc47 853e 6ef1 06be
00000060: 8162 54bd db28 96be beeb b9be 78b6 debe
00000070: 3437 4bbd 3cdb 873e 5bee f0bc 30b9 933d
00000080: f4c1 b33e 8757 1f3c d84b f03a 3335 833e
00000090: bae4 6cbe 3df1 a1bd 4465 f73e b249 a6bd
000000a0: d167 c5be 671a 713e e2c2 863e d588 6abe
000000b0: 20bb a43c aa4c 2d3d 0ca6 693e 6ec1 f53d
000000c0: 6c37 9ebe e985 e3bd 27e7 9b3e 9a22 9f3e
000000d0: 5e62 e73c 808c 41be b4e5 e03d 5013 853e
000000e0: 4cc7 6a3d 55ff 263d 4316 0cbe cc07 4b3e
000000f0: 944c a0bb e472 913e df3b 1f3e 31ab 003e
00000100: a1cf b53d 8bf0 45bd bca0 413d 496b 20be
00000110: 2679 52bd 5160 a53d 061f 193e 4b80 013e
00000120: 921e 4a3e 5a73 993e 3801 7c3d add3 8a3e
00000130: a348 a23e 2f41 f1bd 6a10 dabd 0ed7 85be
00000140: 8432 453e 9ebe 033e da88 acbd df17 8b3d
00000150: 24ff 943e cb58 723e 2f8f 043e a21b babd
00000160: ad55 473e eb99 883e e8bf 9f3e 7c54 f93e
00000170: 583e 773e 971c d5bd 9e8a 153e 8660 473e
00000180: 5237 68be 4d58 f23d b965 3bbd f6ef 2bbe
00000190: e034 883d 1e9f 283d 3d71 ce3d d962 3f3d
000001a0: 329c 2bbe dc8c c83c 9527 9c3d 57b1 993d
000001b0: afb9 ce3e c1c5 66bc 7095 67be fd00 9b3d
000001c0: c39b 94bc 4bb3 053d 35e6 993e 10e7 edbe
000001d0: b901 91be 087c 313e 2707 dd3d 66f6 8f3c
000001e0: eebc d4be e220 14be cf6f 9ebd 1814 90be
000001f0: deb2 06be 8bb0 233e 9fb6 f03d fada ed3c
00000200: 65fa 67be 986a abbd af85 453e 0dde a83d
00000210: 39d0 b3be 3a4c 0f3e 6ad8 003d c1a0 c4be
00000220: 1495 e03d b0f7 8fbe bee5 083e c21e 353e
00000230: 5741 f53d ed82 143e 59bc a4be acd6 04be
00000240: b35e 0fbe 608e 8cbe c62c b53e dc4f 04be
00000250: ed71 0f3d aea9 1b3e ddd4 553e f023 4a3e
00000260: fc6d 3fbc 35e5 1a3f 44e4 c9be 171d acbd
00000270: dd99 b73e c0a5 ad3e b7d4 153f b810 d8be
00000280: 3624 0abf 3a90 5d3d e750 5f3f 96ce ccbe
00000290: 58bd 943e dd14 64bb 5da9 9dbe f649 9bbe
000002a0: cdf0 99be b715 22be e343 063f 693c a2be
000002b0: ba8f 4fbd 48b4 923c f10a ad3e e30c 1b3e
000002c0: c038 143f f1fb 603e 9b28 b3bc 543b ce3e
000002d0: dbf9 af3e 6dec 493e 57c9 af3e e433 e13e
000002e0: b66b 793e b8b8 4dbe e53a 633e 6cf4 0ebe
000002f0: a2ea 8a3e 9904 8abc a958 be3e 7d39 973d
00000300: 91b3 283d 4afb 143e f08e ebbc c909 7c3e
00000310: 0e61 8c3e 3f21 f8bd d058 b63e 61ec d7be
00000320: 90ce ef3c 0ca7 1b3f 9b45 8fbe d841 d2be
00000330: 8eb9 35bf 9f2e 133e 6948 0a3f 3bb2 99bc
00000340: 530b 083e 1359 1bbf 7d77 8dbd fab2 dcbe
00000350: 496f 053e a592 06bf 776e 09bf f30d 2fbe
00000360: 7317 45bf fa4b 1f3d b4d7 e13d 0501 fc3d
00000370: a1d9 c03d feb1 b43c 0840 14be 171f 4bbe
00000380: 1fea c1bd 700e 90bd 7cea d1be 9c65 bcbe
00000390: cab2 8cbe 837a 9b3e e8d8 03be d72e fcbe
000003a0: bc08 a3be 5419 a73c a74a 47bf 39d1 2d3e
000003b0: d74c 943e 0030 40be 136a 88bd c1e1 48bd
000003c0: cc6b 9fbe 074b e33c 7bec 07be daf2 743e
000003d0: ede9 cebd 4a8b 7e3e 422d 933c a8e3 193e
000003e0: fa3c 63be 9f30 99bd b067 20be 15c3 f5be
000003f0: e868 033e 8d4d 8ebe 7403 c53e 4533 223f
0.08539103 -0.07982139 -0.18688883 0.0056945924 -0.022457791 -0.03779828 0.11330832 -0.4442645
-0.33575234 -0.46475783 0.00012189917 -0.07520627 0.09100473 -0.12623462 -0.31740955 0.3260778
-0.47581393 -0.18098493 -0.13417599 -0.20622124 -0.06737518 0.21714629 0.2603134 -0.13178036
-0.051851753 -0.29328045 -0.3631267 -0.43498588 -0.049613193 0.2653445 -0.029410532 0.07213056
0.35108912 0.009725458 0.001833315 0.25626525 -0.23134127 -0.07907341 0.48319447 -0.08119525
-0.38555768 0.23545228 0.2632056 -0.2290376 0.02010876 0.04230944 0.22817248 0.119997844
-0.3090166 -0.11109526 0.30449793 0.31081086 0.028245147 -0.18901253 0.109813124 0.25991297
0.05731897 0.040770847 -0.13680367 0.19827193 -0.0048919413 0.28407967 0.15550183 0.12565304
0.08877493 -0.048325103 0.04727243 -0.15665926 -0.051385067 0.080750115 0.14953241 0.12646596
0.19738224 0.2997082 0.0615246 0.2711462 0.31696042 -0.11780011 -0.10647662 -0.26140636
0.19257551 0.12865683 -0.0842454 0.067916624 0.29100907 0.23666684 0.12945245 -0.09087302
0.19466276 0.2667993 0.312011 0.4869727 0.24144876 -0.10405844 0.1460366 0.19470415
-0.22677353 0.11833248 -0.045751307 -0.16790757 0.0665071 0.04116737 0.10080192 0.046725128
-0.16758803 0.02448123 0.07624737 0.07504528 0.4037604 -0.014085234 -0.226156 0.07568548
-0.01814068 0.03264169 0.30058447 -0.4646535 -0.28321627 0.1733247 0.1079238 0.017573547
-0.41550392 -0.14465669 -0.077361695 -0.2814033 -0.1315417 0.15985315 0.11753582 0.02903508
-0.22654112 -0.083699405 0.19289277 0.08245478 -0.351198 0.13993922 0.03145639 -0.38403895
0.109659344 -0.28118658 0.1336889 0.17687514 0.11975353 0.14503069 -0.32174948 -0.12972516
-0.14000969 -0.27452374 0.35385722 -0.12921089 0.035020757 0.15201446 0.20881982 0.19740272
-0.011683937 0.6050599 -0.39431965 -0.08403986 0.35859576 0.3391552 0.585277 -0.42200255
-0.53961504 0.054092623 0.8723282 -0.40001363 0.29050708 -0.0034802475 -0.30793276 -0.30329865
-0.3006653 -0.15828596 0.52447337 -0.31686714 -0.050674178 0.01790823 0.3379741 0.15141635
0.57899094 0.21971108 -0.021869948 0.4027964 0.34370312 0.19719096 0.34333298 0.43984902
0.24357495 -0.20089996 0.22190435 -0.13960427 0.27132136 -0.016847895 0.37177017 0.07384012
0.041186873 0.14548984 -0.028754681 0.24613108 0.27417797 -0.12115716 0.35614634 -0.4217253
0.029273301 0.6080177 -0.27982792 -0.4106586 -0.7098626 0.14373253 0.5401674 -0.018761745
0.1328557 -0.6068279 -0.06907556 -0.43105298 0.13030733 -0.5256751 -0.5368418 -0.17095165
-0.76988906 0.038890816 0.1102747 0.12304882 0.094165094 0.02205753 -0.14477551 -0.19836079
-0.09468483 -0.07034004 -0.4099921 -0.36796272 -0.27480155 0.30366907 -0.12875712 -0.49254486
-0.318426 0.02039782 -0.77848285 0.16974343 0.28964874 -0.1876831 -0.06660857 -0.04904342
-0.3113693 0.027745737 -0.13273804 0.23920766 -0.101032116 0.24857822 0.017965917 0.1502825
-0.2219123 -0.07479977 -0.15664554 -0.48000398 0.12832987 -0.27793542 0.38479197 0.6335948

bias f4 [24]
00000000: 643c 07be 3b35 92bd a697 fdbe 021d aebe
00000010: d09b 61be db5e 1c3d 555b 843d de86 c2bd
00000020: 2d04 2abe 44d9 a43d 149f 4ebe b985 22be
00000030: a6b6 eabc 9ea8 d1be 7583 35be b61b 8fbe
00000040: ef45 e4be 3296 9dbd 7598 9d3d 452f 17be
00000050: d071 4ebd f244 533b 5358 a0be 4816 bcbd
-0.13206631 -0.07139059 -0.4952976 -0.34006506 -0.22032094 0.0381764 0.06462733 -0.0949838
-0.16603155 0.08049253 -0.20177871 -0.15871324 -0.028651547 -0.40948957 -0.17725928 -0.2795083
-0.44584605 -0.07694663 0.076950945 -0.14764126 -0.05040151 0.003223714 -0.31317386 -0.09183937

weight f4 [24]
00000000: 1cf0 1b3e 28a5 213e 3891 e33b ee7c 913c
00000010: 02fc 363e 6aa7 8a3e 921c 7b3e bec5 933d
00000020: 6e59 593d 48e9 163f 3bac 0c3d b8b0 7f3d
00000030: 700a 333e 770f aa3d c34c 6f3e dcf7 763c
00000040: 0877 b93d 4fab 843d bb36 d33e 2a18 5f3e
00000050: 19e6 eb3d 3bfb 033e af21 af3d 600d 873d
0.15228313 0.15785658 0.0069448017 0.017759766 0.17869571 0.27080852 0.24522617 0.07215451
0.053063802 0.5894971 0.03434394 0.06242439 0.1748445 0.08303731 0.23369126 0.015073743
0.090559065 0.06477987 0.41252694 0.21786562 0.11518497 0.12888806 0.085513465 0.06594348

weight f4 [24, 24, 3]
00000000: 9b14 29be eb7b e83d 56a6 1a3d 5408 663d
00000010: 7f96 dc3c 5651 d2bd 7436 35be f116 7d3e
00000020: 3cb1 203e 071a 68be 8235 6abd 80c0 1a3e
00000030: e487 693f 4b95 2ebe 048e fabe 7aa1 13bf
00000040: efe2 533e 7bc5 0d3e 36ea b4bd 5a47 06bd
00000050: e8e9 d3bd 27a9 f8bc 6bf2 773d fe2c 1a3f
00000060: ac26 383d cf3e 90be d363 6cbe 33fa 203e
00000070: c469 e0be 5319 613e 8b30 34bf 7bb8 8c3e
00000080: 670a b73e a842 3e3f 7998 f8be 4704 d93d
00000090: 3539 cebe 4423 92bd d08f 82be ae5b 873d
000000a0: 5a4c 063e e004 003f ce7b 533e ec65 1fbd
000000b0: 7954 c3bc c281 d63d e042 a6be 22e1 16be
000000c0: 4ce3 7a3e 686a 44be c7ca a9bc 1e58 d93d
000000d0: 4ac6 c93e f8ee 7dbc 9cf6 5dbe fb70 c83d
000000e0: a59d e9bd d944 1c3f 67ce b4bb c1ee 293e
000000f0: c687 ca3e d9ef 0dbf 9c6d 0b3c edbc 413e
00000100: 279a 0c3f 7ac3 783d e4eb 8bbf 672c 77bb
00000110: 5093 f93e 99b4 8f3e b046 303e 137b 99be
00000120: 61bb 063d 81ff 033d 5048 b6be cac8 8b3e
00000130: 9400 dd3e b6b0 60bf 0ed8 04be 9d6b b73c
00000140: 1c67 4fbf 0a05 5a3e ba7a 09bf c4bc a5bc
00000150: 67d8 a4be 05b3 52bf 777a ccbe 4c9f b6bd
00000160: 9997 e5bd e39c 1c3e 5151 ae3e 4911 113d
00000170: 1317 27be f292 e43d 6a08 dd3e 7d5f a83e
00000180: 8a0c 8b3d d5f7 36bf 3795 cb3e 92b7 8cbd
00000190: 1627 86be cfe9 d53d 5eb4 91bc 08f7 49be
000001a0: 5cc2 0ebd da1a 843d 6ef5 a93e c2e3 103e
000001b0: 4d89 51be e2b3 803e 1e2c 883e c754 9b3e
000001c0: 53ca 41be def3 ff3e 27dd 82bf 4a11 1dbf
000001d0: 07af 8fbe 9aba ebbc bdab 873d e0d2 6d3e
000001e0: bacc ba3e 90df dc3e 68f1 843d e54c b5bd
000001f0: 9239 7f3d 8f2d 8c3d 1b64 31be c977 99be
00000200: 672c 06bf c403 86be 845c 373e c41f 0d3f
00000210: 887e 873d dc52 26be 695d a2be 86ed 71be
00000220: d12c 9b3e 2742 a73e a3db 17be eea1 59bf
00000230: b7c1 9fbf 281b a0be e32e 17bd 2f02 b9be
00000240: 42e7 c1be 6e61 85be 645b a8bd cb2b 523e
00000250: 8070 2e3d 3e72 70bf fd72 ba3d 0f09 7dbe
00000260: 37bf 993e a028 8ebd ffd4 af3e c13b 45bd
00000270: c0b8 37be 8809 f03d 9a95 62be c88e 44bc
00000280: af61 733e a0b3 fc3d 24d9 0bbe 0754 9b3e
00000290: fa7a 473e 52c7 9d3e c9d4 10be 2d67 b4be
000002a0: 0ff6 97be 5b75 b5be 13b6 263f 3c18 a9be
000002b0: 0f21 98be a976 ae3d 0f56 713e cf6e d4bd
000002c0: 24c9 8f3e 4f54 9e3e 4395 7dbe 4273 2c3e
000002d0: 3b0f 03bf a0cc c4bd ac93 323b ed35 1e3d
000002e0: c104 213e 38f4 ca3d 190f 77bf 6b4f 04be
000002f0: e405 dc3d 444a 07be 3214 cb3e e8a9 8cbe
00000300: 8a17 bfbe ea9f 09bf 2736 e53e 9d36 8ebe
00000310: 2afe 693e 6367 a0bd c572 67be d3d0 81bc
00000320: 8ef9 5b3e ef11 f3bd a2f4 81bd 2c11 083f
00000330: a7a8 2c3e 674d 8abe 18cd 06bf 34de ab3d
00000340: d797 f5be d823 4abc 9917 9b3e fe53 c5bd
00000350: 68f0 69be 2029 1cbe 3eb0 da3d 53ad b8bd
00000360: 8605 17be 1997 613e 9a8b c73d 70c8 593d
00000370: 123f 8e3e 3169 6e3d b536 223c 9ceb 94be
00000380: 3d69 083e 4803 033e 1918 aa3d e420 c8be
00000390: 0500 843c e7ce 6dbe 16b2 943d 5e97 5d3e
000003a0: e8e7 48bb b71e d83c 1249 d7bc 6142 3dbd
000003b0: 20cc 7cbe 1eee 883e bc1b 2fbd 0070 263e
000003c0: e7da b2bd c949 a7bd 5cb0 433e b898 04bf
000003d0: 8953 17be adfc d63e 7ff5 1b3e 8dc2 b83d
000003e0: 84b6 323e 92c5 d2bc 16a3 7abe ab65 283e
000003f0: 3744 9d3e 0c2c b93e f0f5 893e 83c2 79bd
-0.16511767 0.113517605 0.037756287 0.056160286 0.02692723 -0.1026942 -0.17696553 0.24715783
0.1569261 -0.22666179 -0.057179935 0.15112495 0.9122298 -0.17049138 -0.48936474 -0.5766827
0.20692037 0.13844864 -0.08833735 -0.03278289 -0.103473485 -0.030354096 0.060533922 0.602249
0.044958755 -0.2817292 -0.23084955 0.15720443 -0.43830693 0.21982317 -0.7038657 0.27484497
0.35750124 0.7432046 -0.48553827 0.10596519 -0.4027802 -0.07135633 -0.25500345 0.066092834
0.13115063 0.5000744 0.20652696 -0.03891556 -0.02384399 0.10473968 -0.32472897 -0.14734319
0.2450077 -0.19181216 -0.020726575 0.1061251 0.39409095 -0.015498869 -0.21676105 0.09787174
-0.114070214 0.61042553 -0.005517769 0.16594984 0.39556712 -0.55444103 0.00851002 0.18919726
0.5492272 0.060733296 -1.0931363 -0.0037715675 0.48745203 0.28067473 0.17214465 -0.2997671
0.032893542 0.03222609 -0.35602045 0.27301627 0.43164504 -0.8776964 -0.12973043 0.022390181
-0.8101671 0.21290985 -0.5370289 -0.020231612 -0.32196352 -0.8230441 -0.39937183 -0.08917102
-0.112105556 0.15294223 0.34046414 0.035416875 -0.16317396 0.1116084 0.43170482 0.32885352
0.06789501 -0.7147191 0.3976228 -0.06870951 -0.26201695 0.10444986 -0.017786201 -0.19723141
-0.034853324 0.06450434 0.3319506 0.14149383 -0.20462532 0.2513724 0.2659616 0.30338117
-0.18924837 0.49990743 -1.022374 -0.61354506 -0.28063223 -0.028775502 0.06624553 0.23224974
0.3648432 0.43139315 0.06491357 -0.08852557 0.062310763 0.06844627 -0.17323343 -0.299742
-0.524115 -0.26174748 0.17906386 0.55126595 0.06615931 -0.16242546 -0.3171189 -0.23625764
0.3030763 0.32667658 -0.14829879 -0.8501271 -1.2480992 -0.3127072 -0.03690995 -0.36134478
-0.37871748 -0.26050895 -0.082205564 0.20524518 0.042587757 -0.9392432 0.091039635 -0.24710487
0.30028698 -0.06941342 0.3434219 -0.04815269 -0.1794157 0.11720568 -0.22127381 -0.011996932
0.23767732 0.12338948 -0.13657051 0.30337545 0.19480506 0.30816132 -0.14143671 -0.35234967
-0.29679915 -0.35441098 0.65121573 -0.33026302 -0.29712722 0.085187264 0.23567985 -0.103726976
0.28083146 0.30923697 -0.2476397 0.16840842 -0.51195115 -0.096093416 0.0027248664 0.038625646
0.1572447 0.09909862 -0.9650741 -0.1292092 0.10743311 -0.13211924 0.39663845 -0.27473378
-0.37322646 -0.53759634 0.44767877 -0.27776042 0.22850862 -0.078322195 -0.22602375 -0.015846645
0.21481916 -0.11868655 -0.06345488 0.531512 0.16861211 -0.27012178 -0.526567 0.08391991
-0.47967407 -0.012337647 0.3029144 -0.09635161 -0.22845614 -0.15250063 0.10678147 -0.09017434
-0.14748201 0.22030295 0.09743424 0.053169668 0.27782494 0.058205787 0.0099007385 -0.29086006
0.13321395 0.1279422 0.083053775 -0.39087594 0.01611329 -0.23223458 0.0726053 0.21639773
-0.0030655805 0.026381833 -0.02627996 -0.046205882 -0.24687243 0.2674417 -0.04275106 0.16253662
-0.087331586 -0.0816837 0.19110245 -0.5179553 -0.1477796 0.4198965 0.15230368 0.090214826
0.17452437 -0.025728974 -0.24476275 0.16445033 0.30716106 0.36166418 0.26945448 -0.060976516

bias f4 [24]
00000000: 1de4 0fbf 4d61 77bf 5e81 34bf 999d 63be
00000010: b2f6 b9be 3974 a6be d65a bcbe 7996 02bf
00000020: e718 2cbf 23a6 d0be b27a b3be 9f8e 12bf
00000030: f6ef 91bf daf7 adbe feef d4be 3864 d5be
00000040: 696b d8be f734 42bf d71f 0abf fe78 aebe
00000050: 1cc0 3dbf eacf 86bf 4385 efbe 411c e4be
-0.5620745 -0.96632844 -0.705099 -0.22228087 -0.36321026 -0.32510546 -0.36788052 -0.51010853
-0.672255 -0.40751752 -0.35054547 -0.5724887 -1.1401355 -0.33978158 -0.4158935 -0.41678023
-0.42269447 -0.7586207 -0.53954834 -0.34076685 -0.7412126 -1.05322 -0.46781358 -0.44552806

weight f4 [24]
00000000: f9a8 833d 4960 053b 7974 6c3d 3c5d 3b3e
00000010: 4280 053e 03dd 8d3d b3d9 d93d 32a8 a33d
00000020: 93d0 e43c 6274 9f3d 5370 eb3d 6c31 833d
00000030: d51e 343c 13ea 793d a08b 843e 123a 853d
00000040: 401a c73d ca83 aa3c b59b df3c ced0 243e
00000050: 7f3d 333d 1685 7c3c 9301 943d 1626 763e
0.06428713 0.002035158 0.057728264 0.18297285 0.13037208 0.0692692 0.10637226 0.07991065
0.027931487 0.0778587 0.114960335 0.06405911 0.010993679 0.061014246 0.25887775 0.06505217
0.09721804 0.020814795 0.027295927 0.16095278 0.04375982 0.01541259 0.07226863 0.24037966

weight f4 [24, 24, 3]
00000000: 6cfc 64bd 89b4 98bd 7789 91bd ba80 36be
00000010: 9bd7 cdbd 7add c6be 4e7e 263d 51f9 2cbe
00000020: 9ea9 cbbc 8f34 85be 9866 7cbc 1b73 483d
00000030: 1860 d6bd c1ff b63d 0d36 533e f1a2 2bbd
00000040: 7a2a 68bd 48cd 66bd b4d5 843e 4d21 0b3e
00000050: 4ab7 823d 0765 9dbd 7ebf 853d ada5 f5bd
00000060: 800c cb3d b4d1 1b3e a0e2 32be f248 04bd
00000070: eb38 a1bc f6f9 bd3d dffa afbd f490 68be
00000080: 9160 73be f52a e3bc 02c5 74bd 23ed b43d
00000090: 74a3 7dbe 0073 7b3d 6e62 b23c 2867 04be
000000a0: 7c00 7b3e d6b3 f93c 3894 3dbe 7c32 a93d
000000b0: 45b3 3cbe 4f35 29bd 92e0 83bd 49a9 f6bb
000000c0: 262a f53d 2f30 2d3d 7073 cebe debb 73bd
000000d0: 01a6 91be 1709 4abe 786b 0bbe 2b29 acbd
000000e0: 0439 0c3e 54d3 21bc fb06 82be 6341 8fbe
000000f0: dcc2 09be d444 f03d 2132 963d 76f3 ac3d
00000100: 7964 c9bd 806b 563e c5ab 22be 9994 babe
00000110: 60ec 3c3d 08c8 d53d 0a5d 993d f816 023f
00000120: 4925 a5be ebfa 283e 6e4b 523e 8da3 6a3e
00000130: 2081 3c3e 08c4 96be eea9 333e a4b4 1e3e
00000140: a0f1 93be 4fe7 06be c161 f4bb 0335 6d3e
00000150: 0224 123e deb3 21bd d1cb a8bd 8ffe eb3d
00000160: 29a3 b1be a0f8 e13d 5c2a d9be eb72 14be
00000170: 15ec c63e c699 23bd 9cdc c33e 7e0c 46be
00000180: 4ae6 b83c a000 7e3e 7936 6cbd 3137 5abe
00000190: c0fd 823d 49aa 17be 69f0 a8be eb1c f8bd
000001a0: 1cb6 353e 2595 04bd 0ff7 813e b957 04bf
000001b0: 8aaf 0cbf 8253 223e dd57 623e 8a9f f53e
000001c0: 14bf ad3e 3d70 4f3d f94e d73e f901 7a3d
000001d0: 3adc 35be 8ec3 923d 2a53 ee3e 34ca a6bd
000001e0: 83a6 b43e 88b4 74be f4e9 b0be 1965 9c3e
000001f0: 33d9 dcbb ca50 a5be dc55 3ebd 921c a8bc
00000200: 2453 d4bd 632c 0b3f 9346 cc3c 2a52 f7bc
00000210: 44f7 4cbc d46d 0cbe 0d6b 9fbd 47fd 973d
00000220: c822 5abe cc2b de3e 1cb4 d9be c124 79bd
00000230: 6151 d93d 763d b2be a67a 5a3e 3460 3e3e
00000240: 30a3 e33d a8ce 7d3e f5c4 88bf 8c5f 10be
00000250: 8e07 0abe 8d29 2f3e 13c1 aabe 28b4 4e3d
00000260: f8b0 f4ba d23e 19bd 7851 11bd fcdb 723e
00000270: 5e87 3a3d cebb f13d 12a9 6c3e cee1 b53e
00000280: ee3d 12bf 7e6a 193e 194b 2ebe c860 79be
00000290: 4450 b9be 7ea3 b5be a4d3 9cbe e68f 92be
000002a0: 5390 333d 62f0 d63e f0aa a13e 8ef7 a93e
000002b0: 553b 653e bc58 7d3d 5fd7 0ebe 1992 9d3d
000002c0: 3238 253e e19a dcbd 1bf7 e23e 90bd 17bd
000002d0: 46e1 d13e 87b3 13bf 4034 81bf 2243 403d
000002e0: da93 473e c1a3 1a3e 3ad7 8fbc ff5d 523e
000002f0: 2938 b83e 49f0 f13d 211c 1cbe d3ac 933e
00000300: 39af d6bc be4f 4b3d 8f7b 853d ec0d 54be
00000310: d00a 04bd 9896 bebd 4f75 53be 1374 753e
00000320: 8612 c9bc 58b9 f8bd c405 dbbe 8b9a 813e
00000330: fb45 eebd d50e c23e 0491 69be 39ab 353e
00000340: ada2 05be a50c 0dbe 105c a9be 2aaa 21be
00000350: 8946 8cbe df92 e6bd cccd 6a3e 0c5e ebbd
00000360: b99c e03b 01d6 aa3c bf01 a63e 5a00 303e
00000370: 3db2 e5bd b87a 723e bfd8 16be 221a ac3d
00000380: e72b 87be f935 883d 9b69 8fbe 919e 75be
00000390: decc acbe 17eb ebbd 905e 30bd 93d2 0e3e
000003a0: 5e39 c83d 3677 bdbe fb33 e43d d43c be3e
000003b0: 382a 033f cb71 59be a390 2c3e c776 7ebd
000003c0: 21e4 6e3e 140a 493e 22f7 96be 6401 debe
000003d0: 94d1 bcbd 8ddc 67be ccf2 973d 0a39 2bbe
000003e0: ffd1 a83e 90db 833e 5712 653e 5979 28be
000003f0: 25da 32bf 0c58 84bc 9bd2 b53e 42cb 913e
-0.05590479 -0.07456309 -0.071062975 -0.17822543 -0.10050889 -0.38840848 0.040647797 -0.16891982
-0.024861153 -0.26016662 -0.01540532 0.048937898 -0.10467547 0.089355 0.20626087 -0.04190344
-0.056681134 -0.056348115 0.25944293 0.13586922 0.06382616 -0.07685285 0.06530665 -0.11994491
0.099144936 0.15216714 -0.17469263 -0.03229613 -0.01968046 0.09276192 -0.08592772 -0.22711545
-0.23767306 -0.027730444 -0.059758194 0.08834293 -0.24769384 0.06138897 0.02177545 -0.12929976
0.24511904 0.03048126 -0.18513572 0.08261582 -0.18427761 -0.041310605 -0.06439318 -0.0075275046
0.1197093 0.04228228 -0.40322447 -0.059505336 -0.28446963 -0.1973003 -0.13615215 -0.0840629
0.13693625 -0.009877045 -0.2539595 -0.27979574 -0.13453239 0.11731878 0.0733378 0.08444874
-0.09833617 0.20939445 -0.15885837 -0.36441496 0.046123862 0.104385436 0.07488449 0.508163
-0.3225501 0.16501968 0.20536587 0.22913952 0.18408632 -0.29446435 0.17545292 0.15498596
-0.28895283 -0.13174175 -0.0074579422 0.23164754 0.14271548 -0.039478175 -0.08242 0.115231626
-0.34694794 0.110337496 -0.4241513 -0.14496963 0.3885199 -0.03994157 0.3825425 -0.19340703
0.022570748 0.24804926 -0.057669137 -0.21310116 0.06396055 -0.14811052 -0.32995918 -0.12114891
0.1774525 -0.032368798 0.25383803 -0.51696354 -0.5495535 0.15852168 0.2210383 0.4797328
0.33934844 0.05064415 0.4205244 0.061037038 -0.17759791 0.07166205 0.46547824 -0.08144036
0.35283288 -0.23896992 -0.34553492 0.3054588 -0.0067397594 -0.322882 -0.0464686 -0.020521436
-0.1036742 0.54364604 0.024935996 -0.030190546 -0.012510125 -0.13713771 -0.0778409 0.07421356
-0.2130233 0.4339279 -0.42520225 -0.060826067 0.10611225 -0.34812516 0.21335849 0.18591386
0.1111511 0.24785864 -1.0685107 -0.14098948 -0.13479444 0.17105694 -0.3335043 0.05046478
-0.0018668463 -0.037413426 -0.035478085 0.2371673 0.045539252 0.11803399 0.2311137 0.35523838
-0.5712575 0.1498203 -0.17020835 -0.24353325 -0.3619405 -0.35476297 -0.3063022 -0.2862541
0.04383881 0.41980273 0.31575727 0.33196682 0.22385915 0.0618522 -0.13949345 0.076938815
0.16134718 -0.10771728 0.44329152 -0.037046015 0.40992182 -0.5769581 -1.009407 0.046939023
0.19489995 0.1510153 -0.017558683 0.20543669 0.35980347 0.11813409 -0.15245105 0.28842792
-0.0262066 0.049636595 0.065177076 -0.20708436 -0.032236874 -0.09306067 -0.20650218 0.2397006
-0.024544965 -0.121447265 -0.42777836 0.2531322 -0.116344415 0.3790194 -0.22809225 0.17741098
-0.13050337 -0.13774355 -0.3307805 -0.15787569 -0.27397564 -0.11258482 0.22930068 -0.114925474
0.0068546203 0.020853998 0.32423207 0.17187634 -0.11215637 0.23679626 -0.1473112 0.08403422
-0.26400682 0.066509195 -0.28010258 -0.2398627 -0.3375005 -0.11519449 -0.04305893 0.13947515
0.09776567 -0.37005013 0.11142727 0.37155783 0.51236296 -0.21234815 0.1685205 -0.062124994
0.23329212 0.19632751 -0.29485422 -0.43360436 -0.09219661 -0.22642727 0.07419357 -0.16720977
0.32972714 0.2575345 0.22370277 -0.1645254 -0.6986411 -0.016155265 0.35512242 0.28475386

bias f4 [24]
00000000: 7ff2 513d ad2f 95bc c135 0fbe 3701 54be
00000010: 7eb3 bebd 122a 833d 37fb 063e 6f3c 733c
00000020: d24f c83d 2ff1 733b 3411 83be 4a97 d9bc
00000030: aa29 4f3d e131 94bd d1b6 0b3e f988 dd3d
00000040: abff 3e3e 78ed 33be 424f 683d 47f4 fa3b
00000050: 6508 43bd 9857 d03d e9d1 86bd 44ae a93c
0.051256653 -0.01821121 -0.13985349 -0.20703588 -0.09311579 0.06404509 0.13181768 0.014845951
0.097808495 0.0037222614 -0.25599062 -0.026561398 0.050576843 -0.07236076 0.13643958 0.10817141
0.18652217 -0.17571056 0.05671621 0.0076585147 -0.047615428 0.10172957 -0.06583006 0.02071298
