models/resnet_uncertloss_dropout2_cath95_ss3-ss4-buried.pth (torch_old, 361315 bytes, 132 tensors)

weight f4 [24, 22, 1]
-2.1110337 0.5422659 -2.7618256 -0.45917305 0.1466953 -8.155706 0.0667883 -4.1229615
-4.136108 -0.49412417 -5.5962915 -7.5528226 -0.81636655 -1.96778 -0.8409095 -3.404421
0.04733129 -0.5529882 -1.5476067 -12.1619835 -7.7854085 -5.3163204 -3.8299694 0.067223705
-1.3361807 -0.24930374 0.12312083 -1.4693278 -1.2926757 -0.5536277 -0.8650754 -0.001654356
-0.7944574 -0.50180906 -0.33335978 -1.3368002 0.100309595 0.13087623 -0.4216606 -0.7234656
-1.2849638 -0.2697275 -0.6764263 -0.86084515 -1.5279847 0.39744535 0.25886828 -1.8632107
-1.2375497 0.32027015 -1.308115 -0.65860337 0.6471593 -1.0324417 1.0676178 0.8810596
-1.4632548 -2.5800674 -0.65309405 -0.7911335 -1.2610112 -1.1560957 -0.026121594 0.37558928
0.0017052467 -1.6146536 0.15503503 -0.48526564 -0.13848299 -0.29940423 -0.42236456 0.22608171
-0.3935293 -0.28404304 -0.009820614 -0.28947878 -0.041862078 -0.26710543 -0.40397954 -0.56687784
-0.055861447 -0.10499646 -1.1365718 -1.6607068 -0.08788472 -0.08163643 -0.005550899 -0.6298481
-1.087164 -0.085651 -0.2574735 -0.19473194 -0.37065452 -1.1504829 -3.529127 -0.24372458
0.20216908 -0.711071 0.07970115 -0.08326349 -0.34119925 -0.9631865 -0.32445008 0.109668784
-0.85365427 -1.240194 -0.0029850267 -1.0392357 -1.2504272 -1.5637867 0.43168566 -1.1158218
-0.21827607 0.4120009 -0.093789436 -2.3772128 0.47605506 -0.19664313 -2.685016 -0.17152452
-2.1043673 -1.3362435 0.16635455 0.27217817 -0.23835716 -0.16167802 0.0031341685 -0.89648676
-2.5421286 -0.6061612 -1.4344399 -0.4724415 -1.5837991 -0.038710155 -0.03910828 -1.116957
-0.16438794 -0.030216105 -1.8951932 -0.13206348 -0.5317246 -0.26085997 -0.0063077738 -0.42685026
-0.5172343 -3.383865 -0.17557769 0.04340198 -0.1557621 -0.28400362 -0.49979344 0.032336976
0.3033548 -2.894586 -0.15914184 -0.15738876 0.72730523 -3.79466 -1.8527958 -0.47499824
0.12961677 -1.2228147 0.019561097 -0.697995 -0.18992227 -0.2528116 -2.1939204 -1.2952613
-1.3100262 -0.74109674 -2.369071 -2.4299881 0.10605546 -1.0648291 -0.6534502 -5.1096287
0.18955879 -0.8382005 -1.0965868 -1.6149561 -1.810401 0.071140654 0.2509895 -0.5982458
-0.27973616 -1.5693402 0.23331617 -0.0777229 0.22317109 -5.762588 -0.5150948 -1.312894
-0.49711555 -0.3238022 -0.81406003 -0.6597118 -0.61914253 -2.084577 -18.095125 -1.5949208
-2.2912002 -2.6746266 -0.49354908 -0.585202 -6.069017 -0.4149868 -0.15498424 -0.23565581
-0.79996294 -0.7671295 -2.4772632 -6.1828794 -0.19500178 0.18963134 -0.97076446 -0.36339664
0.04763603 0.7131475 -0.06621269 -2.186982 -0.47457466 -0.5389177 -1.6350735 -0.77080214
-0.7278369 -2.6646101 -0.3943494 -0.75940424 -1.4893944 0.6517982 -1.2743381 -0.31819674
0.17429268 -0.15222004 0.20126575 0.4161078 -0.38393217 -0.25124648 -1.3975143 -3.8846562
-3.2057235 -1.5019865 -1.1152278 -0.4202445 -1.0406752 0.56496984 0.1951056 -1.3104227
-0.0014605444 -0.26564014 -1.869478 -0.08439514 -1.564619 -1.1588792 0.42790934 -0.1582559
00000000: 2d1b 07c0 f0d1 0a3f c0c1 30c0 bb18 ebbe
00000010: 4b37 163e c67d 02c1 4ec8 883d 4def 83c0
00000020: ff5a 84c0 d8fd fcbe d214 b3c0 b9b0 f1c0
00000030: 66fd 50bf 37e0 fbbf d845 57bf 09e2 59c0
00000040: 74de 413d a290 0dbf fa17 c6bf 7c97 42c1
00000050: 1122 f9c0 4c1f aac0 381e 75c0 95ac 893d
00000060: f807 abbf 7b49 7fbe c626 fc3d ef12 bcbf
00000070: 6676 a5bf 8cba 0dbf 9575 5dbf fad6 d8ba
00000080: 8f61 4bbf 8f76 00bf 22ae aabe 451c abbf
00000090: 1e6f cd3d 6b04 063e e6e3 d7be 0b35 39bf
000000a0: b279 a4bf b919 8abe 462a 2dbf 5960 5cbf
000000b0: 0195 c3bf f57d cb3e 628a 843e b07d eebf
000000c0: 0768 9ebf 73fa a33e 5070 a7bf 3b9a 28bf
000000d0: 3bac 253f 0d27 84bf b3a7 883f 1f8d 613f
000000e0: ef4b bbbf d31f 25c0 2c31 27bf ba87 4abf
000000f0: d168 a1bf f2fa 93bf f4fc d5bc 3d4d c03e
00000100: 9682 df3a f8ac cebf 81c1 1e3e bd74 f8be
00000110: 7cce 0dbe 834b 99be 2b40 d8be f781 673e
00000120: ac7c c9be 176e 91be a4e6 20bc 9036 94be
00000130: 9277 2bbd 0bc2 88be 68d6 cebe e81e 11bf
00000140: f9ce 64bd 6208 d7bd 2f7b 91bf 0a92 d4bf
00000150: e7fc b3bd 0031 a7bd 51e4 b5bb ba3d 21bf
00000160: 3128 8bbf cb69 afbd 91d3 83be cf67 47be
00000170: 6ec6 bdbe 0643 93bf 37dd 61c0 f092 79be
00000180: 6905 4f3e c008 36bf 5b3a a33d 0c86 aabd
00000190: abb1 aebe 6493 76bf 521e a6be 079a e03d
000001a0: 1689 5abf adbe 9ebf 70a0 43bb ad05 85bf
000001b0: 000e a0bf 2a2a c8bf e705 dd3e 40d3 8ebf
000001c0: c383 5fbe c8f1 d23e ad14 c0bd 4124 18c0
000001d0: 7dbd f33e d15c 49be 4dd7 2bc0 20a4 2fbe
000001e0: f4ad 06c0 070a abbf d958 2a3e f05a 8b3e
000001f0: e613 74be ec8e 25be 9f66 4d3b 2880 65bf
00000200: 3cb2 22c0 612d 1bbf ba9b b7bf dae3 f1be
00000210: eeb9 cabf 8a8e 1ebd 0130 20bd 72f8 8ebf
00000220: 5055 28be c487 f7bc b195 f2bf a63b 07be
00000230: 1a1f 08bf 708f 85be 71b1 cebb 1e8c dabe
00000240: 7869 04bf 3f91 58c0 a3ca 33be 46c6 313d
00000250: 1a80 1fbe ec68 91be ede4 ffbe c773 043d
00000260: 5251 9b3e e640 39c0 14f6 22be 852a 21be
00000270: ad30 3a3f b6db 72c0 6a28 edbf f832 f3be
00000280: 42ba 043e 3185 9cbf 983e a03c cdaf 32bf
00000290: fc7a 42be 8670 81be 3169 0cc0 1fcb a5bf
000002a0: f0ae a7bf 84b8 3dbf dc9e 17c0 ed84 1bc0
000002b0: 9b33 d93d 524c 88bf 8348 27bf 1482 a3c0
000002c0: b31b 423e 4f94 56bf f55c 8cbf e2b6 cebf
000002d0: 38bb e7bf 31b2 913d b281 803e a326 19bf
000002e0: 9439 8fbe 24e0 c8bf 6fea 6e3e 2f2d 9fbd
000002f0: f686 643e 1f67 b8c0 41dd 03bf e90c a8bf
00000300: ee85 febe 67c9 a5be 3d66 50bf dfe2 28bf
00000310: 2080 1ebf b669 05c0 d1c2 90c1 5d26 ccbf
00000320: 06a3 12c0 152d 2bc0 77b2 fcbe cccf 15bf
00000330: 6335 c2c0 2679 d4be 30b4 1ebe c24f 71be
00000340: 5fca 4cbf 9962 44bf 7b8b 1ec0 26da c5c0
00000350: 8cae 47be b82e 423e 0584 78bf 200f babe
00000360: ff1d 433d d690 363f 859a 87bd 83f7 0bc0
00000370: 73fb f2be 83f6 09bf 174a d1bf 4a53 45bf
00000380: 8553 3abf f988 2ac0 2ae8 c9be 5168 42bf
00000390: 7aa4 bebf 3fdc 263f 831d a3bf afea a2be
000003a0: c879 323e 92df 1bbe 9c18 4e3e 150c d53e
000003b0: c292 c4be 61a3 80be c0e1 b2bf 359e 78c0
000003c0: 932a 4dc0 1841 c0bf c9bf 8ebf 492a d7be
000003d0: d834 85bf dda1 103f c3c9 473e eebb a7bf
000003e0: bd6f bfba fc01 88be 0e4b efbf 5cd7 acbd
000003f0: 6f45 c8bf 2756 94bf ef16 db3e d60d 22be

weight f4 [24]
0.0057261027 0.04434634 0.05120715 0.03398913 0.017730756 0.013287538 0.029997433 -0.010651867
0.030078027 0.009870056 0.035719782 0.009764686 0.020908888 0.019553946 -0.0044366946 0.022915144
0.01693113 0.0037436981 9.993384e-05 0.045733374 0.020829601 0.03816479 -0.0015912626 0.034291994
00000000: 08a2 bb3b 82a4 353d 97be 513d 3038 0b3d
00000010: 1740 913c f9b3 593c 2dbd f53c 2b85 2ebc
00000020: 3266 f63c 04b6 213c e84e 123d 10fc 1f3c
00000030: 1e49 ab3c 992f a03c b161 91bb 8ab8 bb3c
00000040: 27b3 8a3c d558 753b 9293 d138 eb52 3b3d
00000050: d7a2 aa3c af52 1c3d ea91 d0ba c375 0c3d

weight f4 [24, 24, 3]
-0.12384575 0.090565875 0.11787922 -0.09817335 0.019090688 -0.0057947272 -0.017825881 0.05901864
0.3156009 0.24505611 0.40626118 -0.049445625 0.028412072 -0.38005537 0.42748007 -0.082872175
-0.1546643 0.019849177 0.71449727 0.4242837 0.5753885 0.3178097 0.028963152 -0.6560939
-0.0406052 0.3842446 -0.48299086 0.09931689 -0.20624663 0.1430128 -0.23994835 0.098966315
0.089754276 -0.6624049 0.39834264 -0.30316135 0.16717231 0.07730275 -0.22896878 -0.42168623
0.38686946 0.06771369 0.18354028 -0.112121016 0.038748905 -0.21624933 -0.21386254 0.15877083
-0.6574992 0.12612234 -0.38295403 -0.20907088 -0.05202598 0.020505618 -0.05840237 -0.022119287
-0.112754844 0.16449699 0.20803824 -0.13576077 -0.23587841 0.2218711 0.06157316 0.32094455
0.16674365 0.03225854 0.28263506 0.056799706 -0.38913444 0.46108383 -0.44779894 0.19646783
0.05567977 -0.0028867035 -0.09380883 -0.14614779 0.42006022 -0.38203833 0.11337266 0.07772265
0.22177549 0.40537876 -0.5812306 0.6801894 -0.8295987 0.29625294 -0.35430685 -0.2702796
0.07506849 0.10260724 0.559188 0.2875352 0.60222983 -0.07313125 -0.34097683 0.50953066
0.0610503 -0.1674225 -0.08452233 0.19188882 -0.033463076 -0.41988137 -0.8186064 -0.21431595
-0.41196823 -0.033885878 -0.18844673 -0.05130183 0.122504056 -0.1717708 -0.14671308 0.004076432
-0.023350282 -0.25781137 -0.1570531 0.12668793 -0.06662424 -0.11536286 -0.22756529 0.12571937
-0.86932284 -0.2797264 0.5074661 -0.032211002 0.08089593 -0.061488923 -0.14710963 0.087125376
0.27359167 -0.594093 0.52045304 0.0091683995 0.14403611 -0.20346525 -0.11894314 0.15029441
-0.24852994 -0.0358984 -0.26231614 0.29288784 -0.14916332 0.16510788 0.26606756 -0.02854039
0.011016531 0.023734769 0.24395972 0.09416942 0.5249994 -0.022057984 -0.18923637 -0.0749166
-0.2030475 1.0065848 -0.41399723 0.36786407 0.047100563 0.48553494 -0.387203 -0.20385428
0.45941418 -0.12084615 0.0586212 -0.16085164 0.2974883 -0.45265412 0.18975973 -0.21073219
0.48113248 -0.18488304 0.38961685 0.23830026 0.056014303 -0.35336128 0.016763367 0.057137974
-0.46709618 -0.3028362 -0.12434222 0.13104802 -0.47858518 0.25682923 -0.40137693 0.23634566
-0.3849195 -0.6703146 0.20293382 -0.016664106 0.10793145 0.17195164 0.64299154 -0.13067181
0.12214326 0.24491182 -0.5303044 0.013978252 0.3919301 0.14328885 0.6225725 -0.13852519
-0.31139725 -0.95504606 -0.23270471 -0.16578884 -0.050268926 0.058161914 -1.0785602 0.09479498
-0.15736252 0.21706837 -0.3055772 -0.28072175 -0.16904272 -0.060061693 0.8277027 0.37533727
0.120752014 0.03822134 -0.141746 0.24338967 -0.55710447 -0.020123726 0.1531999 -0.13637951
0.08950164 -0.41224316 -0.9275569 0.88132703 0.71735835 0.3795613 0.05563187 -0.17895824
-0.010703732 0.09767244 0.28923082 -0.09262063 -0.12917243 0.3464596 -0.14200346 -0.1103405
-0.10414536 -0.23567611 0.2220679 -0.14909907 -0.5221931 0.27933455 -0.17208579 0.053489156
-0.31072977 0.27360508 0.60460687 -0.70252204 -0.0298031 0.31994322 0.033136398 -0.15518641
00000000: d7a2 fdbd 9a7a b93d a96a f13d 1c0f c9bd
00000010: 1364 9c3c b2e1 bdbb 9507 92bc 88bd 713d
00000020: 7196 a13e fdef 7a3e 7701 d03e 7f87 4abd
00000030: 6fc0 e83c 9e96 c2be abde da3e e3b8 a9bd
00000040: 5160 1ebe be9a a23c 4be9 363f b73b d93e
00000050: a94c 133f f4b7 a23e 2244 ed3c c5f5 27bf
00000060: a351 26bd b5bb c43e 944a f7be a766 cb3d
00000070: 5132 53be f371 123e 05b5 75be daae ca3d
00000080: 17d1 b73d 5e93 29bf 91f3 cb3e f737 9bbe
00000090: 382f 2b3e e750 9e3d cb76 6abe 42e7 d7be
000000a0: c113 c63e 7aad 8a3d fcf1 3b3e b49f e5bd
000000b0: 2cb7 1e3d 7770 5dbe c8fe 5abe d294 223e
000000c0: de51 28bf 3726 013e 8d12 c4be ad16 56be
000000d0: 3219 55bd 66fb a73c 5337 6fbd 8233 b5bc
000000e0: 03ec e6bd e671 283e fa07 553e df04 0bbe
000000f0: 1c8a 71be 2d32 633e 2334 7c3d d852 a43e
00000100: d9be 2a3e 8821 043d 8bb5 903e cfa6 683d
00000110: a13c c7be 2e13 ec3e e745 e5be dd2e 493e
00000120: 7810 643d d92e 3dbb d81e c0bd c4a7 15be
00000130: 2212 d73e 879a c3be ed2f e83d 0d2d 9f3d
00000140: 1d19 633e ce8d cf3e 87cb 14bf e420 2e3f
00000150: 9560 54bf 77ae 973e b567 b5be 1662 8abe
00000160: 82bd 993d bf23 d23d f226 0f3f d037 933e
00000170: bc2b 1a3f d6c5 95bd 8494 aebe 9a70 023f
00000180: e10f 7a3d ce70 2bbe 0b1a adbd 817e 443e
00000190: 9410 09bd b1fa d6be 3090 51bf a475 5bbe
000001a0: 80ed d2be ebcb 0abd 2ef8 40be de21 52bd
000001b0: 68e3 fa3d afe4 2fbe f43b 16be 9793 853b
000001c0: 1749 bfbc daff 83be 87d2 20be 7bba 013e
000001d0: 4a72 88bd 5d43 ecbd e006 69be 94bc 003e
000001e0: f18b 5ebf 4c38 8fbe 4ce9 013f afef 03bd
000001f0: c4ac a53d cfdb 7bbd e8a3 16be ca6e b23d
00000200: 3514 8c3e 7b16 18bf 693c 053f 0e37 163c
00000210: 347e 133e 3259 50be 7698 f3bd c7e6 193e
00000220: a27e 7ebe 330a 13bd 4d4e 86be 65f5 953e
00000230: 45be 18be 0a12 293e 023a 883e 89cd e9bc
00000240: ae7e 343c 6b6f c23c 94d0 793e e6db c03d
00000250: 5c66 063f f2b2 b4bc 2ec7 41be e06d 99bd
00000260: afeb 4fbe c5d7 803f 72f7 d3be ae58 bc3e
00000270: 85ec 403d 0998 f83e 793f c6be 2dbf 50be
00000280: 5638 eb3e 307e f7bd c91c 703d 4bb6 24be
00000290: 6350 983e 48c2 e7be 6050 423e 2eca 57be
000002a0: ff56 f63e fb51 3dbe dc7b c73e fc04 743e
000002b0: 416f 653d c5eb b4be 5453 893c 8209 6a3d
000002c0: 3b27 efbe 590d 9bbe 22a7 febd 7431 063e
000002d0: 1e09 f5be 1f7f 833e 4781 cdbe 9904 723e
000002e0: 2b14 c5be bd99 2bbf e2cd 4f3e 2a83 88bc
000002f0: 2a0b dd3d 1714 303e 189b 243f d5ce 05be
00000300: 3f26 fa3d 2aca 7a3e 07c2 07bf 0a05 653c
00000310: 10ab c83e 50ba 123e e960 1f3f 8cd9 0dbe
00000320: 766f 9fbe e67d 74bf 254a 6ebe 8dc4 29be
00000330: cae6 4dbd 303b 6e3d 430e 8abf df23 c23d
00000340: a423 21be 2c47 5e3e 9d74 9cbe c3ba 8fbe
00000350: 8919 2dbe 4003 76bd 53e4 533f 352c c03e
00000360: d54c f73d fb8d 1c3d dd25 11be 243b 793e
00000370: 669e 0ebf 83da a4bc 6fe0 1c3e 12a7 0bbe
00000380: a34c b73d 8911 d3be 5e74 6dbf a69e 613f
00000390: cca4 373f dc55 c23e 3ede 633d d440 37be
000003a0: b55e 2fbc 7d08 c83d 1016 943e e3af bdbd
000003b0: c745 04be 2763 b13e 5b69 11be 33fa e1bd
000003c0: 2a4a d5bd 1455 71be c465 633e 6dad 18be
000003d0: 72ae 05bf f004 8f3e 4237 30be 7217 5b3d
000003e0: f917 9fbe f715 8c3e 84c7 1a3f 7cd8 33bf
000003f0: a125 f4bc 99cf a33e 08ba 073d 30e9 1ebe

bias f4 [24]
-0.2702786 -0.29290947 -0.3736971 -0.4735902 -0.41396987 -0.39425763 -0.37979406 -0.39606354
-0.40979937 -0.20216459 -0.23927423 -0.20709594 -0.40274465 -0.47528654 -0.62571687 -0.24733292
-0.35356352 -0.27530205 -0.28092334 -0.4295113 -0.40858865 -0.21847859 -0.37888846 -0.38768026
00000000: f561 8abe 3bf8 95be 3a55 bfbe 6a7a f2be
00000010: dcf3 d3be 23dc c9be 5e74 c2be d7c8 cabe
00000020: 39d1 d1be 3c04 4fbe 4e04 75be f510 54be
00000030: 8c34 cebe c258 f3be fb2e 20bf d744 7dbe
00000040: 4706 b5be 64f4 8cbe 2fd5 8fbe e8e8 dbbe
00000050: 8832 d1be dab8 5fbe abfd c1be 077e c6be

weight f4 [24]
0.10075544 0.06759691 0.018442234 0.032463152 0.040203188 0.08070033 0.031309668 0.031363845
0.1421468 0.1163297 0.057472467 0.057054467 -0.0005675673 0.039823752 0.009158432 0.06625867
0.08303849 0.05346454 0.07230692 0.015447064 0.07258755 0.086569145 0.08202647 0.054957155
00000000: de58 ce3d 4070 8a3d 2b14 973c 15f8 043d
00000010: 19ac 243d 3746 a53d 913e 003d 6077 003d
00000020: ee8e 113e 443e ee3d 4068 6b3d f2b1 693d
00000030: ccc8 14ba 3b1e 233d 3f0d 163c a0b2 873d
00000040: 1510 aa3d a2fd 5a3d a715 943d af15 7d3c
00000050: c8a8 943d 2a4b b13d 7efd a73d c11a 613d

weight f4 [24, 24, 3]
-0.2128874 0.054964162 -0.010332716 -0.028600689 -0.04303536 0.101356536 -0.22008269 -0.06115004
0.37017027 -0.024248656 0.06375712 -0.02029032 -0.111460984 0.09489564 -0.1807218 0.2398069
-0.13742842 -0.079392105 -0.11301572 0.13559273 -0.1328143 0.14052138 0.24809527 -0.25685832
0.033326156 0.034760877 -0.046114985 0.205088 0.06181237 0.17157611 0.10028204 -0.092316166
0.004676984 -0.25508696 0.070129864 0.113892145 -0.1132079 0.21075489 -0.41576657 0.14885068
-0.08981019 0.25365195 -0.15016519 -0.097812645 -0.16040601 -0.03982199 -0.044549618 0.31112435
-0.15507016 0.06122478 -0.29199955 0.041902 0.10720777 -0.18331333 0.16681416 -0.11387962
-0.12221926 -0.26402318 0.27725086 -0.22279534 -0.16476507 -0.19051848 0.15522112 -0.24446552
-0.119504236 0.10424136 -0.572684 0.24224514 -0.10613583 -0.35605943 0.01879019 -0.07469197
-0.4291522 0.42801917 0.6889275 0.56828505 0.1801721 0.6563415 -0.3090558 -0.09959414
0.09844199 0.39486015 0.28967437 -0.7288513 0.51155984 -0.13271326 0.07738443 0.17885624
0.12289683 0.94149065 -0.15602916 -0.15259439 -0.59575534 -0.262715 -0.23371501 -1.1699784
0.37026596 0.42670077 0.5138358 -0.4432331 -0.13836087 -0.8724138 -0.6102876 -0.086860694
-0.029474534 -0.70269775 0.20109601 -0.9392717 0.065318465 -0.1976641 -1.1471672 -0.1359464
-0.5445094 0.17980711 -0.25398406 0.49670812 -0.5252678 -0.0016308785 -0.67363936 -0.5746378
0.6530206 0.018213814 0.9083767 -0.9986509 0.06500944 -0.19056228 0.689687 -0.08346373
0.5413346 -1.0757416 0.2299564 0.42733595 0.34265178 0.11634044 -0.18682298 -0.12698933
-0.4024323 -0.41844028 -0.0757991 0.44998932 -0.8659632 0.32734132 0.36004052 -1.0587881
-0.760164 -0.002820628 0.2001129 -0.26864 0.034229077 -0.8782029 -0.18022452 -0.23134594
-0.09885038 0.30388033 0.043571994 -0.7074376 -0.2944779 -0.07570818 0.12959763 -0.47183272
0.09721855 -0.6631299 -0.14139989 0.18174408 0.8066798 0.2132339 0.16345686 0.60601616
-0.6893861 0.05297671 -0.34733036 0.63966197 0.090249665 0.017848965 0.11127943 0.24664341
0.11282785 0.5519229 0.090047106 0.30543208 -0.2535808 -0.22078757 -0.008279262 0.49541134
-0.4036083 -0.18288177 -0.37793735 0.39104092 -0.5728178 0.4805034 -0.21908338 0.43615168
-0.49129182 -0.16948386 -0.33133686 0.12963895 0.17841855 0.13793531 0.29293698 0.039705664
-0.627814 -0.53227216 0.30168796 0.26049235 -0.16988192 -0.21381846 -0.38666156 0.41083318
0.18676357 0.2282474 -0.31001824 0.17595406 0.2731494 0.0864539 0.16572152 0.22996207
-0.17016098 -0.06483483 -0.08487573 -0.31763703 -0.27170724 -0.07686447 0.06476768 0.08886022
-0.050013147 -0.002844731 0.30306068 0.07919806 -0.14329606 -0.1206231 0.09228768 -0.052115194
-0.02135302 -0.4629513 -0.41482928 -0.24160413 0.07857995 -0.17787035 0.06397629 0.19048521
0.008565006 0.096807614 -0.68094665 0.2193244 -0.036632013 0.14491796 0.4956403 0.11668793
-0.10790913 0.04171006 -0.01678858 0.22074515 0.017017247 0.4614725 -0.14256118 0.006103989
00000000: 28ff 59be 1a22 613d 8d4a 29bc fe4b eabc
00000010: d845 30bd 0494 cf3d 5b5d 61be 7778 7abd
00000020: f586 bd3e 1ea5 c6bc 1893 823d e337 a6bc
00000030: a845 e4bd a558 c23d 230f 39be f18f 753e
00000040: 09ba 0cbe 5498 a2bd c974 e7bd d2d8 0a3e
00000050: 7900 08be d6e4 0f3e b00c 7e3e ef82 83be
00000060: 0281 083d 6c61 0e3d 11e3 3cbd 9702 523e
00000070: f82e 7d3d a6b1 2f3e ac60 cd3d 4210 bdbd
00000080: 6341 993b c29a 82be 3fa0 8f3d 4940 e93d
00000090: 8bd9 e7bd 21d0 573e 5bdf d4be 506c 183e
000000a0: 68ee b7bd abde 813e e7c4 19be ff51 c8bd
000000b0: 7941 24be 621c 23bd a979 36bd b14b 9f3e
000000c0: b6ca 1ebe d6c6 7a3d f780 95be 6ea1 2b3d
000000d0: bf8f db3d 7db6 3bbe 55d1 2a3e b839 e9bd
000000e0: 174e fabd 0c2e 87be d3f3 8d3e 7624 64be
000000f0: 2db8 28be 4717 43be 49f2 1e3e 2b55 7abe
00000100: a3be f4bd 7f7c d53d 6b9b 12bf 1c0f 783e
00000110: be5d d9bd 6c4d b6be e2ed 993c 1bf8 98bd
00000120: d6b9 dbbe 5425 db3e 8d5d 303f 217b 113f
00000130: 097f 383e ff05 283f 903c 9ebe 03f8 cbbd
00000140: f49b c93d 1c2b ca3e 3350 943e 0096 3abf
00000150: 96f5 023f fce5 07be ba7b 9e3d 1726 373e
00000160: 55b1 fb3d 8805 713f 1cc6 1fbe b441 1cbe
00000170: 6c83 18bf 9582 86be fd52 6fbe dac1 95bf
00000180: 8093 bd3e 8678 da3e be8a 033f 73ef e2be
00000190: 79ae 0dbe 8356 5fbf cf3b 1cbf 05e4 b1bd
000001a0: 9474 f1bc 00e4 33bf 1dec 4d3e 1c74 70bf
000001b0: b0c5 853d 7568 4abe 60d6 92bf 8835 0bbe
000001c0: f864 0bbf 5b1f 383e 330a 82be 8750 fe3e
000001d0: f377 06bf 34c3 d5ba a173 2cbf 761b 13bf
000001e0: 5c2c 273f 2335 953c 608b 683f 96a7 7fbf
000001f0: ab23 853d c222 43be 548f 303f 08ef aabd
00000200: e894 0a3f e7b1 89bf b179 6b3e c7cb da3e
00000210: 0e70 af3e e643 ee3d 864e 3fbe 7e09 02be
00000220: 9b0b cebe ce3d d6be 8f3c 9bbd 0065 e63e
00000230: c4af 5dbf 4899 a73e 3b57 b83e 5e86 87bf
00000240: 1c9a 42bf 49da 38bb 65ea 4c3e 2f8b 89be
00000250: ca33 0c3d e8d1 60bf c78c 38be f3e5 6cbe
00000260: 1172 cabd 3496 9b3e 8c78 323d a11a 35bf
00000270: cfc5 96be e40c 9bbd 3eb5 043e 0f94 f1be
00000280: 851a c73d e2c2 29bf 22cb 10be 1f1b 3a3e
00000290: 9182 4e3f fd59 5a3e 3c61 273e e023 1b3f
000002a0: 9c7b 30bf 1bfe 583d 49d5 b1be e3c0 233f
000002b0: d1d4 b83d fe37 923c 78e6 e33d 1790 7c3e
000002c0: 4a12 e73d d24a 0d3f 9e6a b83d 9861 9c3e
000002d0: 58d5 81be 2316 62be bea5 07bc 8ea6 fd3e
000002e0: bfa5 cebe 5c45 3bbe 0181 c1be 8436 c83e
000002f0: 30a4 12bf 8b04 f63e 6557 60be 464f df3e
00000300: 9a8a fbbe 2d8d 2dbe fca4 a9be 13c0 043e
00000310: 5ab3 363e ea3e 0d3e d6fb 953e 68a2 223d
00000320: 6bb8 20bf fd42 08bf d876 9a3e 415f 853e
00000330: 87f5 2dbe 3af3 5abe 81f8 c5be ba58 d23e
00000340: f33e 3f3e b0b9 693e b6ba 9ebe 4d2d 343e
00000350: 3dda 8b3e be0e b13d e7b2 293e 2d7b 6b3e
00000360: ae3e 2ebe 20c8 84bd 54d3 adbd 52a1 a2be
00000370: 361d 8bbe 1f6b 9dbd eba4 843d 59fc b53d
00000380: 96da 4cbd ab6e 3abb c52a 9b3e 9832 a23d
00000390: 34bc 12be 3e09 f7bd 5301 bd3d be76 55bd
000003a0: 87ec aebc f407 edbe 8164 d4be 1367 77be
000003b0: 86ee a03d a523 36be 0006 833d 8e0e 433e
000003c0: 3d54 0c3c 1243 c63d 8552 2ebf 9396 603e
000003d0: 730b 16bd 6065 143e 91c4 fd3e 15fa ee3d
000003e0: 76ff dcbd 2bd8 2a3d 3488 89bc 040b 623e
000003f0: c167 8b3c 2046 ec3e 8ffb 11be f903 c83b

bias f4 [24]
-0.083015084 -0.009285081 -0.06524741 0.017850317 -0.1755811 0.050618287 0.02471057 -0.08579102
0.006292006 -0.21125454 0.13161397 0.05789412 -0.11988783 -0.061107457 -0.057359006 0.033552986
-0.058771215 -0.20127438 -0.09242162 -0.20356901 0.27491224 0.12360921 -0.1348391 -0.026064161
00000000: d003 aabd 7420 18bc 6fa0 85bd d43a 923c
00000010: 88cb 33be 1f55 4f3d d26d ca3c 34b3 afbd
00000020: 2c2d ce3b 1c53 58be d0c5 063e 6322 6d3d
00000030: c087 f5bd d04b 7abd 47f1 6abd db6e 093d
00000040: 16ba 70bd df1a 4ebe 8c47 bdbd 6574 50be
00000050: 4cc1 8c3e d326 fd3d 4313 0abe 8284 d5bc

weight f4 [24]
0.0060516326 0.14496723 0.14326115 0.11475386 0.12041073 0.049697965 0.06225675 0.029429607
0.064927034 0.0014908016 0.08734886 0.2366824 0.054407552 0.0013670134 0.06205143 0.048334755
0.20801225 0.011869339 0.029615015 0.046975963 0.059731472 0.23509125 0.020384898 0.10145433
00000000: c64c c63b 4a72 143e 0db3 123e 1204 eb3d
00000010: e799 f63d 1890 4b3d ef00 7f3d 5c16 f13c
00000020: 77f8 843d 0067 c33a f6e3 b23d df5c 723e
00000030: 74da 5e3d 5c2d b33a a429 7e3d aafa 453d
00000040: 2a01 553e 9e77 423c 309b f23c de69 403d
00000050: fda8 743d c3bb 703e 3bfe a63c 4ac7 cf3d

weight f4 [24, 24, 3]
0.033393472 -0.1325294 -0.109483525 0.18291926 -0.21187066 0.09078547 0.024580507 -0.026795577
-0.15836683 0.0042410893 -0.21528341 -0.04231358 0.35119367 0.24635278 0.7407141 -0.4747426
0.39202052 0.12836045 0.07364128 -0.053513177 0.13296059 0.27882823 -0.07514581 -0.5225173
-0.27593416 -0.44142357 -0.3818121 -0.056194514 0.0072837034 0.21738808 0.52827054 0.07417031
0.37985092 0.0059722504 -0.016490998 -0.09988942 -0.4507413 0.24539955 0.08987929 -0.12075308
-0.20246173 -0.24617402 0.097450964 0.32398343 0.419683 0.22623405 -0.19504794 0.3227926
0.5175139 -0.18101387 -0.33584568 -0.26805556 0.13763076 0.058714174 0.44151208 -0.13621223
0.23632371 0.1559028 0.1934092 -0.21937516 -0.16989018 -0.6295767 -0.31394485 -0.17680119
0.16543552 -0.0011808714 -0.745755 0.67708397 -0.30733013 0.18693155 -0.014432543 -0.029461132
-0.055017084 0.22846939 -0.023965744 0.05063238 0.14580819 -0.013596878 -0.01784717 0.13480039
0.021088492 -0.29733515 -0.14792447 0.08543479 0.18593307 0.24134912 -0.7954424 0.2395335
0.079448245 0.29598603 -0.19646794 -0.20344764 0.023254117 0.11337318 -0.08754443 0.0020902397
0.07909215 0.02792047 -0.32329285 -0.20472337 0.018350765 0.033924993 0.014554675 0.2611537
-0.093733996 -0.032215465 -0.0066860225 0.32782373 -0.33626765 -0.15623653 -0.042275857 -0.1050165
0.06508069 0.40637577 0.14213185 0.1414295 -0.020704875 0.032778174 0.13307329 -0.11760911
-0.45600462 0.10504046 0.0361346 0.3693277 0.08814806 -0.26737642 0.28899845 -0.05195247
-0.17621969 -0.007343788 0.27713853 -0.27130556 -0.044717528 -0.010078593 0.18662442 -0.5649112
-0.011722644 -0.044527885 0.25770393 -0.27322292 0.2976274 -0.16418573 0.253438 0.12840357
-0.0670799 0.10178877 0.005949041 0.06716935 0.014897988 -0.2285891 -0.066107064 -0.16926919
-0.29223448 -0.19437303 -0.26493156 -0.18658249 0.833275 -0.45925176 0.5223936 -0.3493764
-0.48122066 0.5107186 -0.026578085 0.12596284 -0.14463268 -0.008013355 0.09744661 0.019784365
0.109745644 -0.055903457 -0.50841594 0.40904507 -0.4023279 -0.17656739 0.30756825 -0.13418964
-0.4313492 -0.17884015 -0.4212434 0.18561333 -0.4062315 -0.060898114 0.090578236 0.30634558
-0.19836915 0.028878335 0.36612073 -0.58553547 0.2819416 -0.3958436 -0.053829573 -0.1895432
0.006204237 0.08089802 -0.019330649 0.27995962 -0.074738055 -0.3051346 0.3145911 -0.2853072
-0.17200252 0.109593146 -0.23932716 0.028608628 0.2645506 0.15981938 0.3026437 0.16498987
0.06839422 0.04589212 0.043601133 -0.71302056 0.4484716 0.40989327 -0.0011687411 -0.35178578
0.39570412 -0.06362846 -0.011048441 -0.26732165 0.027530631 0.035936482 -0.010422778 -0.16124956
-0.15219684 0.105437346 -0.5922104 -0.2702527 -0.46006253 0.46578166 -0.5072912 0.33480516
-0.04658063 0.14102162 -0.24700911 0.013866165 0.2333344 0.24738842 -0.20220247 -0.033265408
-0.07946585 -0.60912526 -0.08898174 0.01001284 0.2966061 -0.23490867 0.5641894 -0.055473723
-0.31401592 -0.063588336 -0.062529035 -0.15025045 -0.074794084 -0.16574274 -0.025601545 -0.72805715
00000000: 98c7 083d c9b5 07be e638 e0bd 304f 3b3e
00000010: 9ff4 58be bced b93d 0f5d c93c 6682 dbbc
00000020: ea2a 22be d6f8 8a3b 4173 5cbe 0151 2dbd
00000030: a8cf b33e e743 7c3e 709f 3d3f 7611 f3be
00000040: eab6 c83e ec70 033e 3dd1 963d a230 5bbd
00000050: d226 083e 93c2 8e3e 0ce6 99bd b2c3 05bf
00000060: 3e47 8dbe 4502 e2be e07c c3be 382c 66bd
00000070: 22ac ee3b fb9a 5e3e bd3c 073f 9ae6 973d
00000080: d27b c23e deb2 c33b 2118 87bc d392 ccbd
00000090: 90c7 e6be 054a 7b3e a212 b83d 644d f7bd
000000a0: 2152 4fbe 0b15 7cbe 5f94 c73d 28e1 a53e
000000b0: b1e0 d63e e6a9 673e a6ba 47be 1245 a53e
000000c0: ca7b 043f b35b 39be f7f3 abbe 943e 89be
000000d0: 14ef 0c3e 467e 703d df0d e23e 387b 0bbe
000000e0: d8fe 713e fca4 1f3e 100d 463e e2a3 60be
000000f0: b1f7 2dbe f02b 21bf 61bd a0be 5f0b 35be
00000100: ee67 293e 78c7 9aba cde9 3ebf 6055 2d3f
00000110: 605a 9dbe fc6a 3f3e 7976 6cbc 7958 f1bc
00000120: 9859 61bd e1f3 693e cf53 c4bc e663 4f3d
00000130: be4e 153e 71c5 5ebc 3a34 92bc 1d09 0a3e
00000140: c6c1 ac3c 503c 98be 8379 17be 6ff8 ae3d
00000150: 3d65 3e3e 3924 773e 1da2 4bbf 4548 753e
00000160: c3b5 a23d 7b8b 973e e42e 49be 9454 50be
00000170: 6b7f be3c 3330 e83d 7e4a b3bd 67fc 083b
00000180: 11fb a13d 78b9 e43c a486 a5be 01a3 51be
00000190: 5854 963c eff4 0a3d bb76 6e3c f0b5 853e
000001a0: 9cf7 bfbd 5df4 03bd 6c16 dbbb 83d8 a73e
000001b0: 462b acbe 78fc 1fbe 7329 2dbd e412 d7bd
000001c0: 0649 853d 7c10 d03e 038b 113e e5d2 103e
000001d0: 459d a9bc 6842 063d 5d44 083e 0cdd f0bd
000001e0: 7079 e9be 741f d73d e001 143d 8518 bd3e
000001f0: f886 b43d 90e5 88be 9bf7 933e 1dcc 54bd
00000200: ef72 34be 29a4 f0bb 1ae5 8d3e 90e8 8abe
00000210: ba29 37bd af20 25bc 791a 3f3e 059e 10bf
00000220: 5510 40bc df62 36bd c5f1 833e e0e3 8bbe
00000230: 9e62 983e 4e20 28be a0c2 813e 3a7c 033e
00000240: 3061 89bd a176 d03d 2cf0 c23b 1690 893d
00000250: b116 743c 4313 6abe 2463 87bd e754 2dbe
00000260: c29f 95be b909 47be 1ca5 87be 7b0f 3fbe
00000270: 8351 553f 0c23 ebbe 96bb 053f 77e1 b2be
00000280: 8e62 f6be 74be 023f 49ba d9bc 67fc 003e
00000290: 971a 14be 724a 03bc 1792 c73d d212 a23c
000002a0: 53c2 e03d 06fb 64bd 8c27 02bf 5b6e d13e
000002b0: ecfd cdbe 15ce 34be 9679 9d3e 0269 09be
000002c0: cdd9 dcbe df21 37be 37ad d7be 6c11 3e3e
000002d0: 93fd cfbe 4d70 79bd 1581 b93d 54d9 9c3e
000002e0: 4821 4bbe 4292 ec3c 2d74 bb3e a7e5 15bf
000002f0: a65a 903e 03ac cabe 667c 5cbd 9d17 42be
00000300: ea4c cb3b dcad a53d 4f5b 9ebc de56 8f3e
00000310: 4410 99bd 9a3a 9cbe 1612 a13e c913 92be
00000320: 6e21 30be 5f72 e03d 2e12 75be a45c ea3c
00000330: 2d73 873e b1a7 233e 1df4 9a3e 1bf3 283e
00000340: 4512 8c3d 60f9 3b3d 1a97 323d 8488 36bf
00000350: 129e e53e 88dd d13e 7230 99ba 441d b4be
00000360: bb99 ca3e a34f 82bd 8504 35bc 62de 88be
00000370: eb87 e13c 2232 133d 4dc4 2abc 9b1e 25be
00000380: 7dd9 1bbe 89ef d73d 1a9b 17bf 905e 8abe
00000390: 518d ebbe ef7a ee3e d6dd 01bf 956b ab3e
000003a0: 55cb 3ebd f967 103e f5ef 7cbe e92e 633c
000003b0: 37ef 6e3e 6453 7d3e 2a0e 4fbe 4f41 08bd
000003c0: febe a2bd a2ef 1bbf 0f3c b6bd e50c 243c
000003d0: c1dc 973e e68b 70be b76e 103f 6a38 63bd
000003e0: b2c6 a0be 9a3a 82bd 390f 80bd 41db 19be
000003f0: a42d 99bd 77b8 29be 55ba d1bc f461 3abf

bias f4 [24]
-0.31583655 -0.27969596 -0.4318892 -0.6547824 -0.5772179 -0.61976165 -0.6672274 -0.39414123
-0.478881 -0.16715793 -0.35663652 -0.47361967 -0.46359137 -0.13385232 -0.7297104 -0.2624427
-0.22277409 -0.39741707 -0.36113408 -0.04709543 -0.41681916 -0.4471087 -0.74872535 -0.47278842
00000000: 54b5 a1be 4f34 8fbe 9520 ddbe d29f 27bf
00000010: 8dc4 13bf b3a8 1ebf 6acf 2abf e1cc c9be
00000020: e42f f5be 732b 2bbe 1099 b6be 477e f2be
00000030: d95b edbe 9510 09be 4dce 3abf e45e 86be
00000040: e41e 64be 407a cbbe 91e6 b8be 23e7 40bd
00000050: 5269 d5be 6eeb e4be 77ac 3fbf 5311 f2be

weight f4 [24]
0.0400508 0.12839784 0.023151955 0.014248294 0.017740648 0.0050168177 0.0011969391 0.050218973
0.0572532 0.27912366 0.040699534 0.0059770797 0.026119057 0.15092278 0.008830986 0.058455735
0.15283754 0.01640421 0.04688429 0.24644655 0.034394294 0.034531437 0.011435883 0.062264595
00000000: 4f0c 243d b97a 033e 2ba9 bd3c ad71 693c
00000010: d654 913c 1e64 a43b 9de2 9c3a 69b2 4d3d
00000020: 5582 6a3d 4ce9 8e3e 8eb4 263d 61db c33b
00000030: a2f7 d53c 808b 1a3e d7af 103c 486f 6f3d
00000040: 7281 1c3e 1f62 863c be09 403d 7c5c 7c3e
00000050: 08e1 0c3d d670 0d3d 925d 3b3c 2909 7f3d

weight f4 [24, 24, 3]
0.005941425 0.19699359 0.017756458 0.18415962 0.08885518 0.3701557 -0.055775583 0.037772737
0.12840441 -0.004484243 -0.008755505 -0.012828142 -0.14440131 0.16331175 -0.10195201 -0.030117346
-0.06655728 -0.18617252 -0.17740788 -0.17443514 0.39280102 -0.04412979 -0.13783512 -0.15563662
0.01721159 0.14990228 0.15064704 -0.11183938 0.11124569 -0.08892466 0.19427432 -0.046892513
0.14167853 -0.1396318 -0.09748009 -0.08683803 -0.20636193 0.12459211 0.23436774 0.12413005
-0.01458875 -0.263268 -0.0789737 0.120026454 0.117105976 0.06887008 0.048244532 -0.04626836
0.01867909 -0.029529912 -0.0051578325 0.006769421 -0.11248253 0.05879571 -0.27006844 0.04934106
-0.15337063 -0.09230964 -0.09103212 0.011211843 -0.07557166 -0.2707859 -0.21609257 -0.1960586
0.18440136 -0.038127832 0.16772324 0.02028292 -0.2891292 -0.11535339 -0.083816886 -0.24568412
-0.22292565 0.120550245 -0.7818994 0.10797579 -0.34050015 -0.025184955 0.30796647 -0.2776861
-0.9002804 -0.20964813 -0.18148164 0.27371085 0.38706315 0.18465576 -0.49741015 0.20050655
-0.83263254 -0.24468313 0.3453549 0.09665587 -0.3320656 -0.008429282 -0.10283076 0.6457034
-0.7867688 -0.3035401 0.16310845 0.10350179 0.30974135 0.5382979 -0.79415953 -0.41428393
-0.1561828 0.12129632 0.1277521 -0.43962988 -0.14052156 -0.11204959 -0.6711849 0.5766853
-0.07756983 0.6047841 0.02176914 0.09780872 -0.5399405 -0.6508281 0.027658883 -0.2195245
0.3274329 -0.003271252 0.20024054 -0.21038927 -0.04538577 -0.06936366 0.09928632 -0.01997614
-1.2736207 -0.10314301 -0.07316534 -0.6813242 0.2681054 0.009145263 0.10816235 -0.1383091
0.43734047 -0.34080252 -0.5135386 0.17814143 0.08572729 -0.5756418 -0.20931458 0.29934198
0.075102404 0.14243464 -0.19069758 0.06793733 -0.5602351 0.036149587 0.27357456 -0.018430158
-0.1495774 -0.12834068 -0.2268687 0.010459915 0.100896195 0.17536281 0.030679353 0.2708682
-0.07472373 -0.17455964 0.109626874 -0.107717946 -0.14540416 -0.22816926 0.09578865 -0.26718786
-0.05876653 0.09657837 0.51377255 -0.68863446 -0.08966244 -0.039151404 0.46463528 0.23393117
0.25987992 0.03631216 -0.17558 0.380013 0.17532945 -0.20820497 0.07675139 0.033955295
0.044921473 -0.5686089 -0.18321194 0.23913099 -0.6221217 0.08446766 0.1493313 0.24101225
-0.03730419 0.002937569 -0.5641313 0.22045326 -0.018882604 -0.101138115 0.44176903 0.12684226
0.45498374 0.5375525 0.068493254 0.15992644 0.19863203 0.34134018 0.07212408 -0.4678967
0.2781191 0.02853804 0.009366237 0.10627502 0.096101016 -0.079270124 -0.029781599 0.26992866
0.04865161 0.29279646 -0.16601342 0.10313996 0.055710364 0.16013056 0.08086589 0.13350844
0.26755345 0.05833873 -0.049025323 -0.1219868 0.025049934 -0.08527617 -0.042355835 -0.024874667
-0.0088012 -0.07534767 0.26455122 -0.074232884 0.048828997 0.014787522 -0.13816106 -0.20889464
0.2258826 -0.018466638 -0.15496948 -0.09950876 -0.015116897 -0.26623365 0.09422203 0.038649816
-0.07529565 -0.15198046 0.124078095 0.16345786 0.0684928 0.23459807 0.17825635 -0.063097194
00000000: 49b0 c23b b0b8 493e fe75 913c 5794 3c3e
00000010: b4f9 b53d 0c85 bd3e f074 64bd 96b7 1a3d
00000020: 727c 033e 8ff0 92bb 4073 0fbc 212d 52bc
00000030: f0dd 13be 323b 273e 37cc d0bd a7b8 f6bc
00000040: 2f4f 88bd 02a4 3ebe 69aa 35be 209f 32be
00000050: 371d c93e 70c1 34bd a624 0dbe 355f 1fbe
00000060: 52ff 8c3c fc7f 193e 3843 1a3e 0b0c e5bd
00000070: c8d4 e33d 221e b6bd d9ef 463e 5d12 40bd
00000080: 2d14 113e a3fb 0ebe a4a3 c7bd 23d8 b1bd
00000090: 8b50 53be 262a ff3d 19fe 6f3e e537 fe3d
000000a0: a705 6fbc 10cb 86be f7bc a1bd 6ed0 f53d
000000b0: 42d5 ef3d c20b 8d3d 0f9c 453d e483 3dbd
000000c0: e404 993c b7e8 f1bc 0903 a9bb 05d2 dd3b
000000d0: 3e5d e6bd c5d3 703d 6946 8abe da19 4a3d
000000e0: 310d 1dbe d60c bdbd 0c6f babd e1b1 373c
000000f0: 51c5 9abd 73a4 8abe 5f47 5dbe 96c3 48be
00000100: b6d3 3c3e ee2b 1cbd a4bf 2b3e 5e28 a63c
00000110: be08 94be 663e ecbd 30a8 abbd 9e94 7bbe
00000120: 9f46 64be 0ce3 f63d 8f2a 48bf 6922 dd3d
00000130: 0956 aebe ae50 cebc c8ad 9d3e df2c 8ebe
00000140: c778 66bf 00ae 56be 53d6 39be d423 8c3e
00000150: 242d c63e 6616 3d3e 8bac febe 9751 4d3e
00000160: 6827 55bf 378e 7abe 5cd2 b03e 83f3 c53d
00000170: 8104 aabe f91a 0abc ef98 d2bd d14c 253f
00000180: ae69 49bf 9c69 9bbe e705 273e bff8 d33d
00000190: 6b96 9e3e e4cd 093f 0a4e 4bbf 061d d4be
000001a0: 62ee 1fbe 346a f83d 72d1 023e 2b17 e1be
000001b0: e2e4 0fbe 417a e5bd c6d2 2bbf a6a1 133f
000001c0: eedc 9ebd 21d3 1a3f 3255 b23c f04f c83d
000001d0: 8a39 0abf ac9c 26bf e294 e23c 08cb 60be
000001e0: 49a5 a73e 8062 56bb db0b 4d3e 4970 57be
000001f0: 6ee6 39bd 890e 8ebd a056 cb3d 01a5 a3bc
00000200: 0106 a3bf a43c d3bd b6d7 95bd 436b 2ebf
00000210: 1c45 893e 03d6 153c 3984 dd3d e7a0 0dbe
00000220: 17eb df3e ab7d aebe 4477 03bf b56a 363e
00000230: ca91 af3d 435d 13bf 9056 56be 5a43 993e
00000240: 4acf 993d 63da 113e 3a46 43be ba22 8b3d
00000250: 916b 0fbf 9711 143d f711 8c3e d8fa 96bc
00000260: d12a 19be bd6b 03be 4550 68be 1060 2b3c
00000270: aaa2 ce3d 4f92 333e 4453 fb3c 3daf 8a3e
00000280: c108 99bd c3bf 32be 0e84 e03d 3a9b dcbd
00000290: d4e4 14be 34a5 69be d72c c43d d9cc 88be
000002a0: 2cb5 70bd e1ca c53d 9986 033f 594a 30bf
000002b0: f1a0 b7bd 395d 20bd ade4 ed3e a78b 6f3e
000002c0: fb0e 853e 0fbc 143d 3ecb 33be 1091 c23e
000002d0: 9089 333e af33 55be d52f 9d3d b514 0b3d
000002e0: 94ff 373d 5a90 11bf e99b 3bbe c1de 743e
000002f0: 5e43 1fbf 61fd ac3d 4eea 183e eacb 763e
00000300: 47cc 18bd 3b84 403b e96a 10bf 80be 613e
00000310: b1af 9abc 8021 cfbd 8d2f e23e f0e2 013e
00000320: a1f3 e83e 0a9d 093f 3146 8c3d c2c3 233e
00000330: 3266 4b3e 24c4 ae3e cab5 933d 2890 efbe
00000340: a065 8e3e 9cc8 e93c d874 193c b8a6 d93d
00000350: 9cd0 c43d 6058 a2bd 8af8 f3bc 1734 8a3e
00000360: e946 473d 6be9 953e 6cff 29be 0b3b d33d
00000370: 8d30 643d 44f9 233e 049d a53d 70b6 083e
00000380: c4fc 883e 98f4 6e3d c7ce 48bd 37d4 f9bd
00000390: 8535 cd3c 46a5 aebd 507d 2dbd f5c5 cbbc
000003a0: e932 10bc e14f 9abd 4273 873e 6907 98bd
000003b0: ea00 483d 5d47 723c 187a 0dbe 7ae8 55be
000003c0: c54d 673e 5947 97bc 52b0 1ebe 40cb cbbd
000003d0: ddac 77bc c74f 88be 7bf7 c03d 454f 1e3d
000003e0: 9b34 9abd c4a0 1bbe a81c fe3d 7f61 273e
000003f0: f445 8c3d 7a3a 703e d588 363e 1a39 81bd

bias f4 [24]
0.10826374 0.14319389 0.09150699 0.02191414 -0.2329658 0.058472987 -0.0631048 0.13935478
0.045310903 -0.26719168 0.07512322 0.11795743 -0.061510883 0.06612089 -0.021264734 -0.0015331457
0.058350958 0.07562077 -0.1297826 0.1334468 -0.0043779346 0.07310809 -0.06872088 -0.08094468
00000000: 61b9 dd3d 6ba1 123e 0468 bb3d 4885 b33c
00000010: 968e 6ebe 5f81 6f3d 173d 81bd 05b3 0e3e
00000020: ed97 393d 59cd 88be 34da 993d aa93 f13d
00000030: d6f2 7bbd 646a 873d 6133 aebc d5f3 c8ba
00000040: 6a01 6f3d 10df 9a3d bbe5 04be 47a6 083e
00000050: c774 8fbb b2b9 953d 88bd 8cbd 53c6 a5bd

weight f4 [24]
0.020376185 0.22846691 0.28433672 0.15821104 0.18231477 0.061274834 0.15503748 0.06459507
0.084329255 0.007289197 0.16408394 0.3076334 0.097389564 0.04706249 0.01514124 0.07862378
0.16543548 0.018897852 0.004173629 0.1324419 0.03156515 0.29161355 0.019002955 0.12953804
00000000: f5eb a63c 3bf3 693e 9594 913e 1302 223e
00000010: b9b0 3a3e 52fb 7a3d 25c2 1e3e 6c4a 843d
00000020: d1b4 ac3d 37da ee3b 9f05 283e 2082 9d3e
00000030: 2e74 c73d 99c4 403d f712 783c 8105 a13d
00000040: eb67 293e abcf 9a3c f0c2 883b d99e 073e
00000050: 754a 013d 5f4e 953e 16ac 9b3c 9fa5 043e

weight f4 [24, 24, 3]
0.058543198 -0.30917224 0.52787966 -0.4442744 -0.13285486 0.25092202 -0.32159534 -0.2789344
-0.12322242 -0.2642686 -0.26811635 -0.18236585 0.11473441 0.4538486 0.5175667 -0.30129555
0.38556716 0.030604105 0.06996138 -0.2801425 0.49954912 0.21521641 -0.073151834 0.3115433
-0.41501147 -0.15460362 0.04561957 0.062487092 -0.10868652 0.3708722 0.30639935 0.22839887
0.3593031 0.07963419 -0.31993312 -0.17964572 -0.4439831 -0.37608224 0.33331987 -0.053355392
-0.62530524 -0.39410648 0.090827554 -1.0487561 0.27012554 0.23592515 -0.06615247 0.15556125
-0.2727945 0.08671797 -0.10446791 0.32353523 0.09429822 -0.09134732 -0.21255437 -0.050096557
-0.12513298 0.02985665 -0.18160228 -0.3483741 0.25158462 0.11345209 -0.49188358 0.2838071
-0.00015486762 -0.09135396 0.2734321 0.48275098 0.5902954 0.07333778 -0.5396914 0.230471
0.08526881 -0.20281318 -0.037772916 -0.20313014 -0.14492694 0.13761453 -0.27662915 -0.0010160604
0.20097736 0.07842152 -0.08997621 0.10587682 -0.12904462 -0.04230542 0.37201327 0.1305971
-0.012337843 0.05573325 0.027479034 0.04808708 0.02041564 0.21899228 -0.03234247 0.15033191
-0.013916399 0.29794213 0.08993091 0.0648405 -0.13927828 0.052452512 -0.12442409 0.16517998
0.23025513 -0.22257732 -0.057858296 -0.07804733 0.057766527 -0.029429626 0.37642238 -0.077723294
-0.13433674 -0.08868578 -0.22597495 0.108229615 0.07233517 0.116581485 0.031190025 -0.23368259
-0.24784145 -0.2683881 0.23687087 -0.18198557 -0.0980964 0.019169336 -0.3027852 0.055304393
0.19909076 0.3372233 -0.12174349 0.03163381 -0.17075928 0.16935325 -0.04927372 0.31099722
0.15758795 -0.24910022 0.040484823 0.22863534 -0.09730423 -0.12370145 -0.10630755 0.13215788
-0.0027894757 0.09319351 -0.25409922 0.037102617 -0.12044391 -0.3275591 0.008880485 -0.12872116
-0.23426391 0.08031311 -0.38511783 0.69974965 0.82700163 0.11818506 -0.565277 0.15943609
-0.49747974 0.45954528 -0.015632771 0.08910748 0.12812528 0.020152302 0.14851628 0.09466819
0.1271121 -0.13868582 0.2613843 -0.033172555 -0.009699735 -0.30095068 -0.6570055 0.68379754
-0.08213244 0.64932835 -0.7827495 -0.8020852 0.12399704 0.09840225 -0.025425415 -0.5854562
0.2785554 -0.7441783 0.48084152 -0.2830725 -0.1585439 1.0505018 0.042804033 -0.8545233
0.4125604 0.40787536 -0.16630329 -0.47637966 0.06929622 -0.118483655 0.048489433 -0.056142267
-0.092307255 -0.19792023 -0.83631814 -0.3652008 0.47925252 -0.023761338 -1.1176845 -0.1171447
-0.35402468 0.024496643 -0.7130631 0.5386576 -1.347844 0.39832702 -0.76936024 0.55931336
-0.13568029 -0.66950107 0.23646037 0.14028221 -0.18410109 -0.21269348 -0.059528302 -0.15122044
0.03870918 -0.0048324596 -0.21033676 0.057667725 -0.023336511 0.13659622 0.14982785 -0.5618434
0.11388453 -0.25778058 0.17827138 0.020835312 0.3206039 0.050086383 -0.71302253 0.22289683
0.2480659 -0.51277477 0.053586256 0.21253651 -0.22044717 0.23409383 0.3164171 0.42712006
0.4350702 -0.22974353 0.031941127 -0.18094248 -0.1820244 -0.083023265 0.19331762 -0.79347557
00000000: feca 6f3d d34b 9ebe 1f23 073f ef77 e3be
00000010: 1b0b 08be da78 803e 25a8 a4be 7dd0 8ebe
00000020: 095c fcbd 374e 87be 8c46 89be 1dbe 3abe
00000030: e0f9 ea3d d85e e83e 407f 043f 6943 9abe
00000040: 0f69 c53e 76b5 fa3c e947 8f3d d66e 8fbe
00000050: e7c4 ff3e b161 5c3e a1d0 95bd 9a82 9f3e
00000060: 627c d4be 6950 1ebe 96db 3a3d 77f2 7f3d
00000070: 0a97 debd f6e2 bd3e 60e0 9c3e 65e1 693e
00000080: 93f6 b73e 4017 a33d 46ce a3be 0cf5 37be
00000090: c151 e3be da8d c0be e7a8 aa3e 2f8b 5abd
000000a0: 0114 20bf 53c8 c9be cc03 ba3d a43d 86bf
000000b0: e54d 8a3e 5d96 713e f27a 87bd 734b 1f3e
000000c0: b9ab 8bbe 3199 b13d 46f3 d5bd 69a6 a53e
000000d0: 6d1f c13d 4e14 bbbd daa7 59be 0c32 4dbd
000000e0: dc22 00be ef95 f43c f3f5 39be 175e b2be
000000f0: b3cf 803e 9259 e83d 2ad8 fbbe 2a4f 913e
00000100: f663 22b9 c917 bbbd 4bff 8b3e 232b f73e
00000110: 991d 173f 1e32 963d 3729 0abf 9700 6c3e
00000120: 6aa1 ae3d 42ae 4fbe c6b7 1abd 5901 50be
00000130: ba67 14be d3ea 0c3e 56a2 8dbe 542d 85ba
00000140: 02cd 4d3e 769b a03d 7245 b8bd f2d5 d83d
00000150: 4624 04be 7348 2dbd 8678 be3e 3fbb 053e
00000160: aa24 4abc 8c48 643d b61b e13c f5f6 443d
00000170: b33e a73c 833f 603e 8a79 04bd 9cf0 193e
00000180: 9c01 64bc df8b 983e b22d b83d 19cb 843d
00000190: f79e 0ebe 72d8 563d 0fd2 febd f124 293e
000001a0: 00c8 6b3e 4feb 63be d2fc 6cbd 47d7 9fbd
000001b0: 989c 6c3d 6616 f1bc 6fba c03e 642d 9fbd
000001c0: 928f 09be e4a0 b5bd fa65 67be 7da7 dd3d
000001d0: 7624 943d 46c2 ee3d 3982 ff3c 7d4a 6fbe
000001e0: 26ca 7dbe 2a6a 89be 478e 723e 6d5a 3abe
000001f0: c4e6 c8bd 0309 9d3c a906 9bbe dc86 623d
00000200: 73de 4b3e 88a8 ac3e a754 f9bd 7492 013d
00000210: 85db 2ebe f06a 2d3e 3dd3 49bd 073b 9f3e
00000220: bc5e 213e 2114 7fbe 6ad3 253d 621f 6a3e
00000230: 7147 c7bd 3057 fdbd c6b7 d9bd 6554 073e
00000240: a3cf 36bb 3ddc be3d 4b19 82be eaf8 173d
00000250: 4cab f6bd d4b5 a7be 747f 113c 7bcf 03be
00000260: e1e2 6fbe 337b a43d 2a2e c5be cb22 333f
00000270: 61b6 533f 020b f23d feb5 10bf 3743 233e
00000280: aab5 febe 8549 eb3e 4c10 80bc fc7d b63d
00000290: 4633 033e 7116 a53c a714 183e 65e1 c13d
000002a0: ad29 023e a803 0ebe 2ad4 853e f2df 07bd
000002b0: a3eb 1ebc 3516 9abe 8331 28bf 5b0d 2f3f
000002c0: 0d35 a8bd 623a 263f 4562 48bf 7555 4dbf
000002d0: 29f2 fd3d 1e87 c93d f648 d0bc 75e0 15bf
000002e0: d09e 8e3e 7882 3ebf dc30 f63e e1ee 90be
000002f0: 5559 22be d876 863f 4853 2f3d 0ac2 5abf
00000300: 1e3b d33e 0ad5 d03e 694b 2abe 09e8 f3be
00000310: 2deb 8d3d 8fa7 f2bd db9c 463d 6ff5 65bd
00000320: 960b bdbd 9aab 4abe f218 56bf 99fb babe
00000330: 9660 f53e 23a7 c2bc 4910 8fbf 8fe9 efbd
00000340: b942 b5be 2fad c83c 4e8b 36bf 77e5 093f
00000350: 2786 acbf 85f1 cb3e cbf4 44bf 292f 0f3f
00000360: c6ef 0abe 6c64 2bbf ab22 723e 24a6 0f3e
00000370: ff84 3cbe 52cc 59be f3d3 73bd 88d9 1abe
00000380: 848d 1e3d 9c59 9ebb 8562 57be fe34 6c3d
00000390: 362c bfbc e1df 0b3e 796c 193e f8d4 0fbf
000003a0: 4b3c e93d d1fb 83be c68c 363e d1ae aa3c
000003b0: 3226 a43e 6127 4d3d a588 36bf 113f 643e
000003c0: fd04 7e3e 3545 03bf 437d 5b3d 2ca3 593e
000003d0: e7bc 61be 4bb6 6f3e 6c01 a23e 7baf da3e
000003e0: 85c1 de3e e341 6bbe b3d4 023d fc48 39be
000003f0: 9b64 3abe 1a08 aabd 0ef5 453e 3721 4bbf

bias f4 [24]
-0.48162973 -0.03864717 -1.1949438 -0.6352699 -0.45861876 -0.7242388 0.058814216 -0.7048065
-0.23360007 -0.22034946 -0.29148588 -0.39062142 -0.19706944 -0.37636742 -0.4718982 -0.40600154
-0.32881567 -0.2060699 -0.48877683 -0.868995 -0.6678823 -0.2593201 -0.3828225 -0.35681194
00000000: 2c98 f6be 7f4c 1ebd ebf3 98bf 0ca1 22bf
00000010: 14d0 eabe b767 39bf 2de7 703d 336e 34bf
00000020: db34 6fbe 4aa3 61be a33d 95be 88ff c7be
00000030: 92cc 49be 3bb3 c0be a49c f1be 6fdf cfbe
00000040: 875a a8be fd03 53be f540 fabe 7576 5ebf
00000050: 56fa 2abf 9bc5 84be 5001 c4be 0eb0 b6be

weight f4 [24]
0.032712243 0.4888041 0.012821537 0.008467616 0.012127232 0.0284636 0.28306705 0.008505208
0.13090673 0.2085025 0.08723734 0.015390399 0.09964314 0.09786181 0.014535638 0.027989283
0.091069765 0.051728085 0.041274104 0.010246357 0.013539354 0.04336629 0.02526746 0.0155249415
00000000: 46fd 053d 8844 fa3e 6d11 523c c1bb 0a3c
00000010: 4cb1 463c 7f2c e93c 2aee 903e 6e59 0b3c
00000020: 6a0c 063e ae81 553e 7ea9 b23d 0328 7c3c
00000030: b411 cc3d c66b c83d e226 6e3c c849 e53c
00000040: c982 ba3d d4e0 533d 090f 293d 56e0 273c
00000050: 2bd4 5d3c daa0 313d b4fd ce3c 535c 7e3c

weight f4 [24, 24, 3]
-0.21778248 -0.002710362 0.08294893 -0.058060963 0.07510969 -0.2120138 0.087718256 0.038749684
-0.18200378 -0.09271004 0.13517237 0.02747228 -0.079865895 -0.19664092 -0.010156132 0.07172715
-0.009340356 -0.063359 0.06287186 -0.059384722 -0.108461745 -0.09765544 -0.12370204 -0.08724547
-0.21829158 -0.009770361 -0.08993657 0.019353934 0.16275816 0.21862626 -0.106247015 0.047130607
-0.019546522 0.082455084 -0.122750975 -0.22552767 -0.26855218 -0.0788228 0.14546557 0.21409532
0.16114512 0.09961457 0.121462695 0.24518792 -0.04856328 -0.29695687 -0.18840262 -0.0538839
0.020880215 -0.3009984 -0.40957737 -0.069804 -0.059770197 0.0066215782 0.1014248 0.15874012
0.018531872 0.08573769 -0.09326791 -0.15906252 0.036179084 -0.023000203 -0.123767555 -0.007132526
-0.23034693 0.05837602 -0.064275704 0.13751437 0.21059336 0.20516595 0.025131393 0.21527721
-0.3521132 0.10504271 0.06934024 -0.30788985 0.18244082 0.3040355 0.29130277 -0.528665
0.25373542 -0.18607321 0.042273384 -0.37425527 -0.0033341118 0.079719946 -0.37855628 -0.26259473
0.33387312 0.095277786 0.21881217 0.02650734 0.5785572 0.4222893 0.07708815 -0.33821923
0.20805937 0.27109966 -0.18167123 0.3893595 -0.012192869 0.45228764 0.04269085 -0.102727465
-1.0702101 -0.6418249 -0.2756061 0.20124012 -0.1766168 0.14663723 -0.5357965 -0.6246249
-0.26834512 0.17562012 -0.05818045 -0.42124242 0.10946935 0.08699188 -0.036382552 -0.12686911
-0.35679993 0.0063431365 -0.08358331 0.4040799 -0.15439528 -0.25415868 0.12303319 0.064388596
0.48042515 -0.13743654 0.018811414 0.10454602 0.4559372 -0.29434797 0.41675982 0.006981385
-0.2154887 -0.13617933 0.20670728 -0.09658618 -0.0753111 0.15594769 -0.27917758 -0.243155
-0.3327345 0.047026746 0.44707316 -0.44933602 0.13613164 0.21381932 0.105396725 -0.50353616
-0.107947096 0.026625138 0.13963816 -0.22172718 0.124973856 0.053286165 0.25441462 -0.17669654
-0.065570064 -0.19341132 -0.21732897 0.067592114 -0.371295 -0.007755662 0.1814255 -0.30670038
0.09413607 0.31663507 -0.2880507 -0.3515921 -0.3890117 -0.0704426 0.4100535 0.20441766
0.25898555 0.24394009 -0.0064519476 0.29334298 -0.09246134 -0.043428797 0.05227994 0.019009698
0.04008485 0.17091453 0.040401712 -0.110657565 0.1350118 0.1762498 0.07598143 0.21264848
0.2064832 0.25789505 0.24842496 -0.07146793 -0.017206764 -0.18034828 0.13531342 0.014075717
0.015318766 0.1894785 0.14493202 -0.1987229 0.1444837 0.027266005 0.01508431 0.22294815
0.009543739 -0.14476876 -0.4304633 -0.25225574 -0.07555836 -0.02945609 -0.06789957 -0.089287944
-0.07962973 0.019960284 -0.08985554 -0.15878505 -0.027222095 -0.024760908 0.021005461 0.34434915
-0.33843037 -0.018781826 -0.015571808 -0.12796868 0.015135484 0.09470239 -0.2908168 0.26314908
0.16331221 9.20892e-05 -0.07458126 -0.06613647 -0.30978182 -0.06270987 0.13517237 0.2494726
-0.03969452 -0.022392545 -0.25575522 0.18358263 0.06378917 -0.08864788 -0.040584028 0.097961
-0.0142244045 0.18909502 0.030371023 -0.11064665 0.1466095 0.098199815 -0.1261634 0.14758359
00000000: 5f02 5fbe 54a0 31bb 21e1 a93d 55d1 6dbd
00000010: 1cd3 993d 251a 59be a1a5 b33d fdb7 1e3d
00000020: 335f 3abe c3de bdbd a06a 0a3e 8c0d e13c
00000030: bb90 a3bd 3d5c 49be e865 26bc afe5 923d
00000040: 4b08 19bc 5dc2 81bd f6c2 803d 653d 73bd
00000050: 3121 debd 93ff c7bd 7f57 fdbd c1ad b2bd
00000060: d487 5fbe dd13 20bc aa30 b8bd 248c 9e3c
00000070: 13aa 263e 90df 5f3e 0998 d9bd 060c 413d
00000080: 0720 a0bc 36de a83d dd64 fbbd baf0 66be
00000090: ac7f 89be d96d a1bd edf4 143e ce3b 5b3e
000000a0: 3a03 253e b902 cc3d 6fc1 f83d 8b12 7b3e
000000b0: 4aea 46bd bb0a 98be 9eec 40be 5db5 5cbd
000000c0: fc0c ab3c 761c 9abe 20b4 d1be 66f5 8ebd
000000d0: 98d1 74bd d3f9 d83b ceb7 cf3d c58c 223e
000000e0: 27d0 973c 3e97 af3d 3f03 bfbd 49e1 22be
000000f0: 8530 143d ec6a bcbc d879 fdbd f7b7 e9bb
00000100: 11e0 6bbe b21b 6f3d fba2 83bd 91d0 0c3e
00000110: c9a5 573e 0617 523e 5ae0 cd3c a171 5c3e
00000120: 2e48 b4be a220 d73d 4102 8e3d bda3 9dbe
00000130: c4d1 3a3e 8baa 9b3e a325 953e 9756 07bf
00000140: 9ce9 813e fa89 3ebe db26 2d3d 639e bfbe
00000150: 1d81 5abb 3644 a33d 21d2 c1be d172 86be
00000160: 6bf1 aa3e 0021 c33d 4c10 603e ec25 d93c
00000170: 531c 143f 4e36 d83e 64e0 9d3d 122b adbe
00000180: 840d 553e 93cd 8a3e 0608 3abe 215a c73e
00000190: 99c4 47bc 3f92 e73e 9adc 2e3d c762 d2bd
000001a0: a5fc 88bf a34e 24bf 3e1c 8dbe e411 4e3e
000001b0: 09db 34be 1228 163e f629 09bf 6be7 1fbf
000001c0: 8864 89be c3d5 333e a04e 6ebd 16ad d7be
000001d0: 7731 e03d cc28 b23d df05 15bd fae9 01be
000001e0: 7bae b6be 16da cf3b ba2d abbd 90e3 ce3e
000001f0: cc19 1ebe 1621 82be d3f8 fb3d 2bde 833d
00000200: 49fa f53e 2abc 0cbe 651a 9a3c 391c d63d
00000210: 9a70 e93e c7b4 96be 8b61 d53e 1ac4 e43b
00000220: 12a9 5cbe 9872 0bbe 13ab 533e face c5bd
00000230: b53c 9abd c0b0 1f3e 5df0 8ebe a0fd 78be
00000240: 2d5c aabe 1e9f 403d c6e6 e43e 5f0f e6be
00000250: 1866 0b3e 74f3 5a3e 3dda d73d bfe7 00bf
00000260: 5e13 ddbd f61c da3c 4efd 0e3e 730c 63be
00000270: 4bf2 ff3d 9842 5a3d a242 823e f0ef 34be
00000280: 9949 86bd 9e0d 46be 7c8b 5ebe bc6d 8a3d
00000290: 611a bebe 3523 febb 9bc7 393e d507 9dbe
000002a0: 69ca c03d fe1d a23e 627b 93be e103 b4be
000002b0: 8b2c c7be 3644 90bd 88f2 d13e dd52 513e
000002c0: c199 843e 6ecb 793e dc6a d3bb 0d31 963e
000002d0: 5f5c bdbd 65e2 31bd 7e23 563d 3aba 9b3c
000002e0: 0330 243d 3804 2f3e 447c 253d 6fa0 e2bd
000002f0: 8940 0a3e d47a 343e 279c 9b3d 86c0 593e
00000300: 5570 533e d20a 843e 1d63 7e3e c75d 92bd
00000310: 33f5 8cbc 38ad 38be 9a8f 0a3e d69d 663c
00000320: 90fb 7a3c a706 423e 0f69 143e 047e 4bbe
00000330: 89f3 133e f55c df3c 2f24 773c 854c 643e
00000340: 585d 1c3c 433e 14be b065 dcbe aa27 81be
00000350: 57be 9abd e64d f1bc ee0e 8bbd 99dc b6bd
00000360: e914 a3bd c083 a33c 2e06 b8bd 8c98 22be
00000370: df00 dfbc 63d7 cabc a513 ac3c 884e b03e
00000380: bf46 adbe 58dc 99bc e620 7fbc 390a 03be
00000390: d2fa 773c 54f3 c13d f1e5 94be 7abb 863e
000003a0: 513b 273e 0320 c138 0fbe 98bd 8f72 87bd
000003b0: b99b 9ebe 086e 80bd a06a 0a3e bf75 7f3e
000003c0: b996 22bd 9270 b7bc 59f2 82be 16fd 3b3e
000003d0: e5a3 823d 058d b5bd 703b 26bd c79f c83d
000003e0: 7a0d 69bc 20a2 413e a7cc f83c b69a e2bd
000003f0: cd20 163e fc1c c93d fa30 01be 2720 173e

bias f4 [24]
0.031203846 0.19047478 0.18267713 -0.09068397 -0.07497247 -0.018190108 0.081562966 -0.13378243
0.07430687 -0.17972513 -0.035574384 0.096636966 -0.17439868 -0.10959395 0.07177888 0.16765717
0.12661898 -0.18585448 -0.058902603 0.034748733 0.040904235 0.052727293 -0.25355774 -0.20085374
00000000: 359f ff3c d20b 433e b70f 3b3e 84b8 b9bd
00000010: 2b8b 99bd 6c03 95bc 7c0a a73d 43fe 08be
00000020: 332e 983d dd09 38be 72b6 11bd 9ae9 c53d
00000030: 9195 32be cb72 e0bd ce00 933d 52ae 2b3e
00000040: 68a8 013e a350 3ebe db43 71bd b054 0e3d
00000050: 338b 273d 93f8 573d 52d2 81be 9aac 4dbe
