models/resnet_cath95_ss3-ss4-buried.pth (torch_old, 361110 bytes, 132 tensors)

weight f4 [24, 22, 1]
0	0xbe8e0993	-0.2774168
1	0xbf28f951	-0.66005427
2	0x3e84d37a	0.25942594
3	0xbfcb8f32	-1.5903075
4	0xc010b80f	-2.261234
5	0x3e659125	0.2241865
6	0xbf8c17d5	-1.0944773
7	0xbf05fff0	-0.52343655
8	0x3e2086ca	0.15676418
9	0xc0374b90	-2.863987
10	0x3e07ea97	0.13273083
11	0xbd0607d7	-0.03272232
12	0xbf78fc7c	-0.9726026
13	0xbf40a33c	-0.75249076
14	0xc029f132	-2.6553464
15	0xc015ff36	-2.3437018
16	0xbf49c76e	-0.7881993
17	0xbf115d28	-0.5678277
18	0xbe03eef7	-0.12884127
19	0x3e84c737	0.2593324
20	0xbda21622	-0.07914378
21	0x3f04ecda	0.51923907
22	0xbd8b6548	-0.06806427
23	0xbd2bcdc3	-0.041944277
24	0x3ec9096c	0.39265
25	0xbd1fd4da	-0.03902135
26	0xbf84ba8d	-1.0369431
27	0xbfbb8613	-1.4650291
28	0xbd291d75	-0.041287858
29	0xbf81385d	-1.0095326
30	0xbdb2ef45	-0.08737043
31	0xbec0e23b	-0.376726
32	0xbe2caf74	-0.16863805
33	0xbdd18d2d	-0.10232005
34	0x3e8a9170	0.27064085
35	0xbd8147fc	-0.06312558
36	0xbedf258a	-0.43583328
37	0xbf366802	-0.71252453
38	0xc0185cb4	-2.3806581
39	0xbffd0fc1	-1.9770433
40	0xbed2de6a	-0.41185313
41	0xc066d23a	-3.6065812
42	0xbf9cd001	-1.2250978
43	0x3ed756cd	0.4205841
44	0x3d151246	0.03639438
45	0xc009d480	-2.153595
46	0xbf883376	-1.0640705
47	0xbdb71f18	-0.089414775
48	0xbe9c9311	-0.30580953
49	0xbe793d13	-0.24339704
50	0xbfd89a7d	-1.6922146
51	0xbd84ac67	-0.06478196
52	0xbd1a2393	-0.037631582
53	0xbf0d5462	-0.5520688
54	0xbe62d638	-0.2215203
55	0x3e8dc642	0.2769032
56	0xbde10947	-0.10988098
57	0xbff05648	-1.8776331
58	0xbf5986ff	-0.8497161
59	0xbf713a4a	-0.9422957
60	0xbd75e6fc	-0.060034737
61	0xbd51a377	-0.051181283
62	0xbe00dfd9	-0.12585391
63	0xbe4b28c5	-0.19839771
64	0x3e3f4d8b	0.18681924
65	0xc0371051	-2.8603709
66	0xc082b289	-4.084294
67	0xbd437db2	-0.047727294
68	0xbf0e5aa0	-0.5560703
69	0xbb1d2427	-0.0023977847
70	0xbcf026b1	-0.029315325
71	0xc07b7b6a	-3.9294076
72	0xbf0c5204	-0.54812646
73	0xbfaef451	-1.366831
74	0xbeaf456b	-0.3423265
75	0xbe9f6a3a	-0.31135732
76	0xbfdec8fd	-1.7405087
77	0xc0960fd7	-4.6894336
78	0xbfaa9b91	-1.3328725
79	0xc014a466	-2.322534
80	0xbf46863f	-0.77548593
81	0xbf74c951	-0.95619684
82	0xbca25748	-0.01981701
83	0x3e29166d	0.16512461
84	0x3e0117e9	0.12606777
85	0x3e52706b	0.20550697
86	0xbfb74e02	-1.4320681
87	0xbdb55838	-0.08854717
88	0x3f5fdda9	0.874476
89	0xbcec9535	-0.028879741
90	0xbfaed417	-1.3658475
91	0x3e7063f7	0.23475634
92	0xbd5f1737	-0.0544655
93	0xc0ad6376	-5.418391
94	0xbc9aa54c	-0.018877648
95	0xc02ba64c	-2.682025
96	0xc03fb09c	-2.9951544
97	0xbee17ee5	-0.44042125
98	0xc0430bbb	-3.047591
99	0xc05ff738	-3.499464
100	0x3e1d0db2	0.15337256
101	0xbfaa7fc5	-1.3320242
102	0x3e63eac7	0.22257529
103	0xc03a2357	-2.908407
104	0x3e46f193	0.19428091
105	0xbd688a9b	-0.05677281
106	0xbf7f1c40	-0.9965248
107	0xc11390e6	-9.222876
108	0xc0b6fab7	-5.718105
109	0x3edc0aef	0.42977092
110	0x3ef2914c	0.47376478
111	0xbfd9215e	-1.6963308
112	0xbe632829	-0.22183289
113	0xc03cfac6	-2.952806
114	0xbe760bb6	-0.24027905
115	0xbe000d74	-0.12505132
116	0xbed0eff2	-0.40808064
117	0xbfb78d4c	-1.4339995
118	0xbe995445	-0.29947105
119	0xbe3a7832	-0.18209913
120	0xbc401c57	-0.011725507
121	0xbd24beb4	-0.04022093
122	0xbfe05e38	-1.7528753
123	0xc0a937b1	-5.2880483
124	0xbcfde698	-0.030993745
125	0x3e611c2f	0.21983407
126	0xc04aa3dd	-3.1662514
127	0xc02ec044	-2.730485
128	0xbd6dee02	-0.05808831
129	0x3d91cae9	0.0711878
130	0xbf0439bb	-0.5165059
131	0xc06d2a26	-3.7056975
132	0xc05a89f0	-3.414669
133	0xbf82bdc9	-1.0214168
134	0xc00b55e5	-2.1771176
135	0x3ea4fe98	0.3222549
136	0xbd00ccc9	-0.0314453
137	0xbf1a6978	-0.6031718
138	0xbf7a0861	-0.97669035
139	0xbf0a6a67	-0.5406861
140	0xc0060e7b	-2.0946338
141	0x3e65c59d	0.22438665
142	0xbfec78a9	-1.8474323
143	0xbfaa773f	-1.3317641
144	0x3d9936e6	0.07481174
145	0x3e11fb2e	0.14255974
146	0xbe69dc0c	-0.22837847
147	0x3e3ddd67	0.1854149
148	0x3d5a092d	0.053231407
149	0xbe918a10	-0.28425646
150	0xc016add4	-2.3543596
151	0x3e7027a7	0.23452626
152	0x3d9fd86b	0.0780495
153	0x3e0d8b5d	0.13822694
154	0x3e811f56	0.2521922
155	0xbf8e23a5	-1.1104628
156	0xbb223a2c	-0.0024753911
157	0xbc5a8286	-0.013336783
158	0x3e34d0dc	0.17657799
159	0x3e03100e	0.12799093
160	0xc0183179	-2.3780196
161	0x3e06d1fe	0.13166043
162	0xbeb4231d	-0.3518304
163	0xbebc789e	-0.36810774
164	0xbf585908	-0.8451085
165	0xbf4fec14	-0.812196
166	0x3e4951aa	0.19660059
167	0xbf8fcd36	-1.12345
168	0xbe39217d	-0.18079181
169	0xbedc82ca	-0.43068534
170	0xbcb431b7	-0.021996362
171	0x3e4b2191	0.19837023
172	0xbc9e5bb3	-0.019330835
173	0xbe177cb5	-0.14793666
174	0x3e5d784b	0.2162792
175	0xbf504477	-0.8135447
176	0xbf185faa	-0.5952097
177	0xbe2344bb	-0.15944187
178	0x3e4a0c68	0.19731295
179	0xbf820cb9	-1.0160133
180	0xbfda7114	-1.7065759
181	0x3e864945	0.26227775
182	0xbef9a005	-0.48754898
183	0xbfbdda7e	-1.4832304
184	0xbc669fa4	-0.014076147
185	0xbfbcbce7	-1.4745148
186	0xbecd5e4b	-0.40111002
187	0xbefaaedb	-0.4896153
188	0xbf9e2fa3	-1.2358288
189	0xbf445277	-0.7668833
190	0xbf3a0a76	-0.7267221
191	0xbf847233	-1.0347351
192	0xbe96cf5f	-0.29455087
193	0xbf12cad3	-0.57340735
194	0x3e3b5e4d	0.18297692
195	0xbd915019	-0.070953555
196	0x3e92252d	0.28543988
197	0xbf2d5a03	-0.6771547
198	0x3e82426b	0.25441298
199	0xbcc9045e	-0.024538215
200	0xbf36a002	-0.713379
201	0xbf07bf89	-0.53026634
202	0x3e72f002	0.23724368
203	0xbf10b4ef	-0.5652608
204	0xbe522aa4	-0.20524079
205	0xbe32de08	-0.1746751
206	0xbe390942	-0.18069938
207	0x3e6d8678	0.23195827
208	0xbe32bf17	-0.17455707
209	0xbe670eb4	-0.22564203
210	0xbf14eee4	-0.5817702
211	0xbf2c43a8	-0.67290735
212	0x3e8a5c83	0.27023706
213	0x3e03a315	0.1285518
214	0xbdac1131	-0.084017165
215	0xbec41443	-0.38296708
216	0xbe18c095	-0.14917214
217	0xbed85b22	-0.4225703
218	0xbe886951	-0.2664285
219	0x3f4d7786	0.80260503
220	0x3eefc4ec	0.46829927
221	0x3c9844d9	0.018587517
222	0xbf1cb770	-0.61217403
223	0xbc8464a9	-0.01616128
224	0x3dce25e1	0.100658186
225	0x3dd23736	0.10264437
226	0xbded693c	-0.115923375
227	0xbf8dc4b6	-1.1075656
228	0xbf7781d0	-0.96682453
229	0xbf19ebcc	-0.6012542
230	0xbd943d3c	-0.07238242
231	0xbdda3432	-0.10654487
232	0xbf3b24e1	-0.7310315
233	0x3e09bfe9	0.13452114
234	0xbf83f5ff	-1.0309447
235	0xbf5ee490	-0.8706751
236	0xbfb08ff9	-1.3793937
237	0xbf6e00d4	-0.92970014
238	0xbf7e0926	-0.9923271
239	0x3e85356b	0.26017317
240	0xbebc4511	-0.36771443
241	0xc05afa0c	-3.4215117
242	0xbf860bd3	-1.0472358
243	0xbe8addfc	-0.27122486
244	0x3dca9d4f	0.098932855
245	0x3d0e09f7	0.034677472
246	0xbe269021	-0.16265918
247	0xbe9a613c	-0.3015231
248	0xbca448d7	-0.020054264
249	0x3e9fbaa2	0.31197077
250	0xbf1b96d4	-0.6077702
251	0xbebbdb63	-0.36690816
252	0xbf489abc	-0.78361106
253	0xbfdeeb29	-1.7415515
254	0x3d82238f	0.063544385
255	0xbf039744	-0.5140269

weight f4 [24]
0	0x3c61039f	0.0137337735
1	0x3c8fc20f	0.017548589
2	0x3c116bb8	0.00887578
3	0x3d23b413	0.039966654
4	0x3c13b658	0.009015642
5	0xb8b8b6c1	-8.807844e-05
6	0x3d74bfae	0.059753112
7	0x3d3355b8	0.04378292
8	0x3cfbda89	0.030743854
9	0x3d393de5	0.045225043
10	0x3cc574aa	0.024103481
11	0x3cecf11b	0.028923562
12	0x3c90ceec	0.017676793
13	0x3d824b72	0.06362046
14	0x3c728781	0.014802814
15	0x3cd57a63	0.026059335
16	0x3af2c0da	0.0018520609
17	0x3ce18cc4	0.027532943
18	0x3d196750	0.037452042
19	0x3cb84789	0.022495048
20	0x3d5fc8ff	0.054635044
21	0x3d9844f6	0.07435028
22	0x3cbe6f0a	0.023246307
23	0x3d30f3a8	0.04320112

weight f4 [24, 24, 3]
0	0xbef1334b	-0.47109446
1	0x3d1414e6	0.036152743
2	0x3d6fc998	0.058541864
3	0x3e24a4e2	0.16078523
4	0x3e61ad52	0.22038773
5	0xbedc86b0	-0.43071508
6	0x3c5c4428	0.013443984
7	0xbeeca857	-0.46222183
8	0x3f4d960f	0.80307096
9	0xbd153f39	-0.036437247
10	0xbee8f1bc	-0.4549693
11	0xbec1a14c	-0.37818372
12	0x3e7d6ab9	0.24747743
13	0x3eaa9acf	0.33321235
14	0x3e46b0e5	0.19403417
15	0xbe863271	-0.2621036
16	0x3e463fd5	0.19360287
17	0xbd90f5c4	-0.07078126
18	0x3e2f631e	0.17127654
19	0x3e9c5522	0.305337
20	0x3f2afb0a	0.66789305
21	0xbe001e03	-0.12511449
22	0x3ea593b3	0.32339248
23	0x3e6d1c65	0.23155363
24	0xbf2a4639	-0.665134
25	0x3e89ad9a	0.2689026
26	0xbe60de22	-0.21959737
27	0x3c3d837c	0.011566993
28	0x3f17464d	0.59091645
29	0x3e0f2f51	0.13982894
30	0xbf4318e4	-0.76209855
31	0xbc53f07e	-0.012935756
32	0xbed4ce80	-0.41563797
33	0xbeaa8f20	-0.3331232
34	0x3e2639f0	0.16233039
35	0x3f0eaca0	0.55732155
36	0xbf2106e9	-0.6290117
37	0xbcf62457	-0.030046625
38	0x3f2f3bd8	0.6845069
39	0xbe2b3cd2	-0.1672242
40	0xbea48b28	-0.32137418
41	0x3e5dca87	0.2165929
42	0x3e97c63d	0.2964343
43	0x3db60c5b	0.08889075
44	0xbe1089c4	-0.14115053
45	0xbf220ef6	-0.6330408
46	0xbf1281e7	-0.57229465
47	0xbf6ab4ba	-0.91682017
48	0x3ef9f45d	0.48819247
49	0xbe20eefe	-0.15716168
50	0xbe528aa6	-0.20560703
51	0xbfa70a50	-1.3050022
52	0x3efaa91a	0.4895714
53	0xbdef7e44	-0.11694005
54	0x3d8a0aaa	0.06740315
55	0xbebd0510	-0.36917925
56	0xbca8f320	-0.020623744
57	0xbd80958b	-0.06278523
58	0x3d2c9876	0.042137586
59	0x3c2832f5	0.010266055
60	0x3ed2f654	0.41203558
61	0x3e6d9290	0.2320044
62	0x3e6cfca7	0.23143254
63	0xbe555da1	-0.20836498
64	0x3dbdadf0	0.092616916
65	0xbe4f9398	-0.20271146
66	0xbed7e62c	-0.42167795
67	0xbdca34c4	-0.098733455
68	0xbd8e1c15	-0.0693895
69	0xbc910a1f	-0.017705021
70	0xbd95832b	-0.07300409
71	0xbdde5269	-0.10855562
72	0x3e1bfea9	0.15233864
73	0x3ee74e1d	0.45176783
74	0xbcdc619f	-0.026902018
75	0xbe95a24f	-0.29225394
76	0xbee2d347	-0.44301817
77	0x3e465dc9	0.19371714
78	0x3ea7aa78	0.32747245
79	0xbe2ff120	-0.17181826
80	0xbe9aff7b	-0.3027304
81	0xbd1a5d75	-0.037686784
82	0xbef3b375	-0.47597852
83	0x3da68731	0.081312545
84	0xbe964ffc	-0.29357898
85	0x3d09b6ef	0.033621725
86	0x3e87bfe4	0.26513588
87	0x3c92ff96	0.017944138
88	0x3e15a2a4	0.14612824
89	0x3e0a7d2e	0.13524315
90	0xbdffbb4d	-0.12486897
91	0x3cc17c31	0.02361879
92	0x3d834d65	0.06411246
93	0xbed974fc	-0.42472064
94	0x3e398737	0.18117987
95	0x3eb4a1de	0.35279745
96	0xbc36028a	-0.011109004
97	0x3e183292	0.14863041
98	0x3e2a0473	0.1660326
99	0xbf1a4689	-0.6026388
100	0xbedc3835	-0.43011633
101	0xbf36ba94	-0.71378446
102	0xbeda34ac	-0.4261831
103	0x3dd17a75	0.10228435
104	0x3ed9ca21	0.42537025
105	0x3eec855f	0.46195504
106	0xbe8df2fa	-0.2772444
107	0xbd952948	-0.072832644
108	0x3cccd6f3	0.02500484
109	0xbe38070d	-0.1797144
110	0x3cca38d7	0.024685306
111	0x3ee63810	0.44964647
112	0x3de437ee	0.1114348
113	0x3eb51eca	0.35375053
114	0xbe844d2c	-0.25840127
115	0x3e9b7058	0.3035915
116	0xbe31dc2c	-0.17369145
117	0x3f1562d4	0.58353925
118	0xbc451611	-0.012029187
119	0x3e12f348	0.14350617
120	0xbe647b15	-0.22312577
121	0x3eb04a0c	0.34431493
122	0x3e35fef4	0.17773038
123	0xbf07c546	-0.5303539
124	0xbd5307fb	-0.051521283
125	0x3e92954e	0.28629535
126	0xbd79e329	-0.061007652
127	0xbdc9a03e	-0.09845017
128	0x3e2a95f2	0.16658762
129	0x3e3f61c2	0.18689635
130	0x3d7ff8dc	0.06249319
131	0xbf3fe1bf	-0.74953836
132	0xbea0d8e9	-0.3141549
133	0xbee3f9f3	-0.44526634
134	0xbf472c59	-0.77802044
135	0xbf6e3f83	-0.9306566
136	0x3d825ff8	0.06365961
137	0x3f223a7b	0.63370484
138	0x3eaff708	0.34368157
139	0x3e64d4b9	0.22346772
140	0x3db5b423	0.08872249
141	0xbe4f280d	-0.20230122
142	0xbe70b301	-0.23505785
143	0xbcab5e61	-0.020919027
144	0x3ef81844	0.48456013
145	0x3d5baa19	0.053629015
146	0xbe5a9425	-0.21345575
147	0x3e7f9e72	0.24962786
148	0xbec747eb	-0.38922057
149	0xbf43254a	-0.76228774
150	0xbe26693e	-0.16251084
151	0xbd2e126c	-0.042498037
152	0xbe0d2832	-0.13784865
153	0x3e531217	0.2061237
154	0xbe26931e	-0.16267058
155	0x3d551995	0.05202635
156	0xbd8635ef	-0.06553256
157	0xbced94cb	-0.029001614
158	0xbbc85969	-0.006114174
159	0xbe6e73dd	-0.23286386
160	0xbdafdc6b	-0.08586963
161	0xbea2e670	-0.31816435
162	0x3ee53d64	0.447734
163	0xbe4be0e2	-0.19910005
164	0x3d19e248	0.037569314
165	0x3e742b0d	0.23844548
166	0xbe01c7d0	-0.12673879
167	0x3e108a3d	0.14115234
168	0x3e2a5e7b	0.16637604
169	0x3ddb577e	0.10710047
170	0xbe3f2276	-0.1866549
171	0xbfbf1aab	-1.4930013
172	0xbe8a3e64	-0.27000725
173	0x3e32ce0c	0.17461413
174	0x3d106560	0.03525293
175	0x3eb5b4bd	0.35489455
176	0x3ec5b6dc	0.38616073
177	0xbf06decf	-0.5268373
178	0x3cb5ea47	0.022206439
179	0x3e9132d0	0.2835908
180	0x3db3655c	0.08759567
181	0xbec60a41	-0.38679698
182	0xbc7ae101	-0.015312434
183	0xbeb408f7	-0.3516309
184	0x3e704cf8	0.23466861
185	0x3e175f89	0.14782538
186	0xbedd89d3	-0.43269214
187	0xbe5fdbe4	-0.21861225
188	0x3e8f0410	0.27932787
189	0x3f0f9972	0.56093514
190	0xbf24a340	-0.643116
191	0xbec463f2	-0.38357502
192	0xbdca6f6a	-0.09884532
193	0x3e6f33b4	0.23359567
194	0x3e7abdd7	0.2448648
195	0x3b2b91d4	0.002617945
196	0xbef07aa5	-0.4696857
197	0x3ede80b0	0.43457556
198	0x3d485fe6	0.04891958
199	0x3f371028	0.7150903
200	0x3edd26ac	0.43193567
201	0xbf5a7ee3	-0.85349864
202	0xbe4e3881	-0.20138742
203	0x3e719344	0.23591334
204	0x3e19b0a7	0.15008794
205	0x3d19da4c	0.0375617
206	0x3eb6103a	0.35559255
207	0xbe0fde22	-0.1404958
208	0x3d87ffc3	0.066405796
209	0x3efa6189	0.48902538
210	0x3dabfe82	0.08398153
211	0xbf1383cd	-0.5762299
212	0xbe1f0f73	-0.15533237
213	0x3e793b87	0.24339114
214	0x3ef22c23	0.472993
215	0xbcb9ec14	-0.022695579
216	0xbc34249e	-0.010995058
217	0xbee3f011	-0.44519094
218	0x3e122a18	0.1427387
219	0xbd6a1284	-0.057146564
220	0x3e4fc229	0.2028891
221	0x3ecd9fa8	0.4016087
222	0xbef16d04	-0.47153485
223	0x3e90c3a2	0.28274256
224	0x3ee2fa3e	0.44331545
225	0xbee7a382	-0.45241934
226	0x3f0bd6c3	0.54624575
227	0xbe02dd7d	-0.12779804
228	0xbd855889	-0.06511027
229	0x3d279038	0.040909022
230	0x3ddb6833	0.10713234
231	0x3e854332	0.26027828
232	0xbe7971d6	-0.24359831
233	0xbd2585b1	-0.0404107
234	0xbe540103	-0.20703511
235	0x3cab3cc6	0.020903002
236	0xbe5cab6e	-0.2154977
237	0x3df32ca4	0.11873749
238	0xbf20a6fe	-0.6275481
239	0x3e6c7ee6	0.23095283
240	0x3f58ab33	0.8463623
241	0x3d763970	0.06011337
242	0x3f002d91	0.5006953
243	0xbc868c7a	-0.016424406
244	0x3f124e33	0.5715057
245	0x3d847fe5	0.064697064
246	0xbe4f272f	-0.20229791
247	0x3e38b88f	0.18039154
248	0x3f2f583f	0.6849403
249	0xbc96e12f	-0.018417923
250	0x3e049160	0.12946081
251	0x3e9cec90	0.30649233
252	0xbec99e78	-0.39378715
253	0x3eb246d7	0.34819672
254	0xbe8f338d	-0.27969018
255	0xbf1f6b46	-0.6227306

bias f4 [24]
0	0xbe596e98	-0.21233594
1	0xbdc2dbf4	-0.09514609
2	0xbe20b62a	-0.1569449
3	0xbe965e9b	-0.29369053
4	0xbeab6cc5	-0.33481422
5	0xbeb46741	-0.35235026
6	0xbebcf93e	-0.36908907
7	0xbdd440d1	-0.10363925
8	0xbc27f9a9	-0.010252395
9	0xbe07962e	-0.13240883
10	0xbe363f05	-0.17797478
11	0xbe2172d7	-0.15766464
12	0xbe838700	-0.25688934
13	0xbe24e6e5	-0.16103704
14	0xbe4c6499	-0.1996025
15	0xbe847577	-0.2587087
16	0xbe9fdf8e	-0.31225246
17	0xbdda00bf	-0.106446736
18	0xbdbaec4e	-0.09127103
19	0xbe6483a1	-0.22315837
20	0xbdf83b90	-0.12120736
21	0xbdc7f409	-0.09763343
22	0xbe4746b2	-0.19460562
23	0xbe2438b0	-0.1603725

weight f4 [24]
0	0x3de6264f	0.112377755
1	0x3eca9d50	0.39573145
2	0x3e2b4c35	0.1672829
3	0x3e4e3479	0.20137204
4	0x3d1a56af	0.037680324
5	0x3d5b01f4	0.05346866
6	0x3d427286	0.0474725
7	0x3e040a4a	0.1289455
8	0x3ec47af6	0.38375062
9	0x3e55e742	0.20888999
10	0x3e4ee9cb	0.20206372
11	0x3e54e13e	0.20789048
12	0x3d8b875e	0.068129286
13	0x3e5b9362	0.21442941
14	0x3e00d076	0.12579522
15	0x3e31b0ef	0.17352651
16	0x3cb8a4e1	0.022539558
17	0x3eb7fc06	0.35934466
18	0x3dc32c8c	0.09529981
19	0x3e02347c	0.12715334
20	0x3e674644	0.22585398
21	0x3e5f8192	0.21826771
22	0x3e633110	0.22186685
23	0x3dfc6c15	0.123253025

weight f4 [24, 24, 3]
0	0xbce90456	-0.02844445
1	0x3e18a3d2	0.14906242
2	0xbcfabab9	-0.030606614
3	0x3e6992a6	0.22809848
4	0x3e2840b6	0.16430935
5	0x3d8e3a00	0.06944656
6	0x3de164ca	0.11005552
7	0x3da8e13d	0.08246086
8	0xbeae12c2	-0.33998686
9	0x3ca04d3b	0.019568076
10	0xbc74e71d	-0.01494768
11	0x3de109d5	0.109882034
12	0x3eafba50	0.34321833
13	0x3d07d003	0.03315736
14	0x3e94ffea	0.29101497
15	0xbe457bbf	-0.19285487
16	0x3eb5aed8	0.35484958
17	0xbeb6fb6b	-0.35738692
18	0x3d4606ca	0.04834632
19	0xbe407fe4	-0.18798786
20	0xbe830af3	-0.2559429
21	0x3ce23773	0.02761433
22	0xbdd7e2cd	-0.10541306
23	0xbed19bee	-0.40939277
24	0xbdb882aa	-0.09009297
25	0xbe5400ba	-0.20703402
26	0x3d6124cf	0.054966744
27	0xbe11062a	-0.14162508
28	0x3e30ba44	0.17258555
29	0xbf00f132	-0.50368035
30	0x3e5d1f87	0.21594058
31	0x3d897173	0.06711092
32	0x3d845f00	0.06463432
33	0xbd11eaf2	-0.035624452
34	0x3b9a3cb3	0.004706943
35	0x3ebce2e6	0.3689186
36	0xbf0ca90c	-0.54945445
37	0x3e317c10	0.17332482
38	0xbedbb3dc	-0.4291066
39	0x3c716377	0.014733187
40	0x3d48e274	0.049044088
41	0xbda4d5c5	-0.08048586
42	0x3e329938	0.17441261
43	0x3e45d5c9	0.19319834
44	0xbe3456df	-0.17611264
45	0x3cfb4669	0.030673223
46	0x3d9438a2	0.07237364
47	0xbd096b06	-0.03354933
48	0x3ebadbd4	0.3649584
49	0x3efeb7a8	0.49749494
50	0x3e0b0fa4	0.13580185
51	0xbe45b4f5	-0.19307311
52	0xbe3ba641	-0.1832514
53	0x3dd4e977	0.103960924
54	0xbdf9aeaf	-0.121915214
55	0x3c2fadb7	0.010722569
56	0x3ca3b0a0	0.019981682
57	0xbe321a73	-0.17392902
58	0x3d4c4d10	0.04987818
59	0xbea360fc	-0.3190993
60	0xbe8d7ede	-0.27635854
61	0xbe7d82c6	-0.24756917
62	0xbd00e328	-0.031466633
63	0x3e6ca6cc	0.23110503
64	0x3cb3cf9d	0.021949584
65	0xbe876945	-0.26447502
66	0xbec72178	-0.38892722
67	0x3c1a343b	0.009411867
68	0xbe8b760b	-0.27238497
69	0x3c452e77	0.012035004
70	0x3d3377f2	0.04381556
71	0xbe00a229	-0.12561859
72	0xbda9b5e5	-0.08286647
73	0x3d3fe2a3	0.046846997
74	0xbf0aa247	-0.54153866
75	0xbea7ece6	-0.32797927
76	0xbe084ace	-0.13309786
77	0xbe9e3c02	-0.30905157
78	0xbf1a57ec	-0.6029041
79	0x3dbcbd12	0.0921575
80	0xbefcd43d	-0.49380675
81	0x3d48fb0e	0.04906755
82	0x3ee0041f	0.43753144
83	0xbe894fe5	-0.26818767
84	0xbdeb5700	-0.11491203
85	0xbe4678f9	-0.19382085
86	0xbf58fb2c	-0.8475826
87	0xbd5b90cf	-0.053604897
88	0xbe1c9781	-0.15292169
89	0xbe3f0853	-0.18655519
90	0x3f435b71	0.76311404
91	0x3f1d196b	0.6136691
92	0xbf0efbc8	-0.5585294
93	0xbf3763f9	-0.7163692
94	0x3d21accd	0.039471436
95	0xbe06199b	-0.13095705
96	0x3d5f0167	0.054444697
97	0xbe942670	-0.28935575
98	0xbdfdb01f	-0.12387108
99	0xbf1d05e0	-0.6133709
100	0xbf043dbd	-0.51656705
101	0xbd4d7068	-0.050156027
102	0xbec6fdc1	-0.38865474
103	0x3e38fb5f	0.1806464
104	0x3dadc67f	0.08485126
105	0xbf1bafcf	-0.6081514
106	0x3df3047a	0.11866088
107	0xbdb17d55	-0.08666483
108	0x3ed46e90	0.41490602
109	0xbef8f813	-0.48626766
110	0xbf54c56e	-0.83113754
111	0x3cc7e101	0.024399282
112	0x3ebd9d88	0.3703425
113	0xbe70266f	-0.23452161
114	0x3daff457	0.08591526
115	0xbced309e	-0.028953847
116	0xbefdd5d0	-0.49577188
117	0x3e89f774	0.26946604
118	0xbd1fda55	-0.039026577
119	0xbdd9c630	-0.106335044
120	0x3d8972fb	0.06711384
121	0xbe8f0e3b	-0.27940544
122	0xbd827c44	-0.06371358
123	0x3bb3524a	0.005472456
124	0x3ee49e9b	0.44652256
125	0x3e00bf38	0.12572944
126	0xbe9bcf5f	-0.3043165
127	0xbe87ff23	-0.2656184
128	0x3e7d13ba	0.24714556
129	0xbea5a188	-0.323498
130	0xbe81af2b	-0.25328955
131	0x3e216f11	0.15765025
132	0x3d80fa93	0.06297793
133	0x3e4786c3	0.19485001
134	0xbf029012	-0.51001084
135	0x3ede1cc3	0.43381318
136	0xbeaace8f	-0.33360717
137	0xbd8b0671	-0.06788338
138	0x3db30106	0.087404296
139	0xbf62b852	-0.885625
140	0xbeaccb18	-0.33748698
141	0x3ea3d42e	0.31997818
142	0x3d428afe	0.047495835
143	0x3ef8a998	0.4856689
144	0xbe56298a	-0.20914283
145	0x3e9c30c2	0.3050595
146	0xbebb4935	-0.3657929
147	0xbe8dcbb9	-0.2769449
148	0x3df86e29	0.121303864
149	0x3e4452aa	0.19172159
150	0xbe1f10d4	-0.15533763
151	0xbe9e50fa	-0.30921155
152	0xbf1847ef	-0.5948476
153	0x3e465525	0.19368418
154	0xbf623cb1	-0.8837386
155	0xbeb72c60	-0.35776043
156	0xbf0ce00d	-0.55029374
157	0x3f32e342	0.6987802
158	0xbcfe2f0f	-0.031028299
159	0x3f26ce7b	0.65158814
160	0xbe8f9930	-0.2804656
161	0xbe963c80	-0.29343033
162	0x3f795937	0.97401756
163	0x3f292f6c	0.66087985
164	0xbf1bc261	-0.60843474
165	0x3dd7f0a5	0.10543946
166	0x3ed434b8	0.4144647
167	0xbf213862	-0.6297666
168	0xbd435f64	-0.047698393
169	0x3d7df6de	0.06200301
170	0xbeec6a5a	-0.4617489
171	0xbeb0831a	-0.34475023
172	0xbe1ce1fc	-0.15320581
173	0x3e907e0f	0.28221175
174	0xbe3b4321	-0.18287326
175	0xbdc37964	-0.09544638
176	0xbd2ca321	-0.04214776
177	0x3dd29c59	0.10283727
178	0xbe6d6ba5	-0.23185594
179	0xbe9e82ff	-0.30959317
180	0x3ec9a8a5	0.39386478
181	0xbed73f00	-0.42040253
182	0x3efc811c	0.49317253
183	0xbf2c06b4	-0.6719773
184	0x3d213da1	0.039365415
185	0xbdeadf8b	-0.11468419
186	0x3e278d1f	0.16362427
187	0xbe0a3443	-0.13496499
188	0x3ea6f7a9	0.32610825
189	0x3dced473	0.10099115
190	0x3cfdd52d	0.03098544
191	0xbf007bfc	-0.50189185
192	0x3eb6968e	0.3566174
193	0xbcde4129	-0.02713068
194	0x3eba89c1	0.36433223
195	0x3ef52dd0	0.47886515
196	0x3e630a62	0.2217193
197	0xbfe05dda	-1.7528641
198	0x3ee051fa	0.43812543
199	0x3e415ffb	0.1888427
200	0xbc79585e	-0.015218822
201	0x3e83dbbf	0.2575359
202	0xbe865993	-0.26240215
203	0xbdbc73eb	-0.09201797
204	0x3dd6233c	0.10455939
205	0xbdf3dfc3	-0.119079135
206	0x3f147464	0.579901
207	0x3e3723b7	0.17884718
208	0xbf08421d	-0.5322588
209	0x3e82ca13	0.25544795
210	0x3eadc499	0.33939055
211	0xbe82fe93	-0.2558485
212	0xbe236b6f	-0.15958951
213	0x3ea54637	0.32280132
214	0x3da049c5	0.078265704
215	0x3f88735e	1.0660207
216	0xbe856b54	-0.26058447
217	0x3ebf1dad	0.37327328
218	0xbee89ce8	-0.4543221
219	0x3dd04c62	0.10170819
220	0xbe7dda80	-0.24790382
221	0xbe363e8a	-0.17797294
222	0x3d5ab950	0.053399384
223	0x3e5302b2	0.20606497
224	0x3e388f95	0.18023522
225	0x3e719dc0	0.23595333
226	0xbf33d819	-0.70251614
227	0xbe82c21f	-0.25538728
228	0x3f051a07	0.5199284
229	0xbe40af26	-0.18816814
230	0xbd7b1fc9	-0.06130961
231	0x3de958ed	0.11393914
232	0x3f494199	0.7861572
233	0x3e76610f	0.24060462
234	0xbe14552c	-0.14485615
235	0xbd395cfe	-0.0452547
236	0xbf2e03d8	-0.67974615
237	0x3eb4045d	0.3515958
238	0x3e791465	0.24324186
239	0xbf6b1e5d	-0.91843206
240	0xbefd5b4d	-0.4948372
241	0x3d9ef438	0.07761425
242	0xbfaa979e	-1.332752
243	0xbf8863ef	-1.0655497
244	0x3efeb22b	0.49745306
245	0xbd842e9f	-0.06454205
246	0xbe1182c6	-0.14210042
247	0x3f06aab3	0.52604216
248	0xbf1d8a44	-0.615391
249	0xbf231cbf	-0.6371574
250	0xbf81dc85	-1.0145422
251	0xbec70b49	-0.38875797
252	0x3e760e2b	0.24028842
253	0xbda33c6e	-0.079705104
254	0x3edcf70b	0.4315723
255	0xbef1c106	-0.47217578

bias f4 [24]
0	0x3ef7211f	0.48267457
1	0xbccac323	-0.024751252
2	0xbeb5552c	-0.35416543
3	0xbed85525	-0.4225246
4	0xbe84de46	-0.2595083
5	0xbe52b27e	-0.20575902
6	0xbe03ca1a	-0.12870064
7	0x3db09df3	0.086238764
8	0x3dabbc31	0.08385504
9	0xbe67915f	-0.22614048
10	0x3d9b53e2	0.07584359
11	0xbd995316	-0.074865505
12	0xbebbedf9	-0.36704996
13	0xbd2066bc	-0.039160475
14	0xbe950557	-0.29105636
15	0xbec2d860	-0.38055706
16	0xbcad89fb	-0.021183958
17	0x3cf176b1	0.029475542
18	0xbed1ecc5	-0.41000953
19	0x3e1a6507	0.15077601
20	0x3e01fa72	0.12693194
21	0xba25a93d	-0.0006319469
22	0xbd76d8e2	-0.06026543
23	0x3db099f2	0.08623113

weight f4 [24]
0	0x3e645d39	0.22301187
1	0x3dbbe508	0.091745436
2	0x3d5d6cde	0.054058902
3	0x3d8502e4	0.06494692
4	0x3c51195f	0.012762397
5	0x3d80e5fb	0.06293865
6	0x3e473b50	0.1945622
7	0x3df1a905	0.11799816
8	0x3dae89fc	0.08522412
9	0x3e1b4456	0.15162787
10	0x3e92508c	0.28577077
11	0x3e06c628	0.13161528
12	0x3e13d4e8	0.14436686
13	0x3df13806	0.11778264
14	0x3d74529d	0.0596491
15	0x3d78516a	0.060624518
16	0x3d4bacb3	0.049725246
17	0x3e83b8b2	0.2572685
18	0x3d4bfe3b	0.049803
19	0x3e15467f	0.14577673
20	0x3ea918c7	0.33026716
21	0x3e143557	0.14473473
22	0x3d099630	0.033590496
23	0x3e4efff5	0.20214827

weight f4 [24, 24, 3]
0	0xbeb66797	-0.35625908
1	0xbe71d608	-0.23616803
2	0xbed3cd91	-0.41367772
3	0xbd06d37b	-0.032916527
4	0xbec4bd6c	-0.38425767
5	0x3e2eada0	0.1705842
6	0x3e916076	0.28393906
7	0xbe31b3b5	-0.17353709
8	0x3d0ea897	0.03482875
9	0xbdbf206c	-0.09332356
10	0xbedb9546	-0.42887324
11	0x3e804f0c	0.25060308
12	0xbd99072b	-0.0747207
13	0x3e9e621a	0.3093422
14	0x3e57a310	0.21058297
15	0xbf1f09d0	-0.6212435
16	0xbee7b8be	-0.45258135
17	0xbf152083	-0.58252734
18	0x3e380cbb	0.17973606
19	0xbe828069	-0.25488594
20	0xbd6da220	-0.058015943
21	0x3e01a05f	0.12658833
22	0xbeaa3d90	-0.33250093
23	0xbf24f799	-0.64440304
24	0xbebf3dda	-0.37351876
25	0x3eac3667	0.33635256
26	0xbe52d477	-0.20588861
27	0x3e1b14ce	0.15144655
28	0x3d44aa6f	0.0480141
29	0xbdf6893b	-0.120378934
30	0x3e7bdfbc	0.24597067
31	0x3e31350c	0.17305392
32	0x3e9f8d90	0.3116269
33	0x3e9c23a8	0.30495954
34	0xbe74195f	-0.23837803
35	0xbe51b769	-0.20480122
36	0xbd014ebd	-0.03156923
37	0xbe07f89e	-0.13278434
38	0x3f33e94a	0.70277846
39	0xbebbe068	-0.36694646
40	0xbf015eb0	-0.50535107
41	0xbea992a3	-0.33119687
42	0x3e093da6	0.13402423
43	0xbf554c51	-0.83319575
44	0x3f051c3a	0.51996195
45	0xbf8aac49	-1.0833827
46	0x3eb99f4c	0.36254346
47	0xbe258137	-0.16162573
48	0x3e9db3b2	0.3080116
49	0xbdfa497a	-0.12221046
50	0xbdd6fb4a	-0.10497148
51	0xbee37c43	-0.44430742
52	0x3d85c896	0.06532399
53	0x3e03fb1b	0.12888758
54	0xbf884122	-1.0644877
55	0x3ee906bd	0.45512953
56	0x3e224937	0.15848242
57	0x3d61643f	0.055027243
58	0xbe8b4416	-0.27200383
59	0xbdb1ed17	-0.086877994
60	0x3d02e634	0.03195782
61	0xbf238559	-0.6387535
62	0x3da2becf	0.0794655
63	0x3f182ba5	0.59441596
64	0xbd5dc8bc	-0.054146513
65	0x3e988b96	0.29793996
66	0xbdd4d5ca	-0.103923395
67	0x3def42ac	0.116826385
68	0xbea3a6e9	-0.3196328
69	0x3d4dcdc2	0.050245054
70	0xbd658c4d	-0.056042004
71	0x3f0fe425	0.56207496
72	0x3d6fad82	0.05851508
73	0x3e8b7bdb	0.27242932
74	0x3f2794a2	0.6546117
75	0xbe37a4e3	-0.17933993
76	0xbda41346	-0.080114886
77	0x3e11369d	0.1418099
78	0xbdfb88d7	-0.122819595
79	0x3ddd7272	0.10812844
80	0x3e147d8a	0.14501014
81	0x3d4acef7	0.049513783
82	0xbd2cb5ba	-0.042165495
83	0xbea80451	-0.32815793
84	0x3e20d964	0.15707928
85	0xbcc3e1f6	-0.023911458
86	0xbefc3291	-0.4925733
87	0x3e6b1ae6	0.2295948
88	0x3e7cdf5d	0.24694581
89	0xbe36f0a3	-0.17865233
90	0x3e38bd97	0.18041073
91	0x3e1df4d9	0.15425433
92	0xbef19fbd	-0.47192183
93	0xbf3ca606	-0.7369083
94	0xbd93e36c	-0.07221112
95	0xbe4880a4	-0.19580323
96	0xba288ccd	-0.00064296724
97	0xbe1b196e	-0.1514642
98	0x3d625011	0.05525214
99	0xbf2578d5	-0.646375
100	0xbe0d9255	-0.13825352
101	0xbe1f33b8	-0.15547073
102	0x3db49420	0.08817315
103	0x3d82a21d	0.06378577
104	0x3c8997c8	0.016796008
105	0xbeb20a10	-0.34773302
106	0xbe2d90a3	-0.16949706
107	0xbe0ce99d	-0.13760991
108	0xbeb80e95	-0.35948625
109	0x3e186326	0.14881572
110	0x3f31d734	0.69469
111	0x3baeec2e	0.0053382134
112	0xbd82dc4d	-0.06389675
113	0x3e858e80	0.2608528
114	0x3db21aaf	0.08696496
115	0x3e5a4216	0.21314272
116	0x3ef42450	0.47683954
117	0xbea1ec96	-0.31625813
118	0x3e926473	0.28592262
119	0xbe3ade15	-0.1824878
120	0xbedd408f	-0.43213317
121	0xbe7467c5	-0.2386771
122	0xbe27c06e	-0.16382
123	0x3eca912d	0.39563885
124	0x3cdae70b	0.026721498
125	0x3b85e6cf	0.0040863524
126	0xbe52e8e5	-0.20596655
127	0xbf01e4d7	-0.50739807
128	0xbdeb8899	-0.11500663
129	0xbda727d5	-0.08161894
130	0x3e0572c3	0.1303206
131	0xbd401710	-0.046896994
132	0x3ec19028	0.37805295
133	0xbdaa5c2b	-0.08318361
134	0x3d18dad4	0.037318066
135	0xbdd9a86a	-0.106278256
136	0xbd6ae96f	-0.057351526
137	0xbf11ff4a	-0.57030165
138	0xbeb747ac	-0.3579687
139	0xbec5d90f	-0.38642165
140	0x3ea5a2fa	0.32350904
141	0xbeab9eba	-0.33519536
142	0x3d08cf77	0.03340098
143	0x3e3361ff	0.17517851
144	0x3e66ddf4	0.22545606
145	0xbefa514c	-0.4889015
146	0x3ec0876c	0.3760332
147	0xbe1f67c1	-0.15566923
148	0x3e3e7394	0.18598777
149	0x3e9a9eaf	0.3019919
150	0x3f11a52b	0.5689265
151	0x3dd61cbe	0.10454701
152	0xbef4a7f3	-0.47784385
153	0x3eacfc30	0.33786154
154	0xbe10f5e6	-0.14156303
155	0x3e2046cb	0.15652005
156	0x3e4afc44	0.19822794
157	0xbe897c7f	-0.26852795
158	0xbe9ac76a	-0.30230266
159	0xbdc64159	-0.09680433
160	0x3e33fe8e	0.17577574
161	0x3d78d5df	0.06075084
162	0x3ed7842f	0.42093036
163	0x3e3ec853	0.18631105
164	0x3e170541	0.14748098
165	0x3dc6a420	0.09699273
166	0x3ed638fc	0.4184035
167	0x3e49bd90	0.19701219
168	0xbeebe298	-0.46071315
169	0xbf0b35f0	-0.5437918
170	0xbe3f2989	-0.18668188
171	0x3eae7203	0.3407136
172	0xbc984049	-0.018585341
173	0xbf181130	-0.59401226
174	0x3e01a51c	0.1266064
175	0xbe461bf4	-0.19346601
176	0x3da25c01	0.079277046
177	0x3e7f8d71	0.249563
178	0xbeff6572	-0.49882084
179	0xbea9ab6f	-0.33138606
180	0xbd4058f3	-0.04695983
181	0xbf2239fc	-0.6336973
182	0x3e21f05d	0.15814348
183	0xbdd7a7b3	-0.10530033
184	0x3e8615ea	0.26188594
185	0xbe82622d	-0.25465527
186	0x3e63c457	0.22242866
187	0x3d84bf78	0.06481832
188	0xbf00cefa	-0.5031582
189	0x3e1b769c	0.15181965
190	0xbe868299	-0.26271513
191	0x3f095302	0.53642285
192	0xbebd21e3	-0.36939916
193	0xbdceca62	-0.10097195
194	0xbec2a3f6	-0.38015717
195	0x3e392c45	0.18083294
196	0x3e54ef27	0.20794354
197	0x3d8ed41b	0.0697405
198	0x3d8c4ff1	0.06851185
199	0xbcaa911d	-0.020821149
200	0x3f404317	0.7510237
201	0xbd83efff	-0.0644226
202	0x3e386b9c	0.180098
203	0xbe033fb3	-0.12817268
204	0xbd650147	-0.05590942
205	0x3eb436c0	0.3519802
206	0xbd4e62df	-0.05038726
207	0x3e2a1216	0.16608462
208	0xbe4a115a	-0.19733182
209	0xbeea27f8	-0.4573362
210	0x3f0bfc93	0.5468227
211	0xbf50bcdd	-0.8153818
212	0x3d2e90a4	0.04261841
213	0xbe330d47	-0.17485534
214	0x3e8ae17f	0.27125165
215	0xbe836f68	-0.25670934
216	0xbe92bcfa	-0.28659803
217	0x3cd19b63	0.02558679
218	0x3ee68802	0.4502564
219	0x3e21f352	0.15815476
220	0x3d564cab	0.05231921
221	0x3e2d06cb	0.16897123
222	0x3ee00ff9	0.43762186
223	0x3e1f4f26	0.15557536
224	0xbc59c61f	-0.013291865
225	0x3f5ea078	0.86963606
226	0xbd8ab4c8	-0.067727625
227	0xbeb09872	-0.34491307
228	0xbf06961c	-0.525728
229	0x3e8b476a	0.27202922
230	0xbdbffefd	-0.09374807
231	0xbde19bc8	-0.11016041
232	0xbe49375a	-0.19650021
233	0x3eea0a72	0.45711094
234	0xbce6b3bf	-0.028161881
235	0xbdd60722	-0.10450579
236	0xbf103f46	-0.5634655
237	0x3e9d810e	0.30762523
238	0x3ec9f28f	0.3944287
239	0x3dc26bdc	0.09493229
240	0xbe0d4ed1	-0.13799597
241	0xbb10945d	-0.0022061088
242	0x3e74a97c	0.23892778
243	0xbe4b696a	-0.19864431
244	0xbef20a38	-0.4727342
245	0xbf203ece	-0.6259583
246	0x3eef7810	0.46771288
247	0xbed216b4	-0.41032946
248	0x3e6910e9	0.22760357
249	0xbeb67faa	-0.35644275
250	0x3ccf29e7	0.025288535
251	0x3e1ff9ad	0.15622588
252	0x3dd939a2	0.10606696
253	0xbe1e8179	-0.15479077
254	0x3da20767	0.07911568
255	0xbf0367b5	-0.5133012

bias f4 [24]
0	0xbf1eab00	-0.61979675
1	0xbe27c422	-0.16383412
2	0xbebe2b0c	-0.37142217
3	0xbf0ce788	-0.5504079
4	0xbec78938	-0.38971877
5	0xbf1f3ad6	-0.6219915
6	0xbf03af30	-0.5143919
7	0xbeca9067	-0.39563295
8	0xbe885ac8	-0.2663176
9	0xbf29a926	-0.66273725
10	0xbeaa83a7	-0.33303568
11	0xbf2c6abc	-0.67350364
12	0xbe9aef98	-0.3026092
13	0xbf1b4fbb	-0.60668534
14	0xbf1b5e65	-0.6069091
15	0xbe8a8069	-0.27051094
16	0xbf09d309	-0.5383764
17	0xbf327f46	-0.69725454
18	0xbecda52c	-0.4016508
19	0xbeaf3a27	-0.34224054
20	0xbf179a48	-0.5921979
21	0xbf1a9a5a	-0.6039177
22	0xbe0c8d62	-0.13725808
23	0xbef493c2	-0.4776898

weight f4 [24]
0	0x3cc7c163	0.024384206
1	0x3e931f5a	0.28734857
2	0x3e00ee52	0.12590912
3	0x3d939739	0.07206578
4	0x3e35e401	0.17762758
5	0x3d518c91	0.051159445
6	0x3da572a5	0.08078507
7	0x3d8f1662	0.06986691
8	0x3dedf434	0.11618844
9	0x3d68fbe0	0.05688083
10	0x3e59ba5c	0.21262497
11	0x3c9455a0	0.018107235
12	0x3d0f5047	0.034988668
13	0x3d0e9687	0.034811523
14	0x3cfc2a2d	0.03078183
15	0x3d624d80	0.05524969
16	0x3b9b23d2	0.0047344947
17	0x3c54f13e	0.01299697
18	0x3c8ef9f3	0.01745317
19	0x3d8302fa	0.06397052
20	0x3d243403	0.040088665
21	0x3d0f06b2	0.034918495
22	0x3e058a73	0.13041095
23	0x3db2e803	0.08735659

weight f4 [24, 24, 3]
0	0xbe6f3f64	-0.23364025
1	0x3d2167f7	0.03940579
2	0x3daa1ae8	0.08305913
3	0xbdf1215b	-0.1177394
4	0x3da56e94	0.08077732
5	0xbe47b284	-0.19501692
6	0xbe1a45f8	-0.15065753
7	0x3ea8ce96	0.32970113
8	0x3d814093	0.06311145
9	0x3cd7d0af	0.026344625
10	0x3e026859	0.12735118
11	0x3e1ff050	0.15619016
12	0x3e4eb771	0.20187165
13	0xbdefefa9	-0.117156334
14	0xbd910827	-0.07081633
15	0xbdc37611	-0.09544004
16	0xbde93338	-0.11386722
17	0x3e0b42e7	0.1359974
18	0xbd6b302c	-0.057418987
19	0x3db735e1	0.089458235
20	0xbcedee40	-0.02904427
21	0x3d8ebc1a	0.06969471
22	0xbe80e16f	-0.25171992
23	0x3e08e537	0.13368689
24	0xbd97515e	-0.073885664
25	0xbda43bf7	-0.0801925
26	0x3d34826c	0.044069692
27	0x3d68c0c7	0.05682447
28	0xbdbbcf06	-0.09170346
29	0xbe1169be	-0.14200494
30	0xbdb95c30	-0.090507865
31	0xbe5f57b1	-0.21810795
32	0xbca04a7d	-0.019566769
33	0xbe7a94d9	-0.24470843
34	0xbe4d52bc	-0.20051092
35	0x3eaf7f07	0.34276602
36	0x3dab16ef	0.083539836
37	0x3dd23167	0.10263329
38	0xbd80261d	-0.062572695
39	0x3e76275d	0.24038453
40	0x3e423622	0.18965963
41	0x3c99ae72	0.01875994
42	0x3b25f2e4	0.0025321776
43	0xbc94fbe2	-0.018186513
44	0x3dd831f7	0.10556405
45	0x3c99c04a	0.018768448
46	0xbe6adc3f	-0.2293558
47	0x3dad8337	0.08472293
48	0x3d0cee27	0.034406807
49	0x3cbbc0eb	0.022919139
50	0xbe0830c0	-0.13299847
51	0x3bb03bf6	0.0053782417
52	0x3deb21f1	0.11481083
53	0xbcb38a4d	-0.021916533
54	0x3d3d2287	0.046175506
55	0x3e06b0d3	0.1315339
56	0x3e9d08f9	0.30670908
57	0xbea8fd5a	-0.33005792
58	0xbea19f1e	-0.3156671
59	0x3d31415c	0.043275222
60	0x3ca0c174	0.019623496
61	0x3cadd1c2	0.021218184
62	0xbcad3962	-0.021145526
63	0x3e78d2a0	0.24299097
64	0xbe36acad	-0.17839308
65	0xbd53046e	-0.051517896
66	0xbde37a6d	-0.11107335
67	0xbc5978da	-0.013273442
68	0x3d7dd6d1	0.061972443
69	0xbd919ced	-0.07110009
70	0xbe48ce52	-0.19609955
71	0x3e4c37cd	0.19943161
72	0x3c3f13ca	0.011662433
73	0xbe378833	-0.1792305
74	0xbedca43b	-0.43094048
75	0x3f0a1850	0.5394335
76	0xbe9efedb	-0.31053814
77	0xbe84684e	-0.25860828
78	0xbe79379e	-0.24337623
79	0xbeeaa0a6	-0.4582569
80	0x3e4ae98c	0.19815654
81	0x3d8cf060	0.068817854
82	0xbea922ce	-0.33034366
83	0x3e817759	0.25286368
84	0xbeee938b	-0.4659694
85	0xbe963ae0	-0.29341793
86	0x3d6cc389	0.057803664
87	0xbdf973d9	-0.12180299
88	0x3e21912f	0.1577804
89	0xbe80eae9	-0.25179222
90	0xbec524d1	-0.3850465
91	0xbe5fa2ea	-0.2183949
92	0x3daba8ef	0.08381831
93	0xbe62a299	-0.22132339
94	0xbec1ea48	-0.37874055
95	0xbf215f0e	-0.63035667
96	0x3cc17e7b	0.02361988
97	0x3d06a736	0.03287431
98	0x3e0202a0	0.12696314
99	0x3e965f70	0.29369688
100	0x3db0ea45	0.08638433
101	0xbe8b7978	-0.2724111
102	0x3cc12f1d	0.023582036
103	0x3d246712	0.040137358
104	0xbd5720f0	-0.052521646
105	0x3cc28e93	0.023749625
106	0xbeb13f76	-0.3461873
107	0xbe84a927	-0.25910303
108	0xbe3f2b61	-0.18668891
109	0xbd205a6b	-0.03914873
110	0x3e83d768	0.2575028
111	0xbe0eb686	-0.13936815
112	0x3e4644d4	0.19362193
113	0xbe8ccedb	-0.27501568
114	0x3ede9819	0.43475416
115	0xbe2abd01	-0.16673662
116	0xbe933f5c	-0.28759277
117	0xbec9fa7b	-0.39448914
118	0x3d848b12	0.06471838
119	0xbf027d96	-0.5097288
120	0xbe191b73	-0.14951877
121	0xbe097031	-0.13421704
122	0xbf39cd33	-0.72578734
123	0x3e967240	0.2938404
124	0x3e917e62	0.28416735
125	0x3b71299e	0.0036798487
126	0x3eb65ee8	0.35619283
127	0x3e1a5db9	0.15074815
128	0xbd50b6a3	-0.050955426
129	0xbe904507	-0.28177664
130	0xbdf87774	-0.12132159
131	0xbd444374	-0.04791589
132	0xbe49131c	-0.19636196
133	0x3df94051	0.121704705
134	0x3e843940	0.25824928
135	0x3e8c7739	0.2743471
136	0xbe710323	-0.23536353
137	0x3d8698ed	0.06572137
138	0x3e47c6b5	0.19509394
139	0x3e801207	0.25013754
140	0xbe2d80d2	-0.16943672
141	0xbf25e126	-0.64796674
142	0x3e4885be	0.19582269
143	0x3d3f75b2	0.046743102
144	0x3d4ecda4	0.050489083
145	0xbd58be4a	-0.05291585
146	0xbed03c91	-0.40671209
147	0xbd975046	-0.07388358
148	0xbcb40658	-0.021975681
149	0xbeb3f73d	-0.35149565
150	0x3eee7eba	0.4658106
151	0xbe37e9c1	-0.17960264
152	0xbec0d10d	-0.37659493
153	0xbf1fbcc9	-0.6239744
154	0xbebf443a	-0.3735674
155	0xbe98bdfc	-0.29832447
156	0x3e7ee637	0.24892507
157	0xbe19d203	-0.1502152
158	0xbf3b337f	-0.7312545
159	0x3d260945	0.040536184
160	0xbee7393e	-0.4516086
161	0x3e165c43	0.14683633
162	0xbe779ab8	-0.24180114
163	0x3d2d5531	0.042317573
164	0xbd7c3ad7	-0.06157955
165	0x3bf7458f	0.007546134
166	0x3d354e49	0.04426411
167	0x3df5f67c	0.12009904
168	0xbe213f93	-0.15746908
169	0xbeb39d99	-0.35081175
170	0x3dc9037a	0.09815116
171	0xbdd15856	-0.10221927
172	0xbbb44a33	-0.0055020093
173	0x3ea9858e	0.33109707
174	0xbe0f0bcc	-0.13969344
175	0x3e2afa02	0.16696933
176	0x3e8009bb	0.25007424
177	0xbf392b2a	-0.7233149
178	0xbe658f2a	-0.22417894
179	0xbea842e1	-0.32863525
180	0x3c0a0de9	0.008426168
181	0xbe99eeb7	-0.30064937
182	0x3c821721	0.01588017
183	0x3e25b218	0.16181219
184	0x3e341f49	0.1759006
185	0xbeffb693	-0.4994398
186	0x3f0f4e10	0.5597849
187	0x3e78e0e6	0.24304542
188	0x3e09adfb	0.13445275
189	0x3d397533	0.045277786
190	0x3ed499ad	0.41523495
191	0xbf291b73	-0.6605751
192	0x3f05e8fb	0.52308625
193	0xbd9fcf4f	-0.07803213
194	0xbd4db083	-0.050217163
195	0x3a725cd0	0.00092453975
196	0xbe7bc9d5	-0.24588712
197	0x3efc17c5	0.49236885
198	0x3e921782	0.2853356
199	0x3d48500e	0.04890447
200	0xbe26211a	-0.16223565
201	0x3ea05a08	0.31318688
202	0x3ed9b84b	0.42523417
203	0x3e8caa25	0.2747356
204	0xbf0bfebd	-0.54685575
205	0xbdcbcda3	-0.099513315
206	0x3da3d7a8	0.080001175
207	0x3e4c9ad6	0.1998094
208	0xbe82778a	-0.25481826
209	0xbea86f45	-0.32897392
210	0xbf0ca7f8	-0.549438
211	0x3e921c90	0.28537416
212	0xbeed8c37	-0.46396038
213	0x3cf6a430	0.030107588
214	0xbeba3402	-0.36367804
215	0xbe6792ee	-0.22614643
216	0xbe010c25	-0.12602289
217	0x3e3517c6	0.1768485
218	0x3df8395a	0.12120314
219	0xbeed2a91	-0.46321538
220	0xbe2f30e3	-0.17108493
221	0xbe153bff	-0.14573668
222	0xbde8521d	-0.11343787
223	0xbe2f8f22	-0.17144445
224	0xbec5ad4d	-0.3860878
225	0x3e1ad3c3	0.15119843
226	0xbe0791ab	-0.13239162
227	0xbf149132	-0.5803405
228	0x3e7184e3	0.23585849
229	0x3dc88b7c	0.097922295
230	0x3e18dad2	0.14927223
231	0xbef826ce	-0.48467106
232	0x3f1033f1	0.56329256
233	0xbeed3cb4	-0.46335375
234	0xbecd7a59	-0.40132406
235	0xbe95933f	-0.29213902
236	0x3e462d71	0.19353272
237	0xbc86b2cf	-0.016442684
238	0x3e23b4f9	0.15987004
239	0x3e39bebb	0.18139164
240	0xbe7ba5a7	-0.2457491
241	0x3e360d88	0.177786
242	0x3dadca1c	0.08485815
243	0xbf3ec446	-0.7451824
244	0x3edd8df5	0.43272367
245	0x3e26e88e	0.1629965
246	0xbf67b97e	-0.90517414
247	0x3d8ecf81	0.06973172
248	0x3e47ff76	0.19531044
249	0xbeceb924	-0.40375626
250	0x3c78b3d7	0.015179596
251	0xbdc56471	-0.09638298
252	0xbd90df17	-0.07073801
253	0x3ecf2a3b	0.40461907
254	0xbdf0b1eb	-0.11752685
255	0x3eaf2150	0.34205103

bias f4 [24]
0	0xbd7a2961	-0.06107462
1	0xbe0e33fb	-0.13887016
2	0xbe86bc25	-0.26315418
3	0xbe89809e	-0.2685594
4	0xbe0bacac	-0.13640088
5	0xbe90f60f	-0.28312728
6	0x3e0eaa47	0.13932143
7	0xbdfc81e9	-0.12329466
8	0xbc774b52	-0.015093641
9	0xbd8de82e	-0.069290504
10	0xbd04cf5e	-0.032424323
11	0x3dd374ee	0.10325037
12	0xbe8abd85	-0.27097717
13	0xb8de9b43	-0.00010614705
14	0xbd45c2a9	-0.048281346
15	0xbe00a533	-0.12563019
16	0xbe95ecc9	-0.29282215
17	0xbc38fdb6	-0.011290958
18	0xbeac8133	-0.3369232
19	0xbdcfcdd8	-0.101466835
20	0xbee6c6c2	-0.45073515
21	0xbe8ca758	-0.27471423
22	0x3cbf02bb	0.023316732
23	0x3e822a72	0.25423008

weight f4 [24]
0	0x3ddd05c9	0.10792119
1	0x3e085d3a	0.13316813
2	0x3c327b84	0.010893706
3	0x3db758d8	0.089524925
4	0x3d7da5d7	0.061925735
5	0x3dc84960	0.0977962
6	0x3e1b5d7f	0.15172385
7	0x3e18c2a4	0.14918
8	0x3e855a70	0.2604556
9	0x3e3ebc0b	0.1862642
10	0x3dc5406e	0.096314296
11	0x3ea76794	0.3269621
12	0x3e10d395	0.14143212
13	0x3dd7bf38	0.10534519
14	0x3df97bf8	0.12181848
15	0x3e0345f1	0.1281965
16	0x3ddb38d1	0.10704196
17	0x3e57119d	0.21002813
18	0x3d0105ca	0.03149966
19	0x3d474791	0.048652235
20	0x3e03ded6	0.12877974
21	0x3e561363	0.20905833
22	0x3dbac533	0.09119644
23	0x3e204de5	0.15654714

weight f4 [24, 24, 3]
0	0xbdcd9186	-0.10037522
1	0x3d5dc3ea	0.054141916
2	0xbe44a79a	-0.1920456
3	0xbf209086	-0.62720525
4	0xbc4b4ae9	-0.012407997
5	0x3d0193c7	0.031635072
6	0x3e8c30a4	0.2738086
7	0xbe0dcd18	-0.13847768
8	0x3e26957c	0.16267961
9	0x3dbef5af	0.09324204
10	0xbd7c4a39	-0.06159422
11	0x3ea4fb65	0.3222305
12	0xbebc2e44	-0.36754048
13	0xbd65160d	-0.055929232
14	0x3f0a9238	0.5412936
15	0xbe21a2a6	-0.15784702
16	0x3dac064b	0.08399638
17	0x3e62f191	0.22162463
18	0xbcbf3fcf	-0.023345856
19	0xbdedd4f8	-0.11612886
20	0x3f0bd033	0.5461456
21	0x3ee12bce	0.43978733
22	0xbe2b7f87	-0.16747867
23	0x3e3df397	0.18549953
24	0xbe8bca61	-0.2730284
25	0x3e2cfcca	0.16893306
26	0x3e96ec7e	0.29477304
27	0x3e66b83a	0.22531214
28	0xbdd98a32	-0.10622062
29	0xbdc002a6	-0.09375505
30	0x3c8a2478	0.016863093
31	0xbd78a329	-0.060702477
32	0x3e858086	0.26074618
33	0x3db8ce65	0.09023742
34	0x3ddaf3a3	0.10691001
35	0x3e38301a	0.179871
36	0xbf294480	-0.6612015
37	0x3eee0d4d	0.46494523
38	0xbec3b300	-0.38222504
39	0xbe6abdb3	-0.22923927
40	0xbce6142a	-0.028085787
41	0x3dd47a2a	0.103748634
42	0x3c8e677e	0.017383333
43	0xbd8ab204	-0.06772235
44	0x3ec14749	0.377497
45	0xbeafb6af	-0.34319064
46	0x3b2a7f07	0.0026015656
47	0x3eeabd7b	0.45847687
48	0xbec08cec	-0.37607515
49	0x3e99575c	0.29949462
50	0xbd45f040	-0.048324823
51	0xbf4f029c	-0.80863357
52	0x3c989b1c	0.01862865
53	0xbcecdb45	-0.02891315
54	0x3d37d4f8	0.044880837
55	0x3e1ecfcb	0.15508954
56	0xbd4700c7	-0.048584726
57	0x3ccee82b	0.02525719
58	0x3d8bcef7	0.06826585
59	0x3d0d304a	0.03446988
60	0xbeb64f53	-0.35607395
61	0xbe200158	-0.15625513
62	0x3e2c7b91	0.16844012
63	0x3eccaa11	0.399735
64	0xbddd416c	-0.10803494
65	0x3d205f9b	0.039153676
66	0x3e235515	0.15950425
67	0xbeee36d5	-0.4652621
68	0xbf0b942f	-0.54522985
69	0xbe361639	-0.17781915
70	0x3e233504	0.15938193
71	0x3ee1afad	0.44079342
72	0x3ecd7eca	0.40135795
73	0xbd6a8a1e	-0.057260625
74	0x3dc12ac7	0.09431987
75	0x3e49f192	0.19721058
76	0x3e700a1a	0.23441353
77	0xbcb183c2	-0.021669272
78	0xbc25fd15	-0.01013114
79	0x3eab247d	0.33426276
80	0x3e087bd5	0.13328488
81	0xbec00064	-0.37500298
82	0xbd67179b	-0.056418996
83	0xbd40e93b	-0.047097426
84	0xbe610525	-0.21974619
85	0xbd97b249	-0.07407052
86	0xbd5dfed5	-0.054198105
87	0x3e759107	0.23981105
88	0xbee7211d	-0.4514245
89	0xbe3d63b6	-0.18495068
90	0x3f0e9acb	0.55704945
91	0xbd8eed82	-0.06978895
92	0xbdfe7333	-0.12424316
93	0x3e23d36c	0.1599862
94	0x3e9541b9	0.29151705
95	0xbeaa0fc8	-0.33215165
96	0x3f0a747d	0.54083997
97	0x3e142670	0.14467788
98	0xbe00c95c	-0.12576813
99	0xbf10f4e9	-0.56623703
100	0x3e5e0fba	0.21685687
101	0x3e0761c2	0.13220885
102	0x3ed495ce	0.41520542
103	0x3e916f0d	0.28405038
104	0x3e16a4cf	0.14711307
105	0xbefac4ca	-0.48978263
106	0xbcbc4074	-0.022979952
107	0x3e9d3815	0.3070685
108	0x3ea35c55	0.3190638
109	0xbe0a9fc0	-0.13537502
110	0x3e47c975	0.19510444
111	0xbcf53aea	-0.029935319
112	0x3d78f1f1	0.06077761
113	0xbe366b4c	-0.17814368
114	0x3ec26bd5	0.37972894
115	0xbe07bd17	-0.13255726
116	0xbe150794	-0.14553672
117	0x3e6a8ec4	0.22906023
118	0xbf52067f	-0.8204116
119	0x3ee97322	0.45595652
120	0x3ee7dcbe	0.452856
121	0x3e07c46a	0.1325852
122	0xbf300a16	-0.6876539
123	0x3d583c69	0.052791987
124	0x3e448dd9	0.19194736
125	0xbf1a027b	-0.60160035
126	0xbe2bfff4	-0.16796857
127	0x3ec20cc6	0.3790037
128	0x3f0f236d	0.5591343
129	0xbe22c201	-0.15894319
130	0x3e858cd1	0.26083997
131	0xbdd4846d	-0.10376821
132	0xbd829be1	-0.06377388
133	0x3ec83ef6	0.39110535
134	0xbe826e59	-0.25474814
135	0xbe8659af	-0.26240298
136	0x3d2cb1bb	0.042161684
137	0xbdbc4981	-0.09193707
138	0x3e1efad2	0.15525368
139	0xbe07b9ae	-0.13254425
140	0xbf13f38a	-0.57793486
141	0x3db717a8	0.08940059
142	0xbe39bb72	-0.18137911
143	0xbecc575f	-0.3991041
144	0x3ed3827d	0.41310492
145	0x3ed20158	0.4101665
146	0xbde91437	-0.11380809
147	0xbedaa9e9	-0.42707756
148	0xbe0f9b92	-0.14024189
149	0x3e1607e2	0.14651445
150	0x3e512d42	0.2042742
151	0xbe2f6917	-0.17129932
152	0xbf5517be	-0.8323935
153	0xbd49edab	-0.049298923
154	0x3e74617f	0.23865317
155	0xbe8f2d60	-0.27964306
156	0x3e35495e	0.17703769
157	0xbe7f4704	-0.24929434
158	0x3e68af7a	0.22723189
159	0xbe0874a9	-0.13325752
160	0x3e665220	0.22492266
161	0xbe46a070	-0.1939714
162	0xbf3d2738	-0.7388797
163	0x3de60b20	0.11232591
164	0x3e90a7d4	0.28253043
165	0xbe11912b	-0.14215533
166	0xbe42d943	-0.19028191
167	0x3e44cc73	0.19218616
168	0x3d28f992	0.041253634
169	0xbdbbeade	-0.09175657
170	0x3e8882df	0.26662347
171	0xbe1443b7	-0.14478956
172	0xbe388147	-0.18018065
173	0xbe3f8e36	-0.18706593
174	0xbe3b2c70	-0.1827867
175	0x3dce58c0	0.100755215
176	0xbf677e83	-0.90427417
177	0x3d8b7f87	0.06811433
178	0xbd9bbe77	-0.07604688
179	0x3e9f20bb	0.3107966
180	0xbe256dd7	-0.16155182
181	0x3ed55662	0.41667467
182	0x3ef8da61	0.4860411
183	0xbf2bdc87	-0.67133373
184	0x3c78b40b	0.015179644
185	0xbcd286c9	-0.025699036
186	0x3df2c72f	0.118543975
187	0xbda05385	-0.0782843
188	0x3d2ec2a3	0.04266609
189	0xbe0d3ffa	-0.13793936
190	0x3e8100a9	0.25195816
191	0x3e7519a7	0.23935567
192	0x3ebba34d	0.36648026
193	0x3cce4b8b	0.025182506
194	0x3e43230f	0.19056343
195	0xbe32da73	-0.17466144
196	0xbd303be3	-0.043025862
197	0xbe53f433	-0.20698623
198	0x3d8ae50a	0.06781967
199	0xbeac4d3d	-0.33652678
200	0x3c87b495	0.0165656
201	0x3ced2331	0.028947445
202	0xbd0eaa21	-0.034830216
203	0xbec030bd	-0.37537184
204	0xbec0cc4a	-0.3765586
205	0x3e5dcf1f	0.21661042
206	0xbe3651ee	-0.17804691
207	0xbd39f525	-0.045399804
208	0xbebe4162	-0.37159258
209	0x3cb36744	0.021899827
210	0x3f299189	0.66237694
211	0xbdba7a0e	-0.09105311
212	0xbe9859fb	-0.2975615
213	0x3edcc1eb	0.43116698
214	0x3d1f5395	0.03889807
215	0x3e17dad2	0.14829567
216	0xbea13bff	-0.31491086
217	0xbecaaf67	-0.39586946
218	0x3eb5220a	0.35377532
219	0xbe07f47d	-0.13276859
220	0x3e15fbb7	0.14646803
221	0x3e0215cc	0.12703627
222	0x3ee47e07	0.446274
223	0xbe894250	-0.26808405
224	0x3e718862	0.23587182
225	0x3ecfc4bf	0.40579793
226	0xbded065d	-0.11573479
227	0x3dbaef1d	0.091276385
228	0xbe970e6a	-0.29503185
229	0x3e8c2c8e	0.27377743
230	0x3d55a583	0.052159797
231	0x3e3f7f83	0.18700986
232	0xbd25c869	-0.04047433
233	0x3e34a502	0.1764107
234	0x3d257bba	0.040401198
235	0x3e870b9d	0.26376048
236	0x3f119069	0.5686098
237	0xbe4bbd81	-0.19896509
238	0xbe726c37	-0.23674093
239	0x3e8e310b	0.27771792
240	0xbef3a435	-0.47586218
241	0x3e833c19	0.25631788
242	0x3e03ca95	0.12870248
243	0xbd418c9e	-0.047253244
244	0x3b5da083	0.0033817596
245	0x3e2a8748	0.16653168
246	0x3dc3af50	0.095549226
247	0x3da80444	0.082039386
248	0xbe4be9e8	-0.19913447
249	0xbe58b497	-0.2116264
250	0x3eba48d2	0.36383682
251	0x3d9f4c28	0.077781975
252	0x3ec4e5f5	0.38456693
253	0xbdec6337	-0.11542361
254	0x3d62250f	0.055211123
255	0xbf7a3334	-0.9773438

bias f4 [24]
0	0xbeb9b661	-0.36271957
1	0xbf3c99aa	-0.7367197
2	0xbea84d42	-0.32871443
3	0xbe8abe5e	-0.27098364
4	0xbe9deb42	-0.3084355
5	0xbeafc0df	-0.34326836
6	0xbeb4cab6	-0.35310906
7	0xbea8bdf5	-0.32957426
8	0xbf19fbbd	-0.6014975
9	0xbe96102a	-0.29309207
10	0xbef85b58	-0.4850719
11	0xbf187ace	-0.59562385
12	0xbf3f8f07	-0.7482762
13	0xbf3b982e	-0.7327908
14	0xbec80ed7	-0.39073822
15	0xbec63ff4	-0.38720667
16	0xbf43784c	-0.76355433
17	0xbf1e7722	-0.6190053
18	0xbf13815d	-0.5761927
19	0xbf385403	-0.7200319
20	0xbeeb1a8b	-0.45918688
21	0xbe98e04f	-0.29858634
22	0xbe8ec739	-0.2788637
23	0xbf3016c4	-0.6878474

weight f4 [24]
0	0x3e7734c1	0.24141218
1	0x3d83a6df	0.064283125
2	0x3e339c3b	0.17540066
3	0x3d73de79	0.05953834
4	0x3e1f6694	0.15566474
5	0x3e031bcf	0.12803577
6	0x3db54091	0.08850206
7	0x3d6311f6	0.05543705
8	0x3c0c782a	0.008573571
9	0x3de5059f	0.11182713
10	0x3d80c238	0.06287044
11	0x3d0eb6d2	0.03484232
12	0x3d81d0c0	0.06338644
13	0xbb985866	-0.00464921
14	0x3d20cc7a	0.039257504
15	0x3e41cd5a	0.18925992
16	0x3d04f035	0.03245564
17	0x3c4284cf	0.011872484
18	0x3cc5929e	0.024117764
19	0x3d18e437	0.037327018
20	0x3de08424	0.10962704
21	0x3df722cd	0.120671846
22	0x3d7655a3	0.060140263
23	0x3d1fb601	0.03899193
