models/resnet-uncloss-dropblock-simpleblock-ss3_ss4_buried.pth (torch_old, 121640 bytes, 90 tensors)

weight f4 [24, 22, 1]
0.96406215 -0.11126387 0.1305291 0.03981039 -0.08085522 0.14050353 -0.16919586 0.14892653
-0.015159041 0.10559894 -0.14142494 0.13669854 0.14821026 -0.16434817 0.020858416 0.07568435
0.046699356 -0.28439733 -0.061370194 0.13663246 0.3059568 1.2697861 -58.735466 -0.22801836
-0.13494264 -0.51191956 -0.3373534 0.3574944 -1.421695 0.10680263 0.5047948 -0.12986511
0.20644674 0.2845985 -0.42444953 -1.2857678 -0.2030876 0.16217336 -0.23361853 0.19357592
0.33495998 0.6863985 0.30501258 -3.3230717 -1.5962433 0.097931966 -0.2928896 -0.121625595
-0.20401154 0.068377964 0.34935465 0.17197588 -0.0067339917 -0.18013982 -0.020967852 -0.11396475
0.3061621 -2.7321296 -0.32043782 0.03942238 -0.27746394 -0.011678222 -0.05254636 -0.30683288
0.24277063 0.46351984 -0.514332 -0.11089572 -0.30002218 0.076176845 -0.25012812 -0.0688577
0.09981737 0.36796805 -0.0238735 0.025488438 0.08642947 -0.08550764 -0.106326 -0.04935833
-0.045672886 0.055266406 0.06292246 -0.09848351 0.03968067 -0.29165494 -0.07227234 0.037784997
-3.8647735 -0.028949663 0.115435466 -0.005252958 0.07247363 -0.018184243 -0.010389014 -0.17042314
-0.1434407 -0.0409139 0.068898186 -0.21403804 0.07904052 0.22627738 -0.10624171 0.09748384
-0.21834666 0.18572403 -0.01105244 0.21119384 -0.0435391 -1.8665276 -1.2315873 -0.40020552
0.24973102 -0.22912526 -0.21225622 0.17178282 0.32081828 -0.038014777 -0.18736781 -0.15763886
-0.22644362 -0.30446038 -0.08069003 -0.16375548 0.03475717 -0.04505327 0.5072708 0.4770835
0.15847199 0.15320852 0.09488418 1.0650067 5.1049294 -0.47015896 0.09403892 -0.4211829
-0.9741168 0.076932184 0.36035785 -0.14771357 -0.18236938 -0.2596967 -0.28681096 -0.34892565
-0.038665704 2.1092021 -0.49522284 -0.47633877 0.2397169 0.32123816 0.28616142 -0.9508297
-0.24849588 -0.5327898 -0.5570419 -0.07870499 -0.81912833 0.34533504 0.38905302 0.16473907
-0.055709716 0.32183504 -0.11045268 -0.29209203 -0.010148623 0.112992615 -0.29067686 0.543304
-0.04014587 -0.39652005 -0.13785666 -0.08940652 -0.26251277 0.82542914 0.18612546 3.4254935
-3.2538824 0.086746335 -0.4298998 0.3224388 0.12360368 0.36719632 -1.6812125 -0.40686047
-0.009564388 0.38585865 -0.50215405 -0.13689566 0.038590305 -0.9154511 0.15310216 -0.28457645
0.32915676 0.17548975 0.4605286 -1.562736 -0.20005748 -10.721498 -1.7321509 -0.25436628
0.18105382 0.5037347 0.1655068 -0.40334082 0.36419162 -0.44068047 0.20315623 0.1023502
-0.3615333 -0.2338992 -0.0066904174 -0.12088374 -0.00871885 0.10765148 -0.3847741 -0.20608537
0.32348567 -0.0060071237 -0.3811668 2.646284 0.85472137 0.25050306 -0.5142028 -0.69401383
-0.4280254 -0.12898761 -0.47307208 0.0284282 0.11086719 0.232705 0.17347492 0.3598237
-0.009919326 -0.70324785 -0.21636802 0.3353091 0.12718199 -0.015637124 -0.14786956 0.061908286
-0.013722604 1.4622729 -2.8632667 0.45265406 -0.066630214 0.0916733 0.29170772 -0.22867227
-0.7459358 -0.44840434 0.23803739 -0.19068485 0.43127438 0.25304803 -0.48150152 -1.6401551
00000000: c7cc 763f 50de e3bd 6ca9 053e 3810 233d
00000010: 6c97 a5bd 28e0 0f3e ae41 2dbe 3280 183e
00000020: a05d 78bc 4244 d83d b3d1 10be b4fa 0b3e
00000030: 6ec4 173e e34a 28be 45df aa3c 6600 9b3d
00000040: d347 3f3d 879c 91be 505f 7bbd 61e9 0b3e
00000050: 5fa6 9c3e 5a88 a23f 1ef1 6ac2 a57d 69be
00000060: 672e 0abe 290d 03bf 96b9 acbe 8209 b73e
00000070: 1afa b5bf 56bb da3d 3b3a 013f 5cfb 04be
00000080: c666 533e e5b6 913e 7351 d9be 0a94 a4bf
00000090: 32f6 4fbe c610 263e b239 6fbe c438 463e
000000a0: e07f ab3e d0b7 2f3f 9c2a 9c3e 35ad 54c0
000000b0: b351 ccbf 8e90 c83d a0f5 95be d716 f9bd
000000c0: 67e8 50be bf09 8c3d 9dde b23e 721a 303e
000000d0: d1a8 dcbb 9376 38be c6c4 abbc 5a66 e9bd
000000e0: 47c1 9c3e 36db 2ec0 6d10 a4be 5d79 213d
000000f0: c10f 8ebe 0356 3fbc da3a 57bd 3319 9dbe
00000100: dd98 783e 7952 ed3e 43ab 03bf 4c1d e3bd
00000110: 829c 99be 9b02 9c3d cb10 80be 4405 8dbd
00000120: 0d6d cc3d 4f66 bc3e 5c92 c3bc 21cd d03c
00000130: ef01 b13d a11e afbd 72c1 d9bd f62b 4abd
00000140: 7e13 3bbd 075f 623d 7edd 803d b9b1 c9bd
00000150: 3388 223d cc53 95be 8503 94bd 71c4 1a3d
00000160: 7358 77c0 d827 edbc 6e69 ec3d 0121 acbb
00000170: 0e6d 943d 1ff7 94bc af36 2abc 6783 2ebe
00000180: 1ee2 12be 5595 27bd 7e1a 8d3d ca2c 5bbe
00000190: ffdf a13d 42b5 673e 4195 d9bd 9ca5 c73d
000001a0: 4496 5fbe 712e 3e3e 4b15 35bc 3343 583e
000001b0: 0e56 32bd 60ea eebf a7a4 9dbf bde7 ccbe
000001c0: 7db9 7f3e d09f 6abe b259 59be d6e7 2f3e
000001d0: 4b42 a43e 62b5 1bbd 59dd 3fbe 156c 21be
000001e0: d6e0 67be 3be2 9bbe d040 a5bd 84af 27be
000001f0: 895d 0e3d c789 38bd 80dc 013f 4a44 f43e
00000200: 7b46 223e b2e2 1c3e a352 c23d 2452 883f
00000210: 955b a340 adb8 f0be 7a97 c03d 49a5 d7be
00000220: b85f 79bf 9f8e 9d3d d380 b83e 3a42 17be
00000230: 0abf 3abe f7f6 84be e3d8 92be 62a6 b2be
00000240: ee5f 1ebd 2bfd 0640 d98d fdbe ade2 f3be
00000250: 5978 753e 5479 a43e c083 923e 9369 73bf
00000260: b475 7ebe ea64 08bf 4c9a 0ebf 1530 a1bd
00000270: 65b2 51bf c1cf b03e f531 c73e 5cb1 283e
00000280: df2f 64bd 90c7 a43e 0435 e2bd 168d 95be
00000290: 6946 26bc ac68 e73d 99d3 94be f915 0b3f
000002a0: ff6f 24bd ad04 cbbe 4c2a 0dbe c41a b7bd
000002b0: 1368 86be 534f 533f ac97 3e3e 493b 5b40
000002c0: 9c3f 50c0 10a8 b13d d41b dcbe b316 a53e
000002d0: ed23 fd3d 2801 bc3e f931 d7bf 0450 d0be
000002e0: f3b3 1cbc 448f c53e 2b8d 00bf 602e 0cbe
000002f0: de10 1e3d 015b 6abf d0c6 1c3e 01b4 91be
00000300: 3c87 a83e 96b3 333e 68ca eb3e bc07 c8bf
00000310: dedb 4cbe 418b 2bc1 1fb7 ddbf 4c3c 82be
00000320: 2c66 393e c2f4 003f 9d7a 293e b082 cebe
00000330: 5377 ba3e dfa0 e1be 3008 503e fb9c d13d
00000340: e51a b9be 4683 6fbe 4a3b dbbb e591 f7bd
00000350: 82d9 0ebc 6178 dc3d 1c01 c5be 0b08 53be
00000360: ea9f a53e 68d7 c4bb 4b28 c3be b85c 2940
00000370: 05cf 5a3f f041 803e cba2 03bf e4aa 31bf
00000380: 2526 dbbe 5415 04be 8136 f2be 42e2 e83c
00000390: 560e e33d 384a 6e3e 69a3 313e d03a b83e
000003a0: ab84 22bc 0d08 34bf 948f 5dbe a2ad ab3e
000003b0: ff3b 023e 6d19 80bc 1e6b 17be 8b93 7d3d
000003c0: c6d4 60bc c22b bb3f c33f 37c0 46c2 e73e
000003d0: 6c75 88bd 36bf bb3d b75a 953e 1029 6abe
000003e0: a6f5 3ebf 4195 e5be 13c0 733e e442 43be
000003f0: ffcf dc3e 838f 813e 5e87 f6be 9af0 d1bf

weight f4 [8, 24, 1]
0.34673002 -0.2920783 0.16311707 0.011874297 -0.13558832 0.09811926 0.04717213 0.12904677
-0.09404536 -0.18447545 0.108763166 -0.6884418 -0.34699127 0.15987839 0.14660628 -0.13174634
0.19432376 0.28651616 0.37907016 0.075273156 -0.026518714 -0.18986621 -0.09755222 0.008939722
0.005960345 0.09271742 -0.0021380286 0.16048202 0.09377323 -0.54660434 0.15931995 -0.17439662
0.061067604 0.45919862 0.18413743 0.028352864 0.089354865 -0.13658375 0.17993073 -0.0837324
0.2630916 -0.27410096 -0.42071146 -0.08270354 -0.16309008 -0.33081874 -0.038545825 0.14030157
0.16549161 -0.22784664 0.08120486 -0.14092053 0.041400384 -0.37823483 0.037916977 0.48030907
0.13189478 -0.04030196 -0.07822217 0.054490656 -0.06974356 -0.07700437 -0.36753437 -0.021225415
0.077018686 0.14234874 -0.30570605 -0.2649722 0.20779161 0.05302691 0.056687195 0.08290923
-0.27058542 -0.41482705 -0.17461273 0.10437477 -0.015050221 0.17454585 0.036191322 -0.259366
0.116997875 0.40243345 -0.17280023 -0.07214644 0.15971234 0.15317932 -0.082750015 -0.114594094
0.2021324 0.3371073 0.11292118 -0.05154101 -0.4510686 0.07131796 -0.09293308 0.033173066
-0.07028923 -0.2391967 -0.30560583 -0.16604854 0.06761688 -0.28638607 0.29872444 0.008614724
-0.038797997 0.13831964 0.10610347 -0.13349462 -0.18470159 0.20495155 -0.06017725 -0.12704238
0.11730839 -0.22033614 0.32637802 0.1702638 0.026140053 0.118889265 -0.14386864 0.10676995
0.07561108 0.30447933 -0.03337034 0.043672953 0.046928074 -0.016685754 0.018185407 -0.14844558
-0.033254806 0.0034022029 0.006577843 -0.0266968 -0.19828391 -0.016521957 0.0855349 -0.007722151
0.6514259 0.17674176 -0.15587348 -0.060119353 0.2431492 0.44010073 0.14301625 0.06649774
0.11672961 -0.019284239 -0.089343734 -0.036430165 -0.02759703 0.026598098 0.43482497 -0.14911501
-0.22968532 -0.06031582 0.19403408 0.22963043 -0.08865498 0.082059234 0.12979248 0.01862301
-0.2894371 -0.048333026 -0.6822976 -0.2045971 -0.11398218 0.3087147 0.017874984 -0.06953511
0.18342178 -0.2813458 0.0030134984 0.18776834 -0.0459465 0.23323387 -0.6183146 0.019723818
-0.03749643 0.2807974 -0.2782493 -0.11759258 -0.2779308 0.089816436 0.011312295 -0.019231232
0.10762879 -0.29746208 -0.044256147 -0.030010374 0.0012007434 0.37454686 0.105665475 0.10301595
00000000: 9986 b13e 498b 95be 2908 273e 698c 423c
00000010: aad7 0abe c0f2 c83d 9037 413d d624 043e
00000020: db9a c0bd 22e7 3cbe 39bf de3d b93d 30bf
00000030: d7a8 b1be 29b7 233e f51f 163e 83e8 06be
00000040: cffc 463e 3fb2 923e 7c15 c23e d028 9a3d
00000050: c63d d9bc 4a6c 42be 75c9 c7bd e977 123c
00000060: ff4e c33b a1e2 bd3d 2b1e 0cbb 6655 243e
00000070: 2e0c c03d 43ee 0bbf c524 233e 0795 32be
00000080: 0622 7a3d 151c eb3e 868e 3c3e 4444 e83c
00000090: afff b63d 9cdc 0bbe c33f 383e e47b abbd
000000a0: f1b3 863e f656 8cbe 7e67 d7be 7960 a9bd
000000b0: 1601 27be 1361 a9be 3ae2 1dbd 37ab 0f3e
000000c0: a276 293e a150 69be bc4e a63d 794d 10be
000000d0: 7393 293d ffa7 c1be d54e 1b3d 12eb f53e
000000e0: 6d0f 073e ab13 25bd f232 a0bd 9831 5f3d
000000f0: b6d5 8ebd 78b4 9dbd 772d bcbe ece0 adbc
00000100: f9bb 9d3d dec3 113e 8185 9cbe 70aa 87be
00000110: 53c7 543e bf32 593d d530 683d 50cc a93d
00000120: 2c8a 8abe 3664 d4be aecd 32be 70c2 d53d
00000130: 3495 76bc 26bc 323e 5a3d 143d 9fcb 84be
00000140: 959c ef3d c20b ce3e 8bf2 30be 83c1 93bd
00000150: a28b 233e 0adb 1c3e d778 a9bd 4fb0 eabd
00000160: ccfb 4e3e 5499 ac3e 3843 e73d ab1c 53bd
00000170: 77f2 e6be 270f 923d b353 bebd 7be0 073d
00000180: cdf3 8fbd fbef 74be 5e78 9cbe a108 2abe
00000190: b87a 8a3d 32a1 92be 69f2 983e c524 0d3c
000001a0: a6ea 1ebd aaa3 0d3e c74c d93d d0b2 08be
000001b0: 6a22 3dbe d2de 513e 6c7c 76bd 6617 02be
000001c0: 623f f03d cc9f 61be 051b a73e a259 2e3e
000001d0: aa23 d63c 377c f33d 4d52 13be 34aa da3d
000001e0: fbd9 9a3d b7e4 9b3e 56af 08bd 69e2 323d
000001f0: a737 403d 90b0 88bc 90f9 943c 1e02 18be
00000200: 3136 08bd 7ef7 5e3b f28a d73b 3fb3 dabc
00000210: f00a 4bbe 0e59 87bc ec2c af3d 190a fdbb
00000220: d9c3 263f cbfb 343e 4c9d 1fbe b63f 76bd
00000230: 1bfc 783e e254 e13e da72 123e f82f 883d
00000240: ef0f ef3d fbf9 9dbc d9f9 b6bd cc37 15bd
00000250: 2b13 e2bc 41e4 d93c 61a1 de3e 9bb1 18be
00000260: a132 6bbe b90d 77bd dfb0 463e 3d24 6b3e
00000270: be90 b5bd ac0e a83d 52e8 043e 488f 983c
00000280: 1931 94be daf8 45bd 0eab 2ebf e781 51be
00000290: 7d6f e9bd da0f 9e3e 8f6e 923c 6c68 8ebd
000002a0: ebd2 3b3e 8f0c 90be 1d7e 453b 5846 403e
000002b0: 6632 3cbd dcd4 6e3e de49 1ebf d893 a13c
000002c0: db95 19bd adc4 8f3e b176 8ebe 61d4 f0bd
000002d0: f24c 8ebe aef1 b73d 3457 393c d18a 9dbc
000002e0: 7c6c dc3d f34c 98be ef45 35bd 51d8 f5bc
000002f0: 4362 9d3a 9bc4 bf3e 2467 d83d 07fa d23d

bias f4 [8]
-0.0024105494 -0.01848281 -0.008395922 -0.008578688 -0.010711843 -0.04381493 0.0015155466 -0.056856412
00000000: 4ffa 1dbb 4369 97bc 0d8f 09bc a08d 0cbc
00000010: ba80 2fbc 4977 33bd 4ea5 c63a 45e2 68bd

weight f4 [24, 8, 3]
0.3045755 -0.684322 -0.124721006 0.31737074 -0.118400104 0.03084018 -0.41152182 -0.2759578
0.26946115 0.054367393 -0.6297682 0.12250093 0.06548714 0.30243295 -0.04776677 -0.6810024
0.5681894 -0.054497804 -0.04714552 -0.47143415 -0.012551585 0.09002011 0.04620796 0.13055755
-0.011796493 0.48966458 0.30613655 0.22076523 -0.124821864 -0.18203092 -0.09566978 0.44331205
-0.11396631 -0.08025887 0.3055935 -0.156984 -0.10531284 0.06845545 -0.37097448 0.0035329277
-0.05937816 0.9762964 -0.2946226 0.09237853 0.12915947 0.20967114 0.28726372 -0.41134095
0.1605779 -0.06647374 -0.23728949 0.54965466 -0.19687065 0.1877819 0.19546637 0.54332656
-0.6886638 0.19151302 0.090783976 0.42995316 0.58386624 0.35862312 -0.8194256 -0.77051854
0.4121383 0.25819886 -0.4649006 0.32511967 -0.8891129 0.5719996 0.04123187 0.22025393
0.21271677 -0.032497935 0.18700191 0.19217588 -0.8128383 0.0661291 -0.022658525 0.35591197
0.34229782 -0.31262323 -0.38792235 0.07635803 -0.18531522 0.40049547 -0.4106678 -0.8155541
0.4518949 -1.5488597 0.5691926 0.24485503 0.11689498 0.18467662 -0.37217855 0.38827375
-1.1870065 0.5563267 -0.35624105 0.40905696 -0.13518697 -0.06506937 -0.43951434 0.38513696
-0.7662202 0.15200542 0.041207727 -0.28814882 0.25718763 0.92050326 -1.0799811 -0.60154855
-0.043188617 -0.35065484 -0.5624384 0.61510706 -1.183499 -0.77229375 -0.08284089 0.4325934
0.94052625 -0.34726012 0.476471 -0.7959454 0.5128914 -0.039607707 -0.46031132 0.6300478
-0.113751434 0.105475314 -0.10656764 0.5104023 0.6142596 0.47963423 -0.55443 0.16977206
-0.0062417067 -0.05495849 -0.24722044 -0.54092216 0.54655814 -0.2983396 -0.59212786 0.1897079
-0.45697737 0.3855565 -0.25223625 0.15603085 -0.5726676 -0.20308657 -0.29341325 0.74357253
0.21878392 -0.4031066 0.46980774 -0.82936555 -0.81679165 -0.39811715 0.44419104 -1.2772433
-0.18122275 -2.0032852 0.91065973 -0.89859587 0.8695591 0.5605076 -0.10301776 0.4303061
0.053726498 -0.06979092 0.05867265 -0.23472592 0.6381579 -0.10311918 0.28960776 -0.4590998
0.57598555 -0.22455919 0.1854154 -0.42270327 -0.5051985 0.3471987 0.3733133 -0.91452914
0.3450342 0.43631944 0.32830846 0.033692818 0.41920656 0.24493034 0.30854797 -0.09254472
0.20810874 -0.39416867 -0.42508882 -0.55355453 -0.46300122 -0.17190896 -0.68291336 -0.7668286
-0.43445483 -0.114794225 -0.5175895 -0.21109585 -0.52073354 -0.9985697 -0.38931522 0.63839084
0.08833128 1.4778177 -0.6471684 -1.2453414 -0.448796 -0.16897969 -0.28302845 1.4755117
0.5931017 0.03842742 -0.39977714 -0.10295755 -0.46429977 0.5603339 0.561586 -0.1993732
-0.18000007 0.3715416 -0.116291344 -0.3446429 0.25660065 0.10503232 0.86588496 0.93347275
1.0036147 -0.7484236 0.0177717 -0.27626258 0.4562863 0.3637467 -0.10354845 0.5241032
0.36204508 -0.024942314 0.17018136 -0.39730513 -0.38962528 0.104980126 0.52023834 0.025387801
0.14443584 0.24086118 -0.16710304 0.10868025 -0.0052234847 -0.15085661 0.056592204 0.63204426
00000000: 52f1 9b3e ba2f 2fbf ba6d ffbd 6b7e a23e
00000010: c17b f2bd 8ca4 fc3c fdb2 d2be 574a 8dbe
00000020: d0f6 893e 58b0 5e3d 7d38 21bf c5e1 fa3d
00000030: 1f1e 863d 7ed8 9a3e 17a7 43bd 2c56 2ebf
00000040: dc74 113f 1739 5fbd a91b 41bd d15f f1be
00000050: 2aa5 4dbc 775c b83d 8f44 3d3d e1b0 053e
00000060: 1446 41bc 51b5 fa3e eebd 9c3e 4810 623e
00000070: 9ba2 ffbd 5066 3abe 85ee c3bd ccf9 e23e
00000080: 2b67 e9bd c35e a4bd c076 9c3e 6ac0 20be
00000090: 42ae d7bd 5f32 8c3d 5ef0 bdbe b188 673b
000000a0: 8336 73bd 90ee 793f c6d8 96be f430 bd3d
000000b0: 6142 043e 08b4 563e 3b14 933e 489b d2be
000000c0: 886e 243e 6223 88bd 04fc 72be 2bb6 0c3f
000000d0: 7698 49be e649 403e 5628 483e 7317 0b3f
000000e0: 454c 30bf fd1b 443e f3ec b93d d222 dc3e
000000f0: 4278 153f 739d b73e e0c5 51bf b440 45bf
00000100: cb03 d33e a432 843e 7407 eebe 1676 a63e
00000110: e79c 63bf 916e 123f c0e2 283d 3f8a 613e
00000120: 6dd2 593e 8e1c 05bd 6e7d 3f3e c1c9 443e
00000130: 2c16 50bf b26e 873d 5f9e b9bc 183a b63e
00000140: a941 af3e 2710 a0be c29d c6be 9961 9c3d
00000150: 46c3 3dbe be0d cd3e 0d43 d2be 27c8 50bf
00000160: c55e e73e 0941 c6bf 9bb6 113f 47bb 7a3e
00000170: a366 ef3d de1b 3d3e 308e bebe d1cb c63e
00000180: d4ef 97bf 6d6b 0e3f 3a65 b6be ea6f d13e
00000190: 746e 0abe 1743 85bd 0608 e1be ac30 c53e
000001a0: 0227 44bf 4fa7 1b3e 6fc9 283d 3e88 93be
000001b0: 19ae 833e 1aa6 6b3f d23c 8abf 16ff 19bf
000001c0: 8ce6 30bd 0889 b3be f7fb 0fbf a877 1d3f
000001d0: e57c 97bf 0bb5 45bf 7ca8 a9bd e27c dd3e
000001e0: 54c6 703f 14cc b1be 02f4 f33e 14c3 4bbf
000001f0: da4c 033f b13b 22bd edad ebbe d04a 213f
00000200: 83f6 e8bd 7103 d83d 2340 dabd baa9 023f
00000210: 1e40 1d3f 9e92 f53e 20ef 0dbf bad8 2d3e
00000220: 3b87 ccbb 271c 61bd 5b27 7dbe e079 0abf
00000230: 3ceb 0b3f f8bf 98be b195 17bf ca42 423e
00000240: f0f8 e9be a967 c53e 1c25 81be 8dc6 1f3e
00000250: 589a 12bf edf5 4fbe 433a 96be c55a 3e3f
00000260: e408 603e fd63 cebe a48a f03e 4d51 54bf
00000270: 4219 51bf 03d6 cbbe 026d e33e b57c a3bf
00000280: 7592 39be d335 00c0 ff20 693f 610a 66bf
00000290: 6d9b 5e3f 6d7d 0f3f fafa d2bd 1551 dc3e
000002a0: 5110 5c3d 8bee 8ebd bc52 703d fe5b 70be
000002b0: 515e 233f 2630 d3bd 7847 943e 210f ebbe
000002c0: ca73 133f d8f2 65be 89dd 3d3e 906c d8be
000002d0: b054 01bf 07c4 b13e ec22 bf3e 951e 6abf
000002e0: 53a8 b03e 4365 df3e 0c18 a83e 7b01 0a3d
000002f0: 3ea2 d63e 05cf 7a3e 00fa 9d3e 1688 bdbd
00000300: 751a 553e 7ad0 c9be 3ea5 d9be c0b5 0dbf
00000310: 7f0e edbe e708 30be 69d3 2ebf e14e 44bf
00000320: dd70 debe 3c19 ebbd bf80 04bf 8329 58be
00000330: cb4e 05bf 44a2 7fbf 5354 c7be 956d 233f
00000340: 08e7 b43d 2129 bd3f d4ac 25bf 5967 9fbf
00000350: 97c8 e5be 0309 2dbe 1be9 90be 91dd bc3f
00000360: 83d5 173f 1266 1d3d 97af ccbe 68db d2bd
00000370: b3b8 edbe 0b72 0f3f 1ac4 0f3f 7d28 4cbe
00000380: f051 38be b33a be3e 282a eebd 0975 b0be
00000390: 2961 833e 2f1b d73d a3aa 5d3f 12f8 6e3f
000003a0: 7276 803f b098 3fbf f595 913c 4a72 8dbe
000003b0: 5c9e e93e 023d ba3e 3611 d4bd a12b 063f
000003c0: f95d b93e d353 ccbc 0644 2e3e 946b cbbe
000003d0: f77c c7be d2ff d63d 572e 053f 14fa cf3c
000003e0: fde6 133e 50a4 763e 0f1d 2bbe c093 de3d
000003f0: c429 abbb 287a 1abe 3acd 673d a7cd 213f

bias f4 [24]
0.042769156 0.023338573 -0.2523637 -1.0944908 -0.23815693 -0.34258062 -0.2753595 -0.6059093
-0.3368396 0.16750881 -0.04961984 -0.045590796 -0.02358255 -0.36213785 -0.18546647 -0.48971507
-0.047257807 -0.35553032 -0.118092485 0.15038437 -0.550722 -0.05161443 -0.69992256 -0.598281
00000000: b62e 2f3d 8930 bf3c d135 81be 4618 8cbf
00000010: 69df 73be ba66 afbe ecfb 8cbe df1c 1bbf
00000020: 3d76 acbe 6e87 2b3e 2c3e 4bbd 6abd 3abd
00000030: 3130 c1bc 226a b9be ecea 3dbe efbb fabe
00000040: 6791 41bd 1208 b6be 79da f1bd 5cfe 193e
00000050: 1efc 0cbf a769 53bd 202e 33bf f228 19bf

weight f4 [8, 24, 1]
0.7655473 -0.14629199 0.39134133 0.21981338 -0.11456696 -1.0028858 -0.35949054 0.22576585
0.031230826 -0.62971014 -0.21323635 0.2788821 0.688545 -0.910553 -0.38474622 0.8612271
0.123262554 0.17755166 0.074623264 -0.1716219 -0.3608004 -0.0644455 0.14824194 0.24748762
0.5221696 0.13904186 -0.28726026 0.3353212 0.05940195 0.4385633 -0.018447267 -0.1954787
-0.152958 -0.32941586 0.19520755 0.052433167 -0.47877797 0.19215283 0.14348683 -0.002604801
0.079935364 0.026297722 0.28632596 0.129972 0.34648263 0.3410665 0.16481906 -0.021315692
0.0010102259 0.7069218 0.4546884 -0.28204924 -0.103721075 0.56484854 0.097389475 -0.16687971
-0.098378226 -0.15862733 -0.056750827 -0.103264734 0.38034856 -0.11735585 0.28478542 -0.4506519
0.093226604 0.30179155 -0.2926361 -0.04522543 0.05683107 -0.5897819 0.038454797 -0.32740188
-0.5409352 0.33294606 -0.150122 0.30793893 -0.047302004 0.6193253 -0.3344031 -0.8672919
0.0026693624 -0.05752451 0.16769984 -0.07240765 -0.15256144 0.40924355 0.41249797 -0.043764517
1.8946565e-05 0.17782263 0.343895 0.45373452 -0.20696051 -0.27205813 -0.083268896 -0.08349031
0.16734491 -0.30304465 -0.29626128 -0.20061792 0.27194735 -0.15594149 0.027720187 -0.07122557
0.08976946 -0.009517276 -0.07720385 0.64810973 -0.3239767 -0.25876057 -0.30807677 0.18548538
0.61786324 -0.07777851 -0.72270036 -0.37001985 0.6117618 0.9031417 0.14269672 0.24697186
-0.049643733 0.4395804 0.013467105 -0.5367666 0.24379592 -0.16540448 0.12480854 -0.037285145
0.13368829 0.014070937 -0.12229678 0.4308481 0.16174476 -0.071443796 -0.33949366 -0.030039206
-0.3135645 -0.067750685 -0.6204534 0.009657765 0.1566394 0.06527319 0.05671312 0.07446025
0.040251236 0.56479156 -0.044101883 -0.430059 0.30247512 -0.19214946 0.045656122 0.30054742
0.057323616 0.13854986 -0.55398107 0.19086666 -0.32245246 0.04292455 0.22897351 -0.26050466
0.034077924 -0.19936329 -0.059723265 -0.34025478 0.15056063 -0.35930976 -0.026269397 0.059451886
-0.6639732 0.027495466 0.12564221 0.33455557 -0.69686073 0.44140485 -0.13771248 0.2924847
-0.26217994 -0.24526444 -0.58844185 -0.23351023 0.20183228 0.07410887 0.010760701 0.040101755
0.6090259 0.24466343 1.3260553 0.42845494 0.56413573 0.14596187 0.12585388 -0.49466056
00000000: e8fa 433f 91cd 15be e45d c83e c216 613e
00000010: 15a2 eabd 905e 80bf 250f b8be 2a2f 673e
00000020: cad7 ff3c af34 21bf a15a 5abe a2c9 8e3e
00000030: 7c44 303f 001a 69bf 75fd c4be 6179 5c3f
00000040: 1471 fc3d 1ad0 353e 15d4 983d a7bd 2fbe
00000050: d4ba b8be 01fc 83bd bccc 173e 656d 7d3e
00000060: e8ac 053f fd60 0e3e c713 93be 38af ab3e
00000070: 764f 733d 5e8b e03e b91e 97bc 912b 48be
00000080: 06a1 1cbe 32a9 a8be 7de4 473e 29c4 563d
00000090: 6322 f5be b6c3 443e 36ee 123e 4fb5 2abb
000000a0: 27b5 a33d 526e d73c 5199 923e 6117 053e
000000b0: 2c66 b13e 45a0 ae3e 54c6 283e 3f9e aebc
000000c0: 8e69 843a d4f8 343f ebcc e83e c268 90be
000000d0: b76b d4bd ea99 103f 2274 c73d 84e2 2abe
000000e0: 867a c9bd 346f 22be 8e73 68bd 767c d3bd
000000f0: 0cbd c23e 4458 f0bd 65cf 913e d9bb e6be
00000100: 97ed be3d 6c84 9a3e 66d4 95be 4d3e 39bd
00000110: b2c7 683d f2fb 16bf c782 1d3d 38a1 a7be
00000120: bb7a 0abf e877 aa3e 95b9 19be 2caa 9d3e
00000130: bfbf 41bd 1a8c 1e3f e236 abbe d806 5ebf
00000140: 78f0 2e3b d29e 6bbd 82b9 2b3e 764a 94bd
00000150: 1139 1cbe 5f88 d13e ef32 d33e 6c42 33bd
00000160: 70ef 9e37 2317 363e 0113 b03e e44f e83e
00000170: 75ed 53be 344b 8bbe e288 aabd f8fc aabd
00000180: 775c 2b3e ab28 9bbe 8faf 97be c96e 4dbe
00000190: af3c 8b3e 20af 1fbe 7215 e33c b6de 91bd
000001a0: 0dd9 b73d 59ee 1bbc 0d1d 9ebd 85ea 253f
000001b0: 46e0 a5be 447c 84be 3dbc 9dbe e1ef 3d3e
000001c0: 492c 1e3f 574a 9fbd e402 39bf 3e73 bdbe
000001d0: 6c9c 1c3f 4b34 673f 171f 123e 31e6 7c3e
000001e0: 3a57 4bbd af10 e13e 22a5 5c3c 8969 09bf
000001f0: a3a5 793e cb5f 29be 9f9b ff3d 4fb8 18bd
00000200: 95e5 083e ca89 663c bc76 fabd 1f98 dc3e
00000210: 6ba0 253e 2051 92bd 1dd2 adbe c814 f6bc
00000220: 878b a0be dfc0 8abd 09d6 1ebf 9a3b 1e3c
00000230: 1466 203e f3ad 853d 044c 683d 9e7e 983d
00000240: 7bde 243d 2e96 103f 2da4 34bd b130 dcbe
00000250: 05de 9a3e d4c2 44be ea01 3b3d 5ae1 993e
00000260: 2bcc 6a3d 04e0 0d3e b4d1 0dbf 8d72 433e
00000270: 7d18 a5be a7d1 2f3d 0878 6a3e de60 85be
00000280: 4b95 0b3d e425 4cbe 62a0 74bd e035 aebe
00000290: 912c 1a3e 73f7 b7be eb32 d7bc d283 733d
000002a0: 26fa 29bf 2c3e e13c 5aa8 003e de4a ab3e
000002b0: 7765 32bf d1ff e13e 8004 0dbe 8ec0 953e
000002c0: 733c 86be 9a26 7bbe 20a4 16bf 4e1d 6fbe
000002d0: 1fad 4e3e 64c6 973d a74d 303c bd41 243d
000002e0: 1fe9 1b3f 0d89 7a3e 2ebc a93f 725e db3e
000002f0: 336b 103f 0777 153e d7df 003e 2644 fdbe

bias f4 [8]
0.10424677 0.3703351 -0.29590216 -0.20810948 0.16366322 -0.44776762 -0.21903151 0.61536515
00000000: 557f d53d 909c bd3e 7d80 97be a71a 55be
00000010: 5597 273e cc41 e5be cc49 60be 9288 1d3f

weight f4 [24, 8, 3]
-0.26839584 0.015982004 0.2852681 0.37728068 -0.11111142 0.40285847 0.3268782 0.07942478
0.84175605 0.14519185 0.10190765 -0.14360264 0.47904935 0.91590005 0.15016438 0.07669819
-0.065383635 -0.30567807 -0.46705702 -0.04718742 -0.0067557883 0.15512197 0.3304355 -0.5979563
-0.27881217 -0.1286516 0.1311262 -0.5409171 0.046305537 -0.061458252 0.28149042 -0.58302313
0.2562845 0.78365034 -0.48235223 -0.070713915 0.764895 0.34887794 -0.003649529 0.29357567
-0.865157 0.4210968 -0.9154429 0.36277613 -0.5084118 -0.5697388 0.26682052 -0.42411065
0.04146647 -0.39769074 0.2960226 0.10412806 -0.6436325 0.23361361 0.81225604 -0.6961932
0.21094659 0.09510163 -0.4830669 0.6714344 -0.68310565 0.51947933 -0.46029395 0.6090178
-0.73386854 0.062352657 -0.2819248 -0.20002376 0.08347579 -0.12784392 0.54442775 -0.4275159
0.09110028 -0.35741746 -0.21413313 -0.12365261 0.4372956 -0.03490598 -0.749179 -0.1031933
0.7115515 0.85531026 -0.5734497 -0.22267072 0.542616 0.6355391 -0.7087976 -0.43728006
0.6800509 -0.51726776 0.12426258 -0.26009268 0.48706287 0.2568463 -0.5980827 -0.47238153
0.34455892 0.6946679 0.13435994 0.6569682 -0.9523497 -0.7306089 1.0572451 0.0022134322
-1.3142964 -0.39759693 0.3625153 0.71663475 -0.2010045 -0.41691083 -0.04706622 0.0010111135
0.38827425 -1.214589 0.8886526 -0.570652 0.4594518 0.27749646 -0.26116446 -0.30017006
-0.08936736 -0.017301587 -0.5187762 0.3061568 -0.0044861073 -1.1558915 -0.2410281 -1.230989
-0.34775886 0.5110309 0.08533923 1.1292126 0.38622114 -0.12000207 0.5761476 -1.5661205
-0.017468698 -0.795109 -0.13407911 0.07118643 -0.6284847 -0.6212331 -0.47273913 -0.10336831
-0.18889415 0.84649104 -0.4059013 -0.24479292 -0.3221312 0.28784597 0.5123259 0.6302561
0.40229166 -0.67980975 0.6486334 -1.1537864 0.35350928 -0.36078 0.69835347 -0.34625724
-0.24651845 0.090084344 -0.017155616 0.32713345 -0.11134923 0.20264682 -0.31605464 -0.376155
-0.2925332 0.32024497 -0.37912053 0.12266212 0.1561039 -0.6566602 -0.13299033 0.27311015
-0.5153855 0.5529038 1.0017282 -0.30863234 0.11162266 0.77545846 0.50155985 -0.21861178
0.5717571 -1.1878586 -0.16848299 -0.14634472 0.03698737 -0.12961864 -0.16010171 0.017004957
-0.40997627 0.2743724 -0.86970735 0.4283469 -0.050779663 0.69380766 -1.0365063 -0.0917355
-0.64157283 -0.027940275 1.2985406 -1.4405317 -0.020272302 0.29697058 0.4415064 0.5782971
-0.5538929 -0.3705305 0.2373796 -0.4410935 0.8402484 0.7020825 0.3728285 2.243961
-0.49610192 0.6205678 -0.5960721 -0.09386949 1.2750392 0.52831936 -0.10077563 0.08963466
-1.1079954 -0.16042654 0.2865062 -0.031704288 0.32156035 -1.2591068 0.63530064 -0.7944711
0.18439679 0.12374126 -0.18454196 0.8052038 0.12694122 -0.12094844 0.26227167 0.13971157
-0.5125831 -0.28060848 0.11408725 -0.3175295 0.15800907 1.0263747 0.47768062 0.040301003
-0.16966316 -0.58461064 -0.3203135 0.8676962 0.6710357 -0.05192129 0.4027595 -1.0050128
00000000: 2e6b 89be b1ec 823c a90e 923e ef2a c13e
00000010: 628e e3bd 7743 ce3e 945c a73e 76a9 a23d
00000020: 537d 573f 2cad 143e f5b4 d03d 920c 13be
00000030: f545 f53e 6d78 6a3f b1c4 193e f113 9d3d
00000040: dbe7 85bd d681 9cbe 1922 efbe 9947 41bd
00000050: a95f ddbb 4bd8 1e3e d82e a93e aa13 19bf
00000060: 78c0 8ebe 3fbd 03be f245 063e 8b79 0abf
00000070: e0aa 3d3d a6bb 7bbd 831f 903e 0141 15bf
00000080: b937 833e 4f9d 483f dff6 f6be 75d2 90bd
00000090: 29d0 433f 21a0 b23e f02c 6fbb 8d4f 963e
000000a0: ee7a 5dbf 009a d73e 775a 6abf cbbd b93e
000000b0: 4727 02bf 67da 11bf b39c 883e 0825 d9be
000000c0: bfd8 293d 1f9e cbbe 4690 973e 1841 d53d
000000d0: 19c5 24bf 6838 6f3e 03f0 4f3f b839 32bf
000000e0: 6202 583e a5c4 c23d 8b54 f7be 20e3 2b3f
000000f0: 03e0 2ebf 99fc 043f a6ab ebbe 97e8 1b3f
00000100: cfde 3bbf 8065 7f3d 7358 90be 07d3 4cbe
00000110: 5bf5 aa3d 84e9 02be 9e5f 0b3f 5de3 dabe
00000120: c992 ba3d 6cff b6be b745 5bbe 943d fdbd
00000130: 35e5 df3e 93f9 0ebd 32ca 3fbf 0257 d3bd
00000140: 3d28 363f 9df5 5a3f 99cd 12bf cb03 64be
00000150: e2e8 0a3f b1b2 223f c273 35bf 2ce3 dfbe
00000160: d117 2e3f a96b 04bf 617d fe3d de2a 85be
00000170: 4e60 f93e 5c81 833e f31b 19bf fedb f1be
00000180: 076a b03e c1d5 313f a795 093e 112f 283f
00000190: 31cd 73bf 2f09 3bbf cf53 873f 3b0f 113b
000001a0: dd3a a8bf d391 cbbe 9b9b b93e 6075 373f
000001b0: 20d4 4dbe 5675 d5be 82c8 40bd 5787 843a
000001c0: e2cb c63e a777 9bbf bd7e 633f 4016 12bf
000001d0: 443d eb3e 0414 8e3e 59b7 85be e4af 99be
000001e0: 3c06 b7bd 0fbc 8dbc 84ce 04bf 96c0 9c3e
000001f0: 3200 93bb 41f4 93bf 12d0 76be 0c91 9dbf
00000200: 730d b2be ecd2 023f 56c6 ae3d 0a8a 903f
00000210: c7be c53e a5c3 f5bd 697e 133f a376 c8bf
00000220: 841a 8fbc 438c 4bbf 094c 09be 31ca 913d
00000230: 60e4 20bf 2209 1fbf dd0a f2be c4b2 d3bd
00000240: 786d 41be a3b3 583f 4cd2 cfbe ffaa 7abe
00000250: 61ee a4be 8c60 933e ca27 033f 7758 213f
00000260: 2cf9 cd3e 0308 2ebf d70c 263f 46af 93bf
00000270: 2bff b43e 28b8 b8be 4bc7 323f a148 b1be
00000280: 556f 7cbe 247e b83d ef89 8cbc 097e a73e
00000290: 110b e4bd a682 4f3e ead1 a1be 6397 c0be
000002a0: e9c6 95be 26f7 a33e 161c c2be 4736 fb3d
000002b0: b3d9 1f3e e21a 28bf 9e2e 08be 18d5 8b3e
000002c0: 4ef0 03bf 1a8b 0d3f a138 803f 0f05 9ebe
000002d0: 6c9a e43d 7284 463f 3a66 003f c4db 5fbe
000002e0: ac5e 123f c00b 98bf ce86 2cbe 64db 15be
000002f0: 1280 173d c0ba 04be b4f1 23be fb4d 8b3c
00000300: 69e8 d1be 8a7a 8c3e 24a5 5ebf 4950 db3e
00000310: 56fe 4fbd 619d 313f 3dac 84bf d2df bbbd
00000320: 1e3e 24bf 01e3 e4bc 9436 a63f 5863 b8bf
00000330: 1912 a6bc 870c 983e 200d e23e 470b 143f
00000340: edcb 0dbf 2cb6 bdbe a313 733e 02d7 e1be
00000350: 851a 573f aebb 333f 61e3 be3e 0f9d 0f40
00000360: 1201 febe 88dd 1e3f 2e98 18bf a63e c0bd
00000370: 7c34 a33f f03f 073f 7463 cebd 6092 b73d
00000380: cbd2 8dbf db46 24be f1b0 923e 5bdc 01bd
00000390: 8fa3 a43e 692a a1bf 10a3 223f 7562 4bbf
000003a0: 83d2 3c3e 0f6c fd3d 91f8 3cbe d621 4e3f
000003b0: e1fc 013e d1b3 f7bd 7948 863e 8d10 0f3e
000003c0: a538 03bf eaab 8fbe 93a6 e93d 3a93 a2be
000003d0: 21cd 213e 3f60 833f 8e92 f43e aa12 253d
000003e0: 2ebc 2dbe 0ba9 15bf 2200 a4be 5721 5e3f
000003f0: ffc8 2b3f 6bab 54bd 7e36 ce3e 42a4 80bf

bias f4 [24]
-0.2684245 0.056537382 0.10672024 -0.24014513 -0.2708631 -0.2051367 -0.14381376 0.4372842
-0.7036045 -0.060022477 0.25316224 -0.15885033 -0.18624058 -0.1568399 -0.42724043 0.33698624
-0.72705823 -0.09700063 -0.061723378 -0.1267161 0.14106554 -0.07681578 0.24736425 -1.1626791
00000000: f06e 89be be93 673d 2490 da3d 9be8 75be
00000010: 91ae 8abe 5b0f 52be ea43 13be b7e3 df3e
00000020: 6d1f 34bf 21da 75bd 7b9e 813e a9a9 22be
00000030: dab5 3ebe a49a 20be 42bf dabe 7689 ac3e
00000040: 7d20 3abf 44a8 c6bd a7d1 7cbd dec1 01be
00000050: 7c73 103e 9751 9dbd 0e4d 7d3e abd2 94bf

weight f4 [8, 24, 1]
0.6786804 -0.2739129 0.54902846 -0.43759456 0.025287148 0.39772305 0.20851782 -0.06939233
-0.016375815 0.018885598 -0.06132289 -0.69794154 0.4642759 -0.009514281 0.17611977 -0.16950482
-0.2980811 -0.20920026 0.63307244 0.547489 0.31032878 -0.1224489 0.016052336 -0.15042451
0.4197588 0.021341125 -0.2668721 -0.17216657 0.22814226 -0.66056657 -0.19876927 0.03425571
-0.1878404 -0.06755635 0.2806591 0.061659046 0.14489587 -0.10280172 0.04673398 0.41323414
-0.3340259 -0.06469599 0.51662767 0.061058324 -0.13885573 -0.0041878815 0.25299352 0.09784138
0.29635537 0.54313254 0.4120927 -0.12487472 -0.26153934 -0.21002825 0.067350686 -0.35692286
0.011021797 0.060358334 -0.19426675 -0.08123196 0.20555423 -0.22565778 -0.19475381 -0.24078394
0.20512757 0.15044288 0.20141153 -0.07952895 0.546472 -0.4189431 0.03327458 -0.037595443
0.0069468752 -0.62540674 0.016099127 0.7109538 0.07744149 -0.23244272 -0.058871966 -0.122612715
-0.06817239 0.27467826 -0.01766274 -0.1758495 0.16833298 0.18963265 -0.04467291 0.0841819
0.032569993 0.0970558 0.06473191 -0.036062963 -0.11883081 -0.15440767 -0.01531467 -0.0867015
0.6797958 -0.25991404 0.2628574 -0.16552623 0.09134131 1.5320259 -0.023288151 -0.75676364
-0.13537616 0.025923444 -0.9430714 -1.1419195 -0.29205206 0.49589333 0.15526868 0.28161556
-0.6895613 -0.19303592 -0.11462792 -0.2649069 -0.5784768 0.24499094 0.08078501 -0.08570955
-0.702587 0.37491977 0.46614668 -0.24656992 -0.5178225 0.28997245 0.37721887 -0.09633575
0.33811763 -0.3386545 -0.11102287 0.05863415 -0.42378473 -0.28389892 -0.4582967 -0.5656929
0.7428447 0.2862921 -0.030508803 0.07292266 -0.0070866873 0.37688193 -0.18905947 -0.014347626
0.042656932 0.17580216 -0.28188604 0.17301406 -0.07329378 0.3681726 0.013401679 0.39816713
-0.05931402 0.36561254 -0.13442406 -0.40448388 -0.20749843 0.08869436 0.19127023 -0.63802975
0.1459486 0.21534869 -0.27022448 -0.28309253 -0.53484327 -0.27729613 -0.1291534 -0.21193385
0.5063637 -0.00065774476 0.47721168 -0.2737987 -0.09307362 0.15447493 -0.3025729 -0.58353907
-0.085220456 0.057104137 -0.45381144 0.39385962 -0.21806896 0.4687671 -0.055532023 -0.1862403
0.47388205 -0.007200839 -0.28781077 -0.32138455 -0.47261274 -0.10429769 -0.1314709 -0.112233326
00000000: 00be 2d3f 503e 8cbe 218d 0c3f 650c e0be
00000010: fe26 cf3c 5ba2 cb3e b285 553e 911d 8ebd
00000020: 9326 86bc f8b5 9a3c b62d 7bbd 4cac 32bf
00000030: 92b5 ed3e c9e1 1bbc be58 343e ac92 2dbe
00000040: 169e 98be 9838 56be 0911 223f 3d28 0c3f
00000050: 6ae3 9e3e 7dc6 fabd 3080 833c e208 1abe
00000060: a0ea d63e 95d3 ae3c 76a3 88be 6f4c 30be
00000070: 209e 693e e41a 29bf 2c8a 4bbe b74f 0c3d
00000080: 3c59 40be fc5a 8abd 8db2 8f3e 328e 7c3d
00000090: 955f 143e b589 d2bd 216c 3f3d 6d93 d33e
000000a0: 7105 abbe 557f 84bd b641 043f 4b18 7a3d
000000b0: 3230 0ebe 7f3a 89bb 5e88 813e 1061 c83d
000000c0: e4bb 973e bc0a 0b3f d0fd d23e 51be ffbd
000000d0: 7ce8 85be a511 57be 28ef 893d 98be b6be
000000e0: c494 343c 4d3a 773d dded 46be f15c a6bd
000000f0: cf7c 523e d512 67be 8b6d 47be 1190 76be
00000100: f60c 523e b30d 1a3e d33e 4e3e 13e0 a2bd
00000110: 97e5 0b3f b67f d6be ed4a 083d aefd 19bd
00000120: 9da2 e33b a81a 20bf 51e2 833c 1101 363f
00000130: a599 9e3d 7705 6ebe bb23 71bd 601c fbbd
00000140: f79d 8bbd a1a2 8c3e 73b1 90bc e411 34be
00000150: 7b5f 2c3e 102f 423e f1fa 36bd 8f67 ac3d
00000160: 1d68 053d 31c5 c63d 2a92 843d c2b6 13bd
00000170: 915d f3bd 0b1d 1ebe 62ea 7abc 8e90 b1bd
00000180: 1907 2e3f 7413 85be 3f95 863e b57f 29be
00000190: 2711 bb3d 6d19 c43f cbc6 bebc 43bb 41bf
000001a0: 0ca0 0abe 675d d43c 216d 71bf 6b2a 92bf
000001b0: d987 95be bbe5 fd3e c1fe 1e3e ea2f 903e
000001c0: 1787 30bf 35ab 45be 0bc2 eabd e1a1 87be
000001d0: 0e17 14bf e8de 7a3e 9c72 a53d 7d88 afbd
000001e0: bedc 33bf 7cf5 bf3e c7aa ee3e d37c 7cbe
000001f0: 0490 04bf 4577 943e d522 c13e ad4b c5bd
00000200: c11d ad3e 1f64 adbe f55f e3bd 5d2a 703d
00000210: 50fa d8be 335b 91be dda5 eabe 40d1 10bf
00000220: 122b 3e3f e194 923e 99ed f9bc 7a58 953d
00000230: 7137 e8bb abf6 c03e ce98 41be 4e12 6bbc
00000240: 09b9 2e3d 7b05 343e 5e53 90be 992a 313e
00000250: 0d1b 96bd 1e81 bc3e b792 5b3c 90dc cb3e
00000260: 42f3 72bd 9131 bb3e 76a6 09be 8318 cfbe
00000270: 787a 54be 63a5 b53d 58dc 433e eb55 23bf
00000280: 8d73 153e 5e84 5c3e dd5a 8abe 81f1 90be
00000290: 7deb 08bf c2f9 8dbe ca40 04be 3005 59be
000002a0: 0da1 013f 816c 2cba 1755 f43e 582f 8cbe
000002b0: 629d bebd ad2e 1e3e d6ea 9abe d162 15bf
000002c0: 1088 aebd 07e6 693d f959 e8be f8a7 c93e
000002d0: 784d 5fbe 3e02 f03e 8c75 63bd c7b5 3ebe
000002e0: aba0 f23e 04f5 ebbb ef5b 93be 848c a4be
000002f0: 4cfa f1be 079a d5bd 4fa0 06be 96da e5bd

bias f4 [8]
-0.25883204 -0.47609586 -0.14407451 0.35926846 0.21016577 -0.06328645 -0.11079875 0.014208656
00000000: a285 84be d6c2 f3be 4588 13be 09f2 b73e
00000010: b235 573e 549c 81bd 74ea e2bd 6ccb 683c

weight f4 [24, 8, 3]
-0.3113416 -0.7024732 0.019575246 -0.19587815 -0.072704405 1.6835831 -0.16958351 -0.43100527
-0.04424623 -0.24150178 -0.4873709 1.208765 -0.07494765 -0.12127873 0.12068964 0.21041705
0.4264555 0.7320401 0.14488462 -0.29527944 0.3087671 -0.23081386 -0.0037011835 0.6973384
-0.14922257 -0.20457262 -0.0717092 0.29555464 -0.055631213 0.20255157 0.06041376 -0.21979819
0.47582933 -0.4796388 0.7514051 -0.002334162 -0.107594125 -0.049613886 0.18046157 0.25851506
0.12909248 -0.0031251302 0.31517586 -0.058470603 0.0364338 0.035772413 0.09817532 -0.28177202
0.7077061 0.018264396 0.75614506 0.13265638 0.0010347478 0.93772525 0.3939782 -0.044175267
-0.22233717 0.11580973 -0.9531547 -0.16890097 0.059652537 -0.048269972 -0.12505667 -0.40233174
-0.15772924 0.2736651 0.019701617 0.123582624 0.28683764 -0.12860292 -0.5922886 -0.0068973093
-0.45685777 -0.4231885 0.04051754 -0.3960432 0.26090276 0.5094328 -0.023705328 -0.15332305
0.024297997 0.3687117 -0.6236246 0.9296624 0.103417374 -0.32126078 -0.054072678 -0.010194152
0.0395911 0.33049837 -0.3977857 0.7341094 0.34949264 -0.32902408 -0.1743584 0.332482
-0.18761934 -0.3677322 0.270947 -0.30073577 0.054576054 1.0797933 -0.14016253 0.8089251
-0.718701 0.27278 -0.7040606 0.36768997 -0.0035698637 0.4817778 -0.45763516 0.10356663
-0.3406711 -0.5133046 0.16583665 -0.4689037 0.07967778 0.05175094 -1.0264485 0.22234021
-1.0001948 -0.63907295 -0.68655634 -0.9177723 0.87918127 -0.34450027 -0.9263563 -0.526338
-0.78455216 1.6044844 -0.09479714 -0.9103158 0.42359456 -0.160698 -0.012697618 0.20093945
0.46503526 0.023921201 -0.9761077 -0.31148314 0.24182907 0.10623845 0.2367652 0.25052977
0.10715826 -0.20228763 0.18959913 -0.009932325 -0.11032856 0.41119757 -0.84263325 0.34435338
0.50694954 -0.46804485 0.6685323 0.10283839 0.22702278 0.16721468 0.2633146 0.4843372
-0.27564085 -0.58873975 -0.06502594 -0.11851386 0.44161302 -0.36587062 0.52310556 -0.34844688
0.09694008 0.36632693 0.50523156 0.21899432 0.5558791 0.058843065 0.09999046 -0.103304565
-0.33703023 -1.4391143 0.27019006 0.7052543 -0.037298832 -0.17979324 -0.19203173 -0.46554992
0.76106197 -0.016866492 0.32176825 -0.06509349 0.3286411 0.005782968 0.5541159 -0.44807068
-1.5274119 -0.7992325 -0.7305922 -0.3785136 0.19887741 -2.1160877 1.4642963 -0.97232294
-0.6356922 0.22659256 0.09863057 0.31400812 0.651504 0.10928377 0.06499034 -0.42766762
0.3466667 -0.36210108 -0.5943852 -0.556577 -0.17373583 -0.33473176 0.26349983 -0.41534927
-0.066801235 0.10452788 0.37480503 0.55789226 -0.4438395 -0.66633403 0.16003801 0.30152932
0.6222682 1.0387243 -0.097408846 -1.1560187 0.21842763 0.27808145 -0.20561874 0.6695033
-0.07810905 -0.079933845 -0.026771996 -0.3269359 0.1372211 -0.2331583 0.34138706 -0.41322663
-0.022379944 0.038616374 -0.40459055 0.3639482 -0.16188326 1.1305956 -0.89427 0.18397534
0.36138117 0.49550217 -0.030931935 -0.7521703 -0.55334616 -0.10266657 0.13281982 0.18654794
00000000: 2b68 9fbe 49d5 33bf 445c a03c 4894 48be
00000010: 0ce6 94bd a77f d73f 4da7 2dbe b9ac dcbe
00000020: 893b 35bd 3e4c 77be ae88 f9be d0b8 9a3f
00000030: 277e 99bd fc60 f8bd 212c f73d 9177 573e
00000040: 6058 da3e fb66 3b3f a25c 143e de2e 97be
00000050: b916 9e3e 785a 6cbe 8e8f 72bb c584 323f
00000060: cdcd 18be 7c7b 51be 46dc 92bd f052 973e
00000070: 8edd 63bd ae69 4f3e 6b74 773d c712 61be
00000080: e79f f33e 3793 f5be 165c 403f bdf8 18bb
00000090: 4f5a dcbd ee37 4bbd ebca 383e 165c 843e
000000a0: d230 043e fcce 4cbb bb5e a13e df7e 6fbd
000000b0: 9c3b 153d 1886 123d 2410 c93d 6c44 90be
000000c0: 3a2c 353f 379f 953c b992 413f 13d7 073e
000000d0: 60a0 873a c30e 703f 83b7 c93e 20f1 34bd
000000e0: 5bac 63be a72d ed3d f201 74bf 60f4 2cbe
000000f0: 3856 743d bcb6 45bd db0e 00be 6dfe cdbe
00000100: c683 21be d51d 8c3e 4965 a13c e318 fd3d
00000110: 62dc 923e 7cb0 03be 3aa0 17bf d302 e2bb
00000120: 43e9 e9be 2aac d8be b8f5 253d 2dc6 cabe
00000130: 0c95 853e 306a 023f ad31 c2bc b800 1dbe
00000140: 980c c73c c8c7 bc3e dda5 1fbf 5bfe 6d3f
00000150: 7dcc d33d 4b7c a4be 507b 5dbd 5f05 27bc
00000160: 472a 223d 1537 a93e 91aa cbbe 98ee 3b3f
00000170: b3f0 b23e d875 a8be 028b 32be 153b aa3e
00000180: 491f 40be 6547 bcbe 91b9 8a3e 0afa 99be
00000190: 248b 5f3d ab36 8a3f c486 0fbe b715 4f3f
000001a0: cafc 37bf d2a9 8b3e 513d 34bf dc41 bc3e
000001b0: 60f4 69bb 94ab f63e 284f eabe be1a d43d
000001c0: 716c aebe ee67 03bf 15d1 293e 2514 f0be
000001d0: 1b2e a33d cbf8 533d aa62 83bf 27ad 633e
000001e0: 6206 80bf 499a 23bf 28c2 2fbf 20f3 6abf
000001f0: 0612 613f 5762 b0be b025 6dbf 16be 06bf
00000200: 69d8 48bf bf5f cd3f 0125 c2bd 750a 69bf
00000210: 63e1 d83e 048e 24be ac09 50bc 12c3 4d3e
00000220: 1a19 ee3e 65f6 c33c 32e2 79bf b87a 9fbe
00000230: 0aa2 773e 8b93 d93d 9472 723e 7045 803e
00000240: ca75 db3d 7d24 4fbe 4626 423e 31bb 22bc
00000250: f1f3 e1bd 7d88 d23e d0b6 57bf 164f b03e
00000260: 72c7 013f 93a3 efbe ef24 2b3f ef9c d23d
00000270: a978 683e 533a 2b3e 2cd1 863e 0cfb f73e
00000280: cc20 8dbe a6b7 16bf 522c 85bd 65b7 f2bd
00000290: 1a1b e23e 6553 bbbe 3fea 053f a167 b2be
000002a0: 8588 c63d 348f bb3e db56 013f 0c40 603e
000002b0: 184e 0e3f 6d05 713d ccc7 cc3d 5891 d3bd
000002c0: 3a8f acbe e634 b8bf 5a56 8a3e 8c8b 343f
000002d0: a9c6 18bd b81b 38be f7a3 44be 8f5c eebe
000002e0: f5d4 423f 992b 8abc cfbe a43e bc4f 85bd
000002f0: a543 a83e 0d7f bd3b 8ada 0d3f 8569 e5be
00000300: 3c82 c3bf 809a 4cbf 1708 3bbf 89cc c1be
00000310: 85a6 4b3e fb6d 07c0 106e bb3f 28ea 78bf
00000320: b9bc 22bf e107 683e d3fe c93d acc5 a03e
00000330: f7c8 263f 2bd0 df3d a819 853d 40f7 dabe
00000340: 4c7e b13e 5065 b9be a129 18bf d57b 0ebf
00000350: cee7 31be f661 abbe 73e9 863e a9a8 d4be
00000360: 16cf 88bd b712 d63d 72e6 bf3e 07d2 0e3f
00000370: ee3e e3be de94 2abf 01e1 233e 0d62 9a3e
00000380: f84c 1f3f ebf4 843f 4a7e c7bd 6cf8 93bf
00000390: 7eab 5f3e b160 8e3e b88d 52be 9164 2b3f
000003a0: a3f7 9fbd 5bb4 a3bd f250 dbbc 2464 a7be
000003b0: b083 0c3e 0dc1 6ebe 49ca ae3e 7192 d3be
000003c0: 2556 b7bc 342c 1e3d 7e26 cfbe 6b57 ba3e
000003d0: bac4 25be 5bb7 903f e1ee 64bf 0864 3c3e
000003e0: f406 b93e 76b2 fd3e f864 fdbc 3c8e 40bf
000003f0: 18a8 0dbf da42 d2bd eb01 083e 6c06 3f3e

bias f4 [24]
-0.09429265 0.17062399 0.4273844 -1.2027769 0.24641627 -0.41163275 0.049267374 0.68623143
-1.9515603 -0.09710355 0.041149814 0.43537712 0.31310466 -0.472484 -0.39944676 -0.15409237
-1.7639735 -0.2660396 -0.07527396 -0.5408178 -0.23726517 0.38420773 0.5343465 -0.33066058
00000000: 811c c1bd 0eb8 2e3e 21d2 da3e 98f4 99bf
00000010: 8c54 7c3e 87c1 d2be 96cc 493d ddac 2f3f
00000020: bacc f9bf 3ade c6bd b58c 283d c0e9 de3e
00000030: 414f a03e 6ce9 f1be 4984 ccbe 64ca 1dbe
00000040: e2c9 e1bf 5836 88be 3c29 9abd 0973 0abf
00000050: a4f5 72be e0b6 c43e efca 083f 584c a9be

weight f4 [8, 24, 1]
0.2117487 0.09713666 0.093275465 0.026236549 -0.17133044 0.14706175 -0.061452083 0.09280688
-0.124328025 -0.034411408 -0.13371885 -0.5189185 -0.03148398 -0.08347336 0.091135226 -0.033488058
0.046754405 0.12732589 -0.043807276 -0.11995406 -0.22926039 -0.37107497 0.013778843 -0.23009741
-0.31722906 0.10372221 0.9849649 0.3306174 -0.31916174 0.4374244 0.22288036 -0.40532982
0.6709467 -0.5069049 -0.29987884 0.15491053 -1.3288507 -0.088055074 -0.1994118 0.41336682
0.45628336 0.15481915 -0.93161136 0.2917496 -0.21129997 -0.41546202 -0.10418904 0.300575
-0.14076257 0.29845926 0.16794191 -0.48494756 0.07349991 -0.20436777 -0.3487558 0.26855007
0.050613374 0.004295162 0.05053686 0.045816578 0.042220894 0.13063148 0.1683082 -0.06843349
0.22401565 0.021140903 -0.09689605 -0.27640632 -0.23879404 -0.22045925 0.07864902 0.18126519
-0.24144949 0.26330483 -0.3276827 0.20426825 -0.011471056 0.064038135 -0.017341238 0.07118081
-0.12019705 0.24752305 -0.1982929 0.16588989 0.20921893 -0.3190579 -0.10062141 -0.050243627
0.01806921 -0.031556044 0.13938844 -0.07862655 0.040550638 -0.29064977 0.016723793 0.19038013
-0.27768514 -0.8161288 -0.4769677 0.812588 -0.2452504 0.10816311 -0.18092655 0.30069977
-0.081004836 -0.16072038 0.0817729 0.5077 0.09696861 -0.27689052 0.14772028 -0.37744898
0.40461296 0.14590591 -0.08935366 -0.32107088 -0.20751433 0.2242602 -0.03269657 -0.037286848
-0.43959704 0.24929117 -0.23126128 -0.39982483 0.36726353 -0.4326411 -0.2749576 -0.32107705
-0.054016527 0.19272536 0.57623035 0.067567304 -0.36531207 0.35031435 0.21909133 -0.34968072
0.55612695 0.05008499 -0.30974323 -0.58101726 -0.50527716 0.01591793 -0.25460103 0.10832901
-0.16008475 0.20585121 0.105784796 0.054148026 0.27338427 0.023857098 0.19998159 0.044903386
0.1792315 0.16947669 -0.16970947 -0.44501758 0.04613614 -0.4336619 -0.21253951 -0.42700145
-0.2406155 0.35714838 0.40849626 0.35306337 0.32358646 0.13696146 -0.09867746 -0.123946354
-0.07565665 -1.0716318 0.95164126 -0.21323273 0.32815397 0.2674114 0.07724679 -0.23247197
0.30422506 0.14122984 -0.3585967 -0.7556914 -0.77593106 -0.06579183 -0.06777283 -0.15019979
-0.3162482 -0.14630258 0.05656703 0.44121185 0.19977757 -1.2363387 -0.13873695 -0.0156162875
00000000: a7d4 583e 96ef c63d 3507 bf3d 08ee d63c
00000010: 3f71 2fbe 5b97 163e 2eb5 7bbd 8911 be3d
00000020: b19f febd faf2 0cbd 98ed 08be d8d7 04bf
00000030: 59f5 00bd 15f4 aabd 1ba5 ba3d c62a 09bd
00000040: 8c81 3f3d b861 023e 426f 33bd 79aa f5bd
00000050: 3cc3 6abe 8afd bdbe a8c0 613c a89e 6bbe
00000060: d96b a2be 4f6c d43d a926 7c3f af46 a93e
00000070: 2b69 a3be 17f6 df3e c03a 643e 6487 cfbe
00000080: 2ac3 2b3f 85c4 01bf b889 99be dea0 1e3e
00000090: c817 aabf 3856 b4bd 9b32 4cbe d1a4 d33e
000000a0: f99d e93e e988 1e3e 157e 6ebf 3460 953e
000000b0: 055f 58be 70b7 d4be 1061 d5bd f7e4 993e
000000c0: 1024 10be a7cf 983e f7f8 2b3e 0c4b f8be
000000d0: 1f87 963d c945 51be 1f90 b2be 657f 893e
000000e0: f84f 4f3d 6ebe 8c3b bdff 4e3d 2aaa 3b3d
000000f0: d1ef 2c3d 42c4 053e fc58 2c3e dc26 8cbd
00000100: 5c64 653e b02f ad3c 7071 c6bd 2185 8dbe
00000110: 6d86 74be 12c0 61be bd12 a13d 959d 393e
00000120: 893e 77be e4cf 863e 07c6 a7be b22b 513e
00000130: 19f1 3bbc 6d26 833d 360f 8ebc 3fc7 913d
00000140: df29 f6bd af76 7d3e 4b0d 4bbe 0adf 293e
00000150: 7d3d 563e 8f5b a3be 9912 cebd 43cc 4dbd
00000160: e105 943c e940 01bd d8bb 0e3e f506 a1bd
00000170: 6d18 263d 0cd0 94be 5600 893c 02f3 423e
00000180: bf2c 8ebe d1ed 50bf 1c35 f4be c405 503f
00000190: ec22 7bbe 9f84 dd3d cf44 39be 52f5 993e
000001a0: dde5 a5bd e293 24be 8d78 a73d a1f8 013f
000001b0: 7b97 c63d 98c4 8dbe fc43 173e fe40 c1be
000001c0: 6e29 cf3e 5c68 153e 0dff b6bd 6763 a4be
000001d0: a37e 54be 77a4 653e d7ec 05bd 18ba 18bd
000001e0: dd12 e1be 2f46 7f3e c2cf 6cbe d7b5 ccbe
000001f0: f709 bc3e 2283 ddbe 3ec7 8cbe 3664 a4be
00000200: 6f40 5dbd cc59 453e d583 133f ba60 8a3d
00000210: 2f0a bbbe 675c b33e 7a59 603e 5a09 b3be
00000220: 565e 0e3f eb25 4d3d aa96 9ebe 8cbd 14bf
00000230: d859 01bf 5266 823c 115b 82be 9adb dd3d
00000240: 42ed 23be a9ca 523e b3a5 d83d 52ca 5d3d
00000250: 06f9 8b3e f66f c33c f9c7 4c3e 9dec 373d
00000260: 7688 373e 4c8b 2d3e 52c8 2dbe 58d9 e3be
00000270: 40f9 3c3d ef08 debe f5a3 59be ef9f dabe
00000280: e963 76be 27dc b63e 6c26 d13e b9c4 b43e
00000290: 20ad a53e a03f 0c3e 6817 cabd 96d7 fdbd
000002a0: e0f1 9abd 3b2b 89bf c39e 733f ae59 5abe
000002b0: cc03 a83e 26ea 883e 9133 9e3d 220d 6ebe
000002c0: 63c3 9b3e 8e9e 103e fd99 b7be fe74 41bf
000002d0: 6ba3 46bf debd 86bd 7bcc 8abd f9cd 19be
000002e0: 49eb a1be 58d0 15be d4b2 673d 85e6 e13e
000002f0: 7e92 4c3e 5940 9ebf 0f11 0ebe 75db 7fbc

bias f4 [8]
0.059018616 -0.76842904 -0.22850268 -0.072285526 0.4338072 -0.20536314 -0.24561888 -1.9417925
00000000: 81bd 713d c4b7 44bf 9bfc 69be 6f0a 94bd
00000010: fa1b de3e b74a 52be 8483 7bbe a88c f8bf
