models/teste-uncloss-ss3_ss4_buried.pth (torch_old, 63311 bytes, 78 tensors)

weight f4 [8, 22, 1]
0.22326367 -0.4518541 -0.35391682 -0.22573543 0.068200424 0.18682003 0.25186613 0.14371249
-0.56630796 0.12938614 0.32985473 0.018255627 0.123356536 0.3308915 0.11277802 0.0065868897
-0.0943257 0.18951923 -0.3421166 0.35468924 0.12108619 -0.15871644 0.7240271 -0.9039263
0.5131063 0.048329156 -0.12653781 0.24888743 -0.19241437 -0.0031007326 -0.27156645 0.43504068
-0.4219391 -0.22563258 0.17694698 0.07471551 -0.0223092 0.17062566 -0.051118422 -0.12065189
-0.57639784 -0.71948415 0.4913894 0.614657 -0.6437827 0.03410016 0.22001752 0.19271506
0.035228603 0.5555136 -0.22367688 0.5741149 0.00956266 -0.14522427 0.1979668 0.015943348
-0.29969138 -0.2754023 0.18444641 0.11225042 0.2061891 0.37339634 0.096608035 0.7175318
0.091870084 -0.20278916 -0.19827177 -0.13160436 0.49607614 0.1542807 0.42894354 0.3188146
-0.72953683 0.47214866 0.88140327 0.039964605 0.5096282 0.6029981 0.0030466935 -0.04356935
0.16437092 0.28514838 0.19737998 0.06983418 0.04660541 0.013704454 0.26021385 -0.34107602
-0.5232628 0.04894887 -0.24504046 0.010993203 -0.35012668 0.56887096 0.04907681 0.06450778
0.08927776 -0.034288254 0.31521943 0.41927186 0.072299816 0.16004044 -0.057911992 -0.08826056
-0.3124233 -0.064401835 0.23742585 0.8340508 0.40468913 -0.16396461 1.0581979 -0.12478654
-0.08181034 0.082849324 0.32254457 0.07438683 -0.33629233 0.44581097 0.08342376 0.27306572
-0.14017364 0.20637076 -0.0006786247 0.31384403 0.20782977 -0.3809677 0.2829832 0.27763575
-0.23799053 -0.13634549 -0.28622648 0.8612458 0.011779149 0.164079 -0.20882283 0.058447152
0.3412384 -0.012566199 0.08106707 0.1550797 0.04995533 0.13274078 -0.11762715 0.20997646
0.011534074 0.07865637 0.037517834 -0.2737258 -0.046773016 -0.174144 -0.01997871 -0.27285808
-0.016037539 1.6175942 -1.4659717 0.2280779 0.13145743 -0.48899302 -0.00014025377 0.37693635
-0.68666124 0.19013822 0.49202067 0.09317941 0.024365492 0.4941785 -0.560066 -0.6390481
0.005576259 0.19318183 -0.42805862 -0.023718653 0.5424389 0.55216694 0.36101377 -0.27122217
00000000: 3b9f 643e 6c59 e7be 9634 b5be 3027 67be
00000010: aaac 8b3d c04d 3f3e 99f4 803e 5e29 133e
00000020: 8ff9 10bf cd7d 043e b8e2 a83e d38c 953c
00000030: 5aa2 fc3d 9c6a a93e 2af8 e63d d6d6 d73b
00000040: d52d c1bd 5411 423e e829 afbe d499 b53e
00000050: 09fc f73d 9086 22be d759 393f b767 67bf
00000060: ef5a 033f cbf4 453d 2193 01be 59dc 7e3e
00000070: 4608 45be a935 4bbb c20a 8bbe a7bd de3e
00000080: 6708 d8be 3a0c 67be 9731 353e 7204 993d
00000090: c9c1 b6bc 7eb8 2e3e 8d61 51bd 5718 f7bd
000000a0: cf8e 13bf 1d30 38bf 6497 fb3e 295a 1d3f
000000b0: f1ce 24bf 9cac 0b3d 464c 613e 1957 453e
000000c0: de4b 103d 2436 0e3f 8d0b 65be 32f9 123f
000000d0: b4ac 1c3c acb5 14be cfb7 4a3e a09b 823c
000000e0: 2671 99be 8801 8dbe 85df 3c3e 8ce3 e53d
000000f0: 3c23 533e ce2d bf3e 6fda c53d 2ab0 373f
00000100: 6226 bc3d f6a7 4fbe c107 4bbe 4bc3 06be
00000110: b1fd fd3e c3fb 1d3e 7d9e db3e ab3b a33e
00000120: edc2 3abf 78bd f13e a5a3 613f edb1 233d
00000130: fe76 023f 155e 1a3f 09ab 473b c675 32bd
00000140: da50 283e f8fe 913e fa1d 4a3e 3905 8f3d
00000150: 50e5 3e3d a588 603c c03a 853e 84a1 aebe
00000160: 8df4 05bf 9c7e 483d e3eb 7abe d61c 343c
00000170: ce43 b3be 87a1 113f c404 493d a81c 843d
00000180: 42d7 b63d d771 0cbd 7164 a13e cdaa d63e
00000190: ed11 943d a4e1 233e 2035 6dbd f4c1 b4bd
000001a0: f2f5 9fbe 1ce5 83bd c31f 733e 5a84 553f
000001b0: 6a33 cf3e 57e6 27be 0773 873f 1690 ffbd
000001c0: 2e8c a7bd e8ac a93d 9024 a53e 1f58 983d
000001d0: 822e acbe 5641 e43e 14da aa3d 45cf 8b3e
000001e0: ae89 0fbe db52 533e bce5 31ba 2ab0 a03e
000001f0: 54d1 543e 330e c3be 2de3 903e 4626 8e3e
00000200: cab3 73be 279e 0bbe 478c 92be 9b7a 5c3f
00000210: 55fd 403c 5304 283e a7d5 55be 4866 6f3d
00000220: cdb6 ae3e 75e2 4dbc 7e06 a63d 36cd 1e3e
00000230: f69d 4c3d 33ed 073e 81e6 f0bd 1204 573e
00000240: 6af9 3c3c 9716 a13d 4dac 193d ca25 8cbe
00000250: 1095 3fbd ce52 32be 64aa a3bc 0eb4 8bbe
00000260: 2861 83bc 540d cf3f f6a4 bbbf 418d 693e
00000270: c79c 063e 4b5d fabe 1611 13b9 cdfd c03e
00000280: 08c9 2fbf 98b3 423e 22ea fb3e d9d4 be3d
00000290: 249a c73c f704 fd3e 7c60 0fbf a898 23bf
000002a0: 0db9 b63b 75d1 453e 802a dbbe 9f4d c2bc
000002b0: 47dd 0a3f d05a 0d3f ccd6 b83e a2dd 8abe

weight f4 [8]
0.08003967 0.15180522 0.18655215 0.40369156 0.25454086 0.120265745 0.20046009 0.30156854
00000000: d7eb a33d d472 1b3e 8707 3f3e a9b0 ce3e
00000010: 2e53 823e e34d f63d 6945 4d3e 3167 9a3e

weight f4 [8, 8, 3]
0.14627375 0.051389348 -0.36000767 0.33001012 0.27324405 -0.3779433 -0.02226342 -0.21139424
-0.10416549 0.60588866 0.2621306 -0.17940237 0.3641363 0.27478862 -0.9736078 0.084575795
-0.17048569 -0.2113791 0.028582606 0.45325896 -0.009621021 0.46271166 -0.5380648 -0.19488238
-0.47891986 -0.28246507 -0.33291784 -0.07918524 0.17713362 -0.120263666 0.07129414 0.2887407
-0.28093734 0.050427835 -0.24661951 0.0030665298 -0.1476267 -0.43465513 0.16916019 0.1691673
-0.009123306 -0.3950437 -0.30368936 0.32421842 0.112510204 0.37848997 -0.049410336 -0.16668089
-0.10017248 -0.0012369023 0.41741952 -0.36940297 0.2027519 -0.15476291 -0.2961515 0.15793426
0.036825866 -0.05288578 0.1485004 0.1050956 0.0047951755 0.40253645 -0.20969363 -0.35298908
-0.44275126 0.05491687 0.24445328 0.07741066 -0.28628623 -0.094621696 0.16151144 -0.108783536
-0.3192096 -0.13633333 -0.4954723 0.03669079 0.37195653 0.24530487 -0.085858546 0.6053025
0.11761753 0.15385738 -0.07144914 -0.28099626 -0.24421781 -0.6531238 0.046072178 0.11869461
-0.44693917 0.03632341 0.48773006 0.2515752 0.284305 -0.11684032 -0.7071036 0.20372671
-0.13090943 0.31245136 -0.14633259 -0.09524638 0.29990122 -0.30845794 0.07862491 -0.041194227
-0.16589576 -0.16490185 -0.31009826 -0.31040648 0.4578306 -0.07743096 -0.3739111 0.6141671
0.2647494 0.1250208 0.086109065 0.73998415 -0.040559784 -0.56257385 -0.13838007 -0.41230053
0.36208937 0.3517378 0.17039314 0.12987001 0.49862352 0.20123273 0.2572063 -0.14970289
-0.5209362 0.06121893 0.17653255 -0.21774289 -0.016830787 0.40547898 0.3678531 0.35290438
-0.07106769 -0.0104055945 -0.07012768 -0.22123513 -0.12928872 0.12675741 0.3686749 -0.0025984345
-0.111655 0.1534984 0.040965118 0.7239599 -0.020714972 -0.06067391 -0.07697525 -0.010784586
-0.5197087 -0.12712404 0.09361761 0.30029684 -0.37610742 0.2454746 -0.6891492 0.014810813
-0.027370889 -0.17711323 -0.3096849 0.24404426 -0.05823849 -0.175031 -0.030715328 -0.12124805
0.28351745 -0.24296884 0.15126011 -0.073761314 0.23215957 0.14757735 -0.17859896 0.32278356
-0.11295624 -0.26890144 -0.32371998 -0.007387124 0.18345584 -0.020250497 0.0072845486 -0.19123057
0.34782302 -0.53751975 -0.35300457 -0.21363282 -0.12217857 0.04066381 0.27807918 0.29491606
00000000: c9c8 153e a37d 523d ed52 b8be 16f7 a83e
00000010: a5e6 8b3e c981 c1be c761 b6bc bb77 58be
00000020: b754 d5bd 851b 1b3f fb35 863e 41b5 37be
00000030: 1370 ba3e 18b1 8c3e 5c3e 79bf 1336 ad3d
00000040: cd93 2ebe c373 58be 1226 ea3c 8f11 e83e
00000050: 7da1 1dbc 8be8 ec3e 9dbe 09bf 3f8f 47be
00000060: fc34 f5be 439f 90be 3574 aabe df2b a2bd
00000070: 8462 353e cc4c f6bd a902 923d d2d5 933e
00000080: 05d7 8fbe 6b8d 4e3d d389 7cbe d5f7 483b
00000090: 742b 17be 1e8b debe 5438 2d3e 313a 2d3e
000000a0: eb79 15bc 2b43 cabe 2c7d 9bbe f5ff a53e
000000b0: c06b e63d 70c9 c13e 7e62 4abd 65ae 2abe
000000c0: 3b27 cdbd 8e1f a2ba 03b8 d53e 6322 bdbe
000000d0: 329e 4f3e 2b7a 1ebe 2ba1 97be 85b9 213e
000000e0: b8d6 163d c29e 58bd 7d10 183e 5d3c d73d
000000f0: d920 9d3b 4219 ce3e edb9 56be fcba b4be
00000100: 4bb0 e2be 83f0 603d f651 7a3e 7b89 9e3d
00000110: 1c94 92be 05c9 c1bd 4163 253e e7c9 debd
00000120: 716f a3be f79a 0bbe 8cae fdbe 1549 163d
00000130: 1671 be3e 3331 7b3e 9bd6 afbd 1bf5 1a3f
00000140: 76e1 f03d ca8c 1d3e ed53 92bd bede 8fbe
00000150: 3c14 7abe 1f33 27bf 2eb6 3c3d 2916 f33d
00000160: 36d5 e4be dbc7 143d c1b7 f93e 77ce 803e
00000170: 6d90 913e fa49 efbd be04 35bf bc9d 503e
00000180: 1f0d 06be a0f9 9f3e 36d8 15be 8910 c3bd
00000190: a78c 993e 33ee 9dbe 1906 a13d 47bb 28bd
000001a0: 94e0 29be 08dc 28be 33c5 9ebe 99ed 9ebe
000001b0: c668 ea3e 2094 9ebd 4771 bfbe 0e3a 1d3f
000001c0: 3c8d 873e 7405 003e f359 b03d 9a6f 3d3f
000001d0: 0422 26bd d704 10bf 81b3 0dbe 0e19 d3be
000001e0: c763 b93e fa16 b43e 8a7b 2e3e a5fc 043e
000001f0: 954b ff3e f40f 4e3e 8bb0 833e b74b 19be
00000200: 135c 05bf b3c0 7a3d f3c4 343e fef7 5ebe
00000210: b8e0 89bc f19a cf3e 3e57 bc3e e2af b43e
00000220: f08b 91bd 3a7c 2abc 1a9f 8fbd 768b 62be
00000230: 4364 04be b2cc 013e f5c2 bc3e 7f4a 2abb
00000240: 60ab e4bd af2e 1d3e 0acb 273d 7055 393f
00000250: 72b2 a9bc 3585 78bd 33a5 9dbd d5b1 30bc
00000260: a10b 05bf ce2c 02be 97ba bf3d 82c0 993e
00000270: 2791 c0be b25d 7b3e 156c 30bf 0da9 723c
00000280: ea38 e0bc 2c5d 35be 058f 9ebe bde6 793e
00000290: 7c8b 6ebd 543b 33be b69e fbbc e650 f8bd
000002a0: 3329 913e d3cc 78be eee3 1a3e 2c10 97bd
000002b0: 3dbb 6d3e 841e 173e a5e2 36be e343 a53e
000002c0: 9a55 e7bd 73ad 89be a0be a5be b00f f2bb
000002d0: d9db 3b3e 5fe4 a5bc 39b3 ee3b f2d1 43be
000002e0: dc15 b23e e59a 09bf 04bd b4be 90c2 5abe
000002f0: c238 fabd 188f 263d 6560 8e3e 3dff 963e

bias f4 [8]
-0.15504718 0.040462885 0.17108412 0.10300622 -0.13357067 0.06623263 -0.041332755 -0.006200604
00000000: b0c4 1ebe 69bc 253d ad30 2f3e edf4 d23d
00000010: c0c6 08be f9a4 873d 894c 29bd 702e cbbb

weight f4 [8]
0.40312558 0.34287092 0.33264157 0.4824607 0.34583285 0.2921893 0.29420805 0.320021
00000000: 7a66 ce3e c78c af3e ff4f aa3e 1705 f73e
00000010: 0111 b13e d699 953e 70a2 963e cbd9 a33e

weight f4 [8, 8, 3]
-0.030477129 -0.10458944 0.05283112 -0.11094959 -0.22416754 0.0040489244 0.1290153 0.34472728
-0.13767812 0.03206708 -0.18041815 -0.005194141 0.12048751 0.29438052 -0.55422103 0.046701033
0.0916646 -0.11334041 -0.2679401 0.2609925 0.14449558 -0.093553245 -0.4510133 0.18348382
-0.2607044 0.22462547 -0.33224097 0.2468305 -0.37559745 -0.4839807 -0.56430197 -0.015282327
0.0671595 0.021024683 0.19441569 -0.0617203 0.10729782 -0.0015197475 -0.032109097 0.10026896
0.20108838 -0.13344696 0.35680467 -0.36243665 0.29623917 0.122474805 0.085633665 0.39754164
0.058486532 -0.22830698 0.063462794 -0.38995582 -0.29982674 -0.07054951 0.07213321 0.54321426
-0.16421789 0.3009416 -0.06058266 -0.2586779 0.08469613 0.54610837 -0.2531634 0.08250201
0.39766806 -0.13347855 0.21135595 0.05490464 -0.18701285 -0.11477341 0.42151254 0.028380835
-0.16724627 0.08748865 0.13491802 0.87467337 -0.08186026 0.12078867 -0.25781962 0.18322845
0.3917612 0.19333416 -0.026587112 -0.04096835 -0.30491975 -0.57410914 0.081316985 0.16256236
0.0046633133 0.107541986 -0.33399284 -0.19857834 -0.18795554 0.51763964 -0.123991385 0.5431173
0.2475845 0.2848623 0.034134205 -0.30397403 0.4873267 0.35506535 -0.27072343 -0.13572681
0.46969584 0.31682453 0.26112178 0.16328298 -0.12643635 0.43908983 -0.031221863 -0.13467398
-0.45155662 -0.58099574 -0.013548288 -0.06108619 -0.03366484 0.10811076 0.47893128 -0.32944626
-0.103711605 0.08676191 0.040370002 0.6085621 -0.72100216 0.57582706 -0.055202585 -0.19618672
0.29249308 0.15259722 0.016347805 -0.06443639 -0.09210551 -0.1471461 0.45799455 0.18291482
-0.17502503 -0.34976038 0.119063474 0.22104679 0.024014287 0.12642254 -0.8155423 0.26363987
0.18806182 -0.64835006 -0.14697802 0.16612406 -0.20724161 -0.42014182 0.30755934 -0.083291195
0.23355894 -0.22457044 0.32188764 -0.15342319 0.30232146 -0.18579672 -0.869009 -0.19839875
-0.024601389 0.0728951 -0.1449308 -0.059166864 -0.1657667 0.025214031 0.24261734 0.39811128
0.066155136 0.2915635 0.08935038 0.06291272 -0.3629026 0.26003176 -0.5271269 -0.5239168
0.18918023 0.026848504 0.1618394 -0.16983864 -0.070447475 -0.1405664 0.011538325 0.42334065
-0.4612114 0.08074176 -0.14086314 -0.19346398 -0.0847282 -0.26681083 0.17396872 -0.047753405
00000000: 2cab f9bc fd32 d6bd 7265 583d 8a39 e3bd
00000010: 2d8c 65be d7ac 843b 961c 043e 1880 b03e
00000020: 7efb 0cbe c558 033d 89bf 38be 9d33 aabb
00000030: 28c2 f63d 0bb9 963e 6ee1 0dbf 9549 3f3d
00000040: a6ba bb3d 041f e8bd 722f 89be cfa0 853e
00000050: a6f6 133e d898 bfbd 37eb e6be 2fe3 3b3e
00000060: 0c7b 85be 3804 663e 7d1b aabe 22c1 7c3e
00000070: 4f4e c0be 51cc f7be 1876 10bf ba62 7abc
00000080: ec8a 893d f53b ac3c e814 473e 6dce 7cbd
00000090: f6be db3d 4432 c7ba d484 03bd d059 cd3d
000000a0: 1dea 4d3e 52a6 08be 1aaf b63e 4c91 b9be
000000b0: a9ac 973e 12d4 fa3d b460 af3d 948a cb3e
000000c0: 938f 6f3d 4ec9 69be c8f8 813d 4aa8 c7be
000000d0: e482 99be 437c 90bd 94ba 933d 1710 0b3f
000000e0: bc28 28be 0415 9a3e 8625 78bd 6e71 84be
000000f0: 2a75 ad3d c2cd 0b3f a29e 81be d0f6 a83d
00000100: 269b cb3e 9aae 08be b26d 583e b0e3 603d
00000110: 4c80 3fbe 520e ebbd 7ed0 d73e ed7e e83c
00000120: 9b42 2bbe 402d b33d f327 0a3e 98ea 5f3f
00000130: 5aa6 a7bd 0d60 f73d ef00 84be 3da0 3b3e
00000140: ed94 c83e 64f9 453e 37cd d9bc 6ece 27bd
00000150: 711e 9cbe d1f8 12bf 8589 a63d bf76 263e
00000160: b5ce 983b f93e dc3d 1c01 abbe 1f58 4bbe
00000170: 6b77 40be 0884 043f 32ef fdbd bc09 0b3f
00000180: cb86 7d3e 79d9 913e 4fd0 0b3d 7ca2 9bbe
00000190: e382 f93e 20cb b53e 439c 8abe f8fb 0abe
000001a0: f97b f03e d336 a23e c1b1 853e a733 273e
000001b0: 8878 01be 62d0 e03e fec4 ffbc fae7 09be
000001c0: 6e32 e7be 23bc 14bf a3f9 5dbc 8335 7abd
000001d0: 25e4 09bd 2d69 dd3d 7b36 f53e 2ead a8be
000001e0: c066 d4bd 3ab0 b13d 045b 253d baca 1b3f
000001f0: 9993 38bf 6769 133f 1b1c 62bd 2ce5 48be
00000200: a7c1 953e 7242 1c3e d5eb 853c 3af7 83bd
00000210: d0a1 bcbd 78ad 16be 437e ea3e 064e 3b3e
00000220: c339 33be cb13 b3be 8dd7 f33d 175a 623e
00000230: 9cb9 c43c e974 013e 61c7 50bf cefb 863e
00000240: 4793 403e 45fa 25bf 6881 16be 6d1c 2a3e
00000250: 2537 54be d41c d7be 6b78 9d3e 9394 aabd
00000260: 132a 6f3e cbf5 65be 75ce a43e f81a 1dbe
00000270: e1c9 9a3e 7f41 3ebe 6077 5ebf 0b29 4bbe
00000280: da88 c9bc 074a 953d bd68 14be f458 72bd
00000290: bfbe 29be a88d ce3c ae70 783e 3ed5 cb3e
000002a0: 587c 873d d047 953e 55fd b63d 62d8 803d
000002b0: 5fce b9be e222 853e caf1 06bf 691f 06bf
000002c0: 76b8 413e 65f1 db3c 3ab9 253e 2eea 2dbe
000002d0: c446 90bd a3f0 0fbe 3e0b 3d3c 1bc0 d83e
000002e0: e723 ecbe f05b a53d 6d3e 10be 6c1b 46be
000002f0: fb85 adbd 6e9b 88be db24 323e 1399 43bd

bias f4 [8]
0.15031901 -0.20517899 0.18450609 0.19573584 0.042353395 -0.22552334 0.24213794 0.020889893
00000000: 3aed 193e 711a 52be 2aef 3c3e fa6e 483e
00000010: c17a 2d3d 97ef 66be 02f3 773e 4821 ab3c

weight f4 [8]
0.19092937 0.20889837 0.30897585 0.37849703 0.26965207 0.2790678 0.3001228 0.35736257
00000000: fd82 433e 74e9 553e 1532 9e3e 5dca c13e
00000010: d60f 8a3e fae1 8e3e b2a9 993e 3af8 b63e

weight f4 [8, 8, 3]
0.1935848 0.1691811 0.3441957 -0.1327256 -0.14376268 0.3724818 -0.106403515 -0.09400805
-0.26860067 -0.5422168 -0.18002282 0.11292318 0.3321593 0.1323702 0.26219666 -0.22663052
-0.5828188 -0.097296946 0.006699834 -0.3676585 -0.8399855 -0.091690846 0.31220502 -0.16495043
0.16539004 -0.4743349 -0.10738028 0.24684344 -0.37960815 0.1955346 0.5335257 -0.34110218
0.003542601 0.2649791 -0.3538867 0.09759393 0.095945925 0.06763084 0.16788156 -0.026381005
0.13892756 -0.13338552 -0.75546443 0.40021965 0.00083483773 0.031125303 -0.16914406 -0.45217657
0.19122921 -0.59277713 -0.2257893 -0.11944033 0.005668529 -0.04614491 0.13356633 -0.08491532
-0.23312473 -0.17331481 0.5455647 0.19649453 -0.16984086 0.30694652 0.0708121 0.18824632
-0.004884257 -0.0058745295 -0.789228 0.25247797 -0.43277264 0.07573737 0.073504865 -0.15381077
0.058369726 -0.740924 -0.084541135 0.27356607 -0.07729983 0.04406126 -0.38879013 -0.54976296
0.12175445 -0.024139153 -0.16386826 0.13995253 0.123182125 0.42508873 -0.46632457 -0.044792265
0.633084 0.042249855 -0.14735964 -0.09669429 -0.0032232013 0.61902624 -0.24356204 0.22222662
-0.1765278 -0.24554233 -0.3454926 0.66688234 0.28473955 -0.07438726 -0.181314 -0.02944032
-0.05256021 0.4138542 0.44307697 -0.012987912 0.26895198 -0.20249346 0.22944027 -0.2824332
0.108609006 -0.08622018 0.31246915 -0.05676258 0.37903795 0.21530403 -0.16223206 -0.15836348
0.19414067 0.7185985 0.30804995 0.22401357 -0.12212535 0.053106908 0.15495211 0.412978
0.06285439 -0.083272405 0.42866567 -0.28014255 -0.10462552 -0.05046404 0.09635307 0.09989403
0.6370393 -0.29493186 -0.065417625 -0.014765404 -0.3402919 -0.28848174 0.34425086 0.060633544
-0.04715273 -0.30762175 -0.50650865 -0.008087043 -0.07082076 -0.08680841 0.19214433 0.056122955
0.33813518 0.8421811 0.19153382 0.12467691 -0.57459754 -0.5618669 0.15138367 -0.38900787
-0.36435157 -0.2860276 -0.19165389 0.2885302 0.16883163 0.07733445 0.2185546 -0.09895239
0.2506923 0.13727504 0.2657784 0.040991325 -0.18248995 -0.16467758 0.72728556 -0.05021161
-0.05375985 0.019221736 0.31283423 -0.052738156 -0.07906402 -0.24654007 -0.26051635 0.04425712
0.3400578 0.31416827 -0.31982917 -0.46431938 -0.26442784 0.42364982 0.0051136715 0.48765078
00000000: 183b 463e cf3d 2d3e 6b3a b03e 38e9 07be
00000010: 8636 13be efb5 be3e 16ea d9bd 4b87 c0bd
00000020: 0786 89be b8ce 0abf e757 38be 4544 e73d
00000030: c910 aa3e 0e8c 073e a43e 863e d511 68be
00000040: 9d33 15bf 9f43 c7bd 488a db3b bc3d bcbe
00000050: 4a09 57bf 69c8 bbbd 56d9 9f3e c4e8 28be
00000060: 025c 293e 06dc f2be 31ea dbbd 87c4 7c3e
00000070: 005c c2be 393a 483e 2495 083f f2a4 aebe
00000080: fb2a 683b 57ab 873e a330 b5be 54df c73d
00000090: 4c7f c43d 0a82 8a3d 25e9 2b3e fa1c d8bc
000000a0: 0743 0e3e 3796 08be 1e66 41bf 97e9 cc3e
000000b0: 03d9 5a3a 7efa fe3c 1a34 2dbe b083 e7be
000000c0: 97d1 433e 3ec0 17bf 4f35 67be 229d f4bd
000000d0: 11bf b93b 7202 3dbd 9dc5 083e 15e8 adbd
000000e0: 40b8 6ebe 7079 31be 21aa 0b3f dd35 493e
000000f0: c3ea 2dbe 1828 9d3e ef05 913d a5c3 403e
00000100: 1e0c a0bb 207f c0bb d90a 4abf cb44 813e
00000110: 6094 ddbe 321c 9b3d b889 963d 9280 1dbe
00000120: 1815 6f3d 32ad 3dbf e723 adbd da10 8c3e
00000130: 604f 9ebd 9479 343d 800f c7be 44bd 0cbf
00000140: 665a f93d 79bf c5bc 15cd 27be b74f 0f3e
00000150: e946 fc3d 3ba5 d93e 18c2 eebe 1878 37bd
00000160: cb11 223f 2f0e 2d3d 72e5 16be a807 c6bd
00000170: 583c 53bb 8178 1e3f 5468 79be 608f 633e
00000180: b4c3 34be 736f 7bbe 68e4 b0be cdb8 2a3f
00000190: 62c9 913e 5958 98bd 61aa 39be d32c f1bc
000001a0: 6049 57bd b3e4 d33e fcda e23e 40cb 54bc
000001b0: 13b4 893e 725a 4fbe 64f2 6a3e 169b 90be
000001c0: 666e de3d 3594 b0bd f5fb 9f3e e17f 68bd
000001d0: 4311 c23e a978 5c3e 2920 26be 092a 22be
000001e0: d0cc 463e 12f6 373f b9b8 9d3e d063 653e
000001f0: db1c fabd a186 593d c4ab 1e3e da71 d33e
00000200: cdb9 803d b98a aabd 117a db3e d86e 8fbe
00000210: e845 d6bd 62b3 4ebd c254 c53d 3e95 cc3d
00000220: 0215 233f 4f01 97be adf9 85bd 98ea 71bc
00000230: bd3a aebe e1b3 93be a641 b03e e15a 783d
00000240: 3923 41bd 9980 9dbe 8daa 01bf 847f 04bc
00000250: 7a0a 91bd 9cc8 b1bd 7cc1 443e 2fe1 653d
00000260: 0e20 ad3e 2e99 573f 7121 443e 9c56 ff3d
00000270: d318 13bf 82d6 0fbf 5204 1b3e 0a2c c7be
00000280: 4a8c babe 3672 92be eb40 44be 3bba 933e
00000290: 33e2 2c3e 8661 9e3d c7cc 5f3e 8da7 cabd
000002a0: be5a 803e d491 0c3e 1b14 883e 85e6 273d
000002b0: a5de 3abe 3da1 28be 632f 3a3f b0aa 4dbd
000002c0: 4a33 5cbd e776 9d3c cf2b a03e f703 58bd
000002d0: 51ec a1bd 0075 7cbe 6662 85be f446 353d
000002e0: 0e1c ae3e aada a03e a6c0 a3be 45bb edbe
000002f0: 1663 87be a1e8 d83e 9690 a73b 5dad f93e

bias f4 [8]
-0.1609332 0.046317805 0.13503528 0.057075974 0.022326395 0.18102781 0.20463814 0.09180383
00000000: accb 24be bdb7 3d3d b046 0a3e 7fc8 693d
00000010: d8e5 b63c 5b5f 393e a98c 513e a503 bc3d

weight f4 [8]
0.20667197 0.44377223 0.2548335 0.25692922 0.27991572 0.248312 0.84084976 0.85608405
00000000: d1a1 533e 1d36 e33e 8979 823e 3a8c 833e
00000010: 1d51 8f3e 8045 7e3e ee41 573f 5328 5b3f

weight f4 [8, 8, 3]
0.003657289 -0.13807018 0.156773 0.1989745 -0.20379817 -0.2279766 0.2192377 -0.37077504
0.577079 -0.116461046 0.081184834 -0.42351505 -0.08452426 0.14880276 0.36707833 0.008849032
0.21623768 -0.10487352 0.27124068 0.3429213 0.22655807 -0.1506984 -0.037671767 -0.024688825
0.6315961 -0.03956427 -0.3853805 0.3677172 0.6368754 0.011592473 0.09186789 0.5219357
0.35147417 -0.32211044 -0.47891155 -0.10684162 0.07797244 -0.08158545 -0.09076477 0.13780214
-0.18123737 -0.45213065 -0.20718843 -0.22542877 0.20000637 0.08225937 -0.107122235 -0.38024208
-0.2008183 -0.12240506 -0.042204786 -0.096189186 -0.014272206 -0.07775342 -0.43220496 -0.23996392
0.32508662 0.11583404 0.4742765 0.2678491 0.42563185 0.29564634 -0.30178133 -0.2978458
-0.024182986 -0.14696468 -0.17909595 -0.121275075 -0.24975523 0.16461985 -0.052332316 -0.31979084
0.6407832 0.34704787 -0.23949583 -0.027956685 -0.31747794 0.08556984 -0.14422482 -0.0027526466
-0.10742341 -0.042229734 -0.5672381 -0.19851391 0.08185316 0.17616424 0.18004802 0.4617952
0.04878259 -0.11759943 0.19058561 0.12316114 0.06526595 -0.15516785 0.06135427 0.24646473
0.23529342 0.33517691 0.37061396 -0.37575617 -0.25249 0.31498435 -0.030248327 0.09633925
0.32874718 -0.051686287 -0.5203868 0.21440995 0.2287528 -0.19933759 -0.24665925 -0.20785417
-0.3847821 -0.23357551 0.080031864 0.57952386 0.82778096 0.04709236 -0.17162031 0.36915827
-0.27160564 0.047257468 -0.105960414 0.3729745 -0.30250698 0.059399977 0.34386346 -0.266365
-0.098621905 0.04228544 -0.22249094 -0.32236212 0.034173604 0.089268215 0.18699697 0.6756509
-0.32134148 0.09511074 0.47261396 -0.17702982 0.2672538 -0.51043427 0.24491264 0.20474297
-0.018276835 -0.111628704 0.2721402 0.58585596 -0.42836368 0.13698635 -0.668877 0.05232496
-0.47955552 -0.3593568 0.10156513 0.39733773 -0.17697652 0.008955495 0.5319555 -0.11059148
-0.019648083 0.26423967 0.21765874 -0.037113108 -0.35621318 -0.24935375 -0.27412277 0.525296
-0.041183084 -0.7958513 0.09416074 0.13725731 0.1274441 0.16741058 -0.032924 -0.052906375
0.14342557 -0.35473993 0.23110488 -0.3036123 0.089958996 -0.09741519 0.4031005 -0.30018017
-0.23727788 0.06471306 0.25204417 -0.270246 0.026377773 0.2493169 -0.02869884 0.13469297
00000000: 21af 6f3b 4562 0dbe 1a89 203e f9bf 4b3e
00000010: 78b0 50be b372 69be d97f 603e 3ad6 bdbe
00000020: 73bb 133f 2183 eebd 3c44 a63d f7d6 d8be
00000030: 0e1b adbd c05f 183e b1f1 bb3e 88fb 103c
00000040: 696d 5d3e eec7 d6bd 0fe0 8a3e 6193 af3e
00000050: d7fe 673e ae50 1abe b64d 1abd 3840 cabc
00000060: 48b0 213f 250e 22bd 9850 c5be 6e45 bc3e
00000070: 440a 233f 5bee 3d3c 3b25 bc3d 949d 053f
00000080: 6cf4 b33e a9eb a4be e533 f5be c7cf dabd
00000090: 04b0 9f3d 4616 a7bd e1e2 b9bd 011c 0d3e
000000a0: 4a96 39be ab7d e7be 3429 54be cdd6 66be
000000b0: 78ce 4c3e 9a77 a83d e762 dbbd 17af c2be
000000c0: 50a3 4dbe 81af fabd edde 2cbd d6fe c4bd
000000d0: f9d5 69bc 2f3d 9fbd f849 ddbe 1ab9 75be
000000e0: c171 a63e 663a ed3d 5fd4 f23e 8423 893e
000000f0: 6bec d93e f55e 973e 1583 9abe 3f7f 98be
00000100: 661b c6bc e97d 16be ee64 37be 115f f8bd
00000110: d6bf 7fbe 1b92 283e 695a 56bd a0bb a3be
00000120: 5e0a 243f 42b0 b13e 653e 75be 6b05 e5bc
00000130: 788c a2be 3e3f af3d acaf 13be bf65 34bb
00000140: ce00 dcbd 16f9 2cbd 8436 11bf 3b47 4bbe
00000150: a1a2 a73d 6664 343e 825e 383e 6c70 ec3e
00000160: 41d0 473d f8d7 f0bd e028 433e e83b fc3d
00000170: 28aa 853d 52e4 1ebe 9d4e 7b3d 4061 7c3e
00000180: c2f0 703e 4f9c ab3e 1dc1 bd3e 1d63 c0be
00000190: 5f46 81be a145 a13e 57cb f7bc 834d c53d
000001a0: 8d51 a83e 00b5 53bd 1238 05bf 488e 5b3e
000001b0: 2d3e 6a3e 271f 4cbe 3e94 7cbe b9d7 54be
000001c0: 2902 c5be 6b2e 6fbe bfe7 a33d ad5b 143f
000001d0: 74e9 533f ebe3 403d 3cbd 2fbe 5002 bd3e
000001e0: e50f 8bbe 0c91 413d c601 d9bd 83f6 be3e
000001f0: 32e2 9abe 644d 733d df0e b03e fe60 88be
00000200: 48fa c9bd 7f33 2d3d aad4 63be a60c a5be
00000210: 9ff9 0b3d 41d2 b63d 227c 3f3e 75f7 2c3f
00000220: df86 a4be 6bc9 c23d 75fa f13e 4e47 35be
00000230: 7dd5 883e d2ab 02bf 61ca 7a3e 24a8 513e
00000240: 4db9 95bc 979d e4bd f655 8b3e a8fa 153f
00000250: 7c52 dbbe 2646 0c3e 863b 2bbf b252 563d
00000260: 4d88 f5be 9dfd b7be 6101 d03d da6f cb3e
00000270: 5539 35be 12ba 123c 3c2e 083f c97d e2bd
00000280: 04f5 a0bc 6c4a 873e efe1 5e3e ea03 18bd
00000290: 9361 b6be 9756 7fbe d259 8cbe cc79 063f
000002a0: 98af 28bd e9bc 4bbf 59d7 c03d 2e8d 0c3e
000002b0: b580 023e ae6d 2b3e 51db 06bd 5bb4 58bd
000002c0: 27de 123e 79a0 b5be c2a6 6c3e 1273 9bbe
000002d0: 6c3c b83d 9d81 c7bd 3063 ce3e 37b1 99be
000002e0: f9f8 72be 4888 843d ef0b 813e af5d 8abe
000002f0: 3316 d83c ee4c 7f3e d419 ebbc f4ec 093e

bias f4 [8]
0.0312204 -0.1647205 0.1037402 0.072162874 -0.052755073 -0.17193073 0.03768101 0.124223985
00000000: edc1 ff3c 7eac 28be be75 d43d 21ca 933d
00000010: b415 58bd 9c0e 30be 6757 1a3d 2569 fe3d

weight f4 [8]
-0.48032114 0.29083264 0.25430608 0.35110945 0.23478298 0.15583676 0.3301599 0.34585977
00000000: a7ec f5be 04e8 943e 6834 823e 9ec4 b33e
00000010: f36a 703e ac93 1f3e b80a a93e 8814 b13e

weight f4 [8, 8, 3]
-0.18436396 -0.110076405 0.24861665 0.15504372 -0.06876105 0.35964978 0.10463123 0.12242992
0.2031708 -0.2863352 -0.4193119 0.124923006 -0.06624537 0.24796423 0.13723278 0.30431634
-0.20947322 0.38768208 -0.29824924 -0.5935015 -0.17773525 -0.060379103 -0.28773522 0.083436616
-0.20452006 -0.16959792 0.06485315 -0.24515358 -0.20998967 -0.0031128777 0.3611614 0.14043328
0.25541124 0.074503005 0.036621578 0.2708212 -0.09900526 -0.29278943 -0.18656231 -0.12368401
-0.18595627 0.30877662 0.15908498 0.30859938 -0.12981339 0.35188714 -0.18106802 -0.22303839
-0.7099156 0.07920167 0.14438619 0.27239302 -0.18535785 -0.35383797 0.587551 -0.12243211
-0.04307937 -0.2610984 0.13301262 0.39777684 0.078539446 0.27226645 -0.21448341 -0.120398365
0.039057102 0.1292163 -0.3022277 -0.3434294 -0.050352648 0.06664344 0.23210044 0.27113125
-0.36643484 0.33192578 -0.12879167 0.089268416 -0.33816236 0.086702436 -0.08137123 0.39163083
0.3634481 0.123943076 0.41209993 -0.28135908 -0.025234912 0.3127842 -0.016507693 0.21011351
-0.023564974 0.16026103 -0.11705343 0.047042638 -0.0284204 -0.09607198 -0.11704668 -0.031272557
-0.14220637 0.3276376 -0.46016592 -0.57586205 0.053582557 -0.3000058 -0.13921472 0.26087835
-0.402842 -0.06414223 0.5927084 -0.17719811 -0.19705392 0.12604177 0.21365826 0.33839893
-0.33499262 -0.23716278 0.031371143 0.11922693 -0.315541 -0.32761306 -0.43075973 0.14247748
0.42061564 0.46129072 -0.3973099 -0.56481206 -0.21078753 0.48411366 0.2518157 0.18239164
0.08881404 0.16966201 0.06576451 -0.25341764 0.12082116 -0.18787852 0.4969403 -0.01637265
0.06978563 -0.11498429 -0.16654877 -0.28905007 -0.095335044 0.42608148 0.31256235 -0.40397626
0.14025545 0.36258876 -0.5616196 0.06501852 -0.0067387214 -0.02824017 0.27931258 0.44713148
0.10563546 -0.8398875 0.0766486 0.019114977 -0.020394905 -0.06563667 -0.14616767 0.082191154
0.12978978 -0.37190333 0.18484573 -0.20281431 -0.07162209 -0.350443 0.13380368 0.10666363
-0.07567779 -0.06515001 -0.13237278 -0.57702494 0.10672191 0.32632273 0.39461493 0.23402907
-0.06091619 0.4500992 -0.08467781 -0.09827168 -0.051358975 -0.09032352 -0.19889915 -0.50754815
0.3051829 0.47868195 -0.16989204 -0.13075046 0.023293253 -0.3037193 0.5559719 0.14794633
00000000: e8c9 3cbe bd6f e1bd 5d95 7e3e c8c3 1e3e
00000010: 98d2 8cbd 0424 b83e e648 d63d 8abc fa3d
00000020: 020c 503e 879a 92be 0db0 d6be a2d7 ff3d
00000030: a7ab 87bd 56ea 7d3e c086 0c3e 5acf 9b3e
00000040: 2680 56be 447e c63e 20b4 98be b7ef 17bf
00000050: 3b00 36be 1450 77bd 0852 93be d1e0 aa3d
00000060: b56d 51be 14ab 2dbe bad1 843d 8a09 7bbe
00000070: 8807 57be 6c01 4cbb 26ea b83e becd 0f3e
00000080: 43c5 823e 0895 983d 8200 163d 14a9 8a3e
00000090: 45c3 cabd 7fe8 95be 310a 3fbe 0b4e fdbd
000000a0: 526b 3ebe f817 9e3e 2ce7 223e bd00 9e3e
000000b0: cded 04be 8d2a b43e e569 39be 2d64 64be
000000c0: 07bd 35bf 7c34 a23d f9d9 133e 1977 8b3e
000000d0: 73ce 3dbe 402a b5be be69 163f b0bd fabd
000000e0: fe73 30bd b1ae 85be 7634 083e 68a9 cb3e
000000f0: 4ad9 a03d 8266 8b3e 8aa1 5bbe 6b93 f6bd
00000100: 57fa 1f3d 4751 043e 97bd 9abe fad5 afbe
00000110: 943e 4ebd 5b7c 883d bdab 6d3e b7d1 8a3e
00000120: 599d bbbe 2df2 a93e f7e1 03be 5cd2 b63d
00000130: 9e23 adbe 0c91 b13d f6a5 a6bd d683 c83e
00000140: df15 ba3e ded5 fd3d c3fe d23e 4c0e 90be
00000150: 72b9 cebc 4025 a03e 243b 87bc ff27 573e
00000160: 550b c1bc 781b 243e b5b9 efbd c8af 403d
00000170: e6d1 e8bc 63c1 c4bd 2bb6 efbd a717 00bd
00000180: 8c9e 11be 1ec0 a73e de9a ebbe b26b 13bf
00000190: 6279 5b3d 5c9a 99be 4e8e 0ebe d991 853e
000001a0: 4e41 cebe 005d 83bd bdbb 173f 6c73 35be
000001b0: 81c8 49be 1811 013e 3bc9 5a3e a042 ad3e
000001c0: 2784 abbe cdda 72be 077f 003d 402d f43d
000001d0: 978e a1be e6bc a7be 8a8c dcbe 9ee5 113e
000001e0: ef5a d73e 4c2e ec3e 346c cbbe 8697 10bf
000001f0: b0d8 57be bfdd f73e fded 803e e0c4 3a3e
00000200: 23e4 b53d e1bb 2d3e 8baf 863d f5bf 81be
00000210: 1671 f73d 3a63 40be f66e fe3e f01f 86bc
00000220: c5eb 8e3d e27c ebbd c38b 2abe 5ffe 93be
00000230: 053f c3bd 5a27 da3e 2c08 a03e fad5 cebe
00000240: 209f 0f3e 3ca5 b93e 4dc6 0fbf 6e28 853d
00000250: 7ed0 dcbb ee57 e7bc 0f02 8f3e 6bee e43e
00000260: 6757 d83d de02 57bf f1f9 9c3d 0397 9c3c
00000270: 3713 a7bc 856c 86bd faac 15be d653 a83d
00000280: 9de7 043e 1d6a bebe 3348 3d3e 8eae 4fbe
00000290: 9aae 92bd 446d b3be d503 093e 7672 da3d
000002a0: f5fc 9abd 5e6d 85bd bb8c 07be e8b7 13bf
000002b0: 0491 da3d c613 a73e f80a ca3e 51a5 6f3e
000002c0: 4183 79bd 6773 e63e 8f6b adbd aa42 c9bd
000002d0: ca5d 52bd 8afb b8bd 38ac 4bbe adee 01bf
000002e0: ef40 9c3e cd15 f53e 2ef8 2dbe 73e3 05be
000002f0: 7ed1 be3c 1981 9bbe 2d54 0e3f 3e7f 173e

bias f4 [8]
-0.1308923 -0.05671608 0.056759413 0.097698 0.05060728 -0.015342325 0.08407741 -0.15661725
00000000: a208 06be 1f4f 68bd 8f7c 683d e415 c83d
00000010: 9449 4f3d 605e 7bbc c730 ac3d 4660 20be

weight f4 [8]
0.21214487 0.40081692 0.33654583 0.103890054 0.34216994 0.519854 0.21488176 0.3774673
00000000: 813c 593e e037 cd3e bc4f ac3e 4fc4 d43d
00000010: e630 af3e 2715 053f f709 5c3e 6543 c13e

weight f4 [8, 8, 3]
-0.14175339 -0.2193184 -0.16127326 -0.19431485 0.3784551 0.3591175 -0.30061468 -0.07473942
0.5616275 0.21023229 0.12024088 -0.08879576 -0.15073854 0.117154084 0.1921612 -0.048393328
-0.32728428 -0.20906952 -0.06904796 -0.6376202 -0.2896634 0.58696395 0.103529364 -0.09175295
-0.61607045 0.3517121 -0.1596209 0.332554 0.010663769 0.26757935 -0.031680595 -0.03158544
-0.11139032 -0.26741186 0.044037722 -0.7662157 -0.16556714 -0.14251244 -0.08129146 0.21999566
-0.5874971 -0.039138958 0.31233647 0.17228541 -0.024161374 -0.009122925 0.16807376 0.12240008
-0.04966588 -0.20979735 -0.06955104 0.13778274 -0.68657786 -0.13127448 0.041523285 -0.31047878
-0.44792575 0.34453893 -0.16617133 -0.15601727 0.027312825 -0.59496236 -0.63210386 -0.25791475
-0.5657959 -0.18731238 -0.19271584 -0.17868218 0.293553 -0.25086054 -0.4065807 -0.35786504
0.24377494 0.70447177 0.043611903 -0.22617048 0.13316125 -0.062483512 -0.012267541 0.12208949
-0.084270604 0.103797115 0.36488563 0.17863955 -0.08499965 -0.076726794 -0.25014848 -0.0019986932
0.021599308 0.45943925 -0.29414338 0.16824721 0.03972039 -0.3480531 0.3481567 0.646335
-0.44930828 -0.107733525 0.17556581 0.613617 0.61008435 -0.011829741 0.090164095 -0.05169953
0.0015110489 0.00028398447 -0.090244144 0.015165872 -0.12917387 -0.43104404 0.039546378 0.19506441
-0.028639903 -0.03209879 0.6336371 0.25916937 0.11593891 -0.54690063 -0.33197662 0.28210795
0.76017576 -0.08760733 -0.119230166 0.03485859 -0.07085253 0.18646024 0.0215993 -0.061852045
-0.03136316 -0.22901876 0.30768245 -0.2082681 -0.32230312 -0.024050495 0.6045954 -0.15532953
0.27758738 -0.2191318 0.25677678 -0.20189331 0.09204428 -0.1133537 0.09894167 0.34659955
-0.2761507 0.32753497 0.10586493 0.5480069 0.19871753 -0.35534933 -0.32620478 -0.5883946
0.043259457 0.1699531 -0.13829513 -0.46502262 -0.54007584 0.41760802 0.07265786 0.13198236
-0.09705013 -0.10945352 -0.32257697 0.1228521 0.4328182 0.08065844 0.15508686 0.007394392
0.28345048 -0.29857856 0.24515042 0.34211335 -0.10719892 -0.097948626 0.04075964 -0.3755393
-0.27525622 -0.43356362 0.15498002 -0.13479884 -0.37659687 0.037794713 -0.061944384 -0.16285503
-0.3974957 -0.37912706 0.042431347 0.42481074 0.29484072 0.26402602 -0.0949418 -0.12044682
00000000: cd27 11be 0195 60be d124 25be 79fa 46be
00000010: dec4 c13e 40de b73e 2bea 99be fb10 99bd
00000020: d2c6 0f3f 2247 573e da40 f63d 8dda b5bd
00000030: 345b 1abe 7bee ef3d e8c5 443e 1538 46bd
00000040: ce91 a7be 5216 56be 0469 8dbd 143b 23bf
00000050: c34e 94be 4543 163f 3407 d43d f8e8 bbbd
00000060: cbb6 1dbf 9c13 b43e a973 23be 8544 aa3e
00000070: 17b7 2e3c 2900 893e 83c3 01bd bc5f 01bd
00000080: 9c20 e4bd 35ea 88be e660 343d b626 44bf
00000090: 6f8a 29be c8ee 11be 237c a6bd 8b46 613e
000000a0: 3666 16bf 2c50 20bd 91ea 9f3e 966b 303e
000000b0: 13ee c5bc 5278 15bc 871b 2c3e e5ac fa3d
000000c0: 736e 4bbd 1ed5 56be c770 8ebd eb16 0d3e
000000d0: 91c3 2fbf d16c 06be 5214 2a3d 13f7 9ebe
000000e0: 8656 e5be 6867 b03e d128 2abe fec2 1fbe
000000f0: 25bf df3c 744f 18bf 8fd1 21bf 670d 84be
00000100: 00d8 10bf d1ce 3fbe 4d57 45be 76f8 36be
00000110: 944c 963e cb70 80be 582b d0be 163a b7be
00000120: 23a0 793e 4358 343f 65a2 323d 3c99 67be
00000130: 6c5b 083e b6ee 7fbd ccfd 48bc 0e0a fa3d
00000140: 1196 acbd 9593 d43d 4ad2 ba3e 49ed 363e
00000150: 4c14 aebd f022 9dbd 7613 80be 82fc 02bb
00000160: 08f1 b03c 9f3b eb3e f699 96be ff48 2c3e
00000170: d9b1 223d 0434 b2be 9841 b23e 3676 253f
00000180: bc0b e6be 65a3 dcbd 86c7 333e 0116 1d3f
00000190: 7d2e 1c3f 88d1 41bc f4a7 b83d e3c2 53bd
000001a0: 630e c63a c0e3 9439 ecd1 b8bd 477a 783c
000001b0: 2846 04be ceb1 dcbe 62fb 213d f7be 473e
000001c0: 3b9e eabc 057a 03bd 0a36 223f d9b1 843e
000001d0: 6171 ed3d ae01 0cbf d7f8 a9be 7470 903e
000001e0: e19a 423f 796b b3bd f22e f4bd e2c7 0e3d
000001f0: 221b 91bd 6fef 3e3e 04f1 b03c 9258 7dbd
00000200: a876 00bd e583 6abe 8e88 9d3e 3c44 55be
00000210: ea04 a5be 8b05 c5bc c4c6 1a3f b40e 1fbe
00000220: ef1f 8e3e 1664 60be 3f78 833e 1fbd 4ebe
00000230: b681 bc3d fc25 e8bd eea1 ca3d 7f75 b13e
00000240: a063 8dbe aab2 a73e b6cf d83d 2e4a 0c3f
00000250: 9c7c 4b3e 59f0 b5be 5004 a7be 07a1 16bf
00000260: d430 313d 2f08 2e3e 3d9d 0dbe 7217 eebe
00000270: 6942 0abf b8d0 d53e a5cd 943d 6226 073e
00000280: 38c2 c6bd 2b29 e0bd cf28 a5be e299 fb3d
00000290: 599a dd3e 4130 a53d 17cf 1e3e a84c f23b
000002a0: 6c20 913e 4adf 98be b608 7b3e 7b29 af3e
000002b0: 1b8b dbbd 4a99 c8bd 95f3 263d b046 c0be
000002c0: 62ee 8cbe 0dfc ddbe 15b3 1e3e b508 0abe
000002d0: 4ed1 c0be a1ce 1a3d 65b9 7dbd 78c3 26be
000002e0: 8e84 cbbe f11c c2be 7ecc 2d3d cb80 d93e
000002f0: 5df5 963e 6b2e 873e d970 c2bd d3ac f6bd

bias f4 [8]
-0.05501313 -0.10999353 -0.21610205 0.008456653 -0.023200324 0.090068035 0.13314344 0.18782513
00000000: 7355 61bd 4a44 e1bd db49 5dbe c68d 0a3c
00000010: 9b0e bebc 9775 b83d c156 083e 3b55 403e

weight f4 [8]
0.67233646 0.23322698 0.2544311 0.20716318 0.44673535 0.36719558 0.33739018 0.26093003
00000000: 3e1e 2c3f 0ed3 6e3e cb44 823e 9622 543e
00000010: 7fba e43e 0f01 bc3e 68be ac3e 9f98 853e

weight f4 [8, 8, 3]
-0.08320658 0.22069423 0.8486781 -0.19790712 0.036600184 -0.16191517 0.1219055 0.13745251
0.3327908 0.1666988 -0.31692895 -0.056133818 0.18012443 0.006060697 -0.30979759 -0.29880735
0.111630134 -0.20167674 0.17552964 0.33680063 -0.06451268 0.5744456 0.11417607 0.12525485
-0.0290785 0.06685806 -0.098184034 0.40489566 -0.37383205 -0.031136513 -0.021307547 0.19931096
-0.05999307 -0.3148902 0.0632849 0.12648742 -0.11707126 -0.24007078 -0.023940437 0.22183187
-0.32979575 -0.2007572 0.2065102 -0.2689509 -0.09012813 -0.29103512 0.10165782 0.8046508
-0.11547738 0.36522672 0.25125763 -0.11326026 -0.26593184 -0.3003627 -0.033384293 -0.53783846
0.434612 0.4424273 -0.030321654 -0.54580015 0.32868734 -0.1136674 0.10405896 0.13433857
0.0664367 0.041247528 0.1130778 -0.19211903 -0.17729734 0.15878557 -0.2635172 -0.21360171
-0.10083261 0.045627397 -0.27782738 -0.6361952 -0.25228542 -0.057529792 0.013932559 -0.2871165
-0.20660219 0.21856984 -0.2127169 0.4312109 -0.123063855 -0.01810809 -0.26769337 -0.10745894
-0.0056532295 -0.11877927 0.4339818 0.023350757 0.19787742 -0.27301276 0.19608423 0.27697873
-0.4252419 0.44491476 -0.16396704 0.2708988 -0.29460603 -0.5247248 0.5345183 -0.18528818
0.23162895 -0.030922284 0.2614498 0.42562225 -0.2033331 0.15022208 -0.16207404 -0.3749207
-0.48858896 -0.28600678 0.08241845 -0.049101874 -0.52443945 -0.5086891 -0.050633207 0.026386345
0.7981755 0.13935825 0.11929852 -0.13107309 0.14922798 -0.19608994 0.039161503 0.07462109
-0.70202756 0.32725105 -0.30452543 0.057197295 0.111931324 0.06643041 0.43174893 0.18432505
-0.07828989 0.53503525 -0.20511809 -0.4436373 -0.18471707 -0.27804312 -0.29283452 -0.15389366
-0.08012299 0.29650453 0.122955196 0.7203854 0.25787005 -0.21842034 -0.14187239 0.5418424
0.094605595 -0.17239136 0.35332316 -0.4007543 -0.024124358 -0.13476261 0.35122207 -0.280098
0.004272325 -0.23748547 -0.277621 0.20798534 0.22959325 0.29179326 0.24540487 0.0007720393
0.249258 0.2949458 -0.051929776 -0.10776013 0.3231395 0.098792866 0.04097892 0.17570694
-0.25000066 0.47974423 -0.2516398 -0.006596116 0.33692616 -0.079628766 0.0447462 0.4318956
-0.3441004 0.07463067 -0.042460676 -0.26838264 -0.24961074 0.3770499 -0.027032066 0.25803867
00000000: 3668 aabd abfd 613e f842 593f 2aa8 4abe
00000010: 13ea 153d 17cd 25be 97a9 f93d 5ac0 0c3e
00000020: 8e63 aa3e 17b3 2a3e 8344 a2be 93ec 65bd
00000030: 8a72 383e d098 c63b ca9d 9ebe 47fd 98be
00000040: 579e e43d 5984 4ebe 0bbe 333e 2271 ac3e
00000050: 391f 84bd de0e 133f 25d5 e93d cf42 003e
00000060: 0936 eebc e1ec 883d b614 c9bd 7c4e cf3e
00000070: ea66 bfbe 0012 ffbc 2a8d aebc 2c18 4c3e
00000080: 4bbb 75bd 4a39 a1be 839b 813d eb85 013e
00000090: 0fc3 efbd 1dd5 75be bc1e c4bc e527 633e
000000a0: fdda a8be 4c93 4dbe 6977 533e efb3 89be
000000b0: 1995 b8bd 8e02 95be fa31 d03d 98fd 4d3f
000000c0: 687f ecbd fffe ba3e d7a4 803e fff4 e7bd
000000d0: 3828 88be 24c9 99be f8bd 08bd c8af 09bf
000000e0: 7785 de3e d585 e23e 1e65 f8bc 8fb9 0bbf
000000f0: b549 a83e 74ca e8bd dd1c d53d 0d90 093e
00000100: f70f 883d 2bf3 283d 5595 e73d daba 44be
00000110: 6f8d 35be af98 223e baeb 86be 68ba 5abe
00000120: 5481 cebd cbe3 3a3d 643f 8ebe b0dd 22bf
00000130: 8e2b 81be 5ca4 6bbd 6345 643c ef00 93be
00000140: 868f 53be c6d0 5f3e 76d2 59be adc7 dc3e
00000150: e708 fcbd 6b57 94bc 1b0f 89be 6f13 dcbd
00000160: ba3e b9bb 8c42 f3bd dd32 de3e 164a bf3c
00000170: 61a0 4a3e 54c8 8bbe 4eca 483e 28d0 8d3e
00000180: 4eb9 d9be decb e33e fae6 27be 3fb3 8a3e
00000190: 9ad6 96be 5d54 06bf 31d6 083f 2fbc 3dbe
000001a0: 2430 6d3e bb50 fdbc c0dc 853e 29eb d93e
000001b0: 8d36 50be d1d3 193e bdf6 25be 9bf5 bfbe
000001c0: 5528 fabe 7b6f 92be 01cb a83d 0c1f 49bd
000001d0: aa41 06bf 7339 02bf c464 4fbd 2d28 d83c
000001e0: 3b55 4c3f eeb3 0e3e c852 f43d 0638 06be
000001f0: 38cf 183e cdcb 48be d067 203d f1d2 983d
00000200: 14b8 33bf 738d a73e c2ea 9bbe b647 6a3d
00000210: 403c e53d ab0c 883d 320e dd3e b5bf 3c3e
00000220: 7356 a0bd 12f8 083f 7a0a 52be 6e24 e3be
00000230: 7926 3dbe ab5b 8ebe 68ee 95be 4d96 1dbe
00000240: 8617 a4bd 71cf 973e efcf fb3d 2d6b 383f
00000250: 8b07 843e 95a9 5fbe ff46 11be 2fb6 0a3f
00000260: 94c0 c13d 5c87 30be c6e6 b43e ab2f cdbe
00000270: 72a0 c5bc 36ff 09be 61d3 b33e 0169 8fbe
00000280: dcfe 8b3b 642f 73be 5724 8ebe 1cfa 543e
00000290: 7e1a 6b3e ed65 953e 6a4b 7b3e ae62 4a3a
000002a0: 7d3d 7f3e 2303 973e 51b4 54bd 58b1 dcbd
000002b0: 8a72 a53e ea53 ca3d 83d9 273d 85ec 333e
000002c0: 1600 80be 09a1 f53e efd6 80be 3b24 d8bb
000002d0: 9681 ac3e 6814 a3bd cb47 373d 6c21 dd3e
000002e0: ed2d b0be f7d7 983d 3feb 2dbd 7369 89be
000002f0: f599 7fbe af0c c13e 5a72 ddbc a51d 843e

bias f4 [8]
0.18653448 -0.10967456 0.08276555 0.017280104 -0.093818106 -0.15484567 -0.25054562 -0.19087657
00000000: e502 3f3e 0e9d e0bd fc80 a93d 018f 8d3c
00000010: b523 c0bd dd8f 1ebe 8447 80be 2675 43be

weight f4 [8]
0.36346442 0.123281166 0.39123598 0.30988196 0.44520864 -0.17849824 0.27416715 1.2845601
00000000: 0218 ba3e d67a fc3d 1550 c83e d9a8 9e3e
00000010: 63f2 e33e 3ec8 36be a35f 8c3e 776c a43f

weight f4 [8, 8, 3]
0.39708093 0.10374597 0.11557345 -0.1639803 -0.0038357207 -0.35800767 -0.011693382 -0.12176824
0.2848048 0.3554957 0.1401816 0.110772625 0.30571562 0.33760634 0.22064316 0.18164887
0.23829363 0.31252524 0.34816486 -0.32516927 -0.29869565 -0.049129862 -0.05702852 -0.018511878
-0.029829068 0.1756938 -0.44273573 -0.18034759 -0.13838027 0.038576927 0.35122085 -0.3178228
-0.09888212 0.09891198 -0.056619126 0.27345425 -0.6390448 0.23517126 -0.029278127 0.027764505
0.028798759 -0.48897833 -0.13645612 0.017216273 0.18902966 -0.06767704 0.22610725 -0.122111075
-0.39197993 -0.1829072 -0.27355894 0.23918426 0.04007295 -0.05168495 -0.062280573 -0.08885782
-0.01940389 -0.18030481 0.07545748 -0.33908564 -0.5069563 0.08847923 0.18861297 -0.15983538
0.26488644 -0.07880124 -0.052020673 -0.017068725 0.38473386 -0.621339 0.44692153 0.21215887
-0.43173727 0.1370581 -0.19921157 0.6011616 -0.07529104 0.08954945 -0.0016484975 0.019671774
-0.07327534 -0.39016598 -0.023579786 -0.050455973 0.36426613 -0.3553967 0.07773191 -0.22849864
-0.17036675 -0.19904904 0.08164273 -0.054120917 0.32832986 0.01691442 -0.0583403 -0.12885407
-0.01289864 0.033424236 0.26453358 -0.08787748 0.13369872 -0.11484424 -0.8068867 0.039498307
-0.53209287 -0.39473844 0.66378605 0.20676687 -0.26123586 -0.051092632 0.056661896 0.12819023
-0.33367756 -0.03569524 0.16714987 0.25217742 0.10281676 0.06833133 -0.40410167 -0.09636034
0.1605182 0.37799066 0.108000256 0.14193782 -0.2204847 -0.048362046 0.31093094 0.036362763
0.15586513 -0.2199652 -0.16255024 0.54967785 0.26251808 0.2410548 0.26376218 -0.4326587
-0.09344512 -0.028041296 -0.5002658 -0.009850649 0.29581186 0.22845367 -0.32957062 -0.37031028
0.20939472 -0.7319919 0.18107268 -0.13768072 -0.11862309 0.19366042 -0.41476643 -0.04063706
0.65340096 0.59111774 0.17414129 -0.073221534 0.080746405 -0.083694585 0.036503337 0.2696717
-0.15252522 -0.12997118 0.18457477 0.23166601 0.23460348 0.27223873 0.34376773 0.41802487
0.12778623 0.06188689 -0.41897613 -0.12681572 -0.055313107 0.67160976 0.6114115 0.22441526
0.07039774 0.09762301 0.030891934 0.426833 -0.24553011 0.5667517 -0.33192623 0.15630117
0.20599599 -0.010396059 0.3330821 -0.06736537 -0.5791658 -0.02540564 -0.114263184 -0.051681854
00000000: 314e cb3e c478 d43d c6b1 ec3d 74ea 27be
00000010: b760 7bbb c84c b7be 9995 3fbc a161 f9bd
00000020: efd1 913e 8803 b63e c48b 0f3e c2dc e23d
00000030: c286 9c3e bdda ac3e 48f0 613e 2902 3a3e
00000040: 3f03 743e 4f03 a03e aa42 b23e 967c a6be
00000050: a3ee 98be 653c 49bd bd96 69bd 39a6 97bc
00000060: 175c f4bc 13e9 333e 42ae e2be 0aad 38be
00000070: 8fb3 0dbe d702 1e3d 38d3 b33e acb9 a2be
00000080: b582 cabd 5d92 ca3d 75e9 67bd 3202 8c3e
00000090: 7198 23bf bcd0 703e afd8 efbc 6372 e33c
000000a0: 60eb eb3c 5e5b fabe 27bb 0bbe 2409 8d3c
000000b0: fe90 413e 439a 8abd a988 673e 5f15 fabd
000000c0: 98b1 c8be 064c 3bbe eb0f 8cbe b8ec 743e
000000d0: 8923 243d 99b3 53bd ea19 7fbd 17fb b5bd
000000e0: e8f4 9ebc d3a1 38be 7489 9a3d a29c adbe
000000f0: e3c7 01bf 9934 b53d c223 413e e3ab 23be
00000100: 329f 873e 8b62 a1bd a113 55bd b6d3 8bbc
00000110: d6fb c43e 1310 1fbf e6d2 e43e 2d40 593e
00000120: ab0c ddbe f558 0c3e 1efe 4bbe bae5 193f
00000130: 3032 9abd b465 b73d 6612 d8ba b326 a13c
00000140: 6211 96bd d6c3 c7be 652a c1bc ecaa 4ebd
00000150: 1781 ba3e 8ef6 b5be e831 9f3d 8cfb 69be
00000160: 9f74 2ebe 83d3 4bbe 4e34 a73d e5ad 5dbd
00000170: da1a a83e 1c90 8a3c 3df6 6ebd 52f2 03be
00000180: d154 53bc dae7 083d f270 873e 1cf9 b3bd
00000190: 51e8 083e 7533 ebbd 2090 4ebf fac8 213d
000001a0: 3d37 08bf 281b cabe e2ed 293f b2ba 533e
000001b0: b5c0 85be 8246 51bd 4e16 683d 4d44 033e
000001c0: c9d7 aabe 2c35 12bd 5629 2b3e 661d 813e
000001d0: 9891 d23d 4cf1 8b3d 6ae6 cebe 9258 c5bd
000001e0: e25e 243e fe87 c13e 3d2f dd3d 2658 113e
000001f0: bec6 61be 4817 46bd 5732 9f3e 1ff1 143d
00000200: 1c9b 1f3e 8f3e 61be 9273 26be b0b7 0c3f
00000210: c568 863e 12d7 763e d60b 873e 7185 ddbe
00000220: 2860 bfbd dcb6 e5bc 6b11 00bf 9e64 21bc
00000230: a774 973e c2ef 693e 7bbd a8be 4f99 bdbe
00000240: 926b 563e d263 3bbf 1e6b 393e 2dfc 0cbe
00000250: aaf0 f2bd eb4e 463e 445c d4be 0c73 26bd
00000260: 4945 273f 7e53 173f 1852 323e 2cf5 95bd
00000270: 5f5e a53d 1168 abbd 8684 153d 6912 8a3e
00000280: 922f 1cbe 2a17 05be 2b01 3d3e db39 6d3e
00000290: e53b 703e e062 8b3e 5302 b03e 5b07 d63e
000002a0: 65da 023e 1c7d 7d3d 0a84 d6be fbdb 01be
000002b0: ff8f 62bd 9eee 2b3f 7785 1c3f 1dcd 653e
000002c0: b12c 903d 93ee c73d 1511 fd3c db89 da3e
000002d0: 3f6c 7bbe a416 113f 3cf2 a9be 6a0d 203e
000002e0: 9df0 523e 3b54 2abc bd89 aa3e dbf6 89bd
000002f0: 3644 14bf 7d1f d0bc d102 eabd 5ab0 53bd

bias f4 [8]
0.1582463 0.14813274 -0.051524986 -0.0984976 0.16813034 0.14208409 -0.024703573 0.04732597
00000000: 510b 223e 1cb0 173e dd0b 53bd 1cb9 c9bd
00000010: 5c2a 2c3e 7e7e 113e 265f cabc e0d8 413d

weight f4 [8]
-0.46465814 0.24360622 0.3001618 0.70670444 0.28740278 0.24581577 0.28128642 0.12244166
00000000: ace7 edbe e973 793e cfae 993e 95ea 343f
00000010: 7526 933e 21b7 7b3e c604 903e b1c2 fa3d

weight f4 [8, 8, 3]
0.122944124 -0.2018619 0.24623707 0.15671332 0.44828838 0.0031076767 0.030322295 0.5025237
0.16330817 -0.30131546 -0.5825542 -0.07830119 -0.021057429 0.40978384 0.52919364 -0.019969264
0.11869145 0.15670305 0.12461531 -0.5047434 0.06393753 -0.19515981 -0.17060089 -0.19929135
0.0260012 -0.22418025 0.47804314 0.110572346 0.47683313 -0.6192788 -0.30150092 0.045924008
0.3198022 0.43135706 0.106419675 0.16256154 0.14280808 0.745014 0.08461188 -0.084118396
-0.18598838 0.43292633 -0.018025266 -0.052009657 0.20815448 0.006909279 0.08556221 -0.19151855
0.15268485 0.06850291 -0.37314 0.6764334 0.25994155 0.072033845 0.14748168 0.0087697925
-0.07463911 0.41338527 0.16368483 0.29369128 -0.34283823 0.23487116 0.37852255 -0.0033216886
-0.19286478 0.15027651 -0.09205632 0.2917969 -0.05546256 0.10886307 -0.16416104 -0.34182867
0.1683463 0.10028218 -0.37956554 0.22949702 0.18808746 -0.7548339 -0.23465362 0.031982724
-0.33604813 0.38047093 -0.37114897 -0.40735173 0.19636929 -0.32883242 0.4689205 -0.48682556
0.27964196 -0.3646406 -0.22855437 0.26035672 0.41658616 -0.0010369812 0.34679762 0.20145851
-0.14326783 0.49718857 -0.5875356 0.376582 0.42750394 -0.11303917 0.3213741 0.04534979
0.83406484 0.04779512 0.06840065 0.20740218 0.12651893 -0.051198993 0.05159201 -0.19064963
-0.12971318 0.13527307 -0.11352202 0.038291052 0.26332453 -0.043715246 0.32851335 -0.21778138
-0.11345483 0.03831737 -0.0038355333 -0.61817676 -0.20988895 -0.2958293 -0.1476433 -0.3151645
0.15470326 -0.06534658 0.06789874 0.3223727 -0.0320684 0.21091399 -0.4267599 0.38845125
-0.16092081 0.54659575 0.07081233 -0.2817064 0.28905392 -0.16511953 -0.18262513 -0.24660446
0.0684574 0.07652874 -0.6102553 0.1387697 -0.32903552 -0.57995355 0.122789845 0.04794849
0.03426105 0.29885033 0.22973661 -0.27182955 -0.27297327 0.2308318 -0.019136235 0.16974919
0.09463873 -0.27370307 -0.1689927 0.3073439 -0.37554687 -0.2955882 0.24855813 -0.043201905
-0.20797269 0.2953371 0.14022402 -0.10932116 0.12393997 -0.5600656 0.16386636 0.43806213
0.12235219 -0.22887138 0.001762378 0.090636574 -0.18503486 0.11054345 0.10657979 0.17190702
-0.49131444 0.24935296 0.11449149 0.02936951 0.061380412 -0.08477114 -0.2341423 0.058670033
00000000: 21ca fb3d e3b4 4ebe 9225 7c3e 7579 203e
00000010: 0e86 e53e 2aaa 4b3b 7666 f83c 65a5 003f
00000020: 423a 273e 0546 9abe 4622 15bf 605c a0bd
00000030: a180 acbc 30cf d13e 3c79 073f 9596 a3bc
00000040: 8114 f33d c476 203e 5036 ff3d dd36 01bf
00000050: aef1 823d f9d7 47be 00b2 2ebe 0813 4cbe
00000060: 7800 d53c 828f 65be 12c2 f43e c173 e23d
00000070: 7923 f43e 0e89 1ebf 545e 9abe d01a 3c3d
00000080: 1dbd a33e d5da dc3e 8ff2 d93d 8876 263e
00000090: 483c 123e 3db9 3e3f fe48 ad3d 4446 acbd
000000a0: bd73 3ebe 85a8 dd3e b9a9 93bc 1408 55bd
000000b0: 7326 553e 3c67 e23b 3d3b af3d 701d 44be
000000c0: 6b59 1c3e 414b 8c3d 350c bfbe bd2a 2d3f
000000d0: 0f17 853e 7b86 933d 7005 173e 2daf 0f3c
000000e0: 64dc 98bd 3ca7 d33e ff9c 273e b45e 963e
000000f0: 7e88 afbe 1182 703e b5cd c13e b0b0 59bb
00000100: 587e 45be 16e2 193e 0688 bcbd 6766 953e
00000110: b62c 63bd 9af3 de3d d519 28be 2b04 afbe
00000120: f962 2c3e be60 cd3d 6a56 c2be 4401 6b3e
00000130: 009a 403e cb3c 41bf 0a49 70be 5100 033d
00000140: 800e acbe 16cd c23e 3d07 bebe 6890 d0be
00000150: 0815 493e b95c a8be 5916 f03e 3341 f9be
00000160: 3b2d 8f3e 2cb2 babe 280a 6abe 7a4d 853e
00000170: c84a d53e 51eb 87ba 758f b13e 244b 4e3e
00000180: cdb4 12be 808f fe3e bc68 16bf 5bcf c03e
00000190: cce1 da3e 1581 e7bd 258b a43e b4c0 393d
000001a0: 4685 553f d1c4 433d a415 8c3d 3d61 543e
000001b0: 2e8e 013e 09b6 51bd 2552 533d a839 43be
000001c0: 88d3 04be 0685 0a3e 3c7e e8bd 14d7 1c3d
000001d0: 79d2 863e c20e 33bd e732 a83e 1502 5fbe
000001e0: 025b e8bd adf2 1c3d 925d 7bbb d540 1ebf
000001f0: 21ed 56be f076 97be ce2f 17be 3e5d a1be
00000200: 886a 1e3e 6ed4 85bd 7f0e 8b3d 090e a53e
00000210: 285a 03bd d6f9 573e 4680 dabe 15e3 c63e
00000220: 6dc8 24be b3ed 0b3f 0e06 913d d23b 90be
00000230: e0fe 933e 1815 29be 1502 3bbe e185 7cbe
00000240: 6533 8c3d 1abb 9c3d b139 1cbf a519 0e3e
00000250: 5877 a8be d677 14bf 3e79 fb3d a365 443d
00000260: 5155 0c3d e902 993e 1340 6b3e 3e2d 8bbe
00000270: 27c3 8bbe 2c5f 6c3e 98c3 9cbc bbd2 2d3e
00000280: f3d1 c13d cf22 8cbe 6c0c 2dbe 2e5c 9d3e
00000290: ae47 c0be 5657 97be 0686 7e3e 7bf4 30bd
000002a0: cbf6 54be 6d36 973e e396 0f3e c6e3 dfbd
000002b0: 3dd4 fd3d 7660 0fbf 95cc 273e ae49 e03e
000002c0: c993 fa3d 425d 6abe 98ff e63a ab9f b93d
000002d0: c779 3dbe 9b64 e23d 8146 da3d 6508 303e
000002e0: 918d fbbe 6256 7f3e 847a ea3d 5498 f03c
000002f0: 076a 7b3d 7e9c adbd 00c3 6fbe fd4f 703d

bias f4 [8]
-0.008639854 -0.08569851 0.12231817 -0.18848237 -0.11208167 0.2730446 0.038106967 -0.059888557
00000000: 2d8e 0dbc b382 afbd f381 fa3d 8601 41be
00000010: 138b e5bd 80cc 8b3e 0d16 1c3d b44d 75bd

weight f4 [8]
0.30732974 0.18079703 0.1815895 0.45715973 0.26102978 0.19688733 0.25993803 1.1256056
00000000: 535a 9d3e db22 393e 99f2 393e d710 ea3e
00000010: b2a5 853e d59c 493e 9916 853e d813 903f
