models/teste_mt_3-4.pth (torch_old, 349435 bytes, 131 tensors)

weight f4 [24, 22, 1]
0	0x3df54f91	0.11978067
1	0x3d3d32c2	0.046190985
2	0x3bf63e7e	0.007514774
3	0x3f0a386f	0.5399236
4	0x3e114f6a	0.1419045
5	0xbcd81928	-0.026379183
6	0xbea30c1d	-0.3184518
7	0x3ed4130e	0.41420788
8	0xbdda217d	-0.10650919
9	0xbd83eca5	-0.06441621
10	0xbec730ff	-0.3890457
11	0xbe5abc70	-0.21360946
12	0x3f150311	0.58207804
13	0xbccae08d	-0.024765277
14	0xbee23857	-0.4418361
15	0x3e1423d2	0.1446679
16	0xbf13bf08	-0.57713366
17	0x3f210f4d	0.6291397
18	0x3bf8e538	0.0075956844
19	0x3e49219f	0.19641732
20	0x3ebf1533	0.3732086
21	0xbd1c0e0e	-0.03809934
22	0xbc481c6a	-0.012213806
23	0xbe11e712	-0.14248303
24	0x3e9dac79	0.3079565
25	0x3ed1278e	0.4085049
26	0xbe73e82c	-0.23819035
27	0x3eb346a8	0.35014844
28	0xbceee460	-0.029161632
29	0x3e4b6d96	0.19866022
30	0xbe18954d	-0.14900704
31	0x3e354f66	0.1770607
32	0xbe2f9c52	-0.17149475
33	0xbe1fd202	-0.15607455
34	0x3da50d3b	0.08059164
35	0xbc67d8a3	-0.014150771
36	0xbc0bad76	-0.008525243
37	0x3f022ff7	0.5085444
38	0xbe8db51c	-0.27677238
39	0x3e62544a	0.22102466
40	0x3f325bf8	0.69671583
41	0x3d7017ca	0.058616437
42	0xbd6a7ed8	-0.057249874
43	0xbdbc1932	-0.09184493
44	0xbf67f57e	-0.90608966
45	0x3e3bfcb8	0.18358123
46	0xbe09199b	-0.13388674
47	0x3e8a47f6	0.27008027
48	0xbeabda03	-0.33564767
49	0xbe4d2ee0	-0.20037413
50	0x3e1e63cc	0.15467757
51	0xbdc87f79	-0.097899385
52	0x3ef2bf76	0.47411698
53	0xbf0b2ca1	-0.54364973
54	0xbe81701c	-0.25280845
55	0xbc7ce6d6	-0.015435895
56	0xbd572434	-0.05252476
57	0xbe2efb97	-0.17088161
58	0x3d80429d	0.062627055
59	0x3e5182f5	0.20460112
60	0x3dd06d5e	0.1017711
61	0xbe6b32f7	-0.2296866
62	0xbee9e217	-0.45680305
63	0x3f60470c	0.8760841
64	0x3d99606c	0.07489094
65	0xbe8a3015	-0.2698981
66	0xbf6b08a1	-0.9181004
67	0xbd8cb641	-0.068707
68	0xbebc775b	-0.3680981
69	0xbebff531	-0.37491754
70	0xbeb02fe9	-0.34411553
71	0x3e7a9ed1	0.24474646
72	0x3e887fce	0.26660007
73	0xbebc25db	-0.3674763
74	0x3efc6256	0.49293774
75	0x3d9a0829	0.07521088
76	0xbf4f352c	-0.8094051
77	0x3eaf1857	0.34198257
78	0x3dbfd813	0.09367385
79	0x3ea469b9	0.3211191
80	0x3e3dcbff	0.1853485
81	0xbdd7dce5	-0.10540179
82	0xbf065311	-0.524705
83	0x3f242361	0.64116484
84	0xbefad114	-0.4898764
85	0x3e46cf44	0.19415003
86	0xbedd0303	-0.4316636
87	0x3e85c51a	0.2612694
88	0xbe0127af	-0.12612794
89	0x3d2886d2	0.0411442
90	0x3ea96bee	0.33090156
91	0xbe2f2566	-0.1710411
92	0x3eb6ca48	0.35701203
93	0x3d224edf	0.039626
94	0xbe194e9d	-0.14971395
95	0x3eae69cb	0.3406509
96	0x3d196a59	0.037454937
97	0xbd215080	-0.03938341
98	0x3e113326	0.14179668
99	0xbee398c3	-0.44452485
100	0x3e7b8f9e	0.24566504
101	0xbd5b6aed	-0.05356877
102	0xbe24e068	-0.16101229
103	0x3f105c6d	0.5639103
104	0x3e951b7e	0.29122537
105	0x3d9b2f1b	0.07577344
106	0xbd8ef02f	-0.06979405
107	0xbd132b9e	-0.03593027
108	0xbe0e619d	-0.13904424
109	0xbc793c63	-0.015212151
110	0x3dd82cb9	0.10555405
111	0x3dbc50d0	0.09195101
112	0x3f11eb1a	0.5699936
113	0xbcfb72d4	-0.030694403
114	0x3ed1de63	0.4098998
115	0x3d79946e	0.06093257
116	0x3ddc4968	0.10756189
117	0x3d7c0c61	0.061535243
118	0x3f1c2f59	0.61009747
119	0x3d0ba29a	0.034090616
120	0x3e92faf9	0.28707102
121	0x3ea69a79	0.32539728
122	0x3d128821	0.035774354
123	0x3dadcc26	0.08486204
124	0x3e11f645	0.142541
125	0xbeced371	-0.40395692
126	0xbe6b4efd	-0.2297935
127	0xbea24b74	-0.3169819
128	0x3ed36ebe	0.41295427
129	0x3d63c218	0.055605024
130	0xbec77ebc	-0.38963878
131	0xbe1bc8cd	-0.15213318
132	0xbeddddc4	-0.43333256
133	0xbd25498d	-0.040353347
134	0xbdc91aa2	-0.09819533
135	0xbef5d69a	-0.4801529
136	0xbd63a9bb	-0.05558179
137	0x3e026e39	0.12737359
138	0x3f11a86b	0.5689761
139	0x3ebe3122	0.3714686
140	0x3d2d5731	0.04231948
141	0xbe8a14c9	-0.26968983
142	0xbe906a3c	-0.2820605
143	0x3ef40b77	0.47664997
144	0x3c7d640f	0.01546575
145	0x3e1864e4	0.14882237
146	0xbc60f600	-0.013730526
147	0x3ea7c6b4	0.32768786
148	0xbcd470b3	-0.025932645
149	0x3e381d15	0.17979844
150	0xbebd95e9	-0.37028435
151	0x3ecedea9	0.4040425
152	0x3c65693c	0.014002141
153	0x3dcd65da	0.10029192
154	0x3bb6afb5	0.005575145
155	0x3d31f358	0.04344496
156	0xbe0bad47	-0.13640319
157	0x3e733846	0.23751935
158	0xbe5fcf2e	-0.21856377
159	0xbea2bbb4	-0.3178383
160	0xbc4d8ff0	-0.012546524
161	0xbdce8fc2	-0.100860134
162	0x3e1250e4	0.1428867
163	0x3c04995a	0.0080932025
164	0xbed947a1	-0.4243746
165	0xbea98adc	-0.33113754
166	0xbefad17a	-0.48987943
167	0x3e253a19	0.16135444
168	0xbca8e050	-0.020614773
169	0x3d50fc97	0.05102214
170	0xbda9d814	-0.08293167
171	0xbc1105d7	-0.00885149
172	0xbc677b4d	-0.014128518
173	0x3ee818c0	0.45331383
174	0x3de7fdfa	0.11327739
175	0x3e22b40e	0.15888998
176	0x3e274a89	0.16337027
177	0xbd699e10	-0.057035506
178	0x3e6fac33	0.23405533
179	0xbcd2102f	-0.025642483
180	0x3d63aa32	0.055582233
181	0x3c6f03b4	0.014588285
182	0x3e999015	0.29992738
183	0xbdc2eeb7	-0.095181875
184	0x3e2415f6	0.16024002
185	0x3ef9d691	0.48796514
186	0xbe5d3341	-0.21601583
187	0xbe2bd6d9	-0.16781177
188	0xbd3fe3b7	-0.046848025
189	0xbeb88507	-0.36038992
190	0x3e18a2af	0.14905809
191	0x3ee23d4b	0.44187388
192	0x3ee79e74	0.45238078
193	0x3e3adb33	0.1824768
194	0x3e5292ed	0.2056386
195	0x3e4535e7	0.19258843
196	0x3d78d20b	0.060747188
197	0x3eae2904	0.34015667
198	0xbf0cc6b9	-0.54990727
199	0xbe71e0ad	-0.23620863
200	0xbeb93679	-0.36174372
201	0xbd779be3	-0.0604514
202	0x3e33596c	0.1751458
203	0xbece322e	-0.4027266
204	0xbea86e97	-0.32896873
205	0x3e631d0f	0.22179054
206	0xbe6de732	-0.23232725
207	0xbeaef05b	-0.34167752
208	0x3d9b072b	0.075697266
209	0x3e07d562	0.13264993
210	0x377d8829	1.5111677e-05
211	0xbc35d36e	-0.011097772
212	0xbeb7370c	-0.35784185
213	0x3d86304d	0.065521814
214	0x3deb5248	0.11490303
215	0x3e95725d	0.29188815
216	0xbca6152f	-0.020273773
217	0x3d366bcf	0.044536408
218	0x3f0c41d6	0.5478796
219	0x3e166a07	0.14688884
220	0x3ed369fd	0.412918
221	0x3e6e22da	0.23255482
222	0xbe8be02b	-0.27319464
223	0x3e7bd8c7	0.24594413
224	0x3e61aaa1	0.22037746
225	0xbd9bdf74	-0.0761098
226	0xbe2ed82d	-0.17074652
227	0x3e8c06dd	0.27348986
228	0xbe128b14	-0.14310867
229	0xbd87a307	-0.06622892
230	0xbe346200	-0.17615509
231	0xbf461866	-0.7738098
232	0xbd64021d	-0.055666078
233	0x3e7b914b	0.24567144
234	0xbe20a690	-0.15688539
235	0x3e9584f5	0.29203
236	0x3e9447e5	0.289611
237	0x3e2a4982	0.16629604
238	0x3c6dae8a	0.014506945
239	0xbec46cd6	-0.38364285
240	0x3e93e97d	0.28889075
241	0xbdfe5679	-0.12418837
242	0xbe93784f	-0.28802726
243	0xbe5cf469	-0.2157761
244	0xbd80acd5	-0.06282965
245	0xbb1bd72e	-0.002377938
246	0xbd817942	-0.06321956
247	0xbe27bb06	-0.16379938
248	0x3dba7a51	0.09105361
249	0xbdce6cc5	-0.1007934
250	0x3a09aef5	0.0005252206
251	0x3e91350b	0.2836078
252	0xbeb3b135	-0.35096136
253	0x3e1ae98e	0.15128157
254	0xbd6be3cb	-0.057590287
255	0xbeb0492e	-0.34430832

weight f4 [24]
0	0x3e75f379	0.24018659
1	0x3e816983	0.25275812
2	0x3e7ae853	0.24502687
3	0x3e75ed1a	0.24016228
4	0x3e75985e	0.23983905
5	0x3e8330ca	0.2562316
6	0x3e815c08	0.25265527
7	0x3e7da400	0.24769592
8	0x3e76e502	0.24110797
9	0x3e82095e	0.25397772
10	0x3e789182	0.24274257
11	0x3e82104e	0.25403064
12	0x3e8235e8	0.25431752
13	0x3e7f0c99	0.2490715
14	0x3e7ce84d	0.2469799
15	0x3e7af264	0.24506527
16	0x3e824f87	0.254513
17	0x3e815012	0.252564
18	0x3e7a8f56	0.24468741
19	0x3e833c56	0.2563197
20	0x3e819898	0.25311732
21	0x3e805b8f	0.25069854
22	0x3e799714	0.24374038
23	0x3e7ae15a	0.24500027

weight f4 [24, 24, 3]
0	0x3d742300	0.05960369
1	0x3c07d487	0.008290417
2	0xbd9abe68	-0.07555848
3	0xbeb5d320	-0.35512638
4	0x3dc8899e	0.097918734
5	0x3df5465f	0.11976313
6	0x3e776d39	0.24162759
7	0x3e044305	0.12916191
8	0x3e0353df	0.12824963
9	0x3ddc71b5	0.107638754
10	0x3d5ae2a2	0.05343879
11	0xbca7b582	-0.020472292
12	0x3da41931	0.080126174
13	0x3e133518	0.14375722
14	0x3e229ad0	0.15879369
15	0xbdb97638	-0.090557516
16	0xbdf51451	-0.11966766
17	0x3def594f	0.11686956
18	0xbe300acd	-0.1719162
19	0x3d98fc9d	0.07470057
20	0xbd5b9399	-0.053607557
21	0x3d87340d	0.06601725
22	0x3e355d8f	0.17711471
23	0xbd9a372c	-0.075300545
24	0x3e667e36	0.22509083
25	0x3d2a619b	0.04159699
26	0x3d44777a	0.047965504
27	0x3ab03733	0.0013444185
28	0xbdab65af	-0.08369004
29	0xbeb402c4	-0.3515836
30	0xbe1a9de1	-0.15099289
31	0x3e4c78d3	0.19967966
32	0xbddc2652	-0.107494965
33	0xbd184e87	-0.037184265
34	0x3dea50f5	0.114412226
35	0xbe150936	-0.14554295
36	0x3ceb5983	0.028729206
37	0x3e4349b1	0.1907108
38	0x3df9c9bc	0.12196681
39	0x3d9bc54e	0.07605992
40	0xbde86164	-0.11346701
41	0xbbd7c21b	-0.0065844185
42	0x3c84546e	0.01615354
43	0xbed9473e	-0.42437166
44	0x3de3c054	0.11120668
45	0x3e9b151e	0.3028955
46	0x3e6532d4	0.2238267
47	0x3ce77afd	0.028256888
48	0x3d845171	0.06460846
49	0xbc9755ab	-0.018473467
50	0x3e30630a	0.1722528
51	0xbdd62717	-0.104566745
52	0xbd2e9b0a	-0.042628326
53	0x3e03ffc3	0.12890534
54	0xbc23f7a0	-0.010007769
55	0xbd3fb186	-0.04680016
56	0xbdb471b3	-0.08810749
57	0x3d857ef1	0.06518353
58	0xbe1d53ba	-0.1536397
59	0x3cd7ca59	0.026341604
60	0x3dffbf13	0.124876164
61	0xbe09ded1	-0.13463904
62	0x3cc394ae	0.023874607
63	0x3d303fd1	0.04302961
64	0x3dfd3c91	0.12365068
65	0xbe3634f8	-0.17793643
66	0xbe93dd86	-0.28879946
67	0x3e7f2d88	0.24919713
68	0xbd811b99	-0.06304092
69	0x3cb971ed	0.022637332
70	0xbd9734ab	-0.073830925
71	0x3d561071	0.052261773
72	0xbe187a9c	-0.14890522
73	0x3e0576f1	0.13033654
74	0xbd99691e	-0.07490753
75	0xbe98bbd4	-0.298308
76	0xbd4f4e71	-0.050611917
77	0xbd1a21bf	-0.03762984
78	0x3c82c399	0.015962409
79	0x3ddbebae	0.10738312
80	0xbe355dda	-0.17711583
81	0x3e36ead4	0.17863017
82	0xbdb1cdc8	-0.08681828
83	0xbdaa96f3	-0.083295725
84	0xbd829cce	-0.06377564
85	0x3dd6b30a	0.10483368
86	0xbe3d122e	-0.18463966
87	0x3a66d41c	0.00088054105
88	0xbb9b40c9	-0.0047379476
89	0x3e01e779	0.12685956
90	0xbe07e9a1	-0.13272716
91	0x3cb173e8	0.021661714
92	0x3da55b76	0.080740854
93	0x3ba11721	0.0049160873
94	0x3c4cb952	0.012495356
95	0xbe41c7a8	-0.18923819
96	0x3dbf116a	0.09329493
97	0xbe6006a8	-0.21877539
98	0x3c8b4eee	0.01700541
99	0xbe25a4dd	-0.16176172
100	0x3e2e90d2	0.17047432
101	0x3ecf1344	0.40444386
102	0xbe87ff7b	-0.26562104
103	0x3cd0d011	0.025489839
104	0xbe18302f	-0.1486213
105	0x3e1568dc	0.14590782
106	0xbe6f4821	-0.23367359
107	0x3e179608	0.14803326
108	0xbdb7dfad	-0.0897821
109	0xbe8bc9f6	-0.2730252
110	0xbe826cbf	-0.25473592
111	0x3e1fd32c	0.156079
112	0xbe04654d	-0.12929268
113	0x3dd861a8	0.105655015
114	0xbe81fa5f	-0.2538633
115	0xbd8a4810	-0.06752026
116	0x3d0bc630	0.034124553
117	0x3ca764f8	0.020433888
118	0x3c05268e	0.008126868
119	0xbe462570	-0.19350219
120	0x3d72e2d4	0.05929835
121	0x3e8070bf	0.25086018
122	0xbe8fe664	-0.28105462
123	0xbd61fd54	-0.055173233
124	0xbc890a5a	-0.016728569
125	0x3c613543	0.013745609
126	0x3c283ff6	0.010269156
127	0xbeb6c755	-0.35698953
128	0xbe888d6b	-0.26670393
129	0x3dbcbfcd	0.092162706
130	0xbe162856	-0.14663824
131	0x3e048f41	0.12945272
132	0x3df1110c	0.117708296
133	0xbe2103fb	-0.15724175
134	0x3daacc0c	0.083397
135	0x3d943a4f	0.07237684
136	0x3dd4dc5a	0.10393591
137	0x3e0d280c	0.13784808
138	0xbd7682f0	-0.060183465
139	0x3e607caf	0.21922563
140	0x3d329062	0.043594725
141	0xbe476a14	-0.1947406
142	0xbdc5fcce	-0.09667359
143	0xbb6f7454	-0.0036537843
144	0x3eedf1d0	0.4647355
145	0x3c2cc7b7	0.010545663
146	0xbd893e03	-0.06701281
147	0x3db6aec4	0.08920053
148	0xbc06cb40	-0.0082271695
149	0x3eaa6c6f	0.33285853
150	0xbe5307c4	-0.20608431
151	0xbea3777c	-0.31927097
152	0xbe96f108	-0.29480767
153	0xbdcd3d7d	-0.100214936
154	0xbe89fdf4	-0.26951563
155	0xbe4b0c01	-0.19828798
156	0xbcc90ba4	-0.024541683
157	0x3d220169	0.039552126
158	0xbe06ed3c	-0.13176435
159	0x3ebd59f3	0.36982688
160	0xbdb92381	-0.09039975
161	0x3d1c2c1d	0.038128007
162	0xbdca117b	-0.098666154
163	0xbd3cd087	-0.046097305
164	0xbd894d28	-0.067041695
165	0xbce21b08	-0.02760078
166	0x3d0426e7	0.032263663
167	0xbeb32ff1	-0.34997514
168	0x3e8383bd	0.25686446
169	0xbe8b305b	-0.2718533
170	0xbdd514dc	-0.10404369
171	0x3dba4c1c	0.09096548
172	0x3dbb8862	0.09156872
173	0x3d9a8403	0.075447105
174	0xbc2960d6	-0.010338029
175	0xbde864ff	-0.113473885
176	0xbe715519	-0.23567618
177	0xbcde44f9	-0.027132498
178	0x3dba85d2	0.091075554
179	0xbe11ece0	-0.14250517
180	0xbe18e3ef	-0.149307
181	0x3e56f788	0.20992863
182	0x3dd6a91c	0.10481474
183	0xbd369b48	-0.04458168
184	0xbd03a757	-0.03214201
185	0x3d95c3ee	0.07312761
186	0x3e996865	0.2996246
187	0xbd9680ee	-0.0734881
188	0xbc8eca53	-0.01743046
189	0xbeab3893	-0.334416
190	0xbe4c178b	-0.19930856
191	0x3d4cc9aa	0.04999701
192	0x3e8a54fb	0.2701796
193	0xbcd959a7	-0.026532007
194	0xbc47753c	-0.012173947
195	0x3d6cc56a	0.057805456
196	0x3e1a9f6a	0.15099874
197	0x3e84e6f6	0.2595746
198	0x3de26dcd	0.11056099
199	0xbd4bcf75	-0.049758393
200	0x3e5f98f9	0.21835698
201	0x3eb72bac	0.35775506
202	0x3db693d3	0.08914914
203	0x3ef408ea	0.4766305
204	0x3d9f675b	0.07783385
205	0xbd961167	-0.07327538
206	0xbdf98199	-0.12182922
207	0x3ecc5f3a	0.39916402
208	0x3e6d5750	0.23177838
209	0xbebec375	-0.37258497
210	0xbe5ed799	-0.21761931
211	0x3e2a8002	0.16650394
212	0xbe51cc0d	-0.20487995
213	0x3c011b12	0.007879989
214	0xbda03df1	-0.078243144
215	0xbcd7df4d	-0.026351595
216	0x3e0766dd	0.13222833
217	0xbde5173e	-0.11186074
218	0x3e767f67	0.24072038
219	0x3e17bf77	0.14819132
220	0xbe8b3d1a	-0.27195054
221	0x3e2d161a	0.16902962
222	0x3d59c99b	0.05317078
223	0xbee1f05b	-0.4412869
224	0xbd5e97be	-0.05434393
225	0xbdf86826	-0.1212924
226	0x3d40498c	0.04694514
227	0xbe32cd9c	-0.17461246
228	0xbea20f13	-0.31652126
229	0xbdc3db1c	-0.09563276
230	0x3e9d6aa3	0.3074542
231	0x3ca5330a	0.020165939
232	0xbe2c6d14	-0.16838485
233	0x3e2b4802	0.16726688
234	0x3e288fd5	0.16461118
235	0x3e48c00a	0.19604507
236	0xbd2d20b7	-0.042267527
237	0x3ba8b478	0.0051484667
238	0x3c213d24	0.009841237
239	0x3df34e6f	0.118801944
240	0x3e183b23	0.14866309
241	0xbd86ac15	-0.06575791
242	0x3df70507	0.12061506
243	0xbddc37da	-0.1075284
244	0xbe1d941e	-0.15388533
245	0xbe79e598	-0.2440399
246	0x3eb418c8	0.35175157
247	0x3e6e7a58	0.23288858
248	0xbe46216e	-0.1934869
249	0x3e9b6c0c	0.3035587
250	0x3df5562c	0.119793266
251	0x3dcdccd3	0.10048833
252	0xbd8a80d2	-0.06762852
253	0xbe96527b	-0.29359803
254	0xbdd1c470	-0.102425456
255	0xbe10ccd0	-0.1414063

bias f4 [24]
0	0x3db424dc	0.08796093
1	0xbb2cfce9	-0.0026395863
2	0x3c9ecb98	0.01938419
3	0x3dd404d1	0.10352481
4	0xbc1de7dc	-0.009637799
5	0x3d7a3dd0	0.061094105
6	0x3d97c029	0.074096985
7	0x3ce1758b	0.02752187
8	0xbc251491	-0.010075704
9	0xbdcf3277	-0.10117047
10	0xbd6d0217	-0.05786332
11	0xbd84a723	-0.06477191
12	0x3ddd0d67	0.10793572
13	0x3cd97635	0.026545623
14	0x3c281bd0	0.010260537
15	0xbd1dfe2c	-0.038572475
16	0xbdcd11af	-0.100131385
17	0x3b3f8a2f	0.002922665
18	0x3d6b5f01	0.05746365
19	0x3d0b4c80	0.034008503
20	0x3bc0dacf	0.005885459
21	0xbd43ca50	-0.047800362
22	0x3d871594	0.065959126
23	0x3d1ac943	0.037789594

weight f4 [24]
0	0x3e76bffb	0.24096672
1	0x3e806e4a	0.25084144
2	0x3e740d41	0.23833181
3	0x3e76e458	0.24110544
4	0x3e7ce029	0.24694885
5	0x3e7c2943	0.24625115
6	0x3e77d3a6	0.24201831
7	0x3e818e5c	0.25303924
8	0x3e7aa8c3	0.2447844
9	0x3e7b4e26	0.2454153
10	0x3e79cbad	0.24394102
11	0x3e80e48f	0.25174376
12	0x3e7e073a	0.24807444
13	0x3e81a6de	0.25322622
14	0x3e7ea81d	0.24868818
15	0x3e78eda1	0.24309398
16	0x3e7ec07a	0.24878111
17	0x3e72bf9b	0.23705904
18	0x3e7b0f61	0.24517585
19	0x3e7c7088	0.24652302
20	0x3e7996c0	0.24373913
21	0x3e80fb7d	0.2519187
22	0x3e7aec91	0.24504305
23	0x3e7e3138	0.24823463

weight f4 [24, 24, 3]
0	0xbdd08115	-0.101808704
1	0x3cd62272	0.026139472
2	0x3ebd9fa7	0.37035868
3	0x3e853364	0.2601577
4	0xbe9738ca	-0.29535514
5	0xbe9a95d8	-0.30192447
6	0x3cf74924	0.030186243
7	0xbd35c5f4	-0.044378236
8	0x3e203281	0.15644266
9	0x3e593642	0.21212104
10	0x3dab5b70	0.0836705
11	0x3ec78b62	0.38973528
12	0x3da6f03c	0.0815129
13	0xbd9953d2	-0.074866906
14	0x3c570877	0.013124577
15	0x3d0e6b32	0.0347702
16	0x3dc90bc2	0.09816696
17	0xbe698855	-0.22805913
18	0x3d48c358	0.04901442
19	0x3d63a028	0.05557266
20	0xbe3e2a26	-0.18570766
21	0x3e8e0343	0.27736863
22	0xbf007ac4	-0.50187325
23	0x3d81fe7c	0.06347367
24	0xbcaa7b7a	-0.020810831
25	0xbbd5f492	-0.006529399
26	0x3e18da44	0.14927012
27	0x3d91877a	0.07105918
28	0xbe83026a	-0.2558778
29	0xbd671f3f	-0.056426283
30	0x3d462c3e	0.048382036
31	0x3efe1f29	0.49633148
32	0xbe13bb2d	-0.1442687
33	0xbe510b71	-0.20414521
34	0x3d2518fd	0.040307034
35	0xbdf9259e	-0.12165378
36	0x3e647cf8	0.22313297
37	0x3d330727	0.043707993
38	0x3de1141d	0.109901644
39	0x3debb4a9	0.115090676
40	0x3dd7a909	0.10530288
41	0xbecd0508	-0.400429
42	0x3e4cb2b4	0.19990045
43	0x3d6c8539	0.05774424
44	0xbacb9904	-0.0015533273
45	0x3d9b1f08	0.07574278
46	0x3e2986b1	0.16555287
47	0x3d6fbb06	0.05852797
48	0xbe2cdb7f	-0.16880606
49	0x3c9944fd	0.018709654
50	0xbd268739	-0.040656302
51	0x3ca4dd7a	0.02012514
52	0x3d3cefed	0.04612725
53	0x3e9cb4d2	0.30606705
54	0xbe981d39	-0.29709795
55	0x3de94c7b	0.113915406
56	0x3e21d1fa	0.15802756
57	0x3d8317a6	0.06400995
58	0x3cf0383b	0.029323688
59	0x3d939a94	0.07207218
60	0xbdcdb371	-0.10043991
61	0xbce9478f	-0.028476505
62	0x3e8e8688	0.27837014
63	0xbd86649f	-0.06562161
64	0x3e04884d	0.1294262
65	0x3da183dc	0.07886478
66	0x3c64ab9f	0.013956933
67	0x3e46292f	0.19351648
68	0x3d9cdfda	0.07659884
69	0xbe17e8e7	-0.14834939
70	0xbc02db3c	-0.00798684
71	0x3dc24013	0.094848774
72	0xbe4782e9	-0.19483532
73	0xbd6c1e12	-0.057645865
74	0x3e177c77	0.14793573
75	0x3e7ac91e	0.24490783
76	0x3e22d703	0.15902333
77	0xbd91f3e4	-0.071265966
78	0xbe1232a4	-0.1427713
79	0x3cbd9b68	0.023145393
80	0xbe1e8ec4	-0.15484148
81	0x3cf6ccdd	0.030126983
82	0xbdad34ee	-0.08457361
83	0x3e2fd556	0.17171225
84	0x3e05d0d0	0.13067937
85	0xbd6b0abc	-0.057383284
86	0xbe08e397	-0.13368069
87	0xbdbde464	-0.09272078
88	0x3e33c213	0.17554502
89	0x3ca92603	0.020648008
90	0x3db70f2c	0.08938441
91	0x3de8399d	0.11339114
92	0xbdf1c43d	-0.118050076
93	0xbd6b4a10	-0.05744368
94	0x3c924b43	0.017858153
95	0x3dc1fc69	0.094719715
96	0x3d939230	0.072056174
97	0xbd8a9129	-0.06765968
98	0x3e1787c5	0.14797886
99	0x3e036cb1	0.12834431
100	0x3e2d85b8	0.16945541
101	0xbd43cc11	-0.047802035
102	0xbda5fa0d	-0.08104334
103	0x3d085f8f	0.033294257
104	0x3d844dc2	0.064601436
105	0x3aeb8ff1	0.0017971975
106	0x3dde3b20	0.10851121
107	0xbd947170	-0.07248199
108	0xbd9e7be4	-0.07738474
109	0xbdafbb27	-0.08580618
110	0xbd25ee28	-0.040510327
111	0x3a16bacc	0.0005749881
112	0xbea069c9	-0.31330708
113	0x3da5692e	0.08076702
114	0xbde6714d	-0.11252079
115	0x3e8448f5	0.25836912
116	0x3d5546d6	0.052069508
117	0x3d6ba405	0.057529468
118	0x3e7cc4b2	0.24684408
119	0x3e7f5d8e	0.24938032
120	0xbe672fbd	-0.22576804
121	0xbd365400	-0.044513702
122	0x3e80d756	0.25164288
123	0x3d14ff60	0.036376357
124	0xbd82a1f9	-0.0637855
125	0x3e03d965	0.12875898
126	0x3db11392	0.08646311
127	0x3d8cd1ed	0.06875978
128	0xbe5a2f39	-0.21307077
129	0xbc0d5af1	-0.008627639
130	0x3cbe6058	0.0232393
131	0x3d921d29	0.07134468
132	0xbd8ba89c	-0.06819269
133	0xbd0cf131	-0.034409706
134	0x3e3c7cf8	0.18407047
135	0xbec05ab0	-0.3756919
136	0x3eade0f8	0.339607
137	0xbea34ca0	-0.31894398
138	0x3da12c97	0.07869833
139	0xbe88bf00	-0.2670822
140	0xbe133a22	-0.14377645
141	0x3e554cc9	0.20830072
142	0xbd8228a1	-0.063554056
143	0x3e55a8f3	0.2086523
144	0xbe03f80a	-0.12887588
145	0xbe1e68d1	-0.15469672
146	0xba39f10e	-0.000709311
147	0xbdc4adc4	-0.09603456
148	0x3dc4bb41	0.09606028
149	0xbddf72ea	-0.1091059
150	0xbd297552	-0.04137165
151	0xbe1da68d	-0.15395565
152	0xbd35e480	-0.044407368
153	0xbe5247aa	-0.2053515
154	0xbe51ba23	-0.20481162
155	0x3e8334a5	0.25626102
156	0xbddb902a	-0.107208565
157	0x3b6beb24	0.003599831
158	0x3b1ca459	0.002390167
159	0xbe4022f7	-0.18763338
160	0xbc88e973	-0.01671288
161	0xbc93ea9c	-0.018056206
162	0xbdac7e1c	-0.08422491
163	0x3e3a5998	0.1819824
164	0x3b91b861	0.0044470285
165	0xbe902fc4	-0.28161442
166	0x3df223f0	0.11823261
167	0xbe2c28fa	-0.16812506
168	0xbe887e75	-0.2665898
169	0x3e7b6f18	0.24554098
170	0x3d269ab2	0.040674873
171	0x3d6578a9	0.056023274
172	0xbd943473	-0.072365664
173	0x3deb52b0	0.11490381
174	0xbe388cf6	-0.18022522
175	0xbe09e860	-0.1346755
176	0x3e08b063	0.13348536
177	0xbd49427b	-0.049135666
178	0xbd3d8e88	-0.046278507
179	0xbd0e56dd	-0.034750808
180	0x3dd67c6a	0.10472949
181	0xbe52fcc4	-0.20604235
182	0x3e4bba98	0.19895399
183	0xbe4b1a87	-0.19834338
184	0xbd2c2db1	-0.042035762
185	0x3c43e39f	0.011956125
186	0x3df9a341	0.12189341
187	0x3d02b0e1	0.031906966
188	0xbe0a7555	-0.13521321
189	0x3bd6d178	0.0065557323
190	0xbe308ddf	-0.1724162
191	0xbc09d93f	-0.008413612
192	0xbe303e17	-0.17211185
193	0x3e8ef341	0.27919963
194	0x3dec1024	0.11526516
195	0xbbcf1cae	-0.0063205576
196	0xbeb525a1	-0.3538027
197	0xbccf7cdf	-0.025328098
198	0xbe1de250	-0.15418363
199	0x3d49306f	0.049118455
200	0xbe121445	-0.14265545
201	0x3dd90713	0.105970524
202	0xbe18628e	-0.14881346
203	0xbdf80b8a	-0.12111576
204	0x3e1d37a3	0.15353255
205	0xbde26bec	-0.11055741
206	0xbc77249e	-0.015084414
207	0xbd9d28c7	-0.07673793
208	0xbe23ee24	-0.16008812
209	0x3ea7a065	0.3273956
210	0x3e4c4bb7	0.19950758
211	0x3e000150	0.125005
212	0xbec36d4b	-0.3816932
213	0x3d5c0635	0.053716857
214	0x3dddedcd	0.108363725
215	0xbda9f259	-0.08298177
216	0x3e074f87	0.13213931
217	0xbe07eccd	-0.13273926
218	0x3e612e4d	0.21990319
219	0x3caedef2	0.021346543
220	0xbe85f147	-0.26160643
221	0x3e10f3e1	0.14155532
222	0x3e7f84ed	0.24953051
223	0x3e98ff54	0.298823
224	0xbe446481	-0.19178964
225	0xbe557e93	-0.20849065
226	0x3d982706	0.07429318
227	0xbe86e7eb	-0.26348814
228	0xbe26f087	-0.16302691
229	0x3cfcd759	0.030864405
230	0xbef7d906	-0.48407763
231	0x3b0d4376	0.0021555102
232	0x3be5ddaf	0.007014952
233	0xbe184b9f	-0.14872597
234	0x3def2ec8	0.11678845
235	0xbe14735c	-0.14497131
236	0x3dbabc30	0.09117925
237	0xbdaf11b3	-0.08548298
238	0x3eb8d26f	0.36098048
239	0xbc412236	-0.011787942
240	0xbeb1e77c	-0.3474692
241	0x3ea2efc6	0.31823558
242	0x3c24e16a	0.0100635085
243	0xbc0d114e	-0.008610083
244	0x3decdbdc	0.11565372
245	0xbe2186ed	-0.15774126
246	0x3d9791c5	0.0740085
247	0xbe856004	-0.26049817
248	0x3e30bf93	0.1726058
249	0xbe14ac0a	-0.14518753
250	0x3c61e698	0.013787888
251	0x3caf3c9b	0.021391204
252	0xbdfe77de	-0.124252066
253	0x3d150848	0.03638485
254	0xbddd3298	-0.108006656
255	0xbe02daa0	-0.12778711

bias f4 [24]
0	0xbc84ff27	-0.016234947
1	0xbdac47d3	-0.08412137
2	0x3de29ba0	0.11064839
3	0x3cc353dd	0.0238437
4	0x3d2e5b01	0.042567257
5	0xbdd743b0	-0.10510957
6	0x3cfc0471	0.030763837
7	0xbdce224e	-0.10065137
8	0xbde9bcdf	-0.114129774
9	0x3d7411f0	0.05958742
10	0xbcb0ec76	-0.021597128
11	0x3d0ae7d9	0.033912513
12	0xbd09a5ce	-0.03360539
13	0x3d8396e3	0.06425264
14	0x3c87d901	0.016582968
15	0x3d83e8fe	0.06440924
16	0x3d3602dd	0.044436324
17	0xbdd1f535	-0.10251848
18	0x3ddab49e	0.10678981
19	0xbda9d14d	-0.08291874
20	0x3dc12a50	0.094318986
21	0xbdb47cb8	-0.08812851
22	0xbd94f13d	-0.07272575
23	0xbb230c45	-0.002487914

weight f4 [24]
0	0x3e76db5d	0.24107118
1	0x3e786b57	0.24259697
2	0x3e801170	0.25013304
3	0x3e8172d2	0.25282913
4	0x3e780351	0.24220015
5	0x3e7d9977	0.24765573
6	0x3e7872f2	0.24262598
7	0x3e78ddbd	0.24303336
8	0x3e7bf0a2	0.24603513
9	0x3e7eb672	0.24874285
10	0x3e79e664	0.24404293
11	0x3e7afbbd	0.24510093
12	0x3e770199	0.24121703
13	0x3e7b0866	0.24514922
14	0x3e7dbaaa	0.24778238
15	0x3e7c2f25	0.24627359
16	0x3e77c07d	0.24194522
17	0x3e820c03	0.2539979
18	0x3e7e54f9	0.24837102
19	0x3e821a4e	0.25410694
20	0x3e73c694	0.2380622
21	0x3e73686c	0.23770303
22	0x3e79e367	0.24403153
23	0x3e7c1725	0.24618204

weight f4 [24, 24, 3]
0	0xbe485cce	-0.19566652
1	0xbe30d00a	-0.1726686
2	0x3e3f2d89	0.18669714
3	0xbcf257c0	-0.029582858
4	0xbc903609	-0.017603891
5	0x3dd9c7d5	0.10633818
6	0xbc271dd2	-0.010199981
7	0xbe575698	-0.21029127
8	0x3e266e31	0.16252972
9	0x3d77f2af	0.060534175
10	0xbe2c8528	-0.1684767
11	0xbbed8382	-0.007248343
12	0x3eb22578	0.3479421
13	0x3d4998af	0.049217876
14	0xbdb0526e	-0.08609472
15	0x3b92d55a	0.004481
16	0x3e828974	0.25495493
17	0x3e303285	0.17206772
18	0x3e5ebedb	0.21752493
19	0x3dcdb3ce	0.10044061
20	0xbd814393	-0.06311717
21	0x3e0dbac8	0.13840783
22	0xbe9843ad	-0.29739133
23	0x3cb065a4	0.021532841
24	0xbe7dc961	-0.24783851
25	0xbe03cc4a	-0.12870899
26	0x3bbc4ca4	0.005746441
27	0xbd96e6a5	-0.07368211
28	0xbe12d566	-0.14339218
29	0xbdcdb6e8	-0.10044652
30	0x3eb9e9e3	0.36311254
31	0xbd99384f	-0.07481443
32	0x3d26f0f6	0.040757142
33	0xbe1e4071	-0.1545427
34	0x3c85b82e	0.016323175
35	0x3d89e658	0.06733388
36	0x3e40e783	0.18838315
37	0xbe5f6d85	-0.21819122
38	0x3e0b621d	0.13611646
39	0xbe0e1374	-0.13874608
40	0x3b661c2e	0.0035112011
41	0x3de789e0	0.113055944
42	0x3eca1cab	0.39474997
43	0xbce903a7	-0.028444124
44	0x3bbb942d	0.005724451
45	0x3db416e0	0.087934256
46	0x3db3b679	0.08775038
47	0xbd7d2080	-0.061798573
48	0xbe88e8a8	-0.26740003
49	0xbddeab3c	-0.10872504
50	0x3e185515	0.14876206
51	0x3cc097a6	0.023509812
52	0xbe6c7e33	-0.23095016
53	0xbd903a0a	-0.0704232
54	0xbe4c182b	-0.19931094
55	0x3e8580bc	0.2607478
56	0x3d27e179	0.04098651
57	0xbd89a920	-0.06721711
58	0xbd05ea92	-0.032694407
59	0xbe7d6baa	-0.24748102
60	0xbdefd531	-0.11710585
61	0xbe5cf3b0	-0.21577334
62	0xbee73cf3	-0.45163688
63	0x3d54c957	0.051949825
64	0x3d4f675b	0.050635677
65	0xbe2b349e	-0.1671929
66	0x3ddc470f	0.10755741
67	0x3da828c1	0.08210898
68	0xbe5e492f	-0.21707605
69	0xbd5075cb	-0.050893586
70	0x3ea82dcf	0.3284745
71	0x3df11e2e	0.117733344
72	0x3e008b62	0.1255317
73	0xbe006d9c	-0.12541813
74	0xbd882f4f	-0.066496484
75	0xbc75515e	-0.014973013
76	0x3e28ac12	0.1647189
77	0xbe821a47	-0.25410673
78	0x3e880c58	0.26571918
79	0xbd04952a	-0.032368816
80	0x3e826fd2	0.25475937
81	0x3e2028ed	0.15640612
82	0xbe69e14a	-0.22839847
83	0x3e67957d	0.22615619
84	0xbe13011b	-0.1435589
85	0xbe6feaec	-0.2342946
86	0x3e2dbfc6	0.16967687
87	0xbe6ed322	-0.23322728
88	0xbe372e51	-0.17888762
89	0x3ebdd525	0.3707668
90	0xbd51085b	-0.05103336
91	0x3dd35f65	0.103209294
92	0x3de1f56c	0.11033139
93	0xbd3e02b6	-0.046389304
94	0xbe10070d	-0.1406519
95	0xbd485464	-0.048908606
96	0xbe20eeb2	-0.15716055
97	0xbe40e48f	-0.18837188
98	0x3e48d3ea	0.19612089
99	0xbe4e8013	-0.20166044
100	0x3e7948ff	0.24344252
101	0xbcd49e5d	-0.02595442
102	0x3e4e7980	0.20163536
103	0xbe228441	-0.15870763
104	0x3df14ef4	0.11782637
105	0x3db1e040	0.086853504
106	0x3b313f03	0.0027045615
107	0xbcdecae7	-0.02719636
108	0xbd914602	-0.07093431
109	0x3d6ff2e5	0.05858125
110	0xbe63f636	-0.22261891
111	0xbeadb278	-0.33925223
112	0xbe07b696	-0.13253245
113	0xbe048cf5	-0.12944396
114	0xbdb437b3	-0.08799686
115	0xbd460840	-0.04834771
116	0xbdb00e1d	-0.08596442
117	0xbe1d7d54	-0.1537984
118	0xbd6c9ed2	-0.05776865
119	0x3e5986e0	0.21242857
120	0xbe652e9f	-0.22381066
121	0xbe3a5fc8	-0.182006
122	0x3de6b3da	0.11264773
123	0xbe42ec3b	-0.19035427
124	0xbe960f17	-0.29308388
125	0x3e6a5341	0.22883321
126	0xbe802450	-0.25027704
127	0x3e849fc7	0.2590315
128	0xbd483d7b	-0.048886757
129	0xbd3149fb	-0.043283444
130	0xbdeb087c	-0.11476228
131	0x3de499c2	0.111621395
132	0x3e630f9d	0.22173925
133	0x3e4e19c0	0.2012701
134	0x3e881679	0.26579645
135	0x3e20b024	0.15692192
136	0x3e69e6a1	0.22841884
137	0x3e4b4857	0.19851814
138	0x3e2ff4b0	0.17183185
139	0x3d982379	0.07428641
140	0x3d489c5d	0.048977245
141	0xbe86a3dc	-0.2629689
142	0xbdc5fa10	-0.09666836
143	0x3d8b434c	0.06799945
144	0xbd2ef356	-0.042712532
145	0x3eb6850a	0.35648376
146	0x3e0b76eb	0.13619582
147	0xbe95bc13	-0.29245052
148	0xbad13986	-0.0015962578
149	0x3dddd69d	0.1083195
150	0xbe9028ab	-0.28156027
151	0xbc0ed035	-0.008716633
152	0xbe8c128d	-0.27357903
153	0x3d322952	0.043496437
154	0x3e08934f	0.13337444
155	0xbdc5b2af	-0.09653222
156	0x3e11049d	0.14161916
157	0x3c974e26	0.018469881
158	0x3bd45be3	0.0064806803
159	0xbe7f9ed7	-0.24962936
160	0x3da65368	0.08121377
161	0xbdfbb2d9	-0.12289972
162	0x3e6bfcdf	0.23045681
163	0x3dc131c3	0.094333194
164	0x3e9bb78d	0.30413476
165	0xbe8bd419	-0.27310255
166	0xbe200a87	-0.15629016
167	0xbe2d15a6	-0.1690279
168	0x3c399aac	0.011328381
169	0x3dc6a939	0.097002454
170	0x3ec09073	0.37610206
171	0x3d158833	0.036506843
172	0xbdff432e	-0.124639854
173	0xbe96a1f9	-0.2942045
174	0xbd1f7003	-0.038925182
175	0xbe688765	-0.22707899
176	0x3c97b4f5	0.018518904
177	0xbd66d7c6	-0.05635812
178	0x3ce28d0a	0.027655143
179	0x3cd15c10	0.025556594
180	0x3d93beb0	0.07214105
181	0x3e9372ba	0.28798467
182	0xbd8d12ff	-0.06888389
183	0x3e0ffa5e	0.14060351
184	0x3e66e19c	0.22547
185	0x3eb3646f	0.35037562
186	0x3cd56914	0.026051082
187	0xbd05f3e1	-0.032703284
188	0x3d938490	0.07203019
189	0x3ea4894d	0.32136002
190	0x3e2f979b	0.17147677
191	0x3e567a56	0.20945105
192	0xbd0ea24c	-0.034822747
193	0x3cceb489	0.02523257
194	0xbddf9207	-0.109165244
195	0xbd28b5ad	-0.041188885
196	0xbd1402be	-0.036135428
197	0x3e4eb076	0.20184502
198	0x3e2c2883	0.16812329
199	0x3d918f10	0.07107365
200	0x3e26256c	0.16225213
201	0xbb758086	-0.003746064
202	0xbd38d05c	-0.045120582
203	0x3e0ed62d	0.13948889
204	0xbdbcf732	-0.09226836
205	0x3e0f2f82	0.13982967
206	0xbce89216	-0.028389972
207	0x3e0fd9a1	0.14047863
208	0xbc6af4eb	-0.01434062
209	0xbe78fe07	-0.24315654
210	0xbe205561	-0.1565757
211	0x3e46ff80	0.19433403
212	0x3e948621	0.29008582
213	0xbe2c151c	-0.16804928
214	0xbd4c1514	-0.04982479
215	0xbde81565	-0.11332206
216	0xbe3cdf54	-0.18444568
217	0xbe0c103f	-0.13678072
218	0xbe7d2efe	-0.24724957
219	0x3e54ae34	0.20769578
220	0xbd9e43a9	-0.07727749
221	0x3bd7755f	0.006575271
222	0x3e46c9f1	0.19412972
223	0xbe097285	-0.13422592
224	0xbe6b12f4	-0.22956449
225	0xbcdf327e	-0.027245756
226	0x3dcde629	0.10053665
227	0x3e8eac66	0.27865905
228	0xbe1d2f3a	-0.15350047
229	0xbdffa65c	-0.124829024
230	0xbed8a9f3	-0.4231716
231	0x3d57c4e3	0.052678
232	0x3e321fba	0.17394915
233	0x3e0325a5	0.12807329
234	0x3cfa39e3	0.03054518
235	0x3bd456e2	0.006480084
236	0x3d267526	0.040639065
237	0x3d9d3d51	0.07677711
238	0xbeac748f	-0.33682677
239	0xbe7c06e8	-0.2461201
240	0x3dd281e1	0.10278679
241	0x3b362c18	0.0027797278
242	0x3cf6a8f0	0.030109853
243	0xbdcbf5ea	-0.09959014
244	0xbe6079e9	-0.21921505
245	0xbed4b513	-0.415444
246	0xbc3370c4	-0.010952178
247	0x3e5cefc0	0.21575832
248	0x3e4ec7a4	0.20193344
249	0x3d44e581	0.048070434
250	0xbe5e38d6	-0.21701369
251	0xbc5419be	-0.012945591
252	0xbf0c288c	-0.5474937
253	0xbe780fd3	-0.24224786
254	0x3e15a3d7	0.14613281
255	0xbe28a9b2	-0.16470984

bias f4 [24]
0	0xbd236040	-0.039886713
1	0xbd0b1a6e	-0.033960752
2	0x3dd6d611	0.10490049
3	0xbc81049d	-0.01574927
4	0x3d3dab68	0.046306044
5	0xbcb8fbf5	-0.02258108
6	0xbbb8c761	-0.005639002
7	0xbd7c0ced	-0.061535764
8	0xbce04b81	-0.027379753
9	0xbcdb1033	-0.026741123
10	0xbded7ec5	-0.11596445
11	0x3da6d2fc	0.08145711
12	0x3cea3d08	0.028593555
13	0x3ce4a675	0.027911404
14	0xbdeee6fd	-0.11665151
15	0x3d055378	0.032550305
16	0x3cda37b6	0.026637893
17	0xbd8bbea9	-0.06823475
18	0xbc9bcd5a	-0.019018818
19	0x3dbbd565	0.09171561
20	0x3df15d1e	0.11785339
21	0xbd2269c8	-0.039651662
22	0x3bb65d60	0.0055653304
23	0x3dc7a360	0.09747958

weight f4 [24]
0	0x3e795698	0.24349439
1	0x3e8160de	0.25269216
2	0x3e7738e7	0.241428
3	0x3e821ecb	0.25414118
4	0x3e766837	0.24063192
5	0x3e7e35a1	0.24825145
6	0x3e75446f	0.23951887
7	0x3e82d86e	0.25555748
8	0x3e80e2e3	0.251731
9	0x3e7d9a51	0.24765898
10	0x3e84ae26	0.25914115
11	0x3e7a75f9	0.24459065
12	0x3e7a89e2	0.2446666
13	0x3e7644c9	0.24049677
14	0x3e8149b9	0.25251558
15	0x3e77fb05	0.2421685
16	0x3e80f914	0.25190032
17	0x3e7e4bab	0.24833553
18	0x3e780aa1	0.24222805
19	0x3e7b3ec4	0.24535662
20	0x3e797495	0.24360879
21	0x3e788c2a	0.24272218
22	0x3e7c2838	0.24624717
23	0x3e7a4ae8	0.24442637

weight f4 [24, 24, 3]
0	0xbd07f165	-0.033189196
1	0x3e18b5e0	0.1491313
2	0x3dbd5c64	0.09246138
3	0x3e676120	0.22595644
4	0x3dbbeaab	0.09175619
5	0x3d4b2786	0.04959824
6	0x3ca056c4	0.019572623
7	0xbcbcb818	-0.023037001
8	0xbe942f51	-0.2894235
9	0x3d4c4f8e	0.049880557
10	0x3e6c2b86	0.23063478
11	0x3c12d14a	0.008961031
12	0x3e123e76	0.1428164
13	0x3eae145c	0.33999908
14	0xbea8b66a	-0.3295167
15	0xbe95b39e	-0.292386
16	0x3e2f09c5	0.1709357
17	0x3dfba819	0.122879215
18	0xbd63bc06	-0.055599235
19	0x3baeb273	0.0053313314
20	0xbdf4c41f	-0.1195147
21	0xbe15d47a	-0.14631835
22	0x3e4a1c5b	0.19737379
23	0xbe2ceaeb	-0.16886489
24	0x3e5ded7c	0.21672624
25	0x3d6a8ac5	0.057261247
26	0xbe5ead46	-0.21745786
27	0xbe1516f9	-0.14559545
28	0x3d8a2ff8	0.067474306
29	0x3e93d150	0.2887063
30	0x3d9f1c05	0.07769016
31	0xbd6a4152	-0.0571912
32	0xbe1eeea8	-0.15520728
33	0x3de8b2be	0.11362217
34	0xbe8eadba	-0.27866918
35	0x3b8e54bd	0.0043435977
36	0xbd8b19ca	-0.06792028
37	0xbe8927ce	-0.2678818
38	0x3e9197ad	0.28436032
39	0xbd269ac3	-0.040674936
40	0x3d767f85	0.060180206
41	0xbcb47517	-0.022028489
42	0x3e58dd54	0.2117818
43	0xbd8ff97d	-0.07030008
44	0x3db98602	0.09058763
45	0xbca7ed87	-0.020499004
46	0x3d0a4fac	0.033767387
47	0xbd8c6008	-0.06854254
48	0x3d9bd884	0.076096565
49	0x3d2739c5	0.040826578
50	0x3defed74	0.117152125
51	0xbd68bce2	-0.056820758
52	0xbeb3f3ac	-0.35146844
53	0xbe3187aa	-0.17336908
54	0x3c7226b6	0.014779737
55	0xbe474bb4	-0.19462472
56	0x3dd12018	0.102111995
57	0xbbb62561	-0.005558655
58	0x3e5180eb	0.20459335
59	0xbdd3c809	-0.10340888
60	0xbda53965	-0.08067588
61	0x3d752869	0.05985299
62	0xbccf5804	-0.025310524
63	0x3de51366	0.111853406
64	0x3d94629e	0.07245372
65	0xbe0daf31	-0.13836361
66	0x3be17685	0.0068805837
67	0x3e38e524	0.1805616
68	0xbdeb8381	-0.11499692
69	0x3dfb316e	0.12265287
70	0x3e947157	0.2899272
71	0x3c81416e	0.01577827
72	0x3d5e5c98	0.054287523
73	0x3e0a46f1	0.13503624
74	0x3e87e9a5	0.26545444
75	0x3de02048	0.10943657
76	0x3cc17b70	0.02361843
77	0x3e547ae7	0.20750009
78	0xbe2c0dbb	-0.16802113
79	0x3e4b3d11	0.19847514
80	0xbe56934c	-0.20954627
81	0x3e93955a	0.28824884
82	0x3e06b131	0.1315353
83	0xbe8d16a5	-0.2755634
84	0xbed8dea4	-0.4235736
85	0x3df9ede3	0.122035764
86	0xbdf999bb	-0.12187525
87	0x3e231304	0.15925223
88	0xbdeb6e74	-0.11495677
89	0x3d2aac43	0.041668188
90	0x3e0acdd0	0.13555074
91	0x3d805567	0.06266289
92	0x3e0649e1	0.1311412
93	0x3d23df10	0.04000765
94	0xbdd83b38	-0.1055817
95	0xbd2bfc76	-0.041988812
96	0xbbc7f1ba	-0.006101814
97	0x3d79ade7	0.06095686
98	0x3d2363db	0.03989015
99	0x3e9d22c3	0.30690584
100	0xbcb722b5	-0.022355417
101	0x3e2e3a7f	0.17014502
102	0xbe3e40c0	-0.18579388
103	0x3d4e717c	0.050401196
104	0x3d867102	0.06564523
105	0xbd9a064c	-0.07520732
106	0xbdacc27c	-0.084355325
107	0x3e48c3d8	0.19605958
108	0xbda73b7b	-0.08165642
109	0xbaf62cd6	-0.0018781673
110	0xbd8c0388	-0.06836611
111	0x3e192b68	0.14957964
112	0x3e6ce8ac	0.23135632
113	0x3dbdc658	0.09266347
114	0xbe54681f	-0.20742844
115	0xbdeaef2c	-0.114714
116	0xbd42aa4b	-0.047525685
117	0x3e5e4f6a	0.21709982
118	0xbe237c4a	-0.15965381
119	0x3e52bad7	0.20579086
120	0xbe3fcaac	-0.18729657
121	0xbe7683e6	-0.24073753
122	0xbc9093c2	-0.017648581
123	0x3c4ca8a4	0.012491379
124	0x3bb9aa47	0.0056660506
125	0xbe0424df	-0.1290469
126	0x3e41496d	0.18875666
127	0xbe612de3	-0.2199016
128	0xbd1cebc9	-0.0383108
129	0xbd215105	-0.039383907
130	0xbea33554	-0.31876624
131	0xbc8cc72f	-0.017184822
132	0xbb6fba97	-0.0036579722
133	0xbe79fbf9	-0.24412526
134	0x3e8c454b	0.27396616
135	0xbcf79f8c	-0.030227445
136	0x3e026937	0.12735449
137	0x3ea18c9c	0.3155259
138	0x3e62b452	0.22139099
139	0x3e0be57f	0.13661765
140	0xbc934c89	-0.01798083
141	0x3e551c93	0.20811681
142	0xbe1f2597	-0.15541683
143	0x3e0b03bf	0.13575648
144	0x3d062337	0.032748427
145	0xbe432a09	-0.19059004
146	0xbd8cbf3a	-0.06872411
147	0xbe5b05a2	-0.21388867
148	0x3dba2b1b	0.09090253
149	0xbd972ce1	-0.07381607
150	0x3e87d4f7	0.26529667
151	0x3d9e6516	0.07734124
152	0x3e34062b	0.17580478
153	0xbd584c1f	-0.05280697
154	0xbca02581	-0.019549133
155	0xbd18f766	-0.037345313
156	0x3dff343c	0.12461135
157	0x39b98911	0.00035388072
158	0x3e013ae3	0.1262012
159	0x3d98f1bd	0.07467983
160	0xbb844b24	-0.004037278
161	0xbe07af59	-0.13250484
162	0x3e5ed503	0.21760945
163	0xbd189ced	-0.03725903
164	0xbc498d4b	-0.012301753
165	0xbe356840	-0.1771555
166	0x3c6dc6fa	0.014512772
167	0x3d2fb61b	0.04289828
168	0x3d055630	0.032552898
169	0xbdbceb19	-0.09224529
170	0xbe72e40a	-0.23719802
171	0xbe330cc8	-0.17485344
172	0x3d506fbc	0.05088781
173	0xbe3e9349	-0.18610872
174	0x3b09685d	0.0020966746
175	0x3ddaac1f	0.10677361
176	0x3d39f569	0.045400057
177	0x3d0f4207	0.034975078
178	0xbcf30669	-0.029666143
179	0xbd0defd3	-0.034652542
180	0xbe5b7ed6	-0.21435103
181	0xbe39d491	-0.18147494
182	0xbeaedc0d	-0.3415226
183	0x3e6bf4e1	0.23042633
184	0xbd25e9f9	-0.040506337
185	0x3ebc35a2	0.3675967
186	0xbe6aefa0	-0.22942972
187	0x3e9b8319	0.30373457
188	0x3e9c9694	0.30583632
189	0xbd1d9d3c	-0.03848003
190	0x3d9c72a0	0.076390505
191	0xbe209e1b	-0.15685312
192	0x3dea2cab	0.11434301
193	0x3b31822b	0.0027085643
194	0xbd037821	-0.032096986
195	0x3e23d083	0.1599751
196	0xbcd472bd	-0.025933618
197	0xbe0c7691	-0.13717104
198	0xbead6845	-0.33868614
199	0xbd6cc8a9	-0.057808552
200	0xbecfadb4	-0.40562212
201	0x3da47a64	0.08031157
202	0xbd8e4d75	-0.069483675
203	0x3d10d0ea	0.035355486
204	0x3dd4f1b7	0.10397666
205	0xbef18c1f	-0.47177216
206	0xbe99ac5b	-0.3001431
207	0x3e0d6761	0.13808967
208	0x3d8c5f67	0.06854134
209	0xbcdf84e0	-0.02728504
210	0x3ebbc33e	0.36672395
211	0x3dcdde34	0.100521475
212	0xbdbe225c	-0.09283897
213	0x3e5d559c	0.21614689
214	0x3e1af00e	0.15130636
215	0xbe6e692f	-0.23282312
216	0x3e2fa2cf	0.1715195
217	0x3d45c459	0.048282955
218	0xbcefc4b1	-0.029268594
219	0xbb8a6eb0	-0.0042246208
220	0x3df3b3ac	0.11899504
221	0x3c27eb16	0.01024892
222	0x3d406a59	0.04697642
223	0x3bae5819	0.0053205607
224	0xbe9ec241	-0.3100758
225	0x3d79026c	0.060793325
226	0x3e11da22	0.14243367
227	0x3e628b66	0.22123489
228	0x3c67f067	0.0141564375
229	0x3d8fe0e3	0.070253156
230	0x3e9249c6	0.2857191
231	0xbdf8c963	-0.121477865
232	0x3d0c5b72	0.034266897
233	0x3e09501b	0.13409464
234	0xbe7e1619	-0.24813117
235	0x3d486c4d	0.04893141
236	0x3dde2d2b	0.10848459
237	0x3e9625a6	0.29325598
238	0xbe0d3022	-0.13787892
239	0x3dc205cf	0.09473764
240	0xbdd5d869	-0.104416676
241	0xbe24a8d1	-0.16080023
242	0xbd0dddaf	-0.034635242
243	0xbd523223	-0.051317345
244	0x3e1f6a39	0.15567864
245	0xbe7e0db7	-0.2480992
246	0x3e88ce27	0.26719782
247	0x3e6b6f0e	0.22991583
248	0x3d9582ca	0.07300337
249	0x3e986cbe	0.29770464
250	0xbdbc0192	-0.09179987
251	0xbd671786	-0.056418918
252	0x3e663480	0.22480965
253	0x3d7d5212	0.061845846
254	0x3ea337f7	0.31878635
255	0x3e2dde22	0.16979268

bias f4 [24]
0	0x3d177369	0.036975298
1	0xbdec7816	-0.11546342
2	0xbd0c41d1	-0.034242455
3	0x3dbf95a0	0.093547106
4	0x3db4cabd	0.08827732
5	0xbd972f64	-0.07382086
6	0x3dbf9fde	0.09356664
7	0xbdb2dee1	-0.08733917
8	0x3d89b2dc	0.06723568
9	0xbdb2e862	-0.0873573
10	0xbd0b1489	-0.03395513
11	0x3d7f3ad7	0.062311973
12	0xbde8ac1a	-0.11360951
13	0x3cf82a37	0.030293567
14	0xbd6094f8	-0.054829568
15	0xbdf3c2df	-0.11902403
16	0xbd12e4b7	-0.03586265
17	0xbd6af6ad	-0.057364155
18	0x3d9ebb4d	0.077505685
19	0xbdf5f7a1	-0.12010122
20	0x3d948d79	0.07253546
21	0x3ce98958	0.028507873
22	0xbda5a365	-0.08087806
23	0x3d5911ed	0.05299561

weight f4 [24]
0	0x3e74f24b	0.23920552
1	0x3e76c72b	0.24099414
2	0x3e78cb60	0.24296331
3	0x3e7a5bba	0.24449053
4	0x3e76d654	0.24105197
5	0x3e76c0ae	0.24096939
6	0x3e7f9f55	0.24963124
7	0x3e824d79	0.25449732
8	0x3e7a252d	0.24428244
9	0x3e7a8f7b	0.24468796
10	0x3e82fa07	0.2558138
11	0x3e7b0474	0.24513417
12	0x3e797af7	0.24363314
13	0x3e7a0063	0.2441421
14	0x3e812633	0.25224456
15	0x3e775091	0.24151827
16	0x3e77f75b	0.24215452
17	0x3e78d2c8	0.24299157
18	0x3e7ba9be	0.2457647
19	0x3e7732a0	0.24140406
20	0x3e78f60d	0.24312611
21	0x3e7abd8f	0.24486373
22	0x3e79aedc	0.2438311
23	0x3e7aacc8	0.24479973

weight f4 [24, 24, 3]
0	0xbc21ff87	-0.009887583
1	0x3ebdccf3	0.37070426
2	0xbd887e48	-0.06664711
3	0x3c98bf48	0.018645898
4	0x3d09d8e6	0.033654116
5	0x3d1bd1cd	0.03804188
6	0xbdeb6431	-0.11493719
7	0x3d9b03a9	0.075690575
8	0x3e8129eb	0.25227293
9	0x3c134fb4	0.008991171
10	0x3e25b99f	0.1618409
11	0xbe06087f	-0.13089179
12	0xbcf2c836	-0.029636484
13	0x3e1f1fd4	0.15539485
14	0xbe29d7e1	-0.16586258
15	0x3e03e7f0	0.12881446
16	0x3ce40082	0.027832273
17	0x3e64ae8f	0.22332214
18	0x3c222dae	0.009898586
19	0x3e2d544e	0.16926691
20	0x3d844b95	0.06459729
21	0xbe5ba604	-0.21450049
22	0x3e92075a	0.28521234
23	0xbd3b34ae	-0.045704536
24	0x3e1b4575	0.15163215
25	0xbeda7d5e	-0.42673773
26	0xbd033c88	-0.03204015
27	0x3e801552	0.25016266
28	0xbd3a7b2d	-0.045527626
29	0xbe032e75	-0.1281069
30	0xbd3b5e1b	-0.045744043
31	0xbd9ebb93	-0.07750621
32	0x3dac67aa	0.0841821
33	0xbe080b47	-0.13285552
34	0x3e396744	0.18105799
35	0x3eb19e88	0.34691262
36	0x3e522acf	0.20524143
37	0x3de79575	0.113078035
38	0x3d38fedb	0.045164924
39	0x3dd5bda1	0.104365595
40	0x3dba3345	0.0909181
41	0x3dfcd57b	0.12345406
42	0x3bf19e68	0.00737362
43	0x3c96e67d	0.018420452
44	0xbe88d011	-0.26721242
45	0x3e043568	0.12910998
46	0x3d1954bc	0.037434325
47	0x3e290aad	0.16507979
48	0xbebd9605	-0.37028518
49	0x3cf6f31f	0.030145226
50	0xbc072ec5	-0.008250897
51	0x3e7d0b79	0.24711408
52	0xbdc111a6	-0.09427194
53	0xbc10d9cc	-0.008840989
54	0x3d0a57c0	0.03377509
55	0xbe032443	-0.12806801
56	0xbe37f57d	-0.1796474
57	0xbdfd7e35	-0.12377588
58	0x3dc48b5e	0.09596895
59	0x3e6ced35	0.23137362
60	0x3e100d61	0.14067604
61	0xbd41f450	-0.047352135
62	0x3e48f408	0.1962434
63	0xbd8cc71f	-0.06873917
64	0xbd0bda94	-0.034144
65	0x3ea192c1	0.31557277
66	0x3ec59fe5	0.38598552
67	0xbd777ce5	-0.060421843
68	0x3e14f97c	0.14548296
69	0x3e110a98	0.14164197
70	0x3e0a4673	0.13503437
71	0x3ec9c7f2	0.3941036
72	0xbe7223a7	-0.23646413
73	0x3e22a3c6	0.15882787
74	0xbd67a59b	-0.056554418
75	0x3dd8a326	0.10577993
76	0x3c89afc3	0.016807443
77	0xbe71a589	-0.23598303
78	0x3e171a20	0.1475606
79	0x3e1abfba	0.151122
80	0x3e355b44	0.17710596
81	0x3e077193	0.13226919
82	0xbc5f482c	-0.013628047
83	0xbd4afd68	-0.049558073
84	0x3e970095	0.29492632
85	0x3caec813	0.021335637
86	0xbe8cf97a	-0.27534086
87	0x3cb2ee19	0.02184205
88	0xbdcdbd5f	-0.10045885
89	0xbd7ca232	-0.06167812
90	0x3e622012	0.22082546
91	0xbe6a4501	-0.22877885
92	0xbe81a53e	-0.25321382
93	0x3ea0d82d	0.3141493
94	0xbe88c63d	-0.26713744
95	0xbb2396ce	-0.0024961713
96	0xbdfe8e98	-0.12429541
97	0x3ce564f9	0.02800225
98	0x3d2c04cd	0.041996766
99	0xbe3bd8d7	-0.18344437
100	0x3d1550fc	0.036454186
101	0x3e410793	0.18850546
102	0x3e5030e2	0.20331147
103	0x3e93f1a3	0.28895292
104	0x3cf2d0d4	0.029640593
105	0xbd07997e	-0.033105366
106	0x3e736341	0.23768331
107	0x3dbf93f4	0.09354392
108	0x3d80f2d5	0.062963165
109	0xbeabb0ca	-0.33533317
110	0x3d857934	0.06517258
111	0x3d330dc5	0.043714304
112	0x3e1736a6	0.1476694
113	0x3dc8f5a1	0.09812475
114	0x3ea0a82a	0.313783
115	0xbdca60ce	-0.09881745
116	0xbc622caf	-0.013804599
117	0xbe226e87	-0.15862475
118	0x3d9bb655	0.076031365
119	0xbd333a69	-0.043756876
120	0x3d5f1b6d	0.054469515
121	0xbe7e23ac	-0.24818295
122	0xbdd41950	-0.103563905
123	0x3d00fce8	0.03149119
124	0xbea032e3	-0.31288823
125	0x3d3cd73c	0.0461037
126	0xbd947b66	-0.07250099
127	0x3e1d7e6d	0.15380259
128	0x3d243f88	0.04009965
129	0x3db82384	0.08991149
130	0x3e7835b5	0.24239238
131	0x3c46c9bc	0.012133058
132	0x3e1c7a8a	0.1528112
133	0xbe2b67cc	-0.16738814
134	0x3d5b8ae9	0.053599272
135	0x3e0ef04a	0.1395885
136	0xbec086a2	-0.37602717
137	0x3e132fc8	0.14373696
138	0x3ec01bce	0.37521213
139	0x3e1c9152	0.1528981
140	0x3e55345a	0.20820752
141	0xbda24c28	-0.07924682
142	0xbdb30ecb	-0.08743056
143	0x3daf0be1	0.085471876
144	0x3db6f14c	0.089327425
145	0xbe27d18d	-0.16388531
146	0x3da93d47	0.08263641
147	0x3dd2b6aa	0.10288747
148	0x3e40e71a	0.18838158
149	0x3e425e13	0.18981199
150	0x3ef8ab85	0.4856836
151	0xbdba8b07	-0.091085486
152	0xbdb795c8	-0.089641154
153	0xbe0aa05a	-0.13537732
154	0xbd2449f7	-0.0401096
155	0x3a912487	0.0011073508
156	0xbe84c197	-0.25928947
157	0xbe4b7ff0	-0.19873023
158	0xbc8c230e	-0.01710656
159	0x3d860b1b	0.06545087
160	0x3d8ac357	0.06775539
161	0xbe33852f	-0.17531274
162	0xbe4c7ab1	-0.19968678
163	0xbe58c0d0	-0.21167302
164	0x3e53e032	0.20690992
165	0xbca7018f	-0.020386485
166	0xbd8e587a	-0.06950469
167	0xbe4b0113	-0.19824629
168	0xbdf03a79	-0.11729903
169	0x3e2b89c0	0.16751766
170	0xbd8e4154	-0.06946054
171	0x3ef79f18	0.48363566
172	0x3cf811ae	0.030281868
173	0x3e2af042	0.16693214
174	0xbe627bf3	-0.22117595
175	0xbc663d66	-0.0140527245
176	0x3e032ff6	0.12811264
177	0x3df47d6e	0.11937986
178	0x3ac8ed77	0.0015329559
179	0x3e89f8ab	0.2694753
180	0xbdeb0562	-0.11475636
181	0xbdba1cf3	-0.09087553
182	0x3e615512	0.22005108
183	0xbd7b9687	-0.06142285
184	0xbe500e89	-0.20318045
185	0xbe86d6c1	-0.2633572
186	0xbdf0cdce	-0.11758004
187	0xbd26a287	-0.040682342
188	0xbe318fe1	-0.17340042
189	0x3d80fad1	0.062978394
190	0xbe8737f6	-0.26409882
191	0x3d0dca7c	0.034616932
192	0xbec2f70e	-0.38079113
193	0xbdc0b2cd	-0.094091035
194	0xbe5427b2	-0.20718268
195	0x3dd7c325	0.10535268
196	0x3ed6cf32	0.41954952
197	0xbdc759cd	-0.09733925
198	0x3e34451c	0.17604488
199	0xbde2e815	-0.110794224
200	0x3e8984d7	0.2685916
201	0x3e88a242	0.26686293
202	0x3c5e2c07	0.013560302
203	0xbcb860f8	-0.022507176
204	0xbd47ebca	-0.04880885
205	0x3d2980b0	0.04138249
206	0xbd2beb02	-0.041972168
207	0x3dc03c92	0.09386553
208	0xbe398cdd	-0.18120141
209	0x3cea37a8	0.028590992
210	0xbe865884	-0.26239407
211	0xbe911649	-0.28337315
212	0xbe1ffaa1	-0.15622951
213	0x3dea7228	0.11447555
214	0x3e75bd7c	0.23998064
215	0x3d50caea	0.050974764
216	0xbe7e5fc9	-0.24841227
217	0xbe41b035	-0.18914874
218	0x3e18754a	0.14888492
219	0x3e368a0c	0.17826098
220	0x3e8d215d	0.27564517
221	0x3dce777c	0.100813836
222	0xbe3bf457	-0.18354927
223	0x3d78cddf	0.06074321
224	0xbe0744a6	-0.13209781
225	0xbe46eacd	-0.19425507
226	0x3d99a80b	0.07502755
227	0xbbdc9f2b	-0.0067328415
228	0xbda63ce1	-0.081170805
229	0x3ee2c35d	0.44289675
230	0x3d16dff9	0.03683469
231	0x3e808053	0.25097904
232	0x3de17479	0.110085435
233	0xbd01666f	-0.03159183
234	0xbd9c44f6	-0.07630341
235	0xbe6da73d	-0.23208328
236	0xbd9d54cc	-0.07682189
237	0x3db3cf94	0.08779827
238	0x3dcc1672	0.099652186
239	0x3e0f04ed	0.13966723
240	0xbe2e600a	-0.17028823
241	0xbe7b40c3	-0.24536423
242	0xbe01bfc1	-0.12670805
243	0x3e2a5d76	0.16637215
244	0x3d1cebc1	0.03831077
245	0xbe821bfc	-0.25411975
246	0xbe2a1314	-0.1660884
247	0xbdd9e47e	-0.106392846
248	0x3e25e277	0.1619967
249	0x3a617558	0.00086005544
250	0xbcce1d5d	-0.025160486
251	0x3d068147	0.032838132
252	0x3e8287bb	0.2549418
253	0x3df8a182	0.1214018
254	0xbd836115	-0.06415001
255	0x3e1069c3	0.14102845

bias f4 [24]
0	0x3db4014d	0.087893106
1	0x3d80704e	0.062714204
2	0x3daa4661	0.08314205
3	0xbdc543e7	-0.09632092
4	0x3dacd51f	0.08439087
5	0xbcae3b85	-0.021268615
6	0x3d770df9	0.06031606
7	0x3b3ed7c6	0.002912031
8	0xbd7042a1	-0.058657292
9	0xbdd0b518	-0.10190791
10	0xbdd43f7f	-0.103636734
11	0x3d8c93f4	0.06864157
12	0xbd9f35e9	-0.077739544
13	0x3ca8b342	0.02059329
14	0xbc19f9df	-0.009397953
15	0x3d0288d7	0.031868782
16	0xbcd6159f	-0.026133357
17	0x3d63d119	0.055619333
18	0xbd2ea2a8	-0.04263559
19	0x3d733315	0.059374887
20	0x3d2bfe46	0.04199054
21	0x3d903a60	0.07042384
22	0xbd2a02fb	-0.04150675
23	0xbd9dcfad	-0.07705627

weight f4 [24]
0	0x3e7b38c1	0.24533369
1	0x3e7adae9	0.2449757
2	0x3e7b3a16	0.24533877
3	0x3e82804d	0.2548851
4	0x3e7a47b0	0.24441409
5	0x3e7b4b3f	0.24540423
6	0x3e825c0f	0.2546086
7	0x3e7b10bf	0.24518107
8	0x3e7a81b7	0.24463545
9	0x3e82a466	0.2551605
10	0x3e7abe62	0.24486688
11	0x3e7a9d6c	0.24474114
12	0x3e7a10d6	0.24420485
13	0x3e7fd9fa	0.24985495
14	0x3e7ac8e9	0.24490704
15	0x3e794152	0.24341324
16	0x3e78dbc8	0.2430259
17	0x3e7b4dab	0.24541347
18	0x3e7aa509	0.24477018
19	0x3e838cd7	0.2569339
20	0x3e75fddd	0.24022622
21	0x3e8285ff	0.25492856
22	0x3e815c81	0.25265887
23	0x3e8283a3	0.25491056
