models/teste-uncloss-ss3_ss4.pth (torch_old, 60730 bytes, 77 tensors)

weight f4 [8, 22, 1]
0	0xbf35015c	-0.707052
1	0xbec1d9d9	-0.37861517
2	0xbf108209	-0.5644842
3	0xbef2bb02	-0.474083
4	0xbec5bc87	-0.38620397
5	0x3e680b4c	0.2266056
6	0xbe98a937	-0.298166
7	0x3de8a687	0.113598876
8	0xbf7d64ed	-0.98982126
9	0xbe20e683	-0.15712933
10	0xbe4e7e43	-0.20165353
11	0xbecb34fd	-0.39688864
12	0x3eb4abbe	0.3528728
13	0x3e1fe90f	0.15616249
14	0xbc285a9e	-0.010275511
15	0xbe0a604f	-0.13513301
16	0x3d2e40bb	0.0425422
17	0x3f01e232	0.5073577
18	0xbefa9ca8	-0.48947644
19	0x3e8edc27	0.27902338
20	0xbed6663a	-0.41874868
21	0xbd811bf1	-0.063041575
22	0x3eefb07d	0.46814337
23	0x3ea1342a	0.3148511
24	0x3f2c5de2	0.67330754
25	0x3eedf2f0	0.4647441
26	0xbf03cfcb	-0.5148894
27	0xbf051248	-0.5198102
28	0x3efc5229	0.49281433
29	0x3e22e34c	0.1590702
30	0xbe320de0	-0.17388105
31	0x3e9b7846	0.303652
32	0x3f533213	0.8249828
33	0xbcb11d9a	-0.02162056
34	0x3e9b4b5b	0.3033093
35	0x3f0d538a	0.55205595
36	0x3d9dd35f	0.077063315
37	0xbca25188	-0.019814268
38	0x3d1817a7	0.03713193
39	0x3eccab63	0.39974508
40	0x3e743d98	0.23851621
41	0x3caceb73	0.021108365
42	0x3de58457	0.112068824
43	0x3e857a1c	0.26069725
44	0x3e9ec953	0.31012973
45	0xbefcdd56	-0.49387616
46	0xbe53e49c	-0.20692676
47	0x3f0803c2	0.53130734
48	0xbf4972ef	-0.78691
49	0xbee65bad	-0.44991818
50	0x3e5e83b4	0.21729928
51	0x3d9fc75b	0.07801696
52	0x3f1048a0	0.56360817
53	0xbd5787f7	-0.0526199
54	0x3e9af499	0.30264738
55	0x3ea36ca8	0.31918836
56	0x3e1f6888	0.1556722
57	0xbe4b842c	-0.19874638
58	0x3ea4c4ee	0.32181495
59	0xbf196bfc	-0.59930396
60	0xbf20d1f8	-0.62820387
61	0xbf34a2b6	-0.7056078
62	0xbf2397e9	-0.6390367
63	0xbe036838	-0.12832725
64	0xbda3ade2	-0.0799215
65	0x3f02c994	0.51088834
66	0xbc9e0bd6	-0.019292753
67	0x3e91c8f0	0.28473616
68	0xbe04087f	-0.12893866
69	0x3ea4377b	0.32073578
70	0x3f14abd6	0.580747
71	0x3e3746bf	0.17898081
72	0x3ea72f82	0.32653433
73	0xbe219a50	-0.15781522
74	0x3ea81ee1	0.3283606
75	0x3ecc811f	0.39942262
76	0x3e1c2302	0.1524773
77	0x3dacbec4	0.08434823
78	0x3e115005	0.14190681
79	0xbe8ef29e	-0.27919477
80	0xbdd7c9ba	-0.10536523
81	0xbdfd34b1	-0.12363566
82	0x3e86b46e	0.26309532
83	0x3e5e7ef9	0.21728124
84	0xbf04964f	-0.5179185
85	0xbe426ecd	-0.1898758
86	0x3d7adb0c	0.061244056
87	0x3e8120d2	0.25220352
88	0xbdaf8ea7	-0.08572131
89	0xbe6346b2	-0.22194937
90	0xbf547be1	-0.83001524
91	0x3e2eb118	0.17059743
92	0x39ba252c	0.0003550438
93	0x3cbef1e3	0.0233087
94	0x3f096310	0.5366678
95	0xbe3c20cd	-0.18371888
96	0x3f28241b	0.6568009
97	0xbd9e2a28	-0.077228844
98	0xbe783ba9	-0.24241509
99	0xbe30c160	-0.17261267
100	0x3e85dd9e	0.26145643
101	0x3e45e24e	0.1932461
102	0xbd12cc20	-0.0358392
103	0x3e7ed17a	0.24884596
104	0xbf15ef85	-0.585686
105	0x3e3eed0f	0.18645118
106	0xbedae27d	-0.42750922
107	0x3f2098a2	0.627329
108	0xbd9f0a73	-0.07765665
109	0x3e30ffea	0.17285123
110	0xbe0fc9b7	-0.14041792
111	0x3f61479f	0.8799991
112	0x3e01af8f	0.12664627
113	0xbe49cb48	-0.19706452
114	0x3e5e527a	0.2171115
115	0x3efbcfa8	0.49181867
116	0xbeeb105a	-0.45910913
117	0x3e67f1a4	0.22650772
118	0x3d271352	0.04078991
119	0x3ee9957b	0.45621857
120	0x3f4a7a40	0.7909279
121	0x3e870849	0.2637351
122	0x3ea64710	0.3247609
123	0xbe3117e4	-0.1729427
124	0x3ca367df	0.01994699
125	0x3d9711e9	0.07376463
126	0x3e9e581e	0.30926603
127	0x3f5eb9d6	0.87002313
128	0x3f012334	0.5044434
129	0x3ec8342d	0.39102307
130	0x3d88a7e1	0.06672645
131	0xbedb4555	-0.42826334
132	0xbeb97d64	-0.36228478
133	0xbe688995	-0.22708733
134	0x3edcc97c	0.4312247
135	0xbe4b88a4	-0.19876343
136	0x3d9dd51b	0.07706662
137	0xbd4aa302	-0.049471863
138	0x3e97522a	0.29554874
139	0xbe36097c	-0.17777056
140	0x3db3b568	0.08774835
141	0x3ebdd579	0.3707693
142	0xbdf1523a	-0.117832616
143	0x3e90ba14	0.28266966
144	0x3e220be4	0.15824848
145	0xbd60e912	-0.054909773
146	0x3cbdc61d	0.023165757
147	0xbe74632d	-0.23865958
148	0xbf26a9f8	-0.651031
149	0x3f235053	0.6379444
150	0xbd484616	-0.048894964
151	0x3eefcb23	0.4683467
152	0x3e605a54	0.21909457
153	0xbecb794a	-0.39740974
154	0xbc9f7d79	-0.01946901
155	0x3e4457b0	0.19174075
156	0xbed71ccb	-0.42014155
157	0xbedd40ac	-0.43213403
158	0x3df89f71	0.12139786
159	0xbd85e57d	-0.06537912
160	0xbe2e7318	-0.17036092
161	0xbef830f0	-0.48474836
162	0x3e5722a0	0.21009302
163	0xbe762640	-0.24038029
164	0x3eb6f2e1	0.35732177
165	0xbe06a287	-0.13147937
166	0xbf0c5695	-0.54819614
167	0xbe502e3b	-0.20330136
168	0x3e7a4d0c	0.24443454
169	0x3f4d7ef5	0.80271846
170	0xbd471fa7	-0.04861417
171	0xbf16cde6	-0.58907926
172	0x3da75f59	0.08172483
173	0x3eb414b6	0.3517205
174	0x3e431100	0.19049454
175	0xbe94bafc	-0.29048908

weight f4 [8]
0	0x3e52358b	0.20528238
1	0x3e53422f	0.20630716
2	0x3e42a4c7	0.1900817
3	0x3e22b048	0.15887558
4	0x3e85c9a8	0.26130414
5	0x3e32bb1d	0.1745419
6	0x3e719ce4	0.23595005
7	0x3e6e66e2	0.23281434

weight f4 [8, 8, 3]
0	0xbe47fbcc	-0.19529647
1	0xbecfa1cf	-0.40553138
2	0xbe82a024	-0.25512803
3	0xbea8a159	-0.32935598
4	0x3c8f89d2	0.017521773
5	0x3caf2196	0.02137832
6	0xbe78164e	-0.24227259
7	0x3dfada2a	0.12248643
8	0xbc12c764	-0.008958671
9	0x3dc398e1	0.09550644
10	0xbeef4ab3	-0.46736678
11	0xbec87a2b	-0.39155707
12	0xbdeb9812	-0.115036145
13	0x3ee5aa04	0.44856274
14	0xbd2bb60c	-0.04192166
15	0xbec02b39	-0.37532976
16	0xbf02a4bb	-0.5103261
17	0x3e01a5a1	0.12660839
18	0xbec86376	-0.39138383
19	0x3d9fd843	0.078049205
20	0xbe083154	-0.13300067
21	0x3cf1f8ca	0.029537577
22	0xbf0e4b3e	-0.5558356
23	0xbe4fff2d	-0.20312186
24	0x3e2329b2	0.15933874
25	0x39d47db3	0.00040529444
26	0x3f2943b5	0.6611894
27	0x3e560738	0.20901191
28	0xbe9d7bec	-0.30758607
29	0x3b85d8f5	0.004084701
30	0x3e894147	0.26807615
31	0xbd122d84	-0.03568794
32	0x3ed8bc51	0.42331174
33	0x3e163d06	0.14671716
34	0x3d914ede	0.07095121
35	0x3ecd5890	0.4010663
36	0xbf184a27	-0.5948815
37	0x3e5f213e	0.21790025
38	0x3ea50215	0.3222815
39	0xbdcbbc53	-0.09948029
40	0x3e4c8a6f	0.19974683
41	0xbeaabac5	-0.3334562
42	0xbd2f3430	-0.04277438
43	0xbe578b31	-0.21049191
44	0x3dc1dae5	0.09465579
45	0xbe42b6c9	-0.1901504
46	0xbe4217d0	-0.18954396
47	0x3dbc2617	0.091869526
48	0xbe2dee46	-0.16985425
49	0x3e3cf397	0.18452297
50	0xbe874a70	-0.2642398
51	0xbeef18e3	-0.46698675
52	0x3e887e5f	0.26658913
53	0x3c79c78b	0.015245329
54	0x3ea2f790	0.318295
55	0x3de30bda	0.11086245
56	0xbe0972cc	-0.13422698
57	0xbdd7776c	-0.10520825
58	0x3ef3d4b9	0.47623232
59	0x3e1306ac	0.14358014
60	0xbee366b8	-0.44414306
61	0xbf24dd07	-0.6439976
62	0x3e1d927c	0.1538791
63	0x3ea3c8ec	0.3198923
64	0x3da33ce3	0.079705976
65	0x3f1ba355	0.607961
66	0x3ee39a0b	0.44453463
67	0x3e7196ff	0.23592757
68	0xbe0a03bf	-0.13477992
69	0x3eda85a8	0.42680097
70	0x3e3aa03b	0.18225186
71	0x3d4fdb23	0.050746094
72	0x3e20a2a8	0.15687048
73	0xbf0f6b62	-0.5602323
74	0x3b7b6be5	0.003836387
75	0xbd5cd4f3	-0.05391402
76	0xbdc58ddf	-0.096462004
77	0xbdb81812	-0.08988966
78	0x3ed8f59c	0.42374885
79	0x3edb43c7	0.42825148
80	0x3e8af667	0.27141115
81	0x3f28c860	0.6593075
82	0xbd77aa5b	-0.060465198
83	0xbdc9ed02	-0.09859659
84	0x3b9dc229	0.0048144055
85	0x3ba43fea	0.005012502
86	0xbecd04ce	-0.40042728
87	0xbe4b369c	-0.1984505
88	0x3da7dd2c	0.08196482
89	0xbde33c4d	-0.11095486
90	0xbe750cfa	-0.23930731
91	0x3e23df23	0.16003089
92	0xbe086123	-0.13318305
93	0xbde79879	-0.11308379
94	0x3e991eb4	0.29906237
95	0x3ee58d28	0.44834256
96	0x3e1552ba	0.14582339
97	0xbe8ee415	-0.27908388
98	0x3dbec62b	0.09315141
99	0xbf35d6a3	-0.71030635
100	0xbe3d20fb	-0.18469612
101	0xbe1286a8	-0.1430918
102	0xbf3877cf	-0.72057813
103	0xbeb0dcd8	-0.3454349
104	0x3d3e8708	0.046515495
105	0xbe854484	-0.26028836
106	0xbed4a5c8	-0.4153273
107	0x3cca3f21	0.024688305
108	0x3f0fe54d	0.5620926
109	0x3d6ad467	0.05733147
110	0x3cd9451b	0.02652221
111	0xbed1ebbe	-0.4100017
112	0xbe6f0979	-0.23343457
113	0x3e1a1e36	0.15050587
114	0xbd7628cc	-0.0600975
115	0x3ea3d77c	0.3200034
116	0xbe83f2cc	-0.25771177
117	0xbe9bc888	-0.3042643
118	0x3e7aed66	0.24504623
119	0x3be5dbdf	0.007014736
120	0xbc1f50aa	-0.009723822
121	0xbe09adfb	-0.13445275
122	0x3e10e4b3	0.14149742
123	0x3e7f0bf4	0.24906904
124	0xbe88b7ed	-0.26702824
125	0x3efe572e	0.49675888
126	0xbee798b2	-0.45233685
127	0xbe803300	-0.2503891
128	0x3e0fb6a4	0.14034516
129	0xbe95a2a0	-0.29225636
130	0xbdfad36e	-0.12247358
131	0x3ea0c8eb	0.31403288
132	0x3e10e478	0.14149654
133	0x3ed46940	0.4148655
134	0x3e1d4933	0.15359955
135	0xbd2180c8	-0.039429456
136	0x3eaa3992	0.33247048
137	0x3de7e313	0.11322608
138	0x3de04b7a	0.10951896
139	0xbe7b22f7	-0.24525057
140	0x3d9f97d2	0.07792629
141	0x3de95133	0.11392441
142	0x3c0f7b40	0.008757412
143	0xbe584809	-0.21121229
144	0x3de0c6d6	0.10975425
145	0xbf24ba26	-0.6434654
146	0x3e5f1591	0.2178557
147	0x3dc686b0	0.09693658
148	0xbe5dacd4	-0.2164796
149	0xbd900e58	-0.07033986
150	0xbf538476	-0.82623994
151	0xbca134ed	-0.019678557
152	0xbd959eec	-0.073057026
153	0x3bcae520	0.0061918646
154	0xbe166b8c	-0.14689463
155	0xbe0d4ff0	-0.13800025
156	0xbdf39414	-0.11893478
157	0x3d0f1da1	0.034940366
158	0xbc810991	-0.015751632
159	0xbeef0477	-0.46683094
160	0xbeb8d923	-0.36103162
161	0xbe63b460	-0.22236776
162	0x3e530ac8	0.20609581
163	0xbb66baa0	-0.0035206452
164	0x3e326729	0.17422165
165	0x3ed787fa	0.4209593
166	0xbde6890d	-0.11256609
167	0xbcf5614e	-0.029953625
168	0x3e265230	0.1624229
169	0x3eb4a446	0.3528158
170	0xbee66465	-0.4499847
171	0xbea99ad1	-0.33125928
172	0x3c86a3e4	0.016435571
173	0xbe77abd4	-0.24186641
174	0x3ed4083b	0.4141253
175	0xbe007330	-0.1254394
176	0xbee76635	-0.45195165
177	0xbd8b2aca	-0.06795271
178	0xbea3794b	-0.31928477
179	0x3cae051d	0.021242673
180	0x3dc8b990	0.09801018
181	0x3ec45815	0.3834845
182	0x3e3672d4	0.17817241
183	0xbec7b1f6	-0.3900296
184	0x3ca99403	0.02070046
185	0x3e8d6786	0.27618045
186	0x3e5d8c2c	0.21635503
187	0xbec6b06c	-0.38806474
188	0x3e69a86c	0.22818154
189	0xbe2d2662	-0.16909173
190	0x3e499918	0.19687307
191	0xbd52ea98	-0.051493257

bias f4 [8]
0	0xbdb60806	-0.08888249
1	0x3dbef1eb	0.09323486
2	0x3deb8c61	0.115013845
3	0xbe1a3d8b	-0.1506254
4	0xbd802180	-0.062563896
5	0xbcfc28cb	-0.03078117
6	0xbe5508a1	-0.20804073
7	0x3dd5701d	0.104217745

weight f4 [8]
0	0x3e648680	0.22316933
1	0x3e6366a3	0.22207122
2	0x3e43f726	0.19137248
3	0x3e8f4319	0.2798088
4	0x3e4d84b0	0.20070148
5	0x3e781dc4	0.24230105
6	0x3e8c65a2	0.2742129
7	0x3e7ed887	0.24887286

weight f4 [8, 8, 3]
0	0x3d7e06db	0.062018257
1	0xbceaf14a	-0.028679509
2	0x3dfe0007	0.12402349
3	0xbed2e48e	-0.41189998
4	0xbd90c986	-0.070696875
5	0x3d3da31a	0.046298124
6	0xbf16e8ec	-0.5894916
7	0x3efa1ec4	0.48851597
8	0xbd62a814	-0.055336073
9	0x3d041001	0.032241825
10	0x3e806f60	0.25084972
11	0x3e8b424f	0.27199027
12	0x3ed90f87	0.4239466
13	0x3e70f529	0.23531021
14	0xbe43c576	-0.19118294
15	0xbe8d7b19	-0.2763298
16	0x3ddfb515	0.109232105
17	0x3ef98595	0.48734728
18	0x3e359e15	0.17736085
19	0x3e900c5b	0.28134426
20	0xbf24a916	-0.64320505
21	0xbe9d99fa	-0.30781537
22	0xbe894630	-0.2681136
23	0xbeb8506b	-0.35998854
24	0xbe5ee719	-0.21767844
25	0x3e48ecb6	0.19621548
26	0xbf024d44	-0.5089915
27	0x3e41582e	0.18881294
28	0xbc0d4777	-0.008622996
29	0x3db756ae	0.0895208
30	0xbea8faca	-0.33003837
31	0xbf0611d4	-0.52370954
32	0xbf0c992e	-0.54921234
33	0xbed0b65c	-0.4076413
34	0x3e179942	0.14804557
35	0xbf287f14	-0.65818906
36	0x3ea72ece	0.32652897
37	0xbe582447	-0.21107589
38	0xbe164800	-0.14675903
39	0xbe195834	-0.14975053
40	0x3e39fa83	0.18161969
41	0x3e1d9f17	0.15392719
42	0x3e795ff5	0.24353011
43	0xbe5315bb	-0.20613758
44	0x3e045e82	0.12926677
45	0xbeb8d00c	-0.36096227
46	0xbc9d45b4	-0.019198276
47	0xbddd7960	-0.10814166
48	0x3db2f594	0.087382466
49	0x3c93b592	0.018030915
50	0xbee7a251	-0.45241025
51	0x3e1d3c80	0.1535511
52	0xbee5085e	-0.44732946
53	0x3e46c4cb	0.19411008
54	0x3dbfdf0b	0.09368714
55	0x3e698036	0.22802815
56	0x3d716e6b	0.058943193
57	0xbee03c31	-0.43795922
58	0x3e060e88	0.1309148
59	0x3eb59366	0.3546402
60	0x3c21c1a4	0.009872828
61	0xbe21680e	-0.1576235
62	0x3c65f1de	0.014034716
63	0xbef0c07f	-0.47021863
64	0xbe5d01ce	-0.2158272
65	0x3ec1826b	0.37794814
66	0x3e6d6925	0.2318464
67	0x3e88c1de	0.2671041
68	0x3c0f98d0	0.008764461
69	0x3f13fc32	0.57806695
70	0x3ddcb146	0.10776
71	0x3e200b32	0.1562927
72	0x3e846dfa	0.25865155
73	0x3ebd9272	0.3702579
74	0xbd2ea468	-0.04263726
75	0x3d041da1	0.03225482
76	0x3e586319	0.21131553
77	0x3e102292	0.14075688
78	0xbe8543c9	-0.26028278
79	0xbebdf788	-0.37102914
80	0xbef1e5c2	-0.47245604
81	0x3e07c7f4	0.1325987
82	0xbe0e6f8d	-0.13909741
83	0x3cb8dc4c	0.022565983
84	0x3e6e222c	0.23255223
85	0x3e7564a1	0.23964168
86	0x3cfed31d	0.031106526
87	0x3d99750d	0.07493029
88	0xbb025133	-0.0019884824
89	0x3e988804	0.29791272
90	0xbdbf96f7	-0.09354966
91	0x3f46b576	0.7762064
92	0xbed95da4	-0.42454255
93	0x3f075a4d	0.52872163
94	0xbeac5a79	-0.33662775
95	0xbec4f240	-0.38466072
96	0xbea96b38	-0.33089614
97	0xbee6fd8c	-0.45115316
98	0xbdde8a80	-0.108662605
99	0xbe3de93a	-0.18546
100	0x3e7ba97e	0.24576375
101	0x3f0cb72d	0.54967004
102	0xbde6a90c	-0.11262712
103	0x3c1809cd	0.00927968
104	0x3f04d947	0.5189404
105	0xbeaaabea	-0.33334285
106	0x3d9111e3	0.0708349
107	0x3d3ea5be	0.046544783
108	0xbe48ee71	-0.19622208
109	0x3d7bd67e	0.061483853
110	0x3e8b8b7d	0.2725486
111	0xbe6568d3	-0.22403269
112	0x3db84cd1	0.089990266
113	0xbe5199fa	-0.20468894
114	0xbdf3f575	-0.119120516
115	0x3e669b5c	0.22520202
116	0x3e4a5c92	0.19761875
117	0x3e2a9f87	0.16662417
118	0x3ecd9f4a	0.4016059
119	0x3b971113	0.0046101897
120	0x3df38033	0.118896864
121	0x3e387c90	0.18016267
122	0x3f260036	0.6484407
123	0xbe51c35d	-0.20484681
124	0x3d07a282	0.033113964
125	0x3d98b58c	0.07456502
126	0x3c62ebfc	0.013850208
127	0x3c8b603e	0.017013665
128	0x3e68ef42	0.2274752
129	0xbe038c73	-0.12846546
130	0x3eac8f90	0.3370328
131	0x3ed6c35c	0.41945922
132	0xbe654af8	-0.2239188
133	0xbeb8dff0	-0.3610835
134	0x3efa7f26	0.48925132
135	0xbe42889b	-0.18997423
136	0x3da904d6	0.082528755
137	0xbebd4000	-0.3696289
138	0xbe389c0b	-0.18028276
139	0x3e330db5	0.17485698
140	0x3d6513fd	0.055927265
141	0xbec5dd98	-0.38645625
142	0xbebd0922	-0.3692103
143	0xbe7e88ae	-0.24856827
144	0xbeb0df6a	-0.3454545
145	0xbe9da73b	-0.3079165
146	0xbdef7bdc	-0.11693546
147	0x3e9be394	0.30447066
148	0xbe0a57ba	-0.13510028
149	0xbe5c0557	-0.21486412
150	0x3e1fbf42	0.15600303
151	0xbeac2a5e	-0.33626074
152	0x3caac3ab	0.020845255
153	0x3ee2df8f	0.44311187
154	0xbe4e0589	-0.20119299
155	0x3dd0ab8c	0.1018897
156	0xbe939fa8	-0.28832746
157	0x3e9e5b79	0.30929163
158	0xbea4b4df	-0.32169244
159	0xbe9aecec	-0.30258882
160	0x3e34420c	0.1760332
161	0xbe8c3633	-0.273851
162	0x3f172dde	0.5905436
163	0x3e8c0fe5	0.27355877
164	0x3c904291	0.017609866
165	0x3e7d4475	0.24733146
166	0x3f12d7de	0.5736064
167	0xbe6f960e	-0.23397085
168	0x3f54b287	0.8308491
169	0xbd4c2436	-0.04983922
170	0x3ed4a293	0.41530284
171	0x3eca006f	0.39453456
172	0xbe929f1d	-0.2863702
173	0xbd99e4e0	-0.075143576
174	0xbda79776	-0.08183186
175	0x3e8497f8	0.25897193
176	0x3e601e32	0.21886519
177	0xbddaa8cb	-0.10676726
178	0xbe5e816f	-0.21729062
179	0x3e4d3f6f	0.20043729
180	0xbd31871d	-0.043341745
181	0x3e945da2	0.28977686
182	0x3e42c05c	0.19018692
183	0x3dc77c56	0.09740512
184	0xbebbad71	-0.36655763
185	0xbee13423	-0.4398509
186	0xbe7d8378	-0.24757183
187	0xbcb30996	-0.021855157
188	0x3ea472cd	0.32118836
189	0x3e89d4da	0.26920205
190	0x3d8a5b13	0.06755652
191	0x3d855d7c	0.06511971

bias f4 [8]
0	0xbe07df21	-0.1326871
1	0x3c381bb4	0.011237074
2	0xbe24c923	-0.16092353
3	0x3dfbe47b	0.122994386
4	0xbe5812d3	-0.21100931
5	0xbd882332	-0.06647338
6	0x3c835170	0.016030043
7	0xbd9299b9	-0.071582265

weight f4 [8]
0	0x3e82ee1c	0.25572288
1	0x3e74255b	0.23842375
2	0x3e9dfec9	0.30858448
3	0x3e5b26aa	0.21401468
4	0x3dc710a1	0.097199686
5	0x3e61d788	0.22054875
6	0x3e224631	0.15847088
7	0x3e5b96d4	0.21444255

weight f4 [8, 8, 3]
0	0x3e583ef8	0.2111777
1	0xbf064a1d	-0.5245684
2	0x3d488ab5	0.048960406
3	0xbebbd0ff	-0.3668289
4	0xbc993841	-0.018703582
5	0xbcab3063	-0.020897096
6	0x3c08475f	0.008317797
7	0x3d46c807	0.048530605
8	0xbe8b1116	-0.27161473
9	0x3e2e9c88	0.170519
10	0xbeb04561	-0.34427932
11	0x3e0ccd03	0.13750081
12	0xbdc4d789	-0.096114226
13	0xbca48eaa	-0.020087559
14	0xbcb398b5	-0.021923402
15	0x3de04544	0.10950711
16	0xbf1a38a0	-0.6024265
17	0x3e7f22b5	0.24915583
18	0xbe1d97dd	-0.15389962
19	0x3d7c8866	0.061653517
20	0xbf240acc	-0.64078975
21	0x3dfc552f	0.12320935
22	0x3e9862d0	0.29762888
23	0x3e48c1d8	0.19605196
24	0xbdf2dac8	-0.118581355
25	0xbefd4e20	-0.49473667
26	0x3e30b1b1	0.17255284
27	0x3e2679ba	0.16257372
28	0xbe9c0a44	-0.30476582
29	0xbde3e33e	-0.111273274
30	0xbd38f380	-0.045154095
31	0x3e0ed5c0	0.13948727
32	0xbdde8a5a	-0.10866232
33	0x3f0a4c56	0.5402273
34	0xbe6ce697	-0.23134838
35	0xbec9fd5c	-0.3945111
36	0x3e956b83	0.29183587
37	0x3f1b1afb	0.60588044
38	0xbdbe4db2	-0.09292163
39	0xbe207ec4	-0.15673357
40	0x3de6ffc7	0.112792544
41	0xbf14bd3e	-0.5810126
42	0xbe19de6f	-0.15026258
43	0xbcf525d8	-0.029925272
44	0x3e741d58	0.23839319
45	0x3ed2dca8	0.41183972
46	0x3f2378c1	0.6385613
47	0x3e22706c	0.15863198
48	0xbe2e474c	-0.17019385
49	0x3e18f24e	0.14936182
50	0xbd11dc72	-0.035610624
51	0x3d870dbf	0.06594419
52	0x3df8d240	0.12149477
53	0x3e92f98a	0.28706008
54	0x3e82aacb	0.2552093
55	0x3d612f6a	0.05497686
56	0x3d8f6ec4	0.07003549
57	0x3a1d8016	0.0006008161
58	0xbef47280	-0.47743607
59	0x3dc40b06	0.09572415
60	0x3de8a1cd	0.11358986
61	0x3de67059	0.11251897
62	0xbe062cd5	-0.1310304
63	0x3e5f8549	0.21828188
64	0x3ec2c854	0.38043463
65	0xbdfa15d1	-0.122111924
66	0x3e173dfd	0.1476974
67	0xbdb47a04	-0.08812335
68	0x3c18059f	0.009278684
69	0x3e990376	0.29885453
70	0x3ea48ee8	0.3214028
71	0x3e55ef71	0.20892121
72	0x3dc9504e	0.0982977
73	0x3e92a297	0.2863967
74	0xbe987151	-0.29773954
75	0x3dbedbf4	0.093192965
76	0xbd52660b	-0.051366847
77	0x3eeb8241	0.45997813
78	0x3e11e748	0.14248383
79	0xbe598343	-0.21241479
80	0x3b8a8732	0.0042275423
81	0x3ed89c99	0.42306975
82	0xbeea5943	-0.45771226
83	0x3e1d4b2d	0.15360709
84	0x3e97d652	0.296557
85	0x3d3f15e7	0.046651747
86	0xbe86851d	-0.26273432
87	0xbd8d8aab	-0.069112144
88	0xbc0f32f0	-0.008740172
89	0xbe2e124b	-0.16999166
90	0xbe51f9da	-0.20505467
91	0xbf09b71d	-0.53795034
92	0x3dfee5bc	0.12446162
93	0x3e65f471	0.22456528
94	0x3c1457ae	0.009054108
95	0x3e95ef9b	0.29284367
96	0x3e063129	0.1310469
97	0xbe922d3b	-0.28550133
98	0xbf294564	-0.66121507
99	0xbe9bcf14	-0.30431426
100	0xbe6c4f9d	-0.23077245
101	0xbe7ff277	-0.24994837
102	0x3cada65b	0.021197489
103	0x3e2bb3c4	0.16767794
104	0xbe342d17	-0.17595325
105	0xbee05e74	-0.43822062
106	0xbe152ae5	-0.14567144
107	0xbd63781a	-0.05553446
108	0xbe2e252e	-0.1700637
109	0xbe7c319e	-0.24628302
110	0x3f07c569	0.530356
111	0x3d54a0b1	0.05191106
112	0x3df019ed	0.11723695
113	0x3e27b253	0.16376619
114	0x3cba6c99	0.022756862
115	0xbc95fa7c	-0.018307917
116	0x3e2e37d9	0.17013492
117	0x3e1af35b	0.15131895
118	0xbe15aecb	-0.1461746
119	0xbf49fe2f	-0.7890348
120	0xbc88e7ce	-0.016712096
121	0xbda77950	-0.081774354
122	0x3e025709	0.12728514
123	0x3e1fc097	0.15600811
124	0xbe00b852	-0.12570313
125	0xbd9d2243	-0.076725505
126	0xbd9d6be4	-0.07686594
127	0x3dc5e37e	0.09662531
128	0xbd9abde5	-0.07555751
129	0xbd9e5898	-0.07731742
130	0x3e205a2f	0.15659402
131	0xbe1cf437	-0.15327536
132	0x3d928796	0.07154767
133	0x3dce6027	0.10076933
134	0xbd1f3472	-0.038868375
135	0xbdcf59a9	-0.10124523
136	0xbe46bdd8	-0.19408357
137	0x3dfcb3cf	0.12338983
138	0xbe280958	-0.16409814
139	0xbe259169	-0.16168751
140	0xbc3f0603	-0.011659148
141	0x3e5a0821	0.21292163
142	0xbe44a31b	-0.19202845
143	0xbe8756ba	-0.26433355
144	0x3daf7267	0.085667424
145	0xbeb9c789	-0.36285046
146	0xbedd135d	-0.43178836
147	0x3de732f0	0.112890124
148	0x3e3012be	0.1719465
149	0x3eb9fd2e	0.36325973
150	0xbf2e359f	-0.6805057
151	0xbe91ad0f	-0.28452346
152	0x3e0f7100	0.1400795
153	0x3e0ddb09	0.13853087
154	0xbead15f8	-0.33805823
155	0x3d8d5d31	0.069025405
156	0x3e5119c2	0.20419982
157	0xbea1989a	-0.31561738
158	0x3c1abb1e	0.009444026
159	0x3ea8fd5c	0.33005798
160	0xbd8cf6a9	-0.06882984
161	0xbe4c8c97	-0.19975506
162	0x3ec71096	0.38879842
163	0xbec6bde5	-0.38816753
164	0x3e61f8d6	0.2206758
165	0xbf27015f	-0.6523647
166	0x3e40b14a	0.1881763
167	0x3e36a3bd	0.17835899
168	0x3e9ab9f4	0.30219996
169	0x3d0b57c5	0.03401925
170	0xbe80284a	-0.25030738
171	0x3e33f292	0.17573002
172	0x3e8a6ca4	0.2703601
173	0x3df80a25	0.1211131
174	0xbe8bec7d	-0.27328864
175	0xbd8bdefe	-0.06829642
176	0x3e8543c2	0.26028258
177	0x3eaef9f0	0.34175062
178	0x3e9b37bd	0.30315962
179	0x3e078765	0.13235243
180	0xbf440e46	-0.7658428
181	0xbe1ba5cc	-0.15199965
182	0xbebcdef5	-0.36888853
183	0xbedacc6a	-0.4273408
184	0xbea230d3	-0.31677875
185	0x3d29546c	0.041340277
186	0x3e449cc0	0.1920042
187	0xbf2325f6	-0.637298
188	0xbe8872a8	-0.26649976
189	0xbdf357d6	-0.11881988
190	0xbdb3c2fc	-0.08777425
191	0x3e88caf0	0.2671733

bias f4 [8]
0	0xbd81ee8f	-0.063443296
1	0xbe033897	-0.12814556
2	0x3e583c66	0.2111679
3	0x3d2fad38	0.042889804
4	0x3c26f544	0.010190312
5	0xbdbdd2a4	-0.09268692
6	0xbe04731e	-0.12934539
7	0x3cc08c15	0.023504296

weight f4 [8]
0	0x3e851d10	0.25998735
1	0x3e4cd4ac	0.20003003
2	0x3e66e7a8	0.22549307
3	0x3e52bc49	0.20579638
4	0x3e790c79	0.24321164
5	0x3e607386	0.21919069
6	0x3e65c842	0.22439674
7	0x3e4904dd	0.19630761

weight f4 [8, 8, 3]
0	0x3edbccc9	0.42929676
1	0x3df19caa	0.117974594
2	0x3e189b17	0.14902912
3	0xbd4d978e	-0.050193362
4	0x3e8ba1eb	0.2727197
5	0x3ea9a234	0.33131564
6	0xbd708c1b	-0.058727365
7	0x3e4cff35	0.20019229
8	0xbe1b4945	-0.15164669
9	0x3e3c6350	0.1839726
10	0xbc010f99	-0.007877254
11	0x3e9fdb1f	0.31221864
12	0x3e74c70f	0.2390406
13	0x3e3cf288	0.18451893
14	0x3e6b0efb	0.22954933
15	0xbe7e6460	-0.24842978
16	0xbe116ad1	-0.14200903
17	0x3e52248b	0.20521753
18	0x3ef4a810	0.47784472
19	0x3caca120	0.021072924
20	0xbd9e81db	-0.07739612
21	0x3d3c94f5	0.046040494
22	0xbe9abe53	-0.3022333
23	0x3eed0db9	0.46299532
24	0xbd3e8005	-0.046508808
25	0x3f0acdf9	0.5422054
26	0xbd999150	-0.07498419
27	0xbe57d503	-0.21077351
28	0xbe98ff5a	-0.29882318
29	0xbeb9c481	-0.36282733
30	0xbe437c87	-0.19090472
31	0xbf16f740	-0.58971024
32	0xbeba495c	-0.36384094
33	0xbebbba80	-0.36665726
34	0x3f0f2575	0.5591653
35	0xbb405bf0	-0.0029351674
36	0x3ec3503d	0.38147154
37	0x3cc009c2	0.023442153
38	0xbda7a5fa	-0.081859544
39	0x3df2b659	0.11851186
40	0xbeb05823	-0.34442243
41	0xbee622b9	-0.44948366
42	0xbf0405a7	-0.51571125
43	0x3ea226ce	0.3167023
44	0x3eec265c	0.46123016
45	0xbe1b5103	-0.15167622
46	0xbd74746c	-0.05968134
47	0x3d789f16	0.06069859
48	0x3ea10b05	0.3145372
49	0xbf1274fa	-0.5720974
50	0x3ed5615a	0.41675836
51	0x3e84ff1f	0.25975892
52	0xbe14ef41	-0.14544393
53	0x3d0d5ccc	0.034512326
54	0xbd7bebaa	-0.061504044
55	0xbdf3fb0b	-0.11913117
56	0xbdd4aef9	-0.10384936
57	0xbd2e7b2d	-0.04259794
58	0xbd8fc20e	-0.07019435
59	0xbbe408d3	-0.0069590597
60	0x3dd57b2e	0.10423885
61	0x3de8b0a3	0.11361816
62	0xbce8e0b3	-0.028427457
63	0xbd76bd9a	-0.060239412
64	0x3e10922b	0.14118259
65	0xbcef206a	-0.02919026
66	0xbd55c77a	-0.05219219
67	0xbe8bc8f3	-0.2730175
68	0xbde1d5fd	-0.11027143
69	0xbc9e8cca	-0.019354243
70	0xbe9378ff	-0.2880325
71	0x3e872610	0.26396227
72	0xbd51574a	-0.051108636
73	0x3ec0de6a	0.37669688
74	0x3dab07bc	0.083510846
75	0xbe144f4c	-0.14483374
76	0xbe627bf2	-0.22117594
77	0xbe405c3d	-0.18785186
78	0x3f125cc7	0.57172817
79	0x3e1029d1	0.14078452
80	0x3eb8ff4b	0.36132273
81	0xbe02da38	-0.12778556
82	0x3eba50f6	0.36389893
83	0xbd33aa94	-0.043863848
84	0xbea5460f	-0.32280013
85	0xbec035b1	-0.37540963
86	0x3dd2eb62	0.10298802
87	0x3d0a94ac	0.03383319
88	0x3e1af6a4	0.15133148
89	0x3de8f72e	0.11375271
90	0xbe527198	-0.20551145
91	0xbe8fa48b	-0.28055224
92	0xbb29f207	-0.0025931613
93	0xbe417aa8	-0.18894446
94	0x3d55530a	0.052081145
95	0x3ec5b8c1	0.3861752
96	0x3de1e89a	0.11030693
97	0xbd10ca2f	-0.035349067
98	0xbe94018d	-0.28907433
99	0xbdd0622f	-0.10174977
100	0xbe66ce3d	-0.22539611
101	0xbe0f71e5	-0.14008291
102	0xbe174468	-0.14772189
103	0xbe4a5d07	-0.1976205
104	0xbd9c39ae	-0.07628189
105	0xbe90cd3f	-0.2828159
106	0xbe90f05a	-0.28308374
107	0x3dbc9bc4	0.092093974
108	0xbe276314	-0.16346389
109	0x3e284fea	0.16436735
110	0xbf2de85e	-0.6793269
111	0xbdbc66f4	-0.09199324
112	0x3f03287e	0.5123366
113	0xbf1eb8b8	-0.6200061
114	0x3d9e8317	0.07739847
115	0xbe80e8dd	-0.2517766
116	0xbed1541e	-0.4088449
117	0x3e3af443	0.18257241
118	0xbea23cee	-0.3168711
119	0x3dc03498	0.093850315
120	0x3ef65cac	0.48117578
121	0x3d51813b	0.051148634
122	0xbecd9499	-0.40152434
123	0xbe26cba2	-0.16288617
124	0xbe453ec1	-0.1926222
125	0xbcec9177	-0.028877957
126	0x3ea8df3e	0.3298282
127	0x3dd5f819	0.104477115
128	0x3e2ddb8f	0.16978286
129	0xbedd5d4b	-0.4323524
130	0xbe7f1b65	-0.24912794
131	0xbf01c502	-0.50691235
132	0xbca9c133	-0.020722007
133	0x3e620e07	0.22075664
134	0x3e56e981	0.20987512
135	0x3ea7551c	0.3268212
136	0x3d243832	0.040092655
137	0x3e857bfb	0.26071152
138	0xbdaeaa03	-0.08528521
139	0x3ed6682c	0.41876352
140	0x3db57243	0.08859684
141	0x3ea5bcf6	0.32370728
142	0xbedaaed0	-0.42711496
143	0x3dab4add	0.083638884
144	0x3def7a27	0.116932206
145	0xbe9711c4	-0.29505742
146	0x3e40823f	0.18799685
147	0xbe004c8b	-0.12529199
148	0xbeb36316	-0.35036534
149	0xbe70b0f9	-0.2350501
150	0x3d3cffb9	0.046142314
151	0xbebc9ff2	-0.3684078
152	0xbd900dca	-0.0703388
153	0xbdcbb338	-0.09946293
154	0xbeb1e823	-0.3474742
155	0x3ec28d88	0.37998605
156	0xbf00328a	-0.50077116
157	0x3df515fe	0.11967085
158	0xbe33b50a	-0.1754953
159	0xbe14e752	-0.14541367
160	0xbec97c5f	-0.393527
161	0xbd3d26cc	-0.046179578
162	0x3e816cbb	0.25278267
163	0xbd6f8030	-0.05847186
164	0x3dd8396b	0.105578266
165	0xbe37cbb2	-0.17948797
166	0x3d959884	0.07304481
167	0x3c279362	0.01022801
168	0x3e4b6581	0.1986294
169	0x3ea23831	0.31683496
170	0xbe9e8fe7	-0.30969164
171	0x3e978143	0.29590806
172	0xbec0a52f	-0.37626025
173	0x3bab1ed4	0.005222181
174	0xbce8369e	-0.028346356
175	0xbdad8762	-0.08473088
176	0x3eac642d	0.33670178
177	0xbd1be323	-0.03805841
178	0x3e145aa2	0.14487699
179	0xbe9fd2a9	-0.31215408
180	0x3dab3e56	0.08361499
181	0x3e9d14c3	0.30679902
182	0xbece639c	-0.4031037
183	0xbec53f8d	-0.38525048
184	0x3edfe3d2	0.437285
185	0xbe7690b4	-0.24078637
186	0xbd9fb589	-0.07798297
187	0xbf283683	-0.6570818
188	0x3e9544e6	0.29154128
189	0xbd7b4625	-0.061346192
190	0xbc8fc54d	-0.017550135
191	0x3e27aa10	0.16373467

bias f4 [8]
0	0xbc641b98	-0.0139225945
1	0x3d1f0f89	0.038833175
2	0xbdbda9b7	-0.09260886
3	0xbe3580d7	-0.1772493
4	0xbe0b5a2c	-0.13608617
5	0xbb13bd7d	-0.0022543364
6	0x3c7482fc	0.014923807
7	0xbb496456	-0.003072997

weight f4 [8]
0	0x3e6ae330	0.22938228
1	0x3e6fcaef	0.23417257
2	0x3e7548cb	0.2395355
3	0x3e477859	0.19479503
4	0x3e2be1d6	0.16785368
5	0x3e5b84bc	0.21437353
6	0x3e590c23	0.21196036
7	0x3e699fb7	0.22814833

weight f4 [8, 8, 3]
0	0x3e48439a	0.19557038
1	0x3d6ec877	0.058296647
2	0xbe2d23bf	-0.16908167
3	0xbe4951fb	-0.1966018
4	0x3db31667	0.08744507
5	0x3e3ed330	0.18635249
6	0xbdeabf7a	-0.114623025
7	0xbd708d94	-0.05872877
8	0x3f036d19	0.51338345
9	0xbe93158f	-0.28727385
10	0x3e18db05	0.149273
11	0xbe8f266d	-0.27959004
12	0x3d6ea525	0.058262963
13	0x3da49d61	0.0803783
14	0xbec21d7d	-0.37913123
15	0x3e8fa3bf	0.28054616
16	0xbed21eaa	-0.4103902
17	0x3e140cbc	0.14457983
18	0x3e00ee7e	0.12590978
19	0xbde3c17d	-0.11120889
20	0xbe9e0f03	-0.30870828
21	0xbe84ec17	-0.25961372
22	0x3daf4af3	0.08559217
23	0x3e1f5e06	0.15563211
24	0xbe6c14fb	-0.23054878
25	0xbde03458	-0.10947484
26	0x3dbd61b0	0.09247148
27	0xbe93c977	-0.28864643
28	0x3e9b8075	0.30371442
29	0xbe0ac78e	-0.13552687
30	0x3dc3326f	0.09531104
31	0xbed6b31c	-0.41933525
32	0xbd2a5e75	-0.041593987
33	0xbf00c02d	-0.50293237
34	0x3eac0c61	0.33603194
35	0xbf028408	-0.50982714
36	0x3cf78a4c	0.030217312
37	0x3e75845b	0.23976271
38	0xbe5227dd	-0.20523019
39	0xbeff0a01	-0.4981232
40	0xbf248967	-0.6427216
41	0xbec4e777	-0.38457844
42	0x3b930529	0.004486699
43	0xbe1e1f09	-0.15441526
44	0xbcb51263	-0.022103494
45	0xbed80eae	-0.421987
46	0xbed4f68e	-0.41594356
47	0x3f031e17	0.5121779
48	0x3d4ab816	0.049491964
49	0x3e1dfb23	0.15427832
50	0xbd75b95d	-0.05999123
51	0x3f0e8b03	0.55680865
52	0xbe87bf86	-0.26513308
53	0x3dbe2be4	0.09285715
54	0x3f0fc5a1	0.5616093
55	0xbe9f3f8f	-0.3110318
56	0x3cfa91d8	0.030587122
57	0xbd828356	-0.063727066
58	0xbeb93e9e	-0.36180586
59	0xbe94137a	-0.2892111
60	0xbcf67366	-0.030084323
61	0x3e9295c2	0.2862988
62	0xbea2a421	-0.31765845
63	0xbef4f2a7	-0.4784138
64	0xbf0b9643	-0.54526156
65	0x3e68b07e	0.22723576
66	0x3e3a924b	0.18219869
67	0xbd823568	-0.06357843
68	0xbec11622	-0.37712198
69	0xbea4bca1	-0.32175162
70	0xbdeed65c	-0.116619796
71	0xbe966817	-0.2937629
72	0xbe10c483	-0.14137463
73	0x3c71b3e8	0.014752366
74	0x3e71fed8	0.23632371
75	0x3c5c395a	0.013441408
76	0x3ecb5d32	0.3971954
77	0xbdbd467c	-0.092419595
78	0x3ca81aba	0.020520557
79	0x3ec8b1d0	0.3919816
80	0xbce22b7d	-0.027608627
81	0xbeb4a21b	-0.35279927
82	0x3ead70d0	0.33875132
83	0x3e9fdbef	0.31222484
84	0x3eb122d7	0.34596893
85	0x3da21456	0.07914035
86	0xbeb00160	-0.3437605
87	0x3e421681	0.18953897
88	0xbca7cc39	-0.020483123
89	0x3d8da902	0.06917001
90	0xbd972f28	-0.07382041
91	0xbe0d3ff5	-0.13793929
92	0xbf04a28e	-0.5181054
93	0xbdf35c05	-0.11882786
94	0x3ea769e4	0.32697976
95	0x3e84964d	0.2589592
96	0x3e3a98a8	0.18222296
97	0x3e2ab733	0.16671447
98	0x3e99ff54	0.30077612
99	0xbc57b3c1	-0.013165415
100	0x3f0e98a8	0.55701685
101	0x3e6b325b	0.22968428
102	0xbc05e63a	-0.008172566
103	0xbee3dc7b	-0.4450415
104	0x3d804552	0.06263222
105	0xbe08ccf4	-0.13359433
106	0x3e7b1920	0.24521303
107	0x3e897b79	0.26852015
108	0xbdc885db	-0.09791156
109	0xbee15a85	-0.44014373
110	0xbf6062f1	-0.8765097
111	0xbf51dd2b	-0.819781
112	0x3ed10550	0.40824366
113	0x3c8624e4	0.016375013
114	0xbe08aecb	-0.13347928
115	0x3e5c104e	0.21490595
116	0x3efedee3	0.49779424
117	0xbd87d5b1	-0.06632555
118	0x3e849fc4	0.25903141
119	0xbdcc3edf	-0.09972929
120	0x3e88833f	0.26662633
121	0x3e8231a3	0.25428495
122	0xbe4deb8e	-0.20109388
123	0x3ef10657	0.4707515
124	0xbc950ffc	-0.018196099
125	0xbb9ad7e7	-0.0047254446
126	0xbdfce70c	-0.12348756
127	0xbe23e439	-0.16005029
128	0x3db5d95f	0.08879351
129	0x3d93b98b	0.07213124
130	0xbe41aee8	-0.18914378
131	0xbebb143b	-0.36538872
132	0xbd499f53	-0.04922421
133	0x3daceb65	0.084433354
134	0xbcf32813	-0.029682195
135	0xbee87088	-0.45398355
136	0xbd2e2da3	-0.04252399
137	0xbd69313e	-0.056931727
138	0x3f1dbe62	0.61618626
139	0xbd8283d9	-0.06372804
140	0xbd5b9c5f	-0.053615924
141	0xbe0ddd3d	-0.13853927
142	0x3f0ab43e	0.5418128
143	0xbe192fbb	-0.14959614
144	0x3ec10634	0.37700045
145	0xbb8a604e	-0.004222906
146	0x3e3be94d	0.18350716
147	0x3eeb0887	0.45904943
148	0xbe11a57d	-0.14223285
149	0xbe7a45e2	-0.2444072
150	0x3e888d65	0.26670375
151	0x3e81159a	0.25211793
152	0xbee6787b	-0.45013794
153	0xbd4f61c7	-0.050630357
154	0x3ee1fd94	0.44138777
155	0x3ec65239	0.38734606
156	0xbe275946	-0.16342649
157	0x3d367312	0.044543333
158	0x3dd7209d	0.10504267
159	0x3cea4fc5	0.02860249
160	0x3e8be5b6	0.27323693
161	0x3e4f4c66	0.20243987
162	0xbd269951	-0.040673558
163	0x3eb1f861	0.3475981
164	0xbe30f2d4	-0.17280132
165	0x3d64b783	0.055839073
166	0xbe81eb0d	-0.25374642
167	0x3f388529	0.72078186
168	0x3eb0b56d	0.34513417
169	0xbebb4fdd	-0.36584368
170	0xbd07c141	-0.033143286
171	0xbd998b3b	-0.07497259
172	0xbf178be6	-0.59197843
173	0x3c8bce11	0.017066034
174	0xbed529f6	-0.41633576
175	0x3ecd8b9c	0.40145576
176	0x3eb0a15d	0.3449811
177	0x3ecea6b9	0.40361574
178	0xbec6982f	-0.38787982
179	0x3e0978b0	0.13424945
180	0x3e220923	0.15823798
181	0x3e8a6314	0.27028716
182	0x3dc90e70	0.09817207
183	0x3e2d17fc	0.1690368
184	0x3ef4e57e	0.4783134
185	0xbe14b210	-0.1452105
186	0x3eae3fd0	0.3403306
187	0xbd910c9e	-0.07082485
188	0x3eb70b99	0.35751036
189	0xbf128e6f	-0.57248586
190	0x3e36e840	0.17862034
191	0xbea833d6	-0.32852048

bias f4 [8]
0	0xbe37592c	-0.1790511
1	0x3c084b08	0.00831867
2	0xbe73acac	-0.23796338
3	0x3e193990	0.14963365
4	0x3e1934f0	0.149616
5	0xbe2c3041	-0.16815282
6	0xbdee1fc3	-0.11627152
7	0xbdad262b	-0.084545456

weight f4 [8]
0	0x3ea0788f	0.3134198
1	0x3e5109ec	0.20413941
2	0x3e964c16	0.29354924
3	0x3e4f2e55	0.20232518
4	0x3e4bb1c1	0.19892026
5	0x3e16ff04	0.14745718
6	0x3e5a8ff9	0.21343984
7	0x3e563fab	0.20922725

weight f4 [8, 8, 3]
0	0x3e531aa4	0.20615631
1	0x3ed86809	0.42266873
2	0xbe3ecfc8	-0.1863395
3	0x3df7bb96	0.12096326
4	0x3e2d8498	0.16945112
5	0xbd8f6f81	-0.070036896
6	0x3c29f8e5	0.0103742825
7	0x3dd5cec0	0.10439825
8	0xbe009e18	-0.12560308
9	0xbe973ffe	-0.2954101
10	0x3e016331	0.12635495
11	0x3d84b7e7	0.06480389
12	0xbe2c1e20	-0.16808367
13	0x3ca209a6	0.019779991
14	0xbdc3a45a	-0.09552832
15	0x3f0f0ef2	0.5588218
16	0xbe32c2b3	-0.17457084
17	0xbb721ce6	-0.0036943494
18	0xbe9636be	-0.2933864
19	0x3d1539fe	0.03643226
20	0x3d9039f7	0.07042306
21	0xbe859c2f	-0.2609572
22	0x3e8266c1	0.2546902
23	0xbef21ac5	-0.4728605
24	0xbd38a795	-0.045081694
25	0x3ee40c85	0.44540802
26	0xbd9cde74	-0.07659617
27	0x3db11a31	0.08647574
28	0x3d9bdcc4	0.07610467
29	0x3dfd1ddb	0.1235921
30	0x3e83e53d	0.25760832
31	0x3e35a031	0.1773689
32	0x3dde95b5	0.10868398
33	0xbe052e2f	-0.13005899
34	0x3e93d39e	0.2887239
35	0xbe418358	-0.1889776
36	0xbecd0e4b	-0.40049967
37	0xbe0457f4	-0.12924176
38	0x3dd54d12	0.104150906
39	0x3efba832	0.4915176
40	0x3da39189	0.07986743
41	0xbe007ff1	-0.12548806
42	0xbd8ec68b	-0.06971463
43	0xbe8d1ee2	-0.27562624
44	0xbe8e7257	-0.2782161
45	0x3e97e9f9	0.29670694
46	0xbe069915	-0.13144334
47	0xbe992165	-0.2990829
48	0xbf46a949	-0.7760206
49	0xba9bed29	-0.0011896241
50	0x3ddce357	0.10785549
51	0x3ed06022	0.40698344
52	0x3e45ec04	0.19328314
53	0xbea1493b	-0.31501183
54	0x3eea7226	0.45790213
55	0x3f4c5284	0.7981341
56	0xbedfda9d	-0.43721476
57	0x3db29896	0.0872051
58	0xbefbea31	-0.4920211
59	0xbe4b93ff	-0.19880675
60	0x3de2507d	0.11050508
61	0xbe844f3b	-0.25841698
62	0x3e220d44	0.15825373
63	0x3de71fca	0.1128536
64	0xbd94e4d9	-0.07270212
65	0x3e7c4cad	0.24638624
66	0xbec1284b	-0.37726054
67	0xbec371c3	-0.3817273
68	0xbea2c5fd	-0.31791678
69	0xbd11a9a6	-0.03556218
70	0xbe7bcdd4	-0.24590236
71	0x3dcdf7d4	0.10057035
72	0x3f20211d	0.62550527
73	0xbe407f1f	-0.18798493
74	0x3dae9184	0.08523849
75	0xbe98f79d	-0.29876414
76	0xbdb456a4	-0.08805588
77	0x3d479ac2	0.048731573
78	0x3efc48f0	0.49274397
79	0x3e290a95	0.16507943
80	0xbdb7bf0b	-0.089719854
81	0xbdca062e	-0.0986446
82	0xbed145ea	-0.40873653
83	0x3eae8642	0.34086806
84	0x3d9099ab	0.0706056
85	0xbe90bda6	-0.2826969
86	0x3ec61b21	0.38692573
87	0x3dbc447f	0.09192752
88	0xbe0e72d1	-0.13910986
89	0xbf144f18	-0.5793319
90	0xbf200d4e	-0.625203
91	0x3e35d70a	0.17757812
92	0x3e136176	0.14392647
93	0x3df4a519	0.119455524
94	0xbf05d51b	-0.522783
95	0x3e41d272	0.18927935
96	0x3e4d1ad7	0.2002977
97	0xbd9defe7	-0.07711773
98	0x3f164515	0.5869916
99	0x3e82d9fc	0.25556934
100	0x3e2d5457	0.16926704
101	0xbdc4ca71	-0.09608925
102	0x3e99bdc6	0.30027598
103	0x3ec45c5b	0.38351712
104	0xbd32855b	-0.04358421
105	0x3e7161b8	0.23572433
106	0x3e154603	0.14577489
107	0xbe9a6aec	-0.301597
108	0x3e8e5732	0.278009
109	0xbeb97cc1	-0.36227992
110	0xbe3e9920	-0.186131
111	0xbf0268bc	-0.5094106
112	0x3ddade64	0.10686949
113	0x3e79df49	0.24401583
114	0xbf0d3ef3	-0.5517418
115	0xbc77ab79	-0.015116566
116	0xbe27a982	-0.16373256
117	0x3e191813	0.1495059
118	0x3e2e9068	0.17047274
119	0xbeb39cb3	-0.3508049
120	0x3e79965a	0.24373761
121	0x3f46013d	0.7734564
122	0x3d997197	0.07492369
123	0xbed1b51d	-0.4095849
124	0xbc497359	-0.012295567
125	0xbdd3afc8	-0.10336262
126	0xbf1650a1	-0.5871678
127	0xbdb01dbb	-0.08599421
128	0x3e691ccf	0.22764896
129	0x3e1e6b34	0.15470582
130	0x3e34284c	0.17593497
131	0x3df6c5d4	0.120494515
132	0xbdfd2e61	-0.12362362
133	0xbe01bc31	-0.12669446
134	0xbef68d86	-0.4815485
135	0x3e87644a	0.26443702
136	0x3ead2159	0.33814505
137	0xbe737364	-0.23774487
138	0x3e50c1e3	0.20386462
139	0x3defcac1	0.11708594
140	0x3dce08fc	0.100603074
141	0xbe43e8c7	-0.19131766
142	0xbdc7cfc8	-0.09756428
143	0x3e6af940	0.22946644
144	0x3e870e84	0.26378262
145	0xbeef9f98	-0.46801448
146	0xbf0d10d2	-0.5510379
147	0x3e73aadf	0.23795651
148	0xbec70d55	-0.3887736
149	0xbe90d7dd	-0.2828969
150	0x3d86f166	0.06589012
151	0x3e87beb4	0.26512682
152	0x3df37dae	0.11889206
153	0xbea6f5ee	-0.32609504
154	0xbe4594e7	-0.19295083
155	0x3e824172	0.25440556
156	0xbe231dc8	-0.1592933
157	0xbf1e5e1f	-0.6186237
158	0xbeb2a1f0	-0.34889174
159	0x3e0ad13d	0.1355638
160	0x3ecf012c	0.40430582
161	0x3c374693	0.01118626
162	0x3e5f6e1b	0.21819346
163	0x3d383727	0.044974472
164	0x3e0f4b74	0.13993627
165	0x3e15e5d2	0.1463845
166	0x3dc11106	0.09427075
167	0xbefbd931	-0.4918914
168	0xbea0b6df	-0.3138952
169	0x3e8605c9	0.2617629
170	0x3eff8f07	0.4991381
171	0x3e29c14f	0.16577648
172	0xbd9c4ac2	-0.076314464
173	0xbe40b72e	-0.18819878
174	0x3f21a4e3	0.6314222
175	0xbd96e511	-0.0736791
176	0x3eb0b34c	0.34511793
177	0x3eafe09d	0.34351054
178	0x3cbbd6a1	0.022929491
179	0xbe623aab	-0.22092693
180	0x3dc0d01d	0.094146945
181	0xbdfe2755	-0.12409846
182	0xbe5caed4	-0.21551067
183	0x3f35a2e2	0.70951664
184	0x3e5f30a4	0.21795899
185	0x3e2cfc3b	0.16893093
186	0xba9e119c	-0.0012059691
187	0xbe842680	-0.25810623
188	0x3da15ea6	0.07879381
189	0xbde39389	-0.111121245
190	0x3dbc9aed	0.09209237
191	0xbdaf0806	-0.08546452

bias f4 [8]
0	0x3e1d09db	0.15335791
1	0x3cf4878c	0.02984979
2	0x3e018079	0.12646665
3	0x3e0a891c	0.13528866
4	0x3dc3feeb	0.09570106
5	0x3cda527c	0.02665066
6	0xbe330238	-0.17481315
7	0x3b47a757	0.0030464733

weight f4 [8]
0	0x3e870eea	0.26378566
1	0x3e62eeae	0.22161362
2	0x3e95b5c2	0.29240233
3	0x3e081a68	0.13291323
4	0x3e51a567	0.20473252
5	0x3ea76b16	0.32698888
6	0x3e3d8c5a	0.18510571
7	0x3e62ea61	0.22159721

weight f4 [8, 8, 3]
0	0x3e8d67ee	0.27618355
1	0x3dd3c6fd	0.103406884
2	0x3effef30	0.49987173
3	0xbe6aeb6f	-0.22941373
4	0x3e421de7	0.1895672
5	0x3e63cc15	0.2224582
6	0x3e4d2d4f	0.20036815
7	0x3f0a7879	0.54090077
8	0x3e9666c8	0.2937529
9	0x3ce19de0	0.027541101
10	0x3d68f9a3	0.056878697
11	0x3e6f3308	0.2335931
12	0x3e1998f2	0.1499975
13	0xbe797eaf	-0.24364732
14	0x3e5b3c25	0.21409662
15	0x3e831dae	0.2560858
16	0x3eb04384	0.3442651
17	0xbee9699d	-0.4558839
18	0x3ecf5ff4	0.40502894
19	0xbe00a274	-0.12561971
20	0xbd52225f	-0.05130231
21	0xbe8a70bf	-0.27039143
22	0x3e584c5e	0.21122882
23	0xbd940de6	-0.072292134
24	0xbe07af53	-0.13250475
25	0xbe052743	-0.13003258
26	0x3e2f4a2b	0.17118137
27	0xbdf522d7	-0.11969536
28	0x3ebf7319	0.373925
29	0x3ed0f8bd	0.40814772
30	0xbe91fe61	-0.28514388
31	0x3ce7a1f8	0.028275475
32	0x3e84cff3	0.25939903
33	0x3c9f354a	0.01943459
34	0x3e4058ed	0.18783922
35	0xbe9b5324	-0.3033687
36	0xbeedbcf6	-0.46433228
37	0x3da7174c	0.081587404
38	0xbd89e4aa	-0.06733067
39	0xbde48cc7	-0.11159664
40	0xbc90dc7e	-0.017683264
41	0xbdac2ae9	-0.08406622
42	0x3ea9bbfb	0.3315123
43	0xbddf99d2	-0.10918011
44	0xbcdcf53f	-0.026972411
45	0xbbb6f356	-0.005583207
46	0x3df68a09	0.12038047
47	0xbedffdfa	-0.43748456
48	0x3f5ec66f	0.87021536
49	0xbed9d9e8	-0.42549062
50	0x3d0a5750	0.033774674
51	0x3e02e0ba	0.12781039
52	0xbe108624	-0.1411367
53	0xbeb34ba9	-0.35018662
54	0x3db21e44	0.08697179
55	0xbe1e2aa7	-0.15445958
56	0x3ece1571	0.40250733
57	0xbce16820	-0.027515471
58	0x3e1ced5a	0.15324917
59	0x3e332b81	0.17497064
60	0xbdbeb875	-0.09312526
61	0xbe49478a	-0.19656196
62	0xbe946f4d	-0.28991166
63	0xbdf7be8e	-0.12096892
64	0x3ea3fc00	0.32028198
65	0xbedaa873	-0.42706642
66	0xbc6c5bea	-0.014426211
67	0xbdd285f0	-0.10279453
68	0x3ea5de17	0.32396004
69	0xbecd0d95	-0.40049425
70	0xbb99438c	-0.0046772417
71	0x3ec4e3fb	0.38455185
72	0x3f1a0e07	0.60177654
73	0x3ee1b16c	0.44080675
74	0x3dbc15b5	0.09183828
75	0x3d0a469e	0.033758752
76	0xbd405f3f	-0.046965834
77	0x3e43b748	0.19112885
78	0x3e92b0ab	0.28650412
79	0x3cc4fea6	0.024047207
80	0xbe087f70	-0.13329864
81	0x3f0dd181	0.553978
82	0xbf159be4	-0.58440995
83	0x3ec56e37	0.3856065
84	0x3e7a5890	0.24447846
85	0x3ee58c39	0.44833544
86	0xbd42dc70	-0.047573507
87	0xbc8bcaf3	-0.017064547
88	0x3e4fd063	0.20294337
89	0x3f0b4bd5	0.54412585
90	0x3d809dc8	0.062800944
91	0xbf00e696	-0.50351846
92	0x3e96fb56	0.2948863
93	0xbe114d87	-0.1418973
94	0x3ecb10dc	0.396613
95	0x3e2292e0	0.15876341
96	0xbe29a300	-0.16566086
97	0xbe8e58ac	-0.27802026
98	0xbd90ca60	-0.0706985
99	0xbe9a4e7b	-0.30138
100	0x3cd234c2	0.025659923
101	0xbde9b90e	-0.114122495
102	0x3ddff2e5	0.10935
103	0x3e7f2f76	0.24920449
104	0xbea8830e	-0.32912487
105	0x3eda8812	0.42681938
106	0xbe582435	-0.21107562
107	0xbe6a6666	-0.22890624
108	0xbe4a2148	-0.19739258
109	0xbed159ef	-0.40888926
110	0xbc321dcc	-0.010871362
111	0xbe863af5	-0.26216856
112	0x3cf5df0f	0.03001359
113	0xbe407ce8	-0.18797648
114	0xbe477aa7	-0.19480382
115	0x3e82688a	0.25470382
116	0xbdadc8bc	-0.08485553
117	0xbe0444b4	-0.12916833
118	0x3ec0c12f	0.37647387
119	0x3c9cad2c	0.019125544
120	0x3e489428	0.19587767
121	0x3da8f2b7	0.08249419
122	0x3dc159c0	0.094409466
123	0x3e7e9734	0.24862367
124	0xbcc2ae6a	-0.023764808
125	0xbd11ac62	-0.035564788
126	0x3f06481c	0.5245378
127	0x3dd85da3	0.10564735
128	0x3e6dcfd6	0.23223814
129	0x3ee5cd9c	0.4488343
130	0xbd98faf3	-0.0746974
131	0xbdad2af8	-0.08455461
132	0x3d06d2f8	0.03291604
133	0xbeb62ab7	-0.35579464
134	0x3eb02f8c	0.34411275
135	0x3ea037df	0.31292626
136	0xbe15479e	-0.14578101
137	0x3d3a1405	0.04542925
138	0xbdd9205e	-0.10601877
139	0x3d17db9a	0.037074663
140	0x3d648248	0.05578831
141	0x3df6f463	0.12058332
142	0xbe80e0f0	-0.25171614
143	0x3eda8ee2	0.42687136
144	0x3e63a8db	0.22232382
145	0xbe7de71a	-0.2479519
146	0x3e4b5e28	0.19860137
147	0x3e1a0242	0.15039924
148	0x3bafe14e	0.0053674346
149	0xbf17e1a8	-0.593287
150	0xbd144c11	-0.036205355
151	0xbe484d13	-0.19560651
152	0xbf354575	-0.7080911
153	0x3e8f8ef9	0.28038767
154	0x3e4fc6e4	0.20290715
155	0x3ed3b34b	0.41347727
156	0x3c9fd45f	0.019510446
157	0xbd8344c0	-0.064095974
158	0xbdab3585	-0.083598174
159	0x3e281728	0.16415083
160	0x3de19274	0.11014262
161	0xbc6e811c	-0.014557149
162	0xbe48620b	-0.1956865
163	0xbdfb28ad	-0.12263618
164	0xbe35215e	-0.1768851
165	0x3e36eb5e	0.17863223
166	0xbe3116e7	-0.17293893
167	0x3d9931db	0.07480212
168	0x3db83a98	0.08995551
169	0x3e34de7e	0.17662999
170	0x3eec9597	0.46207878
171	0x3e3e8ebd	0.18609138
172	0xbeb1b400	-0.34707642
173	0x3e8f1adc	0.2795018
174	0x3e714ca2	0.2356439
175	0x3f11600f	0.567872
176	0x3dc4e4f3	0.09613981
177	0x3db2c132	0.08728255
178	0x3f15109b	0.5822846
179	0x3e1a4f96	0.15069422
180	0xbe007384	-0.12544066
181	0x3d0df111	0.034653727
182	0x3e42c56a	0.1902062
183	0xbd2e033f	-0.042483564
184	0xbd89177e	-0.06693934
185	0xbed2f296	-0.41200703
186	0x3ece6782	0.40313345
187	0xbe4492c8	-0.19196618
188	0x3e2c9896	0.16855082
189	0xbecc8210	-0.3994298
190	0x3c9d0679	0.019168125
191	0xbc995c3c	-0.018720739

bias f4 [8]
0	0x3d71685e	0.058937423
1	0x3db4ce71	0.08828438
2	0xbd3b8bb8	-0.045787543
3	0x3deae742	0.1146989
4	0x3e0306f0	0.12795615
5	0xbe402e91	-0.18767764
6	0xbdf4ef78	-0.119597375
7	0xbe2fc4a3	-0.17164855

weight f4 [8]
0	0x3e557959	0.20847072
1	0x3e7312e2	0.23737672
2	0x3e9c3ee9	0.30516747
3	0x3e8bd958	0.27314258
4	0x3e5fdb90	0.218611
5	0x3e908d28	0.28232694
6	0x3e606939	0.2191514
7	0x3ea1941f	0.3155832

weight f4 [8, 8, 3]
0	0xbe8cd15c	-0.2750348
1	0xbf02675a	-0.5093895
2	0x3e4f5e87	0.20250903
3	0xbef7d80f	-0.48407027
4	0xbd80f9d2	-0.062976494
5	0x3ddc6eae	0.10763298
6	0x3e317359	0.17329158
7	0x3e2ecc34	0.17070085
8	0x3dc847a5	0.0977929
9	0xbdf1faa4	-0.11815384
10	0xbed8bfa2	-0.42333704
11	0xbdfb621f	-0.122745745
12	0x3f1b4796	0.60656106
13	0x3f0aa815	0.5416272
14	0x3e418218	0.18897283
15	0x3e4cdbba	0.20005694
16	0x3d6cf34a	0.057849206
17	0xbea3c0b5	-0.3198296
18	0xbe92844d	-0.28616562
19	0xbe42ee6d	-0.19036265
20	0x3d4f8f72	0.05067391
21	0xbe918f20	-0.28429508
22	0xb981b2ae	-0.00024737924
23	0x3e896a70	0.26839018
24	0xbe0d8bbd	-0.13822837
25	0x3d5eb497	0.054371443
26	0x3f0067df	0.50158495
27	0x3f0eb960	0.5575161
28	0x3d80a767	0.062819295
29	0xbdee1367	-0.116247945
30	0xbd7cfec9	-0.06176642
31	0x3e75b2da	0.23994008
32	0x3d258d59	0.040418003
33	0x3ccb71e5	0.024834583
34	0xbec021f2	-0.37525898
35	0xbe1f9f8c	-0.15588206
36	0xbe9aec51	-0.3025842
37	0xbaa85237	-0.0012841885
38	0xbda9b53d	-0.082865216
39	0x3d93ac35	0.0721058
40	0x3f1c3633	0.610202
41	0xbe07cea8	-0.13262427
42	0x3e586b1c	0.21134609
43	0xbea9a512	-0.3313375
44	0xbda29d91	-0.0794021
45	0xbf40b26f	-0.7527227
46	0xbe630cb5	-0.22172816
47	0xbd26dd6b	-0.040738504
48	0xbd2d930c	-0.042376563
49	0xbe413709	-0.1886865
50	0xbe419de5	-0.18907888
51	0xbdacf375	-0.08444873
52	0x3e1a53a0	0.15070963
53	0x3e509d72	0.2037256
54	0xbd11ab71	-0.03556389
55	0x3e9db298	0.3080032
56	0x3e906113	0.28199062
57	0x3f2fd47d	0.68683606
58	0x3e541bfc	0.207138
59	0xbe062176	-0.13098702
60	0xbe2ad8a9	-0.16684212
61	0xbe65ce3a	-0.2244195
62	0xbe78743e	-0.24263093
63	0xbda783fe	-0.081794724
64	0x3e903c7f	0.28171155
65	0x3e55bda1	0.20873119
66	0x3edb42c8	0.42824388
67	0xbed607c8	-0.41802812
68	0x3e8aee7c	0.27135074
69	0x3beb97a7	0.007189709
70	0xbd348384	-0.044070736
71	0xbe0514a1	-0.1299615
72	0xbe940997	-0.28913566
73	0x3dbfee88	0.09371668
74	0xbc3c229b	-0.01148286
75	0x3e51eaa4	0.20499665
76	0x3e83f32f	0.25771472
77	0x3ca7c828	0.020481184
78	0x3e76f5e2	0.24117234
79	0xbe84f0c2	-0.25964934
80	0xbf459e61	-0.7719479
81	0xbc8485f9	-0.016177164
82	0xbe82372b	-0.25432715
83	0x3e51b73f	0.20480059
84	0x3e381bb2	0.17979315
85	0xbbe2cfa4	-0.0069217253
86	0x3e7632e0	0.24042845
87	0x3f038517	0.51374954
88	0x3eec1448	0.46109223
89	0x3e847731	0.25872186
90	0xbe9d78e0	-0.30756283
91	0xbd7e58ac	-0.062096283
92	0xbec5e6a8	-0.3865254
93	0x3e7c3376	0.24629006
94	0x3cfa226c	0.030533992
95	0x3ed20377	0.41018268
96	0x3e1ff032	0.15618971
97	0xbe9f0ce5	-0.31064525
98	0x3e721117	0.23639332
99	0xbdf6d967	-0.12053185
100	0xbeb6f8f0	-0.357368
101	0xbe5e9a21	-0.21738483
102	0xbf03938c	-0.51397014
103	0x3eed1ed6	0.46312588
104	0x3b44ac4d	0.0030009926
105	0xbed046d1	-0.4067903
106	0xbed6f453	-0.4198328
107	0xbe2e8a0b	-0.17044847
108	0xbf1b7025	-0.60717994
109	0xbdac1177	-0.08401769
110	0x3e5711c2	0.21002868
111	0xbe8d7c34	-0.27633822
112	0xbe1d8978	-0.15384471
113	0xbe17040d	-0.14747639
114	0x3d94a4bb	0.07257982
115	0xbe339f5f	-0.17541264
116	0x3f0c0646	0.5469707
117	0x3eb51154	0.35364783
118	0xbd9bfd45	-0.07616667
119	0xbe76c56b	-0.24098746
120	0x3e13214b	0.14368169
121	0x3d43c04f	0.04779082
122	0x3e918206	0.28419513
123	0xbed8c2f7	-0.42336246
124	0x3e84ee97	0.2596328
125	0x3dd4a634	0.10383263
126	0x3f270be9	0.6525255
127	0x3e4e3858	0.20138681
128	0x3eeb9098	0.46008754
129	0xbe1e4c33	-0.15458755
130	0x3ddaadb5	0.10677663
131	0x3eb0fa9b	0.34566197
132	0x3e295b09	0.16538633
133	0xbdd05409	-0.101722784
134	0x3e7f010e	0.24902746
135	0x3d8d1363	0.06888463
136	0x3ed12f45	0.40856376
137	0xbe338e23	-0.1753469
138	0xbecc3509	-0.39884213
139	0x3e11ae56	0.1422666
140	0xbe551a33	-0.20810775
141	0x3dcb75ff	0.09934615
142	0xbe0fdbc4	-0.14048678
143	0x3e7583f2	0.23976114
144	0xbd8ed112	-0.06973471
145	0x3e76bf35	0.24096377
146	0xbcc1ca02	-0.023655895
147	0xbeb38069	-0.35058907
148	0xbd30165d	-0.042990077
149	0xbe7aea1c	-0.24503368
150	0xbd78dbcb	-0.060756486
151	0x3ee131b1	0.43983224
152	0x3f1ae584	0.60506463
153	0x39f3f9db	0.0004653473
154	0x3e93466c	0.28764665
155	0x3ee2dca3	0.44308957
156	0xbf0377b7	-0.51354545
157	0x3e6e579e	0.23275611
158	0x3d1a8209	0.037721667
159	0xbe9d6f81	-0.30749133
160	0xbf1135bd	-0.56722623
161	0x3ec25c9a	0.37961274
162	0xbe61ff04	-0.22069937
163	0x3d2e0683	0.04248668
164	0x3e666728	0.22500288
165	0xbf231bf7	-0.63714546
166	0x3d303bdf	0.043025848
167	0x3ed4ece5	0.41586986
168	0xbed60468	-0.41800237
169	0xbe1dfd96	-0.15428767
170	0xbe3cd720	-0.18441439
171	0x3f0b1ff4	0.5434563
172	0x3d958285	0.07300285
173	0xbdb7ba90	-0.08971131
174	0x3e8c735f	0.2743177
175	0xbde0c4ab	-0.109750114
176	0x3df884bd	0.12134693
177	0xbe8bdb2f	-0.2731566
178	0xbe9aaebb	-0.30211434
179	0xbd76617e	-0.06015157
180	0xbea1f06c	-0.3162874
181	0x3c745023	0.014911684
182	0x3d8c3ac8	0.06847149
183	0xbea74fb1	-0.32677987
184	0xbe021181	-0.1270199
185	0x3eaa6320	0.3327875
186	0xbeee400b	-0.46533236
187	0xbc787a0d	-0.015165818
188	0xbe30a682	-0.17251018
189	0xbe15a94e	-0.14615366
190	0xbe837c90	-0.2568097
191	0x3eb04e44	0.34434712

bias f4 [8]
0	0xbd1dc63f	-0.03851914
1	0xbddb99a4	-0.10722664
2	0x3db8d336	0.0902466
3	0xbd975ce0	-0.073907614
4	0x3d747c6d	0.059688974
5	0xbdfcaee0	-0.12338042
6	0xbdef17a9	-0.11674435
7	0x3d8fa11a	0.070131496

weight f4 [8]
0	0x3e93c1d1	0.28858808
1	0x3e9d3715	0.30706087
2	0x3de6bea2	0.11266829
3	0x3e96f45b	0.29483303
4	0x3e8ce80b	0.27520785
5	0x3e5fc466	0.21852264
6	0x3e21f179	0.15814771
7	0x3e932a07	0.28743002
