models/teste_3.pth (torch_old, 342428 bytes, 129 tensors)

weight f4 [24, 22, 1]
0	0xbb927dc3	-0.0044705584
1	0x3e53b6a1	0.20675136
2	0xbee56ca4	-0.4480945
3	0x3dd8fe70	0.10595405
4	0xbe7b722d	-0.24555273
5	0x3e2ca91c	0.16861385
6	0xbce3e68d	-0.027819896
7	0x3e573e8c	0.21019953
8	0xbdd47779	-0.1037435
9	0x3ea7f6f5	0.328056
10	0xbb922ca3	-0.0044608875
11	0x3ba70b1d	0.0050977604
12	0x3da9bfbe	0.08288525
13	0xbf0f4faa	-0.5598093
14	0xbe9952ce	-0.29945987
15	0x3e5250c3	0.2053862
16	0x3e8e3781	0.2777672
17	0xbdb3337b	-0.087500535
18	0x3d301bfb	0.042995434
19	0x3ef49601	0.47770694
20	0xbf314ed3	-0.692609
21	0xbec5afc3	-0.38610658
22	0xbd85e305	-0.06537441
23	0xbe762663	-0.24038081
24	0x3e143737	0.14474188
25	0x3c2d24e8	0.010567881
26	0xbe35ebc2	-0.17765716
27	0xbece4b91	-0.40292028
28	0xbd2de3dd	-0.042453635
29	0xbde3dbd8	-0.11125916
30	0xbd51a330	-0.05118102
31	0xbe036bec	-0.12834138
32	0xbdfbcd45	-0.122950114
33	0x3d5738d6	0.052544437
34	0xbe05ff94	-0.13085777
35	0x3e2a3d41	0.16624929
36	0xbe1a2073	-0.15051441
37	0xbd482c6e	-0.048870496
38	0xbebccf71	-0.36877015
39	0xbe902cf5	-0.281593
40	0xbead8600	-0.33891296
41	0xbd2c95dd	-0.04213511
42	0xbdbcbf56	-0.09216182
43	0x3dedf5f8	0.116191804
44	0xbca43d34	-0.020048715
45	0x3d2aab56	0.041667305
46	0xbbebd469	-0.007196952
47	0xbeebc493	-0.46048412
48	0xbf123955	-0.5711873
49	0xbe32d333	-0.17463379
50	0xbe1664a3	-0.14686827
51	0x3edc14c6	0.429846
52	0x3e1fb574	0.15596563
53	0x3ed8fa69	0.42378548
54	0x3e22a853	0.15884523
55	0x3d2ffc4a	0.04296521
56	0x3d17d6b4	0.03706999
57	0xbe2f3a9b	-0.171122
58	0xbdd0faa7	-0.10204058
59	0xbc8ace54	-0.016944088
60	0x3e3ddd73	0.18541507
61	0xbe318e45	-0.17339428
62	0x3e71bc6e	0.23607036
63	0x3ed1ed2b	0.41001257
64	0xbd970798	-0.07374495
65	0xbebf7b47	-0.3739874
66	0xbb6b35c9	-0.0035890213
67	0x3e4d020d	0.20020314
68	0xbeb6185c	-0.3556546
69	0xbd05f88c	-0.032707736
70	0xbe6390d8	-0.22223222
71	0x3dcb7fd7	0.09936493
72	0xbe16ff73	-0.14745884
73	0xbe504a50	-0.20340848
74	0xbd872651	-0.06599105
75	0x3e36fb8b	0.17869394
76	0xbd03bb9c	-0.03216134
77	0xbeb55d43	-0.35422716
78	0xbe613ab4	-0.2199505
79	0x3dd640b4	0.1046156
80	0xbc97f075	-0.018547276
81	0x3df8e2ee	0.121526584
82	0xbe989374	-0.29799998
83	0x3e5174a3	0.2045465
84	0xbee743e4	-0.45168984
85	0xbdf0523c	-0.11734435
86	0x3e9a10f4	0.3009106
87	0xbe64b709	-0.22335447
88	0xbe176f14	-0.14788467
89	0xbd2f3afe	-0.04278087
90	0xbeb28529	-0.34867218
91	0x3e73d842	0.23812965
92	0xbe4d4999	-0.20047607
93	0xbe0db557	-0.13838707
94	0xbedd0188	-0.4316523
95	0xbda7eee5	-0.081998624
96	0xbd96ac01	-0.07357026
97	0xbec746ea	-0.3892129
98	0xbeafbc29	-0.34323242
99	0xbcb10754	-0.02160994
100	0xbc96b06c	-0.018394671
101	0xbdd4c4e1	-0.10389114
102	0xbecc6786	-0.39922732
103	0xbe84fc4e	-0.25973743
104	0x3dedcd14	0.11611381
105	0xbe673302	-0.22578052
106	0xbe724642	-0.23659614
107	0xbde39b72	-0.11113633
108	0xbe272e88	-0.16326344
109	0x3d9bbbd7	0.07604187
110	0xbe430e3a	-0.19048396
111	0x3d44505c	0.0479282
112	0xbd4940a4	-0.04913391
113	0x3e9fb16e	0.31190056
114	0x3e255080	0.1614399
115	0xbd0df170	-0.03465408
116	0x3ddf92d6	0.109166786
117	0x3e9bf0cd	0.30457154
118	0xbca3968b	-0.019969245
119	0x3f2e2280	0.6802139
120	0xbd9355f8	-0.071941316
121	0x3d2e6fc8	0.04258707
122	0xbd0a8aaa	-0.033823647
123	0x3dde724b	0.108616434
124	0xbc97c554	-0.01852671
125	0xbdc56a04	-0.096393615
126	0x3d65a9e1	0.056070212
127	0xbe971b02	-0.29512793
128	0xbcd317eb	-0.02576824
129	0x3e960030	0.29297018
130	0xbea09941	-0.31366923
131	0xbe877389	-0.26455334
132	0x3ed7d5ca	0.42155296
133	0x3e5f5cab	0.21812694
134	0xbe09fc5d	-0.13475175
135	0xbe1faba0	-0.15592813
136	0x3eea3505	0.45743576
137	0xbdc34567	-0.09534722
138	0xbedf52dd	-0.43617907
139	0x3eac46e3	0.33647832
140	0xbe152d19	-0.14567985
141	0xbee1c4cd	-0.4409546
142	0xbeb95abf	-0.36202046
143	0xbeec362a	-0.46135074
144	0xbe8cab0b	-0.27474245
145	0x3de9440e	0.113899335
146	0xbf1600bc	-0.5859487
147	0xbe075f40	-0.13219929
148	0xbcef1fe5	-0.029190013
149	0xbc291d6e	-0.010321958
150	0x3cf62ef1	0.03005168
151	0x3e047b7b	0.12937729
152	0xbf08b275	-0.53397304
153	0x3e47a35b	0.19495909
154	0x3ed94fec	0.42443788
155	0x3e117136	0.14203343
156	0x3e081267	0.1328827
157	0xbe915f92	-0.28393227
158	0xbe76a622	-0.24086812
159	0xbc860b8f	-0.016362933
160	0x3ec59199	0.38587645
161	0x3ec9fffc	0.39453113
162	0x3e5b3597	0.21407162
163	0xbf2adf27	-0.66746753
164	0xbe1336e9	-0.14376415
165	0xbe648533	-0.22316436
166	0x3e507eb4	0.20360833
167	0xbea2fc4e	-0.31833118
168	0x3e1a584d	0.15072747
169	0xbe8a1544	-0.2696935
170	0x3ef2fb0c	0.4745716
171	0x3ed9facb	0.42574152
172	0xbe5913dc	-0.21198982
173	0x3e93b9a6	0.28852576
174	0xba0fd44f	-0.00054866535
175	0xbe92c5e5	-0.28666607
176	0xbed4df50	-0.41576624
177	0x3e9d5747	0.3073065
178	0x3d72139d	0.059100736
179	0x3d85825e	0.06519006
180	0xbd837684	-0.064190894
181	0x3e132a58	0.14371622
182	0xbf0b0d85	-0.54317504
183	0x3e810017	0.2519538
184	0xbe8ec64b	-0.2788566
185	0x3f0881c8	0.5332303
186	0xbe155bc9	-0.14585795
187	0x3cfda438	0.030962095
188	0xbdcaa235	-0.0989422
189	0x3ece8a4c	0.40339887
190	0x3da0be23	0.07848766
191	0x3e2fd19d	0.17169805
192	0x3edfa731	0.43682244
193	0x3dce7f63	0.10082891
194	0xbe128270	-0.1430757
195	0xbe074261	-0.13208915
196	0x3f30a13a	0.6899601
197	0xbd6bf3cd	-0.057605553
198	0xbd776389	-0.06039766
199	0xbe1f41c4	-0.15552431
200	0xbe254a07	-0.1614152
201	0x3c8e84c7	0.017397298
202	0xbe52039b	-0.20509188
203	0x3d06615b	0.03280769
204	0xbe160bb9	-0.1465291
205	0x3e9f1951	0.31074002
206	0xbe14d4ec	-0.14534348
207	0x3db2bf3a	0.0872788
208	0x3f0db55e	0.5535487
209	0xbeb26f0a	-0.3485034
210	0x3e4b84b0	0.19874835
211	0xbe1953ae	-0.14973328
212	0x3d6a3bec	0.057186052
213	0x3e1ab616	0.15108523
214	0x3efeedd4	0.49790823
215	0x3edd72bc	0.43251598
216	0x3e450f4d	0.19244118
217	0x3e29735c	0.16547912
218	0x3de971c4	0.11398652
219	0x3f32c396	0.6982969
220	0xbf0cd254	-0.55008435
221	0xbe0cd391	-0.13752581
222	0x3d27ef2c	0.040999576
223	0xbd788025	-0.060669083
224	0xbe94abda	-0.29037362
225	0xbeea903a	-0.4581316
226	0xbe3ea182	-0.18616298
227	0xbeb0e7e9	-0.34551933
228	0xbe7a8146	-0.24463376
229	0x3e3711de	0.1787791
230	0xbed72e4f	-0.42027518
231	0x3e15099b	0.14554445
232	0xbe27b7f9	-0.16378774
233	0xbcd9f8d6	-0.026607912
234	0xbec464f0	-0.3835826
235	0xbe1f68f1	-0.15567376
236	0x3e8f4582	0.27982718
237	0xbe298ed8	-0.16558397
238	0xbe87fc0f	-0.26559493
239	0xbe83b633	-0.25724944
240	0xbdd0b801	-0.10191346
241	0xbe326a60	-0.17423391
242	0xbaf3ef55	-0.0018610755
243	0x3e5697dc	0.20956367
244	0xbf13a8f1	-0.5767966
245	0x3e7ec8cc	0.24881285
246	0xbea924c7	-0.3303587
247	0x3d9a4d0a	0.07534225
248	0x3ef38b5c	0.4756726
249	0xbf1c788c	-0.6112144
250	0x3d25ff71	0.04052681
251	0xbe969fdb	-0.29418835
252	0xbd2fbbf1	-0.042903844
253	0xbca02ca1	-0.01955253
254	0xbe3f4f63	-0.18682627
255	0x3f07d486	0.5305866

weight f4 [24]
0	0x3e887630	0.2665267
1	0x3e82bf92	0.25536782
2	0x3e70b3f3	0.23506145
3	0x3e87ef21	0.26549628
4	0x3e6bc2d5	0.23023541
5	0x3e763e0a	0.24047104
6	0x3e6c113c	0.2305345
7	0x3e6c506e	0.23077556
8	0x3e8d9e6c	0.2765993
9	0x3e89399d	0.26801768
10	0x3e6d9509	0.23201384
11	0x3e6c4931	0.23074795
12	0x3e6b3f09	0.22973265
13	0x3e8aeb02	0.27132422
14	0x3e525562	0.20540383
15	0x3e6cf87d	0.23141666
16	0x3e850f40	0.25988197
17	0x3e89624e	0.26832813
18	0x3e6cb03d	0.23114105
19	0x3e882bbb	0.26595864
20	0x3e69105e	0.2276015
21	0x3e6d8eed	0.23199053
22	0x3e6cbbe0	0.23118544
23	0x3e87f6f1	0.2655559

weight f4 [24, 24, 3]
0	0xbc52bb7d	-0.0128620835
1	0x3da56ff1	0.08077992
2	0x3da70942	0.08156063
3	0xbda20687	-0.07911401
4	0xbd46b611	-0.048513476
5	0xbdf70a2b	-0.12062486
6	0x3f02e8f3	0.511367
7	0x3e37058c	0.1787321
8	0xbdd738c5	-0.10508875
9	0x3d2fbeba	0.0429065
10	0x3efd03f9	0.49417093
11	0x3e24920a	0.16071334
12	0xbd15752a	-0.03648869
13	0x3d60ec7e	0.054913037
14	0xbead0d0f	-0.33799025
15	0x3e8a33f7	0.2699277
16	0x3d7d15ac	0.061788246
17	0xbe2b95e3	-0.16756396
18	0xbe80a509	-0.25125912
19	0x3e5b6985	0.21426971
20	0xbe1d09cd	-0.1533577
21	0xbe354972	-0.17703798
22	0xbcbe6119	-0.02323966
23	0x3e48e7ff	0.1961975
24	0x3cb8f9a4	0.022579975
25	0x3e11ea22	0.14249471
26	0x3e79d5cf	0.24397968
27	0xbb23d0db	-0.0024996314
28	0xbda15d28	-0.07879096
29	0x3e3fde5a	0.18737164
30	0x3d223b22	0.039607175
31	0xbe58e70a	-0.21181884
32	0x3e0347fb	0.12820427
33	0x3d114841	0.035469297
34	0xbd34c25f	-0.04413068
35	0x3dde65bf	0.1085925
36	0xbda3750d	-0.0798131
37	0x3d912ad4	0.07088247
38	0x3e9a4294	0.3012892
39	0xbd979504	-0.07401469
40	0x3bd92058	0.00662617
41	0x3ecebe96	0.4037978
42	0x3d8f81a1	0.070071466
43	0xbd0c20a2	-0.03421081
44	0x3e459db2	0.19298437
45	0xbd6d4b14	-0.05793293
46	0xbe15f299	-0.14643325
47	0x3e82628b	0.25465807
48	0x3e6253ec	0.22102326
49	0xbd1629a8	-0.03666082
50	0x3d47cef7	0.04878136
51	0xbe7e0729	-0.24807419
52	0xbda30595	-0.07960049
53	0x3e0d5ce4	0.13804966
54	0x3d297f94	0.041381434
55	0x3e8e7cb3	0.27829513
56	0x3c9fa06a	0.019485671
57	0x3c8482cd	0.016175652
58	0xbdf216b2	-0.11820735
59	0x3c520bee	0.012820227
60	0xbb38354c	-0.002810794
61	0x3a997d17	0.0011710253
62	0xbe7775c9	-0.24166025
63	0xbd58bcfd	-0.05291461
64	0x3e823703	0.25432596
65	0xbd63f52c	-0.055653736
66	0xbd8e69ab	-0.06953748
67	0x3e80aa25	0.2512981
68	0x3da741ed	0.08166871
69	0xbc475d71	-0.012168274
70	0x3e2df8bf	0.1698942
71	0xbdbbd6ff	-0.091718666
72	0x3e34732b	0.17622058
73	0x3eb882a5	0.36037174
74	0x3e41a048	0.18908799
75	0x3c1f7e4d	0.009734702
76	0x3e576ca1	0.21037532
77	0x3d8531ec	0.065036625
78	0xbe4a3eef	-0.1975057
79	0x3dd47251	0.103733666
80	0x3c5324d0	0.012887195
81	0x3e49eb73	0.19718723
82	0x3e0c212b	0.13684528
83	0x3e44cfb6	0.1921986
84	0x3eaa39fd	0.33247367
85	0xbd583499	-0.052784536
86	0xbc54c6c6	-0.012986844
87	0x3dde69a9	0.10859997
88	0xbe358f9f	-0.17730568
89	0x3dd32e11	0.10311521
90	0x3d94361c	0.07236883
91	0xbca9fb7e	-0.020749804
92	0xbe66cbf9	-0.22538747
93	0x3e6ba3a2	0.2301164
94	0xbd94849f	-0.07251858
95	0xbe858655	-0.2607905
96	0xbde036b3	-0.10947933
97	0xbe21212f	-0.15735315
98	0x3da6f34f	0.08151876
99	0x3e94d457	0.29068252
100	0xbab18c1a	-0.0013545782
101	0xbce6f749	-0.028194087
102	0x3e116c41	0.14201452
103	0xbe32343f	-0.17402743
104	0xbde654e1	-0.11246658
105	0x3c9d66c9	0.01921405
106	0xbd2e1d83	-0.042508613
107	0xbe8d1a3d	-0.2755908
108	0xbe24e761	-0.16103889
109	0xbdb87d37	-0.09008258
110	0xbe586e55	-0.21135838
111	0x3d1dd2a5	0.038530964
112	0x3dd2f5b0	0.103007674
113	0xbca6fb8d	-0.02038362
114	0xbc3e35fa	-0.011609549
115	0x3e2a0b62	0.16605905
116	0x3df45532	0.11930312
117	0x3d63111a	0.05543623
118	0x3d80501e	0.06265281
119	0xbd993712	-0.07481207
120	0xbe050fcf	-0.12994312
121	0x3d8f1520	0.06986451
122	0xbdd57ab4	-0.104237944
123	0xbc75456b	-0.014970164
124	0x3d151603	0.036397945
125	0x3e81772b	0.2528623
126	0xbdca363f	-0.09873628
127	0x3ebbd9ab	0.36689505
128	0x3c823da0	0.015898526
129	0xbd4b83f9	-0.049686406
130	0xbd657fa1	-0.05602992
131	0x3cbab966	0.022793483
132	0xbd41f551	-0.047353093
133	0xbe387bf1	-0.1801603
134	0x3d8998ff	0.06718635
135	0xbe533788	-0.20626652
136	0xbdea113a	-0.11429067
137	0xbdb486a9	-0.08814747
138	0xbe4b43cb	-0.1985008
139	0xbe20d4de	-0.15706202
140	0x3d959a9e	0.073048815
141	0xbe823873	-0.25433692
142	0x3e097666	0.13424072
143	0x3efe69fb	0.49690232
144	0xbe4cbfa4	-0.1999498
145	0x3d83baab	0.064320885
146	0x3d068828	0.032844692
147	0xbec18840	-0.37799263
148	0x3d714932	0.058907695
149	0x3c4a750f	0.0123570105
150	0xbc97d545	-0.018534312
151	0xbbe903db	-0.0071110553
152	0xbcb49190	-0.022042066
153	0x3dd1e02c	0.102478355
154	0x3c31e87f	0.010858654
155	0x3e58bd1e	0.21165892
156	0xbecd917f	-0.40150067
157	0x3d952987	0.07283311
158	0x3c96c610	0.01840499
159	0xbe31705a	-0.17328015
160	0x3d38259f	0.044957753
161	0x3e2637c4	0.1623221
162	0x3e53d717	0.20687519
163	0x3df2da90	0.11858094
164	0x3dc32547	0.095285945
165	0xbe007934	-0.12546235
166	0xbe9aeab8	-0.302572
167	0xbcee0e19	-0.029059457
168	0x3da11c6f	0.078667514
169	0xbdba89ac	-0.0910829
170	0x3e64548a	0.22297874
171	0x3d865ad1	0.065602906
172	0xbc28491a	-0.010271335
173	0xbad7ca63	-0.0016463514
174	0xbdd943f3	-0.106086634
175	0xbdabc9ca	-0.083880976
176	0xbe4db023	-0.20086722
177	0x3e317f78	0.17333782
178	0x3e911dba	0.28342992
179	0x3e8ae3b7	0.27126858
180	0x3d85e631	0.06538046
181	0xbe4fdab8	-0.20298278
182	0x3e71d901	0.23617937
183	0x3d3a794c	0.045525834
184	0xbd432e59	-0.047651622
185	0xbe23a129	-0.15979446
186	0xbd8335c8	-0.06406742
187	0xbe1dec7b	-0.15422241
188	0x3eb1d497	0.34732506
189	0x3da3b374	0.07993212
190	0x3dd9ffe7	0.106445126
191	0xbe27f701	-0.16402818
192	0x3d508b4a	0.050914086
193	0x3da18dd2	0.07888378
194	0x3bc54cc2	0.006021113
195	0x3eaab48b	0.33340868
196	0xbdbe2c87	-0.09285837
197	0xbe0deb55	-0.13859303
198	0xbd0566b6	-0.032568656
199	0xbdff97e2	-0.12480141
200	0xbd26b4b9	-0.040699694
201	0x3cb9351f	0.022608338
202	0x3c84232c	0.016130053
203	0xbe206887	-0.15664874
204	0x3c704d9a	0.014666939
205	0xbd85f6d1	-0.06541217
206	0xbdab004c	-0.08349666
207	0x3e9628ec	0.29328096
208	0xbcddfc3e	-0.027097818
209	0x3e0e7b8f	0.13914321
210	0xbdd7f5a8	-0.10544902
211	0xbed8a078	-0.42309928
212	0xbe398a10	-0.18119073
213	0xbe83b4d8	-0.2572391
214	0x3deacfe7	0.114654355
215	0xbdcd9298	-0.10037726
216	0xbe85a59d	-0.26102915
217	0xbc363bb3	-0.011122632
218	0xbe59a4bc	-0.21254247
219	0xbc953071	-0.018211575
220	0xbe97719e	-0.2957887
221	0x3da1b05b	0.07894965
222	0x3c5c6895	0.013452669
223	0x3d9cb0cf	0.07650911
224	0xbd396c7b	-0.04526947
225	0xbe8ed2c6	-0.27895182
226	0x3e4b2351	0.19837691
227	0xbd964a80	-0.073384285
228	0xbc1ebb55	-0.009688218
229	0xbd75ff89	-0.06005815
230	0x3d00fd4a	0.031491555
231	0x3e37870f	0.17922615
232	0xbe347cf4	-0.17625791
233	0x3eca7519	0.39542463
234	0x3e88a83b	0.2669085
235	0xbe165445	-0.14680584
236	0xbda48784	-0.0803366
237	0x3da8f0ae	0.08249031
238	0xbc50d2e8	-0.0127455965
239	0xbe5093dc	-0.20368904
240	0xbd1a4133	-0.037659835
241	0xbd9a9250	-0.07547438
242	0x3d2fa0fa	0.04287813
243	0x3cfc2535	0.03077946
244	0x3da14e3f	0.078762524
245	0x3c929e0f	0.017897634
246	0xbd3dedd8	-0.046369404
247	0x3d13ca8c	0.036081836
248	0xbd2c8b11	-0.04212481
249	0xbd66a1a3	-0.056306493
250	0xbe6fe99f	-0.23428963
251	0xbe1c8687	-0.15285693
252	0x3c8b326f	0.016991822
253	0xbe1f3bc6	-0.15550146
254	0xbe11a797	-0.14224087
255	0xbe2287c7	-0.15872107

bias f4 [24]
0	0x3e009aeb	0.12559097
1	0xbe014d87	-0.1262723
2	0x3d6e8e06	0.058240913
3	0x3b6b229b	0.003587878
4	0xbd348e6d	-0.04408114
5	0xbb495d34	-0.003072572
6	0x3cfba948	0.030720368
7	0xb9cf17ff	-0.00039499995
8	0xbdca227d	-0.09869859
9	0xbdd7f8f5	-0.10545532
10	0xbd25fc01	-0.040523533
11	0xbc14a62c	-0.009072822
12	0xbc01e5b9	-0.007928305
13	0xbe067b55	-0.13132985
14	0x3ccf3203	0.025292402
15	0xbaa40719	-0.0012514322
16	0xbdb05c8c	-0.08611402
17	0x3da06909	0.07832534
18	0xbdc5e162	-0.09662129
19	0xbdffad64	-0.124842435
20	0x3d985fdd	0.074401595
21	0x3c196593	0.009362596
22	0xbd9efd73	-0.07763185
23	0xbdd11338	-0.10208744

weight f4 [24]
0	0x3e6f51af	0.23371004
1	0x3e88b43e	0.26700014
2	0x3e8b4af7	0.2720563
3	0x3e6f2080	0.23352242
4	0x3e6c4ef9	0.23077
5	0x3e6a90c1	0.22906782
6	0x3e6d8d26	0.23198375
7	0x3e860fdf	0.26183984
8	0x3e87deac	0.26537073
9	0x3e5e3dd2	0.2170327
10	0x3e6ddab9	0.23227967
11	0x3e6a7f11	0.22900034
12	0x3e73a93f	0.23795031
13	0x3e871d20	0.26389408
14	0x3e6bc36f	0.23023771
15	0x3e6f776b	0.23385398
16	0x3e6de766	0.23232803
17	0x3e6e0088	0.2324239
18	0x3e89b09f	0.26892564
19	0x3e87928b	0.2647899
20	0x3e89aa5d	0.2688779
21	0x3e6d66a7	0.2318369
22	0x3e6d66c3	0.23183732
23	0x3e89b013	0.26892146

weight f4 [24, 24, 3]
0	0x3d5373b7	0.051624026
1	0x3e37e40d	0.17958088
2	0xbeb55e54	-0.3542353
3	0xbe719187	-0.2359067
4	0xbdd68728	-0.10474998
5	0xbddb7e8a	-0.10717495
6	0xbdb03c91	-0.08605302
7	0xbe40bfda	-0.18823186
8	0xbe2ab877	-0.1667193
9	0x3d7a1deb	0.06106369
10	0xbe5e9521	-0.21736576
11	0xbd53364f	-0.051565465
12	0x3e356961	0.1771598
13	0x3e2c81bb	0.16846363
14	0x3e3d2572	0.18471316
15	0x3e416624	0.1888662
16	0x3e37376c	0.17892236
17	0xbe541d42	-0.20714286
18	0xbe787c91	-0.24266268
19	0xbe28987f	-0.16464423
20	0xbe805d9c	-0.25071418
21	0xbe1e3758	-0.154508
22	0x3e7e2e20	0.24822283
23	0xbd2ff6c5	-0.042959947
24	0x3e4e8e8b	0.20171563
25	0xbd3946fd	-0.045233715
26	0x3d1b18ea	0.037865557
27	0xbe80d07d	-0.25159064
28	0x3e8a68ad	0.27032986
29	0x3e1ab522	0.15108159
30	0xbd8a9512	-0.06766714
31	0x3bf52dc6	0.0074822633
32	0xbd91472a	-0.070936516
33	0x3c86ab64	0.016439147
34	0xbd6671cd	-0.056260873
35	0xbe66924f	-0.2251675
36	0xbde79d1e	-0.113092646
37	0x3e6e28ba	0.23257723
38	0xbd0d3b41	-0.034480337
39	0x3cd42da2	0.025900666
40	0x3ecb6d75	0.39731947
41	0x3df12f95	0.11776654
42	0x3da89f23	0.08233478
43	0x3e6f194f	0.23349498
44	0x3de5928f	0.112095945
45	0x3d7fe240	0.06247163
46	0xbcf545bb	-0.029940477
47	0xbdb47bf9	-0.088127084
48	0xbe1dd946	-0.15414914
49	0x3e01ca8e	0.12674925
50	0xbe87c0d6	-0.2651431
51	0xbec79042	-0.38977247
52	0x3dc1e610	0.09467709
53	0xbd2d0e4f	-0.042249974
54	0xbe1d005c	-0.15332168
55	0x3e52d49e	0.2058892
56	0x3e848e2e	0.25889724
57	0xbd17dffb	-0.03707884
58	0xbddf8c01	-0.109153755
59	0x38f6563f	0.00011746259
60	0xbe6699aa	-0.22519556
61	0x3e7113d2	0.23542717
62	0xbdc0178e	-0.09379493
63	0x3c913014	0.01772312
64	0x3e755837	0.23959433
65	0x3df23ca2	0.11827971
66	0xbd5e1733	-0.054221343
67	0xbd9eee9c	-0.07760355
68	0xbe0f3d55	-0.1398824
69	0x3e20e625	0.15712793
70	0xbdcee5ed	-0.101024486
71	0xbe8feeef	-0.2811198
72	0x3dec13c9	0.11527211
73	0x3e615400	0.220047
74	0xbe5d5a82	-0.21616557
75	0x3e51af57	0.20477043
76	0x3d452d90	0.048139155
77	0x3e644762	0.22292855
78	0x3d83b115	0.0643026
79	0x3e2814ee	0.16414234
80	0xbd529539	-0.05141184
81	0x3c88717a	0.016655672
82	0x3da9e3bd	0.08295391
83	0x3e360f16	0.17779192
84	0xbd659b7e	-0.056056492
85	0xbdcec689	-0.10096461
86	0x3dc7d790	0.09757912
87	0xbdded6f0	-0.1088084
88	0xbd63ee6e	-0.055647306
89	0x3d98aa60	0.074543715
90	0x3e37b5e4	0.1794048
91	0xbdbe5574	-0.09293643
92	0xbe17e069	-0.148317
93	0x3bbde4ad	0.0057950825
94	0x3e5b2c52	0.21403626
95	0xbdb68b62	-0.08913304
96	0xbd5f4d1c	-0.054516897
97	0x3cc45d69	0.023970323
98	0x3e8a0d93	0.2696348
99	0x3c0ebbda	0.0087117795
100	0xbdaf20db	-0.085511886
101	0x3dcbbf06	0.09948544
102	0xbdce4f1c	-0.10073683
103	0x3d29277b	0.041297417
104	0x3d13fa4a	0.036127366
105	0xbe49b5a7	-0.19698201
106	0xbcd9db94	-0.02659396
107	0xbe3fb36b	-0.18720786
108	0x3e66b777	0.22530924
109	0xbdc503eb	-0.09619888
110	0x3d978e1e	0.074001536
111	0x3e47c504	0.19508749
112	0x3cbae555	0.022814432
113	0xbe037bbc	-0.1284017
114	0x3e84c8cd	0.2593445
115	0xbdcfcd4a	-0.10146578
116	0x3dea2389	0.11432559
117	0x3e41cc5a	0.1892561
118	0x3dfb97a7	0.12284785
119	0x3e835f81	0.256588
120	0xbc4dbdce	-0.01255746
121	0x3df5b102	0.11996652
122	0x3d8e775b	0.06956359
123	0x3e1cc62c	0.15309972
124	0x3cc73b63	0.02432031
125	0xbe83fe72	-0.25780064
126	0xbd696ce8	-0.056988627
127	0xbe32d80e	-0.17465231
128	0xbcb0c658	-0.021578953
129	0x3d1c83e8	0.038211733
130	0x3e54a1c9	0.20764841
131	0xbe7fd187	-0.24982272
132	0xbe4e29d7	-0.20133148
133	0xbd3753d1	-0.044757668
134	0xbe01dd08	-0.12681973
135	0x3d795283	0.060869705
136	0xbe64ec15	-0.22355683
137	0x3de5783c	0.112045735
138	0x3d24522f	0.04011744
139	0xbc138209	-0.009003171
140	0x3de4272e	0.111402854
141	0xbdb240cf	-0.087037675
142	0x3dfb221a	0.12262364
143	0xbd199173	-0.037492227
144	0xbe21ab8f	-0.157881
145	0x3c484634	0.012223769
146	0x3c9317fe	0.017955776
147	0xbc5bee6d	-0.013423544
148	0x3ddd19b6	0.107959196
149	0x3e59942e	0.21247932
150	0x3e47ead7	0.19523178
151	0x3d80bacc	0.06285629
152	0x3e1fbd8b	0.15599649
153	0xbbfc86ad	-0.0077064843
154	0xbcedc1e9	-0.029023128
155	0x3da8f617	0.08250063
156	0x3d0f9994	0.035058573
157	0xbebf23af	-0.37331912
158	0xbdd0c363	-0.10193517
159	0xbe2f9c39	-0.17149438
160	0xbe46855c	-0.1938681
161	0x3d5228b4	0.05130835
162	0x3e6b0944	0.22952753
163	0x3ddcfd70	0.10790527
164	0xbe255503	-0.1614571
165	0xbd15f8e4	-0.036614314
166	0xbd75b864	-0.0599903
167	0xbeb8d42c	-0.36099374
168	0xbe7981c9	-0.24365915
169	0x3e28fe7a	0.16503325
170	0x3e4b6a56	0.19864783
171	0xbcc16fae	-0.023612823
172	0xbd0a1878	-0.03371474
173	0xbd30d34d	-0.043170262
174	0x3d4da000	0.050201416
175	0x3d86b5cc	0.06577644
176	0xbd824553	-0.06360879
177	0xbe8eb572	-0.27872807
178	0xbc55c6f4	-0.013047922
179	0x3e10979c	0.14120334
180	0x3db3cc30	0.0877918
181	0xbedb3aef	-0.428184
182	0x3ca149b5	0.019688467
183	0xbd24531a	-0.040118314
184	0xbe987166	-0.29774016
185	0x3e4169db	0.18888037
186	0x3e0bbb4d	0.13645668
187	0x3d4c3ee5	0.04986467
188	0xbe0317b2	-0.12802008
189	0x3de55a3c	0.111988515
190	0xbcae7806	-0.021297466
191	0xbe303add	-0.17209955
192	0x3e503c27	0.20335446
193	0xbdfa9b54	-0.12236658
194	0x3ea74578	0.32670188
195	0x3ddd89ba	0.10817285
196	0xbd2a918f	-0.04164272
197	0xbe1027d7	-0.14077698
198	0x3e55403f	0.20825289
199	0xbdd98822	-0.106216684
200	0x3dce0820	0.100601435
201	0xbde00155	-0.10937754
202	0x3b0effbe	0.0021819915
203	0x3e382e4a	0.17986408
204	0xbde8a481	-0.11359502
205	0xbd21479b	-0.03937493
206	0xbd21920c	-0.03944592
207	0x3dab41be	0.08362149
208	0x3e7865e9	0.24257626
209	0xbe4c6b16	-0.19962725
210	0x3e0e1bc9	0.13877787
211	0xbcaed810	-0.021343261
212	0x3ebba655	0.3665034
213	0xbe12e90e	-0.14346716
214	0x3c8aca69	0.01694222
215	0x3e39edef	0.1815717
216	0x3dbf3df1	0.09337986
217	0xbe1e7b26	-0.15476665
218	0xbe088d25	-0.13335092
219	0xbd7660eb	-0.060151022
220	0x3e54026c	0.20704049
221	0xbe3ed24b	-0.18634908
222	0x3dfa8d41	0.12233973
223	0xbddab3f3	-0.10678854
224	0x3d5195cc	0.051168248
225	0xbdf48548	-0.11939484
226	0xbdaac328	-0.08338004
227	0x3e7f1504	0.2491036
228	0xbaccb631	-0.0015618262
229	0x3cefb49b	0.029260924
230	0xbe3aff53	-0.18261461
231	0xbe98cdda	-0.29844552
232	0x3d8f6e29	0.07003433
233	0xbe44d1e6	-0.19220695
234	0x3e69ffc4	0.22851473
235	0xbc8edf01	-0.01744032
236	0x3cc53133	0.024071312
237	0x3e953eb4	0.291494
238	0xbe4c2f33	-0.1993988
239	0x3e370b02	0.17875293
240	0x3d06d33c	0.032916293
241	0xbc39785a	-0.011320198
242	0xbd39ce00	-0.045362473
243	0xbe760f85	-0.24029358
244	0xbe776a61	-0.24161674
245	0xbe7a1449	-0.244218
246	0x3e4a47de	0.19753978
247	0x3cb82fe7	0.02248378
248	0x3da8b497	0.0823757
249	0x3e56d978	0.20981395
250	0x3cf2c947	0.029636992
251	0xbc3a49c2	-0.011370124
252	0xbe505218	-0.20343816
253	0xbe2da4cc	-0.16957396
254	0xbe433036	-0.1906136
255	0xbb6862d0	-0.0035459287

bias f4 [24]
0	0xbd5afe54	-0.053465202
1	0x3b671335	0.003525925
2	0xbdefe693	-0.117139004
3	0xbcfd76fa	-0.030940522
4	0x3dc458c2	0.09587242
5	0xbd549ab5	-0.051905353
6	0x3dc8744f	0.09787809
7	0xbe082955	-0.13297017
8	0x3dbd79c8	0.092517436
9	0x3cd4ae27	0.025961949
10	0x3d44835a	0.04797683
11	0xbd33139f	-0.043719884
12	0x3d8657d3	0.0655972
13	0xbdc7e112	-0.09759726
14	0x3db2426b	0.087040745
15	0x3d438d36	0.04774209
16	0x3d91e731	0.071241744
17	0x3d9144f5	0.07093231
18	0xbc92b743	-0.017909652
19	0x3dda1289	0.106480666
20	0xbe075764	-0.1321693
21	0x3da94a04	0.082660705
22	0xbd7f016e	-0.062257223
23	0x3a57ddaa	0.00082346296

weight f4 [24]
0	0x3e6b712d	0.22992392
1	0x3e6d594a	0.23178592
2	0x3e6f0448	0.23341477
3	0x3e6d8324	0.23194557
4	0x3e6d1d9c	0.23155826
5	0x3e6d5604	0.23177344
6	0x3e888238	0.2666185
7	0x3e6b0451	0.22950865
8	0x3e69dcdf	0.22838162
9	0x3e864a4b	0.26228556
10	0x3e523373	0.20527439
11	0x3e6c5e34	0.2308281
12	0x3e6d56a1	0.23177578
13	0x3e89062a	0.26762515
14	0x3e88eb31	0.26741937
15	0x3e7c08da	0.24612752
16	0x3e6cd45a	0.2312788
17	0x3e896753	0.26836643
18	0x3e880cf0	0.2657237
19	0x3e6ab59f	0.22920845
20	0x3e82273e	0.25420564
21	0x3e6d49bd	0.2317266
22	0x3e5a3ed5	0.21313031
23	0x3e6b6a46	0.22989759

weight f4 [24, 24, 3]
0	0xbdbef254	-0.09323564
1	0x3cfa915d	0.030586893
2	0xbd994a55	-0.07484881
3	0xbda3379e	-0.079695925
4	0xbad49480	-0.0016218573
5	0xbd069c6f	-0.03286403
6	0xbd2d7496	-0.042347513
7	0xbd4bd529	-0.049763832
8	0xbe623914	-0.22092086
9	0x3edcc278	0.43117118
10	0xbe609fe4	-0.21935993
11	0x3e5c8f79	0.21539105
12	0x3d9495f8	0.07255167
13	0xbd627679	-0.055288766
14	0xbe94e36f	-0.29079768
15	0x3c668f9e	0.014072327
16	0xbe043326	-0.12910137
17	0xbe53392b	-0.20627277
18	0xbe3b3270	-0.18280959
19	0x3d1b3d0b	0.037900012
20	0xbc62603c	-0.013816889
21	0xbe29296e	-0.1651971
22	0x3e53e98d	0.20694561
23	0x3e3ddfd1	0.1854241
24	0xbd3ca16c	-0.04605238
25	0x3d4a2965	0.049355883
26	0xbe34d9cc	-0.17661208
27	0xbdec2160	-0.11529803
28	0x3df90872	0.12159814
29	0x3dd535ce	0.10410653
30	0x3e63515d	0.22199006
31	0xbd45f2c7	-0.048327234
32	0xbeacfec1	-0.33788112
33	0xbe25b258	-0.16181314
34	0xbdb186f1	-0.08668316
35	0xbdead36a	-0.11466105
36	0x3ea1510a	0.3150714
37	0xbe26383a	-0.16232386
38	0xbd54ff1d	-0.052001107
39	0x3e9210cc	0.2852844
40	0xbdfb0680	-0.12257099
41	0x3ea01582	0.3126641
42	0x3d10ceec	0.035353586
43	0xbcae8d0a	-0.021307487
44	0xbd55ba4f	-0.05217963
45	0x3e193e75	0.14965232
46	0xbe8b039b	-0.27151188
47	0xbb2bd3d9	-0.00262188
48	0xbdf8b63e	-0.12144135
49	0xbd41063c	-0.047125086
50	0x3d9212f9	0.07132525
51	0xbe2574dc	-0.1615786
52	0xbdc4032b	-0.09570917
53	0xbe8193ce	-0.2530808
54	0xbd9b76bd	-0.07591007
55	0xbe66d8c5	-0.22543629
56	0xbdd33879	-0.10313506
57	0xbde9d650	-0.1141783
58	0xbd26f318	-0.040759176
59	0x3d61cc04	0.055126205
60	0x3e466d24	0.19377571
61	0x3d120363	0.03564776
62	0x3dd6e776	0.104933664
63	0xbd99a819	-0.07502765
64	0x3d6ce151	0.057832066
65	0x3d8e2a88	0.06941706
66	0x3e2272c2	0.15864089
67	0xbe8d9418	-0.2765205
68	0x3d8211f8	0.063510835
69	0xbe9dd0b7	-0.308233
70	0x3d2fb383	0.042895805
71	0x3c56bbba	0.013106281
72	0xbd80f571	-0.06296814
73	0xbdc4a4b5	-0.09601728
74	0x3ddcdcfb	0.10784336
75	0xbe2caa42	-0.16861823
76	0x3dc421fa	0.09576793
77	0x3d8af3fb	0.06784817
78	0x3de6ced4	0.11269918
79	0xbe3c0470	-0.18361068
80	0xbe16de1d	-0.14733167
81	0xbe1de81d	-0.15420575
82	0xbe4d2bf6	-0.20036301
83	0x3d927a5b	0.07152244
84	0xbe585bc0	-0.2112875
85	0x3e0f6ce5	0.14006384
86	0xbdec9721	-0.11552263
87	0xbe1e93c2	-0.15486053
88	0xbd8f13b2	-0.069861785
89	0xbd8cc54f	-0.06873571
90	0x3d3c54a6	0.045979165
91	0xbdeaff8d	-0.11474524
92	0x3d8c1d39	0.06841511
93	0xbe7e5a1b	-0.2483906
94	0x3e03c7df	0.12869214
95	0xbe879f1a	-0.26488572
96	0x3d85178d	0.064986326
97	0xbd422629	-0.047399674
98	0x3e8c3514	0.27384245
99	0xbdb8727a	-0.0900621
100	0x3df09b3d	0.11748359
101	0x3daa160b	0.083049856
102	0xbd0068f0	-0.031350076
103	0x3d4a47db	0.049384933
104	0xbe52a715	-0.20571549
105	0xbdf55e77	-0.11980908
106	0x3d36a327	0.044589188
107	0xbe3849c4	-0.1799689
108	0x3ebe424c	0.37159956
109	0xbe9e72d1	-0.30946973
110	0xbe8e1cc8	-0.27756333
111	0xbdf124de	-0.1177461
112	0x3d34f95d	0.044183124
113	0xbddb8527	-0.10718756
114	0xbe70066c	-0.2343995
115	0xbe86777e	-0.2626304
116	0x3d255247	0.04036167
117	0xbe6d8e91	-0.23198916
118	0x3e54b644	0.20772654
119	0xbce34e25	-0.027747223
120	0xbec17739	-0.37786272
121	0x3e9a892b	0.30182776
122	0x3db4c8dc	0.088273734
123	0x3ebccd45	0.36875358
124	0xbe1b3d27	-0.15160047
125	0xbe7306b2	-0.23733023
126	0x3e89e94d	0.26935807
127	0x3d825913	0.06364646
128	0x3e4056d4	0.18783122
129	0xbe0fcc06	-0.14042673
130	0xbe310226	-0.17285976
131	0xbd3152e4	-0.04329194
132	0xbdca068c	-0.0986453
133	0x3c784d8b	0.015155206
134	0x3e955075	0.29162946
135	0x3d99d707	0.07511716
136	0xbd397948	-0.04528168
137	0x3c8ffbe2	0.017576162
138	0x3dfcee3e	0.123501286
139	0x3d9ccd0f	0.07656299
140	0xbe1c8367	-0.15284501
141	0x3db5848f	0.08863174
142	0xbe1cabd0	-0.15299916
143	0x3d4e361a	0.050344564
144	0x3e0383a4	0.12843186
145	0xbed3403f	-0.41259953
146	0x3ec1be28	0.3784039
147	0x3e47f487	0.19526874
148	0x3cc0c7de	0.023532804
149	0x3e0a3d60	0.13499975
150	0x3c51f8ff	0.012815713
151	0x3d5be2d5	0.05368312
152	0xbdc5acf2	-0.09652127
153	0x3e052ece	0.13006136
154	0xbe7c3c86	-0.24632463
155	0x3dbadd6a	0.09124263
156	0x3e189007	0.14898692
157	0xbd6607f3	-0.056159925
158	0x3da6b69c	0.08140299
159	0xbdf4e630	-0.11957967
160	0xbe58061f	-0.21096085
161	0xbb3d6392	-0.002889846
162	0xbe29d70a	-0.16585937
163	0x3e865f3c	0.26244533
164	0x3e2480eb	0.16064803
165	0x3c74fe36	0.014953187
166	0xbdb8c676	-0.090222284
167	0x3bede51d	0.0072599784
168	0xbe165a18	-0.14682806
169	0xbd0827aa	-0.03324095
170	0xbe3d975b	-0.18514769
171	0x3e454c1b	0.19267313
172	0xbe231c19	-0.15928687
173	0xbc67aefc	-0.014140841
174	0xbcd1bbaf	-0.02560219
175	0x3e1f1fff	0.1553955
176	0x3e5eb9de	0.2175059
177	0xbd17f6a3	-0.037100445
178	0x3e85f1eb	0.2616113
179	0x3bfe3fdf	0.007759079
180	0xbca3bd34	-0.01998768
181	0xbbb538af	-0.005530439
182	0x3e53dc62	0.20689538
183	0x3e62e7fe	0.2215881
184	0xbe031361	-0.12800361
185	0x3d42334b	0.047412198
186	0x3cb68d43	0.022284156
187	0x3e172eb4	0.1476391
188	0x3e4dc5a7	0.2009493
189	0x3d8d56ad	0.06901298
190	0xbe68a8a4	-0.22720581
191	0x3e430e4b	0.19048421
192	0xbe09008e	-0.13379118
193	0x3d142450	0.036167443
194	0x3b0dbe3f	0.0021628288
195	0x3c4f538f	0.012654199
196	0x3e110f74	0.14166051
197	0xbd8010b2	-0.062531844
198	0xbe1fa3b7	-0.15589796
199	0xbea50d04	-0.32236493
200	0x3e1e9455	0.15486272
201	0xbdb2d133	-0.08731308
202	0xbe680216	-0.22657046
203	0xbdccb076	-0.09994595
204	0xbe990f6e	-0.29894584
205	0x3d465e8d	0.048430014
206	0x3d4f3fcc	0.05059795
207	0xbe10e512	-0.14149883
208	0xbe201c44	-0.15635782
209	0x3e70ed9c	0.23528141
210	0x3e839d21	0.25705817
211	0x3dda49e3	0.10658624
212	0xbe6f4e9b	-0.2336983
213	0xbd1646eb	-0.036688726
214	0xbe159b9c	-0.14610142
215	0x3e64aab0	0.22330737
216	0x3ce9be62	0.028533164
217	0x3c85ead6	0.01634733
218	0xbdb36c5f	-0.087609045
219	0xbef8afa3	-0.485715
220	0xbe3331dd	-0.1749949
221	0x3d1bf2e1	0.038073424
222	0xbe1b6a47	-0.1517726
223	0xbeae8546	-0.34086055
224	0x3d2bec92	0.041973658
225	0x3ec4ffc7	0.38476393
226	0xbea7c3c3	-0.32766542
227	0x3c93e71f	0.018054543
228	0xbdb49b1a	-0.08818646
229	0xbd8b5019	-0.06802387
230	0x3d872e4d	0.06600628
231	0x3d9526fa	0.07282825
232	0x3c0eb7c7	0.008710808
233	0xbc4b8b5f	-0.012423365
234	0x3d479526	0.048726223
235	0xbe5f7fe9	-0.21826138
236	0x3dedc333	0.11609497
237	0xbdebbfc4	-0.11511186
238	0xbe1f8d3b	-0.15581219
239	0x3d098f47	0.033583906
240	0xbda05693	-0.07829013
241	0x3c47ef67	0.012203074
242	0x3e459b4f	0.19297527
243	0xbe0670a6	-0.1312891
244	0x3e20117d	0.15631671
245	0x3d747b22	0.05968774
246	0x3baf3052	0.0053463364
247	0x3da62c06	0.081138656
248	0xbcfa1c16	-0.03053097
249	0xbce20600	-0.027590752
250	0x3bd2974a	0.0064267265
251	0xbd4ce8bd	-0.050026644
252	0x3e3100a7	0.17285405
253	0x3d9193ef	0.07108294
254	0x3d49ba65	0.049250025
255	0x3e6f8917	0.2339214

bias f4 [24]
0	0x3d907dd9	0.070552535
1	0x3d858ee1	0.065213926
2	0x3dfa50ea	0.122224644
3	0xbdb81d74	-0.08989993
4	0xbd2a1f64	-0.041533843
5	0xbdb2af25	-0.087248124
6	0x3d6c9bc1	0.057765726
7	0xbd628d6c	-0.05531065
8	0xbadc39d1	-0.0016801899
9	0x3d5e2c3b	0.0542414
10	0xbdd2ae5d	-0.102871634
11	0x3daf2960	0.085528135
12	0x3d030d07	0.031994846
13	0xbd5e987c	-0.05434464
14	0x3c10479b	0.008806135
15	0x3d795a39	0.06087706
16	0xbd50da23	-0.05098928
17	0x3dc1f9b8	0.09471458
18	0xbdaf01f8	-0.085452974
19	0xbdc3268d	-0.09528837
20	0x3d47e99c	0.04880677
21	0xbce7f606	-0.028315555
22	0x3da8cb03	0.082418464
23	0x3d846309	0.06464202

weight f4 [24]
0	0x3e89b379	0.2689474
1	0x3e6b929a	0.23005143
2	0x3e6d8322	0.23194554
3	0x3e812652	0.2522455
4	0x3e895491	0.26822332
5	0x3e6d50ba	0.23175326
6	0x3e887286	0.26649874
7	0x3e7f4ab1	0.24930836
8	0x3e6d6fcc	0.23187178
9	0x3e85a50f	0.26102492
10	0x3e884a14	0.26619017
11	0x3e759f1c	0.23986477
12	0x3e87bfde	0.2651357
13	0x3e6cf6b7	0.23140989
14	0x3e87885c	0.2647122
15	0x3e6ac314	0.22925979
16	0x3e6a28e8	0.22867167
17	0x3e6d5dc7	0.23180304
18	0x3e898f1a	0.2686699
19	0x3e6c2ffd	0.23065181
20	0x3e8a20f3	0.26978263
21	0x3e6b7713	0.22994642
22	0x3e86e525	0.26346698
23	0x3e83459c	0.25639045

weight f4 [24, 24, 3]
0	0x39448967	0.00018743203
1	0x3e02629e	0.12732932
2	0x3eb59a68	0.35469365
3	0x3d78cff7	0.060745206
4	0x3d0f8a8a	0.03504423
5	0xbd9e7eb5	-0.07739011
6	0xbdac218a	-0.084048346
7	0xbdc0b313	-0.09409156
8	0xbe0466cb	-0.12929837
9	0xbbf9840f	-0.0076146196
10	0xbe06a50e	-0.13148901
11	0xbc39f14b	-0.011349033
12	0x3dc1b580	0.094584465
13	0x3eb3fa86	0.35152072
14	0x3e9f62cd	0.31130067
15	0xbec99488	-0.39371133
16	0x3dc9fb78	0.09862417
17	0xbefd1216	-0.4942786
18	0x3ea1949d	0.31558695
19	0x3e88be05	0.26707473
20	0xbdb5efc1	-0.0888362
21	0x3edf1e0e	0.43577617
22	0x3db4b3d9	0.08823366
23	0xbe69fc2c	-0.22850102
24	0x3e254d94	0.16142875
25	0xbddde13e	-0.10833977
26	0xbe0f03f0	-0.13966346
27	0x3e0f4aab	0.13993327
28	0x3e197cc2	0.14988998
29	0x3d99db60	0.075125456
30	0x3de05bc2	0.109550014
31	0xbe4daa96	-0.20084605
32	0xbc0bea1d	-0.008539704
33	0x3e581810	0.21102929
34	0xbc07b3f1	-0.0082826475
35	0xbc1b946b	-0.009495835
36	0x3d424483	0.04742862
37	0xbe2840a2	-0.16430905
38	0x3bb353ed	0.005472651
39	0xbd7b7328	-0.06138912
40	0x3c305ac4	0.010763828
41	0xbe1ab2e9	-0.15107311
42	0x3c8d9115	0.017281095
43	0xbe833430	-0.25625753
44	0x3e799d9d	0.24376531
45	0xbc548f67	-0.012973643
46	0xbe523502	-0.20528033
47	0xbd2ae814	-0.041725233
48	0xbd5516f0	-0.052023828
49	0xbdf80826	-0.12110929
50	0x3ea26477	0.31717274
51	0x3d9dc21c	0.07703039
52	0xbb9923e9	-0.0046734703
53	0x3d6148be	0.055001013
54	0x3e7efb60	0.2490058
55	0xbe0f9b77	-0.14024149
56	0x3eb48853	0.35260257
57	0xbdd80e05	-0.10549549
58	0x3e13b517	0.14424549
59	0x3e03d9fa	0.1287612
60	0xbc494269	-0.0122839
61	0x3e1c92af	0.1529033
62	0xbde681d9	-0.11255235
63	0x3e38f8d3	0.18063669
64	0x3e4e0ffe	0.20123288
65	0xbae74044	-0.0017643054
66	0x3df3d798	0.119063556
67	0x3e5dc86c	0.21658486
68	0x3dc30139	0.095217176
69	0x3e0601a0	0.13086557
70	0x3c0a7555	0.008450826
71	0x3ca82360	0.02052468
72	0x3c7930b6	0.0152093675
73	0xbcdbaab8	-0.026814803
74	0x3e641a4b	0.22275655
75	0xbda3f95a	-0.080065444
76	0xbe53243f	-0.20619296
77	0x3e2bc285	0.16773422
78	0x3cb29585	0.021799812
79	0xbeb78d1d	-0.35849848
80	0x3e3245f5	0.17409499
81	0x3e08673e	0.13320634
82	0xbe061627	-0.13094388
83	0xbd24c4ec	-0.04022686
84	0xbd45c397	-0.048282232
85	0x3e3d0ace	0.18461153
86	0x3ea631de	0.3245992
87	0x3dd7d27c	0.105381936
88	0xbcf766e9	-0.030200439
89	0xb9ef5ab5	-0.00045653214
90	0xbd7d6fc6	-0.061874174
91	0x3edda634	0.43290865
92	0xbe1f30bc	-0.15545934
93	0xbd01a674	-0.031652883
94	0x3da89534	0.08231583
95	0xbe2a4efb	-0.16631691
96	0xbe1e3227	-0.15448819
97	0xbe078966	-0.13236007
98	0xbe59057c	-0.21193498
99	0x3df1c03f	0.11804246
100	0xbded5a78	-0.11589521
101	0x3df7a12a	0.120912865
102	0xbd634f83	-0.05549575
103	0x3e3a39d6	0.18186125
104	0x3e8e301d	0.27771083
105	0xbd4e7f46	-0.050414346
106	0x3be2e99a	0.00692482
107	0x3cf5240f	0.02992442
108	0xbdad5ca7	-0.08464938
109	0xbc4ce75a	-0.01250633
110	0xbc8449ef	-0.016148536
111	0xbded8257	-0.11597126
112	0xbe0b6d26	-0.13615856
113	0xbe0ef77c	-0.13961595
114	0x3e0fd6bf	0.14046763
115	0xbc7a35bb	-0.015271599
116	0x3e075d60	0.13219213
117	0x3e174813	0.14773588
118	0x3de2cf8a	0.11074741
119	0xbdf022ea	-0.11725409
120	0x3d31e211	0.043428484
121	0xbbb85ecf	-0.0056265364
122	0x3d48c321	0.049014214
123	0x3d1a0326	0.03760066
124	0xbd8fc81f	-0.07020592
125	0xbd722e00	-0.0591259
126	0xbdc50d01	-0.09621621
127	0xbcae67b5	-0.021289686
128	0x3e911e64	0.283435
129	0xbe1ba5ca	-0.15199962
130	0xbdec72d7	-0.115453415
131	0xbbafe7a3	-0.0053681894
132	0xbdfe8ad0	-0.1242882
133	0x3db6c6b5	0.08924619
134	0x3eafd9c4	0.3434583
135	0xbeaceff0	-0.33776808
136	0x3e41b6ba	0.18917361
137	0x3e4db0cd	0.20086975
138	0xbe060884	-0.13089186
139	0x3c725f49	0.014793226
140	0x3db8e009	0.09027106
141	0xbc0530c5	-0.008129303
142	0xbe3c44a7	-0.18385564
143	0x3d834d95	0.06411282
144	0x3c507db0	0.012725279
145	0xbd07e3f4	-0.033176377
146	0x3caf1352	0.021371517
147	0xbe246f6c	-0.16058129
148	0x3e1a038a	0.15040413
149	0xbe2f2dbf	-0.17107294
150	0xbe1523a0	-0.14564371
151	0xbb952b26	-0.004552263
152	0x3dba7e12	0.09106077
153	0xbdfa9278	-0.12234968
154	0xbdd558ef	-0.10417353
155	0x3d4515b5	0.048116405
156	0x3e81a4f2	0.25321156
157	0x3e7cabf6	0.24674973
158	0xbe81fa38	-0.25386214
159	0x3d921577	0.07133
160	0xbd4980c6	-0.049195074
161	0xbdc821eb	-0.09772094
162	0x3de8295a	0.11336012
163	0x3e3cc4d1	0.18434455
164	0xbda02aed	-0.078206874
165	0x3cd475ee	0.02593514
166	0xbdf0db6f	-0.11760604
167	0x3e71f08c	0.23626918
168	0x3e43e9f5	0.19132216
169	0xbd7ec95b	-0.062203746
170	0xbe0565f8	-0.13027179
171	0xbe04a103	-0.12952046
172	0xbe495a75	-0.19663413
173	0x3c18e9cd	0.009333086
174	0x3d14883a	0.03626273
175	0x3dcd0202	0.100101486
176	0xbc8bd4de	-0.017069276
177	0xbb7b6933	-0.0038362264
178	0xbd2ae2ce	-0.041720204
179	0xbe6e9e12	-0.23302487
180	0x3de2db54	0.1107699
181	0xbd109f95	-0.03530844
182	0xbcdd5e36	-0.027022462
183	0x3cf521ee	0.029923405
184	0x3cee9881	0.029125454
185	0xbddaffbd	-0.106933095
186	0x3dd33813	0.1031343
187	0x3e17678b	0.14785592
188	0x3df12e9d	0.11776469
189	0x3e379dc8	0.17931283
190	0x3e1642d7	0.14673935
191	0xbed95d10	-0.42453814
192	0x3dca0f01	0.09866143
193	0xbe3b9446	-0.1831828
194	0xbd8f13ad	-0.06986175
195	0xbe4793c7	-0.19489966
196	0xba28f2de	-0.00064448814
197	0x3e7ab5cb	0.24483411
198	0x3e0826ae	0.13296005
199	0xbd9cbe99	-0.07653541
200	0xbdd8fa48	-0.10594612
201	0x3d931d0d	0.07183275
202	0xbe0b06a7	-0.13576756
203	0xbe19a62e	-0.15004799
204	0xbde7c673	-0.11317148
205	0xbd17b8d3	-0.037041496
206	0xbb498e39	-0.0030754937
207	0xbe7726e2	-0.24135926
208	0x3e8df716	0.27727574
209	0xbe7241a1	-0.23657848
210	0x3d8b0573	0.06788149
211	0x3ec0e9e4	0.37678444
212	0x3d7c67c1	0.061622385
213	0xbaa742d6	-0.0012761008
214	0x3e1444e1	0.144794
215	0x3dbf825c	0.09351036
216	0x3c1b0275	0.009461035
217	0x3e5a1c86	0.21299943
218	0xbe038848	-0.12844956
219	0xbe3d3536	-0.1847733
220	0xbe3ff348	-0.18745148
221	0xbe8efb70	-0.27926207
222	0xbd6b9547	-0.05751541
223	0xbd2488cb	-0.04016952
224	0x3e1dd1ab	0.15412013
225	0x3cf8cdad	0.030371511
226	0xbda38407	-0.079841666
227	0x3e159254	0.14606601
228	0xbcb49b06	-0.022046577
229	0x3b771b23	0.0037705384
230	0xbe17815a	-0.14795437
231	0xbd487252	-0.04893715
232	0x3d3cf6b6	0.04613372
233	0xbdc06c0b	-0.093956076
234	0x3da93c99	0.08263511
235	0x3d4d099d	0.050057996
236	0x3cd820d6	0.026382845
237	0x3e6a6477	0.22889887
238	0xbd42c6ec	-0.047552988
239	0x3e36500d	0.17803974
240	0x3db195c6	0.08671145
241	0x3e0f9570	0.1402185
242	0x3e0e46cd	0.13894196
243	0x3e47b9bf	0.1950445
244	0x3b4aebc9	0.0030963293
245	0xbd38489f	-0.044991132
246	0xbdb03fbf	-0.086059086
247	0xbcf41b9e	-0.029798325
248	0x3d29c311	0.041445795
249	0xbe16c0f5	-0.14722045
250	0xbee2f61f	-0.443284
251	0x3e448f3f	0.19195269
252	0x3dd4fb50	0.103994966
253	0x3d091399	0.033465955
254	0x3db6fc23	0.0893481
255	0xbe249633	-0.16072921

bias f4 [24]
0	0xbd068526	-0.032841824
1	0x3c8fd882	0.017559294
2	0x3d854f98	0.06509322
3	0xbdb0c007	-0.08630376
4	0x3dc42df5	0.09579078
5	0x3d955b4b	0.072928034
6	0xbdcdbb8d	-0.10045538
7	0x3bce45b2	0.0062949294
8	0xbd9c7900	-0.076402664
9	0x3d9d0f95	0.07668988
10	0x3cdcb516	0.026941817
11	0xbc9a79db	-0.018856933
12	0xbddce1ee	-0.1078528
13	0x3d827ba5	0.063712396
14	0xbdac291b	-0.08406278
15	0x3da57b44	0.08080152
16	0x3cc16f9d	0.023612792
17	0x3cb26894	0.021778382
18	0xbdfd7e37	-0.12377589
19	0x3da7e870	0.08198631
20	0x3d44475a	0.04791961
21	0xbd00f8c1	-0.03148723
22	0xbd0ee695	-0.03488787
23	0xbd4c01eb	-0.049806517

weight f4 [24]
0	0x3e4f2006	0.2022706
1	0x3e694801	0.22781374
2	0x3e66fbdb	0.22557013
3	0x3e4b6c11	0.19865443
4	0x3e6f5c7f	0.23375128
5	0x3e67d40f	0.22639488
6	0x3e5f0e30	0.21782756
7	0x3e68092a	0.22659746
8	0x3e92a1bf	0.28639027
9	0x3e575543	0.21028619
10	0x3e6d821a	0.23194161
11	0x3e55fdbf	0.20897578
12	0x3e894b4c	0.2681526
13	0x3e4de622	0.2010732
14	0x3e6c92be	0.23102853
15	0x3e6b1736	0.22958073
16	0x3e6d4fc5	0.23174961
17	0x3e69b73e	0.22823808
18	0x3e87efb7	0.26550075
19	0x3e6d2162	0.23157266
20	0x3e899a09	0.26875332
21	0x3e6d6324	0.2318235
22	0x3e65fc7b	0.22459595
23	0x3e6ada70	0.2293489

weight f4 [24, 24, 3]
0	0x3f05b35e	0.5222682
1	0xbd851664	-0.06498411
2	0x3e02fefe	0.12792584
3	0xbc04913b	-0.008091266
4	0x3d879a33	0.06621208
5	0x3e0f7a50	0.14011502
6	0x3ecd00ef	0.40039775
7	0x3d766fb4	0.060165122
8	0x3e5254cc	0.2054016
9	0xbc562354	-0.013069946
10	0xbe1ad3a9	-0.15119804
11	0x3dc8570e	0.09782229
12	0xbe16ab25	-0.14713724
13	0xbdcfa100	-0.1013813
14	0xbd59f716	-0.053214155
15	0xbe86d02a	-0.26330692
16	0xbda826ce	-0.082105264
17	0x3dc01c51	0.09380401
18	0xbd61a9d6	-0.05509361
19	0x3e32cecb	0.17461698
20	0xbdf89dc0	-0.121394634
21	0x3e2195a2	0.15779737
22	0x3dfdeb66	0.12398414
23	0x3e06b567	0.13155137
24	0xbe8ccc09	-0.27499416
25	0x3ef3bd6b	0.47605452
26	0xbd5496e5	-0.051901717
27	0x3e8950b7	0.26819393
28	0xb8c1c916	-9.240412e-05
29	0x3ac98057	0.0015373331
30	0x3dc236fe	0.09483145
31	0x3e94e26f	0.29079005
32	0x3d9a4799	0.075331874
33	0x3d50ddc0	0.050992727
34	0x3e006bf8	0.12541187
35	0xbe3d5869	-0.18490757
36	0xbdf79c13	-0.12090316
37	0x3e535525	0.20637949
38	0x3da19e90	0.078915715
39	0x3dd9e72d	0.106397964
40	0x3cca152d	0.0246683
41	0xbd322ce1	-0.04349983
42	0xbcc22ce5	-0.023703048
43	0xbe2fe95c	-0.17178863
44	0xbc5adfc6	-0.013359016
45	0x3d993dd6	0.074824974
46	0xbe70be59	-0.23510112
47	0x3e10f3b3	0.14155464
48	0x3e40f089	0.18841757
49	0xbd1b7aa3	-0.037958752
50	0xbe756082	-0.23962596
51	0xbe0c5e09	-0.13707747
52	0x3df6eb3b	0.120565854
53	0x3d5449d0	0.051828206
54	0x3d7a5f56	0.061126076
55	0x3dbc0f89	0.091826506
56	0xbe5fe913	-0.21866255
57	0x3e3bfc49	0.18357958
58	0xbd00b442	-0.031421907
59	0x3e07d022	0.1326299
60	0x3e0c01e3	0.13672595
61	0x3ddc1da6	0.107478425
62	0xbe1070b4	-0.14105493
63	0x3dc67f29	0.096922226
64	0x3c8f8e7c	0.017523997
65	0x3c0a941b	0.008458163
66	0x3e0dbd4a	0.1384174
67	0x3b3b8895	0.0028615345
68	0x3e01a304	0.12659842
69	0x3d597433	0.05308933
70	0xbe19de46	-0.15026197
71	0x3e3eeb3f	0.18644427
72	0xbda12eda	-0.07870264
73	0x3cf4d544	0.02988685
74	0x3e5f24fd	0.21791454
75	0x3e428efb	0.18999855
76	0x3e107dab	0.14110439
77	0x3de17c7c	0.11010072
78	0x3ce1abdf	0.027547775
79	0xbea83d94	-0.3285948
80	0xbe92c937	-0.2866914
81	0xbe04195d	-0.129003
82	0x3df693f8	0.120399415
83	0x3e23245f	0.15931843
84	0x3aa698ef	0.0012710373
85	0x3d92aa06	0.07161336
86	0x3d860972	0.0654477
87	0xbd667f09	-0.056273494
88	0xbd7cc238	-0.06170866
89	0xbe87992b	-0.26484045
90	0x3e05a76c	0.13052148
91	0xbdd26d87	-0.10274797
92	0x3e80b8d8	0.25141025
93	0x3da27db6	0.07934134
94	0xbe4194cb	-0.18904416
95	0x3d3fb033	0.046798896
96	0x3e080a3e	0.13285157
97	0x3d3ce8e4	0.04612054
98	0x3e1c3a7e	0.15256688
99	0xbd680afb	-0.056651097
100	0xbd04b302	-0.032397278
101	0x3dd41953	0.10356393
102	0xbc6c75d4	-0.014432389
103	0xbdd7c8f2	-0.10536374
104	0x3dda9638	0.10673183
105	0x3ea907c4	0.33013737
106	0xbe6398ba	-0.2222623
107	0xbdcbc725	-0.09950093
108	0xbdddcc60	-0.10829997
109	0xbe2fc55c	-0.1716513
110	0x3e51252a	0.20424333
111	0x3d388934	0.045052722
112	0xbea72769	-0.32647255
113	0x3db92168	0.09039575
114	0x3e39448d	0.18092556
115	0xbd9ecd93	-0.07754054
116	0x3df3f75e	0.11912416
117	0x3da5691a	0.08076687
118	0x3d46dd3e	0.048550837
119	0xbdcb4c0a	-0.09926613
120	0x3eae9577	0.34098408
121	0x3d9cbab6	0.076528
122	0xbe268e40	-0.16265202
123	0x3e60ee0d	0.21965809
124	0xbe639c79	-0.22227658
125	0x3cc9f18f	0.024651317
126	0xbeb9c9cf	-0.3628678
127	0x3df7bff2	0.120971575
128	0xbe905ec2	-0.28197294
129	0xbc75b308	-0.014996298
130	0xbd7564f5	-0.059910733
131	0xbe26c350	-0.16285443
132	0x3e39ad35	0.1813248
133	0x3e3e3e3a	0.18578425
134	0x3a47a062	0.00076151465
135	0x3dcd1edb	0.10015651
136	0x3bbdd42e	0.005793116
137	0x3e431cf4	0.19054013
138	0x3e335a50	0.1751492
139	0x3e18db9f	0.14927529
140	0xbbeea9d1	-0.0072834273
141	0xbdb40f1f	-0.087919466
142	0xbdc05ab8	-0.09392303
143	0x3deb9f26	0.115049645
144	0xbce09a75	-0.0274174
145	0xbc2bbe97	-0.010482452
146	0x3e1f030e	0.15528509
147	0x3da560cc	0.08075103
148	0xbf0432df	-0.51640123
149	0x3e2c7eff	0.1684532
150	0xbda0941c	-0.078407496
151	0xbe58fc1e	-0.21189925
152	0x3e19cd45	0.1501971
153	0x3eb45589	0.35221508
154	0x3e55a916	0.20865282
155	0xbdadd89b	-0.0848858
156	0x3b00af03	0.0019635565
157	0x3e1a5b7f	0.15073965
158	0xbd4353df	-0.047687408
159	0xbe396fab	-0.18109004
160	0xbe697071	-0.22796799
161	0xbe728ab0	-0.23685718
162	0xbe080cd4	-0.13286144
163	0xbe85bb2a	-0.26119357
164	0xbc66e5ac	-0.014092844
165	0x3e4174db	0.18892233
166	0x3e43afd1	0.19110037
167	0x3db50391	0.08838571
168	0xbc52bfcb	-0.01286311
169	0xbd05b429	-0.032642517
170	0x3e63b67c	0.22237581
171	0xbe1da32e	-0.1539428
172	0xbe8c7dc5	-0.27439705
173	0x3cde06eb	0.027102908
174	0x3e20b0e2	0.15692475
175	0xbd6ac221	-0.057314042
176	0xbe1434e8	-0.14473307
177	0xbe960a5b	-0.29304776
178	0xbe3c8a93	-0.18412237
179	0x3dca2a23	0.09871318
180	0xbe307fe1	-0.17236282
181	0x3e16b15a	0.14716092
182	0xbd26aea2	-0.040693887
183	0x3d99d9e0	0.075122595
184	0x3dfa5eaf	0.12225091
185	0xbe942936	-0.2893769
186	0xbd207bca	-0.039180554
187	0x3d045c6d	0.032314707
188	0xbdcea5c3	-0.1009021
189	0xbe5d52e8	-0.21613657
190	0x3e8e84e6	0.27835768
191	0xbc961f25	-0.018325398
192	0xbe0db602	-0.13838962
193	0xbe72aa75	-0.23697837
194	0xbd02db51	-0.031947438
195	0xbea2dd8c	-0.31809652
196	0xbaf51627	-0.0018698619
197	0x3e145ce1	0.14488555
198	0x3ca9422a	0.020661432
199	0x3d2d5894	0.042320803
200	0xbb31f1c7	-0.0027152167
201	0xbda45529	-0.080240555
202	0xbe473b33	-0.19456176
203	0xbc2a0ffc	-0.010379788
204	0x3e0ef44f	0.13960384
205	0xbd5db409	-0.054126773
206	0xbe9a9fd4	-0.30200064
207	0xbcb02a0b	-0.021504423
208	0xbe0ee71a	-0.13955346
209	0xbddcada4	-0.10775307
210	0xbe6c1eb5	-0.23058589
211	0x3e931436	0.28726357
212	0x3c6bd31a	0.014393592
213	0xbe28455e	-0.16432711
214	0x3d9df6f4	0.07713118
215	0xbe78d525	-0.24300058
216	0xbea1f39b	-0.3163117
217	0x3e2993af	0.16560243
218	0x3e7ccf82	0.24688533
219	0xbd1dc00b	-0.038513225
220	0xbe32ee14	-0.17473632
221	0x3e02322c	0.12714452
222	0x3e24f1dd	0.16107889
223	0x3d9d2cfd	0.076745965
224	0xbd1b5f2f	-0.03793257
225	0xbad910d2	-0.0016560799
226	0xbe15e1d5	-0.1463693
227	0xbbc9a120	-0.006153241
228	0xbca31712	-0.019908462
229	0xbe3c5bb0	-0.18394351
230	0xbb3a3f05	-0.002841891
231	0xbe8a6fd5	-0.27038446
232	0xbc7be78f	-0.015375032
233	0x3cd70767	0.026248647
234	0xbe054c8a	-0.13017479
235	0xbdcbb814	-0.099472195
236	0xbf0080b9	-0.50196415
237	0x3e6422f0	0.22278953
238	0xbe2d3c42	-0.16917518
239	0x3ccd9a08	0.025097862
240	0xbd005b3c	-0.031337008
241	0x3da4c456	0.080452606
242	0xbe1846df	-0.14870785
243	0x3d873abc	0.066029996
244	0x3e45d5b9	0.1931981
245	0x3d04f68a	0.03246168
246	0x3dcea7cd	0.10090599
247	0x3e000064	0.12500149
248	0x3e0ba553	0.13637285
249	0xbed08b52	-0.40731293
250	0xbdacc723	-0.0843642
251	0xbd8d3572	-0.068949595
252	0x3c9cc75c	0.01913803
253	0x3d84ad5e	0.0647838
254	0x3d2c730d	0.04210191
255	0xbcf0917f	-0.029366253

bias f4 [24]
0	0x3da649c1	0.08119536
1	0xbe0618d7	-0.13095413
2	0xbde749ca	-0.11293371
3	0x3d97b897	0.074082546
4	0x3cdbf007	0.026847852
5	0xbcbd6d8f	-0.02312353
6	0xbb5f8902	-0.0034108763
7	0x3cf7d85e	0.03025454
8	0x3d23b843	0.039970648
9	0xbdd355ab	-0.10319074
10	0x3dc139c1	0.09434844
11	0xbda553b3	-0.08072605
12	0x3c26b985	0.010176067
13	0xbde0f055	-0.1098334
14	0x3de79019	0.11306781
15	0xbdab216b	-0.08355983
16	0x3da46633	0.080273055
17	0xbc2e7470	-0.010647878
18	0xbdb5e3b2	-0.0888132
19	0x3d4dd64e	0.050253205
20	0x3df6e79c	0.12055895
21	0xbcb401ba	-0.02197348
22	0x3bee9cf6	0.007281895
23	0x3c73d7a7	0.0148829585

weight f4 [24]
0	0x3e315e99	0.17321242
1	0x3e6a8660	0.22902822
2	0x3e898103	0.2685624
3	0x3e6c615c	0.23084015
4	0x3e889345	0.26674858
5	0x3e66377e	0.22482106
6	0x3e6cf1e7	0.23139153
7	0x3e6eaf0a	0.2330896
8	0x3e878f26	0.264764
9	0x3e89a001	0.26879886
10	0x3e634f49	0.22198214
11	0x3e6e159f	0.23250435
12	0x3e6ce1a4	0.2313295
13	0x3e89fbc2	0.26949888
14	0x3e6be65b	0.23037092
15	0x3e864063	0.26220998
16	0x3e845fde	0.2585439
17	0x3e67c461	0.22633506
18	0x3e89a855	0.2688624
19	0x3e6cb784	0.2311688
20	0x3e6f9e07	0.23400126
21	0x3e8afc1f	0.27145478
22	0x3e8acfbb	0.2711161
23	0x3e6d4d63	0.23174052
