models/teste-uncloss-dropblock-ss3_ss4_buried.pth (torch_old, 362725 bytes, 132 tensors)

weight f4 [24, 22, 1]
000000 49 f1 86 3f 68 df 18 bf dd b1 54 bd 18 c8 99 bc
       1.0542384 -0.5971589 -0.051927436 -0.01877217
000010 98 08 7d bf c6 ae 4d c0 9a 6c e4 3c d3 01 1c bf
       -0.9884124 -3.2137923 0.027883817 -0.60940284
000020 fd b6 f0 bf 95 e9 86 3e 62 f2 ed bf 56 e2 00 c0
       -1.8805844 0.26350084 -1.8589594 -2.0138144
000030 e6 b6 1a 3f bb b9 3b bc af b6 f1 be 17 2e 2e be
       0.6043533 -0.011457856 -0.4720969 -0.1700977
000040 67 3f 88 bd b7 51 ca be 50 1a 9d bf 47 77 9b c0
       -0.06652718 -0.39515468 -1.2273655 -4.85831
000050 35 60 34 c0 cf 5a 87 c0 ad 9b 19 c0 c0 ae 3d bf
       -2.818372 -4.229835 -2.4001267 -0.7409477
000060 68 ff e7 3e 7c a5 05 be a1 6d 24 bf da 8b 86 be
       0.45312047 -0.13051409 -0.6422978 -0.26278573
000070 b5 80 38 3e 67 b3 08 bf 26 bd 13 3e be 58 45 bf
       0.18017848 -0.53398746 0.14427623 -0.77088535
000080 38 67 7f bf 54 90 a5 bf 04 82 68 bf 68 ca 6d 3e
       -0.99766874 -1.293467 -0.9082339 0.23221743
000090 29 2f 1b bf d8 91 30 bf c9 cf 52 bf 58 e6 8d be
       -0.60618836 -0.6897254 -0.82348305 -0.277148
0000a0 9b ef f9 3e e0 95 50 be 7c fd 88 bd 67 f0 36 c0
       0.48815617 -0.20369673 -0.06688973 -2.858423
0000b0 d5 3e 8d bf a1 04 a4 be 89 73 67 3f bb 65 31 c0
       -1.10348 -0.32034782 0.9041067 -2.7718341
0000c0 38 ef e8 bf 93 47 b3 3f 6f f0 98 bf 56 a4 1a bf
       -1.8198004 1.4006218 -1.1948375 -0.60407007
0000d0 6a de f4 3f b2 90 a5 bf ed cb ad 3f b0 23 5c 3f
       1.9130375 -1.2934783 1.3577858 0.85991955
0000e0 67 e6 e5 bf a8 81 09 c0 a1 bb ab bf d3 b3 55 bf
       -1.7960938 -2.1485386 -1.3416635 -0.83477515
0000f0 dc 33 a7 bf 34 fb 05 be 07 fe d5 3f cf 07 a4 3f
       -1.3062701 -0.13084108 1.6718148 1.2814883
000100 6a 83 84 3f 22 02 10 c0 ac 63 09 c0 bc 70 4e bf
       1.0352604 -2.2501302 -2.1467085 -0.8064077
000110 ea f8 0e c0 71 1f a0 bf 99 df 9c 3e 86 38 25 c0
       -2.2339425 -1.2509595 0.3063934 -2.581575
000120 9e 81 84 bf d8 78 21 bf 46 55 3e be 19 c3 c8 bb
       -1.0352056 -0.6307502 -0.18587217 -0.006126773
000130 95 17 ce bf 8c 9b 3c c0 91 3d 0d c0 5c 1b 47 c0
       -1.6100947 -2.9469938 -2.2068827 -3.111045
000140 42 72 fe bd 0a 07 98 bf ca a7 e3 bb 34 10 48 3f
       -0.12424137 -1.1877148 -0.0069474922 0.78149724
000150 0e 92 c7 3e 01 d5 76 c0 63 4b e3 bf c7 62 a9 3e
       0.38978618 -3.8567507 -1.7757381 0.33083174
000160 8e 0f 2e 3f d9 34 37 3f 1b 16 07 bf 97 3b eb bf
       0.67992485 0.71565014 -0.52768105 -1.837756
000170 59 f8 c0 bf f3 af b7 bd e1 37 c2 bf 62 f6 96 bf
       -1.507579 -0.089691065 -1.5173303 -1.179394
000180 27 00 90 be 45 be f4 bf 33 e7 0f 3f 9f 91 08 3f
       -0.28125116 -1.9120566 0.56212157 0.533472
000190 0c 6f b6 bf 2c 89 3c c0 62 07 0b bf 8d aa b8 bf
       -1.4252639 -2.9458723 -0.5430814 -1.4427048
0001a0 d3 f8 ad bf e9 68 c9 bf 76 55 80 bf 84 a0 9a be
       -1.359156 -1.5735141 -1.0026081 -0.3020059
0001b0 ac 89 33 bf 0c 12 80 bf 66 37 1b bf be 89 1c bf
       -0.70131946 -1.0005507 -0.60631406 -0.6114768
0001c0 11 ff 3d bf 24 e9 8f 3e 74 d7 a8 bf f7 b2 b7 be
       -0.74217325 0.2810756 -1.3190751 -0.35878727
0001d0 43 0c 5e 3b 4a f2 1b be b3 de 9d be 94 98 d8 bf
       0.003388182 -0.15229145 -0.3083397 -1.6921563
0001e0 16 df e1 be a7 24 0a bf 07 1c 5c be c7 9b 13 bf
       -0.44115514 -0.5396218 -0.21495067 -0.5765957
0001f0 74 60 c5 bf 00 85 e3 bf 1d 91 23 3d a1 1d 9f 3d
       -1.542006 -1.7774963 0.039933313 0.07769323
000200 c6 8f 2c 3e c6 93 37 be 7d d5 1f be 01 8b 5e c0
       0.1685172 -0.17927465 -0.15608783 -3.4772341
000210 fd 81 69 3f 38 eb 0a c0 3e b1 c7 be 2a 81 47 3f
       0.9121397 -2.1706066 -0.39002413 0.77931464
000220 47 bf 07 be 96 69 0c bf 7e 4b e2 3e 29 99 fd 3d
       -0.1325656 -0.5484861 0.4419822 0.123827286
000230 64 69 73 bf 18 74 a0 bc 1b ef d2 bf fc 67 af bf
       -0.9508269 -0.019586608 -1.6479219 -1.3703609
000240 89 c8 c4 3e d9 5a 22 40 24 00 0d bf 7d e6 9f bd
       0.38434246 2.536795 -0.5507834 -0.07807634
000250 ff 70 a1 3e 3d a8 bf 3e dd 30 8b be f7 f4 05 bf
       0.31531522 0.37433043 -0.27185717 -0.5232691
000260 c2 f0 0a bc e1 07 09 40 1c bf 7c c0 b4 19 83 bf
       -0.008480253 2.141106 -3.9491644 -1.0242219
000270 5d 6a 15 3f 78 32 a1 3e d7 5b 67 bf c9 83 b5 bf
       0.5836542 0.31483817 -0.9037451 -1.4180843
000280 61 16 a0 3e 1f 1d a2 bf 05 6f 87 bf 5d d5 2d bf
       0.31267074 -1.2665137 -1.0580755 -0.6790369
000290 62 a8 ac bf 9f 3e f2 bf 77 19 21 3d 7f 0b e5 bf
       -1.3488886 -1.892536 0.039330926 -1.7894133
0002a0 e4 58 8d bf d6 43 90 bf a3 7e 24 bf 6c 1e 30 bf
       -1.1042752 -1.1270702 -0.6425573 -0.6879642
0002b0 cd 81 15 bf cb 4d cf bf 32 47 e3 bf 52 c7 d7 c0
       -0.58401185 -1.6195616 -1.7756102 -6.743081
0002c0 e3 b2 c6 be b6 d7 35 bf df 28 f1 bf cd 9a 1b bf
       -0.38808355 -0.71032274 -1.8840598 -0.6078308
0002d0 8b 6f 2a 3e b7 1a 59 c0 ca 42 c7 bf 2b c6 ab bf
       0.16644113 -3.3922555 -1.5567257 -1.3419851
0002e0 a8 e8 d0 bf 3c 41 67 3e c6 a6 73 be 69 78 e5 bf
       -1.6321001 0.22583479 -0.23794088 -1.7927371
0002f0 ce 75 9d bf 14 6f 95 bf 91 6b 11 3f 12 ba 6b 3e
       -1.2301576 -1.1674523 0.5680476 0.23020199
000300 b5 8f cd bf 49 31 11 c0 3e bc 23 c0 5a cc 25 c0
       -1.6059481 -2.2686331 -2.5583644 -2.5905976
000310 50 db 25 c0 ee 0e 4e 3f f2 15 10 40 5e 8a 5f bf
       -2.5915108 0.8049153 2.2513394 -0.87320507
000320 31 c2 2a c0 e1 19 cf bf a7 32 bb bf 2a 5d 51 c0
       -2.6681025 -1.6179773 -1.4624833 -3.2713113
000330 b2 7d 2d c0 60 82 5a c0 fd 8d b2 be b8 ea 8f bf
       -2.7107968 -3.4142075 -0.34873953 -1.1243505
000340 6c fd 03 3d ae e2 ac 3e a2 88 d8 bf 2f cc df 3e
       0.032224104 0.33766693 -1.6916697 0.43710467
000350 dd 09 b7 bf 8f 5b ab bf d5 8a b2 bf 19 e1 7b bf
       -1.4299885 -1.3387316 -1.3948618 -0.98390347
000360 b2 a0 9c bc ac b7 2c bf 9c 02 0b c0 0e e6 17 bf
       -0.019119594 -0.6746776 -2.1720343 -0.5933541
000370 7b 96 0b 40 55 25 2c bf 6a 37 90 c0 72 05 31 c0
       2.1810596 -0.67244464 -4.5067644 -2.7659574
000380 be 0c 26 c0 08 e8 0e c1 51 33 aa 3f a5 61 b1 c0
       -2.5945277 -8.931648 1.329691 -5.5431695
000390 4c e6 b6 c0 c1 83 33 c0 fe 2e b9 c0 bd 9b ec c0
       -5.7156124 -2.8049166 -5.7869864 -7.394011
0003a0 6e 30 1c c0 ab bd f1 bf e0 26 3a c0 d4 77 b3 c0
       -2.440456 -1.8886007 -2.9086227 -5.6083775
0003b0 cb 80 b8 bf 0d e1 20 c0 c9 09 6b c0 a5 4f 39 c1
       -1.4414304 -2.513736 -3.6724722 -11.581944
0003c0 50 6e 0c c1 00 14 94 3e 7b 27 86 bf 20 8d 61 3e
       -8.776932 0.2892151 -1.0480798 0.22026491
0003d0 0b 15 c8 bf d3 40 69 bf b8 35 26 3e 16 00 ac bf
       -1.5631422 -0.9111454 0.1623143 -1.3437526
0003e0 d4 8c ff bf 6a 07 98 bf b0 28 c1 be 7d 09 c8 3e
       -1.9964852 -1.1877263 -0.37726355 0.3906974
0003f0 9a 47 71 bd 98 d9 1e bf 71 37 55 bf 07 fb 79 c0
       -0.058906175 -0.6205077 -0.8328772 -3.9059465

weight f4 [24]
000000 a5 7c 11 3d 3a 08 e9 3d 69 d5 a0 3e fa 68 b2 3d
       0.03551926 0.11378522 0.3141282 0.08711429
000010 56 04 b6 3d 6c 4a 7d 3c d9 9c fb 3d d5 f4 1e 3d
       0.08887546 0.015459638 0.12285776 0.03880771
000020 a4 20 0d 3d 2f d3 84 3c 7e 7d e8 3b 5e 98 72 3d
       0.034454957 0.016213981 0.007095038 0.05922734
000030 9e b8 0b 3d f4 ac f5 3c 37 85 a5 3d ee 57 bc 3d
       0.03411161 0.029989697 0.08082049 0.09196459
000040 49 e8 fc 3d 46 fa c3 3d 4d b1 36 3d 08 60 df 3d
       0.123489924 0.0956922 0.04460268 0.109069884
000050 51 b8 20 3e db 07 b8 3d 03 27 4c 3e 75 2a 83 3d
       0.15695311 0.08985873 0.19936757 0.064045824

weight f4 [24, 24, 3]
000000 c8 23 a3 3d ad b9 4c be fe 8d 2f bf 39 58 be 3e
       0.07965809 -0.19992705 -0.6857604 0.37176684
000010 ed 3d 66 be 07 2b 20 be c3 eb 1f be 50 e5 6a 3d
       -0.2248456 -0.15641414 -0.1561728 0.057347596
000020 33 91 bd be 03 1f 0c be f1 dc f8 3d 7b 05 8a bf
       -0.3702484 -0.13683705 0.12151516 -1.0782923
000030 0c 17 11 bc f2 6d 91 bd 4b a8 21 3f db 70 8c bf
       -0.008855592 -0.071010485 0.6314742 -1.0971941
000040 61 d8 11 3f cc bf d1 be 7a df 89 be 95 f6 d4 bd
       0.56970793 -0.40966642 -0.26928312 -0.10398594
000050 b4 e8 89 be 7d c7 d5 be e7 42 06 3e 12 de 0b 3b
       -0.2693535 -0.4175376 0.13111459 0.002134208
000060 99 b2 08 be 76 a5 97 bc e7 70 b7 bd 75 70 f4 3d
       -0.1334938 -0.018511515 -0.08957081 0.11935512
000070 d5 cc 72 3e f4 38 55 be c0 85 66 be d9 d8 3b 3e
       0.2371095 -0.20822507 -0.22511959 0.1834444
000080 48 ca 04 bd fc 3a 21 be 9b f4 84 be 56 20 c8 3d
       -0.032419473 -0.15745157 -0.2596787 0.097717926
000090 e1 ef 1d 3e f3 04 dd be 0b 1a b0 3e 70 12 fe 3d
       0.15423538 -0.43167838 0.3439487 0.124058604
0000a0 b1 35 30 bf 0f 47 cf bd 6b 94 c8 3e 79 57 bc be
       -0.68831927 -0.10120975 0.39175734 -0.36785486
0000b0 60 13 9a be b7 d5 a1 3d 68 5a 51 3e d5 dc 55 be
       -0.30092907 0.07902091 0.20444643 -0.20885022
0000c0 45 98 3c bd 55 23 72 3e 25 22 8a 3e 29 54 bc 3e
       -0.046043653 0.2364629 0.26979175 0.3678296
0000d0 19 57 a7 be 56 0b 87 be 81 85 5e 3f fd 6e 80 be
       -0.32683638 -0.26375836 0.8692246 -0.25084677
0000e0 78 08 1f bf 82 56 08 be 13 d7 a8 bd 91 ae 91 3d
       -0.621223 -0.1331425 -0.08244147 0.07113374
0000f0 ae 9b db bd fa 8f 6c 3d 04 a8 a3 3d 3c 6f 68 3d
       -0.10723053 0.057754494 0.07991031 0.056746706
000100 78 54 12 3e 76 01 0b 3e d8 03 c2 bc e4 25 ec 3e
       0.14290035 0.13574776 -0.023683473 0.46122658
000110 86 c5 77 be 9c 93 f0 3e 21 55 d5 be 5f ef f8 be
       -0.24196443 0.46987617 -0.4166651 -0.48620126
000120 c4 ad 29 be ec e2 50 3e 04 66 ec bd 7c 0d 48 3e
       -0.16570193 0.20399064 -0.115428954 0.19536394
000130 27 20 1f bf 30 65 d4 3e f6 7c 9e 3e 3a d8 07 3e
       -0.62158436 0.4148345 0.30954713 0.13266078
000140 61 b1 a9 3e a4 54 4e 3e a6 bd 5f 3e c6 6c 14 3d
       0.33143142 0.20149475 0.21849689 0.036236547
000150 4a 41 7b 3e 19 7e d7 be 59 06 76 bd a7 c2 93 be
       0.24536625 -0.42088392 -0.060064647 -0.28859445
000160 a2 6a 15 be 9f 8a 9a 3e 05 36 c5 be 0d 21 c3 be
       -0.14591458 0.30183885 -0.38517776 -0.38111153
000170 73 9c 36 bf c7 4d 81 be 3e 90 a0 3d 45 c9 78 3d
       -0.7133247 -0.25254652 0.07840012 0.06073882
000180 6d 3d 4e bf dd f6 96 3e 9b be ea bc 4b 5e 8c bc
       -0.8056248 0.29485217 -0.02865534 -0.017134806
000190 0a 66 82 3d 36 19 0f 3f ca 20 15 3d 1d 08 60 be
       0.06367119 0.55897844 0.036408223 -0.21878095
0001a0 c2 a8 67 3d ee d4 81 3e 22 7c 6d be 6d 3c 72 be
       0.056557424 0.25357765 -0.23191884 -0.23655863
0001b0 d7 cd 59 be 66 8e 0b 3e 33 31 f5 bd 5b f5 99 bc
       -0.21269928 0.1362854 -0.11972275 -0.018793752
0001c0 80 0b 36 3e af ff da be 6a c9 47 be ae 58 ca 3c
       0.17777824 -0.42773196 -0.19510427 0.024700489
0001d0 2d 0f 63 bd 1c f3 21 3f c4 94 f8 be f5 d1 56 3d
       -0.055434395 0.6326158 -0.48551 0.052446324
0001e0 96 2e 88 be 0a c6 35 be cd ca b3 bd ca 87 67 3e
       -0.26598042 -0.17751327 -0.087789156 0.22610393
0001f0 3a b4 d8 3e 72 72 e1 3e 26 02 fc bd 38 d3 01 3f
       0.42325002 0.44032627 -0.12305097 0.5071292
000200 4d fd 38 bf 7f 0b 2c be cf d0 52 be c7 27 0c bf
       -0.72261506 -0.1680126 -0.20587467 -0.54748195
000210 e3 01 16 bc 93 d7 a6 be 3d c2 a0 3e 02 d5 11 bd
       -0.009155723 -0.32586345 0.31398192 -0.03560353
000220 d9 e3 b1 3d 91 52 b6 bd 65 02 f4 3d 2e 07 d5 3c
       0.086860366 -0.08902467 0.11914519 0.0260044
000230 c1 fd eb be 1e 25 76 be 8d 62 de 3e 0f 24 83 3e
       -0.46092036 -0.24037597 0.43434563 0.25613448
000240 61 9b 50 3e cc 47 0b 3e 1a 50 54 3f 51 a2 d5 3d
       0.20371772 0.13601607 0.82934725 0.1043135
000250 42 05 31 bf 8f 6d fa 3d 09 db b3 be b7 85 a1 be
       -0.6914865 0.12227928 -0.35128048 -0.3154733
000260 d9 9c 0c bd dd 3b 6c 3e 96 1e ae be ef 00 29 be
       -0.03432927 0.23069711 -0.3400771 -0.16504262
000270 6a cc bb be ea 24 4f bd 6f 98 06 bf 11 1e c0 bc
       -0.36679393 -0.050572313 -0.52576345 -0.023451837
000280 eb f2 91 be 61 60 f2 bd 06 39 53 be 67 9a 71 3c
       -0.28505644 -0.11834789 -0.20627221 0.014746285
000290 53 d5 e4 3d 7e a8 07 be e8 12 ea be 71 d5 ce 3d
       0.11173501 -0.13247868 -0.4571755 0.100993045
0002a0 1b 8a 0b 3e 24 3e ed 3e a3 48 87 3e c8 68 31 3e
       0.13626902 0.46336472 0.26422605 0.17325127
0002b0 23 d9 38 bf 90 08 04 3e d9 9c d4 3d 71 87 42 bf
       -0.72206324 0.12893891 0.10381479 -0.7598792
0002c0 94 72 df 3e af 72 08 3f 71 6f 02 bf 8c 1a ec be
       0.43642104 0.53299993 -0.50951296 -0.46114004
0002d0 4d 3d df 3d 2f b9 d0 be eb 0b 9c bd 05 a6 7c bd
       0.10900364 -0.40766284 -0.07619461 -0.061681766
0002e0 f0 ad 30 3f 47 69 ab be d3 de 0d be 24 f2 32 bf
       0.6901541 -0.33478758 -0.13854532 -0.6990073
0002f0 b0 8a ed 3e fb 51 11 be 2d 86 85 be 64 73 bf be
       0.46394873 -0.1419143 -0.2607893 -0.37392724
000300 cd 1a 50 be bf 7c d4 be e7 83 15 bf 7f d6 57 3e
       -0.20322724 -0.41501424 -0.5840439 0.21077918
000310 f6 c4 8c be bd 18 70 3e 36 e1 60 be 16 74 35 3e
       -0.2749402 0.23446937 -0.21960911 0.17720065
000320 cb 7d f2 be 89 f2 4b be 88 c0 aa be a3 38 1f bd
       -0.47361597 -0.19916739 -0.33350015 -0.038872372
000330 bc 80 93 be fa 07 06 3f eb d8 18 bd a2 41 e4 bd
       -0.28809154 0.5235592 -0.037316244 -0.11145331
000340 9d 5b 44 bf c5 53 c2 3e 30 41 2f 3e d3 3d 99 be
       -0.7670229 0.37954536 0.17114711 -0.2992998
000350 b2 dc 42 be 84 31 f0 3d 36 59 58 3f 73 92 58 be
       -0.19029501 0.11728194 0.84511125 -0.21149616
000360 5a 88 d6 3e 2b 30 c1 3e 0d 94 7b be 03 99 2b 3f
       0.41900903 0.37732062 -0.24568196 0.6703035
000370 9c 5e 86 3e 52 9c 18 be 06 3f 56 3d d0 4f 7a be
       0.26244056 -0.14903381 0.052306198 -0.24444509
000380 31 ea bc be fe b0 6c be e1 d4 b2 be 91 88 8b 3d
       -0.36897424 -0.23114392 -0.3492804 0.06813157
000390 3d 28 a6 be 06 7e 97 bd c8 3d 61 3c 38 f2 00 3e
       -0.32452574 -0.07397084 0.01374764 0.12592399
0003a0 63 5c 0c 3d 9c 89 9d 3e 2a 44 1f bd d9 00 0a be
       0.034267794 0.3076905 -0.038883366 -0.13476886
0003b0 3e 09 01 be 77 8f 9b be 2c 57 b7 3e 89 71 ec bd
       -0.12601182 -0.30382892 0.35808694 -0.115450926
0003c0 6d 12 26 3e e3 47 24 be 31 37 20 3f 3e 86 a1 3e
       0.16217966 -0.16043048 0.62584215 0.3154773
0003d0 be a0 26 3e a6 d5 8d 3d 66 1a 33 be 54 6a ee 3e
       0.16272256 0.06925516 -0.17490539 0.46565497
0003e0 69 06 92 3d fe 31 ca 3e fe e5 8d bd 3a c7 ff 3d
       0.07130129 0.39491266 -0.06928633 0.12489171
0003f0 6c 91 1d bf 61 2d 2d be ba 25 07 3d 40 d6 a1 3e
       -0.6155002 -0.16911842 0.032994963 0.31608772

bias f4 [24]
000000 e1 eb e1 be 13 3b 16 bf d7 16 11 bf 9a f1 07 bf
       -0.44125274 -0.5868389 -0.56675476 -0.5310303
000010 cc e7 ce be 36 5b 7d be a1 4c 40 be d9 b7 ef be
       -0.40411222 -0.24741825 -0.18779232 -0.46819952
000020 6e de e1 be 35 2b d0 be 44 3d 7a be da 04 5f be
       -0.44115013 -0.40657964 -0.24437433 -0.21779194
000030 00 27 e5 be 25 3d c6 be 6b 34 00 bf 41 20 5a be
       -0.44756317 -0.38718525 -0.50079983 -0.21301366
000040 a7 41 a9 be 32 a0 74 be 00 5f 8a be df ac 06 bf
       -0.330579 -0.23889235 -0.27025604 -0.5260753
000050 92 02 83 be c5 92 da be aa af 87 be 69 8c 81 be
       -0.25587898 -0.426901 -0.2650121 -0.25302437

weight f4 [24]
000000 51 31 48 3d 45 98 99 3d a3 77 2f 3c 6d 72 a4 3d
       0.048875157 0.07499746 0.010709676 0.080296375
000010 fe 50 4c 3d 6b 39 e4 3d b8 92 24 3e 7f 94 f3 3d
       0.049881928 0.11143764 0.16071594 0.11893558
000020 ea c1 3e 3e 0d 83 82 3c ae eb 58 3e 8e 16 5d 3e
       0.1862866 0.01593163 0.21183655 0.21590635
000030 10 d5 45 3d 7f fa 2e 3d f9 7d 7e 3d ae 96 08 3e
       0.048298895 0.04271936 0.062131856 0.1333873
000040 43 ce 20 3d 84 73 cb 3e 53 fe aa 3d 9c cd 61 3d
       0.039259207 0.3973657 0.0834929 0.055127725
000050 0b 40 92 3d 93 84 13 3e 0c ba 06 3e 6c c4 f8 3d
       0.071411215 0.14406042 0.13156909 0.121468395

weight f4 [24, 24, 3]
000000 1b 11 7d 3e 27 ad 09 be af cd 93 3d d1 15 de 3d
       0.24713556 -0.13444959 0.072169654 0.10844005
000010 0a 58 c8 3d b4 a7 02 3f 17 d4 7e be 64 b0 88 3e
       0.09782417 0.51037145 -0.24885593 0.26697075
000020 6c 35 86 3c bc d5 97 be 3b 04 28 3c dc f5 4c be
       0.016382895 -0.29655254 0.010254915 -0.20015663
000030 ac 49 86 3d 9b 70 2a be 21 2d 72 bc 87 28 94 be
       0.065570205 -0.16644518 -0.014781267 -0.2893717
000040 b9 a6 d1 3d 34 ed e8 be fd 62 19 3d 2d 59 6e 3c
       0.10236878 -0.45493472 0.03744792 0.014547628
000050 8a 07 19 3e a3 23 df 3d b7 b2 c3 3e 54 17 5c 3e
       0.14944282 0.10895469 0.38222286 0.21493274
000060 e2 a3 bb 3d 29 cb a3 3e 93 46 5c 3e 25 49 af bd
       0.091621175 0.31990936 0.21511297 -0.08558873
000070 b6 ea 8f 3e 3a 6a da be 60 80 90 bb a3 8c 8c be
       0.28108758 -0.4265917 -0.0044098347 -0.27451047
000080 a6 c0 11 be b4 03 8c bd 96 62 90 be 34 79 4a 3e
       -0.14233646 -0.06836644 -0.28200215 0.19772798
000090 c7 c5 a9 3e 89 63 f5 bb c2 1e 51 bd 67 74 14 be
       0.33158705 -0.007488672 -0.051054724 -0.14497529
0000a0 c9 c3 85 bd 1a 82 de 3d 27 11 93 be 6b 84 ff 3c
       -0.06531484 0.10864659 -0.28724024 0.031191071
0000b0 69 e0 ad bd e1 84 da bb 06 72 18 3e c6 21 55 be
       -0.084900685 -0.0066686724 0.14887246 -0.20813665
0000c0 cb 07 3e bd 4a bd 61 3d 37 c3 ae be 5e 57 33 be
       -0.04639415 0.05511216 -0.34133312 -0.17513797
0000d0 67 88 91 bc 0e 6b f1 3d 38 26 66 3e ed af 96 be
       -0.017765237 0.11787997 0.22475517 -0.29431096
0000e0 6a 05 0c bf 0a d5 66 bd 91 2e a4 3d 8e 03 bb bd
       -0.5469576 -0.056355514 0.08016694 -0.091315374
0000f0 09 9c 74 be fd b9 89 3e 1b 91 a7 3d a0 42 dc 3c
       -0.23887648 0.2689971 0.081819735 0.026887238
000100 16 a1 04 3f e1 95 69 bd 70 a3 f0 3c dd 5a 82 3c
       0.518083 -0.0570277 0.029374808 0.015912468
000110 f8 c8 9d bd 1f 33 94 3e 9a 28 08 3e 5a 36 90 be
       -0.07704347 0.28945252 0.13296738 -0.28166467
000120 a1 33 e0 3d 13 49 c3 be a2 f3 1a 3f cd ff 60 3e
       0.109473474 -0.3814169 0.60528004 0.2197258
000130 53 ca 82 bd eb 49 d8 bd 1f 8f 42 be 24 2a 70 be
       -0.063862465 -0.10560974 -0.18999909 -0.23453575
000140 a3 19 2c 3e 22 92 11 3d a5 8c e2 be 69 ff 6e 3d
       0.16806655 0.035539754 -0.44247928 0.058349047
000150 0f b9 a5 be 77 d6 6b 3e 59 c6 9e 3e 0d 28 b1 bb
       -0.3236775 0.2303103 0.31010702 -0.0054063858
000160 8b 05 84 3e 4c be be be f5 71 28 be 20 2b ee bd
       0.2578548 -0.3725456 -0.16449721 -0.11629319
000170 d9 1b 9c 3e fb 9a 35 bf 96 2d 61 be 12 c6 85 3e
       0.30489996 -0.70939606 -0.21990046 0.26127678
000180 aa 9e 97 3d e9 ee 53 bd 3c 76 19 3f 15 44 aa be
       0.0740331 -0.051741514 0.59946036 -0.33255067
000190 88 db b2 be c1 8c 1c bf 5d 96 9e 3e c5 91 6f 3e
       -0.34933114 -0.61152273 0.30974093 0.2339545
0001a0 db 1c e1 3d af 54 16 bf dc c3 2e bd ec b3 86 be
       0.10991832 -0.58722967 -0.042667255 -0.26309144
0001b0 f2 70 36 bf 28 c1 9f be 43 a6 a6 3e 95 39 c0 be
       -0.7126609 -0.31202054 0.32548723 -0.37543932
0001c0 35 45 e3 be 6c 42 90 be df a4 05 3d bf d7 0a 3f
       -0.44388738 -0.28175676 0.032627936 0.5423545
0001d0 98 b1 5c 3e ff 19 d6 be ac 49 21 3e 53 25 63 bf
       0.21552122 -0.41816708 0.1575076 -0.8872883
0001e0 18 96 0b 3e bb c3 b7 3e 47 75 50 bf 78 9a 1f 3f
       0.13631475 0.35891518 -0.8142895 0.62345076
0001f0 da d1 23 be 7a 08 d3 be 64 3c 4a bf 17 20 13 3e
       -0.15998021 -0.41217405 -0.789984 0.1436771
000200 87 a1 0c 3e f0 b5 62 be 76 11 1a 3f 68 a1 7b 3e
       0.13733493 -0.22139716 0.60182893 0.2457329
000210 65 7a 03 3f d4 bc 46 3e e8 6b 7c be 38 4e ca be
       0.51358634 0.1940797 -0.24650538 -0.395128
000220 b6 e1 df 3c ef 20 73 be c4 20 96 bf 6b a6 ca 3d
       0.027329307 -0.23743032 -1.1728749 0.09895023
000230 83 dd bf 3e 4b ce 3d bf 0c 62 94 be 03 f3 c9 bc
       0.37473688 -0.74142903 -0.28981054 -0.02465201
000240 fa d7 f2 3d 59 83 87 bd b5 77 03 3e 8c 41 dd bd
       0.118576005 -0.066168495 0.12838633 -0.10803518
000250 70 34 57 3d 7a e4 16 3e 19 3c 3c 3e c8 f7 6d 3e
       0.052540243 0.14735594 0.183823 0.23239052
000260 ba b7 94 bd 28 52 a3 3e 39 5c 6c bd 87 c6 41 be
       -0.072616056 0.31898618 -0.057705138 -0.18923388
000270 0d 78 0b 3e 9d 06 28 3e 5c d5 90 3d f7 bc b7 bd
       0.13620014 0.16408773 0.07071945 -0.08971589
000280 94 c6 1b 3c f6 8e 5e 3e 4d 4c 8b 3e ab fe 41 bc
       0.009507794 0.21734223 0.2720665 -0.011840503
000290 66 6e 85 bd 99 5f 21 be e4 7d 64 3d b9 8f 61 3e
       -0.065151975 -0.15759124 0.05578412 0.22027482
0002a0 42 3e 30 3e 1d f6 18 be fc 75 54 be e9 36 43 bd
       0.1721125 -0.14937635 -0.20748132 -0.04765979
0002b0 15 b5 49 3e 73 ca c3 3d d6 84 7b 3d ce 08 17 be
       0.19697984 0.095600985 0.06140598 -0.14749452
0002c0 44 08 36 be d3 b5 49 3e 37 09 0c bd a8 4f a5 3e
       -0.1777659 0.19698267 -0.034188475 0.32287335
0002d0 7f c2 9f be b9 71 2b 3d eb 5a 6b 3e f6 c7 fc 3e
       -0.31203076 0.0418565 0.22983901 0.49371308
0002e0 17 fa ab 3d d2 3f cd be 5e 8f b8 bd 91 2e 88 be
       0.0839731 -0.40087754 -0.0901172 -0.26598027
0002f0 0e 3a 25 be a6 cd 4a be 74 75 b2 3d f2 43 66 3d
       -0.16135427 -0.19805011 0.08713809 0.05621714
000300 6d 52 9d 3c 0e 2a a2 3e c7 b3 c5 bd df 29 31 3e
       0.019204343 0.3167271 -0.096534304 0.17301129
000310 46 17 5d be 09 9c 82 be fa 7a 91 bc d9 7d 1e be
       -0.2159091 -0.2550967 -0.017758835 -0.15477695
000320 36 7b ac 3e a3 77 52 be 5f 5d b1 3d 7e 38 32 bd
       0.33687752 -0.2055345 0.08660387 -0.043510906
000330 4f 5c e4 bd 33 76 26 3e 29 20 60 3d ef ff 24 bd
       -0.11150419 0.16256027 0.05471817 -0.04028314
000340 58 0e 20 be 09 08 87 bc 2d 3b 07 be a0 a2 cb 3c
       -0.15630472 -0.016483324 -0.13206168 0.02485782
000350 28 a7 87 3e 56 c7 a4 be 44 9e 4e be 9b 43 9f 3e
       0.26494718 -0.3218333 -0.20177561 0.31106266
000360 5e f2 f4 bc 60 1e d3 bb 86 7e 8d be 95 c9 a1 be
       -0.029900726 -0.00644283 -0.27635592 -0.31599107
000370 b6 0a db 3d 0a 5a fe 3e 3c ff 3f be 89 82 c8 be
       0.10695402 0.4967807 -0.18749708 -0.3916209
000380 10 7a 8d be ac 19 d8 be 1e eb 54 3e 93 8c 7b bf
       -0.2763219 -0.42207086 0.20792815 -0.98261374
000390 69 02 2b be 8e 5f 8d 3d f0 1d 02 3d 0c a7 13 3f
       -0.16700138 0.06902991 0.031766832 0.5767677
0003a0 30 0c b9 3e 3b 8c dd be 07 fb 1c 3e 16 91 ab be
       0.3614211 -0.4327105 0.15330134 -0.3350913
0003b0 7d c6 41 be 1e da 78 3d aa 2e 84 be 86 ae 38 be
       -0.18923374 0.060754888 -0.25816852 -0.18035325
0003c0 31 e2 a8 bd 78 3e dd bd 78 33 12 bf b9 25 2e 3e
       -0.082462676 -0.108029306 -0.57109785 0.17006578
0003d0 cd 26 ae 3c e2 4d 21 bf a0 d7 13 bf 1c d5 50 3d
       0.021258736 -0.63009465 -0.5775089 0.050984487
0003e0 a3 c4 02 bd d6 73 ab be e0 64 35 be 6d 4e 5c 3e
       -0.03192581 -0.33486813 -0.17714262 0.21514292
0003f0 c5 34 3c be d2 e2 d1 be 19 41 e4 3e 18 0c 71 bc
       -0.18379505 -0.40993363 0.44580916 -0.014712356

bias f4 [24]
000000 1f 9e 8d 3d 82 06 d6 bd 7d 09 a9 bd cc 59 0f be
       0.06914925 -0.1045046 -0.08253763 -0.13999099
000010 af 8b 8a 3d 1b 09 9a be e1 d6 b0 bd 06 b0 a0 bd
       0.06764924 -0.30085072 -0.08634735 -0.07846074
000020 3f 99 70 bf 6a c9 7d bf 08 4c 24 bf cc 77 82 bd
       -0.93983835 -0.9913546 -0.64178514 -0.06370506
000030 9f c7 61 3e 89 f0 d8 be c4 34 85 bd 44 29 8c be
       0.22048806 -0.42371014 -0.06504205 -0.27375233
000040 2c 97 21 bf ef 3f 4c 3d e7 74 b0 3d e4 8c 8c bd
       -0.63121295 0.04986566 0.08616047 -0.0686281
000050 5d a9 61 be d6 fb 14 bd 74 d2 b7 bd 1e d6 52 3e
       -0.22037263 -0.036372982 -0.089756876 0.20589492

weight f4 [24]
000000 6d af b1 3c e1 48 65 3d f4 27 ac 3e 67 3e 9f 3d
       0.021690095 0.055977706 0.33624232 0.07775574
000010 01 3c c0 3d 15 a0 14 3d fa e4 a5 3d 60 1a d3 3c
       0.09386445 0.03628548 0.081003144 0.025769413
000020 bc 7a 12 3d 70 4f 08 3c 7a ec e4 3b 47 c9 d4 3d
       0.03576158 0.008319721 0.006986198 0.10389953
000030 65 5a d1 3c d3 12 07 3d 51 3e 6b 3d 48 49 69 3d
       0.025555799 0.032976937 0.057432476 0.056954652
000040 db b2 a3 3c 26 cc cc 3d 5a 7c 7e 3d 5b 0f a0 3d
       0.019982746 0.09999876 0.06213031 0.07815429
000050 ef 9c 08 3e a5 44 d7 3d fa 35 33 3e 3a 6f f3 3d
       0.13341115 0.1051114 0.17501059 0.11886449

weight f4 [24, 24, 3]
000000 5f f1 3f be 14 36 4e be 76 b2 6f bb 04 0f 57 3c
       -0.1874442 -0.20137817 -0.0036574877 0.013126139
000010 e3 b6 31 be f0 64 c4 3e f7 25 ed 3e 00 85 5a 3c
       -0.17354922 0.3835826 0.46318027 0.013337374
000020 78 58 ed 3e d4 43 19 3e 82 c4 43 3e 5e f2 52 3e
       0.4635656 0.1496728 0.1911793 0.20600268
000030 34 a7 ba 3c 0b a2 8c be d9 9b 20 3e 92 b2 d3 3e
       0.022784807 -0.2746738 0.15684451 0.41347176
000040 6e 41 13 bd da b1 7d 3d 7a 5c 21 be 5d 02 c1 be
       -0.03595107 0.06193719 -0.15757933 -0.37697116
000050 0e 3c 66 be 5c f6 88 be ef 35 21 bf 94 b3 be 3e
       -0.22483847 -0.26750457 -0.6297292 0.37246382
000060 4c 6e d7 be 4e d9 53 3f 52 dc ef be 28 48 1f 3e
       -0.42076337 0.82753456 -0.4684778 0.15554869
000070 e6 3b ac be b6 79 b9 3e 86 57 a3 bd cb be 03 bd
       -0.3363945 0.3622567 -0.07975678 -0.032164376
000080 4f 48 89 bd 3d ff c2 3d 9f ba 24 be 7c 69 cb 3d
       -0.06703245 0.09521339 -0.16086815 0.09932229
000090 cb d4 c1 bd d3 9d 8d be b1 f0 bd bd 37 6e 0a 3f
       -0.09464415 -0.27659473 -0.09274424 0.54074425
0000a0 c8 56 9a 3e 6b 60 30 bf 3d 82 1c bf 89 6d e6 3d
       0.30144334 -0.6889712 -0.6113623 0.11251361
0000b0 c1 89 7c 3d 58 16 92 3e 5c 20 e1 be b6 83 94 3e
       0.06165481 0.28532672 -0.4397 0.29006737
0000c0 d2 cb fd bd be 80 3e be 11 11 b2 bd 69 ca af 3d
       -0.12392391 -0.18603799 -0.086946614 0.085835285
0000d0 e9 5e 93 3e 66 c3 72 3e 5d 32 6e bd d2 f7 61 3d
       0.28783348 0.23707351 -0.0581535 0.05516798
0000e0 5e 27 3c be 73 ce 36 bd bd 1a ae be 0e 62 75 be
       -0.18374392 -0.04463048 -0.34004775 -0.23963186
0000f0 94 be f0 3d a7 9b 47 be 2e 12 e5 3d 00 64 68 3d
       0.117551 -0.1949297 0.11185108 0.056735992
000100 ca 45 13 3e 08 e4 9a 3d ac de 78 be 9d 81 5c 3d
       0.14382091 0.07563025 -0.24303693 0.053834546
000110 67 bd 88 bd dc 25 13 bf 2a c0 92 3e 0b 5a bc 3d
       -0.06676751 -0.57479644 0.28662235 0.09196862
000120 6c 88 4a be 5e 68 b5 be a1 54 6f be a3 be 1f 3c
       -0.19778603 -0.35431188 -0.23372127 0.009750041
000130 f0 3c 87 be bf ed 16 bf 36 bb b6 3e e2 c0 a2 3d
       -0.2641368 -0.5895652 0.35689706 0.07946946
000140 4b 63 a4 bd 7e 82 59 3e 6e dd 3c bf 0b eb 1e bd
       -0.08026751 0.21241185 -0.73775375 -0.038798373
000150 db 65 fe be f8 16 58 3e bc f1 69 3d 86 78 c0 be
       -0.49687085 0.21102512 0.0571153 -0.37591952
000160 25 65 54 3e b6 36 28 3c 50 71 b8 bc 09 9f d0 be
       0.20741709 0.01026695 -0.02251497 -0.40746334
000170 6f 2a 49 bc 98 44 68 bd 69 e2 5c bd 3b ee 9d be
       -0.012278183 -0.05670604 -0.05392686 -0.30845818
000180 72 ce ff 3c 2e 59 36 3e 61 90 d6 be d3 a3 c7 be
       0.03122637 0.17807457 -0.41907027 -0.38992175
000190 0e af ff 3e 2f 6c 55 3d eb af 07 be e6 7c d1 3d
       0.49938244 0.052105125 -0.13250701 0.102289006
0001a0 d5 ec 30 be 80 6a 59 be 04 5d b3 3e aa 66 96 be
       -0.17277844 -0.21232033 0.35031903 -0.293752
0001b0 9a 07 70 3d a2 8a e9 be c0 71 05 3e 6d 85 08 3e
       0.058601 -0.4561358 0.13031673 0.13332148
0001c0 19 8d 82 bc 8f 5d e2 3e 0c f3 cf 3e b6 be 1d be
       -0.015936421 0.44212005 0.40615118 -0.15404782
0001d0 16 bc 47 bd 00 bf 1c 3d 7c 3b 9d 3e 1d a6 17 3e
       -0.048763357 0.03826809 0.30709445 0.14809461
0001e0 28 05 94 3e ac db 8d 3e ef 0c 40 be ff ce 8b bd
       0.28910184 0.2770666 -0.18754934 -0.06826591
0001f0 e8 dc 3c 3d 09 97 89 be aa da 95 bd 95 32 3a 3e
       0.04610911 -0.26873043 -0.073170975 0.18183358
000200 71 7d 19 3e 14 8d 4c 3d 07 b5 77 bd ca fd f2 3d
       0.14989258 0.04993923 -0.060475376 0.11864813
000210 16 6c ba bd e6 49 2a 3e ad 7c 34 3e 74 80 f3 bd
       -0.09102647 0.16629753 0.17625685 -0.11889735
000220 7e 11 0a 3b bf 70 23 be 88 b1 84 3e 61 d7 57 bd
       0.0021067555 -0.15960978 0.25916696 -0.052695636
000230 7a c1 d6 3d 08 66 3e 3e 22 66 65 3d 07 c5 d3 3c
       0.104861215 0.1859361 0.056005605 0.025850786
000240 f9 5e 8f be 9a 4c d8 3e bc e5 4d 3e 46 b8 36 3e
       -0.28002146 0.42245942 0.20107168 0.17843732
000250 be 94 86 3e 24 7c ad bd 3d a8 30 be d5 d5 8f bc
       0.26285356 -0.084709436 -0.17251678 -0.017558018
000260 9d af 84 be 0c 9c ba be 81 e2 60 3e 7c 7e af 3e
       -0.25915232 -0.3644718 0.21961404 0.34276187
000270 9d 4c b9 3d c0 10 ad bd 06 d3 1d be 99 80 b1 3d
       0.09047816 -0.084504604 -0.1541253 0.08667106
000280 f9 b1 6d bc 99 a9 89 bf 81 d5 b9 be a3 75 94 3e
       -0.014507764 -1.0754882 -0.36295703 0.28996
000290 b4 98 a3 3a 09 33 56 3d 6f 91 fd bd c9 b7 80 bf
       0.0012481422 0.052294765 -0.12381255 -1.0056087
0002a0 c3 b0 0e bf ce b1 5a 3f 71 cf 78 3e a6 df 30 3d
       -0.55738467 0.8542756 0.24297883 0.043182038
0002b0 4e 52 79 bd da 3b 4a 3d d4 c7 c0 3e 06 df fb be
       -0.060869507 0.049373485 0.37652457 -0.4919359
0002c0 b7 ff e1 be 81 fd 12 bd 98 fe c6 3e ea c3 6e bf
       -0.44140407 -0.03588629 0.38866115 -0.9326769
0002d0 c0 c1 d3 3d 4b 4a 51 be 3e 82 8b 3e 9a 2b 09 bf
       0.10339689 -0.20438497 0.27247804 -0.53582156
0002e0 3c bc 24 3e 09 77 3c 3f 7a b6 d3 3e b6 61 f5 bd
       0.1608743 0.73619133 0.41350156 -0.119815275
0002f0 2d e9 b8 be 7d 2f c1 be 51 82 b2 bd 4e 7d a6 be
       -0.361154 -0.37731543 -0.08716262 -0.32517475
000300 2f 13 49 bc 25 b6 36 3e b1 fe 37 3e 7b 81 f7 bd
       -0.01227264 0.1784292 0.17968251 -0.12085243
000310 ee c4 f4 be dd b7 2f 3e 45 7e d9 be dc a1 ba 3d
       -0.47806495 0.17159982 -0.42479149 0.091129035
000320 23 a1 1b bd 90 98 6e be 70 f1 5d be 62 0e ef bd
       -0.03799547 -0.23300385 -0.21674132 -0.11672665
000330 2e 93 cc bd 17 d1 cb 3d 2a e1 12 be 34 39 c2 be
       -0.0998901 0.0995199 -0.14343706 -0.37934268
000340 43 68 a7 bd 89 37 a1 3e 8c c8 76 be e6 82 26 3e
       -0.08174183 0.31487682 -0.2409994 0.16260871
000350 9b bd fe 3e 43 c8 07 bf 54 6c 57 3d 5b 20 86 3e
       0.49754032 -0.5303995 0.052593544 0.2619656
000360 b9 b9 34 3d 7c 83 89 3c f5 3f a9 be 3e 85 ff bc
       0.04412243 0.01678633 -0.33056608 -0.031191465
000370 5a b4 69 bc de 5c 16 bd 96 4a 12 bc 05 6a aa 3d
       -0.014264191 -0.03670966 -0.0089289155 0.08321003
000380 2b fd 37 be 53 d8 f1 be 4f 66 b1 3d b6 7c 90 be
       -0.1796767 -0.47235355 0.08662092 -0.28220147
000390 06 1f 49 bf f5 84 29 be d3 79 1e be 07 5e 8e be
       -0.78562963 -0.16554625 -0.1547616 -0.27806112
0003a0 43 e4 a2 3e 6d f6 47 be ee 25 dd be 61 e9 a4 be
       0.31814775 -0.19527598 -0.43193 -0.32209304
0003b0 be 54 b9 bd 04 cb 20 3e 01 6d f1 be 31 a0 5a 3d
       -0.090493664 0.15702444 -0.47153476 0.053375427
0003c0 eb 8e 6a 3e 70 4d 59 3e 88 11 7f 3f 53 6a 17 3f
       0.22906081 0.21220946 0.99636126 0.5914661
0003d0 30 0b 0a bf 92 cd 69 3e c3 cc d0 3d f9 72 43 be
       -0.5392332 0.22832325 0.10195305 -0.19086827
0003e0 67 12 3a 3d 6a 9d a3 3d fe f2 dc be 19 59 c3 3d
       0.045427706 0.07989009 -0.43154138 0.095384784
0003f0 c3 2f 97 3e 3e 69 f5 bd dc 34 c3 bd 72 32 11 3f
       0.29528627 -0.11982964 -0.095315665 0.567176

bias f4 [24]
000000 78 69 2d bf ff fb 05 bf 93 75 e8 be 7e bb 44 bf
       -0.6773906 -0.5233764 -0.45402202 -0.7684859
000010 e3 ac 98 be 09 5b 00 bf 89 e9 60 bf e1 eb 13 bf
       -0.29819402 -0.5013891 -0.87856346 -0.577818
000020 b3 ca 61 be 33 c0 0f bf e0 cd 11 bf f5 d5 a3 be
       -0.2204998 -0.5615265 -0.56954765 -0.31999174
000030 0e ee 16 bf 68 44 9e be 62 d1 a9 be db 96 0a be
       -0.5895699 -0.30911565 -0.3316756 -0.1353411
000040 3d 5e cc be 1a 91 08 bf 2e f5 72 be a6 c6 a8 be
       -0.39915648 -0.5334641 -0.23726341 -0.32964057
000050 ff 4c 8d be ef 5b b5 be 0e 22 e8 be 4f e5 48 be
       -0.27597806 -0.35421702 -0.45338482 -0.19618724

weight f4 [24]
000000 e1 06 76 3d 5b de aa 3d 14 fb f1 3c 69 87 8e 3c
       0.060065154 0.08343192 0.029538669 0.017398553
000010 be 22 cb 3d 35 c4 a8 3d 5e bb 99 3c d6 f7 82 3c
       0.09918736 0.082405485 0.018766101 0.015987318
000020 fd 52 31 3e 1a 98 16 3d fd 18 84 3c 85 c2 04 3e
       0.17316814 0.03676615 0.016125197 0.12964828
000030 fc 48 1d 3d 6a 4d eb 3d bd 89 12 3e 22 a6 2d 3e
       0.03839968 0.11489375 0.14310355 0.16957906
000040 f1 e5 1c 3e e6 72 30 3c 89 47 87 3e 9b a2 d3 3d
       0.1532209 0.010769581 0.26421764 0.10333749
000050 d6 fe 5c 3e 07 77 ff 3d 7d c4 86 3d 4d c0 3d 3e
       0.21581587 0.124738745 0.06580446 0.18530388

weight f4 [24, 24, 3]
000000 51 8b 1b be 14 40 d1 3c 03 73 c5 3e e0 14 00 3e
       -0.15189864 0.02554325 0.3856431 0.12507963
000010 3c bf c6 3e 3c e2 19 3f 47 a6 ba bd 38 37 2e 3b
       0.38817775 0.6011083 -0.09113746 0.0026583206
000020 5d a6 8f 3e c7 c2 3c be 22 7d 1a be a5 c0 0c be
       0.28056613 -0.18433677 -0.15086797 -0.13745363
000030 cc 34 9a 3e d1 c0 ad be 35 f1 9f bd ed 91 8a bd
       0.30118406 -0.3393617 -0.078096785 -0.067661144
000040 11 8d ba 3e 15 08 16 3e 64 9d 00 3f 7e ac 9e be
       0.3643575 0.1465152 0.5024016 -0.30990976
000050 97 12 1d bc ed 1e 16 bb 8c 5c cf 3c 43 c5 e9 3e
       -0.009586952 -0.0022906617 0.025312684 0.4565831
000060 b7 93 50 3e 27 ae 96 3d 61 36 80 3d f7 e0 36 bc
       0.20368849 0.07357436 0.06260372 -0.011162034
000070 13 23 59 3c a4 0d b8 3e 45 44 e0 3d 5c 2a b5 3e
       0.013252991 0.35947907 0.109505214 0.3538388
000080 74 3d 8e 3e 6f c6 2f 3d cc e2 f7 be 10 f7 a9 be
       0.2778126 0.04291385 -0.4841522 -0.33196306
000090 e0 3b 38 be af 35 1a 3e 36 2f f4 3e 16 9e b9 be
       -0.1799159 0.15059541 0.4769227 -0.36253422
0000a0 36 1f d7 3e 60 9b 74 3e 7b ba ab 3e aa 67 28 3e
       0.42016 0.23887396 0.3354071 0.16445795
0000b0 ad 1f db bd 3b c5 fb 3d 19 65 97 be 32 a6 14 bc
       -0.10699401 0.12293478 -0.2956932 -0.009072827
0000c0 08 6e 74 3e 73 bd d7 3d 88 61 d2 3c 81 ee 4a be
       0.23870099 0.105341814 0.025681272 -0.19817545
0000d0 9b 20 70 3d c3 39 98 3c cb 20 a9 be 6b 7c 2c 3d
       0.058624845 0.01858223 -0.33032832 0.04211084
0000e0 7e 53 79 3a b9 76 a5 3d 64 42 06 3e 95 45 01 be
       0.00095110375 0.08079285 0.13111264 -0.126242
0000f0 6f 6c bd 3c 29 8a 23 bc 05 8d 83 be d5 74 3f 3e
       0.023122994 -0.00998167 -0.25693527 0.18696912
000100 46 80 21 be a7 29 e2 3d 6f 45 81 3d 20 40 02 be
       -0.15771589 0.11043101 0.063120715 -0.12719774
000110 52 0a c3 bd f9 01 87 be 3c a3 ec bc 80 cb 48 3e
       -0.09523453 -0.26368693 -0.02888643 0.19608879
000120 89 a7 a7 3e c5 af e2 bc 67 ba ba be 13 6d e9 3e
       0.32745007 -0.027671704 -0.3647034 0.4559103
000130 d2 5c 56 3e 59 c2 fe be 1d 96 0b 3e de cf 04 bf
       0.20933846 -0.4975765 0.13631482 -0.5187968
000140 0b 93 84 be 49 8f 31 3f 6c ce a3 be 78 73 d7 be
       -0.25893435 0.6935926 -0.31993425 -0.42080283
000150 16 27 a0 be 16 36 6c 3e b4 32 7c 3e 8b cc f2 3e
       -0.3127982 0.23067507 0.24628717 0.4742168
000160 94 10 c2 be 5c 58 a3 3c 4c d8 29 be ec 66 0f 3f
       -0.37903273 0.019939594 -0.16586417 0.5601642
000170 88 87 b2 bb c3 ef 46 3e 18 0b 04 bf 05 cb f3 bc
       -0.0054482855 0.194274 -0.5157943 -0.029759893
000180 25 24 51 3d 7a 83 11 3c a0 63 22 3f 78 8a 42 be
       0.05105986 0.008881444 0.63433266 -0.18998134
000190 83 7b 9d be 27 e0 47 3d 2c ea 19 bf 28 d9 a7 bb
       -0.30758294 0.048797753 -0.6012294 -0.0051223226
0001a0 fb 4f bd bd 3d 30 76 3e a1 68 91 3e 50 37 f2 3d
       -0.09243771 0.24041839 0.28400138 0.11826956
0001b0 93 c6 70 be ed 73 d1 bd b2 7e 3e 3f 4d 09 4d 3e
       -0.2351325 -0.10227189 0.7441207 0.20023079
0001c0 30 a4 a0 3e 11 df 01 bf c6 d9 e8 be 8e dc ef bc
       0.31375265 -0.50731 -0.45478648 -0.029279973
0001d0 f8 42 0e bf 06 84 47 bf 4c 2a f2 3d 9f e0 67 be
       -0.55570936 -0.77935827 0.11824474 -0.2264428
0001e0 5b e9 4e 3d f9 ac 1a bd 3e 34 ac 3d e1 00 eb be
       0.050515514 -0.037762616 0.08408402 -0.45899108
0001f0 02 2e 50 be 95 6e c1 be f2 7a 3b 3f df 27 1f be
       -0.2033005 -0.3777968 0.73234475 -0.15542553
000200 9a 26 27 bf d3 65 fe be cb da ae bd 32 e6 53 3e
       -0.65293276 -0.4968706 -0.08537825 0.20693281
000210 16 b2 a3 3e 57 03 36 3e f3 c1 d6 3d 8e 80 31 3f
       0.31971806 0.17774712 0.10486212 0.69336784
000220 59 ff a5 bd bb f0 22 be d8 4c b9 be ed 15 b7 3d
       -0.08105344 -0.15912144 -0.3619144 0.08939729
000230 17 25 93 3e dd 95 fc be 31 e9 8c be d2 b0 6c 3e
       0.28739235 -0.49333087 -0.2752166 0.23114327
000240 8d d6 fc bc 2b 5e 39 3e 9c 25 01 3d 29 95 fa bb
       -0.030864025 0.18102328 0.031530008 -0.007647176
000250 f7 5e d6 3d d9 e8 cf be c9 05 d0 3e 2b 19 33 bd
       0.10467332 -0.40607336 0.40629414 -0.043725174
000260 33 5d 88 be ee c2 a2 3d 13 05 2c bd bc 56 1e 3e
       -0.26633605 0.07947336 -0.041997027 0.15462774
000270 56 9c 93 bd 7e 36 82 3d d1 6c 86 3c 86 f3 bb be
       -0.07207553 0.0635805 0.01640931 -0.3670923
000280 85 3e c4 3c cf d2 4a 3c 75 37 df be 19 bf a9 3e
       0.023955593 0.012379362 -0.43596998 0.33153608
000290 33 cc c0 bd de a6 12 be 27 eb 88 3e 0d 35 53 3d
       -0.09413948 -0.14321467 0.26741907 0.051564265
0002a0 32 a7 37 3e eb 66 e3 3d 61 27 b6 be 6a 79 f8 bd
       0.17934874 0.111036144 -0.3557692 -0.12132533
0002b0 0e e9 24 3e b7 99 c5 3e f2 0a 8d bd 51 ce e0 3d
       0.16104528 0.38593838 -0.06886853 0.10976852
0002c0 63 b1 2c 3e 20 f9 d4 3c 21 62 16 be cf ab 3e be
       0.16864543 0.025997698 -0.1468587 -0.18620227
0002d0 85 95 0a 3d 98 17 05 be 61 64 52 3e 3e 65 51 bc
       0.033834 -0.12997282 0.20546104 -0.012780486
0002e0 c4 37 48 3d 8e 22 17 3e 86 bd a6 be 1e 14 c8 bd
       0.048881307 0.14759275 -0.3256647 -0.09769462
0002f0 94 2e 14 3e 02 10 03 3e be 24 a2 3d 26 8e 94 3e
       0.14470893 0.12799075 0.07917164 0.290147
000300 78 5b 4b be c8 78 07 3d 6a f4 c0 3d bc 69 ce 3e
       -0.19859111 0.03307417 0.09421618 0.40315044
000310 92 0d a6 bd 60 9d 21 3e 30 6f 3f 3d 0c 84 e8 3d
       -0.08108057 0.1578269 0.046736896 0.11353311
000320 aa 15 90 be eb 0e d9 bd 7f 73 16 3d da fc a0 3e
       -0.28141528 -0.105985485 0.03673124 0.3144291
000330 e3 a6 db 3c 77 51 ef bc ae ed 52 be 49 df 8c 3e
       0.026812976 -0.02921365 -0.2059848 0.27514103
000340 00 cf 3c bd 76 cd 9c be 55 60 82 3e eb 08 22 be
       -0.046095848 -0.30625504 0.2546412 -0.15823714
000350 f2 e0 9c bd dd 89 1c 3d fe b3 91 3d 40 cf 52 3e
       -0.076600924 0.038217414 0.07114409 0.20586872
000360 69 35 1c bf e3 a0 a2 3d f5 dd 66 3e 96 3a ba 3e
       -0.61019 0.07940843 0.22545607 0.36372823
000370 59 23 ed 3e f4 9f 14 bf c9 82 7e be ee 45 12 3e
       0.4631603 -0.5805657 -0.24854578 0.14284489
000380 e6 f3 2f be 2b ff 31 3f 27 6f 5f 3b f1 bf 27 bf
       -0.17182884 0.6952998 0.0034093352 -0.65527254
000390 b3 6f 68 bc 41 4e 54 bd 2b 24 56 bf 74 6d 06 bf
       -0.014186787 -0.05183244 -0.8364894 -0.5251076
0003a0 aa 1c 32 be 99 8a 00 3f c3 08 ff be e5 81 1e 3f
       -0.17393747 0.50211483 -0.49811372 0.61916953
0003b0 b2 44 36 3f 58 c0 ab 3c c0 0c 3c 3d 72 18 70 bf
       0.7119857 0.02096574 0.045910597 -0.937873
0003c0 a2 41 b6 3c 63 07 7b 3d 63 f3 81 bd e3 7b b1 3c
       0.022248093 0.06128634 -0.063452505 0.02166552
0003d0 2f 9d 5e be ef d7 31 3e 54 4d 80 3e 1e b9 60 bf
       -0.21739648 0.17367528 0.25058997 -0.87782466
0003e0 26 74 fd be 4c 23 ab be 4e 1e 74 be e4 1d 2d be
       -0.49502677 -0.33425367 -0.23839685 -0.16905934
0003f0 a2 52 a6 3e af 85 93 be 39 a5 fd bd fc 08 19 3e
       0.3248492 -0.2881293 -0.12385029 0.14944834

bias f4 [24]
000000 c4 a6 4c 3d 25 9c ba bd 85 0c a4 bc f4 0b 38 be
       0.049963728 -0.091118135 -0.020025501 -0.1797331
000010 4e 7d ce 3d 4a 74 81 be 37 8b 60 bd 79 2a 9e bc
       0.10082494 -0.25284034 -0.054820266 -0.019307362
000020 76 3e 72 bf 62 2a 8c bf 4b 1a 15 bf e1 f6 a0 bd
       -0.9462656 -1.0950434 -0.58243245 -0.078595884
000030 20 aa 2c 3e 12 78 f7 be 3a 2c 76 be 92 a8 77 be
       0.16861773 -0.48333794 -0.24040309 -0.24185398
000040 76 3e 18 bf 49 05 1a bc b9 12 a0 3d c5 07 86 bd
       -0.5947031 -0.009400674 0.07816071 -0.06544451
000050 f8 8a 38 be 12 c5 ce bd 44 60 1b be d8 f3 20 3e
       -0.18021762 -0.10096182 -0.15173441 0.15718019

weight f4 [24]
000000 9a 12 36 3d 82 6a 96 3d ac 52 a2 3e 94 24 c2 3d
       0.044451334 0.073445335 0.317037 0.09479633
000010 96 ec 9a 3d 1f c8 dd 3c 7c eb b6 3d cd 62 20 3d
       0.075646564 0.027072964 0.08931634 0.039156724
000020 0f 16 78 bc 54 f4 fd ba bd 0a a1 3a 86 f9 eb 3d
       -0.015141978 -0.0019375184 0.0012286525 0.11522202
000030 4f 78 3d 3c 43 57 bb 3c b7 47 63 3d fc 1d 9d 3d
       0.011564328 0.022868758 0.055488314 0.07671735
000040 26 6b f5 3c c9 4c 9c 3d 17 c1 c3 3d 56 43 84 3d
       0.029958319 0.07631833 0.09558313 0.06458156
000050 1e b7 a2 3d 85 3a 1a 3e 10 f1 42 3e 3b 02 1e 3e
       0.07945083 0.15061386 0.1903727 0.15430538

weight f4 [24, 24, 3]
000000 b4 b1 3d bd 65 9d e5 bb d7 07 ec be f0 f5 b3 be
       -0.04631205 -0.0070072883 -0.4609973 -0.35148573
000010 aa 88 9d be 43 54 75 3e 36 8a 35 bf ad fd b8 bc
       -0.3076833 0.23957925 -0.7091402 -0.0225819
000020 40 35 bd 3d 90 20 a7 3e 8e 01 c2 be 8a b6 11 bf
       0.09238672 0.3264203 -0.3789181 -0.5691916
000030 00 db 88 be 69 4e 13 be e9 b2 c6 3d b7 fa 6c 3e
       -0.26729584 -0.1438538 0.09702093 0.23142515
000040 46 b5 4c bd 77 d5 c9 be 6b c2 b7 bc e8 c8 21 be
       -0.049977563 -0.39420673 -0.022431573 -0.15799296
000050 c7 43 3d be e5 91 f9 3d 47 02 a4 be 47 e9 bf 3d
       -0.18482886 0.1218603 -0.32032987 0.09370666
000060 32 05 a5 bd 83 6f 5e be 07 74 6e be e5 8a 84 3d
       -0.080576316 -0.21722226 -0.23286448 0.064718045
000070 f2 ae c8 3b cd 85 de 3e 15 a2 7f bc dc bd 85 be
       0.0061243707 0.43461457 -0.015602608 -0.26121414
000080 cc b6 e4 3e c2 7f ec 3d 91 d6 a9 3e fb 20 af be
       0.44670713 0.11547805 0.33171514 -0.3420485
000090 b2 78 a7 3e 6c be cc 3c a0 ee 97 be c0 54 3b 3e
       0.3270927 0.024993144 -0.29674244 0.18294048
0000a0 7e 20 a8 bc 9e 54 ba be 0c 7f c7 3e 91 05 8a 3d
       -0.020523306 -0.36392683 0.38964117 0.06739343
0000b0 e6 0a df be 29 9d 23 3e 89 40 f0 bc 4e 33 ba bd
       -0.43563002 0.1597792 -0.029327648 -0.09091817
0000c0 c5 a6 53 be 21 41 df bd 8d 72 18 bf 78 64 5a 3e
       -0.20669086 -0.10901094 -0.5954979 0.21327388
0000d0 48 83 d8 bd 52 9e 03 3f 5c 2f b7 3e 63 61 9d 3d
       -0.10571915 0.5141345 0.3577832 0.07684591
0000e0 72 da b1 be 6f 39 38 3e b7 c5 ed bd c1 67 9d 3d
       -0.34736973 0.17990659 -0.11609977 0.07685805
0000f0 c9 5f e6 3d 88 71 68 3e f9 45 d3 3e 19 24 e9 3e
       0.11248738 0.22699559 0.41264322 0.45535353
000100 81 01 09 3c fd 24 28 3e 3b c1 77 be e8 80 b6 3d
       0.008362175 0.1642036 -0.24194805 0.08911306
000110 20 1d 2e be 7a 3b e7 3e 93 88 3c be 14 47 71 be
       -0.17003298 0.45162565 -0.18411474 -0.2356227
000120 54 e7 1d be 08 5b c5 3e f1 ad 97 be 95 f7 9e 3d
       -0.15420276 0.38546014 -0.29624894 0.07762066
000130 59 0a 1e 3e c4 3a 0e 3e 55 f3 52 bd 74 08 03 be
       0.15433635 0.13889605 -0.05150159 -0.12796193
000140 84 3f 47 bc 8b a5 7f bd 92 87 35 3e 70 e2 75 3c
       -0.012161139 -0.062413733 0.17727497 0.0150076
000150 dd a5 55 3e d6 a6 21 bf 37 bc 9e be 9f ca 91 3d
       0.20864053 -0.63145196 -0.31002972 0.07118725
000160 44 43 8b 3d 15 27 b8 3e f7 5c 81 be 3f fd 09 bc
       0.06799939 0.35967317 -0.2526624 -0.008422195
000170 c2 2b 0f be 3a 29 16 3f 53 3f e9 bd 17 3e 40 bf
       -0.13981536 0.58656657 -0.11389031 -0.7509474
000180 4f ce 49 bf ed 88 2c 3f 70 2a 37 3d e9 bf 1f 3e
       -0.78830427 0.6739643 0.044718206 0.15600552
000190 61 d9 87 3d 42 10 42 be b3 d8 af 3e 66 b8 32 bf
       0.066332586 -0.18951514 0.34345016 -0.6981262
0001a0 79 ec 6a 3d 8a e3 39 bc e1 b2 dd 3d d9 63 93 3e
       0.057354424 -0.011345753 0.10825134 0.28787115
0001b0 40 c1 9e bb 85 d6 55 bf 08 b9 18 3e b9 2d 22 be
       -0.0048448145 -0.83530456 0.14914334 -0.15837754
0001c0 f6 89 51 3e 10 dc c9 bd 25 3f 7f 3e 66 0e 44 3e
       0.20462784 -0.09856427 0.24926431 0.19146118
0001d0 b0 66 c6 3d dc 64 cc 3d 8c fa d0 be b0 ab fb bc
       0.09687555 0.09980175 -0.40816152 -0.030721515
0001e0 fc 02 22 bf 44 c3 8b be 99 4d 65 3d 6f ab 79 bd
       -0.63285804 -0.27297413 0.055982206 -0.060954507
0001f0 85 ab ef bd c3 18 39 be 4e d0 5b 3e 1b 2a 84 3e
       -0.11702637 -0.18075852 0.2146618 0.25813374
000200 41 76 f5 bc 04 67 33 bd 53 5f 95 be e8 ac 23 be
       -0.029963614 -0.043799415 -0.2917429 -0.15983927
000210 82 50 e8 be e9 03 81 be 08 fc 02 be a6 11 82 be
       -0.45373923 -0.25198296 -0.12791455 -0.2540409
000220 da 6d b1 3e 28 45 9a 3c 6f 54 4f 3e 8a 97 09 3e
       0.34654123 0.018831804 0.20247053 0.13436714
000230 f5 fe 76 be 0f 95 3f be d2 f9 ed bd 47 d5 99 be
       -0.24120696 -0.18709205 -0.11619915 -0.3004553
000240 be f5 9d 3d 67 a6 a0 3e a1 fe 9a bc f6 51 cc 3c
       0.07712887 0.31376955 -0.018920245 0.024941426
000250 6c 22 2e be d4 63 a5 3d 5b 5d bc bc d8 05 03 bc
       -0.17005318 0.08075681 -0.022993734 -0.007996999
000260 06 06 38 be 70 4a 0d bf b4 03 f2 3e 74 a8 89 bd
       -0.17971048 -0.5519171 0.4726845 -0.06721583
000270 ba 2c 17 be 35 10 61 3d b0 c8 f6 bc c6 7c eb 3d
       -0.14763156 0.054947097 -0.030124992 0.11498408
000280 81 80 64 3b 61 c4 87 bb de 6d 06 bd c3 16 56 3e
       0.0034866633 -0.0041432832 -0.03281962 0.2090712
000290 b9 db 24 bc 69 27 cb 3e 32 29 c8 bd 5d 04 32 be
       -0.010062152 0.39678505 -0.097734824 -0.17384477
0002a0 f2 e0 3d 3e cd 96 f2 bd 3d 84 d6 3d 5f 6b 45 3d
       0.18542841 -0.11845169 0.10474441 0.0481981
0002b0 62 94 52 3f 78 3c 17 bf ff 82 a3 3d b1 b0 51 bd
       0.82257664 -0.59076643 0.0798397 -0.051193897
0002c0 00 b3 e9 bd 16 2c 90 be a0 d6 9b 3e a1 74 e4 3c
       -0.11411095 -0.28158635 0.30437183 0.027887644
0002d0 a7 99 88 3d 87 98 b9 3d 44 b3 b4 3d b5 fd dc 3d
       0.06669932 0.090622954 0.08823255 0.10790578
0002e0 31 1e 2a be ab 22 12 3d f4 f8 8c be 64 4a c6 3d
       -0.1661308 0.035677593 -0.27533686 0.09682158
0002f0 c6 72 8a be 9d 10 03 3e ed 50 94 3e f5 9f 80 3e
       -0.2704069 0.12799306 0.2896799 0.25122038
000300 72 55 c8 ba 68 a6 62 3e d9 2d b2 3e 1b 5e ad 3d
       -0.0015284254 0.22133791 0.34800604 0.08465215
000310 29 ff 97 3e 45 84 2d 3e bb 05 d6 3d 55 71 10 be
       0.2968686 0.16944988 0.10450312 -0.14105733
000320 fd 26 93 3d 5f 84 57 3e a7 cd 92 bd 41 46 97 3d
       0.07185171 0.2104659 -0.07168131 0.07386447
000330 dc 7b 52 3e 8d 7c be 3d 7d b4 48 3d 95 90 87 bd
       0.20555061 0.093011 0.049000252 -0.06619374
000340 a8 52 84 bc f1 78 d9 3d 01 64 9f bd 3b f4 ab 3e
       -0.016152695 0.10618771 -0.07782746 0.3358477
000350 ef 91 41 3e 4d bd 22 3e 1d c8 08 be 84 0a 11 3d
       0.18903325 0.15892525 -0.13357587 0.03541042
000360 61 42 4c be 30 da 40 be 95 08 f8 bd 89 61 06 ba
       -0.19947197 -0.18833232 -0.12111012 -0.0005126228
000370 7c d6 b5 3d 3e 97 b7 be 37 aa a7 be 77 27 2c be
       0.088788 -0.35857576 -0.3274705 -0.1681193
000380 d5 14 93 3e 22 79 78 3e d5 41 0c 3e ab de 8a be
       0.2872683 0.24264959 0.13696988 -0.27123007
000390 bd 9b 31 be 96 87 74 3e 8a 9e e5 bd 1d 9a 83 be
       -0.17344566 0.23879847 -0.112118796 -0.25703517
0003a0 a7 9d 93 3e c4 8c d2 3d fb e3 0d 3d 13 f2 bf be
       0.28831217 0.10280755 0.034641247 -0.37489375
0003b0 b3 c9 88 be 5c 27 14 bd e5 dc 00 3e 9e c1 a0 bd
       -0.26716384 -0.03617035 0.12584265 -0.078494295
0003c0 10 ba f9 3c 14 64 8e 3e 30 7a ed be 73 33 f3 be
       0.03048423 0.2781073 -0.46382284 -0.4750019
0003d0 aa 52 82 3d 9c a3 45 3e fa 85 44 3e b7 24 11 3e
       0.06363423 0.19300693 0.19191733 0.14174162
0003e0 05 6a 3d be 52 b5 ca 3e 55 fe cf 3d d8 6a 26 3f
       -0.18497474 0.3959146 0.10155932 0.6500678
0003f0 00 95 b7 be 6e 13 ec be d4 4d d4 bd 3f 69 91 3e
       -0.35855865 -0.46108574 -0.10366407 0.2840061

bias f4 [24]
000000 28 70 d7 be 21 80 a4 be d1 c2 1a bf 9a 7b f1 be
       -0.42077756 -0.32129005 -0.60453516 -0.47164613
000010 54 30 cd be 4c 37 1e bf 80 bb bb be 02 72 1b bf
       -0.40075934 -0.61803126 -0.3666649 -0.6072084
000020 3e ee 30 bf 5c 30 1e bf 58 72 e4 be c6 96 62 be
       -0.6911353 -0.6179254 -0.44618487 -0.22127828
000030 c3 89 80 be 27 97 aa be 19 22 1e bf 28 78 a2 be
       -0.25105104 -0.33318445 -0.6177078 -0.31732297
000040 c8 43 43 be 23 ea 1c bf 70 10 ac be cb 03 9e bd
       -0.19068825 -0.61294764 -0.3360629 -0.07715567
000050 8d 34 f0 be b3 af 20 be 97 f7 d4 be 07 f7 3a bf
       -0.46915093 -0.15692024 -0.41595146 -0.73033184

weight f4 [24]
000000 06 ce 6e 3d 6a d5 25 3d 3c 3c 2f 3b fb 7a b6 3d
       0.058301948 0.04048673 0.0026738783 0.089101754
000010 0c 4d 7c 3d 6f 2e 34 3c 9b 11 35 3d d3 b3 9a 3c
       0.061596915 0.010997399 0.044206243 0.018884575
000020 dc 34 00 3c 68 df 2b 3d 8c 7f e1 3d 0a 36 ea 3d
       0.007825103 0.041961104 0.11010656 0.114360884
000030 4b e7 a5 3e 89 d4 5f 3d ab 9a 29 3c f9 3b 4e 3d
       0.32403025 0.05464605 0.010351817 0.050350163
000040 17 ad f6 3e 2f a2 7a 3d d3 3c 26 3e 62 1f 29 3e
       0.48178932 0.061189827 0.1623414 0.16515878
000050 21 4f 7e 3d c4 bd 0e 3e de 7a 79 3d fa b1 11 3d
       0.062087182 0.13939577 0.06090819 0.035570122
