models/teste-ss3_ss4_buried.pth (torch_old, 358933 bytes, 132 tensors)

weight f4 [24, 22, 1]
0	0xbdc4960c	-0.09598932
1	0xbd30ea4a	-0.043192185
2	0x3dba7752	0.0910479
3	0xbe66cd8b	-0.22539346
4	0xbde88701	-0.11353875
5	0x3f016e15	0.50558597
6	0x3d8c14c8	0.06839901
7	0x3f08c464	0.5342467
8	0xbe2e2db7	-0.17009626
9	0xbe1a2074	-0.15051442
10	0x3d68a398	0.05679664
11	0x3e1785b2	0.14797094
12	0xbdef0dd1	-0.11672557
13	0xbda455b5	-0.0802416
14	0x3e9f8d52	0.31162506
15	0x3eed8aac	0.4639486
16	0x3dc8a723	0.09797504
17	0x3d5bd739	0.05367205
18	0xbe5fada8	-0.21843588
19	0x3ba14c27	0.004922408
20	0x3db0593b	0.08610769
21	0xbe9cbd6b	-0.30613264
22	0x3e805d46	0.25071162
23	0x3e4c3c00	0.19944763
24	0xbed9f025	-0.42566028
25	0xbf0c76be	-0.54868686
26	0xbe9fc8f3	-0.31208
27	0xbe3b133e	-0.18269059
28	0xbec5b064	-0.38611138
29	0xbeb0dfa2	-0.34545618
30	0xbdf4dd12	-0.11956228
31	0x3ef8deca	0.48607475
32	0x3c71e1cf	0.01476331
33	0xbe23aa7e	-0.15983006
34	0x3e18d7f1	0.14926125
35	0x3c301699	0.010747575
36	0xbf00719e	-0.50173366
37	0x3e810ffb	0.25207505
38	0xbc9bd549	-0.0190226
39	0x3ca45fff	0.020065306
40	0xbddd29a1	-0.10798956
41	0x3e200b5f	0.15629338
42	0xbb81b9cd	-0.0039589168
43	0xbe921b6a	-0.2853654
44	0x3dafc4eb	0.08582481
45	0x3e12e5ee	0.14345524
46	0x3cfd9246	0.030953538
47	0xbebecceb	-0.37265715
48	0xbe3bed09	-0.1835214
49	0xbe17d1f9	-0.14826192
50	0xbde5a4a8	-0.11213046
51	0xbea88e2c	-0.3292097
52	0xbea5b8e6	-0.3236763
53	0xbe216958	-0.15762842
54	0xbe047822	-0.12936452
55	0xbdaa8724	-0.08326557
56	0xbde665e5	-0.112499036
57	0x3edc07d7	0.4297473
58	0x3af54f9e	0.0018715744
59	0x3e9b0092	0.30273873
60	0xbe39666f	-0.18105482
61	0x3e1a8ce7	0.15092812
62	0xbeb32b96	-0.3499419
63	0xbe6d00de	-0.23144862
64	0x3e7fe962	0.24991372
65	0x3ee3a471	0.44461396
66	0xbd8c0af1	-0.068380244
67	0xbeeb56c9	-0.4596465
68	0xbe02043a	-0.12696925
69	0xbc2002b9	-0.009766274
70	0x3f44ddfc	0.7690122
71	0xbeb1d754	-0.34734595
72	0xbe56ddcf	-0.20983051
73	0x3ead3c1b	0.3383492
74	0x3e029ac8	0.12754357
75	0xbf096504	-0.5366976
76	0x3d9d9490	0.07694352
77	0xbe716fc2	-0.23577788
78	0x3db52302	0.08844568
79	0x3ef20178	0.47266746
80	0xbe39c73b	-0.18142407
81	0xbd101de5	-0.03518476
82	0x3eb198ee	0.3468699
83	0x3ec06fd0	0.37585306
84	0xbe30372e	-0.1720855
85	0x3f0b43d6	0.54400384
86	0xbdf77a48	-0.1208387
87	0xbecb0ba7	-0.39657328
88	0x3dab46ff	0.08363151
89	0x3e24ad61	0.16081764
90	0x3e12d32f	0.14338373
91	0xbee82832	-0.45343167
92	0x3ea9abb0	0.331388
93	0xbe3f4b18	-0.1868099
94	0x3e8900f2	0.26758534
95	0x3e59b7f1	0.21261574
96	0x3e3b2d49	0.18278994
97	0x3f2237a3	0.63366145
98	0x3d5dc5f7	0.054143872
99	0xbe864025	-0.26220813
100	0x3d6d17f5	0.057884175
101	0xbeb52534	-0.35379946
102	0x3e976f06	0.29576892
103	0xbec86ca0	-0.39145374
104	0x3e272351	0.16322066
105	0xbc298244	-0.010345999
106	0x3e49fb99	0.19724883
107	0x3e868f14	0.26281035
108	0xbf21a79b	-0.6314637
109	0x3e8fea87	0.28108618
110	0xbeb95656	-0.36198682
111	0xbe8b6be6	-0.27230757
112	0xbe4f3884	-0.20236403
113	0x3d7b02cb	0.06128196
114	0x3d85a37d	0.065253235
115	0x3d22bfc5	0.039733667
116	0xbe7127b8	-0.23550308
117	0x3e1683ab	0.14698665
118	0x3e71ce6b	0.23613898
119	0x3de8682c	0.11347994
120	0xbe069c21	-0.13145496
121	0x3e8384a7	0.25687143
122	0x3e2b306a	0.16717687
123	0xbe30577e	-0.17220876
124	0x3ec2e2c8	0.38063645
125	0x3e45aee3	0.19304995
126	0xbd301cb0	-0.04299611
127	0xbde554b8	-0.111977994
128	0xbd99814c	-0.074953645
129	0xbe7a4a8d	-0.24442501
130	0x3e8c20ef	0.27368876
131	0x3f4ad0b5	0.7922471
132	0xbd7535b4	-0.05986567
133	0x3ebb18ad	0.36542264
134	0xbbba85b1	-0.005692207
135	0xbe82fca0	-0.25583363
136	0xbee8383a	-0.45355397
137	0x3d2a2961	0.04154337
138	0x3e852182	0.26002127
139	0xbdc0ca1a	-0.09413548
140	0xbda9679b	-0.08271714
141	0x3cf7d0fe	0.030251022
142	0xbe4debdc	-0.20109504
143	0x3c80a1f5	0.015702227
144	0x3d885654	0.06657091
145	0x3e4a0381	0.19727899
146	0x3e1161a9	0.1419741
147	0xbd0bf44e	-0.034168534
148	0x3f0668b1	0.52503496
149	0x3e1a403c	0.15063566
150	0x3e9ec45f	0.31009194
151	0xbeb464e0	-0.35233212
152	0x3ea5f602	0.32414252
153	0x3edbe836	0.429506
154	0x3dbc4d3f	0.09194421
155	0x3e9a7f9a	0.30175477
156	0x3ede23c2	0.43386656
157	0xbc491c77	-0.012274853
158	0x3d0b9522	0.03407777
159	0x3f0e48fb	0.5558011
160	0xbea3850d	-0.31937447
161	0x3ea899ec	0.32929933
162	0x3ddafdce	0.10692941
163	0xbe5eb0ee	-0.21747181
164	0xbe9385ac	-0.2881292
165	0x3dc3ff0c	0.09570131
166	0x3e8056c2	0.2506619
167	0x3deb9166	0.11502342
168	0x3dfed4bf	0.12442922
169	0xbe525f8a	-0.20544258
170	0xbd7c8463	-0.06164969
171	0xbe94aa99	-0.29036406
172	0x3ea66c6d	0.32504597
173	0x3f0f1b36	0.55900896
174	0x3eab7fbd	0.33495894
175	0xbe92fee2	-0.28710085
176	0xbda35cbe	-0.079766735
177	0x3f21d5f9	0.6321712
178	0xbf29430e	-0.6611794
179	0x3ec8af9b	0.39196476
180	0x3eae99b9	0.34101656
181	0xbe110d12	-0.14165142
182	0x3ea4c023	0.3217784
183	0x3eb3457f	0.3501396
184	0x3ef3ea7e	0.4763984
185	0x3f4b9e7b	0.79538697
186	0xbdfbab65	-0.1228855
187	0x3dbd2c24	0.09236935
188	0x3e85fd83	0.26169977
189	0xbf017758	-0.5057273
190	0x3d2b1854	0.041771248
191	0x3db4517e	0.08804606
192	0x3ec6f757	0.3886058
193	0xbe66ea13	-0.2255023
194	0xba9a8616	-0.0011789228
195	0xbebf7345	-0.3739263
196	0xbe2dc260	-0.1696868
197	0xbe97d41f	-0.29654023
198	0x3d4d9702	0.05019284
199	0xbe2d77ad	-0.16940184
200	0xbf161b01	-0.58634955
201	0x3e7e4221	0.24829914
202	0xbe445b7e	-0.19175526
203	0x3e41695f	0.18887852
204	0x3da20010	0.07910168
205	0x3ed7fb39	0.42183855
206	0x3dd0c0f8	0.10193056
207	0x3e13b424	0.14424187
208	0x3dd1125f	0.10208582
209	0x3eeb7122	0.4598475
210	0x3e04fcd0	0.12987065
211	0x3e338d63	0.17534404
212	0x3e3d03a7	0.18458425
213	0xbde951e1	-0.1139257
214	0x3eb5ea5b	0.35530362
215	0xbe80bcec	-0.25144136
216	0x3f0fcb63	0.5616972
217	0xbe4004ae	-0.18751785
218	0x3dc8129e	0.09769176
219	0xbca97a83	-0.020688301
220	0xbe05defb	-0.13073342
221	0x3c2f1075	0.010685076
222	0x3e3ee262	0.18641046
223	0xbe87f8bc	-0.26556957
224	0x3ef16964	0.4715072
225	0x3ec348e9	0.38141564
226	0xbd168629	-0.03674904
227	0xbf1c9e78	-0.61179304
228	0x3dc83125	0.097749986
229	0x3e5133e1	0.20429946
230	0x3e0ae6ee	0.13564655
231	0x3d2ee8a8	0.042702347
232	0xbf0d0510	-0.5508585
233	0x3d37f910	0.04491526
234	0x3f2d55f2	0.6770927
235	0x3ce8bda4	0.02841074
236	0x3f10b80b	0.5653083
237	0xbe8af78f	-0.27141997
238	0xbf099893	-0.53748435
239	0x3e87a67d	0.26494208
240	0xbf3586d2	-0.70908844
241	0xbd0a5c27	-0.03377929
242	0x3ecb04cb	0.39652094
243	0x3e22ab85	0.15885742
244	0xbe2838af	-0.16427873
245	0x3e7ed189	0.24884619
246	0x3e48ebeb	0.19621246
247	0xbed131c3	-0.40858278
248	0x3e9dac9a	0.30795747
249	0xbd8b4c33	-0.06801643
250	0xbea6cd56	-0.32578534
251	0x3ee64145	0.44971672
252	0xbf21e4dd	-0.6323984
253	0xbcd4dcc4	-0.025984176
254	0xbd841f72	-0.0645131
255	0x3ed1b4ae	0.4095816

weight f4 [24]
0	0x3e805d9e	0.25071424
1	0x3e6e04dc	0.23244041
2	0x3e85afad	0.26110592
3	0x3e872da5	0.26402012
4	0x3e725ddd	0.23668619
5	0x3e69ccdd	0.22832055
6	0x3e664799	0.2248825
7	0x3e7beb4f	0.24601482
8	0x3e89f50b	0.26944765
9	0x3e68c3f7	0.22731005
10	0x3e84cb51	0.25936368
11	0x3e98337a	0.29726774
12	0x3e6a8986	0.22904024
13	0x3e8faeb7	0.28062984
14	0x3e63d085	0.22247513
15	0x3e84fb6c	0.2597307
16	0x3e6f70e1	0.23382904
17	0x3e8c8c71	0.27450898
18	0x3e934a40	0.28767586
19	0x3e8a236a	0.26980144
20	0x3e898ba8	0.26864362
21	0x3e7420f9	0.23840703
22	0x3e7272c7	0.23676597
23	0x3e551a99	0.20810927

weight f4 [24, 24, 3]
0	0x3d68b038	0.05680868
1	0x3d4652f2	0.048418947
2	0x3d2ac587	0.041692283
3	0x3dbef536	0.09324114
4	0x3da97674	0.08274546
5	0x3d378950	0.044808686
6	0xbd7d43d2	-0.061832257
7	0xbd17e89b	-0.037087064
8	0x3e31f841	0.17379858
9	0xbdad4245	-0.084599055
10	0x3d5b0abe	0.05347704
11	0x3e2bc985	0.16776092
12	0xbd324982	-0.043527134
13	0xbec28a98	-0.37996364
14	0x3e1494f9	0.14509954
15	0xbdfcabc3	-0.123374484
16	0x3e47f289	0.19526114
17	0x3cd81dac	0.026381336
18	0x3e91b3be	0.28457445
19	0xbef95e2e	-0.48704666
20	0xbe4e5a5a	-0.20151654
21	0x3d44aa0d	0.048013736
22	0xbdc29733	-0.09501495
23	0x3ea1d63a	0.31608754
24	0xbe48ac4d	-0.19596978
25	0x3dca6a21	0.09883524
26	0xbdd00aa2	-0.10158278
27	0x3e8d72a0	0.27626514
28	0x3e233a99	0.15940322
29	0x3ea378b0	0.31928015
30	0x3d254649	0.040350232
31	0xbe430ede	-0.1904864
32	0xbc9165d1	-0.017748745
33	0xbe07c931	-0.13260342
34	0x3e18a6f3	0.14907436
35	0x3e5f0f9b	0.21783297
36	0x3e0f0017	0.13964878
37	0x3e3e2051	0.18567015
38	0x3c787ece	0.015166951
39	0x3d5c3930	0.053765476
40	0x3e3e2870	0.18570113
41	0x3ea29ac1	0.31758693
42	0xbe21b9a1	-0.15793468
43	0xbc16b29e	-0.009197859
44	0xbe823f4b	-0.25438914
45	0x3e55c1bc	0.20874685
46	0x3d6e30bb	0.05815194
47	0x3e1c2967	0.15250169
48	0xbe641482	-0.22273448
49	0xbde80ff3	-0.11331167
50	0xbc321373	-0.010868895
51	0xbdd152d9	-0.1022088
52	0xbdaa4adc	-0.083150595
53	0xbdab5b85	-0.08367065
54	0x3e7e0446	0.24806318
55	0xbe9bfe50	-0.30467463
56	0xbe2e33d1	-0.17011954
57	0xbe7f960f	-0.24959587
58	0x3e1907bf	0.14944361
59	0xbe48561c	-0.19564098
60	0xbd16cdf6	-0.036817513
61	0x3e26b918	0.16281545
62	0x3cf5bcc3	0.029997235
63	0xbe751a30	-0.23935771
64	0x3e272690	0.16323304
65	0x3ddb31be	0.10702847
66	0x3e1853b8	0.14875686
67	0x3db5461d	0.08851264
68	0xbe841997	-0.25800774
69	0xbe2ff3d1	-0.17182852
70	0xbe1cbae5	-0.1530567
71	0xbc371651	-0.011174754
72	0x3dd4c795	0.1038963
73	0x3eb98425	0.3623363
74	0x3d1e1512	0.038594313
75	0xbd42340c	-0.047412917
76	0xbd63e792	-0.055640765
77	0xbda65eda	-0.0812356
78	0x3e673f1c	0.22582668
79	0xba986d08	-0.0011629174
80	0x3d0ae3e9	0.03390876
81	0xbd6491ea	-0.055803217
82	0x3d1fd08c	0.039017245
83	0xbe11aa8a	-0.14225212
84	0x3c5c3d68	0.013442375
85	0xbd497e53	-0.049192738
86	0xbc96cc62	-0.018408004
87	0x3dee3dbd	0.116328694
88	0x3d3a260c	0.04544644
89	0xbddb31a9	-0.10702831
90	0x3dd3e5d5	0.10346571
91	0x3bd18fd3	0.006395319
92	0x3e01785a	0.12643567
93	0xbf205596	-0.62630594
94	0xbe962da7	-0.29331705
95	0x3dce7d87	0.10082536
96	0xbe3d6573	-0.18495731
97	0xbe18db4a	-0.14927402
98	0x3e8cb7b5	0.27483907
99	0xbc7b0b41	-0.015322507
100	0xbe39c3f5	-0.18141158
101	0x3d8bdddd	0.068294264
102	0x3e9b4911	0.30329183
103	0xbde9e6b6	-0.11420958
104	0x3e1c867c	0.15285677
105	0x3dbd3e20	0.09240365
106	0x3e39914a	0.1812183
107	0x3e8b4b7f	0.27206036
108	0x3d373785	0.044730682
109	0xbd90b21d	-0.070652224
110	0xbe0141f3	-0.12622814
111	0x3e17bf07	0.14818965
112	0x3ce4e822	0.02794272
113	0xbefbfcc9	-0.49216297
114	0xbc02a355	-0.007973512
115	0xbde0f599	-0.10984344
116	0x3d72cee6	0.059279345
117	0x3e29708c	0.1654684
118	0xbe30722c	-0.17231053
119	0xbdc37330	-0.09543455
120	0x3cb23976	0.021755915
121	0x3d44a726	0.048010968
122	0xbed31a7a	-0.41231138
123	0x3e2da550	0.16957593
124	0xbe791ab8	-0.24326599
125	0x3b06155f	0.0020459516
126	0xbcd58f24	-0.026069231
127	0xbcfd35e2	-0.030909482
128	0x3c2888bc	0.010286506
129	0xbdc3b243	-0.09555485
130	0xbec5bfe0	-0.38622952
131	0x3e0cbabd	0.1374311
132	0x3e0d633f	0.1380739
133	0x3ed3966c	0.413257
134	0xbc8cade4	-0.017172761
135	0x3cdc3cdb	0.026884487
136	0x3d3e9fb0	0.04653901
137	0x3994f0ec	0.0002840826
138	0x3d58086f	0.052742418
139	0xbce4c3c5	-0.027925381
140	0x3e2b9238	0.16754997
141	0xbdf326ae	-0.11872612
142	0xbee4e497	-0.4470565
143	0xbc894ecf	-0.016761212
144	0x3defb9ea	0.11705382
145	0xbd3c3276	-0.04594656
146	0x3d96484e	0.0733801
147	0x3e8a0e77	0.2696416
148	0xbe20af71	-0.15691926
149	0x3d5e3f40	0.05425954
150	0xbd9fac15	-0.07796494
151	0xbd528afb	-0.051402073
152	0x3c8c7198	0.01714401
153	0xbe0bb4ab	-0.13643138
154	0x3c2bd3ef	0.010487541
155	0xbe4321be	-0.1905584
156	0x3d1cd3cd	0.038287926
157	0xbd27f28d	-0.0410028
158	0xbd9c5506	-0.076334044
159	0x3e404d1d	0.18779416
160	0x3e074669	0.13210453
161	0xbdd0e113	-0.101991795
162	0xbe863c68	-0.2621796
163	0x3da3e318	0.08002299
164	0xbe8e02a7	-0.277364
165	0xbedb670e	-0.42852062
166	0xbd36e1a0	-0.044648767
167	0xbe312135	-0.17297824
168	0xbeca3496	-0.39493245
169	0x3e690861	0.22757103
170	0x3e45e259	0.19324626
171	0xbced8723	-0.028995102
172	0x3e6d1b93	0.2315505
173	0xbe724728	-0.23659956
174	0xbb36dbd2	-0.002790202
175	0xbdfbde31	-0.12298239
176	0xbda1dcc9	-0.079034396
177	0xbdcdfd6c	-0.10058102
178	0xbe654b54	-0.22392017
179	0x3dd1da16	0.10246675
180	0x3c776b6b	0.015101294
181	0x3cc8afaf	0.024497835
182	0xbe42cdae	-0.19023773
183	0x3c82e56e	0.015978541
184	0xbdeae16d	-0.11468778
185	0xbda79789	-0.081832
186	0xbccb8d30	-0.024847597
187	0x3c9068be	0.01762807
188	0x3de62ebd	0.11239383
189	0x3e1cd6c2	0.15316299
190	0x3e078158	0.13232934
191	0xbe11fa8f	-0.14255737
192	0xbe1aaf93	-0.15106039
193	0x3d8ce372	0.06879319
194	0x3da3824d	0.07983837
195	0xbe28c05d	-0.16479631
196	0x3e1508eb	0.14554183
197	0x3e507231	0.2035606
198	0xbe1fbab5	-0.15598567
199	0x3c2ec370	0.010666713
200	0x3e783230	0.24237895
201	0xbdae9173	-0.08523836
202	0x3d26da98	0.04073581
203	0xbd6cc45c	-0.05780445
204	0x3d87debd	0.06634281
205	0xbebdbec3	-0.37059602
206	0xbe0dfdcb	-0.13866346
207	0x3c20810e	0.009796394
208	0x3e60dd05	0.21959312
209	0x3e2afbc0	0.16697598
210	0xbdcef58c	-0.10105428
211	0x3e82fd66	0.25583953
212	0x3cbac324	0.022798128
213	0xbd02c8d8	-0.03192982
214	0x3d0d29bc	0.03446363
215	0xbe9ca4a0	-0.3059435
216	0xbe8631f4	-0.26209986
217	0x3daed58e	0.08536826
218	0xbc85a415	-0.016313592
219	0xbe4d4e99	-0.20049514
220	0xbd21ea4c	-0.039530084
221	0x3c18e506	0.009331947
222	0x3cd8ff4f	0.026488928
223	0x3deb50ba	0.11490007
224	0xbe5dfaf5	-0.21677764
225	0xbdcf65cb	-0.10126837
226	0x3e5bb5c9	0.21456064
227	0xbdbd4203	-0.09241106
228	0x3b01dc6b	0.0019815217
229	0x3e8596d6	0.2609164
230	0xbda38c48	-0.07985741
231	0x3d754651	0.059881512
232	0xbea8dc2d	-0.3298048
233	0xbddf1f8b	-0.10894688
234	0xbe3651af	-0.17804597
235	0xbdfd915f	-0.12381243
236	0x3db8be82	0.090207115
237	0xbe5b7ee0	-0.21435118
238	0xbe972185	-0.2951776
239	0xbdab7aa0	-0.08372998
240	0xbe6a9178	-0.22907054
241	0xbdb0c05c	-0.0863044
242	0xbe6fe08b	-0.234255
243	0x3c1b2dc5	0.0094713615
244	0xbdec8ccf	-0.115502946
245	0xbd9650ba	-0.07339616
246	0xbe85a999	-0.26105955
247	0xbdea55bf	-0.11442136
248	0xbe2d432b	-0.16920154
249	0x3dc3e067	0.09564286
250	0xbcd42622	-0.02589709
251	0xbd50e63c	-0.05100082
252	0x3e016a36	0.12638173
253	0xbddb066b	-0.106945835
254	0x3e53b532	0.2067459
255	0x3dbe5d73	0.09295168

bias f4 [24]
0	0xbde220c2	-0.11041404
1	0xbd8bab3f	-0.06819772
2	0xbc619e12	-0.013770597
3	0x3db4db62	0.088309065
4	0x3cbcb533	0.023035621
5	0x3dae0f8c	0.08499059
6	0xbd9c9ba7	-0.07646876
7	0xbddc094d	-0.107439615
8	0xbd475a2c	-0.04866998
9	0x3dd98874	0.106217295
10	0xbd9ebc91	-0.0775081
11	0x3e068103	0.13135152
12	0xbbf36385	-0.007427635
13	0x3d175ac5	0.0369518
14	0xbded58bd	-0.11589191
15	0x3d8963af	0.06708466
16	0xbd30be03	-0.04314996
17	0xbcb7e519	-0.02244811
18	0xbda32239	-0.07965512
19	0xbd24f7b3	-0.040275287
20	0xbb76d9e7	-0.00376665
21	0xbcc6d116	-0.024269622
22	0x3da53e7f	0.08068561
23	0xbdc623a7	-0.09674769

weight f4 [24]
0	0x3e801ac5	0.25020424
1	0x3e870346	0.26369685
2	0x3e8a8511	0.27054647
3	0x3e87b629	0.26506165
4	0x3e7d5700	0.24740219
5	0x3e7636aa	0.2404429
6	0x3e67cd9a	0.22637025
7	0x3e8dd41a	0.27700883
8	0x3e6a514c	0.22882575
9	0x3e65f0ed	0.22455187
10	0x3e8dfe50	0.27733088
11	0x3e6e9dff	0.23302458
12	0x3e858f70	0.26085997
13	0x3e8756d2	0.26433426
14	0x3e88d8b8	0.26727843
15	0x3e893393	0.2679716
16	0x3e70f166	0.23529586
17	0x3e6c495d	0.23074861
18	0x3e687be6	0.22703514
19	0x3e813fdd	0.25244036
20	0x3e80e432	0.251741
21	0x3e6cc8df	0.23123501
22	0x3e76db9a	0.24107209
23	0x3e6a280a	0.22866836

weight f4 [24, 24, 3]
0	0xbdae7424	-0.08518246
1	0xbe9201f4	-0.28517115
2	0xbe2a49b6	-0.16629681
3	0x3e2cdb84	0.16880614
4	0x3d7090d6	0.058731876
5	0x3d426d1f	0.047467347
6	0x3c4a69ed	0.012354356
7	0x3e073d84	0.1320706
8	0xbc87c021	-0.016571106
9	0xbe196a07	-0.14981852
10	0x3bb6b87e	0.0055761924
11	0xbe789bb9	-0.24278153
12	0x3e822863	0.25421438
13	0xbdfe49c0	-0.124164104
14	0xbdcdfab0	-0.100575805
15	0x3e4c2ede	0.19939753
16	0x3e1fe4ab	0.15614574
17	0x3d65eb06	0.05613234
18	0x3e077f56	0.13232169
19	0xbda27a9b	-0.079335414
20	0x3dd60f55	0.10452143
21	0xbeb64342	-0.3559819
22	0x3ea48d9a	0.32139283
23	0x3dcb6206	0.09930806
24	0x3ea980bd	0.33106032
25	0xbe57ff45	-0.21093471
26	0xbdc06cbd	-0.0939574
27	0x3dc92d7c	0.098231286
28	0xbe726341	-0.23670675
29	0xbd8f2da3	-0.069911264
30	0x3e045cef	0.12926076
31	0x3de611d2	0.11233868
32	0xbdbb2bab	-0.091391884
33	0xbdc1b441	-0.09458209
34	0xbe252c76	-0.16130242
35	0xbda9fe63	-0.083004735
36	0xbe7bc745	-0.24587734
37	0xbdb80e3b	-0.08987089
38	0x3d67c576	0.056584798
39	0x3d915d2e	0.07097851
40	0xbc55c9bf	-0.013048588
41	0x3d8f7b21	0.07005907
42	0x3e02531c	0.12727016
43	0xbe00f311	-0.12592722
44	0xbd8296c4	-0.063764125
45	0xbdad0df6	-0.084499285
46	0x3d8d6afb	0.069051705
47	0x3e572113	0.2100871
48	0x3d375a6e	0.044763975
49	0xbe73f6fa	-0.23824683
50	0x3e06531e	0.13117644
51	0xbe805c20	-0.25070286
52	0xbe3e38d1	-0.18576361
53	0x3d0e3010	0.034713805
54	0x3dca9b63	0.09892919
55	0x3d978bbf	0.07399701
56	0xbecba973	-0.39777717
57	0xbe170e33	-0.1475151
58	0xbde57481	-0.11203862
59	0xbe0a9c28	-0.13536131
60	0x3e6f15b7	0.23348127
61	0xbe95d434	-0.2926346
62	0xbdb46297	-0.08807867
63	0xbe71ae2b	-0.23601596
64	0x3d1dd9c5	0.03853776
65	0x3da9a6ed	0.08283792
66	0xbcaaf5fa	-0.020869244
67	0x3e27321d	0.1632771
68	0xbe0aa4d6	-0.13539442
69	0x3e6468cd	0.22305603
70	0x3e70aa60	0.23502493
71	0x3e25e425	0.16200311
72	0xbc6258c6	-0.013815111
73	0xbe012a00	-0.12613678
74	0x3d617758	0.055045456
75	0xbda8bc5a	-0.0823905
76	0x3dd1e837	0.102493696
77	0xbe12ef6a	-0.14349142
78	0x3edcc2d4	0.43117392
79	0xbe81426a	-0.25245982
80	0x3c84f038	0.016227826
81	0x3eb3c327	0.35109827
82	0xbe30f900	-0.17282486
83	0x3ea76682	0.32695395
84	0xbe70f30f	-0.2353022
85	0x3d1e2495	0.038609106
86	0xbe0122bf	-0.12610911
87	0x3d2cce49	0.042188916
88	0xbc7d4df4	-0.01546048
89	0x3e8d5460	0.27603436
90	0x3c39a5f6	0.011331072
91	0xbe4a8cbb	-0.19780247
92	0xbe8a57f1	-0.2702022
93	0xbd2ade0b	-0.041715663
94	0x3e9821db	0.2971333
95	0x3e1213bd	0.14265342
96	0xbda9da85	-0.082936324
97	0xbc842ea8	-0.016135529
98	0xbbb23cd1	-0.005439379
99	0xbddb4586	-0.1070662
100	0xbe510426	-0.20411739
101	0x3d3a73c1	0.045520548
102	0x3daf334f	0.08554708
103	0x3e6a4fe5	0.2288204
104	0x3dab25e6	0.08356838
105	0xbd9d2202	-0.07672502
106	0x3e91b373	0.2845722
107	0x3db82354	0.08991113
108	0x3e7398c1	0.2378874
109	0x3e9213a3	0.28530607
110	0xbea1664b	-0.31523356
111	0x3d929bba	0.07158609
112	0x3d10831b	0.035281282
113	0x3ba8d5df	0.0051524485
114	0xbd168c1b	-0.03675471
115	0xbdcba96a	-0.099444225
116	0xbe839b0f	-0.25704238
117	0x3da04fef	0.07827746
118	0xbe381001	-0.17974855
119	0x3ede7ebb	0.43456063
120	0xbe74ec4f	-0.2391827
121	0x3d9ee486	0.07758431
122	0xbdba4c53	-0.09096589
123	0x3e3e9834	0.18612748
124	0xbe52c705	-0.20583732
125	0x3e009648	0.12557328
126	0xbd593cf0	-0.05303663
127	0x3bb6ad57	0.005574863
128	0xbdc9d2f0	-0.09854686
129	0xbe2735bd	-0.16329093
130	0xbe0c903b	-0.13726895
131	0x3d5781e3	0.052614104
132	0xbdac35f6	-0.0840873
133	0x3d16cddc	0.036817417
134	0xbd4d3d6a	-0.050107397
135	0x3d9eebc8	0.077598155
136	0x3de2adc7	0.11068302
137	0x3df99df8	0.12188333
138	0x3e079ef3	0.13244228
139	0x3e0adec5	0.13561542
140	0x3d6afa5d	0.05736767
141	0x3ddbd752	0.107344285
142	0xbe5a4a7c	-0.21317476
143	0x3ca3e38b	0.020005962
144	0xbe57f1b6	-0.21088299
145	0xbd9e866a	-0.07740481
146	0xbe2890c9	-0.16461481
147	0x3dee6580	0.11640453
148	0xbc679451	-0.0141344825
149	0x3df87f2a	0.121336296
150	0xbd04c12a	-0.032410778
151	0xbdaca28d	-0.084294416
152	0x3e254314	0.1613887
153	0x3eccefe0	0.4002676
154	0x3e9923de	0.29910177
155	0xbecb1fd5	-0.39672723
156	0xbe1474c0	-0.14497662
157	0x3e0f3391	0.13984515
158	0xbe62f1df	-0.22162579
159	0x3e5adba0	0.21372843
160	0xbed0285b	-0.4065579
161	0x3cc049d7	0.02347271
162	0x3da111e0	0.078647375
163	0xbc009a35	-0.007849266
164	0xbdf33849	-0.1187597
165	0xbe69d046	-0.22833356
166	0xbe6c02a5	-0.23047884
167	0xbe82cd3c	-0.25547206
168	0xbea74719	-0.3267143
169	0xbe8181c2	-0.2529431
170	0x3d9c6731	0.0763687
171	0x3d8edaec	0.0697535
172	0x3ba0955a	0.0049006166
173	0x3e169670	0.14705825
174	0xbea48b42	-0.32137495
175	0x3d5cd277	0.053911652
176	0x3e65fbec	0.22459382
177	0x3e19657f	0.14980124
178	0xbe1df292	-0.15424564
179	0x3e329a9e	0.17441794
180	0x3e21b053	0.15789919
181	0xbe4711ea	-0.19440427
182	0x3e24c4d6	0.16090712
183	0xbdd8478b	-0.10560521
184	0xbbdfeade	-0.0068334183
185	0xbe02c6e4	-0.12771183
186	0x3de77053	0.11300721
187	0xba3e9f4e	-0.0007271663
188	0xbe5f169c	-0.21785969
189	0x3e0ef507	0.13960658
190	0x3dca018d	0.09863577
191	0x3d9e0258	0.07715291
192	0xbe951859	-0.29120138
193	0xbd09cc69	-0.033642206
194	0xbdd71c52	-0.105034485
195	0xbe13d15a	-0.1443533
196	0xbe01fa6e	-0.12693188
197	0xbe87077d	-0.263729
198	0x3e4e61bd	0.20154472
199	0x3e39c297	0.18140636
200	0x3e587d34	0.21141511
201	0xbe876871	-0.2644687
202	0xbd148730	-0.036261737
203	0x3d43baa5	0.04778542
204	0x3d00b58d	0.03142314
205	0x3e2b79a1	0.16745616
206	0x3df499c7	0.11943393
207	0xbebedaa6	-0.3727619
208	0xbdb690ce	-0.08914338
209	0x3d97472d	0.073866226
210	0xbdad45ca	-0.08460577
211	0x3e17618b	0.14783303
212	0x3e25c301	0.1618767
213	0xbe102029	-0.14074768
214	0xbe73ac24	-0.23796135
215	0x3ea52b3b	0.32259545
216	0xbd1a58c8	-0.037682325
217	0x3ea1909c	0.3155564
218	0x3da2e4a1	0.07953764
219	0x3d899385	0.0671759
220	0x3d9ece76	0.07754223
221	0x3e55bb19	0.20872153
222	0x3d8f1263	0.06985929
223	0x3e7aa744	0.2447787
224	0xbc3b9c0a	-0.011450777
225	0x3d9cb2ca	0.07651289
226	0xbca3c365	-0.019990632
227	0x3c398e04	0.011325363
228	0xbdd7e4e7	-0.105417065
229	0xbe95ed9b	-0.2928284
230	0x3cada729	0.021197872
231	0x3e7aa2c2	0.2447615
232	0x3d97402d	0.073852874
233	0xbcaab496	-0.020838063
234	0x3d944a54	0.072407395
235	0xbdbc049e	-0.09180568
236	0x3db9dfa6	0.09075861
237	0xbeab49eb	-0.33454832
238	0xbc638cfd	-0.013888595
239	0xbc46ebd5	-0.012141188
240	0xbd68f256	-0.056871735
241	0x3dc58a90	0.09645569
242	0xbea52276	-0.32252854
243	0xbe92a9a5	-0.28645054
244	0xbde4de0c	-0.111751646
245	0xbd87b12a	-0.06625588
246	0x3e85e42b	0.2615064
247	0xbe2224e5	-0.15834387
248	0xbd3119c9	-0.04323748
249	0x3d8594b8	0.065225065
250	0xb909ca49	-0.00013140695
251	0x3e4e244f	0.20131038
252	0xbcd01e1f	-0.025404988
253	0xbdf72da3	-0.120692514
254	0xbde7d9f4	-0.11320868
255	0x3efd17a3	0.49432096

bias f4 [24]
0	0x3d840d34	0.06447831
1	0xbdddd828	-0.10832244
2	0xbd685135	-0.05671807
3	0xbd70259f	-0.05862963
4	0xbddf805a	-0.10913153
5	0x3d84b23e	0.064793095
6	0x3d9768ae	0.07393013
7	0xbd565993	-0.05233152
8	0x3d3f4645	0.046697874
9	0xbd2a9e38	-0.041654795
10	0x3c4567c9	0.01204867
11	0xbae14058	-0.0017185314
12	0xbca702c6	-0.020387065
13	0xbb1a9a56	-0.0023590527
14	0xbd08f80f	-0.033439692
15	0xbd62f72a	-0.055411495
16	0x3da4e5b0	0.08051622
17	0xbdb61e25	-0.08892468
18	0xbd9b1890	-0.07573044
19	0xbda97623	-0.08274486
20	0x3c78dc7b	0.015189285
21	0xbbe54880	-0.006997168
22	0x3d469efb	0.04849146
23	0xbdc1e905	-0.09468273

weight f4 [24]
0	0x3e6e04c2	0.23244002
1	0x3e88f789	0.26751354
2	0x3e6ea4be	0.23305032
3	0x3e67f02c	0.22650212
4	0x3e805699	0.2506607
5	0x3e6772de	0.22602412
6	0x3e7d9c72	0.2476671
7	0x3e8c31c3	0.27381715
8	0x3e6a6469	0.22889866
9	0x3e71d681	0.23616983
10	0x3e67fa09	0.22653975
11	0x3e730d9b	0.23735659
12	0x3e6d357a	0.23164931
13	0x3e7a6191	0.24451281
14	0x3e5d1d71	0.21593262
15	0x3e76de11	0.24108149
16	0x3e80bdec	0.251449
17	0x3e7547e6	0.23953208
18	0x3e7d975d	0.24764772
19	0x3e729046	0.23687848
20	0x3e6fecbd	0.23430152
21	0x3e77aa83	0.24186139
22	0x3e58da3f	0.21177004
23	0x3e849a76	0.25899094

weight f4 [24, 24, 3]
0	0x3c82e298	0.015977189
1	0xbd9f088d	-0.07765303
2	0xbdfa6078	-0.12225431
3	0x3e531247	0.20612441
4	0x3d2c6e83	0.04209758
5	0xbe0f75f8	-0.14009845
6	0x3e86be67	0.2631714
7	0xbdce1eaf	-0.10064446
8	0x3dff739d	0.12473223
9	0x3e9bf589	0.30460766
10	0xbe50495f	-0.20340489
11	0x3dc0d145	0.09414915
12	0xbe018744	-0.12649256
13	0x3e3636c5	0.1779433
14	0x3db97bf9	0.09056849
15	0x3e2eb877	0.17062555
16	0xbce0cda5	-0.027441809
17	0x3bb1e4c8	0.005428884
18	0xbde99c9c	-0.11406824
19	0xbe593e76	-0.21215233
20	0xbded75db	-0.11594745
21	0xbd794afa	-0.06086252
22	0xbd92c762	-0.071669355
23	0x3dbff9c7	0.09373813
24	0x3e20771c	0.15670437
25	0x3da6750b	0.08127793
26	0xbe246128	-0.16052687
27	0x3d8d0e86	0.06887536
28	0x3bcea563	0.0063063367
29	0x3dff63e8	0.124702275
30	0x3e067bd4	0.13133174
31	0xbe89e958	-0.2693584
32	0xbde253e3	-0.11051156
33	0xbe0cc1a6	-0.13745746
34	0x3c25991b	0.010107304
35	0x3eabff3d	0.3359317
36	0x3e3510f5	0.1768225
37	0xbe3cab0e	-0.18424627
38	0x3e2ab9f7	0.16672502
39	0xbe555339	-0.20832528
40	0xbe22d340	-0.15900898
41	0x3e77a0bb	0.24182408
42	0x3cb8d33a	0.022561658
43	0xbe759bc2	-0.23985198
44	0x3e62c435	0.2214516
45	0xbe441d80	-0.19151878
46	0xbca438d0	-0.020046622
47	0x3e1b0055	0.15136845
48	0x3e21ec86	0.15812883
49	0x3dc70fd1	0.097198136
50	0xbd87ea3f	-0.06636476
51	0x3beae342	0.0071682045
52	0x3d510fda	0.051040508
53	0x3dc57199	0.09640808
54	0xbd80eb92	-0.062949315
55	0x3e0c8710	0.13723397
56	0xbd95f2b8	-0.073216856
57	0xbd80e432	-0.06293525
58	0xbe6cfda9	-0.23143639
59	0xbf02de39	-0.51120335
60	0xbe52340e	-0.2052767
61	0x3d8f6fd3	0.07003751
62	0xbe8806b1	-0.26567605
63	0xbd80c9a0	-0.06288457
64	0xbeada648	-0.33915925
65	0xbcc65cc5	-0.024214158
66	0x3d5c1ea0	0.053740144
67	0xbe84ff89	-0.25976208
68	0xbe118678	-0.14211452
69	0x3d64769b	0.055777173
70	0xbe19df56	-0.15026602
71	0x3e900090	0.2812543
72	0x3dc37fcc	0.0954586
73	0x3eae9549	0.3409827
74	0x3e905e2f	0.28196856
75	0x3d9e7f95	0.07739178
76	0x3d98cee0	0.07461333
77	0xbcabf334	-0.020989992
78	0x3e803c83	0.25046167
79	0xbd286037	-0.041107383
80	0x3e96969e	0.29411787
81	0xbdf04b4d	-0.117331125
82	0xbe45167e	-0.19246861
83	0x3d14aa66	0.036295317
84	0x3e0125c5	0.12612064
85	0x3e119d30	0.14220119
86	0x3dc4c432	0.09607734
87	0x3dead711	0.11466802
88	0xbcbb223a	-0.022843469
89	0xbe65d03f	-0.22442721
90	0xbbf03ecd	-0.007331705
91	0x3e1b6153	0.15173845
92	0xbe0be043	-0.13659768
93	0x3e87d6f9	0.265312
94	0xbe2316f8	-0.1592673
95	0xbe063db6	-0.13109478
96	0xbd830438	-0.06397289
97	0xbe939432	-0.28824002
98	0xbe5b63d7	-0.21424805
99	0xbdc385d4	-0.0954701
100	0xbd42d8b6	-0.047569953
101	0xbdd28820	-0.1027987
102	0x3dbbd12d	0.091707565
103	0xbe02cd7d	-0.127737
104	0x3ea9ef03	0.33190164
105	0x3e428a2b	0.1899802
106	0x3daa4a60	0.08314967
107	0xbe7e61c0	-0.24841976
108	0xbe21532d	-0.15754385
109	0x3eb460fd	0.35230246
110	0x3c20aa7f	0.009806274
111	0xbe1592ca	-0.14606777
112	0x3e740137	0.23828588
113	0xbde3372e	-0.11094509
114	0xbd08f669	-0.03343812
115	0xbdb0a7e8	-0.086257756
116	0x3e8a508d	0.2701458
117	0x3e3eefd4	0.18646175
118	0x3e5f578c	0.2181074
119	0x3eb9222f	0.36158893
120	0x3ea60735	0.32427374
121	0x3d3b4338	0.0457184
122	0x3df6337c	0.120215386
123	0xbe82cff4	-0.2554928
124	0xbdb46c24	-0.08809689
125	0x3df39988	0.11894518
126	0x3a5303a6	0.0008049555
127	0x3e3d9506	0.18513879
128	0x3d5a7b2c	0.053340122
129	0xbe0e44bb	-0.13893406
130	0x3e526072	0.20544603
131	0xbcfcf5c7	-0.030878915
132	0x3dacb914	0.08433738
133	0xbcd96d08	-0.026541248
134	0xbd9bbc61	-0.0760429
135	0x3e3afe31	0.18261029
136	0x3ecf6d4e	0.4051308
137	0x3df0119b	0.11722108
138	0xbe3785a8	-0.1792208
139	0xbe14fbf1	-0.14549233
140	0xbda96de4	-0.08272913
141	0x3d737260	0.05943525
142	0xbe2a2a0c	-0.16617602
143	0x3d783ff1	0.060607854
144	0xbd1d1283	-0.038347732
145	0xbdbac246	-0.09119086
146	0xbd95ccde	-0.07314466
147	0xbdd9c52b	-0.1063331
148	0xbebb8418	-0.36624217
149	0xbbb06d26	-0.0053841053
150	0xbcaf1204	-0.021370895
151	0xbe942b99	-0.28939512
152	0xbd451bec	-0.04812233
153	0x3db772e2	0.08957459
154	0xbce0af08	-0.027427211
155	0x3e298c60	0.16557455
156	0xbd3f5f3d	-0.046721686
157	0x3cd97e54	0.026549496
158	0x3d1ffb85	0.039058227
159	0xbd3db56f	-0.046315607
160	0xbdcc7d41	-0.09984828
161	0x3ca506ef	0.020144908
162	0xbccb38f5	-0.024807433
163	0x3d860d13	0.065454625
164	0x3dcc2a04	0.09968951
165	0xbe213bcd	-0.15745468
166	0xbdade4c3	-0.084908985
167	0x3e1f6364	0.15565258
168	0x3daa4ccb	0.08315428
169	0xbdaf2f27	-0.085539155
170	0xbe962be1	-0.29330352
171	0xbdbf4f73	-0.093413256
172	0xbbded69e	-0.0068004867
173	0x3d20602c	0.039154217
174	0x3e902c3d	0.2815875
175	0xbddb700e	-0.10714732
176	0xbe7b3bb9	-0.24534501
177	0xbe9c6ec7	-0.30553266
178	0x3d5993da	0.053119518
179	0x3eeceded	0.46275273
180	0x3bd589a2	0.0065166513
181	0x3e2b5582	0.16731837
182	0xbe533528	-0.20625746
183	0xbb19325c	-0.0023375964
184	0x3e6ec956	0.23318991
185	0x3e983458	0.29727435
186	0x3dd59e76	0.10430615
187	0xbe7ed25c	-0.24884933
188	0x3e216e17	0.15764652
189	0x3e34770e	0.17623541
190	0x3d0bac1c	0.034099683
191	0x3bd60570	0.00653141
192	0xbd2ada9c	-0.04171239
193	0x3d51beb3	0.051207256
194	0xbd5b1163	-0.05348338
195	0x3d0e3276	0.034716092
196	0xbe8397a9	-0.25701645
197	0x3cf13bf6	0.029447537
198	0xbe72b80f	-0.23703025
199	0x3e025d9d	0.12731023
200	0xbea35182	-0.31898123
201	0xbaeb9db5	-0.0017976078
202	0xbe0e6649	-0.13906206
203	0x3c072eeb	0.008250932
204	0xbea15c3f	-0.3151569
205	0xbc9b3275	-0.018944958
206	0x3d52b2dc	0.051440105
207	0xbcdb00b7	-0.02673374
208	0x3c7b6f81	0.015346409
209	0x3d90949b	0.07059594
210	0xbdba387f	-0.09092807
211	0xbc3f16cc	-0.01166315
212	0xbe24137d	-0.16023059
213	0x3e288221	0.1645589
214	0x3dc9741b	0.098365985
215	0x3d0fb91b	0.03508864
216	0x3c59ae0c	0.013286125
217	0xbec6d445	-0.38833824
218	0x3ee583a8	0.44827008
219	0x3e34e182	0.1766415
220	0xbe89909e	-0.26868147
221	0xbe8b5ae4	-0.27217782
222	0xbe05aaa3	-0.13053374
223	0xba929fe1	-0.0011186564
224	0x3d95d66f	0.073162906
225	0xbe32b814	-0.17453033
226	0x3e6f4138	0.23364723
227	0xbe135a50	-0.1438992
228	0xbd558f88	-0.052138835
229	0x3d69c931	0.057076637
230	0xbe25e037	-0.16198812
231	0xbd2ac54d	-0.041692067
232	0x3e89ce41	0.26915172
233	0x3d70f86c	0.058830664
234	0x3e2ef609	0.17086042
235	0xbe95af30	-0.2923522
236	0x3e8e0065	0.27734676
237	0xbe0acdad	-0.13555022
238	0xbe9d1188	-0.30677438
239	0x3e0064f3	0.12538509
240	0xbe2663f6	-0.1624907
241	0xbeb377d7	-0.35052368
242	0x3d5465f2	0.051855035
243	0xbe935b98	-0.28780818
244	0x3e5ecd09	0.21757902
245	0xbd350fd5	-0.04420455
246	0x3e70b87a	0.23507872
247	0x3e4b1480	0.19832039
248	0xbe5ede20	-0.21764421
249	0xbed07cc5	-0.40720192
250	0x3e25128b	0.16120355
251	0xbe5a33b9	-0.21308793
252	0x3e0e9802	0.13925174
253	0x3daf0880	0.08546543
254	0xbda02cb9	-0.0782103
255	0x3c79c24d	0.015244079

bias f4 [24]
0	0x3d39b0a2	0.045334466
1	0x3c26fdaa	0.010192314
2	0xbd2660c0	-0.04061961
3	0xbd42f09c	-0.047592744
4	0x3c5f7fff	0.0136413565
5	0xbdcde04c	-0.10052547
6	0xbd863b89	-0.06554324
7	0x3c854fe9	0.016273456
8	0x3dabd200	0.08389664
9	0xbde17c65	-0.110100545
10	0xbd70f8e6	-0.058831118
11	0x3d07fcf5	0.033200223
12	0xbdb0e672	-0.08637704
13	0xbbde5bc7	-0.006785843
14	0x3d85e0b9	0.06537003
15	0xbd397244	-0.045274988
16	0x3dc2b55a	0.09507246
17	0xbd9c4181	-0.076296814
18	0xbdc6e37b	-0.09711357
19	0xbc964575	-0.018343667
20	0xbd87fe86	-0.06640343
21	0xbdd0bcfc	-0.10192296
22	0xbe044fb9	-0.12921037
23	0xbc91dfc7	-0.0178069

weight f4 [24]
0	0x3e6fb64b	0.23409383
1	0x3e86c46b	0.2632173
2	0x3e75ce73	0.24004535
3	0x3e79a1dd	0.24378152
4	0x3e78338e	0.24238417
5	0x3e6b2605	0.22963722
6	0x3e4fb4c4	0.202838
7	0x3e6dd237	0.23224722
8	0x3e8d0810	0.27545214
9	0x3e86868d	0.2627453
10	0x3e630314	0.22169143
11	0x3e8ffa6e	0.2812075
12	0x3e8322b1	0.25612405
13	0x3e6bf788	0.23043644
14	0x3e730b7c	0.2373485
15	0x3e809594	0.2511412
16	0x3e750335	0.23927005
17	0x3e8601c0	0.2617321
18	0x3e8b138b	0.27163348
19	0x3e891a6d	0.26777974
20	0x3e8c465b	0.27397427
21	0x3e691017	0.22760044
22	0x3e895c0f	0.26828048
23	0x3e835829	0.25653198

weight f4 [24, 24, 3]
0	0x3aee9c40	0.0018204525
1	0xbcad47ae	-0.021152344
2	0xbdb59e43	-0.08868077
3	0x3e58cdbd	0.21172233
4	0x3e26ef71	0.16302277
5	0xbcadb827	-0.021205975
6	0x3e053776	0.13009438
7	0xbdfb8a17	-0.12282198
8	0xbd999262	-0.074986234
9	0xbe0c7f58	-0.13720453
10	0x3d118bab	0.03553359
11	0x3e2a689c	0.16641468
12	0x3ed98119	0.42481306
13	0xbcdea4ba	-0.027178157
14	0xbd425a36	-0.047449313
15	0x3dd14838	0.10218853
16	0xbd4ccfc8	-0.050002843
17	0xbebbae9b	-0.3665665
18	0xbd61abd8	-0.055095524
19	0x3eaf85ff	0.34281918
20	0x3dcdec5a	0.10054846
21	0xbb0a1fdc	-0.0021076119
22	0xbd80554b	-0.06266268
23	0xbda6dde3	-0.0814779
24	0x3c30c408	0.010788925
25	0x3c436366	0.011925554
26	0xbe4a8e55	-0.19780858
27	0x3e3c1c2a	0.18370119
28	0x3dea1efb	0.1143169
29	0x3df8fc1c	0.12157461
30	0x3e3d3b62	0.18479684
31	0xbdc59f23	-0.096494935
32	0xbec81cc0	-0.39084435
33	0xbe75d387	-0.24006473
34	0xbe177785	-0.14791687
35	0x3dad35ba	0.08457513
36	0x3cf6b7a2	0.03011686
37	0xbad4b411	-0.001622798
38	0xbde2465a	-0.11048575
39	0x3d155827	0.03646102
40	0xbe306ae9	-0.17228283
41	0xbd4884cd	-0.048954774
42	0x3d58e84a	0.052955903
43	0x3da7859b	0.0817978
44	0xbe871b6e	-0.26388115
45	0x3e5167dd	0.20449777
46	0xbd8b5677	-0.06803601
47	0x3e3eba32	0.18625715
48	0x3e613fa8	0.21996939
49	0xbd746664	-0.05966796
50	0x3cfa6096	0.030563634
51	0xbded9e75	-0.11602489
52	0xbe799841	-0.24374487
53	0x3e67a56b	0.22621696
54	0x3d102345	0.035189886
55	0xbe79bef9	-0.24389257
56	0x3df4365c	0.11924431
57	0xbecf8a62	-0.40535265
58	0x3d2b0bd3	0.041759323
59	0xbd69766c	-0.0569977
60	0xbd08b81f	-0.033378717
61	0x3dab0a7c	0.08351609
62	0xbe9b89dc	-0.30378616
63	0xbe519756	-0.20467886
64	0xbed780c1	-0.4209042
65	0x3cdbfc5b	0.02685373
66	0xbe3cd9b4	-0.18442422
67	0x3e74e053	0.23913698
68	0x3d1d470e	0.03839784
69	0x3cdd051c	0.026979975
70	0xbe3ed714	-0.18636733
71	0xbe369f83	-0.17834286
72	0x3d9b7aa4	0.07591751
73	0x3d50abc4	0.05094506
74	0xbe5f055b	-0.21779387
75	0x3c0393e5	0.008030866
76	0x3e85824a	0.26075965
77	0x3ecabc28	0.39596677
78	0xbd11bf15	-0.03558262
79	0xbc71319d	-0.014721301
80	0xbe183df1	-0.14867379
81	0xbbb84fde	-0.0056247553
82	0x3dc09212	0.09402861
83	0x3b4a80a5	0.0030899432
84	0x3dcf53e1	0.101234205
85	0xbd5991d5	-0.053117592
86	0x3dd48f21	0.10378862
87	0xbda1a945	-0.07893614
88	0xbe0858d3	-0.13315134
89	0xbe7b9b5d	-0.24570985
90	0x3d5ab00f	0.05339056
91	0xbe019968	-0.12656176
92	0xbddeeca0	-0.108849764
93	0x3d5d9578	0.054097623
94	0x3e0f0292	0.13965824
95	0x3e7d4124	0.2473188
96	0x3db85539	0.0900063
97	0x3ca9a5ba	0.020708907
98	0xbde525fd	-0.11188886
99	0xbe002296	-0.12513193
100	0x3e6da112	0.23205975
101	0xbe17bf92	-0.14819172
102	0x3de219c4	0.11040071
103	0x3da8de27	0.08245497
104	0x3d8b26dd	0.06794522
105	0xbd965f7c	-0.07342431
106	0x3e30f199	0.17279662
107	0xbea0a578	-0.31376243
108	0xbe6f5f93	-0.23376302
109	0x3b31e9e5	0.0027147469
110	0x3c19ac49	0.009379455
111	0xbe2c031d	-0.16798063
112	0xbe6286f8	-0.22121799
113	0xbd13b463	-0.036060702
114	0x3e8ba397	0.27273247
115	0x3aaab7a1	0.0013024696
116	0x3e2f5167	0.17120896
117	0xbd96cef8	-0.07363695
118	0x3ed10e77	0.40831348
119	0xbdf6bca0	-0.12047696
120	0xbc0170ef	-0.007900461
121	0x3c4394cb	0.0119373305
122	0x3d81b4f6	0.06333344
123	0x3e488c5e	0.19584796
124	0xbccf84b8	-0.02533184
125	0x3e1de626	0.15419826
126	0xbc0e71e6	-0.008694148
127	0xbe9c9391	-0.30581334
128	0x3c16e8c2	0.009210767
129	0x3e1a9dd8	0.15099275
130	0xbea17159	-0.3153179
131	0x3d01465c	0.03156124
132	0x3e8f02cd	0.27931824
133	0x3dabe05c	0.083924025
134	0xbd895e15	-0.06707398
135	0x3e00cf42	0.12579063
136	0x3e0c162e	0.13680336
137	0x3b1612ea	0.0022899457
138	0xbd7cdeea	-0.061736025
139	0xbdcf088b	-0.10109051
140	0xbd50c2e7	-0.050967123
141	0x3db609bd	0.08888576
142	0x3e5d4739	0.216092
143	0xbdf9b9ce	-0.121936426
144	0xbe0833b4	-0.13300973
145	0xbee0e261	-0.43922713
146	0x3c9a2292	0.018815313
147	0x3e3248e9	0.17410626
148	0xbe2d8aa9	-0.16947426
149	0x3d64aea4	0.055830613
150	0x3d4b2aea	0.049601473
151	0x3e3dd49e	0.18538138
152	0xbd8ba147	-0.068178706
153	0x3d3af5b8	0.045644492
154	0xbdd2a587	-0.10285478
155	0x3e19b694	0.15011054
156	0xbd908918	-0.070573986
157	0xbd4d4ef6	-0.05012413
158	0x3dda4fda	0.10659762
159	0xbdaec6ab	-0.08533987
160	0x3dc71a12	0.097217694
161	0x3d8d3724	0.06895283
162	0xbe8c92d1	-0.27455762
163	0x3ddcb0d3	0.10775914
164	0xbeb34c23	-0.35019025
165	0x3d9dab84	0.0769873
166	0xbc3e111f	-0.011600762
167	0xbe7c4eeb	-0.2463948
168	0xbceb21dc	-0.028702669
169	0x3d497e98	0.049192995
170	0xbdb31bd2	-0.08745541
171	0x3b275919	0.0025535284
172	0xbddb252a	-0.10700448
173	0x3d518a3d	0.051157225
174	0x3dc1204b	0.094299875
175	0x3e8b039d	0.27151194
176	0xbe55dd5a	-0.2088522
177	0xbddf71af	-0.10910355
178	0xbe09375b	-0.13400023
179	0xbe1d3d97	-0.15355526
180	0xbe82d21e	-0.25550932
181	0xbc766338	-0.015038304
182	0x3dfb3159	0.12265272
183	0xbe0bc148	-0.1364795
184	0x3e8797f0	0.26483107
185	0xbcf57e70	-0.029967517
186	0x3ea12a03	0.31477365
187	0x3cc05f3b	0.02348291
188	0xbd2c5d26	-0.04208102
189	0x3e8b250b	0.271767
190	0x3e16df0c	0.14733523
191	0xbe245ece	-0.1605179
192	0xbe41f08f	-0.18939422
193	0x3ea349b6	0.31892174
194	0x3e9e1932	0.30878597
195	0xbeb6c25e	-0.35695165
196	0x3d28e6ba	0.041235663
197	0x3d1a7808	0.037712127
198	0x3e1468c2	0.14493087
199	0x3e115130	0.14191127
200	0x3ddd8b73	0.108176135
201	0xbd7f54a8	-0.062336594
202	0x3e13eae1	0.14445068
203	0xbde47fe4	-0.11157206
204	0xbe8006b7	-0.25005123
205	0xbda84379	-0.082159944
206	0x3dec637b	0.11542412
207	0x3d8310f2	0.063997164
208	0x3ddc4979	0.10756201
209	0xbe3c62cb	-0.18397062
210	0xbb8bdfc4	-0.0042686183
211	0x3ceb2878	0.02870582
212	0x3e2e2c6d	0.17009135
213	0x3cb18680	0.02167058
214	0x3d394656	0.045233093
215	0x3d97d4f5	0.07413665
216	0x3eab3cfa	0.3344496
217	0xbdb9bc7c	-0.09069154
218	0xbe96560c	-0.29362524
219	0xbd2a16d8	-0.04152569
220	0x3e83dc7d	0.25754157
221	0xbe020585	-0.12697418
222	0xba941fde	-0.0011301001
223	0x3d5bac56	0.05363115
224	0xbc4a5bde	-0.012351004
225	0x3a460991	0.0007554526
226	0xbd263a0b	-0.040582698
227	0xbdc4d4ad	-0.09610877
228	0x3d327bec	0.043575212
229	0xbccd4e11	-0.025061639
230	0xbde0d8e6	-0.1097887
231	0xbe3525bb	-0.17690174
232	0xbd5bce7a	-0.05366371
233	0xbca2f1f2	-0.01989076
234	0x3d9c3308	0.07626921
235	0xbd4f7616	-0.050649725
236	0x3e46145d	0.19343705
237	0xbdaa2f7d	-0.08309839
238	0xbd5a8b14	-0.05335529
239	0xbb643db8	-0.0034826826
240	0xbd8bc83a	-0.068252996
241	0x3e9bec4e	0.30453724
242	0xbd318ece	-0.04334908
243	0xbeb53705	-0.3539354
244	0x3e33aec7	0.17547141
245	0x3d660aa1	0.05616248
246	0xbec2498d	-0.3794674
247	0x3e474be5	0.19462545
248	0xbdb9860f	-0.09058773
249	0x3e1face3	0.15593295
250	0x3e125e13	0.14293699
251	0xbdbe8e11	-0.09304441
252	0xbbf70d38	-0.0075394176
253	0xbcfb45ea	-0.030672986
254	0x3d5f6db0	0.054547966
255	0x3e610d41	0.21977712

bias f4 [24]
0	0xbd12ab7d	-0.035808075
1	0x3dccd6c4	0.10001901
2	0xbdae642e	-0.085152015
3	0xbd9cd2e9	-0.076574154
4	0xbd28ec38	-0.0412409
5	0x3d749a25	0.059717316
6	0x3db79efc	0.08965871
7	0xbaa5b730	-0.0012643095
8	0x3d6e0ee4	0.05811967
9	0xbd7c65a1	-0.06162036
10	0xbd8e863a	-0.069591954
11	0x3dbd9722	0.09257342
12	0xbd9fed00	-0.07808876
13	0xbd2ab84b	-0.04167966
14	0x3a9e4112	0.0012073836
15	0xbd64de87	-0.05587628
16	0x3d063b27	0.032771256
17	0xbd94caad	-0.0726522
18	0xbb60cc08	-0.00343013
19	0xbda3fa6d	-0.08006749
20	0xbc06893b	-0.008211429
21	0xbd22ea99	-0.03977451
22	0xbc76b777	-0.01505839
23	0xbb8b3c5d	-0.004249139

weight f4 [24]
0	0x3e80540e	0.2506413
1	0x3e549545	0.20760067
2	0x3e6fde7c	0.23424715
3	0x3e771807	0.2413026
4	0x3e70bbfb	0.23509209
5	0x3e6987e0	0.22805738
6	0x3e8034a0	0.2504015
7	0x3e8385bf	0.25687978
8	0x3e770d0d	0.24126072
9	0x3e86be75	0.26317182
10	0x3e60edb5	0.21965678
11	0x3e451254	0.19245273
12	0x3e6c685c	0.23086685
13	0x3e613ae5	0.21995123
14	0x3e69c74e	0.22829935
15	0x3e880d37	0.26572582
16	0x3e845340	0.25844765
17	0x3e7046eb	0.23464553
18	0x3e7344be	0.23756692
19	0x3e82c24a	0.25538856
20	0x3e8a64a6	0.27029914
21	0x3e73ba31	0.23801495
22	0x3e81892d	0.2529997
23	0x3e683463	0.22676234

weight f4 [24, 24, 3]
0	0xbd4f3680	-0.050589085
1	0x3e12b59a	0.14327088
2	0xbd5ceb78	-0.053935498
3	0x3e908cd5	0.28232446
4	0xbd0e09c7	-0.034677293
5	0xbdffbda2	-0.124873415
6	0x3ebf97ed	0.37420598
7	0x3e1d6a35	0.15372546
8	0x3e1cb3cb	0.1530296
9	0x3dfc592f	0.12321698
10	0xbdb4c5ab	-0.08826765
11	0xbb9a5d74	-0.0047108475
12	0x3d4b45e8	0.049627215
13	0x3d8e6efc	0.06954762
14	0x3d0b6882	0.034035213
15	0xbd103676	-0.035208188
16	0x3e9665d4	0.29374564
17	0xbdb070a9	-0.08615238
18	0x3bdc8b76	0.006730492
19	0x3d97531e	0.073889
20	0xbdc27d95	-0.09496609
21	0x3e8ff428	0.28115964
22	0x3ddfe3d3	0.10932126
23	0xbe30e26c	-0.17273873
24	0xbdcab127	-0.098970704
25	0xbe46d8f6	-0.19418702
26	0xbeabb591	-0.33536962
27	0xbd512b5a	-0.051066734
28	0x3e99ae99	0.3001602
29	0x3e136f88	0.14398015
30	0x3e99ec5e	0.30063146
31	0x3e3afc70	0.1826036
32	0xbe712595	-0.23549493
33	0x3d65a880	0.056068897
34	0x3dd5774e	0.10423146
35	0xbdfac1f8	-0.12244028
36	0xbe137613	-0.1440051
37	0x3e0b3fd0	0.13598561
38	0x3dbe12c5	0.09280924
39	0xbd192c93	-0.037396025
40	0x3e2a96df	0.16659115
41	0x3e69f50c	0.22847384
42	0xbd08d273	-0.033403825
43	0x3e2ed889	0.17074789
44	0x3e34e46e	0.17665264
45	0x3d828acd	0.063741304
46	0xbdf9acc1	-0.12191153
47	0x3eadab62	0.33919817
48	0xbd87e6ec	-0.06635842
49	0x3c4444fe	0.01197934
50	0xbdb4891f	-0.08815216
51	0x3d146c34	0.036236003
52	0xbdbda45f	-0.09259867
53	0xbd9deab7	-0.07710784
54	0x3d43e738	0.04782793
55	0x3d8540b1	0.065064795
56	0x3d2f18bf	0.04274821
57	0x3dabb02a	0.0838321
58	0x3da58f22	0.08083941
59	0xbde549e0	-0.11195731
60	0xbe3ae332	-0.1825073
61	0xbcc6213d	-0.024185771
62	0x3e3e1f5c	0.1856665
63	0xbe8164d3	-0.25272235
64	0xbd1bceb9	-0.038038943
65	0x3e03e7b1	0.12881352
66	0xbe4038de	-0.18771693
67	0x3ee24ebc	0.44200695
68	0x3e41f7fa	0.18942252
69	0x3e20379d	0.15646215
70	0x3d278788	0.040900737
71	0x3dcbe686	0.09956078
72	0xbdcd309d	-0.10019038
73	0x3dc76f47	0.09738021
74	0x3da15637	0.07877772
75	0xbe2efb41	-0.17088033
76	0xbda1198a	-0.07866199
77	0xbebdf10b	-0.37097964
78	0xbcf77565	-0.030207345
79	0x3d9ca9ad	0.076495506
80	0x3c23c7d3	0.009996372
81	0x3e485824	0.19564873
82	0x3cf1117b	0.02942728
83	0xbdbf286f	-0.09333884
84	0xbdaed21f	-0.08536171
85	0xbb92059c	-0.004456235
86	0xbca73b1a	-0.020413924
87	0xbe649be1	-0.22325088
88	0xbec5586e	-0.3854403
89	0xbdf37558	-0.11887616
90	0xbe574cc1	-0.21025373
91	0x3dd421a3	0.10357978
92	0x3d84f2cb	0.064916216
93	0xbd18c285	-0.037294883
94	0x3d991741	0.074751385
95	0x3dad16ce	0.08451615
96	0xbebd41a3	-0.3696414
97	0xbd4b5a40	-0.049646616
98	0x3ee0883d	0.43853942
99	0xbd7327a9	-0.059363995
100	0x3ea2b9e9	0.31782463
101	0x3d3a0bc2	0.04542137
102	0x3af297ac	0.0018508337
103	0x3decf6b9	0.11570496
104	0xbe167c49	-0.14695849
105	0xbb333681	-0.002734572
106	0x3daea030	0.08526647
107	0xbd917fdc	-0.07104465
108	0xbd812654	-0.06306139
109	0x3dc947d2	0.09828152
110	0x3d9cef9a	0.07662888
111	0xbe6d9032	-0.23199537
112	0xbd59ff99	-0.053222273
113	0xbda8f5d6	-0.082500145
114	0x3e137652	0.14400604
115	0x3e8989db	0.26862988
116	0xbde73fea	-0.112914875
117	0xbe3e792f	-0.18600915
118	0x3de68897	0.11256521
119	0x398f5190	0.00027335854
120	0xbc4ea509	-0.01261259
121	0xbe349de6	-0.17638358
122	0x3de1d71b	0.11027356
123	0xbeaa9346	-0.33315486
124	0x3e2f4426	0.1711584
125	0x3cf8e430	0.030382246
126	0xbd6a5692	-0.057211466
127	0x3ca55e02	0.020186428
128	0x3d60ab67	0.054850962
129	0x3e550591	0.20802905
130	0xbe9ad23d	-0.30238524
131	0x3d9c9268	0.07645112
132	0xbc1ec84a	-0.009691307
133	0x3dcf7e1d	0.10131476
134	0x3eaf1cbc	0.3420161
135	0xbe2e5471	-0.170244
136	0xbd757949	-0.05993012
137	0xbe1bb6ec	-0.15206498
138	0xbddb69cf	-0.10713541
139	0xbe4ce057	-0.20007454
140	0x3d2a400e	0.041564994
141	0x3db3a8bf	0.0877242
142	0xbe9348d0	-0.2876649
143	0x3d99a5db	0.075023375
144	0x3eaf9695	0.34294572
145	0x3ccfed15	0.025381604
146	0x3d51eb15	0.051249582
147	0x3dde5268	0.108555615
148	0xbdc7446a	-0.09729846
149	0xbcbca9ce	-0.023030188
150	0x3e2e3d63	0.17015605
151	0x3e043e60	0.12914419
152	0xbe9dafd0	-0.30798197
153	0xbd2ab290	-0.041674197
154	0x3e0222be	0.12708566
155	0x3e4607b6	0.19338879
156	0xbe8f38a7	-0.2797291
157	0xbeead779	-0.45867518
158	0xbd6a688c	-0.05722861
159	0xbdd02b9c	-0.10164568
160	0xbe39ba80	-0.1813755
161	0xbe31aed1	-0.17351843
162	0x3e749aff	0.23887251
163	0xbe899283	-0.26869592
164	0x3d2a05d3	0.04150946
165	0x3e46ac75	0.19401725
166	0x3e312508	0.17299283
167	0x3e830712	0.25591332
168	0x3e21675e	0.15762088
169	0xbb331e19	-0.0027331172
170	0x3daee087	0.08538919
171	0xbdbba08b	-0.091614805
172	0x3c7b4167	0.015335417
173	0xbe3b998e	-0.18320295
174	0x3d86c72a	0.06580956
175	0xbde68c4d	-0.11257229
176	0xbd0c68bd	-0.034279574
177	0x3e83e1f2	0.2575832
178	0x3db20b08	0.0869351
179	0x3e55dcf2	0.20885065
180	0x3d4e5e06	0.050382636
181	0xbdd9d13f	-0.10635614
182	0xbce8dee3	-0.028426593
183	0x3e8cde78	0.2751348
184	0x3d8f92ae	0.07010399
185	0xbb48366f	-0.0030550023
186	0x3d1231de	0.03569209
187	0xbde95100	-0.11392403
188	0x3d8a4b55	0.0675265
189	0xbdc6e706	-0.09712033
190	0xbde937ce	-0.11387597
191	0x3e5e5fc8	0.21716225
192	0xbd158a25	-0.036508698
193	0xbe1f743e	-0.15571687
194	0x3ce5e32e	0.02806243
195	0x3be89922	0.007098333
196	0x3e9ae720	0.3025446
197	0x3e56a0a6	0.2095972
198	0xbd10ff36	-0.035399638
199	0x3d7d59d3	0.06185324
200	0x3e8c35a0	0.27384663
201	0xbe437db0	-0.19090915
202	0x3e751393	0.23933248
203	0xbcb2903d	-0.021797294
204	0x3e090acf	0.1338303
205	0xbe7f9940	-0.24960804
206	0xbe32974a	-0.17440525
207	0xbd5e81ad	-0.054322887
208	0xbe88c3cc	-0.2671188
209	0x3e958fbd	0.29211226
210	0x3d8c734c	0.06857929
211	0xbce8d18e	-0.028420236
212	0xbd6a2e8a	-0.05717329
213	0x3e9dc7f8	0.30816627
214	0xbae1e1ae	-0.0017233395
215	0x3d041663	0.032247912
216	0xbec67571	-0.38761476
217	0x3dfac38d	0.122443296
218	0x3e8a0f07	0.2696459
219	0x3dfe72e8	0.124242604
220	0xbdb16c7d	-0.086632706
221	0x3d3fca4f	0.046823796
222	0xbe1701c4	-0.14746767
223	0xbd5ba29f	-0.053621884
224	0xbd603806	-0.054740928
225	0x3e8cf207	0.27528402
226	0x3dda5797	0.10661238
227	0xbc284d6a	-0.010272363
228	0x3b7ffbcb	0.0039059992
229	0xbe8b506c	-0.27209795
230	0x3d69e507	0.057103183
231	0x3c3d6b89	0.011561283
232	0xbda43e57	-0.08019703
233	0xbe3441c6	-0.17603216
234	0x3e850bca	0.25985557
235	0xbd167963	-0.036736857
236	0x3dfe17fd	0.12406919
237	0x3e37c4fc	0.17946237
238	0x3dd080b9	0.10180802
239	0xbe3af732	-0.1825836
240	0xbc313ee9	-0.010818222
241	0xbebd812c	-0.37012613
242	0xbe0ac2be	-0.13550851
243	0xbd129252	-0.035784073
244	0x3e5e555e	0.21712252
245	0x3d5ef838	0.05443594
246	0x3deaef77	0.114714555
247	0x3d737d08	0.05944541
248	0x3d8b974b	0.06815966
249	0x3e10af6b	0.14129417
250	0xbec790f6	-0.38977784
251	0x3ed560d7	0.41675445
252	0x3d2966ec	0.04135792
253	0xbdf10660	-0.11768794
254	0x3d5269f3	0.051370572
255	0x3d7438bb	0.059624415

bias f4 [24]
0	0x3d0f02f1	0.034914915
1	0xbd981000	-0.07424927
2	0x3d1f7dfc	0.038938507
3	0xbb6532d3	-0.003497292
4	0xbd8f5856	-0.069992706
5	0xbd4ad413	-0.049518656
6	0xbd3e3873	-0.046440553
7	0x3c243097	0.01002135
8	0x3ddd531f	0.1080687
9	0x3c883e09	0.016631143
10	0x3d04607a	0.03231857
11	0x3d2698d0	0.040673077
12	0x3d8f19a7	0.06987315
13	0x3c3376ea	0.010953644
14	0x3d28b315	0.04118641
15	0xbbdab48b	-0.0066743544
16	0xbca3e398	-0.020005986
17	0xbd78256c	-0.060582563
18	0xbc610ec8	-0.013736434
19	0x3d541343	0.051776182
20	0xbc83f421	-0.01610762
21	0x3e084966	0.1330925
22	0xbdeea46f	-0.11652457
23	0xbd97ea0b	-0.07417687

weight f4 [24]
0	0x3e8245d7	0.2544391
1	0x3e816ac8	0.2527678
2	0x3e7dfb95	0.24803002
3	0x3e70582a	0.23471132
4	0x3e6c9fa9	0.2310778
5	0x3e7bb6a9	0.24581398
6	0x3e8217a1	0.25408652
7	0x3e7327a4	0.2374559
8	0x3e5526b8	0.20815551
9	0x3e5de38c	0.21668833
10	0x3e68549a	0.22688523
11	0x3ea6ab38	0.32552505
12	0x3e87c66b	0.26518568
13	0x3e75f068	0.24017489
14	0x3e6f984c	0.2339794
15	0x3e71f9a4	0.23630387
16	0x3e64eeee	0.2235677
17	0x3e69eb53	0.22843675
18	0x3e8b18f4	0.27167475
19	0x3e8a1334	0.26967776
20	0x3e6b29ad	0.22965117
21	0x3e6c04fe	0.2304878
22	0x3e6bcbcc	0.23026961
23	0x3e6bbd77	0.23021494
