models/teste-ss3_ss4_buried.pth (torch_old, 63311 bytes, 78 tensors)

weight f4 [8, 22, 1]
0.83284706 -0.047377896 0.19756487 0.34940714 0.03004634 -0.7456676 -0.38469222 -0.02032669
-0.1871591 -0.18149415 0.17829531 -0.0022893155 0.07878317 0.3744686 -0.3764611 -0.41728443
0.11235897 -0.7910795 -0.7561136 -1.0519254 0.027574055 0.085568376 -0.5656754 0.158798
0.6276636 -0.27344516 -0.40874794 -0.21642518 0.57511294 -0.3476497 -0.055083442 0.10915424
0.19114335 -0.2660079 -0.111774445 0.24474734 0.18665496 0.623471 0.00152653 0.29303497
0.7786798 0.05943154 0.2395657 -0.052108556 -0.89387965 0.15463579 0.6507802 0.34513167
0.16890956 -0.28791198 0.08584413 -0.41561952 0.17046167 -0.092517726 0.046592925 0.043039937
0.33471647 0.39289922 0.09252985 0.49825412 -0.19898516 0.18048999 0.0423539 -0.996367
0.096054494 0.58459884 -0.33093405 0.18811788 0.99590766 -0.2229542 -0.18648507 -0.11210273
-3.1453936e-05 -0.1340151 0.20672151 -0.0017398837 0.09259127 0.46380836 -0.41080227 -0.010303729
-0.25519758 0.21970353 0.034967005 -0.106772095 -0.85709167 -0.2742934 -0.28067237 -0.41885808
0.17578943 -0.2958082 0.20118238 0.1153471 0.009693981 0.73369926 0.57529426 0.0032639026
0.5648348 -0.040195882 0.27005792 -0.06701097 0.2846513 -0.080695674 0.015046208 0.063340195
-0.49092138 0.110108525 -0.03162782 0.14773105 -0.906939 -0.17847013 -0.98094267 -0.15063205
0.17354225 -0.6357624 0.24278505 0.22501515 -0.47189063 0.34936696 -0.3958134 -0.49246472
0.68304896 0.3030521 -0.4955495 -0.03897164 -0.010445229 -0.19456433 -0.12252164 -0.13143267
-0.097029634 -0.42628694 -0.40498412 -0.76688886 0.121512696 0.1261897 0.3097956 0.32832062
-0.0025729802 0.03205899 -0.524428 -0.017244797 0.85593295 -0.41271153 0.28561953 0.10975478
0.18789124 -0.13117231 -0.22153135 0.14510594 -0.2892863 -0.20630792 0.16815156 -0.012165498
0.6910544 -0.18139336 0.106016204 0.10976682 -0.5282556 0.26042017 -0.28644454 0.2764317
-0.022622252 -0.4831509 -0.5932571 0.5266466 -0.39813092 0.19807006 0.024465393 0.04829437
0.43072286 0.11972197 -0.0006910808 0.22224528 -0.8194757 -0.3546358 -0.4531128 -0.34501374
00000000: 7735 553f 530f 42bd 724e 4a3e 7ee5 b23e
00000010: be23 f63c 12e4 3ebf 61f6 c4be 2984 a6bc
00000020: a3a6 3fbe 9ad9 39be 0c93 363e 5708 16bb
00000030: 1259 a13d 59ba bf3e 82bf c0be 4ea6 d5be
00000040: 761c e63d 3084 4abf a990 41bf 7ea5 86bf
00000050: fce2 e13c 793e af3d 1ad0 10bf f19b 223e
00000060: 90ae 203f 0101 8cbe 6947 d1be 909e 5dbe
00000070: 9a3a 133f 24ff b1be 2d9f 61bd 428c df3d
00000080: 15bb 433e 3032 88be 00ea e4bd 0c9f 7a3e
00000090: 7a22 3f3e cc9b 1f3f d915 c83a ae08 963e
000000a0: 8f57 473f 7d6e 733d b650 753e c86f 55bd
000000b0: 4cd5 64bf d858 1e3e 8899 263f 19b5 b03e
000000c0: a1f6 2c3e 3369 93be 0ccf af3d 15cc d4be
000000d0: 818d 2e3e ef79 bdbd 39d8 3e3d a54a 303d
000000e0: f55f ab3e 162a c93e 4a80 bd3d 2a1b ff3e
000000f0: c4c2 4bbe 5ed2 383e 487b 2d3d e811 7fbf
00000100: 38b8 c43d 45a8 153f 3070 a9be f9a1 403e
00000110: cef3 7e3f 1b4e 64be f1f5 3ebe 1e96 e5bd
00000120: 68ed 03b8 413b 09be ceae 533e cf0c e4ba
00000130: 7ea0 bd3d 4a78 ed3e ad54 d2be f9d0 28bc
00000140: 42a9 82be f6f9 603e 9039 0f3d 54ab dabd
00000150: 5c6a 5bbf 2f70 8cbe 4ab4 8fbe 9174 d6be
00000160: 2502 343e 2c74 97be c102 4e3e 1a3b ec3d
00000170: 81d3 1e3c b7d3 3b3f 7c46 133f 33e7 553b
00000180: 0399 103f 70a4 24bd 0845 8a3e 0c3d 89bd
00000190: d1bd 913e c643 a5bd 5f84 763c 81b8 813d
000001a0: 0c5a fbbe 9480 e13d 2c8c 01bd cf46 173e
000001b0: 282d 68bf e0c0 36be 0f1f 7bbf 4a3f 1abe
000001c0: 0fb5 313e 53c1 22bf a59c 783e 5f6a 663e
000001d0: a69b f1be 3ae0 b23e 0ea8 cabe 5624 fcbe
000001e0: 4cdc 2e3f a529 9b3e aab8 fdbe baa0 1fbd
000001f0: 7722 2bbc df3b 47be a0ec fabd 4996 06be
00000200: 79b7 c6bd 4842 dabe 145a cfbe d452 44bf
00000210: a6db f83d df37 013e 879d 9e3e a419 a83e
00000220: 729f 28bb 4a50 033d ea40 06bf f644 8dbc
00000230: 6c1e 5b3f ed4e d3be b93c 923e 1dc7 e03d
00000240: 9066 403e 0952 06be 1dd9 62be a796 143e
00000250: 551d 94be 6242 53be ec2f 2c3e cc51 47bc
00000260: f1e8 303f 2ebf 39be 061f d93d 6dcd e03d
00000270: c23b 07bf cb55 853e dca8 92be 7588 8d3e
00000280: 4d52 b9bc 8e5f f7be b3df 17bf 50d2 063f
00000290: d1d7 cbbe e1d2 4a3e a66b c83c 51d0 453d
000002a0: b587 dc3e cb30 f53d a629 35ba 4494 633e
000002b0: 29c9 51bf d392 b5be 67fe e7be a4a5 b0be

weight f4 [8]
0.23635091 0.2121216 0.08599777 0.31720978 0.113173194 0.3242565 0.23727196 0.21250738
00000000: f905 723e 6836 593e 991f b03d 5269 a23e
00000010: 59c7 e73d f304 a63e 6cf7 723e 899b 593e

weight f4 [8, 8, 3]
0.58505756 -0.15807419 0.25899518 -0.37594482 0.46123552 -0.15938972 -0.088992566 -0.68404585
0.2775103 0.140504 0.47868395 -0.18901981 0.05740892 0.04670059 -0.3668724 0.15913801
-0.27178633 0.10369287 -0.100488335 -0.42372328 0.01041811 0.11380984 -0.22405303 0.12315647
0.060413577 -0.2792726 0.13727562 -0.32995436 0.022177504 0.21387042 0.33208123 0.17650451
0.13054633 0.5812943 -0.17477918 -0.022590509 0.11257473 -0.11685905 0.008739022 0.7687846
0.30369025 0.1651636 0.39041927 0.09852677 0.16992915 0.1794612 -0.23352887 0.08132424
-0.37148812 0.09633368 -0.08054405 0.5780661 0.3194309 0.059281528 -0.06288653 0.014619345
-0.0066987993 0.32081783 -0.1842947 -0.24895969 0.43610936 0.31788275 -0.114554994 -0.13165596
0.25699788 -0.12476957 0.34333003 -0.2361506 -0.07937689 -0.013220662 0.13409215 -0.562803
0.14819843 -0.3204013 0.17894872 -0.2525075 -0.23693042 -0.2267415 -0.115175515 -0.3113564
0.25230777 0.14688633 -0.52366364 0.15503223 0.08001825 0.3426807 -0.005046284 0.39328495
0.3074945 0.64096934 -0.47631574 -0.30823013 0.030150047 0.20885958 -0.35952744 -0.20458834
-0.041100577 -0.030111508 -0.11824937 0.7336648 -0.063091084 -0.28210178 -0.089171946 -0.43731695
0.03790712 -0.13812591 0.14013816 0.18501675 -0.06331311 -0.29049754 0.24072805 0.13066366
0.33009946 0.46650103 -0.035417713 -0.34723788 0.226326 0.44989017 0.31387135 0.19823918
-0.36385733 0.16207676 -0.65780944 -0.020967213 0.061513253 -0.34207723 -0.012899557 -0.45815927
-0.44526654 -0.3712671 -0.6787876 0.6508859 -0.16478243 0.20520091 0.30425602 0.18277739
-0.1766707 0.36561334 0.107687436 -0.007649554 0.39067364 -0.6329651 -0.087842986 0.51830846
-0.44509298 -0.29244384 -0.032791812 -0.1343471 -0.29232854 -0.021854177 0.28139573 0.1791038
-0.35080552 0.12397575 -0.17122664 -0.119698875 0.16788535 0.504951 -0.15593652 -0.4142246
0.10631314 -0.51285046 -0.38637242 -0.3905107 -0.11594457 -0.17814487 -0.17899854 -0.3633949
-0.4483865 0.5077512 -0.42044908 0.020691982 -0.0922125 0.19232047 -0.27437484 0.24727793
-0.36552373 -0.011533027 -0.0128020365 0.019276327 0.27538943 0.6637125 -0.2988983 0.13959798
-0.21075743 0.12599288 -0.8333676 0.34587866 0.34061188 0.536013 0.35361978 -0.4176974
00000000: 55c6 153f 33de 21be 049b 843e d77b c0be
00000010: 1027 ec3e 0f37 23be bc41 b6bd a11d 2fbf
00000020: d415 8e3e 48e0 0f3e 1016 f53e 698e 41be
00000030: 9e25 6b3d 1e49 3f3d b3d6 bbbe 13f5 223e
00000040: 9427 8bbe ed5c d43d d4cc cdbd 42f2 d8be
00000050: b8b0 2a3c 2215 e93d 286e 65be 7639 fc3d
00000060: 3a74 773d d1fc 8ebe fb91 0c3e c7ef a8be
00000070: 99ad b53c d900 5b3e 8d06 aa3e 99bd 343e
00000080: f0ad 053e b4cf 143f 50f9 32be bb0f b9bc
00000090: 948d e63d cc53 efbd 1d2e 0f3c 11cf 443f
000000a0: 4a7d 9b3e a620 293e 09e5 c73e 67c8 c93d
000000b0: e801 2e3e adc4 373e 3122 6fbe 538d a63d
000000c0: b133 bebe 984a c53d 47f4 a4bd 24fc 133f
000000d0: 728c a33e 30d1 723d a7ca 80bd fa85 6f3c
000000e0: 9a81 dbbb 3c42 a43e c0b7 3cbe 4aef 7ebe
000000f0: ba49 df3e 87c1 a23e cf9b eabd d2d0 06be
00000100: 3a95 833e 3087 ffbd f4c8 af3e 76d1 71be
00000110: 5a90 a2bd 7a9b 58bc 744f 093e db13 10bf
00000120: 54c1 173e a40b a4be 553e 373e aa48 81be
00000130: e39d 72be ec2e 68be 24e1 ebbd 1b6a 9fbe
00000140: 7c2e 813e 5f69 163e d20e 06bf c5c0 1e3e
00000150: 9ce0 a33d d873 af3e 4c5b a5bb a55c c93e
00000160: eb6f 9d3e 9116 243f a8df f3be 57d0 9dbe
00000170: 3bfd f63c 49df 553e fb13 b8be 9b7f 51be
00000180: 1459 28bd 69ac f6bc ba2c f2bd 75d1 3b3f
00000190: e635 81bd a56f 90be c89f b6bd 02e8 dfbe
000001a0: 7f44 1b3d e170 0dbe 6180 0f3e 0875 3d3e
000001b0: 4eaa 81bd 18bc 94be 6a81 763e b2cc 053e
000001c0: cc02 a93e 39d9 ee3e 2a12 11bd 2ac9 b1be
000001d0: 01c2 673e 0158 e63e bfb3 a03e 36ff 4a3e
000001e0: 824b babe 73f7 253e 3366 28bf 6fc3 abbc
000001f0: 52f5 7b3d bf24 afbe aa58 53bc da93 eabe
00000200: faf9 e3be b916 bebe 06c5 2dbf 75a0 263f
00000210: babc 28be 3020 523e 72c7 9b3e ff29 3b3e
00000220: 2ae9 34be ac31 bb3e 3b8b dc3d 1ca9 fabb
00000230: 6006 c83e 000a 22bf 06e7 b3bd ddaf 043f
00000240: 3ae3 e3be 33bb 95be b550 06bd 4992 09be
00000250: 16ac 95be 8807 b3bc 1a13 903e fd66 373e
00000260: c89c b3be ffe6 fd3d 0956 2fbe af24 f5bd
00000270: 23ea 2b3e 7844 013f d3ad 1fbe 3f15 d4be
00000280: b4ba d93d 2b4a 03bf 9bd2 c5be 05f1 c7be
00000290: 5974 edbd 9c6b 36be 654b 37be e50e babe
000002a0: ea92 e5be fcfb 013f 1a45 d7be 3b82 a93c
000002b0: e8d9 bcbd a8ef 443e dc7a 8cbe 6d36 7d3e
000002c0: ed25 bbbe 05f5 3cbc a2bf 51bc 63e9 9d3c
000002d0: d8ff 8c3e 10e9 293f 3309 99be c6f2 0e3e
000002e0: ccd0 57be 4704 013e 9457 55bf 0217 b13e
000002f0: ae64 ae3e 2638 093f a70d b53e 6fdc d5be

bias f4 [8]
-0.015632594 0.06618307 -0.0067185885 -0.0039806743 -0.07063102 0.04841205 -0.08111808 -0.07062884
00000000: ed0f 80bc fd8a 873d 9b27 dcbb 5170 82bb
00000010: ffa6 90bd b74b 463d 3c21 a6bd daa5 90bd

weight f4 [8]
0.2443353 0.23688029 0.4076833 0.27756417 0.21362245 0.19874108 0.28061327 0.23442636
00000000: 0833 7a3e bf90 723e debb d03e e41c 8e3e
00000010: d8bf 5a3e c882 4b3e 8bac 8f3e 770d 703e

weight f4 [8, 8, 3]
0.09977948 0.27932817 0.2961108 -0.36442158 0.0860777 -0.7086462 -0.10922998 0.031990666
0.31977078 0.34278172 0.28578523 -0.06077741 -0.25192183 0.038025755 0.22383915 -0.614208
-0.27847734 -0.30443013 0.07009256 -0.3123532 -0.3454926 -0.5569453 0.100479856 -0.14146465
0.50338346 -0.52884746 -0.32199937 0.5137994 0.014548209 -0.40450388 0.15981966 -0.41757718
-0.3500827 -0.0833841 0.35075387 0.19349876 0.3067495 0.032265645 -0.25773242 -0.04160992
0.013874902 0.26189598 0.06532892 0.04575059 0.17224939 0.5435221 -0.25975037 -0.3477172
0.10754324 0.22794701 0.38996983 -0.18004729 -0.42389598 -0.21772707 -0.046066966 0.47272766
-0.099032134 -0.22612728 0.04180515 -0.14522624 -0.045663174 -0.1656057 -0.24999036 0.053571265
0.12298299 -0.23109509 0.11039611 -0.06476671 -0.050211128 -0.22348244 0.12723783 -0.31484073
-0.02293904 -0.31164435 0.0477917 0.018322894 0.401032 0.3346154 -0.27374473 -0.1696672
-0.48433882 0.51732665 -0.050758053 0.13120905 -0.46418107 -0.50440353 0.11435848 0.060672715
-0.117776655 0.120759204 0.09193612 -0.5047667 0.09392479 0.27550623 0.16017686 0.10808953
-0.03409878 -0.027233224 0.08506782 0.20377584 -0.31194225 -0.11499109 0.36026013 -0.21803911
-0.090363845 -0.054632958 0.075695954 0.5791751 -0.18680799 -0.33709094 0.10339324 -0.057935063
-0.022927046 -0.33698508 0.33052891 -0.058698226 0.38411 0.1454729 0.33572948 -0.18280834
-0.18055533 -0.124260604 0.028134417 -0.05364795 0.26314518 -0.08541059 -0.0026455843 0.3493921
-0.10169832 0.123819895 -0.48949844 -0.31922594 -0.6930465 -0.6977014 0.03144024 -0.55852854
0.59826046 0.08958977 -0.21456915 0.48903957 -0.09874167 -0.14678025 0.22080773 -0.112784
-0.110152945 -0.41117132 -0.37114385 0.11085595 -0.6443231 0.3171004 0.25254902 -0.09594666
0.41347426 -0.03696866 -0.65766066 0.6692007 0.08805722 0.27477264 0.29463044 -0.14009768
0.46396196 -0.019879611 -0.071152374 0.12237307 -0.18215376 -0.17535284 0.14525934 0.15270151
0.5141298 -0.34020567 -0.12840937 0.037355773 -0.21855225 0.13185287 -0.1139144 0.34469905
-0.096039474 -0.10754365 0.022487186 0.27416465 -0.08470648 -0.28136334 0.32400522 -0.024487343
-0.3444806 0.063506715 -0.012574705 0.023096716 -0.41398203 -0.0034486973 -0.03408404 0.16969538
00000000: 2f59 cc3d 1a04 8f3e d69b 973e 7795 babe
00000010: 8149 b03d d669 35bf f8b3 dfbd a508 033d
00000020: ffb8 a33e 1681 af3e 7152 923e bcf1 78bd
00000030: e6fb 80be e5c0 1b3d 1736 653e bc3c 1dbf
00000040: 9594 8ebe 44de 9bbe b08c 8f3d c2ec 9fbe
00000050: 68e4 b0be f893 0ebf 62c8 cd3d 1cdc 10be
00000060: bddd 003f 8c62 07bf 1add a4be 5c88 033f
00000070: 9c5b 6e3c 221b cfbe c4a7 233e adcc d5be
00000080: 0a3e b3be 48c5 aabd 0396 b33e 8a24 463e
00000090: 450e 9d3e fb28 043d 81f5 83be 2a6f 2abd
000000a0: 8f53 633c 3b17 863e 2bcb 853d f864 3b3d
000000b0: 2562 303e 4424 0b3f 00fe 84be fd07 b2be
000000c0: a13f dc3d f16a 693e 20aa c73e 515e 38be
000000d0: e508 d9be d8f3 5ebe b7b0 3cbd 5c09 f23e
000000e0: 5cd1 cabd e98d 67be e13b 2b3d 30b6 14be
000000f0: 4f09 3bbd 8a94 29be 79fd 7fbe 8b6d 5b3d
00000100: 82de fb3d 31a4 6cbe 5b17 e23d 69a4 84bd
00000110: 2faa 4dbd 95d8 64be a24a 023e ce32 a1be
00000120: a7ea bbbc d98f 9fbe 3bc1 433d e519 963c
00000130: 1154 cd3e b652 ab3e 4528 8cbe 3dbd 2dbe
00000140: 42fb f7be 856f 043f ade7 4fbd aa5b 063e
00000150: 24a9 edbe 9720 01bf c734 ea3d f483 783d
00000160: e334 f1bd 9a50 f73d 0149 bc3d 6438 01bf
00000170: a45b c03d 270f 8d3e 6705 243e 0b5e dd3d
00000180: 2aab 0bbd 3618 dfbc 0a38 ae3d 9daa 503e
00000190: e5b6 9fbe 7380 ebbd 0474 b83e a545 5fbe
000001a0: ae10 b9bd cfc6 5fbd 7b06 9b3d d244 143f
000001b0: 984a 3fbe 2f97 acbe d6bf d33d 514d 6dbd
000001c0: 80d1 bbbc 4f89 acbe 163b a93e 8d6d 70bd
000001d0: 11aa c43e d9f6 143e bce4 ab3e 1c32 3bbe
000001e0: 7fe3 38be 587c febd 267a e63c f4bd 5bbd
000001f0: f7ba 863e bfeb aebd 8a61 2dbb 85e3 b23e
00000200: 3547 d0bd 4995 fd3d 8a9f fabe 9571 a3be
00000210: 7f6b 31bf 8f9c 32bf 7bc7 003d bafb 0ebf
00000220: 9927 193f d77a b73d 04b8 5bbe 6563 fa3e
00000230: 1339 cabd 904d 16be 6c1b 623e 4cfb e6bd
00000240: de97 e1bd 0c85 d2be 9106 bebe 7208 e33d
00000250: 5cf2 24bf fc5a a23e 1b4e 813e af7f c4bd
00000260: e6b2 d33e 736c 17bd 735c 28bf bd50 2b3f
00000270: 5857 b43d 00af 8c3e cdd9 963e c475 0fbe
00000280: 6c8c ed3e 91da a2bc 56b8 91bd bb9e fa3d
00000290: 8486 3abe b28f 33be ddbe 143e c95d 1c3e
000002a0: 039e 033f 702f aebe bf7d 03be 5e02 193d
000002b0: 29cc 5fbe 7004 073e f44b e9bd 657c b03e
000002c0: 58b0 c4bd d83f dcbd 0c37 b83c 4f5f 8c3e
000002d0: 977a adbd db0e 90be 03e4 a53e ae99 c8bc
000002e0: c35f b0be cf0f 823d 2306 4ebc 5335 bd3c
000002f0: 74f5 d3be 8a03 62bb b59b 0bbd a0c4 2d3e

bias f4 [8]
-0.08623815 -0.1136516 -0.17136063 0.18788116 0.058494173 0.07429025 0.06261806 -0.14115982
00000000: a19d b0bd 2cc2 e8bd 2979 2fbe eb63 403e
00000010: 9697 6f3d 7d25 983d e63d 803d 338c 10be

weight f4 [8]
0.32343775 0.12202699 0.3913419 0.19426198 0.26154575 0.22411963 0.15952882 0.35092705
00000000: a299 a53e 49e9 f93d f75d c83e 9dec 463e
00000010: 53e9 853e 9e7f 653e 865b 233e b6ac b33e

weight f4 [8, 8, 3]
-0.22980319 0.07341132 -0.12477701 0.5652232 0.3953077 -0.08724253 -0.15625724 -0.05539506
0.30829492 -0.1067784 0.120016575 0.25073984 0.06945202 0.23294665 0.5962921 -0.3829734
-0.22213459 -0.004176629 -0.39824405 0.112227865 0.0842606 0.5811446 -0.34139878 -0.003511365
-0.44132993 -0.27802995 -0.1310161 0.32792753 -0.13074178 0.47510114 0.026213171 -0.4811532
-0.42497927 0.34530404 0.07420894 0.50130033 -0.35121667 -0.49220636 -0.2610491 -0.19915305
0.5416185 0.24292499 0.012614563 0.6375321 -0.124191955 -0.2555253 0.15838484 -0.114794575
-0.13153742 0.31889012 -0.12518391 0.031392712 0.42764345 -0.011234955 0.22061719 -0.44967467
-0.111172885 -0.112016544 -0.22464454 -0.3654043 -0.11743431 0.26136875 -0.037931696 -0.37923616
-0.044677697 -0.034108013 0.20568092 0.04372253 -0.30552387 -0.084416494 -0.54364437 0.028635345
-0.06666371 -0.17227511 -0.6851513 0.45511928 -0.030347284 0.26250833 0.16290492 -0.00104994
-0.30093706 0.043078512 0.25434166 0.39963207 -0.034705903 0.16873765 0.25276053 -0.042784963
-0.34135467 0.63620764 -0.05948292 0.19106476 0.12923114 0.27721712 -0.42605102 -0.41390187
0.07647345 -0.5182999 -0.22000636 0.27325508 -0.45356402 -0.3293287 0.039519433 0.17180471
-0.29178208 -0.31471843 -0.15986665 0.15886696 0.3408614 -0.118977815 0.27225584 -0.022018582
-0.035868376 -0.17523445 -0.25833204 0.0006032083 -0.21230625 -0.3575586 0.19531661 0.60231405
0.2740363 -0.07568695 -0.053702585 0.015726533 0.21607247 -0.43708292 -0.39257863 -0.16955407
-0.15714908 0.021475647 -0.30518687 -0.3897922 -0.33829537 0.17028467 0.22669554 -0.37275577
0.12917006 -0.3272861 -0.1585002 -0.083607666 -0.4839274 -0.41315505 0.015097818 0.0014894004
0.06582131 -0.08649173 0.219911 0.27202266 0.22042495 0.17533167 0.003285064 0.35472867
-0.3109838 0.3425417 -0.10057849 -0.55410653 0.02255902 -0.30435213 -0.5679477 -0.46436983
-0.4391124 -0.037277658 -0.017603006 -0.02807518 0.23696199 -0.33162656 0.10448592 -0.07753376
0.37848154 0.07718685 -0.08028816 0.1367421 0.14334926 0.01014289 -0.20939134 0.11459835
0.022097284 -0.6340874 -0.23700586 -0.14691764 -0.6090835 -0.07197274 0.12836215 0.086733885
-0.1716812 0.057453062 -0.12158726 0.3713869 -0.05500424 -0.16158721 -0.42839617 -0.14977486
00000000: 8751 6bbe ad58 963d 178b ffbd 78b2 103f
00000010: c565 ca3e 36ac b2bd e601 20be eee5 62bd
00000020: d5d8 9d3e a2ae dabd 40cb f53d f960 803e
00000030: dc3c 8e3d 9189 6e3e 99a6 183f 1715 c4be
00000040: 4077 63be 1adc 88bb a5e6 cbbe b9d7 e53d
00000050: d290 ac3d e4c5 143f d2cb aebe ee1e 66bb
00000060: fff5 e1be f159 8ebe 1629 06be 1ee6 a73e
00000070: 2ce1 05be 7540 f33e 01bd d63c b659 f6be
00000080: e296 d9be b1cb b03e dbfa 973d 3855 003f
00000090: acd2 b3be 7902 fcbe 3aa8 85be c7ee 4bbe
000000a0: 83a7 0a3f 54c1 783e 50ad 4e3c 4e35 233f
000000b0: 5a58 febd 36d4 82be a32f 223e 6b19 ebbd
000000c0: bfb1 06be 9145 a33e 3630 00be a595 003d
000000d0: 15f4 da3e d112 38bc 79e9 613e c23b e6be
000000e0: 9cae e3bd ee68 e5bd 3809 66be 4616 bbbe
000000f0: 6681 f0bd 20d2 853e 445e 1bbd 3e2b c2be
00000100: f6ff 36bd d8b4 0bbd 059e 523e 6516 333d
00000110: a06d 9cbe 8ee2 acbd 472c 0bbf ac94 ea3c
00000120: fc86 88bd e368 30be 1366 2fbf 6505 e93e
00000130: de9a f8bc 7e67 863e 8cd0 263e 249e 89ba
00000140: 6c14 9abe 1873 303d 1239 823e 939c cc3e
00000150: c727 0ebd 90c9 2c3e d469 813e 493f 2fbd
00000160: 0ac6 aebe 81de 223f 5da4 73bd 7ba6 433e
00000170: 2b55 043e 67ef 8d3e 5c23 dabe f2ea d3be
00000180: 1d9e 9c3d 4daf 04bf 5949 61be 17e8 8b3e
00000190: 8b39 e8be c59d a8be 21df 213d 93ed 2f3e
000001a0: 7664 95be c622 a1be 15b4 23be 05ae 223e
000001b0: 6385 ae3e a4aa f3bd 1e65 8b3e 5060 b4bc
000001c0: b8ea 12bd a970 33be 1944 84be a020 1e3a
000001d0: cf66 59be ec11 b7be 1401 483e 4131 1a3f
000001e0: 7c4e 8c3e c201 9bbd 3ef7 5bbd eed4 803c
000001f0: 1a42 5d3e 55c9 dfbe 1100 c9be 959f 2dbe
00000200: b0eb 20be b2ed af3c 7441 9cbe d892 c7be
00000210: 0d35 adbe 1b5f 2e3e e022 683e d8d9 bebe
00000220: 2845 043e 0b92 a7be e04d 22be 7f3a abbd
00000230: 55c5 f7be 0f89 d3be d75c 773c fc37 c33a
00000240: 53cd 863d 9322 b1bd 5930 613e 8e46 8b3e
00000250: 14b7 613e 258a 333e 3a4a 573b ff9e b53e
00000260: 4539 9fbe a061 af3e 18fc cdbd edd9 0dbf
00000270: b2cd b83c 0bd4 9bbe 0565 11bf e2c1 edbe
00000280: 57d3 e0be 75b0 18bd 2e34 90bc ebfd e5bc
00000290: 2aa6 723e f5ca a9be b7fc d53d 05ca 9ebd
000002a0: 55c8 c13e 2414 9e3d 1e6e a4bd 1f06 0c3e
000002b0: 26ca 123e 5d2e 263c af6a 56be 8ab2 ea3d
000002c0: 5d05 b53c 8d53 22bf aab1 72be 9471 16be
000002d0: e5ec 1bbf 7266 93bd 5e71 033e 89a1 b13d
000002e0: 32cd 2fbe e753 6b3d be02 f9bd 6c26 be3e
000002f0: 204c 61bd 1e77 25be be56 dbbe 955e 19be

bias f4 [8]
-0.020214805 0.23235126 -0.054057743 -0.11401714 0.076722085 -0.07720491 0.102955 0.17375708
00000000: 8599 a5bc 7ded 6d3e a76b 5dbd d181 e9bd
00000010: 7820 9d3d 9c1d 9ebd 12da d23d 60ed 313e

weight f4 [8]
0.13263522 0.2234207 0.22615588 0.14271948 0.15247226 0.28627095 0.22343163 0.19193631
00000000: 87d1 073e 65c8 643e 6895 673e 0e25 123e
00000010: b021 1c3e 1b92 923e 43cb 643e f48a 443e

weight f4 [8, 8, 3]
0.011705005 -0.3935908 -0.25443584 -0.0461674 -0.31216478 -0.19819698 -0.3222572 -0.25511342
0.14047924 -0.012075297 0.29237968 0.21235979 -0.2603703 -0.22690669 -0.049463324 -0.004394667
0.16564234 0.21593666 -0.024892347 0.024627918 -0.19725528 0.36652794 -0.33654788 -0.52627033
0.1773473 0.2573796 0.066783726 -0.12492342 0.09493561 0.18758725 -0.22035338 -0.20182051
0.26385006 0.19946776 0.23434012 0.11673396 -0.09873225 0.23820673 -0.2905153 0.2358907
-0.05472823 0.0095442515 0.2430132 -0.03356602 -0.009940295 0.20332539 -0.041497007 -0.3238739
0.06095102 -0.419968 0.13074708 -0.4683895 -0.29019257 0.26052147 -0.18166745 -0.09153646
-0.27483782 -0.44303694 -0.24020602 0.33791587 -0.24840397 -0.017857159 -0.009870045 0.22047962
-0.06662044 0.006648841 -0.29568094 0.20100015 0.016261091 0.17135638 -0.22320355 0.07171913
-0.044959806 0.321247 0.012610722 -0.16815256 -0.24082813 -0.023758728 -0.28384972 0.22681369
-0.119011566 -0.29725045 0.14796944 0.26309985 -0.28648862 -0.13816927 0.1934375 0.6206297
0.1830738 0.37087908 0.11583515 -0.07907014 -0.18185513 0.100522794 0.19760174 -0.2566704
-0.15465282 0.26171556 -0.3683389 -0.61622924 -0.33323383 -0.56889135 -0.18690246 0.14953414
-0.03979005 0.12494047 -0.3322173 0.57631546 0.0633716 -0.40759572 0.22383974 0.22346652
-0.29344487 0.5206844 -0.07009801 -0.31616625 0.6424442 0.5878342 -0.47768837 0.1629672
-0.22693531 0.14646007 -0.01732711 -0.42498976 -0.73421353 -0.2815445 -0.34365824 0.5428273
-0.15278886 -0.8538605 -0.46968672 0.5421682 0.015608983 -0.09650798 0.77313185 -0.15884188
-0.34364367 -0.2506688 0.10313397 -0.00040168778 -0.21067864 0.15763447 -0.39159516 -0.113424875
0.019434473 -0.8409697 0.05966205 -0.54557085 -0.10472222 0.05107453 0.481399 -0.022494042
0.165504 0.23654099 0.49356118 -0.053544633 -0.23121715 0.09239192 0.37435317 0.31259462
0.041506425 -0.09907194 0.24184601 -0.19876865 0.029821388 0.0542938 0.21191202 -0.086661376
0.3996175 0.061259147 -0.30886862 -0.22527096 -0.0146543635 0.093356535 -0.45473692 -0.090450175
0.32599565 0.042711724 0.23019698 -0.4788667 -0.15014024 -0.3426552 0.18668589 0.7050694
0.27718776 -0.003694052 -0.14272177 -0.05696054 0.34594417 -0.21410026 -0.78394353 -0.22984163
00000000: 59c6 3f3c bc84 c9be 6a45 82be 071a 3dbd
00000010: 10d4 9fbe 26f4 4abe e5fe a4be 3a9e 82be
00000020: cad9 0f3e 77d7 45bc cab2 953e d874 593e
00000030: 424f 85be 3a5a 68be 0e9a 4abd 2401 90bb
00000040: 259e 293e 801e 5d3e 09eb cbbc 7dc0 c93c
00000050: 4afd 49be 8da9 bb3e 0150 acbe a7b9 06bf
00000060: 889a 353e 42c7 833e e8c5 883d dad7 ffbd
00000070: 9a6d c23d df16 403e 51a4 61be 09aa 4ebe
00000080: 5b17 873e 4741 4c3e dbf6 6f3e 3712 ef3d
00000090: 2234 cabd 77ec 733e 6cbe 94be 558d 713e
000000a0: b52a 60bd 7e5f 1c3c 74d8 783e 867c 09bd
000000b0: 9edc 22bc 8834 503e c4f8 29bd cdd2 a5be
000000c0: c7a7 793d 0c06 d7be 90e2 053e c0d0 efbe
000000d0: 1f94 94be 1263 853e 0807 3abe 7877 bbbd
000000e0: 8bb7 8cbe bdd5 e2be 91f8 75be 4f03 ad3e
000000f0: 9c5d 7ebe 2d49 92bc f8b5 21bc 69c5 613e
00000100: 4c70 88bd 85de d93b 7e63 97be fcd2 4d3e
00000110: fb35 853c 0c78 2f3e 798f 64be 7be1 923d
00000120: c627 38bd 7d7a a43e 349d 4e3c 2f30 2cbe
00000130: a69b 76be aaa1 c2bc c054 91be d941 683e
00000140: 56bc f3bd 3631 98be 4d85 173e 06b5 863e
00000150: a3ae 92be 3f7c 0dbe 7b14 463e 97e1 1e3f
00000160: b377 3b3e dde3 bd3e fb3a ed3d 87ef a1bd
00000170: 3b38 3abe e5de cd3d 1c58 4a3e 4d6a 83be
00000180: 4f5d 1ebe 95ff 853e eb96 bcbe 33c1 1dbf
00000190: a09d aabe dda2 11bf 5c63 3fbe 7a1f 193e
000001a0: e4fa 22bd cae0 ff3d 6318 aabe 6989 133f
000001b0: f8c8 813d 63b0 d0be 3f36 653e 68d4 643e
000001c0: 683e 96be 934b 053f 8c8f 8fbd 8be0 a1be
000001d0: 3977 243f 4d7c 163f 9293 f4be e0e0 263e
000001e0: bb61 68be a1f9 153e 95f1 8dbc 4298 d9be
000001f0: 6bf5 3bbf 9a26 90be f9f3 afbe bbf6 0a3f
00000200: af74 1cbe 9a96 5abf c77a f0be 89cb 0a3f
00000210: d2bc 7f3c faa5 c5bd f8eb 453f 72a7 22be
00000220: 10f2 afbe a957 80be e737 d33d 9f99 d2b9
00000230: 24bc 57be ee6a 213e 297f c8be 4d4b e8bd
00000240: 0b35 9f3c ca49 57bf 3260 743d 88aa 0bbf
00000250: 9a78 d6bd 8733 513d ee79 f63e 6d45 b8bc
00000260: e179 293e cd37 723e 0db4 fc3e 9e51 5bbd
00000270: 30c4 6cbe fa37 bd3d 38ab bf3e 670c a03e
00000280: a402 2a3d 3be6 cabd 7ba6 773e 028a 4bbe
00000290: fc4b f43c 2d63 5e3d 77ff 583e 857b b1bd
000002a0: aa9a cc3e dfea 7a3d 0724 9ebe 6ead 66be
000002b0: db18 70bc b631 bf3d 47d3 e8be f13d b9bd
000002c0: e7e8 a63e 7df2 2e3d c2b8 6b3e 042e f5be
000002d0: 5dbe 19be 8170 afbe 962a 3f3e 6e7f 343f
000002e0: 8eeb 8d3e e917 72bb a825 12be 754f 69bd
000002f0: 981f b13e 193d 5bbe 86b0 48bf 9b5b 6bbe

bias f4 [8]
-0.06790687 0.06515919 -0.17064169 -0.12969495 0.06531509 -0.120578796 -0.030809937 0.106868766
00000000: c212 8bbd 2e72 853d b2bc 2ebe c1ce 04be
00000010: ebc3 853d 04f2 f6bd 1f65 fcbc 03de da3d

weight f4 [8]
0.31948283 0.20440851 0.2572866 0.48741528 0.2621622 0.27822846 0.23490453 0.28193864
00000000: 4193 a33e 7750 513e 12bb 833e 7f8e f93e
00000010: 203a 863e f673 8e3e d08a 703e 435a 903e

weight f4 [8, 8, 3]
0.030028014 -0.23529403 0.25076064 0.007827163 -0.19505697 -0.16855717 0.48471954 0.057071384
0.5849298 -0.18279113 0.25606132 -0.09809438 -0.11895707 -0.02342105 -0.057011504 -0.27884
-0.23843361 0.4877919 0.2177868 0.26023525 -0.5024079 -0.07503711 0.5969871 0.44285193
-0.18885121 0.16299763 -0.10304935 -0.2983873 0.112213485 0.274182 -0.32270533 -0.33848542
-0.015753806 0.14976777 0.30844575 -0.17570652 0.24141735 -0.15312612 -0.23714533 -0.07167273
-0.04156842 0.08544325 -0.06471957 0.34403184 0.09376347 0.6904182 -0.027008638 -0.16032954
-0.3622421 -0.3149817 -0.6033865 0.0043195635 -0.39993712 0.27257985 0.4456855 -0.150814
0.38125843 0.019811636 -0.45790353 -0.43271157 0.23423795 -0.3033568 -0.20060463 -0.21233249
-0.10421199 -0.056655608 0.05815475 0.5556881 0.16309918 0.06561244 0.16204104 -0.12037056
0.29453337 -0.14318131 -0.5231069 0.10915362 0.18257572 -0.22004862 0.48029128 -0.09955077
-0.2988665 -0.0042124377 -0.5016286 -0.10895558 -0.10039921 -0.17193262 0.1353378 -0.29591438
-0.30145732 -0.4553629 0.106173694 0.33940074 -0.5573585 0.31028792 0.07577371 -0.06671121
0.16185842 0.3006895 0.031037005 -0.10795464 0.28459176 0.49380362 -0.257573 -0.29570293
0.31820786 -0.24621347 -1.0093324 0.38281202 0.55494064 0.15198751 0.23749706 -0.17605154
-0.16468865 -0.19791523 -0.24012178 -0.0872792 0.27692416 -0.25696573 0.52358663 0.21904412
0.4251497 0.25288796 0.14410274 0.07261667 0.13283785 -0.20620415 -0.023069376 0.085838005
0.29414028 0.5554647 -0.3943341 -0.069617614 0.19692044 -0.33947495 0.44379807 0.010427593
0.17103969 -0.07862504 -0.49695787 -0.0556512 0.20451598 -0.05158427 0.30698207 0.41404226
-0.23491742 -0.43984023 -0.10395566 0.19171767 -0.46350968 -0.15860772 0.23930532 0.29753417
0.060696367 -0.25917184 0.33836237 0.19050084 0.2586041 0.28588453 0.045132563 0.10982112
-0.055093598 0.48670635 0.48767298 0.13885932 -0.09639867 0.18966003 0.047967177 0.014785894
-0.00077602477 0.33495134 0.19590597 0.1269163 0.46921393 -0.39998507 -0.1271758 0.41272503
0.22295302 0.39998683 -0.09647976 0.009518628 0.059752807 -0.5295051 -0.21756692 -0.04290838
0.34168565 -0.31511742 0.52992266 -0.047880776 0.14160419 0.33084676 -0.23543751 -0.045124806
00000000: 4ffd f53c ebf0 70be b363 803e 803d 003c
00000010: 04bd 47be 409a 2cbe 292d f83e afc3 693d
00000020: f6bd 153f 992d 3bbe 781a 833e b5e5 c8bd
00000030: c49f f3bd 80dd bfbc e584 69bd 1ec4 8ebe
00000040: f127 74be dcbf f93e 8103 5f3e 8e3d 853e
00000050: ce9d 00bf 0ead 99bd 26d4 183f 7dbd e23e
00000060: 3662 41be dae8 263e 8a0b d3bd 38c6 98be
00000070: 2fd0 e53d 9561 8c3e a239 a5be f64d adbe
00000080: 200e 81bc b95c 193e 9aec 9d3e 69ec 33be
00000090: 1c36 773e 18cd 1cbe 3ad6 72be 27c9 92bd
000000a0: a643 2abd dffc ae3d b28b 84bd f124 b03e
000000b0: 1007 c03d 3fbf 303f 3841 ddbc 6d2d 24be
000000c0: cc77 b9be 4845 a1be 8a77 1abf 208b 8d3b
000000d0: 8fc4 ccbe 968f 8b3e e430 e43e fc6e 1abe
000000e0: 4e34 c33e 034c a23c 5572 eabe 5f8c ddbe
000000f0: 13dc 6f3e 9551 9bbe 4d6b 4dbe b06d 59be
00000100: 196d d5bd b60f 68bd ad33 6e3d 9341 0e3f
00000110: 7903 273e d15f 863d 16ee 253e d784 f6bd
00000120: 14cd 963e 1f9e 12be 55ea 05bf ef8b df3d
00000130: 21f5 3a3e 6d54 61be bde8 f53e 46e1 cbbd
00000140: 0805 99be 7d08 8abb bb6a 00bf 1a24 dfbd
00000150: 1a9e cdbd 1b0f 30be fe95 0a3e 1782 97be
00000160: 9d58 9abe 5325 e9be 9871 d93d efc5 ad3e
00000170: 0caf 0ebf 0fde 9e3e 3f2f 9b3d e39f 88bd
00000180: 37be 253e f9f3 993e 5141 fe3c 5317 ddbd
00000190: 03b6 913e d4d3 fc3e 9ce0 83be 6066 97be
000001a0: 24ec a23e 621f 7cbe ce31 81bf f0ff c33e
000001b0: 9710 0e3f 9da2 1b3e 6e32 733e db46 34be
000001c0: 24a4 28be 4aaa 4abe 7ce2 75be 70bf b2bd
000001d0: 01c9 8d3e 0391 83be c609 063f 1a4d 603e
000001e0: 39ad d93e 887a 813e ab8f 133e 0cb8 943d
000001f0: a506 083e 2e27 53be fdfb bcbc d6cb af3d
00000200: 8e99 963e ef32 0e3f 29e6 c9be ae93 8ebd
00000210: 83a5 493e a9cf adbe 8039 e33e 7fd8 2a3c
00000220: 0725 2f3e 2a06 a1bd 4371 febe 83f2 63bd
00000230: a36c 513e 074a 53bd c12c 9d3e 59fd d33e
00000240: 318e 70be bd32 e1be b4e6 d4bd a351 443e
00000250: 2451 edbe 106a 22be 740c 753e 6656 983e
00000260: c19c 783d 2cb2 84be d53d ad3e a712 433e
00000270: c267 843e 755f 923e ecdc 383d e5e9 e03d
00000280: d3a9 61bd 9331 f93e 46b0 f93e 2331 0e3e
00000290: aa6c c5bd 3d36 423e 3b79 443d 8940 723c
000002a0: 246e 4bba be7e ab3e 939b 483e 59f6 013e
000002b0: cf3c f03e d8ca ccbe 5f3a 02be b250 d33e
000002c0: cc4d 643e 13cb cc3e 2e97 c5bd 05f4 1b3c
000002d0: 5cbf 743d a58d 07bf ddc9 5ebe b3c0 2fbd
000002e0: 6cf1 ae3e 1257 a1be 03a9 073f a21e 44bd
000002f0: b000 113e bf64 a93e 8816 71be cad4 38bd

bias f4 [8]
0.057416305 -0.026047517 0.13646235 0.08612388 0.09831938 -0.12832288 0.05125587 0.006958658
00000000: 5c2d 6b3d 9a61 d5bc c9bc 0b3e b861 b03d
00000010: ac5b c93d 1367 03be adf1 513d 7405 e43b

weight f4 [8]
0.236928 0.21416225 0.25082228 0.2153072 0.28780073 0.35636714 0.12956166 0.21743405
00000000: 419d 723e 594d 5b3e c76b 803e 7e79 5c3e
00000010: 9e5a 933e c175 b63e d0ab 043e 08a7 5e3e

weight f4 [8, 8, 3]
0.050957896 0.43510723 0.25919178 0.028366808 -0.36156654 -0.010493893 0.01418711 -0.3687448
-0.36309472 -0.6056943 -0.5721871 -0.34282976 0.095935866 -0.1157612 0.024108468 0.33240893
0.022701861 0.14857098 -0.10927495 0.23492764 -0.51292 -0.4477869 0.053518575 0.031128839
-0.18214183 0.13138844 0.08456274 -0.54507565 -0.13784003 -0.26844802 0.71672165 0.7061803
-0.33642423 0.27634716 0.21953246 -0.3088473 -0.6289084 -0.23050334 0.22115728 -0.07789521
-0.20403884 0.24918747 0.07362712 -0.22643079 -0.049851257 0.08214251 0.38565567 0.23837341
0.81873894 -0.2067532 0.0064924597 0.20138258 -0.22457433 -0.31943175 0.15295115 -0.56453586
-0.44488198 0.04003656 -0.059865873 0.3166315 0.031770617 0.24370173 -0.17182651 -0.21113782
0.58940494 0.40924612 -0.18277046 -0.1368515 0.082441896 0.21264744 0.2671681 -0.0020762682
-0.18250586 0.19066761 0.0047885287 0.15156311 0.26403353 -0.016040264 0.052137703 0.108605936
-0.109414116 -0.39785078 -0.036235817 0.022927992 -0.41419634 0.64103454 0.064011686 -0.3833688
0.09615174 0.078607395 0.018804276 0.37305197 -0.35290757 -0.037223123 0.0012026705 -0.22248606
0.16263957 -0.10130864 0.30916044 -0.41444957 -0.04857034 -0.2689693 -0.4734274 0.5748697
-0.3346963 0.17143688 -0.64883274 0.47133565 0.030658772 0.045966923 -0.2507443 0.17706263
0.4988902 -0.16198006 -0.16874515 0.031186616 0.47306955 -0.24732517 -0.16699173 -0.42129606
-0.09291574 0.022723084 -0.34560946 -0.36362657 0.43499866 -0.6096927 0.42245522 0.038593892
-0.22906353 -0.3555528 -0.28125003 -0.06686986 -0.033585876 0.28174356 -0.23773208 0.37501916
0.27156392 0.109268926 -0.48079345 0.29761603 -0.32483608 0.27163953 -0.026920952 0.66660184
-0.26535824 -0.34796178 -0.7264412 -0.07388577 0.2798505 0.015256572 -0.05902422 -0.56611985
0.047732126 0.022593232 -0.18172485 0.031492915 -0.4851297 0.28621614 -0.12869506 0.2561327
0.35559842 -0.26643008 -0.0044153747 -0.26900774 -0.465436 -0.22755195 0.5262819 0.546015
-0.03478118 -0.12526032 -0.20942703 0.04503397 0.07478735 -0.03122811 0.2248858 -0.36681864
-0.21016571 -0.2204953 -0.56304085 -0.045062806 -0.46358442 0.13280018 0.014364098 0.34072804
-0.015186338 -0.041094784 0.58835477 -0.13982332 -0.16008125 0.2921925 -0.16034582 -0.27486852
00000000: 3ab9 503d 60c6 de3e c9b4 843e 8261 e83c
00000010: 401f b9be 94ee 2bbc 0d71 683c 1ecc bcbe
00000020: 8de7 b9be c80e 1bbf db7a 12bf 6287 afbe
00000030: 067a c43d 3514 edbd 1f7f c53c 8131 aa3e
00000040: 41f9 b93c fe22 183e 8ccb dfbd df90 703e
00000050: ba4e 03bf 5344 e5be 4b36 5b3d e801 ff3c
00000060: 6383 3abe b18a 063e 3b2f ad3d 148a 0bbf
00000070: f025 0dbe 0572 89be 127b 373f 3bc8 343f
00000080: cc3f acbe 607d 8d3e 1ecd 603e 3c21 9ebe
00000090: 2400 21bf 1109 6cbe 0e77 623e 8687 9fbd
000000a0: 8fef 50be 002b 7f3e d1c9 963d 79dd 67be
000000b0: d530 4cbd 553a a83d a974 c53e 2918 743e
000000c0: e098 513f 1cb7 53be b3be d43b 3c37 4e3e
000000d0: d0f6 65be 8f8c a3be 3a9f 1c3e 6c85 10bf
000000e0: 92c7 e3be 60fd 233d eb35 75bd 861d a23e
000000f0: e821 023d f28c 793e 4af3 2fbe 8334 58be
00000100: 3ee3 163f b588 d13e 2e28 3bbe cd22 0cbe
00000110: 4cd7 a83d 40c0 593e 42ca 883e 0012 08bb
00000120: d1e2 3abe 5f3e 433e 17e9 9c3b 5c33 1b3e
00000130: 672f 873e df66 83bc 588e 553d ca6c de3d
00000140: 8214 e0bd 19b3 cbbe 026c 14bd 7cd3 bb3c
00000150: 8b11 d4be d71a 243f 8f18 833d ea48 c4be
00000160: 34eb c43d eafc a03d 6d0b 9a3c ab00 bf3e
00000170: 4db0 b4be 4677 18bd eda2 9d3a 63d3 63be
00000180: fd8a 263e e77a cfbd 474a 9e3e bc32 d4be
00000190: b1f1 46bd 58b6 89be 1465 f2be a92a 133f
000001a0: 505d abbe 268d 2f3e e719 26bf e852 f13e
000001b0: 1b28 fb3c d047 3c3d 8f61 80be e84f 353e
000001c0: 896e ff3e 1ade 25be 87cb 2cbe 137b ff3c
000001d0: 2c36 f23e cf42 7dbe e1ff 2abe 1eb4 d7be
000001e0: 9c4a bebd c325 ba3c b9f3 b0be 432d babe
000001f0: 25b8 de3e d214 1cbf 0d4c d83e a114 1e3d
00000200: a18f 6abe 040b b6be 0100 90be 11f3 88bd
00000210: 5891 09bd b140 903e 0a70 73be 8302 c03e
00000220: 6d0a 8b3e 63c8 df3d 8f2a f6be 2161 983e
00000230: ea50 a6be 5614 8b3e 5489 dcbc 6ba6 2a3f
00000240: 09dd 87be 0c28 b2be 0df8 39bf 6c51 97bd
00000250: 9148 8f3e b3f6 793c 61c3 71bd 3bed 10bf
00000260: c382 433d 7115 b93c 1416 3abe b7fe 003d
00000270: ec62 f8be ec8a 923e a3c8 03be d323 833e
00000280: ff10 b63e 8669 88be d9ae 90bb 62bb 89be
00000290: a14d eebe 6103 69be 69ba 063f a4c7 0b3f
000002a0: b676 0ebd 3e44 00be 0a74 56be 8a75 383d
000002b0: 1c2a 993d 18d2 ffbc 7748 663e a7cf bbbe
000002c0: ae35 57be 85c9 61be 7223 10bf c793 38bd
000002d0: f05a edbe c5fc 073e 6557 6b3c e873 ae3e
000002e0: 1ed0 78bc 0153 28bd 6b9e 163f d82d 0fbe
000002f0: 57ec 23be 419a 953e b231 24be 91bb 8cbe

bias f4 [8]
-0.08500508 -0.18097836 0.10168231 0.14689568 -0.19527766 0.122347936 0.061888717 0.042118877
00000000: 2517 aebd 6452 39be d13e d03d d26b 163e
00000010: def6 47be 8e91 fa3d 067f 7d3d d884 2c3d

weight f4 [8]
0.2664714 0.25633204 0.28460306 0.08411083 0.3448065 0.2319648 0.22378586 0.20109217
00000000: f06e 883e f43d 833e 7eb7 913e 4d42 ac3d
00000010: 7a8a b03e 2e88 6d3e 1f28 653e 1beb 4d3e

weight f4 [8, 8, 3]
0.3632104 -0.41947538 -0.013333203 -0.02252721 -0.36035016 -0.24297537 0.43196565 0.4217656
-0.12513062 -0.0029388333 0.0443266 -0.39410335 0.7349865 -0.12226236 -0.38363287 0.036957916
-0.0094587505 -0.07538458 -0.029137753 -0.16584548 0.19644529 0.15221141 -0.13938469 -0.06969419
0.30638975 0.042614255 -0.44874018 -0.46960518 -0.16979232 -0.5617647 -0.06707128 0.10307579
0.11982353 -0.18912153 -0.37628615 -0.13214667 -0.0020116162 -0.055113174 0.021248976 0.26412424
0.21344459 -0.28547382 0.14270876 -0.3227877 -0.092451714 0.13854763 0.20914608 0.24797338
0.31644675 -0.3497572 -0.1542883 0.052072313 0.1312657 0.10590831 -0.28729996 -0.32934803
-0.23446228 -0.12732472 -0.17160398 0.19173574 0.18249446 -0.15270934 -0.29481053 0.49360406
-0.29752746 -0.4377167 -0.22752565 0.22991619 -0.042357974 0.13297328 -0.38258335 -0.3832787
0.42532098 -0.45089942 0.4981444 0.0028663797 -0.067749776 -0.23247597 -0.11333446 0.53265166
-0.085216455 -0.67176217 0.039764114 -0.14083104 0.26313412 -0.0067407517 0.13054553 0.3934837
-0.06958871 -0.12466889 -0.06660266 -0.0898122 0.2325473 0.09450428 0.36652237 0.05782259
-0.5710921 0.09998818 -0.30430466 -0.15589297 -0.193211 -0.34918904 -0.25156307 0.49599153
-0.61044073 -0.089793704 0.07426165 0.42206255 -0.41739926 -0.34381577 0.16022177 0.33554003
-0.3468431 0.34213415 -0.2703698 -0.37885803 -0.10985295 0.14666627 -0.13590239 -0.15766233
0.2194483 -0.2869459 0.52618307 -0.506133 0.055933565 0.14813656 -0.20313534 -0.15365008
0.21941473 0.05271505 -0.27113315 -0.22791421 -0.14998893 0.3910379 0.79798275 -0.28113604
0.028906662 0.28476325 -0.1768851 -0.5358994 0.040868312 0.23145452 -0.14150918 0.25898322
-0.27757403 0.12436111 -0.2135447 -0.13032946 -0.34874228 0.3755054 0.18250696 -0.020972235
-0.0084894765 0.34729037 0.22143106 -0.23405245 0.2966507 -0.116953135 -0.14822282 -0.07292522
-0.47263008 0.1980133 0.067507215 0.039795753 -0.2191279 -0.11994363 0.06584195 0.21864797
-0.30695626 -0.103915356 -0.1671486 -0.18214995 0.087086916 0.06432766 -0.09489162 -0.18699612
-0.32693225 0.38164565 0.20812324 -0.008682537 0.8068235 -0.58018047 0.08612291 0.1930933
-0.0880049 -0.23139589 -0.07081471 -0.11852778 -0.07763966 0.27301142 -0.32693514 0.6080313
00000000: b7f6 b93e 7ac5 d6be 8273 5abc fc8a b8bc
00000010: d17f b8be 89ce 78be 9a2a dd3e a9f1 d73e
00000020: 3e22 00be 7199 40bb cf8f 353d eac7 c9be
00000030: 1328 3c3f b064 fabd 876b c4be 2f61 173d
00000040: e0f8 1abc 3b63 9abd 4cb2 eebc 66d3 29be
00000050: f428 493e 4fdd 1b3e dcba 0ebe d4bb 8ebd
00000060: 1edf 9c3e 498c 2e3d 46c1 e5be 1770 f0be
00000070: 0ade 2dbe d0cf 0fbf ab5c 89bd 6619 d33d
00000080: 0a66 f53d 13a9 41be 94a8 c0be 7551 07be
00000090: 52d5 03bb 5abe 61bd 5512 ae3c 4b3b 873e
000000a0: 3891 5a3e a029 92be 3f22 123e 6e44 a5be
000000b0: 5357 bdbd 6edf 0d3e 642a 563e bcec 7d3e
000000c0: 4f05 a23e 6013 b3be c1fd 1dbe c749 553d
000000d0: 846a 063e 75e6 d83d fb18 93be 4ea0 a8be
000000e0: e116 70be 6961 02be f4b8 2fbe 6056 443e
000000f0: d4df 3a3e d65f 1cbe 68f1 96be acb9 fc3e
00000100: 8555 98be 671c e0be 7cfc 68be 266f 6b3e
00000110: 8e7f 2dbd 262a 083e f7e1 c3be 1b3d c4be
00000120: acc3 d93e 4adc e6be c80c ff3e dfd9 3b3b
00000130: 65c0 8abd 2e0e 6ebe e61b e8bd dc5b 083f
00000140: f785 aebd 9bf8 2bbf b2df 223d 0336 10be
00000150: 84b9 863e 86e1 dcbb baad 053e b276 c93e
00000160: 8784 8ebd 6752 ffbd fa66 88bd 75ef b7bd
00000170: e120 6e3e 768b c13d d2a8 bb3e 61d7 6c3d
00000180: 1833 12bf 9ac6 cc3d d2cd 9bbe 68a2 1fbe
00000190: 1bd9 45be e8c8 b2be e0cc 80be 9af2 fd3e
000001a0: d845 1cbf c3e5 b7bd 7e16 983d 9518 d83e
000001b0: 5bb5 d5be 9f08 b0be 2d11 243e e7cb ab3e
000001c0: 6b95 b1be 352c af3e e96d 8abe aef9 c1be
000001d0: 95fa e0bd af2f 163e ff29 0bbe 3c72 21be
000001e0: 0eb7 603e 93ea 92be efb3 063f ef91 01bf
000001f0: 981a 653d 1cb1 173e b602 50be 7256 1dbe
00000200: 41ae 603e bceb 573d f7d1 8abe 5862 69be
00000210: b396 19be 1f36 c83e 9948 4c3f 10f1 8fbe
00000220: aacd ec3c 7dcc 913e 5e21 35be b430 09bf
00000230: 8865 273d 6a02 6d3e c8e7 10be 7399 843e
00000240: 2f1e 8ebe 0ab1 fe3d 76ab 5abe 1675 05be
00000250: 598e b2be 3e42 c03e 1be3 3a3e f7cd abbc
00000260: 7217 0bbc 0bd0 b13e d3be 623e 72ab 6fbe
00000270: 9ae2 973e 2085 efbd b9c7 17be d159 95bd
00000280: 92fc f1be 00c4 4a3e 3941 8a3d df00 233d
00000290: 1063 60be 02a5 f5bd 25d8 863d 41e5 5f3e
000002a0: 5f29 9dbe 93d1 d4bd 0129 2bbe 8485 3abe
000002b0: a05a b23d 38be 833d 8a56 c2bd e97b 3fbe
000002c0: aa63 a7be 0f67 c33e 421e 553e 3341 0ebc
000002d0: fc8b 4e3f b586 14bf 3561 b03d 40ba 453e
000002e0: ea3b b4bd 0bf3 6cbe 4d07 91bd b1be f2bd
000002f0: 8b01 9fbd 27c8 8b3e 0b64 a7be f0a7 1b3f

bias f4 [8]
-0.19386126 0.07956243 -0.23610875 -0.12419085 0.18817927 -0.1528784 0.075082615 0.1485384
00000000: 9183 46be a1f1 a23d 7ec6 71be c657 febd
00000010: 11b2 403e 288c 1cbe eac4 993d 731a 183e

weight f4 [8]
0.3115343 0.2580518 0.2473026 0.29515097 0.22495684 0.38102868 0.23309973 0.23979871
00000000: 6c81 9f3e 5e1f 843e e53c 7d3e 071e 973e
00000010: 165b 663e 3116 c33e b2b1 6e3e cb8d 753e

weight f4 [8, 8, 3]
-0.13032706 -0.008276945 0.061882295 0.6210958 0.16265962 -0.1481488 -0.02656159 0.00013618168
0.26434523 0.19339783 0.18915151 -0.2977328 -0.37673774 -0.1137767 -0.11698763 -0.28694955
-0.13884883 0.17473413 -0.06103683 0.06477507 -0.3443913 0.2728037 0.11898598 -0.1286367
0.26616392 -0.2711277 0.06467876 0.2760082 0.6058117 -0.3575716 0.011636148 0.031012168
0.5499305 -0.0439268 0.3415121 -0.71677953 0.05631564 0.5337344 0.06599673 -0.06305284
-0.4895395 -0.016681295 0.70576096 0.059414916 0.03296748 0.0037237161 0.25071073 0.5348397
-0.4687258 0.17104346 0.5367366 -0.32905462 -0.19536817 -0.6986286 -0.16406338 0.25617233
0.24849407 0.14710334 0.07257181 0.124750115 -0.12861408 -0.33766568 0.02096606 0.07136676
0.41221577 0.24510263 0.042515304 -0.01874092 -0.04384312 0.20291318 0.05125426 -0.08047125
-0.03967271 -0.2330755 0.54251283 0.43785912 0.19304252 0.48553982 0.14338993 -0.31827298
-0.3344334 -0.33129624 0.4783636 -0.007334261 0.12269203 0.08448395 -0.005977732 -0.11849068
0.1690065 0.28035718 0.4413989 -0.1807425 -0.09177841 -0.1637442 0.2638987 0.20593701
-0.17136097 -0.2250279 -0.11431001 -0.12736033 0.17278688 -0.05761769 0.2519415 0.0050574546
0.13164492 -0.14787588 0.22743349 0.42833993 -0.21227029 -0.15965006 -0.81276304 -0.025442984
-0.5152934 0.005936144 -0.18138283 0.040630825 -0.1298977 0.035370383 0.20074485 0.11487696
0.119670406 -0.04450058 0.01339122 -0.058730632 0.027168337 0.10789967 0.5211163 -0.6575903
-0.120313674 0.4092609 -0.05085718 -0.006749597 -0.43548596 0.1303122 -0.3124957 0.4610165
-0.16794991 0.67229754 0.22291413 -0.21036713 -0.004109105 -0.0502227 0.34620446 -0.38525394
0.16601036 0.59612185 -0.46202034 -0.045006566 -0.5175499 0.041213963 0.35558343 0.013626131
0.18657848 0.044997834 0.030304315 -0.11401717 -0.040234514 0.33503106 0.3239147 -0.1347067
0.73373085 0.4047204 0.07423428 0.12025702 -0.007894421 0.2146769 -0.3740034 -0.103810176
-0.10485079 0.06073713 0.041506592 -0.4102071 0.20195508 0.6883811 0.57150036 0.43992028
-0.068914585 -0.44752234 -0.26245922 0.5084808 0.26866195 -0.38176385 -0.008886689 0.5340921
-0.47977805 0.31120697 -0.049227368 -0.010150013 0.14982344 -0.04534615 0.071945466 -0.6364279
00000000: 7574 05be 069c 07bc 4a78 7d3d 2200 1f3f
00000010: 3e90 263e 52b4 17be b197 d9bc fecb 0e39
00000020: 4258 873e 150a 463e efb0 413e 6f70 98be
00000030: c5e3 c0be c203 e9bd 3697 efbd 0deb 92be
00000040: 632e 0ebe 81ed 323e c101 7abd cba8 843d
00000050: 0e54 b0be edac 8b3e ecae f33d 57b9 03be
00000060: a346 883e 40d1 8abe 4c76 843d f250 8d3e
00000070: 7a16 1b3f a013 b7be 8ba5 3e3c 3b0d fe3c
00000080: 3fc8 0c3f 97ec 33bd adda ae3e dd7e 37bf
00000090: 3bab 663d d1a2 083f 4b29 873d d921 81bd
000000a0: eca4 fabe 36a7 88bc c0ac 343f 0e5d 733d
000000b0: e908 073d 9709 743b 285d 803e 41eb 083f
000000c0: d4fc efbe 0426 2f3e 9267 093f d979 a8be
000000d0: 980e 48be 53d9 32bf 3b00 28be 0529 833e
000000e0: 3b75 7e3e 42a2 163e 87a0 943d fd7c ff3d
000000f0: 69b3 03be 84e2 acbe 04c1 ab3c bc28 923d
00000100: f20d d33e 2ffc 7a3e 8724 2e3d 8f86 99bc
00000110: d894 33bd 79c8 4f3e fdef 513d 1cce a4bd
00000120: da7f 22bd 58ab 6ebe 1fe2 0a3f 122f e03e
00000130: f0ac 453e ad98 f83e cfd4 123e adf4 a2be
00000140: db3a abbe a99f a9be 13ec f43e 3e54 f0bb
00000150: f645 fb3d ec05 ad3d dae0 c3bb 3eab f2bd
00000160: 0a10 2d3e fa8a 8f3e 09ff e13e 9014 39be
00000170: 52f6 bbbd 8fac 27be bb1d 873e 27e1 523e
00000180: 4079 2fbe b76d 66be 5e1b eabd bf6a 02be
00000190: 0bef 303e 8700 6cbd 7afe 803e 01b9 a53b
000001a0: edcd 063e c66c 17be 53e4 683e 5f4f db3e
000001b0: 625d 59be 4e7b 23be 3d11 50bf ce6d d0bc
000001c0: 45ea 03bf fc83 c23b 6cbc 39be 826c 263d
000001d0: e703 05be 89e0 103d 0f90 4d3e 9d44 eb3d
000001e0: c215 f53d 3d46 36bd d966 5b3c 888f 70bd
000001f0: 2290 de3c 81fa dc3d e167 053f d757 28bf
00000200: 0467 f6bd a58a d13e 9e4f 50bd b92b ddbb
00000210: 04f8 debe 9070 053e 70ff 9fbe 5b0a ec3e
00000220: 10fb 2bbe b11b 2c3f 9a43 643e 7b6a 57be
00000230: aca5 86bb 51b6 4dbd b641 b13e 0140 c5be
00000240: 9ffe 293e 719b 183f ee8d ecbe ce58 38bd
00000250: 267e 04bf f9cf 283d 080f b63e 2340 5f3c
00000260: 6e0e 3f3e a64f 383d c140 f83c d681 e9bd
00000270: f2cc 24bd 3189 ab3e 26d8 a53e 8ef0 09be
00000280: c9d5 3b3f 8337 cf3e 2408 983d 5049 f63d
00000290: 9a57 01bc 43d4 5b3e 607d bfbe 6e9a d4bd
000002a0: 03bc d6bd 7fc7 783d d102 2a3d aa06 d2be
000002b0: 50cd 4e3e be39 303f d94d 123f 3b3d e13e
000002c0: 1723 8dbd a621 e5be 0e61 86be cc2b 023f
000002d0: 0f8e 893e 8d76 c3be 7a99 11bc 43ba 083f
000002e0: 78a5 f5be 8556 9f3e a3a2 49bd 3d4c 26bc
000002f0: 516b 193e e2bc 39bd 2558 933d f0ec 22bf

bias f4 [8]
-0.18902175 0.10663062 -0.22216696 0.036281504 -0.20377915 -0.022659106 -0.004557595 -0.0182074
00000000: eb8e 41be 2861 da3d bc7f 63be ea9b 143d
00000010: 7bab 50be 979f b9bc e157 95bb af27 95bc

weight f4 [8]
0.28214917 0.24517289 0.2566644 0.28782827 0.27115873 0.29114157 0.20438248 0.20845048
00000000: db75 903e 9a0e 7b3e 8469 833e 3a5e 933e
00000010: 51d5 8a3e 8210 953e a449 513e 0b74 553e

weight f4 [8, 8, 3]
0.3746002 -0.29661357 0.053844556 -0.08407025 -0.119049795 0.13563342 0.52835524 0.10699684
0.7231642 -0.003627449 0.115134545 0.033391137 -0.115698144 0.17844687 -0.50159395 -0.13754041
-0.49637198 0.7133389 0.5758799 -0.20279078 -0.4402096 -0.40783635 0.035030138 -0.2186832
0.2709054 -0.44909805 -0.6307093 0.07336037 -0.030001018 0.26016977 -0.15491152 -0.26313373
0.16565128 -0.7455016 -0.039618533 0.09107977 0.03925083 0.17438854 -0.08372113 -0.15074454
0.3650425 -0.36779886 0.08580677 0.4521824 0.2384741 0.40977085 -0.2779768 -0.022126982
-0.06475682 0.058354415 0.075143054 -0.058184482 -0.28923792 -0.33562028 0.079157606 -0.24072477
0.02895462 0.25411528 -0.18045126 0.11454651 0.3579517 0.0481003 -0.3933109 0.46569276
-0.010357592 0.08355717 0.037742086 0.43147808 -0.24262112 0.14758763 0.3294697 0.24933745
-0.06467915 -0.5567696 -0.2742064 0.06665248 0.21598785 -0.00064456346 -0.15859671 0.23212653
-0.07107695 0.73563564 -0.18973851 -0.31367895 -0.053886246 -0.20578775 -0.12751557 0.089292265
0.4659639 0.22259605 0.25413603 0.35988197 -0.039473128 -0.44604552 -0.26391897 0.31541273
0.61908275 0.24245033 0.32813296 0.008882275 -0.17518233 0.4455618 -0.11181089 -0.0014288248
-0.17215507 -0.41657063 0.51733524 -0.051660854 -0.08800735 -0.16649216 0.51563865 0.046649616
0.27578977 0.031152898 -0.23305021 -0.10832427 -0.18338288 -0.0702837 0.021997096 -0.619627
0.25080252 -0.27813715 0.25975525 -0.03205959 -0.090894125 -0.05302152 -0.09928997 -0.16380894
0.46923187 -0.3375874 0.049259353 -0.21418859 0.07961711 0.19353355 -0.26961777 0.3381113
0.19066718 0.08848416 -0.17687728 -0.17746572 0.35402504 0.1811916 -0.17978391 0.1466547
0.16470236 0.021972135 -0.36279026 -0.033314627 0.38591054 -0.0061767474 0.5380193 -0.13309468
-0.23860013 0.11870661 -0.26264888 0.14946759 -0.16471158 -0.0021373862 -0.2796585 -0.18510404
-0.0388751 -0.600436 -0.23746751 0.291715 0.14316788 -0.40021962 0.31574997 -0.109356344
0.0522181 0.2842043 -0.20847198 -0.33171952 -0.15232661 -0.13070917 -0.25985155 -0.48630702
0.04522594 0.033866774 -0.02091848 -0.027180487 -0.22507913 -0.5405638 -0.06710875 0.30299893
-0.24288927 0.13944514 0.19408877 -0.2608847 0.20370221 0.31108207 -0.21090691 -0.477662
00000000: 99cb bf3e bcdd 97be 1c8c 5c3d 062d acbd
00000010: 61d0 f3bd 7de3 0a3e 4a42 073f 2921 db3d
00000020: 4a21 393f 7fba 6dbb a9cb eb3d 25c5 083d
00000030: 26f3 ecbd c7ba 363e 7668 00bf 65d7 0cbe
00000040: 7824 febe 619d 363f dd6c 133f 63a8 4fbe
00000050: 2763 e1be edcf d0be c37b 0f3d 7dee 5fbe
00000060: 1db4 8a3e 2ef0 e5be 2a76 21bf f63d 963d
00000070: b2c4 f5bc f934 853e 20a1 1ebe 77b9 86be
00000080: 7da0 293e 31d9 3ebf 0b47 22bd 0888 ba3d
00000090: 7ac5 203d e992 323e fc75 abbd c75c 1abe
000000a0: dae6 ba3e 2250 bcbe 76bb af3d 7484 e73e
000000b0: 8e32 743e 7ccd d13e fa52 8ebe a543 b5bc
000000c0: 399f 84bd 0a05 6f3d 9ae4 993d da52 6ebd
000000d0: fe16 94be 6cd6 abbe 621d a23d 8e80 76be
000000e0: 3d32 ed3c 661b 823e 37c8 38be 5c97 ea3d
000000f0: 7245 b73e d204 453d 0c60 c9be 486f ee3e
00000100: e4b2 29bc 0620 ab3d 7297 1a3d b2ea dc3e
00000110: ac71 78be 3621 173e 41b0 a83e 5152 7f3e
00000120: 8176 84bd 7488 0ebf c864 8cbe 1881 883d
00000130: eb2b 5d3e ecf7 28ba 2d67 22be 94b2 6d3e
00000140: cb90 91bd 9e52 3c3f d04a 42be 879a a0be
00000150: d3b7 5cbd 06ba 52be 7193 02be ddde b63d
00000160: d292 ee3e 38f0 633e 1e1e 823e 7342 b83e
00000170: 93ae 21bd 1460 e4be 6320 87be c77d a13e
00000180: 357c 1e3f e644 783e 0b01 a83e f686 113c
00000190: ff62 33be ad20 e43e 1cfd e4bd 6847 bbba
000001a0: 6b49 30be bf48 d5be 1570 043f 559a 53bd
000001b0: 333d b4bd ec7c 2abe e500 043f ab13 3f3d
000001c0: 5134 8d3e 5d34 ff3c b7a4 6ebe 1dd9 ddbd
000001d0: b9c8 3bbe e7f0 8fbd 4133 b43c e09f 1ebf
000001e0: 3069 803e fe67 8ebe a4fe 843e eb50 03bd
000001f0: b326 babd 182d 59bd 8a58 cbbd 88bd 27be
00000200: 293f f03e 41d8 acbe 2dc4 493d 4154 5bbe
00000210: 4c0e a33d a92d 463e 570b 8abe ed1c ad3e
00000220: 423e 433e 2f37 b53d 511f 35be 93b9 35be
00000230: c542 b53e 4a8a 393e 4619 38be a62c 163e
00000240: bca7 283e e8fe b33c a5bf b9be eb74 08bd
00000250: 1196 c53e 5066 cabb a2bb 093f f949 08be
00000260: 9853 74be 731c f33d ea79 86be 080e 193e
00000270: 27aa 28be 6413 0cbb 662f 8fbe ea8b 3dbe
00000280: 7f3b 1fbd 2cb6 19bf af2a 73be ab5b 953e
00000290: 9a9a 123e 96e9 ccbe fba9 a13e 38f6 dfbd
000002a0: a5e2 553d 3a83 913e ae79 55be 24d7 a9be
000002b0: 82fb 1bbe a0d8 05be 430b 85be 3cfd f8be
000002c0: d63e 393d e3b7 0a3d 3b5d abbc 9da9 debc
000002d0: 257b 66be 6462 0abf 5070 89bd ad22 9b3e
000002e0: f7b7 78be b5ca 0e3e 35bf 463e ae92 85be
000002f0: 5097 503e 2646 9f3e fbf7 57be 1d90 f4be

bias f4 [8]
-0.14740318 -0.09258879 -0.1292653 -0.17044741 0.08385805 -0.04954018 0.19250411 0.0537301
00000000: dcf0 16be 319f bdbd 1f5e 04be c489 2ebe
00000010: c5bd ab3d a5ea 4abd cc1f 453e 1814 5c3d

weight f4 [8]
0.24880952 0.24655128 0.24327493 0.23005752 0.2560121 0.28091383 0.23078619 0.18661085
00000000: ecc7 7e3e f077 7c3e 101d 793e 3394 6b3e
00000010: 0514 833e f0d3 8f3e 3753 6c3e ea16 3f3e
