models/teste-uncloss-dropblock-simpleblock-ss3_ss4_buried.pth (torch_old, 363976 bytes, 132 tensors)

weight f4 [24, 22, 1]
00000000: a87e 523f d8f0 eebe 19df f53d de09 71bf
00000010: cc96 36bf 9243 e2bc 0e21 27be a604 3f3c
00000020: b3ef 3abe 16d2 dbbe 57e1 72bc eac0 32be
00000030: 745f 373d d2c0 cfbf 84b2 b6be 549d 0abf
00000040: 594a aa3e c2fd d83e 5f72 6fbe 37aa 39bf
00000050: a8a3 85bd 2b99 3bc0 fa1a 5bc0 3dc8 9ebe
00000060: f09b a2be 2822 9abd 2769 5d3e 8ed8 7cbd
00000070: 70d6 69bf d02d 28be 4b0b 823c e5e1 89be
00000080: f6e1 b3bc 5e18 ccbe bd97 28bf 455a 8bbe
00000090: 68e4 45be 4fa7 95be 3b00 91bd 9f25 3e3e
000000a0: 727f b83d 4c94 433e d324 3bbc c51e 95bf
000000b0: e740 a140 35d7 42bf ff67 b7be 4c3a 793e
000000c0: 5dc7 553c fc7d eabe 1aa5 4a3f d146 823d
000000d0: f2bf 07c0 0aff 18bf 6251 59bf 5278 debd
000000e0: 1a74 173e 319a 653f e314 f0be a90f f6be
000000f0: 0018 2d3e 78db 37bf 52f6 35c0 23d9 48bc
00000100: 6081 9cbe 7552 1440 a433 403f e3ae fcbf
00000110: 3846 ec3d fedf 1cbf c0b8 04c0 8bd1 74c0
00000120: 9c83 f13d da9f 12c0 dac6 7ec0 778d 2dc0
00000130: 86b9 6ec0 25fd 87c0 c5d5 35bf 0285 acbd
00000140: 3fa4 24c0 dbc7 55c0 b980 0cc0 1be1 37c0
00000150: acbf 59c0 f2fe 83c0 9242 66c0 1c77 66bf
00000160: 6ba3 60bd 900b 0abe c2b8 90bf b7be 6ebe
00000170: 8263 1cbf dd1b 633e 1446 bebe 23eb f6bd
00000180: 3dee 08bd 6286 5dbf 45c3 f73d 2110 893d
00000190: 2178 3bbe f83d d9bf ede5 d2be d3e9 b3be
000001a0: 8d38 dbbe 6b44 83be bb4d 23be 2ce3 0a3f
000001b0: 15b3 503e 80d2 d4bf f984 59bf a802 c0bf
000001c0: dbc4 d63e 4f1b 2d3e e877 efbe 3a64 713d
000001d0: 9d48 f23d ef42 da3d 92fc dfbd 3e29 7abc
000001e0: c477 64bf 8815 83be b81f 6ebe c944 b9bc
000001f0: 7720 51be 6710 1bbd ebab b1be e49e 5c3e
00000200: 5e09 023e f9ea 85bc 971c 0cbe 11e3 e13f
00000210: 56d0 333f 4c22 ba3e 403e 02bf 5c8e 65bf
00000220: f904 2abd 37a4 37be cdf2 dfbe b424 a6be
00000230: fc1a 83be fb25 03bf 94bf 0dbf 3dbd adbe
00000240: 587a 3ebf 65d7 81be 38df 473d d0bc 4ebf
00000250: 6ba1 8cbd ed43 64be a03e d3bd f85c 93be
00000260: 5113 40be 9584 7e3f d0f3 273f fc19 633d
00000270: 94b2 c8be 0f3f 1ebe 0aa3 2dbe b9e3 f9be
00000280: 940e b93d 43ac 43bf 9469 58be 2891 aebd
00000290: 0e3d 9cbe a49e 09bf 9f10 253e c20c 0b3e
000002a0: 2e91 01bf 85e9 5cbd 44bb 543e 10b4 253d
000002b0: 54fd 67be f95e 6d3e 7add 3fbf 60f7 62bf
000002c0: 68d0 e8bc b766 6d3d 656f aabe 3ad8 5f3e
000002d0: c5b1 3f3e f877 8a3d 44bf 76bc 95ee 963e
000002e0: 8620 69be 0f20 cdbf 9dfa f5be cd28 60be
000002f0: d8eb 43bf 6e50 d6bf 3e70 68be ead1 ccbf
00000300: 3221 20be 94e9 7b3d 932a 86be e10a 84bc
00000310: f9bf d3bb 138e e23f 0616 f13f 7158 79bf
00000320: 7e52 333d 18a9 19be 5b76 c1be a00c 21bc
00000330: a4c8 303e 95a6 07bf 16a0 543e cb5b babc
00000340: 3b2a 17bf aef1 7ebf 2bec acbe e936 88bf
00000350: 9409 6bbf 782e 46be b3fa 01bf 34fd c3bd
00000360: 7920 b93e 18a1 bcbd 9f62 b33d 106f 82c0
00000370: 5222 52bf b2ea b2bf 5de4 93bc 4c73 fc3e
00000380: 9f1e 1dbf d2cd 13bf e04a b13e 410a 8b3e
00000390: 1b10 61bf ff1e 7dbe a0c1 cfbf 706a 82bf
000003a0: 41ff 0a3f 6f1a 463f 075a 3bbf ffea c2be
000003b0: a990 993d 7702 debd b657 3dbe 9196 f4be
000003c0: c4bb 80be fbb8 1d3f e18a cb3d 3f0c 7cbf
000003d0: 07a4 46be 6d2d 053e a12b 56be 3d06 243e
000003e0: d69d debf a626 f03c 2148 36be 4bd8 bcbd
000003f0: 9572 56be a429 f4bd cd49 bfbe 2cd8 d33f
0.8222451 -0.46668124 0.12005443 -0.9415568 -0.7132385 -0.02762011 -0.16321203 0.011658823
-0.182555 -0.4293372 -0.014824233 -0.17456403 0.044768766 -1.6230719 -0.35683072 -0.54146314
0.33259848 0.42381102 -0.23383473 -0.7252535 -0.065253556 -2.9312236 -3.4235215 -0.31012145
-0.31759596 -0.07526046 0.21622144 -0.06172996 -0.9134283 -0.16423726 0.015874526 -0.26930156
-0.021958333 -0.3986234 -0.65856534 -0.27217308 -0.19325411 -0.2922921 -0.07080122 0.18569039
0.09008683 0.1909954 -0.011422354 -1.1650015 5.0391726 -0.7610963 -0.3582153 0.24338645
0.01304802 -0.45799243 0.79158175 0.063611634 -2.1210904 -0.5976416 -0.84889805 -0.10862793
0.14790383 0.896884 -0.46890935 -0.48058823 0.16903687 -0.7181926 -2.8431592 -0.012258801
-0.30567455 2.3175328 0.750788 -1.9740871 0.11536831 -0.61279285 -2.0737762 -3.8252895
0.117926806 -2.2910066 -3.980887 -2.7117593 -3.7300735 -4.2496514 -0.7102931 -0.08423807
-2.5725248 -3.3403232 -2.1953566 -2.8731143 -3.4023237 -4.1248713 -3.5978131 -0.90025496
-0.054843348 -0.13480973 -1.1306384 -0.2331494 -0.61089337 0.22178598 -0.3716284 -0.120565675
-0.033430327 -0.86533177 0.120977916 0.066925295 -0.18307544 -1.6972036 -0.41191044 -0.3513933
-0.42816582 -0.25638136 -0.1594762 0.54252887 0.20380814 -1.662674 -0.84968525 -1.5000811
0.41947064 0.16904949 -0.4677117 0.058933474 0.11830256 0.10657298 -0.10936846 -0.015268622
-0.8924525 -0.25602365 -0.23254287 -0.022615807 -0.2042254 -0.03785744 -0.34701476 0.21544987
0.12698886 -0.016347395 -0.13682781 1.764742 0.7023977 0.3635429 -0.50876236 -0.8967035
-0.04150865 -0.17933737 -0.4373993 -0.32449877 -0.25606525 -0.5122983 -0.5537045 -0.3393344
-0.7440543 -0.25359645 0.048796862 -0.80756855 -0.068667255 -0.22291537 -0.10314679 -0.28781867
-0.18757369 0.99421054 0.65606403 0.055444703 -0.39198744 -0.15453742 -0.16956726 -0.4880655
0.09035984 -0.76434726 -0.21134025 -0.0852378 -0.3051533 -0.5375769 0.16119622 0.13579085
-0.5061215 -0.05393364 0.20774561 0.040454924 -0.22655231 0.2318076 -0.7494732 -0.88658714
-0.028419688 0.057959285 -0.33288112 0.21859828 0.18720157 0.067611635 -0.01506025 0.294789
-0.22766313 -1.6025409 -0.48042765 -0.21890564 -0.76531744 -1.6743295 -0.22699067 -1.6001561
-0.15637663 0.061502054 -0.26204357 -0.016118469 -0.006462094 1.7699608 1.8834846 -0.97400576
0.043779843 -0.1500591 -0.3778561 -0.00982967 0.17264038 -0.5298856 0.20764193 -0.022748848
-0.59048814 -0.99587524 -0.33773932 -1.0641757 -0.9181149 -0.19353664 -0.5077316 -0.09569779
0.36157587 -0.09210414 0.08759045 -4.0760574 -0.8208362 -1.3977873 -0.018053228 0.49306715
-0.6137485 -0.5773593 0.34627438 0.2715626 -0.879152 -0.24718855 -1.6230965 -1.0188732
0.54295737 0.77384084 -0.73184246 -0.38069913 0.07498295 -0.10840314 -0.1849049 -0.47771123
-0.25143254 0.6161038 0.099385984 -0.98456186 -0.19398509 0.1300561 -0.2091508 0.16018005
-1.7391918 0.029315304 -0.17800952 -0.09220942 -0.20942147 -0.11922005 -0.37360993 1.6550345

weight f4 [24]
00000000: b899 eb3d b186 223e d3a9 c23d e7c6 113c
00000010: 6afb b63d 91c3 ec3d f377 153e 88e6 3f3e
00000020: 4378 0e3e 7e36 223e 750f 033e 56b4 db3d
00000030: e9ef 9d3e e126 0e3e c84f 253d 8f70 5c3e
00000040: c1d7 3b3e 441f 353e 2f47 2c3e 1745 543e
00000050: 8920 603d 780f b63d b8e0 513e 530b 903e
0.11503929 0.15871693 0.09505048 0.00889752 0.08934672 0.11560739 0.14596538 0.18740284
0.13913064 0.158411 0.12798865 0.10727756 0.308471 0.13882019 0.04035929 0.21527313
0.18344022 0.17687708 0.1682403 0.2072948 0.054718528 0.08889669 0.2049588 0.2813364

weight f4 [24, 24, 3]
00000000: 70fe c53d 82f5 35bf 035d 463e c5fb d3bc
00000010: 17ba 1f3d 406f f3bd 0cf5 08bf 0a3e edbd
00000020: 6cd3 333e fa7a 57bf 1911 bf3e e5ef 1fbe
00000030: 9770 ddbd dacc 4dbe c00d a83e 149e cb3d
00000040: d229 c13d c832 82be 827c 41bf 855d 57be
00000050: 90e9 4dbd cad5 c0be ff74 893e b438 753d
00000060: 23b6 aebd 0eb9 26be f9d9 21bf cc92 b9be
00000070: e40b d3be 7aaf 9ebe 3175 9abd 6eb8 8bbe
00000080: 5136 9a3e e484 a53d d6d1 393e 0ae7 a8bc
00000090: 5ff3 7abf 3efa 013e a960 b4bd 6541 153f
000000a0: 26de 7c3c 1565 06bf 898f 31be 0ebb 673e
000000b0: 65ec 3b3c f56c 103d 7c6e 12bf 3fe1 17be
000000c0: ea2d 303f 7afe 0e3f 875a dc3d 3df1 24be
000000d0: 2ed5 2bbe 99ee 1a3e 4e93 9ebc a78e 67bf
000000e0: 7f2e af3d 4771 003f 3c5c d5be 9e8d e03e
000000f0: eaa0 eb3e 3744 0b3e 722b 4dbe b628 c43e
00000100: 5f82 e13d d639 9abe 25bb 2bbe 38c4 f53d
00000110: b67d e93d 6a7a 06be a1eb 5f3f ca04 1bbf
00000120: cb2d d93e 0b4a 81be a1e8 6bbf 8642 303e
00000130: 7bb1 28bf 6453 1b3f 2e9c 60be 9419 96bd
00000140: 1ec3 e7bd c200 be3e abe7 49bf ef7e 113e
00000150: 9083 0fbe c761 c8bd 46ae 083d ba1d dcbd
00000160: d2cb b8bc b5ab 61be ffb5 01bf 597e 9d3e
00000170: 4f77 0fbf 218c f4bd 0721 abbe 56eb 1abf
00000180: 841e 5fbe 4261 92bd 19b1 383f a555 09bf
00000190: cfd4 c1be 726f bdbe 9c91 cf3e db56 1b3e
000001a0: d31c ddbe e964 bb3b a1af 873c fc08 5bbd
000001b0: bbad cebe 9849 92be fc23 13bf 357c 903d
000001c0: c1a0 cbbd da21 c5bd 26d5 a3be 6c84 d8bd
000001d0: 791f bbbe 6685 59be c22f 993e 5f03 88be
000001e0: cd74 1bbe 41c2 903e ef7c b8be a64e 083c
000001f0: dff5 d43d 41c0 103f d73f 443d 4828 06be
00000200: 7c4a 273d 61ce ef3d 541d 9d3e 1e4a 7bbe
00000210: adc4 6cbe baed 263e 3bdc 423e 0407 023e
00000220: 0570 263e f339 9e3e 097a e63d 12ca 633d
00000230: 080a 7cbf d488 933e 3a13 cbbc f378 f13e
00000240: f4ca b1be 96be efbd 83a5 bf3e bd2b 38be
00000250: 9198 a1bd 0723 36bc 3766 d33e 2ee6 1abf
00000260: 5b7f 0f3f a3fb 083f e4df 86be d86e bc3d
00000270: 4972 43be 9ca9 74be 3522 763e cc88 a3be
00000280: 0fdd 5f3e 7c7b a93e 04f3 3e3e 0f1e 893e
00000290: f4f7 103f 49e4 aa3d 16ed 9f3e 4fb3 cebd
000002a0: 603e ad3e 9b08 6cbd 01c9 ed3e 0d8e 403e
000002b0: baf9 ae3d c0c5 22bf 852d b13e 9ccc aebe
000002c0: 615b d53e 20d1 b33e d2e0 fdbd 1261 e9be
000002d0: 062b 1dbe 4efb d1bc 0f9f b3be 3e64 c4be
000002e0: d536 6bbe d003 86bd eca0 0ebf 853e 293f
000002f0: 1e31 cabe 3af1 69be 635f 9b3e 86dd 06bf
00000300: c9ab 8e3e 5bf0 ab3e e128 83be a938 f23d
00000310: 3f32 93be d26d 0a3e fc49 1abf c13c 12bf
00000320: 9ee7 0b3e dd5a d7be 30e2 4abe 2473 db3e
00000330: f49a b5bd fa15 92bd 3ef3 cebe 7deb debc
00000340: f58e 113f 7654 debe dcb6 543d 32ec 16bf
00000350: c3cb 373e b49a 9b3e 528a a0be 51af 70bf
00000360: ff93 c8be b51e 8cbe 7f5a ca3e 501c dfbe
00000370: cb3c 9abe 0d7a 753f a719 44bd 5d37 203e
00000380: 4e91 06be ee78 943e 99ea 0bbf f210 c03e
00000390: 9aad babf 2c0f b93e f09d 43bf ed4c 11be
000003a0: aba5 0dbf fbc2 e33d 79c4 cfbd a0fb 15bd
000003b0: c651 be3e f5e7 d63e 4fd0 993e 7207 823c
000003c0: 8a2e 843d d025 0ebf d6d4 1fbf b850 86bf
000003d0: 125c 7ebd 4e30 1abf bbd7 0f3f 38ad 5a3d
000003e0: 8fb2 0abc a9ee 68bd c5a9 94be 0e2f 58bf
000003f0: 9697 a5bf 0fdc 9cbe 0a35 1abf 15dd bcbf
0.09667671 -0.7107774 0.19371419 -0.025876889 0.03899583 -0.11886454 -0.5349891 -0.11584099
0.1756112 -0.8417202 0.37317732 -0.15618856 -0.108124904 -0.20097676 0.3282299 0.099422604
0.09431805 -0.25429368 -0.7558061 -0.21031769 -0.05027157 -0.37663108 0.26847073 0.05986853
-0.085308336 -0.1628153 -0.63223225 -0.3624481 -0.4122001 -0.30993253 -0.07541884 -0.27289146
0.30119565 0.080819875 0.18146452 -0.02061798 -0.98027605 0.12693116 -0.08807499 0.5830291
0.015433824 -0.5249799 -0.1733991 0.2262995 0.011469935 0.03526016 -0.57199836 -0.14832018
0.6882006 0.5585705 0.10759454 -0.1610765 -0.1678054 0.1513008 -0.01935735 -0.90452045
0.0855379 0.5017285 -0.41671932 0.43858045 0.46021205 0.1360024 -0.20036104 0.3831231
0.110111944 -0.3012225 -0.16770609 0.120003164 0.114009306 -0.13132635 0.87468916 -0.6055418
0.4241775 -0.25251803 -0.9215184 0.17212877 -0.65895814 0.6067412 -0.21934578 -0.073290974
-0.113165125 0.37109953 -0.7886912 0.14208578 -0.14015031 -0.097842745 0.033369325 -0.107478574
-0.022558127 -0.22038157 -0.5066833 0.30760458 -0.56041425 -0.1194079 -0.33423635 -0.60515344
-0.21788985 -0.07147457 0.7214523 -0.5364631 -0.37857673 -0.3699909 0.4054078 0.15169851
-0.43186054 0.0057188165 0.016563239 -0.053475365 -0.4036692 -0.28571773 -0.5747678 0.070549406
-0.09942771 -0.09625597 -0.31998557 -0.105721325 -0.3654745 -0.21242294 0.2991925 -0.26565072
-0.15181275 0.28273204 -0.36032817 0.0083195325 0.10398459 0.56543356 0.047912445 -0.13101304
0.04084252 0.117092855 0.30686438 -0.24539992 -0.23121901 0.16301623 0.19029324 0.12697989
0.1625367 0.30903587 0.11253745 0.05561263 -0.98452806 0.2881533 -0.024789441 0.4716259
-0.34725153 -0.11706273 0.37430963 -0.17985435 -0.07890428 -0.01111675 0.4128892 -0.60507476
0.56053704 0.5350897 -0.2634269 0.09200829 -0.19086565 -0.23892826 0.24036486 -0.31940305
0.21861671 0.33102024 0.1864739 0.26780745 0.56628346 0.08344323 0.3123557 -0.10092794
0.3383665 -0.057625394 0.46442416 0.18804188 0.08543725 -0.6358299 0.3460504 -0.3414048
0.4167128 0.35120487 -0.12396397 -0.4558187 -0.15348443 -0.025632527 -0.3508229 -0.3835773
-0.22970136 -0.06543696 -0.557143 0.6611102 -0.39490598 -0.22845927 0.30346212 -0.5268177
0.27865437 0.33581814 -0.25617126 0.11827213 -0.28749272 0.13518456 -0.6026914 -0.57123953
0.13662574 -0.4206151 -0.19812846 0.42861283 -0.088674456 -0.07133098 -0.40419954 -0.027211899
0.5685876 -0.43423814 0.0519322 -0.58954155 0.17948823 0.30391467 -0.3135553 -0.9401751
-0.39175412 -0.27367178 0.39522168 -0.43576288 -0.30124506 0.9588936 -0.047876026 0.1564612
-0.13141367 0.28998512 -0.5465484 0.37512928 -1.4584229 0.36144388 -0.7641287 -0.14189501
-0.55330914 0.11121174 -0.10144896 -0.03661692 0.37171763 0.41973844 0.3004174 0.01587269
0.06454189 -0.5552645 -0.62434137 -1.0493383 -0.062099524 -0.6022996 0.56188554 0.05338785
-0.008465423 -0.05686823 -0.29035774 -0.844468 -1.2936885 -0.3063664 -0.6023718 -1.4754969

bias f4 [24]
00000000: f10f bbbe bc81 09be 5a35 03be d312 0cbf
00000010: adfc 5fbe f6e8 ddbe 256c b3be c5dc 90be
00000020: 0015 81be d3fc 56be 8529 29be 967f 77be
00000030: 52cf a3be 13da b9bd 7982 04bf d836 a3be
00000040: 6419 9bbe 7216 40be cff5 f2be 6160 8cbe
00000050: 0367 65bc 8d2e 9ebd dab1 0abe 3b89 b4be
-0.365356 -0.13428396 -0.12813321 -0.54716223 -0.21873732 -0.43341798 -0.35043445 -0.28293434
-0.25211334 -0.20994882 -0.16519745 -0.24169764 -0.3199411 -0.090747975 -0.51761585 -0.3187778
-0.3029281 -0.18758562 -0.47453162 -0.2741728 -0.014001611 -0.077237226 -0.13544407 -0.3526095

weight f4 [24]
00000000: 3aee 683d 2f5f 853e bbc5 7e3e 89d7 e93e
00000010: e857 803b b981 e33d 6126 043e ecac 853e
00000020: d0ea e93d 8167 653e 004f 1e3d a258 4f3e
00000030: e493 fd3d c2c3 9c3e 49c7 8c3d cd3d e63c
00000040: a7a8 703e 3bf5 693e b756 0d3e 5c59 133e
00000050: 63c1 4b3e 01c1 983d 3bc3 813e 9f8c ee3d
0.056867816 0.26049182 0.24880116 0.45672253 0.0039167292 0.11108727 0.12905265 0.2610849
0.1142174 0.22402765 0.03864956 0.20248654 0.123817235 0.306181 0.06873948 0.02810564
0.23501836 0.22847454 0.1380261 0.14389557 0.1989799 0.074586876 0.25344262 0.11647915

weight f4 [24, 24, 3]
00000000: 32b9 b2bd 5441 5bbe d1dc 49be 08f2 a9bd
00000010: 89bf 3abe 77f7 e93c b9e8 d63d 0c2f 43be
00000020: 579e 193e 1ed4 c1bb 9b90 74be 2a8d 2a3e
00000030: a6f8 ff3d 936f 59be 13b3 34be eccd a33d
00000040: 8b05 3b3e c1bf 853e 2238 663e 8e0a 00bd
00000050: 59cf a0bc e17d 4e3e fd46 833d 9ce6 c3bd
00000060: 4670 d2bc 603e af3d bf3a fdbd 6c9d 16b9
00000070: 637d 31be 8d53 ff3c cccf 443d eefd 0abe
00000080: ce35 033e 4417 e9bc 8cc5 bd3d 82c6 233e
00000090: 7bac 843e 1ce9 9fbe 08e0 393d b21d 6bbe
000000a0: f3a8 8cbd 48d8 64be dcb8 05be 0e77 c53c
000000b0: 149e 0ebd ab5d ce3d dec3 eabd 8196 2f3e
000000c0: 1e2d 283d 894e beb8 a9fb 433e 97c2 f4bc
000000d0: e34d 7d3e 65f4 733e 6ce8 b83d b577 b13d
000000e0: e633 b1bc 5734 c53e 6f34 20be 48a8 013e
000000f0: 20b7 053f 5dc9 473d 6716 ffbd a786 7bbe
00000100: c03c c93e d53e ce3d 26a7 acbd 7172 42bd
00000110: 5581 0e3e 30d9 7dbc dfab 3b3e bd32 14be
00000120: 5e17 4f3e bc34 ff3d 2357 e4bc e562 13be
00000130: e86d 83bd ae7c 213e 398e 643c f938 663d
00000140: 3144 fb3d b0b9 ddbc 1630 97be 53bc 1dbd
00000150: ebe1 603e 1650 28bd f30e 593e 4f2a 5cbe
00000160: 694c 1cbd b2eb 013e 249f 16be f583 64bd
00000170: d3ae 8abc 80d4 363e 30d6 aebd c100 173e
00000180: 14ca 41be 7c55 2f3d 9fa9 ccbd e821 233e
00000190: bf41 3abe 1c6c aabc da98 153d 74d4 363e
000001a0: 8cab 56bd 0560 94be d10c 8e3e dce1 1abe
000001b0: b0cd 27be 28ad e6bc 0c99 71be 7b56 2b3e
000001c0: 2bed 913e f792 b53e 61d9 bb3d 26b4 5fbc
000001d0: 7077 42bd 7be7 49bd 7e25 fa3c 15f8 423e
000001e0: 997f 763d a466 a2bd ddd7 903e ff5c 76be
000001f0: 0ea7 123e 89e4 81be 9449 07be 132a 873d
00000200: 8c35 ecbc bbc7 a03d be54 313d ccdb 843d
00000210: 93d8 703d 07d6 233c eedc 04be b9e7 d63d
00000220: dbf8 913d ec9b 4c3e d1d3 85bc 6163 e1bd
00000230: 01f1 513d 12fd 57be a4f3 d9bd f126 d1bd
00000240: b554 22bd 07c8 143d 7f50 90bd 0965 6e3d
00000250: 3d77 423e 6d5b 93bd 844f a5bd f214 7f3e
00000260: 7eb2 a3bd 1171 bebe f5db bb3e f16c ed3d
00000270: 029d cbbd 57d6 cc3d 57db 033c fdeb 1b3b
00000280: e332 7b3a 8f92 0f3e 1151 933d 4048 983d
00000290: 5bac 92be a5f5 373e 8c24 30be bfd5 abbd
000002a0: 932f 2dbe 37f9 9bbe 42b9 9e3d aa58 e1bc
000002b0: d48c 9fbe 148d 163d d5cd 063d 04bb 81be
000002c0: 7a90 963c 9f64 053e eb58 62bc 32fe 6d3d
000002d0: 3740 923d f01d 14be 4e6a c7bd 2865 d53d
000002e0: 83c2 6dbc 945c 0ebd 94f1 453e ba1c bebd
000002f0: 44d6 393d 9415 9f3e 3adf 463b f697 573c
00000300: 72e1 c4be a890 0b3e 5e8d d63d 4cf0 d3bd
00000310: 1c4f a23e acf1 3dbe eabd 9a3b 14b0 5dbe
00000320: 05ff 373e 1f2b 413e 8906 c83d 1908 623d
00000330: af44 83be 3214 d0bd 0d69 d0bc 53b4 1bbe
00000340: 0884 cebe 513c 823d 6070 9ebe 0efd 2c3d
00000350: 55e1 263e bbb9 71be b07c 77be e168 e33d
00000360: aa3a 4a3e de81 853e 90b1 bbbd 66a2 113d
00000370: c55d a13d 2537 3dbe a336 09be f8fa 21be
00000380: 6320 be3e ce09 a03b 834c 4dbe e7c4 e93e
00000390: 9a59 b13c c3bd c03e 0233 a43c b812 08be
000003a0: 9dcf 78bd 2451 0f3e 7929 a2be 510f da3d
000003b0: ae66 8bbd cd25 1b3e d633 06bd 9447 79be
000003c0: 7546 973e c223 56bd 6711 e43d 1d8b 5c3e
000003d0: 4ead ab3d e74b 27be 6e2c b1bd f721 21bd
000003e0: e92d 983d 7035 84be 7185 a43c 5395 3a3d
000003f0: e928 283e dc43 863e f7fd 84bb 3003 8c3d
-0.087267295 -0.2141164 -0.19713141 -0.08298117 -0.18237127 0.028560383 0.10493607 -0.19060916
0.15001808 -0.005915179 -0.23883288 0.16655412 0.12498598 -0.21233968 -0.17646436 0.07998261
0.18263833 0.2612286 0.2248235 -0.031260066 -0.019630121 0.20165206 0.06410024 -0.095654696
-0.025688302 0.08556819 -0.123647206 -0.00014363759 -0.17332987 0.03116777 0.048049733 -0.13573429
0.12813494 -0.028453477 0.09266195 0.15993693 0.25912842 -0.31232536 0.04537967 -0.22960547
-0.06868162 -0.2234813 -0.130588 0.024104621 -0.034818724 0.100764595 -0.1146314 0.17147256
0.041058652 -9.074534e-05 0.1913897 -0.029877944 0.24736743 0.23823698 0.09028706 0.086654104
-0.021631192 0.38516495 -0.15645002 0.1266185 0.5223255 0.04877602 -0.12455445 -0.24563085
0.3930416 0.10070578 -0.084303185 -0.04747242 0.13916524 -0.015493676 0.18327282 -0.1447248
0.20223758 0.1246123 -0.027873581 -0.14393194 -0.06417447 0.15770218 0.013949924 0.056206677
0.12268866 -0.027066082 -0.29528874 -0.038509678 0.21961181 -0.041092 0.21197109 -0.21500514
-0.038158808 0.12687567 -0.14709145 -0.055789907 -0.016929066 0.178545 -0.08536947 0.14746381
-0.18924743 0.042806134 -0.0999329 0.15930903 -0.18189143 -0.020803504 0.036522724 0.17854482
-0.052409694 -0.28979507 0.27744153 -0.15125221 -0.16387057 -0.02815874 -0.23593539 0.16732208
0.28501257 0.35463688 0.09172321 -0.013653791 -0.047477186 -0.049293023 0.030535456 0.19039948
0.06018028 -0.079297334 0.2828969 -0.24058913 0.14321539 -0.2536967 -0.13211662 0.06599822
-0.028834127 0.078505956 0.043293707 0.064872354 0.05880029 0.009999759 -0.12974903 0.10493416
0.071275435 0.19981354 -0.016336353 -0.11005283 0.05125523 -0.21092632 -0.10642174 -0.102125056
-0.039631564 0.036323573 -0.070466034 0.058201823 0.18990798 -0.071951725 -0.08071807 0.24910334
-0.07993029 -0.37195638 0.3669125 0.115930445 -0.09942056 0.100018196 0.0080479 0.0023791783
0.0009582473 0.14020751 0.071931966 0.074356556 -0.28647122 0.179648 -0.17201442 -0.08390378
-0.1691268 -0.30463573 0.07750179 -0.027508099 -0.3116213 0.036755636 0.03291114 -0.25337994
0.018379439 0.13026665 -0.013815145 0.058103748 0.07141154 -0.14464545 -0.09737073 0.10419685
-0.014511707 -0.034756258 0.19330436 -0.09282823 0.045370355 0.3107115 0.0030345456 0.013158789
-0.3845325 0.136294 0.104761824 -0.10348567 0.3170098 -0.18549222 0.0047223466 -0.216492
0.17968376 0.18864106 0.097668715 0.055183504 -0.2563834 -0.10160102 -0.025440717 -0.15205507
-0.40335107 0.06359161 -0.3094511 0.04223352 0.16296895 -0.23606007 -0.24168658 0.111039884
0.19748941 0.26075643 -0.09164727 0.035555266 0.07879213 -0.18478067 -0.13399749 -0.15818393
0.37134084 0.0048839813 -0.20048718 0.45658037 0.02164917 0.37644777 0.020043854 -0.1328839
-0.06074487 0.13995796 -0.31672266 0.106474526 -0.06806694 0.15151139 -0.03276428 -0.24343711
0.29545942 -0.052280195 0.11136132 0.21537443 0.083826646 -0.16337548 -0.086510524 -0.039339032
0.07430632 -0.2582202 0.020083161 0.045552563 0.16421856 0.26223648 -0.0040585953 0.068365455

bias f4 [24]
00000000: 409f 76bb 9815 2ebd 7ee6 8cbd f577 a73d
00000010: bbbb c0bd a5c9 dbbd ccbe 71bd a1a9 c23d
00000020: b876 f0bc c616 6f3d 6494 fa3c 98dd 3fbd
00000030: b2bf c7bd 4039 82bc c9b8 eabd e759 d13d
00000040: 623e 94bd 1b3c 833d 07f5 65bd c2f2 1c3d
00000050: 023e 583d d89e 643c 00f7 6bbb 4c77 f63c
-0.0037631541 -0.042501062 -0.068799004 0.08177177 -0.09410807 -0.1073182 -0.05901985 0.095050104
-0.029353485 0.058371328 0.030588336 -0.046842188 -0.0975336 -0.01589644 -0.11461026 0.10222226
-0.07238461 0.064079486 -0.05614188 0.03831745 0.05279351 0.013953887 -0.0036005378 0.030086182

weight f4 [24]
00000000: fb4e 323e 3926 4f3e cb03 fc3d 09f6 143b
00000010: 0322 083e 4eaa 173e 97b5 263e 80dc 743e
00000020: e2ae 103e 0691 1c3e 1777 063e 349a 063e
00000030: c157 a43e daee 623e c5d0 843d 0d2c 723e
00000040: 9d7c 853e 1570 ba3e 50e2 143e 7b84 493e
00000050: ef90 e73d 5a92 a93d a1ad 8a3e edf0 9c3e
0.17412941 0.20229425 0.12305411 0.0022729656 0.13294224 0.1481106 0.16280209 0.23912239
0.14129212 0.15289697 0.13131367 0.13144761 0.320982 0.22161427 0.06485132 0.23649617
0.26071635 0.36413637 0.14539456 0.19679444 0.11306941 0.082798675 0.27085593 0.30652562

weight f4 [24, 24, 3]
00000000: c09d 9ebe a81f 6fbf fa36 963e 9146 523e
00000010: 7f43 bd3e 2393 c0be a4c2 adbe 60b4 a3be
00000020: ce2a 043e 1f75 94bb ae2f d83d c088 80be
00000030: b116 9a3e c547 dabe c056 f83e b3b3 0c3e
00000040: 6fec 06be d803 babd 92f1 d4be 3d15 c0be
00000050: b419 29bd a324 0ebe 3e04 f53e 6107 c63c
00000060: 807d dcbe 51a3 123c 2238 bfbe 6e1a 40bf
00000070: 3212 2abf e647 69be 047e 863e 562b 72bd
00000080: 4ddd a63d 9521 e1be 832c 8dbe 5d4b 933e
00000090: 4ed6 20bf f9d7 2d3e ecf8 94be 1095 2cbd
000000a0: af30 59be 0bb8 0dbf 07bb 3fbe 25e4 e43d
000000b0: 16e4 98be b9da 7b3e 72fc debe 9c06 1fbe
000000c0: 6c48 0f3f 5df2 e63e 4f63 933d 30fb f63d
000000d0: 4a73 f63d c2d3 1cbe e68e 193f 7c41 a4be
000000e0: cc41 e8bd d9c7 9f3b 7711 883d 83cd 133f
000000f0: da02 643f 1ada b7bd a4b7 a73c 6416 8c3e
00000100: 0059 6cbd 8ca2 b73d a7b9 3f3e f23e c23e
00000110: 4cb6 383e 1151 84bd 1848 343f 2cbe 1bbf
00000120: 6867 f73d f307 d3be 432a 54bf 76c6 543e
00000130: be01 8abf 3b17 f13e 162d 463e 2118 c839
00000140: e2f6 a2be 52b7 1cbe 2269 85bc 2d94 bdbe
00000150: 9fdf 75be fc34 bbbc 9134 58be 7726 a83d
00000160: 2c9b 0dba dfd9 4fbe 6d78 19bf 85ce fe3d
00000170: e312 e03b ac65 dfbd fcb9 5fbe e7db eabe
00000180: 12df 9cbe 8bc5 15bd 9132 383f ac0d c9be
00000190: d163 00bf 32ea b43d 1989 2cbb 8ae2 90bd
000001a0: 4299 1abe a69b 27be ed26 19bd 21a4 973c
000001b0: 02d0 e2be 9c5d 1dbe dece 38bf ea0b 3bbe
000001c0: 8677 86be 7a9f cd39 cb00 37be 3cb5 8bbc
000001d0: 0313 1e3e ea97 7cbe c3ae d23e 0424 20bf
000001e0: 938e c1bb 8f15 b23e 4d7a 37be ff22 76be
000001f0: d4d8 a93d 9d94 8f3e d908 b4be 2cd7 70be
00000200: f6a2 b3bd 464f 17bf 1c70 e5bd 8cef 81be
00000210: c89e 83be 965c 0cbd 17d6 553e 7b6f 8dbd
00000220: ff57 aebd d4ce d03d 5d67 f23d ce70 cebe
00000230: ae15 98bf 03e3 753e 7c0d a63d 6366 ec3d
00000240: a456 7ebe 456e 92be d4f3 223e 30c7 b5be
00000250: bfcd c7bd 7406 06be c854 cd3e 31d9 92bf
00000260: 231f 0a3f b60d 11bf 4328 9c3d e4cd 023f
00000270: 308b 8fbd 2cec 99be 23a7 d73e 8eba 50be
00000280: adef c2be b7d8 ad3d 2505 043e 8d0c 8a3e
00000290: f8a3 593f 9fb1 c3be 3609 033f 4573 97bd
000002a0: 710f 363e 3c00 3f3e 9cfc ca3e d356 043e
000002b0: f780 e7bd 5c00 1dbe deec ac3e a909 89bd
000002c0: 4420 d23d b7a7 223e 2c51 64be 498b 94be
000002d0: 67b1 a6be ff42 fbbd 6198 1abf c78d 8fbd
000002e0: 3dd5 17be a1b4 00bd 2643 16bf 1d28 813e
000002f0: ac56 94be f32f 323e 54ea f23d ba62 0fbf
00000300: 4e11 103f e08e 653e 339a 223e c8b3 c8bd
00000310: b90b d5bd 40d6 a83d c67c bebe e180 093e
00000320: e7aa 01be 7c65 1ebf e6f1 83bd b24f b53d
00000330: 28df 5bbf e803 a63d 3143 5abf bcc3 5dbe
00000340: 7785 b43e 8df0 06bf 1349 66be 63aa b13d
00000350: 66bf 2d3d 9249 cd3e addd 43bf cba2 55bf
00000360: 24c3 843e 20fb 07bf 3ef2 033f 45da 5b3e
00000370: c675 24bf 7a1b 23bc ef73 0cbe f4f3 23be
00000380: 0511 b6bd 95dc 89be e8ef 15bf 0aa6 293f
00000390: f223 b3bf ef6c 523e 9939 f8be 47ee 13bf
000003a0: a978 40be d1aa 6c3e fc08 b63e 4492 62be
000003b0: 27d4 af3d dad2 e63e 6eef 903e eb71 233d
000003c0: a0c7 6abd 91e5 acbe 4275 cabe 9732 1cbf
000003d0: 99cc 4a3c 848a 213e 519f 383f 0d12 113d
000003e0: c2bd 75be 6d95 023e 62f1 e9be c0cf 5bbf
000003f0: a342 81bf 9c05 24bf 22ba 7ebf ef2c b6bc
-0.3097973 -0.9340768 0.2933882 0.20534731 0.36965558 -0.37612256 -0.33937562 -0.31973553
0.12906954 -0.0045305635 0.10555969 -0.25104332 0.30095437 -0.4263288 0.48503685 0.13740425
-0.1317613 -0.090827644 -0.41590554 -0.37516204 -0.041284278 -0.13881163 0.478548 0.02417344
-0.430645 0.0089500705 -0.37347513 -0.7504033 -0.66434014 -0.22781333 0.26268017 -0.05912336
0.081476785 -0.43970934 -0.27573022 0.28768435 -0.62827003 0.16976918 -0.29096162 -0.042134345
-0.21209978 -0.5535895 -0.18723689 0.111763276 -0.29861516 0.24595155 -0.43551975 -0.15529865
0.5596988 0.45106784 0.07196676 0.12059629 0.120337084 -0.15315154 0.5998367 -0.3208121
-0.11340675 0.0048761186 0.06643956 0.5773546 0.8906685 -0.089771464 0.020473309 0.27360833
-0.057702065 0.0896655 0.18723164 0.37938648 0.1803829 -0.06460775 0.70422506 -0.60837054
0.1208027 -0.41217002 -0.82876986 0.20778832 -1.0781782 0.47088036 0.19353136 0.0003816495
-0.31828982 -0.15304306 -0.016285483 -0.37027112 -0.24011086 -0.022852413 -0.21113802 0.082104616
-0.00054018456 -0.20297955 -0.5994938 0.12441734 0.006838189 -0.10908064 -0.21848291 -0.45870897
-0.3063894 -0.036565345 0.7195216 -0.39268243 -0.5015231 0.08833732 -0.0026326834 -0.07074459
-0.15097526 -0.16367969 -0.03739064 0.01851088 -0.44299322 -0.1536774 -0.72190654 -0.18266264
-0.26263064 0.00039219466 -0.17871396 -0.017054193 0.1543694 -0.24667326 0.41148958 -0.62554955
-0.0059068887 0.34782073 -0.17917748 -0.24036787 0.0829331 0.2804307 -0.35163 -0.23519582
-0.08771317 -0.59105337 -0.11203024 -0.25378072 -0.25707078 -0.034267984 0.2088245 -0.06906029
-0.08512878 0.10195699 0.11836121 -0.40320438 -1.1881616 0.2401238 0.08108041 0.11542966
-0.24837738 -0.28599754 0.15913326 -0.3550353 -0.0975604 -0.13088399 0.40103745 -1.1472532
0.5395376 -0.56661546 0.07624867 0.51095414 -0.0700897 -0.30062997 0.42119703 -0.20383665
-0.38073483 0.08488601 0.12892587 0.269627 0.8501582 -0.38221452 0.5118593 -0.07395033
0.17779328 0.18652433 0.3964585 0.12923746 -0.11303895 -0.15332168 0.33774465 -0.06691296
0.102600604 0.1588429 -0.2229659 -0.29012516 -0.32557222 -0.12268638 -0.6038876 -0.07009464
-0.14827438 -0.03142226 -0.5869621 0.25225917 -0.28972375 0.17401104 0.11861101 -0.5601002
0.56276405 0.22417784 0.15879135 -0.097999156 -0.104026265 0.0824399 -0.3720457 0.1342807
-0.1266285 -0.618736 -0.06442623 0.08853091 -0.85887384 0.08106214 -0.85258776 -0.21656698
0.35258076 -0.527108 -0.22488813 0.08675077 0.04241886 0.40095192 -0.76510125 -0.8345153
0.2593013 -0.5311756 0.5154151 0.21469982 -0.6424221 -0.009955281 -0.137161 -0.1601103
-0.08889965 -0.26926103 -0.5856919 0.6626898 -1.3995345 0.20549367 -0.48481444 -0.5778546
-0.18796028 0.23112036 0.3555373 -0.22126108 0.08585387 0.45082742 0.2830767 0.039903563
-0.057319283 -0.33768895 -0.39542586 -0.61014694 0.012377881 0.15775496 0.721181 0.035417605
-0.23998168 0.12752314 -0.45691973 -0.85863876 -1.0098461 -0.6407106 -0.99502766 -0.022238223

bias f4 [24]
00000000: eee2 cdbe 232d 5fbe a20b 50be 7896 35bf
00000010: 59c7 03bf ee4b a1be d9a5 94be a4fb 60be
00000020: 3d30 bcbe 0fa8 7fbe 5e34 cebd 601a 86be
00000030: 4ede 8bbe 3a76 0ebe ecd8 c3be 9853 0fbf
00000040: 888f b6be 2d17 06be f91b c1be f772 96be
00000050: b03f 3dbd 5a8f d2bd 3937 4dbe b128 cbbe
-0.40212196 -0.21794562 -0.20316938 -0.7093272 -0.51476055 -0.31503242 -0.29032782 -0.21970993
-0.36755553 -0.24966453 -0.10068582 -0.26191998 -0.27318043 -0.13912287 -0.38251436 -0.5598693
-0.3565638 -0.13094778 -0.37716654 -0.29384586 -0.046203315 -0.102812484 -0.20040597 -0.39679483

weight f4 [24]
00000000: eca4 323d 81c3 ed3d 249d 3d3e 9915 d43e
00000010: 76d5 f1bb b27e 313e 6b9d cc3c aa3b 993e
00000020: 2123 b23d 1ac1 273e 6bbe 8ebb 8028 fe3d
00000030: dc63 1a3d ef58 103e cb7b a23d 0aa1 7a3c
00000040: 33d7 5d3e 4f49 663e 4f7b d53d 36a0 013e
00000050: b9ba 273e d0ae 45bd 8af4 2f3e 190c 593e
0.043614313 0.11609555 0.18516976 0.41422728 -0.007380183 0.17333487 0.024977406 0.29928333
0.086981066 0.16382256 -0.0043561957 0.124100685 0.03769289 0.14096425 0.07933768 0.015297184
0.21664123 0.22488903 0.1042391 0.12658772 0.16379823 -0.048262417 0.17183128 0.21196021

weight f4 [24, 24, 3]
00000000: 919d 8b3e 8813 853d 9fac 37bd 2aff 34be
00000010: a495 cd3d d48c d0be e577 67bd 3612 4dbe
00000020: e937 c43d 0c2d 95be a1e9 64bc 49e4 eebd
00000030: b5f9 febd 822c 16bd 214d ecba 768a b1bd
00000040: a244 b0be cad9 8dbd eef5 963d 4ec7 b43e
00000050: acc4 35be 5c38 993d ddb8 45bd ae28 8bbd
00000060: 5cc4 513e 24c2 1b3d c204 fbba ed74 bfbd
00000070: 3d96 b8be 5b5d 2d3e cfc2 f33d 739b c03c
00000080: 9946 30bc 4801 2ebe 203d 70bd fef6 c73c
00000090: 49c0 ccbd 00cb 1e3e d8e2 51be 8474 ac3d
000000a0: eb89 3abe 8d0f 833e 6088 79be fd84 ccbd
000000b0: 4917 e2bd b0ee 603e 6291 ffbd 4e7e 70be
000000c0: f3ea 2d3e afe7 8cbd 88f3 313d 62af fabd
000000d0: 46b7 a63c 5a43 68bd 2c77 073e cb71 07bd
000000e0: 8e47 2abe 4d86 71be 1611 cb3d 9d60 f03c
000000f0: 6789 443d ca58 803d 30c3 63bc b106 46bd
00000100: 2688 37ba efc1 5d3e 0f29 e1bd 74f6 573d
00000110: 2d49 04bc 4e4d 253d c463 29be 07fd 38be
00000120: 952f 813e 1830 12be 990f 58be 0b66 51be
00000130: f9cf 943e 5e30 41be f67b 563d 9e5f 163e
00000140: 75f2 6b3d a55b e5bd b237 803b c120 c83c
00000150: 4057 e4bd 9e77 86be 767c bcbd 3825 633d
00000160: 9f70 623d e10d 7f3e 9ab9 933e 482f d93e
00000170: ebe6 993d 54fb 66be 5236 b3be 752f 063e
00000180: 2bb6 1d3e de31 0bbd acd0 14bd 524e fa3b
00000190: d28d 3dbc 0f42 a1be 6688 f73d 9092 b23e
000001a0: a442 9ebe 503c cc3e 2471 033e a2ed e33a
000001b0: b82a c7bc 5e64 0b3e 42e1 2e3e b944 5bbe
000001c0: 6fff 69be 4205 2dba 7109 62be 34ea ba3d
000001d0: 756b f4bc 6d7a 94bc 6078 a93d 9f59 903e
000001e0: fa38 c03d 66e6 91bd 6741 dcbd f72f 3bbe
000001f0: 8201 c93c 6bdd 143e ddee 30bd 6c6b b73d
00000200: 8cd0 cfbc e55b 9abd 0ca1 6ebd cf5a 5b3e
00000210: da84 6d3d 80c2 18be 4cc3 99bd 5b87 0dbe
00000220: d7b2 30be 50f9 23be b8c6 623e c254 0abe
00000230: 0ac3 5b3e ce04 1d3e a887 643d 3852 b8bd
00000240: 0cb2 9e3d 9e66 3f3d 14d7 a53d 6c0c 3dbe
00000250: 6e46 22be 10ad c93d 55d0 c33d 8771 32be
00000260: 7ad6 2f3e edac ccbc a54b 8d3d 15b0 173e
00000270: 1d79 9b3c 04b1 923d 2ff2 2f3e ebc6 cf3c
00000280: 962a 70bd 896a c2be 1b1f cdbe 61ac 633d
00000290: c875 fabc 8967 5c3e 3cc7 fd3c c076 ccbd
000002a0: a1c5 77bc ea6c 93bd 7ec9 b3bc 49c4 4ebd
000002b0: 3445 7dbc e612 8cbe dca3 843d 2b58 2bbe
000002c0: 3bea 08be 4d02 a13b 04a6 1dbe 6743 61be
000002d0: efb9 f03e 8798 843e 3aa6 f43e 62f5 8b3d
000002e0: a402 ff3d d7fd de3d 02c7 823d c5af 1ebe
000002f0: 1596 343e 6cae 173e ced3 4c3e ac52 21be
00000300: 34f5 2b3e 7219 e83b eb61 483d 09c4 b5bd
00000310: 078e b53e c8fd 9b3d 8c19 b2be e50c 763d
00000320: f85a 513d e1fa 053e 666f adbd 3088 3f3d
00000330: a4a6 1dbb b694 e63d 668a cfbe 46d8 0fbe
00000340: 2bfc e8b9 62d6 43bd 1fe0 f93d 8d98 f63d
00000350: 1fdc f5bd 5ed2 d83b f5f3 193e 60ae 423e
00000360: 5745 53be d66a 5fbd b117 3ebe 57af 413e
00000370: 4f0b cc3a bcdb 42bd 2f57 4fbe ada2 4c3e
00000380: d5d5 183e d1c9 233e 8896 153d cdc5 8b3d
00000390: 7902 94bd 102b bb3d b5b7 25be 16a0 66bd
000003a0: 81ed a83e 7aaa 90bd e0e5 823d cac5 13bd
000003b0: 5c23 af3c 48e8 5f3d d26c b23e 7c00 233e
000003c0: dc93 583e 4a39 503e 544d 86be ee25 70bd
000003d0: 71f8 2dbd e7e8 43be 8ea7 6bbe c756 923d
000003e0: a316 3cbe 6022 15be 57c2 2e3e e1b6 a93e
000003f0: a979 4fbd 7a68 043e d65d 3bbe 08c5 103e
0.2726865 0.06497866 -0.04484236 -0.17675462 0.10038307 -0.40732443 -0.056510825 -0.20026478
0.095809765 -0.2913593 -0.013971717 -0.11664636 -0.124499716 -0.03666354 -0.0018028357 -0.086689875
-0.34427363 -0.069263056 0.07371126 0.35308307 -0.17750806 0.07481453 -0.048272002 -0.067948684
0.20485061 0.038026944 -0.0019151198 -0.09348474 -0.36052123 0.16930144 0.11902391 0.023511624
-0.010759019 -0.16992676 -0.058652043 0.024409767 -0.09997613 0.15507126 -0.2049669 0.08420661
-0.18216674 0.25597802 -0.24368429 -0.09986303 -0.110395975 0.21966052 -0.124789014 -0.23485681
0.16984157 -0.06880128 0.04344514 -0.12240483 0.020351063 -0.056704856 0.13229054 -0.033067506
-0.16628858 -0.23586388 0.09915368 0.029342944 0.0479826 0.06266935 -0.013901517 -0.048346225
-0.00070011837 0.21656011 -0.109941594 0.05272527 -0.008074087 0.040356927 -0.16541964 -0.18065272
0.25231615 -0.14276159 -0.210997 -0.20449083 0.2906492 -0.18866107 0.052364312 0.14684913
0.057604272 -0.111991204 0.0039128894 0.02442968 -0.11149454 -0.26263136 -0.092034265 0.055455416
0.055283185 0.24907638 0.2885254 0.42418885 0.07514747 -0.22556812 -0.3500238 0.13104041
0.15401523 -0.033983104 -0.036331818 0.007638731 -0.011569457 -0.3149571 0.12086563 0.34877443
-0.30910218 0.39889765 0.12836128 0.0017389546 -0.024312362 0.13612506 0.17078117 -0.21412934
-0.22851346 -0.000660021 -0.22073914 0.09126702 -0.029836396 -0.018124783 0.08274913 0.28193375
0.093858674 -0.07124023 -0.10754662 -0.18280016 0.024536852 0.14537589 -0.043196548 0.08956036
-0.025367998 -0.07537059 -0.058259055 0.2142136 0.057988025 -0.14917946 -0.07507953 -0.13821165
-0.17255722 -0.16013074 0.22146118 -0.13508895 0.2146112 0.15333864 0.055793434 -0.09000057
0.077488035 0.046728723 0.080976635 -0.1846177 -0.1584718 0.09847462 0.095612206 -0.1742612
0.1717166 -0.024984801 0.06899194 0.14813264 0.01897865 0.07162669 0.1718223 0.025363406
-0.058634363 -0.37971905 -0.40062794 0.055584315 -0.03057374 0.2152387 0.030978791 -0.09983587
-0.015122802 -0.07198508 -0.021946665 -0.05048016 -0.015458394 -0.27358168 0.06476566 -0.16732852
-0.13370602 0.0049136044 -0.15395361 -0.21998368 0.47016856 0.2589762 0.4778307 0.068339124
0.124516755 0.1088826 0.06385614 -0.15496738 0.17635377 0.1481263 0.20002672 -0.15754193
0.16792756 0.0070831114 0.048921507 -0.08875281 0.3545992 0.07616764 -0.34785116 0.06007089
0.051112145 0.13083984 -0.08468513 0.046760738 -0.0024055624 0.11258833 -0.40535277 -0.14047346
-0.00044438368 -0.047811873 0.12200951 0.120408155 -0.120048754 0.0066168746 0.15034468 0.19011831
-0.2063192 -0.054545246 -0.18563725 0.18914543 0.0015567335 -0.047572836 -0.20248102 0.19983931
0.1492532 0.15994956 0.03652051 0.06824837 -0.07227034 0.09139073 -0.1618336 -0.056305014
0.329937 -0.07063766 0.063915014 -0.0360773 0.021379165 0.05466488 0.34848648 0.15918154
0.21150154 0.20334354 -0.26230872 -0.058629923 -0.04247326 -0.19131814 -0.23013136 0.07145458
-0.1836801 -0.14563894 0.17066322 0.33147338 -0.050653134 0.1293048 -0.18297514 0.14137661

bias f4 [24]
00000000: 387e edbc 55bb ba3d 83c2 c6bd aa11 04bd
00000010: 9426 fa3c 7a2c 583d 2892 52bd 74ec 2cbd
00000020: c1f7 e3bd 5a6a 8ebd 1473 ca3c 52df 84bd
00000030: 2c16 cabd 9060 cdbd 5e32 14bd 54a4 81bd
00000040: 9008 b0bd a117 b1bd 7a86 093d 38be c9bd
00000050: a618 28bd c2b7 17bd 7c62 d9bd c21f 32bd
-0.02899085 0.09117762 -0.09705069 -0.03224341 0.030535974 0.05277679 -0.051408917 -0.042217687
-0.1113124 -0.06953879 0.024713077 -0.064879075 -0.0986751 -0.100281835 -0.036180846 -0.06330171
-0.08595383 -0.08647085 0.033575512 -0.098507345 -0.04103913 -0.03704048 -0.106144875 -0.043487318

weight f4 [24]
00000000: 0d75 243e 727f 8f3e f41a e23d eb42 dbbb
00000010: 7648 013e 9cd5 5e3e fe8e 0a3e dfda c83e
00000020: 8e7d 1a3e 39ef 2d3e b8a9 2f3e ce67 0a3e
00000030: 5d8d a53e da67 5b3e d581 b93d 2fde 6f3e
00000040: eff9 9a3e b7c6 c93e 4517 043e 1645 253e
00000050: 4d90 0c3e 41bb e93d 4f98 8a3e 36f5 a33e
0.16060276 0.2802692 0.11040297 -0.006691327 0.12625298 0.21761173 0.1353111 0.39229485
0.15086958 0.16985787 0.17154586 0.13516161 0.32334414 0.21426335 0.090579666 0.234246
0.3026881 0.3940942 0.12899502 0.16139635 0.13726921 0.11412669 0.27069327 0.3202302

weight f4 [24, 24, 3]
00000000: a8d4 263f 60e0 59be 2ff2 59bf 9292 33be
00000010: 35a0 6d3e 8115 38bf 85f0 abbe def2 ae3e
00000020: 7988 d5bb 0bc4 1e3a 653d 4f3e c2f1 09be
00000030: bf70 16be de3e 5b3e b207 0bbf 91ee 24be
00000040: 815d 02bf b118 2dbe 3b03 ef3e 7702 4fbf
00000050: e54c 6fbf 6fe1 783e 1be6 fdbc 891b 3e3d
00000060: f902 35be aef1 53be 6b69 febe 12bc c73e
00000070: 5350 c93d e994 cabe 8370 9bbe 5b4b 00bf
00000080: 2e71 aebe 4d9b 073d 7d34 48bd 244f d23d
00000090: 5cad 4cbf b26f 21be b602 cabe c5c2 963e
000000a0: 4350 f2be 3038 2bbe 708b 51be 9bea 52be
000000b0: ef97 acbe f42b 38bf ad83 c9be 61e9 b33c
000000c0: 6743 153f 52b1 333f 6647 303e 5012 73bb
000000d0: 886e c1be 4f6d 95bf d90e ef3e 310f acbf
000000e0: d4e4 013f d775 be3e f2d4 04bf e88d e93e
000000f0: 2ff3 e63e 0195 9bbe 3d4b 62bf 78bf 01bd
00000100: 8f33 a23e a9f6 dabe 0ad9 78bf 5bbe a33d
00000110: 46fe 8ebe 5186 623d f300 953e ef3a 97be
00000120: 99ff 7d3e b88b 30be 5244 84bf ff75 463b
00000130: 9d86 a1bf c9cc 213f d2a9 2cbd 6521 553d
00000140: 4d16 e6be 3657 bfbd 09ec 9dbd 2276 b5be
00000150: 75fa f83b 7a6c 64be 631e e7be 42bb 013e
00000160: cf15 76be 34fb d7bd b77e febe 9e25 e43d
00000170: 787b 993e 0115 0d3e 4ef1 b6bd 6733 5cbe
00000180: a331 bdbd e601 663d d5af 243f ff3c 1fbd
00000190: 8f9c 29bf 6c11 1a3e 1070 4fbb 182e 4abe
000001a0: 787e 393e e14f 9e3d f243 f1bc 0052 77be
000001b0: f2d3 1bbf ea2b 76bd aba2 6abf 6b95 43be
000001c0: 0c56 a5be 0f79 ecbd 41ef bbbe 9e77 33be
000001d0: c88e 5d3e 94bb dbba b745 e73e 0359 34bf
000001e0: 97e5 b93d 50fd d73e 6120 e7bd b7ec f23d
000001f0: 07d6 1fbe b566 c73e f53a a6be 19c2 ccbb
00000200: 3c65 6cbe bc1e aabe 3b81 fcbe 02d8 793d
00000210: b3a5 70be bb15 fdbd 15b3 403e 74c4 943d
00000220: 3550 91be 514a d33d 69d3 bf3e b31a 21bf
00000230: 4fdd 4bbf faa5 0e3c e2e7 e13d 0c96 62bd
00000240: 28f6 28be 5667 99be 9b8e ec3e b3d8 dd3c
00000250: 6a6d 58be da1a a8be 3039 fa3e db50 a7bf
00000260: 011a 1c3f d0aa e7be 4a9e bcbd b246 043f
00000270: cc93 a4be b8f5 c6bd 1d9c e23e 7037 08bd
00000280: 3d24 babe 1370 cdba 7c3a 23bd 5d33 983e
00000290: 073e 1b3f 1214 9abe 5582 df3e 282f f3bd
000002a0: 7a3e ee3d 9a03 4e3d 019a 943e 55db e4bd
000002b0: 11aa b3bd 0055 343d 49d7 883e 8e83 dd3a
000002c0: 8ce2 9abc 34db e33d 4feb 87be 06bd 89be
000002d0: ed40 bcbe 5a6e 6ebd 0bae 2cbf d8cc 33bd
000002e0: 22c3 183d fc69 4abd f94c a6be 6c6e 873d
000002f0: c13a 08bf 77a4 063d 9a2e a03e 1c6a 7cbe
00000300: 5c3f 173f a323 bc3e 1971 623e 3efb 8fbe
00000310: f30d 91bd 6000 9b3e 982b 9dbe 2630 993e
00000320: 3a45 0c3e 1222 2abf d9cd 00bd 922a 0abd
00000330: eb96 40bf 7bf9 69bd 2d1c 26bf c4b1 97bb
00000340: bbc4 273d 5efa a1bd ff7e b6be e71a 703e
00000350: 5564 773d 408c da3e ea69 adbe 8adc 41bf
00000360: 1a52 7f3e d707 aabe 618d 053f 4819 353e
00000370: 9fc3 f6be 9cec e7bc dcbc 67be b7a9 47be
00000380: 986f 18be f383 acbe d1ee 11bf e0e6 5b3f
00000390: 3849 9abf 215f c6bd ffef 61be 0e39 21be
000003a0: c90c d7bc 8eb7 d23d 93f7 db3e b2fb 1abe
000003b0: 8fa0 243e bf25 253f 8d67 bb3e 4644 bd3d
000003c0: 798a 23be c897 45be 1b7b ebbd 23c7 36be
000003d0: 2d66 7cbc e84f 493e 5be9 dc3e 0590 aa3d
000003e0: e260 91bd 1fbf 993e 7acc c5be 6776 5ebf
000003f0: 8918 a6bf b18a 02bf b685 94bf a4ea 293e
0.6516824 -0.21276999 -0.8513517 -0.17536381 0.23205645 -0.7190781 -0.3358194 0.34169668
-0.006516513 0.00060564344 0.20238264 -0.1347113 -0.14691447 0.214107 -0.5430862 -0.16106631
-0.50923926 -0.1690395 0.46682152 -0.80863136 -0.93476707 0.24304746 -0.030993512 0.04641298
-0.17676915 -0.20697662 -0.49689803 0.39010674 0.09829774 -0.39566734 -0.30359277 -0.50114983
-0.34070724 0.03310709 -0.04887818 0.10269001 -0.79952025 -0.15765265 -0.39455193 0.29445472
-0.4732686 -0.16720653 -0.20463347 -0.20597307 -0.33709666 -0.7194207 -0.39358273 0.02196187
0.5830597 0.70192444 0.17214736 -0.0037089773 -0.3777964 -1.1673983 0.46691015 -1.3442136
0.5073979 0.3719928 -0.5188743 0.45616078 0.4510741 -0.30387118 -0.88396055 -0.03167674
0.3167996 -0.42766312 -0.97206175 0.07995292 -0.2792837 0.055303875 0.29102287 -0.2953715
0.24804534 -0.17240798 -1.033335 0.0030282733 -1.2619206 0.632031 -0.04215414 0.0520338
-0.4493889 -0.09342806 -0.07711036 -0.3544169 0.007598216 -0.22307006 -0.4514037 0.1266909
-0.24031757 -0.1054596 -0.4970605 0.111399874 0.29977012 0.13777544 -0.08932744 -0.21503983
-0.09237983 0.056154154 0.643308 -0.03887653 -0.66254514 0.15045708 -0.0031652488 -0.19744146
0.1811465 0.077300794 -0.029451344 -0.24152374 -0.6087028 -0.060100473 -0.9165446 -0.19099967
-0.3229221 -0.115465276 -0.36705974 -0.17526099 0.21636498 -0.0016764277 0.45170376 -0.7044832
0.09076994 0.4218545 -0.11285473 0.11861556 -0.15608989 0.38945547 -0.32466856 -0.006248724
-0.23085493 -0.33226573 -0.49317345 0.060997017 -0.23500709 -0.123576604 0.18818314 0.07264033
-0.28381506 0.10316909 0.3746598 -0.62931365 -0.79634565 0.008706564 0.11030556 -0.055318877
-0.16500151 -0.29961652 0.4620255 0.02708087 -0.21135488 -0.32832986 0.48871756 -1.307155
0.6097718 -0.45247507 -0.09209879 0.5167037 -0.3214401 -0.09714836 0.4425973 -0.033255994
-0.36355773 -0.001567366 -0.039850697 0.29726687 0.6064152 -0.30093437 0.43654123 -0.11874229
0.1163301 0.050296403 0.29023746 -0.11174647 -0.08772672 0.044026375 0.2672675 0.0016900168
-0.018906854 0.11125794 -0.26546714 -0.26902026 -0.36768284 -0.05821071 -0.6745307 -0.043896526
0.03729547 -0.04941748 -0.324806 0.06612858 -0.5321465 0.03287169 0.31285554 -0.24649853
0.59081054 0.3674594 0.22113456 -0.2812137 -0.07082739 0.30273724 -0.30697322 0.29919547
0.13698283 -0.6645824 -0.03144631 -0.033732004 -0.7523028 -0.05712269 -0.6488674 -0.0046293456
0.0409591 -0.07909082 -0.35643765 0.23447762 0.06039842 0.42685127 -0.3386987 -0.7572714
0.24933663 -0.33209106 0.5216885 0.17685425 -0.48196122 -0.028311066 -0.22630638 -0.19498335
-0.1488632 -0.3369442 -0.5700503 0.8589916 -1.2053595 -0.09686113 -0.22064207 -0.15744421
-0.026251214 0.102889165 0.42962322 -0.15135077 0.16076873 0.6451072 0.3660244 0.09241538
-0.15970792 -0.19296181 -0.1149809 -0.17849402 -0.01540522 0.19659388 0.43146786 0.08328251
-0.07098557 0.30028626 -0.38632566 -0.8689942 -1.2976238 -0.50992876 -1.1603305 0.16593415

bias f4 [24]
00000000: bd75 42bf 0840 b4be b42b 8bbe ebc2 44bf
00000010: 9439 cdbe cc67 8cbe e5c7 c2be 1d72 8dbe
00000020: 693b 51be 8d6c a8be 8575 2abd 5ad8 e5be
00000030: 8977 6ebe 663a 32be 5711 dbbe 010a 1fbf
00000040: b531 cfbe 5b52 31be 3be1 c1be f1e0 07bf
00000050: a0b7 adbd c6f6 5bbe cabb 3dbe c640 97be
-0.75960904 -0.35205102 -0.2718178 -0.7685992 -0.4008299 -0.2742294 -0.38043132 -0.27626124
-0.2043282 -0.32895318 -0.04161598 -0.44891626 -0.23287787 -0.1740509 -0.42786667 -0.6212464
-0.4046761 -0.17316572 -0.3786715 -0.5307761 -0.08482289 -0.21480855 -0.18528667 -0.29541606

weight f4 [24]
00000000: 0c3e c13c 61ef 103e ef58 183e 3f76 e63e
00000010: 5312 2dbc 5a18 463e a6e3 673d 78ce b53e
00000020: 5a61 af3d 08e9 e23d 9be7 88bc f7fd 4e3d
00000030: bc27 d53c b133 163e d106 873d 8369 9e3b
00000040: c752 763e e1ee 523e 5948 563d 7abd af3d
00000050: 5d5d 0f3e d1d2 dfbd 34c9 403e ba83 903e
0.023589157 0.14153816 0.14877675 0.4501209 -0.010563451 0.19345227 0.056613587 0.35509086
0.0856349 0.110796034 -0.016712 0.05053517 0.026019923 0.14668156 0.06593097 0.0048343553
0.24055015 0.20598938 0.05231509 0.08581062 0.14000459 -0.10928882 0.18826753 0.282255

weight f4 [24, 24, 3]
00000000: afc7 323e ecd4 23be e006 413e 52db b83e
00000010: df20 9a3d e16f da3d 91cb 93bd c743 96bd
00000020: 0ddd 3d3e 10e8 13bd f749 f4bd bd5e 2e3b
00000030: 38b7 31be 898c 38be 2a45 823d 19f8 983c
00000040: 0eb0 acbe 7a52 32be 0553 b53e d93f 213d
00000050: 0e98 73bd 5af5 f03b 5d9e d5bd 486a acbe
00000060: 02ca 7e3e a5e0 263e 77f8 c53d d4af 5abd
00000070: bf97 6ebe 0256 a23b 13bb aebe 469a d3bd
00000080: aba9 6bbd e880 edbd 67be 0ebd 28c3 fdbc
00000090: 9fbb 81be c0d0 2cbe 0383 54bd 2176 bbbd
000000a0: 017b 123e 1106 8a3e 99b3 f1bc 2fe0 22bd
000000b0: bf89 cbbc 4715 b3bd 3b8a 5c3d faaf 34bd
000000c0: 6da8 55bc 30a0 323d d6c9 753e 6e76 123d
000000d0: bc3a 4b3e c2ee fd3c 706c 8b3d 596e c43e
000000e0: 0d48 e4bd 2340 2cbd 374f 53be f988 82be
000000f0: 91a4 97bd dbfb ab3e 189a 813e 2085 2fbe
00000100: 8ec2 5f3d b74c 33be 9d12 813e 7061 58be
00000110: b341 bf3d 11d7 053e 2248 0b3d 38f2 49be
00000120: abeb 7cbe c00e 52bc eb88 64be 278f ebbd
00000130: 1699 f4bc 0519 22be d8e2 6c3e 2ace 073c
00000140: 0149 0cbe 1cd7 d9bd ba12 2fbe 578a a83d
00000150: 6c02 a73e f5a3 e0bd 8013 4f3e 475a f8bd
00000160: 1a3f 683e ffa4 6f3e e311 803e 77e0 233d
00000170: c756 343e 22ad 48bd 19ae e5bd c3f1 dbbd
00000180: 5069 693d 4b8f c2bc c56f ec3d 071e 773c
00000190: 19d7 6abd f594 80bb 468f cbbe 00a6 9bbe
000001a0: 9afe 2ebd 14af b83b 33e4 8b3d 4205 72be
000001b0: 6a02 d93d a9df 323e e504 553e 05e3 aabd
000001c0: c3d5 93be b99b 3cbd b3db b4bd 4405 15be
000001d0: 8ac6 eabc 8be1 2bbe 9c3c 853d 5bae ed3d
000001e0: f8e4 443e 8af5 8dbe 472b 56bd 5cc2 babb
000001f0: c705 afbe 4309 f7bd 60da a63b 7e7a 70bc
00000200: 9303 a03e a41b 3f3d b9ba 0a3c d713 2dbe
00000210: ea88 6f3b 15f1 723d 5754 813d 790f a63c
00000220: 59db 46be 3861 b53d 986d cfbd d37f c73d
00000230: 0836 8ebc 7d69 93bb 50d0 a7bd 07fb 893c
00000240: 8b7e 843d 5e40 823e a031 00be 19f6 9d3e
00000250: 42d0 4c3d e08d 593e 6aa2 7abe 3296 28bd
00000260: 3707 5e3d 8946 663d c552 44bd a450 5f3e
00000270: aafe 17be 0b37 d0bd d052 883d e5fb b53d
00000280: 5241 46be 4c41 2abd d2ff c63d aaa6 453d
00000290: 4b20 d4bd 8a52 9c3d d839 82bd 8f43 83be
000002a0: 30b1 39be 0d37 b8bd 6994 db3c 38e8 86bd
000002b0: c01e 8e3d d28b ed3e a6a2 b83d 1f42 ffbd
000002c0: 1794 5a3d c745 b03d 27cc b03c acfc 7e3e
000002d0: e8c6 a2bd 9c5b 9bbe 2688 303e cf74 363e
000002e0: 9331 60bd a321 063e 56d2 52be b0fb 1c3c
000002f0: 5c91 e5bc 34aa c9bd 2383 543d a945 383e
00000300: 057b 983d a618 bcbb 30a7 19be 48fd c93d
00000310: 81c6 0ebe abc8 21be 69ff 693d 0723 013c
00000320: e544 75be 2933 46be 63a9 c73d 824a 6a3c
00000330: f4a7 933d e190 c2be 7eaa f73d 2137 e4be
00000340: b22b 8e3e 7412 373e 1261 1b3e b1ad 1abe
00000350: 3f14 b33e 8bed 96bd cf17 d4bd a9c8 5e3e
00000360: 8a36 b73e efed b4bd 094f 013e 9ddd d73c
00000370: 7031 983d 221a 0abd 67fd cd3d 049a 9cbe
00000380: b5a8 4e3e ab4e b1be 9b06 ae3e c714 70bb
00000390: 93f9 f73d be2e d33d 760e 7d3d 5fc7 a1be
000003a0: 5cae b8be 4a66 573d f16b b13d 66d4 d63e
000003b0: 3d16 90be e458 9fbe d903 9fbd 8c5e a33e
000003c0: 18d6 0fbe 6859 9abd 9515 0fbe 6479 30be
000003d0: ca56 49be 68cc a3be 7eb0 093d df96 1b3f
000003e0: 91c8 07be f7ca 443e 937c 3d3e ba28 bfbd
000003f0: 80ca 48bd e4ff d7bd 19d1 f9bd f86f 413d
0.17458986 -0.15999192 0.18850279 0.36104828 0.07525801 0.106658705 -0.072165616 -0.07337146
0.18541355 -0.036109984 -0.1192817 0.0026606761 -0.17355049 -0.1802236 0.06360848 0.01867299
-0.3372807 -0.17414275 0.354149 0.03936753 -0.059471183 0.007353467 -0.10430596 -0.33674836
0.24881747 0.16296633 0.096665315 -0.05339034 -0.23300074 0.0049541006 -0.341271 -0.1033216
-0.057534855 -0.115968525 -0.03484955 -0.030976847 -0.25338456 -0.16876507 -0.051882755 -0.09153391
0.14304735 0.26957753 -0.029504584 -0.03976458 -0.024845956 -0.08744293 0.053842764 -0.044113137
-0.013040644 0.043609798 0.24002776 0.035757475 0.19846624 0.030997638 0.06807792 0.3836544
-0.11146555 -0.042053353 -0.20635687 -0.25495127 -0.074044354 0.33590588 0.25312877 -0.17140627
0.0546289 -0.17509733 0.25209513 -0.2113092 0.09338703 0.13070323 0.034004338 -0.19721305
-0.24699275 -0.0128208995 -0.22317855 -0.115019135 -0.029858153 -0.15829857 0.23133409 0.008288899
-0.13699724 -0.10636732 -0.17096987 0.08229511 0.32619035 -0.10968772 0.20222282 -0.12126594
0.22680321 0.23402785 0.25013646 0.04000899 0.17611228 -0.048993237 -0.11214847 -0.10739472
0.0569852 -0.023749968 0.11544756 0.015082843 -0.05733404 -0.003924007 -0.39757746 -0.30400085
-0.042723276 0.0056361053 0.06830635 -0.23634818 0.105961636 0.17468132 0.20802648 -0.08344082
-0.28874025 -0.046046946 -0.08830967 -0.1455279 -0.028659124 -0.16785257 0.06505701 0.11605521
0.1922797 -0.27726394 -0.052287366 -0.005699439 -0.34184095 -0.120623134 0.0050919503 -0.014677642
0.31252727 0.04665722 0.00846737 -0.169021 0.0036550113 0.059311945 0.06314915 0.02027105
-0.19419612 0.08856434 -0.10128325 0.097411774 -0.017359748 -0.004498659 -0.08194029 0.016843332
0.06469449 0.25439733 -0.1251893 0.3085182 0.050003298 0.21245527 -0.24476019 -0.041158862
0.0542061 0.05621961 -0.047930498 0.21808106 -0.1484324 -0.101667486 0.0665642 0.08885936
-0.19360855 -0.04156618 0.097167626 0.048254646 -0.10357722 0.076329306 -0.06358689 -0.2563748
-0.18133998 -0.08994875 0.026804166 -0.06587261 0.06939459 0.46395737 0.09015398 -0.124637835
0.053363886 0.08607059 0.021581722 0.24901074 -0.079480946 -0.3034333 0.17239437 0.17817996
-0.054734778 0.13098769 -0.2058805 0.009581491 -0.028023414 -0.09846917 0.051882874 0.17995323
0.07445339 -0.005740243 -0.15005183 0.09862763 -0.1394291 -0.15799205 0.057128344 0.007881886
-0.23952062 -0.19355454 0.09749105 0.014299991 0.07209769 -0.3800116 0.12093066 -0.4457331
0.27767712 0.17878133 0.15173748 -0.1510532 0.34976384 -0.073695265 -0.10356104 0.21756233
0.35783798 -0.08834445 0.12627806 0.02635079 0.074313045 -0.03371633 0.10058098 -0.30586255
0.20181544 -0.3463033 0.33989415 -0.0036633478 0.121081494 0.1031165 0.06178137 -0.3159742
-0.36070526 0.052587785 0.08663166 0.41958922 -0.28141966 -0.31122506 -0.07764406 0.3190807
-0.14046514 -0.07536584 -0.13973077 -0.17233807 -0.19662014 -0.31991887 0.03361558 0.60777086
-0.13260104 0.1921805 0.18504553 -0.0933394 -0.049021244 -0.10546854 -0.12198085 0.047225922
