models/teste-uncloss-ss3_ss4_buried.pth (torch_old, 359341 bytes, 132 tensors)

weight f4 [24, 22, 1]
00000000: 32ff 2e3d 5507 b9be c573 763e 6f8f b7be
00000010: 2211 863d 738f cdbc 2dd0 49be f2a9 97be
00000020: 7556 c23e 9575 283d b491 22be fbbf d4bd
00000030: c2e9 aebc 1c1f 823e 7ae2 0b3e c8e7 353e
00000040: c9d8 99bd a769 3b3e 9f68 9f3e 2a64 d43e
00000050: 7c70 fb3d 862d 2dbe 6550 9bbb e3bf 003e
00000060: 944d c73c 0caa bc3e f96c abbe 5510 65be
00000070: 885e 1e3d 2557 673d d3ca f4be cdea e2be
00000080: 66fb a1be 119a bb3d 3bb1 dbbe 3330 afbe
00000090: 82e6 96be 79e0 633e c678 b6be 8f4e b0be
000000a0: 5f79 c6be 722d 663e 3a75 a93e bf36 f2bd
000000b0: b8dd d6be fb5b f6be 314c 803e bc46 9dbe
000000c0: b110 e9bd dae8 1ebf f108 8dbe f99b 6cbd
000000d0: 866e dabd 2b67 00be af4d 44be 4126 0fbe
000000e0: 360c c53d 6a23 fdbe 9b8f 35be 5c0c 8fbe
000000f0: 7e7c 303d 6cb7 c4bd 7c9b 533e d64f 13be
00000100: 2c66 dbbd 8992 10bf 63cf 253d 49e7 cabd
00000110: def1 823e 8570 c5be e59e 423e c4ae 283e
00000120: 35e9 f6bd cdb3 6cbe d998 cf3d d38e 973b
00000130: fc1c f1be 2b82 66bd 3319 50be c20e 793d
00000140: f98c d7be 7f8e d13d 060b 4a3d 49d4 5ebc
00000150: 075c 733e 5f64 5e3e 4e38 3f3f 8633 50be
00000160: a81f 14be f2a3 1abe 7161 10be 13d7 033e
00000170: edba 1f3f b3d7 d43e 361e 8d3e 1036 a73e
00000180: 861a 1e3f 3369 85bd e0ba 383f 0cbd e33e
00000190: 5d1f 393e 73c0 bb3e 1872 7d3e 6917 ad3e
000001a0: eb56 da3e e9ed 123e df5b edbd 1138 053e
000001b0: f252 48be 6bea 4f3c 76db a63e 3818 243d
000001c0: 3761 0dbf 018b fc3e 11b6 8d3d c491 153f
000001d0: 6653 46bd 9da5 243d 7485 70bd 40fc 08be
000001e0: 5d93 8b3d a95a 0d3e 3669 22bf 2305 b63e
000001f0: 8566 fbbe acb1 48be 479e 38bc 4a75 a53d
00000200: 3ded 923c d99e 58be 424f 2bbe 00bf 493e
00000210: ccf4 b33d fa45 483e d729 9a3e 5273 893e
00000220: 243c b43d 9c6e 14bb 9bba 423e f880 293e
00000230: b5f8 82be 31c0 16bf d644 debc b8eb 5fbd
00000240: 62b2 1a3e 286d 0e3e 9742 88bd d32d 03bf
00000250: 568d 623d d914 bf3c b4b9 f2be cacf 03be
00000260: 9ae4 00bf dfe3 09be 8de6 e7bd 6c45 6f3e
00000270: b13a f43d 2db1 7f3e 6007 2cbe 4f23 303f
00000280: 2e40 51be fe4a 623e 878a 2fbf 1daa b33e
00000290: a0d5 c93e 1abd 29be 52f2 d53d 55b6 e1bb
000002a0: 8323 143e ea3c d43d 531f 94bd f25c f43d
000002b0: 0dfb 28bf b994 9a3e 0519 59be 9e12 62be
000002c0: 1e1d a73d 693b 4a3e 9851 e43e 0987 0b3f
000002d0: e568 9c3e e3ae 16be 147a 093e d136 aebe
000002e0: 5a1f afbe 2d32 5c3e 4391 01bf 3745 b8be
000002f0: 6fc4 8b3d 87b1 6c3e 4a71 95ba ce61 ac3d
00000300: c17c 5fbe 3f1b bf3e 8f1d 243d 1638 fb3d
00000310: 5ee5 1d3e d2d2 2fbe 7705 fcbd b393 533c
00000320: 5521 9e3e 12a6 343e 9c96 123e ba72 c93c
00000330: 508b 5ebe ac3a e23d 452b cebe 0620 07bd
00000340: 0ea9 51be 29d0 e43c dd09 10bf 44f9 f1be
00000350: 0ae0 033f 80f2 46be f5d8 843e 4f24 6b3d
00000360: 3cb6 263e 81d8 a3be 0bc6 933d 9fcd c13d
00000370: e670 143e 8688 843d 7d99 753d f742 07be
00000380: 3e04 bf3e 55e1 43be 8320 5f3e 8e18 aabe
00000390: 8021 98bc fcbe 323e cb17 69be f97e debe
000003a0: c5ac 69be a6b7 f03e c627 823e 61b6 9b3e
000003b0: 49ee 15bb cede ee3d fd09 673e 14d1 083d
000003c0: d684 94bd d690 66be 5a3d 51be f9dd 80be
000003d0: a13e 0ebe 08af 44be 3ec6 1ebe f1e1 c23e
000003e0: df8b 503e e4eb 38be 7b7e 563d fc86 0c3e
000003f0: c456 613f 2304 e3be 06c0 8b3e fce7 933e
0.042723842 -0.36138406 0.240676 -0.3585162 0.065462366 -0.025092816 -0.19708319 -0.29621845
0.37956586 0.04112776 -0.15875894 -0.1038818 -0.021351699 0.2541436 0.13660613 0.17764199
-0.075120516 0.18302022 0.31134507 0.4148267 0.12277314 -0.16911897 -0.0047398084 0.12573199
0.024328984 0.36848485 -0.33481577 -0.22369511 0.03866437 0.056479592 -0.47810993 -0.44319764
-0.31637114 0.09160245 -0.42908654 -0.3421646 -0.29472739 0.22253598 -0.35639018 -0.34434935
-0.38764474 0.22478274 0.3309725 -0.11826848 -0.41966033 -0.4811705 0.2505813 -0.3071803
-0.11380137 -0.62074053 -0.27545884 -0.057765935 -0.10665612 -0.12539355 -0.19170259 -0.13979436
0.0962147 -0.4944108 -0.17730562 -0.27939117 0.043087475 -0.096052974 0.20664781 -0.14385924
-0.10712847 -0.56473595 0.040480983 -0.099073954 0.25575155 -0.38562408 0.19005926 0.16472918
-0.120561995 -0.23115464 0.10136575 0.0046251803 -0.47092426 -0.05627648 -0.20322113 0.06080509
-0.4209974 0.10232257 0.04932692 -0.013600417 0.23765574 0.21717976 0.7469529 -0.20332155
-0.14465201 -0.15101603 -0.14099671 0.12875013 0.623946 0.41570815 0.27562112 0.32658434
0.6175922 -0.06514206 0.7216015 0.4448017 0.1807837 0.36670265 0.24750555 0.33806923
0.42644438 0.14348568 -0.11589789 0.13009669 -0.19562891 0.012690167 0.3258931 0.04006216
-0.55226463 0.49324802 0.06919492 0.58425546 -0.04841938 0.040197004 -0.05872102 -0.13377476
0.06815217 0.13804115 -0.6344179 0.35550794 -0.49101654 -0.19599026 -0.011268205 0.08079012
0.01793539 -0.21154346 -0.16729453 0.19701767 0.08786926 0.19557944 0.30110046 0.26845795
0.088005334 -0.0022648936 0.19016497 0.16553104 -0.25580373 -0.5888701 -0.027132433 -0.05466816
0.1510711 0.13908827 -0.06653326 -0.512418 0.05531057 0.02332537 -0.47407305 -0.12872234
-0.5034882 -0.13465832 -0.11323271 0.23366326 0.11925257 0.24969931 -0.16799688 0.68803877
-0.20434639 0.2209892 -0.6857075 0.35090724 0.39420795 -0.16576043 0.104466096 -0.0068881908
0.14466672 0.10363181 -0.07232537 0.119317904 -0.66008073 0.3019159 -0.2120095 -0.22077414
0.081598505 0.19749226 0.445935 0.5450292 0.30548778 -0.14715151 0.13425475 -0.34026197
-0.34203607 0.21503516 -0.50612277 -0.35990307 0.06824576 0.23114596 -0.0011401561 0.08417092
-0.21824934 0.37325475 0.04006725 0.12266557 0.15419528 -0.17170265 -0.1230573 0.012913632
0.30884805 0.17641476 0.14315265 0.024590839 -0.21732831 0.11046347 -0.40267387 -0.032989524
-0.20474645 0.02793129 -0.5626505 -0.47260487 0.5151373 -0.19428444 0.25946775 0.057407673
0.16280454 -0.32001117 0.07215508 0.09463047 0.14496192 0.06471352 0.05996083 -0.13209139
0.37307924 -0.19128926 0.21789746 -0.3322186 -0.018570662 0.17455667 -0.22762983 -0.43456247
-0.22819813 0.47015113 0.2542097 0.30412582 -0.0022877625 0.1166359 0.22562404 0.033402517
-0.07251899 -0.22516188 -0.2043356 -0.25169352 -0.13891079 -0.19207394 -0.15505311 0.38063005
0.20365857 -0.18058735 0.052366715 0.13723367 0.8802302 -0.44339094 0.2729494 0.28887928

weight f4 [24]
00000000: 2523 693e 7e5e 5a3e 337c 863e 988a 753e
00000010: 7085 5b3e bc4f 873e e922 8f3e 6024 763e
00000020: f478 603e 99c8 443e 09da 603e 03cb 883e
00000030: dbea 833e 4c1d 653e dfe3 6b3e a770 423e
00000040: 427c 703e 741f 6c3e d7fa 673e faca 633e
00000050: cec3 4d3e 8d4f 673e 9e27 673e f0b1 763e
0.22767313 0.21325108 0.2626663 0.2397865 0.21437621 0.2642802 0.27956322 0.24037313
0.2192114 0.19217147 0.21958174 0.26717386 0.25765118 0.22374457 0.23036145 0.18988286
0.234849 0.23058873 0.22654282 0.22245398 0.20094225 0.2258894 0.22573707 0.24091315

weight f4 [24, 24, 3]
00000000: d945 65be 3992 c53d 3580 e13d f544 8a3d
00000010: fafe 02be 871f 87be b133 ac3c 2ae5 9a3d
00000020: 7111 83be 9cdd 253e 2f74 203d a0b6 c9bd
00000030: a5a6 063e 26ec d73d 19f7 8bbe 6fc1 05be
00000040: ef0d 73be 7cc7 96be bd4e e23d 3698 05be
00000050: 3dd6 833d 01e4 b33d 1c97 d13d 825f ab3d
00000060: aa68 d13d 162f b2be 9b4e 9bbd c68d d8bd
00000070: 3c9a 213e 8750 8a3e 72b3 a03d ff8c 30be
00000080: 53a2 4d3e 8093 023e 5e5b dbbd 7c13 28be
00000090: b496 843e a902 82bd 64bd 36be 0696 5bbe
000000a0: 35a0 703d 88d3 c83d 97a8 123e 9ad3 68bd
000000b0: 2abb d83d 8a3d 10be cd34 64be bf0f bbbe
000000c0: 5612 0b3e 24c0 123e 7edf c83d f57c 713d
000000d0: b20b d9bb a37d 193e e288 ad3e 3d57 6e3e
000000e0: 761a 763e c475 153e 9f3c b73d 47f7 6ebe
000000f0: d2cc 67bd 250e 853d d3e3 b73c f2f2 443e
00000100: 696e 0e3e bf3a 33bd c25f 03be 146a 203e
00000110: 6552 d83d 3a75 39be 9772 8bbc 2a64 c4bd
00000120: 57f6 12be 6daf a63e 841c d83d 4315 173e
00000130: 718a 05bc 962d 193e 873b c13d 3e85 0cbe
00000140: 97f1 04bd 5eb6 b4bd 7daf 233c ff6f eabe
00000150: 46eb 40be d5da e4bd ce64 02bb 2a17 f9bd
00000160: c08e 983c 5f47 b03e 6446 d73d 8294 6cbd
00000170: 20c3 183e 1eb0 063e 479a d83d 0465 493e
00000180: 3b83 0cbd 87a6 2dbe 757c 2a3c 663a 4dbd
00000190: edd7 74bd 1b56 04be 270b af3e 2f1a a33c
000001a0: fbfb 55bd a403 aebd 2787 18be d13e 21bd
000001b0: 62c6 28be b2ca 59bd be6c a9be e053 8d3e
000001c0: 3741 643d a3c4 aebe 4e6a 063e 3437 943d
000001d0: 60a2 96bd 0226 cdbd 7e5d 48be 09cb bd3d
000001e0: 40b4 6c3e 5d82 eebd d56c b13e 82a1 93bc
000001f0: 6e54 c5bc c215 913d 8aa7 4cbe a6e0 3b3e
00000200: 3ca2 0f3e d558 21bd 0891 f13d 1155 d43c
00000210: 2ef4 ecbc f7b9 6dbe 589f 45be e011 9abd
00000220: aa76 d03d 0fa0 e8bd 7fb4 a0bc 459c 6fbc
00000230: 13cd 71be 6680 5f3e 9491 b93d a70a 7dbd
00000240: abac 9ebc a901 923e 151a 9b3e 33e6 7dbe
00000250: 5c03 ca3d 3bd1 a1be 132c 1a3c 7a7e d13d
00000260: 2419 9a3d 2afb 8dbe ca73 4d3e e99a 913e
00000270: 5ac1 12be b6f3 1dbe 4011 693d a99b e73d
00000280: b5fa 173d 372c b0be ba1b 39be 8db2 d8bc
00000290: dfb9 063d a67b 7c3e fcd4 df3d f9b6 90bd
000002a0: 8109 a9bd 35a8 d9bd 7912 9c3e 2218 6dbd
000002b0: b4d1 cbbb 0afc cb3a ddbb 68bd dbfb 8b3e
000002c0: 1821 343d 4b30 14be 47bb 6a3b 90d4 2cbe
000002d0: e0b6 6ebe a8e2 273e 4ea4 693e 6688 59bb
000002e0: 21cb 27be 32ed bcbd f525 abbc 1f1c c53e
000002f0: 1fe3 ac3d 1551 343d b567 1fbd 96c8 0fbe
00000300: 1353 be3d 4b22 9d3c 384a 0cbc 3f82 5f3e
00000310: fa32 d13c a4bc 9bbd 3a2b abbc 6574 bb3d
00000320: 17df a03d d71a 30bd 94e3 aabc 3a89 953d
00000330: 6712 d63e 7bb2 e93e d43a 1a3e 28d9 993e
00000340: d169 92be e993 3dbe 543e e93d 7d55 6a3d
00000350: 64f8 153d b00a 843d acf8 173e 9233 183d
00000360: 486e 9a3d 9d07 39bd 8bc3 0cbe 4bd6 37be
00000370: 5e82 313e fd2a 8bbd b9a0 b63c aded 94bc
00000380: 5399 ee3c 8b4d 8f3d ef72 fdbd d805 353e
00000390: 2160 973d 88dc 2f3e 1ed7 26be 9861 c13d
000003a0: d72e 4cbe aba7 56be d161 943e 7eac 293d
000003b0: c643 aabc 5c78 a93d ef42 84bc 5738 553d
000003c0: 4c2b 46bd 90e3 b43d 9f12 8abc 1b85 2e3e
000003d0: e227 20be ee5e 51be 57c7 2cbe f6ae a9bc
000003e0: 33af 2b3e bb99 52bc 9859 28be 7946 0c3e
000003f0: 5db9 c2bd 8410 903e 128d b93c 513c dfbc
-0.22389926 0.096470304 0.11010782 0.06751434 -0.12792578 -0.2639124 0.021020742 0.07563241
-0.25599244 0.16197819 0.0391733 -0.09849286 0.13149507 0.105430886 -0.27336958 -0.1306207
-0.23735784 -0.2944907 0.110501744 -0.13046345 0.06437347 0.08783723 0.102339 0.08367826
0.10225041 -0.3480155 -0.07583352 -0.10573916 0.15781492 0.27014562 0.078467265 -0.17241286
0.20081453 0.1275158 -0.10710786 -0.16413683 0.25896227 -0.06348164 -0.17845684 -0.21443948
0.058746535 0.098059714 0.14322124 -0.056842424 0.10582574 -0.14085975 -0.22285767 -0.3653545
0.13581213 0.14331108 0.09808253 0.05895706 -0.0066237086 0.14989333 0.33893496 0.23275466
0.24033532 0.14595705 0.089471094 -0.23336516 -0.056591816 0.064968385 0.022447502 0.19233301
0.13909306 -0.043757197 -0.12829497 0.15665466 0.105625905 -0.18111125 -0.017022414 -0.09589417
-0.14351784 0.32555714 0.10552314 0.14754204 -0.008150683 0.14958796 0.09435182 -0.13722703
-0.03245696 -0.08823846 0.00999057 -0.4578857 -0.1883975 -0.111745514 -0.001989651 -0.12162621
0.018622756 0.34429452 0.10511473 -0.057758816 0.14918184 0.13153121 0.10576301 0.1966744
-0.03430484 -0.16958056 0.010405649 -0.05010452 -0.059776235 -0.12923472 0.34188196 0.019909946
-0.05224226 -0.08496788 -0.14895307 -0.039366547 -0.16481927 -0.05317182 -0.33090776 0.27603054
0.055726256 -0.34134397 0.1312649 0.07237092 -0.07355189 -0.10017015 -0.19566914 0.092672415
0.23115635 -0.116459586 0.34653345 -0.018021349 -0.02408811 0.07084228 -0.19985786 0.18347415
0.14026731 -0.039391357 0.11795241 0.02591947 -0.028925028 -0.23215471 -0.19299066 -0.07522941
0.101788834 -0.11358654 -0.019617317 -0.01462466 -0.23613386 0.21826324 0.0906097 -0.061777737
-0.019369444 0.28516892 0.30293337 -0.24794845 0.09863922 -0.31604943 0.009409922 0.102292016
0.075243264 -0.27730685 0.20063701 0.284385 -0.1433157 -0.15425 0.056901217 0.11308987
0.037104327 -0.34408733 -0.18076983 -0.026452327 0.032892104 0.24656543 0.109292954 -0.07066149
-0.08253766 -0.10627786 0.30482844 -0.057884343 -0.006220067 0.0015562784 -0.056819785 0.27340588
0.043976873 -0.14471547 0.0035817192 -0.16877961 -0.23311949 0.16395056 0.22816584 -0.0033192872
-0.16386081 -0.09224929 -0.020892123 0.38498017 0.084417574 0.04402264 -0.038917262 -0.14041361
0.09293189 0.019181391 -0.008562617 0.21827029 0.025537003 -0.0760434 -0.020894635 0.0915306
0.07855051 -0.042994346 -0.02086047 0.073015645 0.41810915 0.45643982 0.15061504 0.3004849
-0.28596357 -0.18513454 0.11388841 0.057210434 0.036613837 0.06447351 0.14840955 0.037158556
0.07540566 -0.045173276 -0.13746469 -0.1795284 0.17334887 -0.06795309 0.022293435 -0.018179739
0.029125845 0.06997212 -0.123754375 0.1767801 0.07391382 0.1717397 -0.16292998 0.09442443
-0.19939743 -0.20962398 0.28980878 0.041424267 -0.02078427 0.0827491 -0.016145198 0.052055683
-0.048381135 0.088324666 -0.016854582 0.17042963 -0.15640214 -0.20446369 -0.16872917 -0.02071331
0.16766052 -0.012854035 -0.16440427 0.13698758 -0.095080115 0.281376 0.022650275 -0.02725044

bias f4 [24]
00000000: 796b 10bd 5deb 7cbd 6301 bfbd 5741 f1bd
00000010: 5f1f 513a 0bff f63d e90e 813c 6761 133d
00000020: 467d 953d abf8 f33c 90e5 773d 8ad4 073e
00000030: c6cc 2ebc eaab d0bd 179e 20bd 76e6 eebd
00000040: a3f9 b4bd 07e7 c2bd 50cc d2bb 8812 12be
00000050: 003b d03c 6f3a 00be ef35 f5bd dad8 eb3d
-0.035258744 -0.061747897 -0.09326436 -0.11780041 0.0007977392 0.12060364 0.01575418 0.035981562
0.07299285 0.02978166 0.060521662 0.13264671 -0.010668939 -0.1018904 -0.039213266 -0.11665051
-0.08836677 -0.09516721 -0.0064330474 -0.14264882 0.025418758 -0.1252229 -0.11973178 0.115159705

weight f4 [24]
00000000: 2e65 6c3e 62cc 643e 8db3 663e 21e9 663e
00000010: 603b 643e f446 613e 7b94 6b3e 3c66 823e
00000020: 9495 633e 1711 853e 3c8c 6a3e 7076 693e
00000030: 2418 6b3e 13b2 6a3e 72c1 863e 34f3 803e
00000040: 7f45 6c3e 2460 8c3e 25f2 883e 0eaf 783e
00000050: 2abe 683e 9d3b 343e 9fe6 6a3e 2727 6a3e
0.23085472 0.22343591 0.2252943 0.22549869 0.22288275 0.21999723 0.2300586 0.25468624
0.22225028 0.259896 0.22905058 0.22799087 0.22958428 0.22919492 0.26319462 0.2518555
0.23073386 0.274171 0.26747242 0.24285528 0.22728792 0.17600866 0.22939537 0.22866498

weight f4 [24, 24, 3]
00000000: 51f2 cabd 6b68 1cbe 9839 7e3d ffd9 40be
00000010: 91e8 8d3c a100 0ebe bc50 8ebd 5d4c 72bd
00000020: 2b3c 213e 5488 0c3e 6a5b 863e 27dd a9bc
00000030: 6527 283e 07d6 753e a59d a4bd 9464 fdbd
00000040: 4852 e9bd d414 d63c d4a6 f2bd 0f2d b73b
00000050: d7bf dfbd 798b ff3d 609e 343e ea35 e5bc
00000060: 6ee3 49be 97a7 5dbc 84b5 223e 2821 d73d
00000070: ea09 96bc 77d5 8c3d f7c2 02bb ee94 d6bd
00000080: 6c19 633d 3d24 60be 6586 3dbd d6ae 973d
00000090: 4f15 afbd f582 6fbe 6e65 1b3e c114 a13d
000000a0: 0402 8ebc 02b6 dbbd ba72 bd3d 39a1 3cbe
000000b0: fc79 403d a6f2 793e 09db 86bd d721 57bd
000000c0: ad94 4dbe f096 763d cc9e 3d3e 2a24 cf3d
000000d0: 5758 353e 0eee 9b3d b168 f63d 083d 43be
000000e0: 39f1 ac3c 0e87 01be 72b5 72be d1a1 463e
000000f0: ea73 873d 0a21 313d 6d4e cb3d 321e 563d
00000100: a186 87be cf63 9b3d d5e3 20be a5ef e93d
00000110: dca4 173d d629 72bd fd36 81bd d387 acbd
00000120: 5c49 48be 456a 243e 52e0 9e3c 3a4d 0abe
00000130: 9232 a2bb 6eb2 71be d12b c83d 043c b5bd
00000140: 008d 693e 6ad3 a1bc 4491 55be 6b1f 74bb
00000150: a0f3 52be dd94 5cbd a570 e93d 0dfd b7bd
00000160: 41e7 ed3d c8f6 aabd 7e2f 85bd 025e 89be
00000170: 0411 cfbc 9a42 763d fc0d 853e b77f bf3e
00000180: e638 053d 7bf5 a0bd 5609 d8bd 4b95 1c3e
00000190: a06e 9ebe c65e fd3d 6dfd 873e 69f7 c0bd
000001a0: 1b0d 863e 962e ebba 0cea 373d 7b40 583d
000001b0: ff7c 4abe e6b9 193e ee56 5dbe 73a7 613e
000001c0: d758 913d 06cf d4bd 5a0f cb3d 5129 02bd
000001d0: 14e6 f53b 4df0 383e 8105 63be dfe0 42bd
000001e0: d030 cabe 8a40 a1be 5d2b e53d b786 0b3e
000001f0: 8dc3 3cbe ffdb 68bd 86c0 473e 06df 0c3e
00000200: 153c f2bd 68b0 7cbe 92c7 59bd c781 e13b
00000210: 7dbf 8d3e 7c1f da3d 3620 85bd 3506 d13e
00000220: 98a4 ce3e 1f1d 57be b3be 2e3d a469 80bd
00000230: d998 bebd 5225 b23c 8be8 033e 81e8 5e3d
00000240: 3d69 edbd a861 abbe b540 073d 83ef a13c
00000250: b09a 143e da33 3e3d 7e0b 213e c02e 14bd
00000260: c93d 143d ff6b cbbd b60d 203c 66e2 96be
00000270: d693 483d 9b6b 8e3e 941d febc 78b0 50be
00000280: ed5d 5bbe a52b 643e fab7 033e 0411 fdbd
00000290: 7b95 063c 32cb 86bd d409 113e 1732 abbe
000002a0: 0809 dcbd 3010 b53c 17de fbbc 35bb 25be
000002b0: 870c 403d d546 263e 8502 ecbd 0c47 7a3e
000002c0: 0ba2 cc3c 47df 30be f0e3 433e 2b82 e63d
000002d0: 4d8b 88be 3b6d 9f3d 5655 fd3c 4c6f 81be
000002e0: 041d 06be 4d43 cbbd 5347 36be 2e26 a83d
000002f0: 7568 803d 16db 913d ba54 3cbe d84a 66bd
00000300: 9f0d 44be 7929 2abe 8624 04be 4eb5 08bd
00000310: 6c63 053d 44b7 cd3d 4c52 b93d 350f 273e
00000320: e145 1d3c b119 b03e 2e22 5b3d 17a8 343e
00000330: 3923 a93b 9e99 1fbe 00a5 94bd 9ecb 09be
00000340: f4e8 693d e3f0 4f3d bc56 0f3e b0d8 693c
00000350: bc6c 5fbd 7bac bcbb b0fb 94be eef8 763e
00000360: db44 2fbd 6f08 c4bd 55c3 31be c16f 423d
00000370: 98e9 ac3d c014 9ebe 49f4 31bd 1a35 6f3b
00000380: 8ebc 95bb fd60 213e e3f2 203d 8c5b 863d
00000390: 97c9 03bc b0ca cebe acd5 15be cee4 903d
000003a0: 2e69 d4bc 3f90 5f3d d7f8 01bc 37be 363e
000003b0: a0f0 eaba ecb7 4dbe b7f0 e1bd 02be 5dbb
000003c0: 9bf0 8fbc c27e 76bd 8546 c13e 77b7 e7bc
000003d0: c607 783e 7188 0cbe a869 7b3e 5637 cf3b
000003e0: ee5d 00bd 2d31 003e 0941 943d ddc2 aabd
000003f0: 4950 273e 7df2 cabd 2ef7 fb3d 09db 06bc
-0.099094994 -0.15274207 0.062066644 -0.18833159 0.01732281 -0.13867427 -0.069489926 -0.059154857
0.15745609 0.1372388 0.26241618 -0.020735336 0.16421278 0.24007426 -0.08037881 -0.123726994
-0.11392647 0.026132978 -0.11848226 0.005590088 -0.109252624 0.12477774 0.1763854 -0.02797981
-0.19715664 -0.013528726 0.15889555 0.10504371 -0.018315274 0.06876653 -0.0019952634 -0.10477625
0.055444166 -0.21888824 -0.046270747 0.07406394 -0.08548986 -0.233898 0.15175411 0.078652866
-0.017334945 -0.107280746 0.09250398 -0.18420877 0.046991333 0.2440897 -0.065847464 -0.052522507
-0.20076247 0.06020254 0.18517607 0.101143196 0.1770948 0.07613765 0.12031687 -0.1906625
0.021111118 -0.12649176 -0.23702028 0.19397666 0.06613906 0.0432444 0.09927068 0.05227489
-0.264699 0.07587396 -0.15711911 0.11422662 0.037022457 -0.05912193 -0.06309316 -0.08424344
-0.19559234 0.16056164 0.019394074 -0.13506022 -0.004949876 -0.23603222 0.09773982 -0.08849338
0.22807693 -0.01975413 -0.20856196 -0.0037250172 -0.20600748 -0.053852905 0.11398438 -0.089838125
0.11616374 -0.08347851 -0.06503199 -0.26829535 -0.025276668 0.06012211 0.25987232 0.37402126
0.032524966 -0.07859322 -0.10548656 0.15291326 -0.30943775 0.12371592 0.26560536 -0.0942219
0.26181874 -0.0017942961 0.04490094 0.05279587 -0.19774245 0.15012321 -0.21615192 0.22036533
0.07097023 -0.10391049 0.099150375 -0.031777684 0.007504234 0.18060417 -0.22170068 -0.047577735
-0.39490366 -0.31494552 0.111899115 0.13625608 -0.18433972 -0.05685043 0.19507036 0.13756952
-0.11827866 -0.24676669 -0.05316884 0.0068819257 0.27685156 0.106505364 -0.065002844 0.40825048
0.4035995 -0.21007203 0.042662334 -0.06270149 -0.09306497 0.021746311 0.12881677 0.05442095
-0.11592338 -0.33472943 0.033020694 0.019767528 0.14512134 0.04643617 0.1572704 -0.036177397
0.036191735 -0.09932708 0.009768894 -0.29469603 0.048969112 0.2781647 -0.031019963 -0.20379817
-0.21422549 0.22282274 0.1286315 -0.12356761 0.00821435 -0.06581725 0.14163905 -0.33436653
-0.1074391 0.022102445 -0.03074555 -0.16184695 0.046886947 0.16237958 -0.11523918 0.24441165
0.024979612 -0.17272674 0.1912992 0.11255296 -0.26668778 0.07784506 0.03092448 -0.25280225
-0.13097006 -0.09924946 -0.17800646 0.08210407 0.062699236 0.071218655 -0.18391696 -0.05622372
-0.19145821 -0.16617383 -0.12904558 -0.03337603 0.03256552 0.10044721 0.090489 0.16314395
0.00959918 0.343946 0.053499393 0.17642246 0.0051616696 -0.15585944 -0.07258034 -0.1345658
0.057106927 0.050766837 0.1399793 0.014272854 -0.054547057 -0.005757866 -0.29098272 0.24118397
-0.042790275 -0.09571921 -0.1735967 0.047469858 0.08442992 -0.30875206 -0.04344586 0.0036500157
-0.0045695966 0.15759654 0.039294135 0.0656043 -0.008043668 -0.40389013 -0.1463229 0.07074891
-0.02592906 0.054580923 -0.007932863 0.17845999 -0.0017924495 -0.20089692 -0.11032241 -0.0033835177
-0.017570784 -0.06017948 0.37749115 -0.028285725 0.24221715 -0.13723923 0.24552023 0.006323735
-0.03133958 0.12518759 0.07238967 -0.083379485 0.1633922 -0.09909532 0.12303005 -0.008230933

bias f4 [24]
00000000: f64c 173d 8364 31bd 8cdd 2fbd b45b 07bd
00000010: 83f6 ad3c 3240 dfbd 1883 613d 6a0b d7bd
00000020: ee56 3b3d 8d67 243b 4ca2 133d 5275 85bd
00000030: 5709 92bc bf18 053d d0cf b9bd 01fd 9e3d
00000040: 73dc e2bd f19a 033d 6d5d b4bd b924 dbbd
00000050: 8278 89bd eb29 893d 3728 0dbd ca29 b7bd
0.03693863 -0.043308746 -0.042935893 -0.03304644 0.02123571 -0.10900916 0.05505666 -0.10500224
0.0457372 0.0025086135 0.03604345 -0.06516518 -0.01782672 0.032494303 -0.0907284 0.077631004
-0.110772036 0.032130186 -0.08806882 -0.10700364 -0.06712438 0.06697448 -0.03446218 -0.089435175

weight f4 [24]
00000000: 8e2c 483e 57ee 663e e9e9 6e3e ead7 8e3e
00000010: a5d5 753e 6342 653e 55f1 643e 3cae 703e
00000020: cd84 5c3e 31d7 7d3e 8a9b 763e dee5 523e
00000030: 40e3 6c3e 135f 553e c05e 463e a076 093e
00000040: 8195 8b3e 6a6b 843e e25c 293e 70c1 643e
00000050: c8cd 313e 2c43 483e 5d1c 6e3e 03ce 5e3e
0.19548246 0.22551857 0.23331417 0.27899104 0.2400728 0.22388606 0.22357686 0.23503965
0.21535034 0.2478912 0.24082771 0.205955 0.23133564 0.20837049 0.19372082 0.13424158
0.272625 0.258632 0.16539338 0.22339416 0.17363656 0.19556874 0.23253007 0.21758275

weight f4 [24, 24, 3]
00000000: 49c7 be3d 8e04 b5bd 8abc 073d 3741 02be
00000010: 693c 783e 8e6d f2bc e7f1 c73d 0471 4fbe
00000020: 0eef aebd 99e6 d63d e86a f6bd 892c 033e
00000030: 164a a2bd d57a f33d e560 b5bd 855c be3d
00000040: 776d 54be 1214 433e bc46 b83d 9f36 06bd
00000050: fd9a f73d c40d 2f3c e47a 96bd d857 3abe
00000060: 25aa 573e 7f2c f8bd a8c6 85bd d9ed 33bd
00000070: e8d4 4b3c a210 61be 1add 50be 096c 923e
00000080: 822e dcbd f4d9 0ebd 088e 27be f136 8a3e
00000090: 008d 44bd 1d64 ca3d 8537 c03d a073 bc3d
000000a0: f150 e33d 63e1 5bbe be3b 7dbd 9038 7dbd
000000b0: 169d 5b3d 2ff1 21bc 7638 85bc d121 cdbd
000000c0: 853a 41bd 4bee 93be 6f0e bcbb 29c7 78bc
000000d0: de4c 58be 734e 783d 35c4 2dbe c880 0ebe
000000e0: c6fb a13d 285c 77be 85fa 7d3d 51e8 21bd
000000f0: 83f4 68be 31e7 6dbe f4bb a5bc 20ee 9b3d
00000100: 471a 173e 35c6 73be f1e8 2abe c649 59be
00000110: eb33 f33d d18e 843d 2d84 193e e292 b3bd
00000120: 1af2 44be f199 603d 802c 66be d007 83bd
00000130: c771 99bd b9c7 b93d 056b c9bb f638 fb3d
00000140: 13e2 8c3d e3d1 643d a4b9 093d 7892 80bc
00000150: f32c c9be 1d67 a3bd aaae 83bd 9472 903d
00000160: 1fd9 9d3e 5731 a93e c5b9 90bd ddb0 8cbe
00000170: 18d3 00bc b16e 113e ef2f 01bc 92d6 5c3e
00000180: 8f1c 22bd c027 ef3d 652c 943d 6a31 20be
00000190: 82b6 5d3e 6d17 683e 79b7 99bd c898 283e
000001a0: 0c1a b83c 92f0 3cbe 9669 8abd 7b20 d4be
000001b0: b145 fbbd 81d1 323e 560a 6abe 455a d6bd
000001c0: 98cd c33c ddfd b13d 4411 423d 8ac4 023c
000001d0: d56f 6ebd 47b0 64bd 1bbd 243e aa31 553d
000001e0: 0bff b4bc aa71 23be 545e 05be 23a2 273e
000001f0: a383 a83c 126f 99be 3e81 e03c d03d 6ebd
00000200: a762 1abe 11f6 f1bd 7af8 efbd f2ee 24bc
00000210: 6556 c03d 2972 9ebc 41e5 5abe efb7 60be
00000220: 0ba7 09bc e457 373e db2b 49be 394f 0b3c
00000230: 5185 56bc 5c78 9d3e 5f0f fc3d 1460 01be
00000240: 66e4 39be d57c 27be 7559 d5bc d20c 2abe
00000250: 9086 20be 34eb b73e 1f7d 8b3d 482a 5bbc
00000260: 6523 a83d 7542 5b3e 3f9b 10be d866 893d
00000270: 0063 8bbe 75a5 c23c 8c2b 05be ef00 f0bd
00000280: 2799 bc3e 7b1a 88be ff20 36be 916f 0cbe
00000290: bef6 1e3e 9fcc 30be 2217 96be b31a 893c
000002a0: 843f 8a3d 790c 4d3e 946e 293e 891a 18be
000002b0: 2a19 18be e2fc 8dbd 21fe 2d3e d997 663c
000002c0: d50c 253e 8d77 f03d f8ea 60bd d5d2 d1bd
000002d0: d354 863c a2a8 623d f359 c53d d7ac 033e
000002e0: 2f79 903e b3c8 8b3d b4a4 19ba 0f99 833e
000002f0: fc82 3e3e b277 28be 5a5d 193e d745 eb3c
00000300: 924b 22bd 851f 89bd 721f d73d 1ce1 4b3e
00000310: f8ec 7a3d e729 213e 7087 2a3e 7aaa 2c3c
00000320: 5d4a 86bd 9302 debd 16f7 f73d 3092 22bc
00000330: 8846 9c3e 0027 8fbc 3449 ecbd 5a15 b73e
00000340: afc8 773e 90f3 39bc 3175 cabb 3332 74be
00000350: 62c6 663e ebd6 80bd c90d febd 8a35 26be
00000360: e89d cabd 9951 823e 3ea5 02be 6d61 20bd
00000370: 9bbd 503e 14fd 603e ab87 05be 7a9f a5bc
00000380: 86fc 823c bff8 1abd 72dd a73d d6a9 683e
00000390: d5f4 193e 2a8d 3e3e 8594 40bd 7fbf e0bd
000003a0: 8342 bb3d 0a8a 0cbe f656 413e 17c9 6abe
000003b0: a6bd 5a3d 8000 a2bd 3f2b 1b3e 593b 353d
000003c0: 5200 b8be 4476 48bd 1e16 5e3e cca2 bb3e
000003d0: 9b3a abbe d403 6ebd 41eb edbd e69d 19be
000003e0: 79c5 933d ccad 193e ffa3 cfbd 66ef 4cbc
000003f0: dca4 623d b1e9 a9bc a700 413d a659 cf3d
0.093153544 -0.08838759 0.03313879 -0.1272019 0.24241795 -0.029593255 0.09762936 -0.20257956
-0.0854169 0.10493202 -0.120321095 0.12809958 -0.07924287 0.11888663 -0.08856372 0.092949905
-0.20744883 0.19050625 0.089978665 -0.032766934 0.120901085 0.010684434 -0.07347658 -0.18197572
0.21060999 -0.12117862 -0.06532031 -0.043928 0.0124408975 -0.21979001 -0.20396844 0.2859805
-0.10751058 -0.034875825 -0.16362774 0.26995042 -0.04798603 0.09882376 0.093855895 0.09201741
0.11099423 -0.21472697 -0.061824553 -0.06182152 0.053616606 -0.009884163 -0.016262274 -0.100162156
-0.04717495 -0.2889274 -0.0057390253 -0.015184202 -0.21123073 0.06062169 -0.16969378 -0.13916314
0.0790935 -0.24156249 0.062006492 -0.039528195 -0.22749524 -0.23232724 -0.020231225 0.07613778
0.14756118 -0.23806079 -0.16690423 -0.21219549 0.11875137 0.064725526 0.14991827 -0.0876825
-0.1923298 0.05483431 -0.22477913 -0.063979745 -0.074924044 0.09071297 -0.006146791 0.12266724
0.06879058 0.055864226 0.033624306 -0.015694842 -0.39292106 -0.07978652 -0.06429799 0.07053104
0.30829713 0.33045456 -0.07066683 -0.27478686 -0.007862829 0.14202382 -0.007884963 0.21566227
-0.039578017 0.116775036 0.0723503 -0.1564385 0.21651652 0.22665186 -0.07505698 0.16464531
0.022473358 -0.18451145 -0.0675842 -0.4143103 -0.12269152 0.17462732 -0.22855505 -0.10466436
0.023901746 0.08690999 0.047379747 0.007981429 -0.05821212 -0.055832174 0.16087763 0.052049316
-0.02209427 -0.15961328 -0.13024265 0.16370444 0.020570582 -0.29967552 0.027405377 -0.058164418
-0.15076695 -0.118145116 -0.11717315 -0.010066735 0.093914784 -0.019341545 -0.21376516 -0.21945165
-0.008401643 0.17904621 -0.19645636 0.008502775 -0.013093309 0.3075589 0.12307619 -0.12634307
-0.18153533 -0.16356213 -0.026043633 -0.16606453 -0.15676332 0.35921633 0.06810974 -0.01337678
0.08209876 0.2141207 -0.14121722 0.06709069 -0.27223969 0.023760537 -0.13004893 -0.11718928
0.36835596 -0.26582703 -0.17786025 -0.13714434 0.15523812 -0.17265557 -0.29314524 0.016736364
0.06750396 0.20024289 0.16546088 -0.14853872 -0.1485335 -0.06932999 0.16991474 0.014074289
0.16118176 0.117415525 -0.054911584 -0.10245291 0.01639787 0.055336602 0.09636297 0.12858902
0.28217456 0.0682539 -0.00058610295 0.25702712 0.18604654 -0.1645191 0.14977017 0.028719826
-0.03962285 -0.06695465 0.105040446 0.19910091 0.061261147 0.1573864 0.16653228 0.010538692
-0.065571524 -0.10840335 0.12107675 -0.009922549 0.3052256 -0.017474651 -0.115374 0.35758477
0.24197648 -0.011349574 -0.006178521 -0.23847274 0.22536615 -0.06290992 -0.12404973 -0.16231361
-0.098933995 0.2545288 -0.12758347 -0.039155412 0.20384829 0.21971542 -0.13040034 -0.020217646
0.015989553 -0.03783488 0.08196534 0.22721037 0.15034802 0.18608537 -0.04701664 -0.10974025
0.091435455 -0.13724533 0.18880829 -0.22928272 0.05340352 -0.079102516 0.15153216 0.04424605
-0.35937744 -0.048940912 0.21688125 0.36647642 -0.3344315 -0.05810912 -0.11617137 -0.1500164
0.07215399 0.15007704 -0.10138702 -0.012508249 0.055333003 -0.020741316 0.047119763 0.10124521

bias f4 [24]
00000000: f610 ab3c e9d8 dabc bada 413d 1e96 1abc
00000010: 6181 bebc bbd3 febd aa0a 553d 6292 0fbe
00000020: 6dfe 84bd 83f7 af3d 6d8c d4bc 9677 a9bc
00000030: f58c 01be 32e8 3abd 512d 09be da3b a23d
00000040: abea aebd 959a dc3c c9e1 863d 30d6 683b
00000050: 06ae b23b a65c e3bd a785 ffbc 5f90 75bc
0.020882111 -0.026714759 0.047327735 -0.009435205 -0.023255052 -0.12442728 0.052012123 -0.14020684
-0.0649384 0.08592131 -0.025945866 -0.020686906 -0.12651427 -0.045631595 -0.13396193 0.07921572
-0.08540853 0.02692918 0.06586034 0.0035528056 0.005452874 -0.11101656 -0.03119166 -0.014988034

weight f4 [24]
00000000: 3fa4 833e 82bd 853e 9d83 663e ebe6 633e
00000010: f50a 673e f572 863e cf21 823e 1ed6 6d3d
00000020: 6265 903e dd0f 673e 518e 863e 4689 8c3e
00000030: 260f 7a3e ead8 5c3e b25b 8c3e 21cc 643e
00000040: 6d9f 853e 3edf 663e e8a2 623e e519 863e
00000050: d5eb 843e 7ca1 473e 2519 6a3e fc37 8a3e
0.25711247 0.26121145 0.22511144 0.22256057 0.22562774 0.2625958 0.2541642 0.058065526
0.2820235 0.22564645 0.26280454 0.2744848 0.24419841 0.21567121 0.27413708 0.22343494
0.26098195 0.22546098 0.22132456 0.2619163 0.25961176 0.19495195 0.22861154 0.26995838

weight f4 [24, 24, 3]
00000000: 0726 91be 43f7 bdbd 78f1 50bd 9f06 3cbe
00000010: eac5 18bd 9682 063e 7ba3 4a3c 6f74 703d
00000020: b452 8cbd 4422 39bd d6de be3d a189 cd3d
00000030: a052 da3d e8cf 60be a34b 2a3e ffe4 35be
00000040: cced e0be 75e2 7e3a ed1f 1f3e 110f 6c3e
00000050: 71fc b03d 3fd7 14bd 67a0 9cbd caa3 c9bd
00000060: f107 d53d e1b5 373d a8f7 3b3c 4630 88bd
00000070: 8193 c3bd 7cf4 7fbd dd87 a2be 80d3 613d
00000080: 052d b7bd bd70 0bbc 81e0 76be c95c dc3d
00000090: c4ef 2d3d 84c5 8fbc 4ed2 a4bd 4e86 0fbe
000000a0: fb6f 32be 5bfa 8bbe 69ba 14be 927a 733d
000000b0: e145 983d d6f5 743e edbc 39be 400b bd3d
000000c0: b7c0 1abe 980f 363c d1d1 1b3e 8c9e 783e
000000d0: ccce b33c 6ec2 073e 9e25 b03e bba3 a83e
000000e0: 80dc 0fbe b81d 01be 846a 3ebe 797c 94bd
000000f0: e3ef e4bc f5e5 dc3d c724 9dbc e022 d6bd
00000100: cdd2 29be a61b b43d 4e65 f6bd 7efb 8abe
00000110: b908 473d ed4b 21be a11a ad3e 359b ae3d
00000120: 68bb a1bb a2f2 59bd d6bf eb3c 1502 f0bd
00000130: fe3c 023e cab2 de3d b5a9 d4bd d15b 303d
00000140: 8dfa 3bbe 3590 0b3d 3b2d 60be 6eb2 f3bd
00000150: 18c7 213e 8381 333e 1419 acbe eb62 a03e
00000160: 010d 27be 7cb2 34be e845 233e c34c bebc
00000170: dae4 01be e8a0 84be f3e1 61bd 642c febd
00000180: 1309 c73c 2832 813e 544b 26bd a6f6 bbbe
00000190: e6c2 a83d 9710 03bd 0856 343e 2893 84be
000001a0: b4bc df3d 8348 04be 373b f6bd 02d7 ce3d
000001b0: fa12 bfbd a9d9 3a3e 6991 b23d 65ce 343e
000001c0: 1793 293d bc6e 803c 8365 bbbd 05ce 013e
000001d0: 4ad9 dd3d 2a88 99bd 0d98 abbe e3e8 ac3d
000001e0: 23b8 f73e 46eb 6cbe c3f7 423c 180c 1bbe
000001f0: ccc0 103d 2a9d 0d3e 2e6f 363b d233 9dbe
00000200: 25ed 11be 2ddd 483e 7de7 823c 61a0 14bd
00000210: 362c a3bd 3c3b bbbd 0ac9 573e b6ff c6bd
00000220: ac0a b23c 30a0 38be ca05 73be 738b 653d
00000230: 6fc3 aebd e340 a33d 60ed 90bd fa01 74bd
00000240: d3a1 81bc f681 693d 74fc bd3b 3782 6c3e
00000250: 3b5d 41be 9acb 3b3c 2a1a bd3d d04a 5abd
00000260: aa26 cfbd 98a1 bbbd 4655 873d 40a8 483d
00000270: 0cba 59be e14e 30be 37f2 b33d dbf7 1dbd
00000280: 0feb d5bc 60bf abbd 9705 213e ae2a 8fbe
00000290: 5e80 083d f127 a73c ca12 04be a5a6 9e3d
000002a0: 0592 c93d e382 47bd a885 0dbd 16f8 f63d
000002b0: 4c3a a3bc 313b 853e 04f2 b33d eea0 e83e
000002c0: 3092 473d 2c77 b03e df98 d13d 2343 7c3d
000002d0: 9ab8 1f3c bfa3 b43e 4356 50bd d5f7 1b3d
000002e0: 8edf 14be c1f1 c73d 71a3 5abd 5ea0 ce3d
000002f0: 0540 173e 3b56 f5bd 76a3 2ebd 2c44 56bd
00000300: 9023 81be 8171 c5bb dadb 84be 8dff 4abe
00000310: 885b dbbd f4bf b0bd 9f0c 95be 9de0 22be
00000320: 0a22 b53c 993d 003d 58e3 d9bb 2465 77bc
00000330: b4c9 0abe 41c8 98bc 0f44 063c 7a51 d53d
00000340: 6c65 de3c caa1 33be f2ca 03be 8a53 843d
00000350: 09c2 90be 2190 abbe 2d30 2e3c 139f e03c
00000360: 816e 37bd 79a4 10bd 158b 3e3e 359b 6c3c
00000370: 03ee 0e3e 36d3 0abe 770b 33bc 96ee 68bd
00000380: b6bb 4e3d 3abb 243c 3a98 0d3e a3ca 06bf
00000390: afd2 003e b549 bcbe 5956 453e fd85 1dbc
000003a0: 6c7c 3bbd eef7 2d3e 7c51 c0be 0487 7a3d
000003b0: 58dd d73c c980 f03e a310 633e a9dd c83d
000003c0: 03f3 4dbd 7027 d53c fcab 90bd a6f7 3c3e
000003d0: 436b 4c3d 552a 79be 90d6 bf3c f293 12be
000003e0: 741d 4fbd 2146 0bbe b429 6e3d 0f5d 44be
000003f0: 0970 b0bd 47ae 02be 3e6f c83d 3ad8 ba3b
-0.28349325 -0.09275677 -0.051011533 -0.18361901 -0.03729812 0.13135752 0.012368078 0.05870479
-0.06851712 -0.045198694 0.09319846 0.10036016 0.10660291 -0.2195431 0.16630416 -0.17763136
-0.43931425 0.0009723076 0.15539522 0.23052622 0.086418994 -0.036338087 -0.07647782 -0.098456934
0.10401905 0.044851188 0.01147262 -0.066498324 -0.095496185 -0.062489018 -0.3174428 0.055133343
-0.08944134 -0.008510766 -0.24109079 0.10759885 0.042464986 -0.017550237 -0.08047925 -0.14016077
-0.1742553 -0.27339444 -0.14524235 0.059443064 0.07435203 0.23921904 -0.18138476 0.092306614
-0.15112577 0.011112116 0.15216757 0.24279231 0.021949194 0.13257763 0.344037 0.32937416
-0.14048958 -0.12608993 -0.1859532 -0.07250304 -0.027946418 0.10786048 -0.019182576 -0.10455871
-0.1658432 0.08794336 -0.12031041 -0.27144998 0.048592303 -0.1575162 0.3380938 0.08525697
-0.0049356706 -0.05320991 0.028777998 -0.11719147 0.12718579 0.10873945 -0.103839315 0.043056313
-0.18357296 0.034073073 -0.21892254 -0.11899267 0.15798604 0.17529874 -0.33612883 0.31325468
-0.16313554 -0.17646211 0.15944636 -0.023229962 -0.12684956 -0.25904012 -0.055147123 -0.124108106
0.02429632 0.2523358 -0.040599182 -0.36711615 0.08240299 -0.031998243 0.17610943 -0.2589352
0.10924664 -0.12918286 -0.12023013 0.10099603 -0.09329791 0.18247093 0.08719141 0.17656858
0.04140004 0.015677802 -0.09150221 0.12676246 0.1083246 -0.07496674 -0.33514443 0.08442857
0.48382673 -0.23136625 0.011899891 -0.15141332 0.035340115 0.13829485 0.0027837264 -0.30703598
-0.1425062 0.19615622 0.015979523 -0.03628576 -0.07967417 -0.091421574 0.21072784 -0.09716742
0.021733604 -0.18029857 -0.23732677 0.056041192 -0.0853337 0.079713605 -0.07076526 -0.059572197
-0.015824234 0.057008706 0.005797917 0.23096548 -0.18883221 0.011462117 0.09233506 -0.053294003
-0.101147965 -0.09161681 0.066080615 0.04898858 -0.21262378 -0.1721759 0.08786433 -0.03856645
-0.026113061 -0.08386111 0.15724789 -0.2796225 0.033325545 0.020404788 -0.12897792 0.07746629
0.09842304 -0.048708808 -0.034551293 0.120590374 -0.019925259 0.26021722 0.08786395 0.4543528
0.0487234 0.3446592 0.10234236 0.061587464 0.009748602 0.35281178 -0.050863516 0.038078148
-0.14538404 0.09762908 -0.053378526 0.10089181 0.14770515 -0.11979338 -0.042636357 -0.052311108
-0.25222445 -0.0060254936 -0.25948983 -0.19824047 -0.107108176 -0.08630362 -0.29111192 -0.15905996
0.022110958 0.031308744 -0.006649416 -0.015099797 -0.13553506 -0.018650176 0.008194937 0.10415931
0.027147971 -0.17542186 -0.12870386 0.06461246 -0.28273037 -0.335084 0.010631603 0.027419602
-0.04478312 -0.035313103 0.18607743 0.014441301 0.13957982 -0.13557133 -0.010928026 -0.05686816
0.050471984 0.010054404 0.13827601 -0.5265295 0.1258037 -0.36774984 0.1927122 -0.009614465
-0.045772955 0.16989109 -0.37562168 0.061163917 0.026350662 0.46973255 0.22174315 0.09807903
-0.050280582 0.026019782 -0.070640534 0.18453845 0.04990698 -0.24332555 0.023417741 -0.14314249
-0.050565198 -0.13600971 0.05814524 -0.19176124 -0.08615119 -0.12761794 0.09786843 0.0057020457

bias f4 [24]
00000000: 84c2 59bd 8c13 16be edb7 25bc f576 0e3d
00000010: 24e1 88bc ff0f a13d ad0f 14bd 246a 163d
00000020: 7a65 02bd 1d6c dfbd 3525 54bd e466 ae3d
00000030: 12f4 9fbd c464 cebd 2c3e bdbd e64a a43d
00000040: 2832 d7bc 66d5 053d b057 2cbd 782e f73d
00000050: e8f7 1cbd a700 85bc f3e5 e5bd fef1 3abb
-0.05316402 -0.14655894 -0.010114652 0.034781415 -0.016708918 0.07864379 -0.036147762 0.036722317
-0.031835057 -0.10909293 -0.051793296 0.085157186 -0.078102246 -0.10077813 -0.09240374 0.08022098
-0.026269034 0.032674216 -0.042075813 0.1206941 -0.03832236 -0.016235663 -0.112255 -0.0028525586

weight f4 [24]
00000000: da30 2b3e 8add 6a3e 4a2c 633e ff26 873e
00000010: beba 603e 37e8 683e d38f 7b3e bd47 5d3e
00000020: 2e3b 843e 7297 863e 5f50 553e d101 853e
00000030: 6c75 843e b3bb 6b3e 236c 3a3e 5e6e 853e
00000040: b5f3 693e ece0 5a3e 8596 883e 7737 613e
00000050: c533 733e 502a 833e 828c 8a3e d8bb 823e
0.16717854 0.22936073 0.22184864 0.2639694 0.21946236 0.22744833 0.24566583 0.21609397
0.258264 0.2628742 0.2083144 0.25977948 0.25870836 0.2302082 0.18205313 0.26060766
0.22846873 0.21374863 0.26677337 0.21993814 0.23750217 0.2561822 0.27060324 0.25533938

weight f4 [24, 24, 3]
00000000: 1212 a3bd 04d1 25be 7c71 97bd 3f4e 1dbe
00000010: f6e2 803d 5e31 56be 5b25 513e f2b9 1d3e
00000020: dd4b c2bd 122f c2bd 358c 4b3d 3af9 29bd
00000030: 1126 b1be 188a 81be 1847 8cbd cda5 cfbb
00000040: 91f5 d1bd d674 30be 0689 763d b214 513e
00000050: f3e3 d3bd d807 89be 4af4 b53c 597d 14be
00000060: 3518 453d 5fc3 7cbd 8001 78be 026f 30be
00000070: d7f9 503e e50f 47bd 78fb 73be 0571 06bd
00000080: cc73 7ebe dadd 19be a608 413e 8d16 023e
00000090: 56c1 353e f33c a33e 3399 bbbb 477a e5bc
000000a0: 42c6 0bbd ec29 2bbe 4730 fd3c a9d2 faba
000000b0: 26e1 7c3e e607 76be 1234 8b3c a67b 193d
000000c0: d8d8 5a3e d9b6 a7bd 3d6f 7dbe 66ed 39be
000000d0: ca22 403d f300 623e 47fa e73d dff5 993e
000000e0: fb93 ec3e c6b1 83bc 2d0e 94bd 99a6 14be
000000f0: 4102 2f3d d574 c8be 6a2d 833c 5276 81bd
00000100: d8b1 0fbe 2f23 4bbd aa36 093e 8d17 063e
00000110: 290d f73c 6717 983e ac1e acbd d111 83bd
00000120: c028 90be 51db 89be 3b2f b7bc f7e6 e13d
00000130: 0ae2 67bd d4b8 103e b53d f93e 79ad 3bbd
00000140: 616a 033e 2908 a1bd 5fa0 babe c4e3 52bc
00000150: 03c0 903d ef50 a9ba e5fa de3d 7f14 2cbe
00000160: 79bb 6bbd 3252 35bc 2781 3abe 6ee2 20be
00000170: 4ade 783d 5dd8 29be 5ebd 1f3e 646e 493e
00000180: 8a7c 5a3e 0a4c 11be b161 e03c b6aa 463d
00000190: 5f95 9e3e b9dd d6bd bd7c 8fbd b3dd eabd
000001a0: 17a2 833e 00ef 19be 1a07 ec3c d1bd 6ebe
000001b0: 4af0 85bc fde6 c93c b3aa ffbd d2b2 0bbe
000001c0: 11ec b13e fa20 d63d a389 3d3c bb15 3ebe
000001d0: 1e4f 48bd 7651 263e a114 a93c ff17 b9bd
000001e0: c79c 533e cf1f b5be 0acb 32bd 29a2 163d
000001f0: 1df5 9cbd cbbb 3bbd fe0d bd3d a6fd 1abe
00000200: 7cc1 2c3e ade5 14bf 6f31 babd c150 2fbe
00000210: 6979 2cbd a713 0dbe 3c6f 91bd 92e4 84be
00000220: a2a5 f43d 0dc5 e4bd c32d 47bc 4160 ecbc
00000230: 74de 043e 528a 783e bc9c 2a3b 0a2b 1dbe
00000240: 47c5 8dbe 1929 373d 2040 a5bd 5668 90be
00000250: e6aa f53e e2b6 f0bd e0bf e1bc 4177 d23e
00000260: 3724 baba 29b3 d03d 0a20 1dbe 8ff8 50be
00000270: a891 0f3e 6c8a 823d bed0 d5bd 94a3 1d3d
00000280: 42b2 2dbd 5984 aebd 22ff c83b 1180 6ebb
00000290: 0482 b93d 5e60 6b3d 1d47 343e 9b69 0dbd
000002a0: 257e ee3d e775 0d3e f033 e0bd b02c 0bbe
000002b0: 573b b2bd 097b 693d ebc4 9b3e 7573 dbbd
000002c0: 79d2 9bbe 174b f1bd 7731 343e 0079 8dbe
000002d0: b274 06be fce9 3b3e 5305 b83d 557e 02ba
000002e0: 91a5 92bc 8a06 0abe 04c4 91be 12da 23be
000002f0: 4552 053d 319b b8bc 39cc d73d 4ac4 04bd
00000300: 21ea 86be 4d06 e9bc f189 b33d 8649 87bd
00000310: 8823 10be f85c cfbd 7c98 89bd def9 633e
00000320: de84 f3bd 4fac c03b 5c93 ddbc 0132 763e
00000330: 75db 5b3e 7854 223d 2702 223e 6c5d 74be
00000340: 4976 9cbe 2800 b23b ee3c c8bd 27f8 7abc
00000350: 1827 123e 3ebc e5bd 7860 14be 02be 5fbc
00000360: a991 fc3c 20eb 11bd d318 fdbd 4d25 be3d
00000370: 5975 a33e 9729 0fbe 440a acbd cd33 1ebe
00000380: e4fc b73d 2c0c 1e3e a2cb 8fbe bb0c 603d
00000390: cf0f dabd 6b10 8d3d 79dc 5a3d 517c 023e
000003a0: 42e2 f53d 7f02 24bd dc25 ce3d 8a6c 033d
000003b0: bc60 da3d 0903 9b3d 447e 303e 20a9 88be
000003c0: d33e 0f3e 8c8f f13d 83f2 a03c 1980 5e3e
000003d0: b838 c43d 17f6 28be 84bc 8fbd d99e 5fbc
000003e0: 7d27 1dbe de77 df3d 83f6 92be dff5 d0bc
000003f0: 9920 cb3d 5794 483e d6dd 633d f3f7 ce3c
-0.07962431 -0.16193014 -0.07394692 -0.1536188 0.06293289 -0.2091727 0.20424406 0.15402964
-0.09487126 -0.09481634 0.04969426 -0.041497447 -0.34599355 -0.2530067 -0.068494976 -0.0063369037
-0.10251916 -0.1723207 0.06018927 0.20418051 -0.10346212 -0.26763797 0.022211213 -0.14500941
0.04811879 -0.061709758 -0.24219322 -0.17229846 0.20407806 -0.048599143 -0.23826396 -0.032822628
-0.2484886 -0.15026036 0.18850955 0.12703915 0.17749533 0.31882438 -0.00572505 -0.028012408
-0.03412462 -0.1671521 0.03090681 -0.0019136268 0.24695262 -0.2402645 0.016992602 0.037471436
0.21371782 -0.08189172 -0.24749465 -0.18156967 0.046908177 0.22070675 0.113270335 0.30070397
0.4620665 -0.01607598 -0.07229266 -0.14516677 0.04272676 -0.39151636 0.016012866 -0.06321396
-0.14032686 -0.0495941 0.13399759 0.13094921 0.030157642 0.29705355 -0.08404288 -0.063998826
-0.2815609 -0.26925138 -0.022361388 0.11030381 -0.056612052 0.14133006 0.4867989 -0.045819733
0.12833549 -0.078628846 -0.36450478 -0.012871686 0.07067873 -0.0012917797 0.10887698 -0.16804694
-0.057551835 -0.01106696 -0.1821333 -0.15711376 0.060758866 -0.16586442 0.15599582 0.19671017
0.2133657 -0.14189163 0.027390333 0.048502646 0.30973336 -0.10491509 -0.07006214 -0.11468067
0.25709602 -0.15032578 0.02881198 -0.23314597 -0.01634993 0.024646277 -0.1248373 -0.13642433
0.34750417 0.104555085 0.01156846 -0.18562977 -0.048903577 0.16242012 0.02063972 -0.0903778
0.20665275 -0.3537583 -0.043650664 0.03677574 -0.07663939 -0.04583339 0.092311844 -0.15135822
0.16870683 -0.5816296 -0.0909146 -0.17120649 -0.042107973 -0.13777028 -0.071012944 -0.25955635
0.119456545 -0.11170397 -0.012156907 -0.028854491 0.12975484 0.24271515 0.0026033362 -0.1534845
-0.27689573 0.04471693 -0.080688715 -0.28204602 0.47981948 -0.11753632 -0.027557313 0.4110661
-0.0014201467 0.10190422 -0.15344253 -0.20407318 0.14020407 0.06374058 -0.10440205 0.03848608
-0.042406328 -0.08521337 0.00613393 -0.0036392251 0.09058002 0.05746495 0.17605253 -0.03452454
0.11645154 0.13814507 -0.10947406 -0.13591266 -0.087027244 0.0570021 0.30423674 -0.10715381
-0.30434015 -0.117819004 0.17596994 -0.27631378 -0.13130453 0.18350977 0.089853905 -0.00049779314
-0.017901214 -0.13479057 -0.2846986 -0.16001156 0.03254916 -0.022534939 0.10536999 -0.03241376
-0.263505 -0.028445387 0.087665446 -0.0660582 -0.14076054 -0.10125154 -0.06718537 0.22263286
-0.11890577 0.005879916 -0.027047805 0.24042512 0.21470435 0.039631337 0.15821134 -0.23863763
-0.30558994 0.0054321475 -0.097772464 -0.015317953 0.14272726 -0.11217545 -0.14489925 -0.013656141
0.030831175 -0.035624623 -0.123582505 0.09284458 0.31925467 -0.13980709 -0.084003955 -0.15449448
0.08983782 0.1543433 -0.28085047 0.05469964 -0.106475465 0.06887897 0.053432915 0.12742735
0.12006046 -0.040041443 0.10065815 0.032085933 0.10662982 0.07568938 0.17235667 -0.26691532
0.1398881 0.117949575 0.019646889 0.21728553 0.09581131 -0.16500126 -0.070183784 -0.013648712
-0.15347095 0.10911535 -0.287037 -0.025507865 0.09918327 0.19587837 0.05563148 0.025264716

bias f4 [24]
00000000: 8e88 06be 7a94 c4bd 6a5d 01bd 74cd 0bbe
00000010: 6417 af3c fe4d a03c d0ca cdbd b81e 9f3b
00000020: 6812 7c3c 31ea c4bd 9cfb 4abb fb0c cf3d
00000030: c116 0ebc 4b41 543d f1d9 c2bc ce14 b6bd
00000040: 8afa 203d 110b b1bd 03b6 8c3d 26a0 d6bd
00000050: 3068 af3c f920 d83d e14a c3bd dc5f 4abc
-0.13138029 -0.09598632 -0.031583227 -0.13652593 0.021373458 0.01956844 -0.10048449 0.004855957
0.015385248 -0.09614981 -0.0030972725 0.10109898 -0.008672417 0.05182008 -0.023785563 -0.08890687
0.039301433 -0.08644689 0.068706535 -0.10479765 0.021411985 0.10553164 -0.095357664 -0.012351956

weight f4 [24]
00000000: dea3 883e ac75 913e 85b7 6e3e d59c 683e
00000010: fd69 7a3e baa7 673e 6e07 813e 80fd 8a3e
00000020: 99ac 643e a8cb c73d 0c27 6c3e e49b 653e
00000030: a0f4 663e 8180 633e 48fd 6e3e 9ed1 873e
00000040: cee6 883e 34cc 6c3e 7ba3 5c3e 4166 a83d
00000050: e048 823e 9ef7 6b3e 3371 5a3e 4f07 703e
0.2668752 0.2841009 0.23312195 0.22716077 0.24454494 0.22622576 0.2520098 0.2714653
0.22331466 0.09755641 0.2306177 0.22422749 0.22554255 0.22216989 0.23338807 0.26527113
0.2673859 0.23124772 0.21546738 0.082226284 0.25446224 0.23043677 0.21332245 0.23440288

weight f4 [24, 24, 3]
00000000: ff76 d23d b608 243c 7881 44bc fade 8bbc
00000010: 8750 c8bc ca96 293e eedc cdbe b4c4 573e
00000020: 8a5f 5dbc c1f3 893d 4b77 ce3d 5f80 12bc
00000030: f857 72bc e296 0cbc fe49 0cbe 051a 8cbd
00000040: 16b9 9cbc ee11 1d3c e6bc a83e 711b 4e3e
00000050: 37bb e73b 986b 08be 2043 043e 80c9 693e
00000060: 04ed 7fbe 05ff 21be 4473 993c 561c 4abd
00000070: 766f 2ebe 31c3 4b3e b760 cf3d 756b 64bd
00000080: 0c7f c93d 80c3 86be 4ae3 a1bd 0132 be3d
00000090: 0f54 27be b881 20be 2338 003d 5078 833d
000000a0: 78f6 1ebe 5924 42be 8e58 f0bd 92f4 b33d
000000b0: 81ed aabd 2159 bcbc 1b0b 803d e768 5abe
000000c0: b8ab c83d 8bee 34be 7a12 a2bd 362a 3e3e
000000d0: 0e1f 5bbd aa76 3cbd a51d e3bd 5976 05be
000000e0: e2d2 0c3d bdb7 bd3e a7d0 27be 9841 9fbd
000000f0: 760c f8bc e9a6 b13e 44d6 d4bd 4370 82be
00000100: 22bb 19be 20f1 85bd 70c5 a33d bfc8 fe3d
00000110: 66fc 423d aaf0 81bd 62e1 44bd eba0 ad3c
00000120: 6706 9cbe 7418 2b3e b70e b7bd 339f 96bd
00000130: 4db8 003e 2c18 a93d 58ee b3be e1b9 583e
00000140: ca22 b5bd 2771 91bd ecfc ae3b 52d6 323d
00000150: fc01 e6bd 6ff8 59be 85d4 2fbe c1f8 473e
00000160: 53a7 73be 86f2 af3d f9d9 35be 5c80 97be
00000170: 7488 97bd eb80 0b3e b18f 83bd d08a 043e
00000180: ad38 50bd fd19 fd3d 7e24 b4be 9c66 07be
00000190: efa1 32bd 4349 8a3d c093 0dbe f6bc 00bf
000001a0: dd4e 993e 2150 edbd 97f2 98be ad69 ecbc
000001b0: 84e1 f3be 0f0a 00bd 10c3 e7bd 1404 223e
000001c0: 8514 68be d2b6 cd3d 9e5b afbd 7267 163e
000001d0: 5abb bb3d 7a5e a5bd f981 3c3d e66e 403d
000001e0: 041b 993d 95dd b5bd 84b8 393e c916 693d
000001f0: da79 b33e 735b 2abd be01 48bd 42fd d33d
00000200: c42f 6bbd 7e3c 6fbc 146f 21be ccd6 73bd
00000210: fbdb 7f3d 65a4 85be 381b cd3d 521b 6dbd
00000220: 1ef8 063d 08a0 af3d aa44 40be 6942 69be
00000230: c064 18bd d6ab 90bd 1c5c a8bd 14c5 fc3d
00000240: 373d 163e 3dd4 53be f2b3 153e cc84 6f3e
00000250: 419b 93bd a5ae 52bb 5fc6 323c e9fd ffbd
00000260: e057 903e 517f 723e 4537 4e3e 9a8e bdbe
00000270: 008f 7f3d 9a14 b0bd 929d ccbc 8ad0 d83d
00000280: 0e80 053e b166 093e 473d 8fbd e48e d7bd
00000290: 8a5d 6d3e b5fa a43e de2b 263c 97eb 7d3e
000002a0: 81d3 f33d eb8d 4fbe 2e1a 21bd 235b 7439
000002b0: 2e4d 953d 1a39 6f3c 7076 6abe 04aa b4bd
000002c0: c2bf cebd 56e9 cabe d7f7 933d e081 983d
000002d0: da56 b1bc a2cd 613d 6c75 4d3e 2c71 34be
000002e0: 4594 573e eecc 1a3e ad48 83be 2945 633d
000002f0: 0238 8f3e 0a33 ddbd 5d42 29bd 21db 07be
00000300: 0d6c 543e 2b42 67be 5fbe f23d f1bc d33e
00000310: f797 493c 853f 7bbe 213d 703e f6b6 bd3d
00000320: 144b 68bd 892a 9dbd 7719 b9be b075 70bc
00000330: 6b50 4e3d 6dd4 bcbc 9976 8ebe e078 3e3e
00000340: 5b06 17be 4130 35bd 5d7d acbe 3ca0 df3d
00000350: a309 a13d 825f eabd a774 42be 537a 3e3d
00000360: f31c d1bd eb8a 133e a94e 9bbe 0869 edbd
00000370: 3e50 0f3d 6efd 913d 7c48 9a3d d618 403e
00000380: 09bf d7bd 4009 003d 9495 6fbd f40f 883c
00000390: 88da bc3c 5018 ddbd be16 6bbe f437 303e
000003a0: b607 c03d 661e 73be 5ac6 c2bd 6453 1bbe
000003b0: 839b d1be e71a 203e 9d60 003e dae8 51bd
000003c0: b904 ecbc dc8a 18bc 5858 ce3c 3e5f 033e
000003d0: 6f26 f43d 2f6a 5bbe 060c 62be b9ce 383e
000003e0: f4e5 f5bd b713 85be e22e bdbd 44de 73bd
000003f0: aa36 e6bd 9f0c 02be eefc 4c3e 9a14 923d
0.10276603 0.0100118425 -0.011993758 -0.017074097 -0.02445246 0.16561428 -0.40207618 0.2107113
-0.013511548 0.067359455 0.10081347 -0.008941739 -0.014791481 -0.008580895 -0.13700101 -0.068409
-0.019131225 0.009586794 0.32956618 0.20127656 0.0070718783 -0.13322294 0.12916231 0.22830772
-0.24992758 -0.15819938 0.01873172 -0.04934343 -0.17034706 0.19898678 0.10125869 -0.05576654
0.098386854 -0.2632103 -0.0790468 0.09286881 -0.1634066 -0.15674484 0.031303536 0.06419432
-0.15523708 -0.18959178 -0.117356405 0.087868825 -0.083460815 -0.022991719 0.06252118 -0.2132908
0.09798378 -0.17669122 -0.079136804 0.1857079 -0.053496413 -0.046011604 -0.110896386 -0.13033427
0.0343808 0.37054244 -0.16388188 -0.07776183 -0.03027938 0.34697655 -0.103924304 -0.25476274
-0.15012792 -0.065401316 0.079966426 0.12440633 0.047603987 -0.06344731 -0.048066504 0.021194896
-0.30473635 0.16708547 -0.089383535 -0.073545836 0.12570305 0.082565635 -0.3514278 0.21164657
-0.08844526 -0.0710166 0.005340209 0.043661423 -0.11230847 -0.21286176 -0.17170914 0.19528486
-0.23794298 0.085911795 -0.17758931 -0.29590118 -0.07399073 0.13623397 -0.06423891 0.12943578
-0.0508353 0.123584725 -0.3518409 -0.13222736 -0.043611463 0.06752255 -0.13825893 -0.5028833
0.2994298 -0.11587549 -0.2987258 -0.028858984 -0.47632992 -0.031259593 -0.11316502 0.15821868
-0.22664078 0.10044636 -0.085623965 0.14687899 0.09166594 -0.080746606 0.04602239 0.04698076
0.07475856 -0.08880154 0.18136793 0.056906495 0.35053903 -0.04159112 -0.048829786 0.103510395
-0.0574186 -0.014601825 -0.15765029 -0.05953102 0.06246565 -0.26101986 0.10014957 -0.057887383
0.032951467 0.085754454 -0.18776193 -0.2277924 -0.037205458 -0.07064025 -0.082206935 0.12342277
0.14671789 -0.20686431 0.14619425 0.23390502 -0.07207347 -0.0032147553 0.010911553 -0.124996014
0.28192043 0.2368138 0.20138271 -0.3702286 0.062392235 -0.085976794 -0.02497748 0.10586651
0.1303713 0.1341808 -0.069941096 -0.10525301 0.23180214 0.32222524 0.010142295 0.24796902
0.119055755 -0.20268981 -0.039331608 0.00023303604 0.072901115 0.014601016 -0.22896743 -0.088214904
-0.10095169 -0.39631146 0.07225006 0.07446647 -0.02164786 0.055127747 0.20064324 -0.17621297
0.21052654 0.15117237 -0.25641385 0.05548588 0.27972418 -0.108007506 -0.041323055 -0.13267185
0.20744343 -0.22583835 0.11852717 0.41355088 0.012304298 -0.2453595 0.23460819 0.09263413
-0.056712225 -0.076741286 -0.3615224 -0.014676496 0.05036966 -0.023050511 -0.27824858 0.18600798
-0.14748518 -0.04423547 -0.33689395 0.10919234 0.07863166 -0.11443998 -0.18989812 0.046503376
-0.102106 0.14408462 -0.3033345 -0.11592299 0.034988634 0.07128416 0.075333565 0.18759474
-0.10534484 0.03125882 -0.05849226 0.01660917 0.023053423 -0.10795653 -0.22957894 0.17208844
0.09376471 -0.23742065 -0.09510489 -0.1516853 -0.4093896 0.15635262 0.12536855 -0.051247455
-0.028810846 -0.00931045 0.02518861 0.12829301 0.11921393 -0.21427225 -0.22074899 0.18047608
-0.12006751 -0.25991604 -0.09237458 -0.05953814 -0.11240895 -0.12700127 0.2001836 0.07132836
