models/teste_mt_3-4.pth (torch_old, 349964 bytes, 131 tensors)

weight f4 [24, 22, 1]
-0.4275626 0.07834822 -0.35252732 -0.6216853 -0.13118605 -0.19097625 0.03945828 -0.22494054
-0.06412104 0.544959 -0.36916006 0.13394359 -0.45203567 -0.20924275 0.040205307 0.25476074
0.4008431 -0.15143019 0.36078516 -0.23573098 0.31446514 -0.37187964 0.42169082 0.09580265
0.20296036 -0.02728061 0.47561324 -0.16140701 0.09242845 0.3421667 -0.21025206 0.40085015
-0.39655027 0.30965984 -0.16053729 -0.6102837 0.39616218 -0.13526654 0.16581492 -0.14818448
0.5236596 0.06645422 0.30878362 0.00025009006 0.21258509 -0.09763844 -0.065254614 0.11945882
-0.13689645 -0.2503724 -0.5550214 0.08737512 0.051512122 -0.27649364 -0.26692683 -0.019305574
0.06364943 0.105005674 -0.16364305 0.29461068 0.6542528 -0.5104187 0.11967574 -0.13144828
-0.41495967 -0.1762529 0.25307804 0.021033717 -0.20487511 -0.4231037 -0.11953007 0.18486363
-0.12908506 0.24466385 -0.40649712 0.10993994 0.1796266 0.4066697 -0.12924224 0.17468831
-0.42957428 -0.20301402 -0.33706868 -0.4387198 -0.4551159 -0.9332976 0.045738213 -0.45674658
-0.45111138 -0.19809757 -0.49408635 0.09084705 -0.06055773 -0.22344919 0.56742936 -0.09241757
-0.38674274 -0.048133794 0.3275373 -0.36254194 0.23625699 0.09051246 -0.16643703 -0.27330542
0.3859271 0.42792386 0.47023502 0.19609429 -0.36052802 0.23868662 0.054813623 -0.42515016
-0.08553857 -0.010197019 0.23830141 -0.27725083 -0.18752137 -0.1718064 -0.122364394 -0.5387405
0.32257715 0.13793412 -0.027395276 0.03759369 -0.13590959 0.022390591 0.019023905 0.0930963
0.058422334 0.34885728 -0.21512106 0.6410615 -0.5908134 -0.05682976 -0.1046241 0.21474344
0.054403286 -0.015080073 0.32579738 0.24361597 0.16106819 -0.14324261 0.10496283 0.28938746
0.3362803 0.14479628 0.08654512 0.34951273 0.025240982 -0.07252085 0.269512 -0.32705048
-0.012141945 0.2774269 0.032849196 -0.21206838 0.18976286 0.3217401 0.2107139 0.17078507
0.21928008 0.32230946 -0.23628376 -0.37568095 -0.057589017 -0.0712095 -0.32679307 -0.023704654
0.318726 -0.11761498 -0.16399999 0.3032841 -0.3806423 0.17574003 0.3102594 -0.21972977
-0.012079152 -0.29620573 0.2790142 -0.51855224 -0.0032143116 0.44651982 0.028742097 0.22370714
0.10076037 0.36053088 -0.36790776 0.3966437 -0.5383519 0.061514348 0.04795362 -0.078099705
0.019691942 -0.22344919 0.29483834 0.2341871 -0.06319591 -0.41144347 -0.022641076 -0.5456108
-0.2528968 0.6252199 0.47666463 -0.5511754 -0.29085726 0.005477695 0.03218652 -0.21895787
-0.38796315 -0.26931527 0.44531795 0.11334664 -0.18328105 -0.58474684 0.22793676 -0.32111353
0.046523858 0.090589866 -0.11897511 0.17404597 0.55331784 -0.07436216 0.00761474 -0.08025316
0.40876466 -0.017823258 -0.008875242 -0.29542708 0.094409846 0.31652203 -0.06465266 -0.37919304
-0.3674841 -0.17195556 -0.5219639 0.029255494 -0.86328065 0.52684665 0.26743966 -0.7584646
-0.07709364 0.21206756 -0.00068790873 -0.10846447 0.26620424 -0.6863606 -0.4648365 0.34716922
0.021135246 0.047577113 0.17461984 -0.09659132 0.06296544 -0.6451712 -0.24213476 0.04129995
00000000: 7ce9 dabe 0875 a03d 767e b4be c526 1fbf
00000010: a355 06be 478f 43be 019f 213d d056 66be
00000020: e451 83bd 6f82 0b3f 8c02 bdbe 8228 093e
00000030: 3871 e7be bb43 56be 52ae 243d 0070 823e
00000040: 4f3b cd3e 8410 1bbe d5b8 b83e 7663 71be
00000050: 9301 a13e 0267 bebe dce7 d73e 2e34 c43d
00000060: d7d4 4f3e 967b dfbc 9483 f33e e147 25be
00000070: 214b bd3d 7930 af3e 514c 57be 3b3c cd3e
00000080: a308 cbbe bc8b 9e3e e363 24be 8d3b 1cbf
00000090: c5d5 ca3e 5083 0abe 63cb 293e acbd 17be
000000a0: 8e0e 063f 2619 883d e318 9e3e 851e 8339
000000b0: e8af 593e aaf6 c7bd 36a4 85bd d3a6 f43d
000000c0: 952e 0cbe d030 80be e215 0ebf baf1 b23d
000000d0: 60fe 523d 9390 8dbe a2aa 88be b926 9ebc
000000e0: a25a 823d 370d d73d 0b92 27be 36d7 963e
000000f0: 1d7d 273f cdaa 02bf 8e18 f53d 619a 06be
00000100: 9875 d4be a47b 34be 7293 813e e74e ac3c
00000110: c8ca 51be 0ca1 d8be 2ecc f4bd e44c 3d3e
00000120: e02e 04be 2989 7a3e 6420 d0be 3128 e13d
00000130: 09f0 373e 0337 d03e 1458 04be 7ee1 323e
00000140: 29f1 dbbe e8e2 4fbe 4494 acbe e29f e0be
00000150: f404 e9be 97ec 6ebf fe57 3b3d b0da e9be
00000160: 12f8 e6be 17da 4abe e3f8 fcbe 050e ba3d
00000170: 620b 78bd ddcf 64be 0d43 113f 6c45 bdbd
00000180: 2503 c6be f127 45bd f8b2 a73e 199f b9be
00000190: 5aed 713e 995e b93d 786e 2abe b0ee 8bbe
000001a0: 3d98 c53e d618 db3e a5c2 f03e f1cc 483e
000001b0: 2197 b8be 446a 743e 4084 603d 48ad d9be
000001c0: d92e afbd 6611 27bc 4905 743e d2f3 8dbe
000001d0: 9a05 40be 04ee 2fbe 2f9a fabd e6ea 09bf
000001e0: d528 a53e 9a3e 0d3e 0f6c e0bc d7fb 193d
000001f0: e22b 0bbe 796c b73c 05d8 9b3c 46a9 be3d
00000200: 424c 6f3d 6c9d b23e b248 5cbe 9b1c 243f
00000210: 8c3f 17bf 53c6 68bd 2945 d6bd b4e5 5b3e
00000220: fbd5 5e3d 6912 77bc eace a63e 7776 793e
00000230: 0fef 243e 31ae 12be c1f6 d63d 982a 943e
00000240: ee2c ac3e 7a45 143e 913e b13d 55f3 b23e
00000250: 2dc6 ce3c d085 94bd 7afd 893e 2973 a7be
00000260: 02ef 46bc e60a 8e3e e18c 063d 7428 59be
00000270: 3251 423e 1ebb a43e 62c5 573e 48e2 2e3e
00000280: f58a 603e bf05 a53e 5ff4 71be 4159 c0be
00000290: 76e2 6bbd 49d6 91bd 6c51 a7be 4330 c2bc
000002a0: 0e30 a33e 1fe0 f0bd 9def 27be 0e48 9b3e
000002b0: 8ce3 c2be 32f5 333e 52da 9e3e d700 61be
000002c0: a3e7 45bc 47a8 97be f3da 8e3e d7bf 04bf
000002d0: 33a7 52bb 3f9e e43e 8c74 eb3c 7c13 653e
000002e0: 745b ce3d 8197 b83e 685e bcbe e214 cb3e
000002f0: 6ed1 09bf 78f6 7b3d 046b 443d bdf2 9fbd
00000300: ff50 a13c ddcf 64be 0df5 963e bece 6f3e
00000310: db6c 81bd b8a8 d2be c779 b9bc 26ad 0bbf
00000320: b07b 81be 690e 203f 630d f43e d519 0dbf
00000330: 3eeb 94be 3c7e b33b 03d6 033d 7e36 60be
00000340: 1ba3 c6be b1e3 89be b700 e43e 4822 e83d
00000350: 07ae 3bbe f8b1 15bf 4168 693e fe68 a4be
00000360: cd8f 3e3d 2e87 b93d 39a9 f3bd 1b39 323e
00000370: 3da6 0d3f 304b 98bd 1285 f93b c55b a4bd
00000380: 9a49 d13e 1502 92bc 7769 11bc 3842 97be
00000390: f359 c13d 2d0f a23e 9d68 84bd 9725 c2be
000003a0: e026 bcbe 1e15 30be 6d9f 05bf 38a9 ef3c
000003b0: f6ff 5cbf 6cdf 063f daed 883e bc2a 42bf
000003c0: 45e3 9dbd 3d28 593e c654 34ba 9f22 debd
000003d0: ec4b 883e 54b5 2fbf 0dff edbe 2ac0 b13e
000003e0: d323 ad3c 38e0 423d 8bcf 323e acd1 c5bd
000003f0: 06f4 803d f129 25bf 2df2 77be 232a 293d

weight f4 [24]
0.2456027 0.22978641 0.23081541 0.23223072 0.216429 0.23537557 0.20708553 0.25974548
0.24730302 0.27770603 0.25347033 0.26542345 0.25661004 0.22347268 0.26859903 0.2670321
0.25065708 0.22008461 0.22116743 0.22268246 0.25240198 0.25229132 0.23213516 0.21933696
00000000: 467f 7b3e 214d 6b3e e05a 6c3e e4cd 6d3e
00000010: 909f 5d3e 4b06 713e 3b0e 543e 5cfd 843e
00000020: 013d 7d3e 7c2f 8e3e ddc6 813e 95e5 873e
00000030: 6462 833e 06d6 643e d085 893e 6eb8 883e
00000040: 2056 803e dc5d 613e b779 623e df06 643e
00000050: d53a 813e 542c 813e d7b4 6d3e de99 603e

weight f4 [24, 24, 3]
-0.027564416 0.12432315 0.10134635 0.44499484 0.09939954 -0.19814585 0.17902197 -0.033673264
-0.01924664 0.1665038 0.2884582 0.165483 0.06881642 -0.14032082 -0.057368398 0.21864928
-0.15702975 0.034381054 0.08374495 0.17468674 0.191501 -0.073112816 -0.09641502 0.11332582
-0.23519632 0.029775403 0.010337667 0.034473557 0.009240746 -0.1450473 0.102234125 -0.26637545
-0.059513625 -0.06828431 0.06301528 -0.07422836 -0.24203551 -0.09814557 -0.09204445 -0.014901451
-0.084244385 -0.06309845 0.11304194 -0.070813246 0.13263795 -0.39983347 -0.01486395 0.13417627
-0.13822806 0.06903034 0.12733124 -0.099521756 0.098435186 0.048749555 -0.17709546 0.10048244
0.10389155 0.15591617 0.00047769473 0.018543681 0.0031807574 -0.36945775 0.08713699 -0.28289688
-0.08014572 -0.23830292 0.1295458 -0.21404661 0.1694528 -0.19712293 0.1562556 0.036262713
0.15385987 0.18201959 0.1470696 0.024777226 -0.4402167 -0.12825322 0.13302162 -0.18728031
0.16499862 0.075092904 0.27316514 -0.104679406 0.0005893856 0.10137749 -0.23387195 0.08818537
-0.06112698 0.13063769 -0.13692163 0.21235326 -0.22928655 0.08376919 0.11461108 0.16436276
-0.023800494 -0.29988357 -0.00907841 -0.09283896 0.060271353 -0.20527962 -0.08044029 0.055161893
-0.12432057 -0.05718972 -0.29166654 0.08688315 0.17441523 0.124725446 -0.098652735 -0.003437795
0.09739622 -0.25944695 0.1755961 0.13426432 -0.12941016 -0.11480063 -0.2029114 0.10609016
0.15435663 -0.12521815 -0.04446595 -0.037408233 -0.10841284 -0.0675772 -0.004890079 -0.48474845
-0.020057324 0.1318653 -0.036402848 -0.019195026 -0.51271796 0.0742455 -0.07793784 0.13167974
-0.21524587 0.17636777 -0.0154085085 0.2616632 0.502739 0.26102507 0.026293365 0.113922
0.4061494 -0.14725809 -0.3068185 0.026344106 -0.09963216 -0.038709972 0.1375522 0.16181917
-0.07930009 0.07467985 0.31667164 -0.33065793 -0.010546466 -0.06458941 0.032467324 -0.1464073
-0.09683002 -0.079590864 -0.17533518 -0.33134878 0.036034483 0.048814815 0.17819674 -0.13232309
-0.032029822 0.16577107 0.25980294 -0.12775785 -0.023434035 -0.18461965 0.10801957 -0.080470085
-0.22357811 -0.29945087 0.11255783 -0.3612494 0.01612401 -0.00833773 0.24682833 0.22808975
-0.05887753 0.058336057 0.07106289 -0.15457979 -0.020431926 0.09032302 -0.00083985005 0.13261636
-0.12921646 0.2923702 -0.16998862 0.073761255 0.03230999 0.12282755 -0.00052291836 0.05931446
0.14429823 -0.16746789 -0.09734561 0.14916465 0.10621907 0.023540016 0.1506019 -0.053222265
-0.25650063 0.4068141 0.2293963 0.056852672 0.28719386 -0.28849405 0.2938788 0.23310976
-0.031090712 0.08753703 0.16351198 -0.017874612 -0.22023012 -0.04667992 -0.008572435 0.017613553
-0.11473587 0.33077517 0.3063916 0.12715687 0.06401868 -0.14688177 0.24892537 -0.20854363
0.062718324 0.1664374 -0.11283605 -0.1783681 0.031885773 0.15793537 0.3044027 0.050528355
0.15896674 0.0069390587 -0.13043694 0.09296069 -0.022196801 0.16433159 0.18925047 0.06970153
0.25704315 -0.25036526 -0.2402178 -0.14641508 0.45459017 0.013701343 -0.14909662 -0.2447097
00000000: c5ce e1bc 239d fe3d ad8e cf3d 5dd6 e33e
00000010: fc91 cb3d bfe6 4abe 8951 373e faec 09bd
00000020: 21ab 9dbc f97f 2a3e cbb0 933e 6074 293e
00000030: a0ef 8c3d 43b0 0fbe 20fb 6abd 99e5 5f3e
00000040: 68cc 20be 26d3 0c3d 7982 ab3d 15e1 323e
00000050: d718 443e 2cbc 95bd 3d75 c5bd 5e17 e83d
00000060: 4ed7 70be 8ceb f33c 515f 293c 2534 0d3d
00000070: 7f66 173c 4887 14be 2060 d13d 5d62 88be
00000080: 8fc4 73bd a5d8 8bbd 280e 813d 0a05 98bd
00000090: 28d8 77be 8b00 c9bd cd81 bcbd 3725 74bc
000000a0: 5288 acbd c339 81bd 8882 e73d 8906 91bd
000000b0: 3ed2 073e f9b6 ccbe ed87 73bc 8165 093e
000000c0: a88b 0dbe c75f 8d3d 1f63 023e 10d2 cbbd
000000d0: 6398 c93d 9dad 473d 8358 35be bdc9 cd3d
000000e0: 18c5 d43d 7da8 1f3e 1a73 fa39 ebe8 973c
000000f0: 4174 503b 9129 bdbe e174 b23d dcd7 90be
00000100: 7023 a4bd ae05 74be a7a7 043e 092f 5bbe
00000110: 0985 2d3e 98da 49be 7801 203e 3688 143d
00000120: 718d 1d3e 5863 3a3e 6a99 163e 9cf9 ca3c
00000130: 1564 e1be d054 03be d236 083e 69c6 3fbe
00000140: 66f5 283e 4fca 993d 4ddc 8b3e 2862 d6bd
00000150: 0081 1a3a 009f cf3d 217c 6fbe 889a b43d
00000160: 4960 7abd e3c5 053e 2f35 0cbe 2273 593e
00000170: 18ca 6abe 2e8f ab3d 37b9 ea3d b64e 283e
00000180: 41f9 c2bc 578a 99be 9dbd 14bc 5a22 bebd
00000190: 18df 763d d234 52be e1bd a4bd 70f1 613d
000001a0: c89b febd c53f 6abd 5155 95be cbef b13d
000001b0: e899 323e 0e70 ff3d 720a cabd a14c 61bb
000001c0: ab77 c73d 3bd6 84be 77cf 333e 967c 093e
000001d0: 1984 04be 981c ebbd 02c8 4fbe cc45 d93d
000001e0: aa0f 1e3e 3039 00be ee21 36bd 6039 19bd
000001f0: 8d07 debd ea65 8abd f53c a0bb f330 f8be
00000200: 424f a4bc b207 073e 271b 15bd e33e 9dbc
00000210: 7c41 03bf 060e 983d e09d 9fbd 0ed7 063e
00000220: 6a69 5cbe c199 343e f873 7cbc b8f8 853e
00000230: 81b3 003f 14a5 853e 2f65 d73c f04f e93d
00000240: d0f2 cf3e d3ca 16be 5017 9dbe 98cf d73c
00000250: f20b ccbd 598e 1ebd 7cda 0c3e edb3 253e
00000260: 1668 a2bd c0f1 983d c922 a23e ff4b a9be
00000270: 16cb 2cbc 7447 84bd 75fc 043d cceb 15be
00000280: d14e c6bd 8900 a3bd 118b 33be 8ca6 a9be
00000290: e598 133d 0bf2 473d 3579 363e b47f 07be
000002a0: b431 03bd e4bf 293e e404 853e f4d2 02be
000002b0: bcf8 bfbc ef0c 3dbe 5d39 dd3d 80cd a4bd
000002c0: a9f1 64be a051 99be b884 e63d aef5 b8be
000002d0: 8016 843c f99a 08bc 91c0 7c3e 5c90 693e
000002e0: 9129 71bd caf1 6e3d 6c89 913d 2a4a 1ebe
000002f0: db60 a7bc 47fb b83d 6229 5cba 95cc 073e
00000300: 5251 04be 8cb1 953e 7f11 2ebe 2410 973d
00000310: 7b57 043d 038d fb3d 7514 09ba b8f3 723d
00000320: eac2 133e b47c 2bbe 235d c7bd 9ebe 183e
00000330: 6289 d93d fed6 c03c 6237 1a3e 97ff 59bd
00000340: 0d54 83be f049 d03e dde6 6a3e 59de 683d
00000350: 130b 933e 7eb5 93be 4877 963e 53b4 6e3e
00000360: f3b1 febc 9d46 b33d af6f 273e c76d 92bc
00000370: 0184 61be 7233 3fbd 6673 0cbc 4c4a 903c
00000380: a4fa eabd 5d5b a93e 5cdf 9c3e 6935 023e
00000390: 3a1c 833d 2d68 16be 4be6 7e3e 768c 55be
000003a0: 7772 803d 916e 2a3e 9616 e7bd 21a6 36be
000003b0: a89a 023d cfb9 213e acda 9b3e d2f6 4e3d
000003c0: 2dc8 223e 0b61 e33b 4391 05be 2d62 be3d
000003d0: 11d6 b5bc 8a46 283e e0ca 413e adbf 8e3d
000003e0: 299b 833e e02f 80be a8fb 75be d6ed 15be
000003f0: 0bc0 e83e 997b 603c c9ac 18be 2e95 7abe

bias f4 [24]
-0.1192952 0.014942675 -0.035218116 0.053842954 0.0063003586 -0.1203396 -0.08465705 -0.01652545
-0.032964785 -0.0081416 0.07219284 0.0724574 0.02639063 -0.05382015 -0.072809346 0.009556822
-0.04868588 0.035351854 0.01307749 0.10692142 0.032105498 0.05583485 0.057880227 0.112826526
00000000: 0b51 f4bd 1fd2 743c df40 10bd 6e8a 5c3d
00000010: 3d73 ce3b 9c74 f6bd ad60 adbd 6160 87bc
00000020: 1506 07bd 5864 05bc d7d9 933d 8c64 943d
00000030: 2a31 d83c 8572 5cbd 111d 95bd 3794 1c3c
00000040: d86a 47bd 1bcd 103d f842 563c 9ef9 da3d
00000050: 0e81 033d 15b3 643d d113 6d3d 9811 e73d

weight f4 [24]
0.22986273 0.26221806 0.23794903 0.22808954 0.2762024 0.22515145 0.22553967 0.22523007
0.22215667 0.23099038 0.22217356 0.24681777 0.25591803 0.22517088 0.27818307 0.21944246
0.23574643 0.25720567 0.24320617 0.22329046 0.26597154 0.23657827 0.27899122 0.24803738
00000000: 2361 6b3e 7241 863e e9a8 733e 4e90 693e
00000010: 676a 8d3e 1a8e 663e dff3 663e b6a2 663e
00000020: 0a7d 633e be88 6c3e 7781 633e ccbd 7c3e
00000030: b007 833e 3293 663e 036e 8e3e 86b5 603e
00000040: 8367 713e 76b0 833e 0a0b 793e 41a6 643e
00000050: 6c2d 883e 9341 723e f0d7 8e3e 83fd 7d3e

weight f4 [24, 24, 3]
-0.019522246 -0.06691135 0.08307372 -0.2710136 0.12966184 -0.059039302 -0.10733936 0.095254056
-0.1559549 0.25979975 0.13324459 0.16469741 -0.1966246 0.3260703 0.33371642 -0.152262
0.023893744 -0.29286456 -0.11844618 -0.00041812216 -0.21615343 0.1940201 0.25360486 -0.0474939
-0.096880816 0.08022855 -0.22069685 -0.077140756 -0.19400264 0.08954995 0.01608404 0.049442124
0.06830633 -0.22269331 0.029578123 -0.08215688 -0.040478986 0.22815442 -0.11199217 -0.2020976
0.12466373 -0.090270095 0.093914375 -0.03578583 -0.059338775 0.19743352 0.049462266 -0.13647003
-0.055369582 0.015451281 -0.14258353 -0.12929448 0.12628537 0.0853129 0.24002019 -0.014281895
-0.21335988 -0.11222866 0.09097411 -0.2903938 -0.13757847 -0.24499527 0.14831099 0.03336082
-0.033067565 -0.21975091 -0.11741954 -0.22233497 0.13896407 0.025725158 -0.3861537 -0.01611386
-0.021112362 -0.10853181 -0.37241173 0.10313148 0.127083 -0.12252901 -0.07457386 0.1297288
0.17002507 -0.11668687 0.19288877 -0.07796408 0.012798196 0.2668097 0.14045396 0.22513753
0.06829632 -0.07187332 -0.17697355 0.28067723 0.00014517011 0.010139782 0.067466065 0.22201975
0.051921852 0.04433168 -0.23837976 -0.12816544 0.033600923 -0.053544495 -0.09327211 -0.0034306778
-0.14653134 0.09885832 0.08519838 0.24566893 0.07382907 0.0587856 0.08241265 0.02333361
-0.0064938944 -0.044390578 -0.08820794 0.10144661 -0.02095213 -0.20101543 0.014118016 -0.16297148
0.10013912 0.0030155408 -0.11207665 -0.021136176 0.08874628 0.06284983 -0.08775639 0.09354407
0.033892896 0.037153557 -0.047537673 0.36956456 -0.004700901 0.03252731 0.11343084 0.24192302
0.34284025 -0.23851448 0.11574503 -0.067316346 0.35329568 0.13264617 -0.002000039 -0.18715183
-0.042102385 -0.30846658 -0.3783071 -0.111731 -0.0559698 0.12214779 0.115157604 0.046303395
-0.08143559 -0.1860465 0.12357991 0.13980585 0.1913122 0.29649666 0.09827949 -0.21076569
-0.15822075 0.26131472 0.0040611876 -0.05624242 0.06572077 0.030367086 -0.12488086 -0.18619469
-0.26493877 -0.04289312 -0.18114275 0.107938044 0.28787154 0.015978614 -0.0802636 -0.10889826
-0.29032534 0.08227337 -0.065998286 -0.0020598473 0.39682382 0.09830294 0.0967876 -0.2349502
0.1505978 -0.37541232 -0.2775231 0.30729675 -0.03744047 0.10405393 -0.046167832 -0.11905575
-0.08149992 -0.12320911 0.12633024 0.12073495 -0.112139136 0.2777179 0.1970095 0.030298311
-0.19971164 -0.0013633602 0.12605192 0.3846228 0.123838276 0.23462333 0.31517008 -0.19054466
-0.098106526 0.17386849 -0.086153455 -0.28320852 -0.21716748 0.01643719 -0.21301015 -0.02206069
0.22942303 -0.1826108 -0.119068846 0.1552477 0.029960135 0.014443143 -0.04792498 0.09335911
-0.052400243 0.1408753 0.011483008 0.10537412 0.029343607 0.0023540189 0.086055644 0.20237856
-0.0110650435 -0.2266629 -0.16761315 0.19157243 0.17780814 0.040750682 0.24720532 0.077162035
-0.15439707 -0.16433635 0.20607962 0.05838764 -0.0513719 0.18161826 -0.10529453 -0.006005509
0.4126122 0.18714006 0.19649634 -0.10175044 -0.13951401 -0.022094827 -0.025738256 0.21844946
00000000: 1eed 9fbc d108 89bd 8e22 aa3d 4bc2 8abe
00000010: 13c6 043e 32d3 71bd bdd4 dbbd 8f14 c33d
00000020: a4b2 1fbe 7904 853e 4571 083e 70a6 283e
00000030: f657 49be b0f2 a63e e1dc aa3e 92ea 1bbe
00000040: d0bc c33c 58f2 95be e993 f2bd 6837 dbb9
00000050: 5357 5dbe 35ad 463e 7fd8 813e f788 42bd
00000060: 7369 c6bd de4e a43d 5bfe 61be f9fb 9dbd
00000070: a1a8 46be f765 b73d adc2 833c d383 4a3d
00000080: 30e4 8b3d b709 64be d24d f23c de41 a8bd
00000090: 4bcd 25bd 50a1 693e 275c e5bd acf2 4ebe
000000a0: b34f ff3d 87df b8bd 2e56 c03d 2a94 12bd
000000b0: 370d 73bd 032c 4a3e f298 4a3d cdbe 0bbe
000000c0: 37cb 62bd 5f27 7d3c 6b01 12be c665 04be
000000d0: f450 013e 88b8 ae3d dac7 753e 9cfe 69bc
000000e0: 037b 5abe 24d8 e5bd a250 ba3d 7fae 94be
000000f0: 5fe1 0cbe 0ae0 7abe d6de 173e 5ba5 083d
00000100: db71 07bd 6206 61be a879 f0bd c7ab 63be
00000110: 994c 0e3e 91bd d23c f0b5 c5be 3701 84bc
00000120: d5f3 acbc ed45 debd c0ac bebe 9936 d33d
00000130: 0c22 023e 7df0 fabd 2eba 98bd a0d7 043e
00000140: 0d1b 2e3e 87f9 eebd a284 453e a2ab 9fbd
00000150: 86af 513c 489b 883e 2ad3 0f3e 748a 663e
00000160: f1de 8b3d 5232 93bd 8e38 35be edb4 8f3e
00000170: ce38 1839 5421 263c a62b 8a3d 2559 633e
00000180: 02ac 543d 2395 353d d319 74be cd3d 03be
00000190: 1fa1 093d 7951 5bbd 7305 bfbd 39d5 60bb
000001a0: 500c 16be 3b76 ca3d 7d7c ae3d a390 7b3e
000001b0: b233 973d 2bc9 703d f7c7 a83d 2026 bf3c
000001c0: bcca d4bb e5d2 35bd 5da6 b4bd 3ec3 cf3d
000001d0: cda3 abbc fdd6 4dbe 404f 673c ffe1 26be
000001e0: bd15 cd3d 61a0 453b 7188 e5bd c625 adbc
000001f0: 9cc0 b53d 69b7 803d 9fb9 b3bd 0994 bf3d
00000200: 47d3 0a3d 542e 183d ddb6 42bd 9137 bd3e
00000210: 040a 9abb 5b3b 053d 6e4e e83d abba 773e
00000220: c288 af3e 243d 74be bb0b ed3d 27dd 89bd
00000230: 2ce3 b43e 66d4 073e 1613 03bb bba4 3fbe
00000240: 8d73 2cbd 55ef 9dbe 78b1 c1be 39d3 e4bd
00000250: 9740 65bd 9f28 fa3d c0d7 eb3d a1a8 3d3d
00000260: b4c7 a6bd f982 3ebe 7717 fd3d 4429 0f3e
00000270: 58e7 433e 69ce 973e c246 c93d f6d2 57be
00000280: 9f04 22be 0bcb 853e b613 853b 745e 66bd
00000290: 9c98 863d 65c4 f83c 89c1 ffbd d2a9 3ebe
000002a0: 0ea6 87be b2b0 2fbd 7c7d 39be 9f0e dd3d
000002b0: e663 933e 95e5 823c 3e61 a4bd 0d06 dfbd
000002c0: 86a5 94be f17e a83d 1c2a 87bd 81fe 06bb
000002d0: 7e2c cb3e 0d53 c93d 9438 c63d c996 70be
000002e0: 4f36 1a3e 0b36 c0be 8217 8ebe 0056 9d3e
000002f0: 2e5b 19bd 3a1a d53d 7b1a 3dbd 80d3 f3bd
00000300: 6ee9 a6bd 0f55 fcbd b75c 013e e343 f73d
00000310: 34a9 e5bd 0a31 8e3e dcbc 493e 2a34 f83c
00000320: 3581 4cbe c7b2 b2ba c113 013e 48ed c43e
00000330: ec9e fd3d 1941 703e f95d a13e 241e 43be
00000340: 13ec c8bd 950a 323e 3971 b0bd b500 91be
00000350: 2761 5ebe 49a7 863c 551f 5abe 9fb8 b4bc
00000360: dfed 6a3e 53fe 3abe 5eda f3bd 41f9 1e3e
00000370: f56e f53c efa2 6c3c fc4c 44bd 1033 bf3d
00000380: a3a1 56bd 9d41 103e 3a23 3c3c 63ce d73d
00000390: 0162 f03c e245 1a3b f13d b03d 533c 4f3e
000003a0: 284a 35bc 521a 68be c8a2 2bbe 902b 443e
000003b0: 5613 363e 30ea 263d 6423 7d3e 2107 9e3d
000003c0: 441a 1ebe ca47 28be 8906 533e e127 6f3d
000003d0: 576b 52bd 23fa 393e a9a4 d7bd dcc9 c4bb
000003e0: e841 d33e a5a1 3f3e 5636 493e 8962 d0bd
000003f0: c3dc 0ebe 3600 b5bc 09d9 d2bc 37b1 5f3e

bias f4 [24]
-0.1165951 0.10914825 0.070420235 0.08152221 0.062569 0.10168236 -0.091806635 -0.043268096
-0.11314809 -0.06663065 -0.10506808 -0.13717756 -0.05434073 -0.025497066 0.016159844 0.018242318
-0.059169687 -0.08649804 -0.117698744 -0.062651545 -0.054154616 0.0008401329 0.019453268 0.12173643
00000000: 69c9 eebd 1e89 df3d 7c38 903d 1ef5 a63d
00000010: 2d24 803d d73e d03d 1e05 bcbd e339 31bd
00000020: 30ba e7bd a675 88bd ef2d d7bd 4678 0cbe
00000030: 6394 5ebd 39df d0bc a661 843c ea70 953c
00000040: ea5b 72bd e225 b1bd 0a0c f1bd 744f 80bd
00000050: 3bd1 5dbd 5d3c 5c3a 765c 9f3c f350 f93d

weight f4 [24]
0.27245015 0.19662571 0.22864443 0.23115098 0.2664274 0.27632424 0.2249017 0.27103397
0.28132278 0.23421504 0.24415669 0.25874332 0.22930488 0.23252991 0.23498611 0.24729843
0.2257922 0.24067199 0.2331072 0.2241388 0.24699141 0.23386422 0.27354366 0.2181782
00000000: 967e 8b3e 4058 493e c421 6a3e d8b2 6c3e
00000010: 2c69 883e 5f7a 8d3e a24c 663e f7c4 8a3e
00000020: 8a09 903e 11d6 6f3e 3604 7a3e 017a 843e
00000030: e6ce 6a3e 521c 6e3e 33a0 703e cd3b 7d3e
00000040: 1236 673e b872 763e a7b3 6e3e a484 653e
00000050: 51eb 7c3e 1a7a 6f3e ea0d 8c3e 1b6a 5f3e

weight f4 [24, 24, 3]
0.1481791 0.11542753 0.056607127 -0.074759185 -0.00771903 0.23960088 0.09193546 0.1095766
-0.14456284 -0.21272172 -0.0053153634 -0.13239513 0.0063078455 0.060100276 -0.08682111 0.07104825
-0.0064817923 0.0071083535 0.1308902 -0.14480485 -0.17610545 0.09874847 -0.06235071 0.2748688
-0.08106731 -0.1303265 0.17024164 -0.038257647 0.06317258 -0.16603257 0.2698971 -0.029749705
0.004219941 -0.16696265 0.11883539 0.03253332 -0.0553816 -0.08092612 0.048443202 0.009418279
-0.050630137 -0.068710044 0.13132894 0.07682888 -0.090885356 0.018348966 -0.033742793 0.11572179
-0.19306007 0.19625244 0.052139062 -0.029042738 0.05421427 -0.10853471 -0.08352999 -0.13707812
0.070968136 0.037643068 -0.14637706 0.31582773 0.16862918 -0.021219676 -0.09800186 -0.17608972
0.040825453 0.013492066 -0.13700059 -0.1762505 0.081430264 -0.08541872 -0.029890066 0.35707274
0.20146205 0.15741828 0.092552945 0.07235971 -0.16832213 -0.23102194 0.053193744 0.24940626
-0.14714266 0.08056996 0.24070223 0.055362094 0.1841524 0.0359104 0.21978079 0.023409557
0.052325346 0.2155419 0.31600022 0.03640915 -0.15025187 0.048946407 0.1502081 -0.027270488
-0.0732066 0.40328932 0.19558926 -0.041928343 -0.3606803 0.05259145 -0.101987734 -0.00077109766
-0.28435442 -0.1802387 -0.039110813 -0.28034747 -0.27965394 -0.24631628 0.075217634 0.0969917
0.15408452 -0.1106419 -0.08124676 0.030941013 -0.2628595 -0.12232927 0.087000735 0.030559156
0.16223621 0.09455507 0.21110724 0.06391748 0.09452813 0.021524955 -0.2124707 0.068857186
-0.056933958 -0.09200022 0.10642332 0.08649374 0.022481767 0.16148697 -0.1203196 0.0018709316
-0.113682345 0.118936725 0.21701592 0.31444058 -0.006488155 0.07181823 0.2670693 -0.1800101
0.10414731 -0.25329491 -0.019641139 0.07825896 -0.24858959 0.0640749 0.15052111 -0.33147633
-0.18896946 -0.110314466 -0.18667324 -0.13171111 0.048681207 -0.18166135 0.13881253 0.21976334
-0.116674855 0.13383795 0.07198303 -0.07274554 -0.19849126 -0.104103915 -0.064105354 0.10432416
0.021160804 -0.020575631 0.38303056 -0.31851774 -0.048813447 0.37133035 0.11158395 0.051730353
-0.05572265 0.24994272 -0.23422629 -0.2524384 -0.028398966 -0.07994678 -0.07822816 0.23248065
0.10720855 -0.04831276 0.21725123 -0.10454082 0.17215799 0.19946216 0.08350042 -0.29888192
-0.039090965 -0.29598337 0.0042718877 -0.1782561 0.1509661 0.12968533 0.17099911 -0.13715827
0.013928435 0.112615146 -0.33196223 0.05836454 0.0003938931 0.31544805 0.19221546 -0.12514758
0.0003524048 -0.20158733 -0.0677123 -0.06474934 0.11254275 -0.046768118 -0.17449336 0.05316818
0.07219741 0.07706335 -0.0855984 0.1524044 0.11917802 0.1587136 0.26501662 -0.11010838
-0.13108204 0.25273192 0.23282194 -0.00805046 -0.27929434 0.058370173 0.24307895 -0.05258011
-0.23371774 0.01792388 -0.3498746 -0.10091526 0.05644289 -0.27186313 0.025442418 -0.01581392
-0.104695454 0.3003446 -0.007599277 0.38551244 0.0800404 0.1015435 0.009661406 -0.08476478
-0.18897219 -0.11136808 0.054399855 -0.010454666 -0.084688224 0.18866646 -0.12183241 0.12095149
00000000: 43bc 173e 4565 ec3d e0dc 673d 581b 99bd
00000010: ebef fcbb ef59 753e a948 bc3d b269 e03d
00000020: 4808 14be b9d3 59be 802c aebb 9792 07be
00000030: 0bb2 ce3b b52b 763d 44cf b1bd bf81 913d
00000040: 3765 d4bb 31ed e83b 1508 063e b947 14be
00000050: fd54 34be a33c ca3d 7563 7fbd 9abb 8c3e
00000060: 9e06 a6bd 4f74 05be d353 2e3e 0db4 1cbd
00000070: a060 813d 7104 2abe f42f 8a3e a7b5 f3bc
00000080: 6e47 8a3b 42f8 2abe f85f f33d a941 053d
00000090: d1d7 62bd 98bc a5bd 616c 463d 204f 1a3c
000000a0: 8c61 4fbd dab7 8cbd 187b 063e 7658 9d3d
000000b0: 1a22 babd 9250 963c e235 0abd 8cff ec3d
000000c0: 8ab1 45be 66f6 483e c58f 553d 09eb edbc
000000d0: c80f 5e3d 7247 debd c511 abbd 355e 0cbe
000000e0: be57 913d 9e2f 1a3d dee3 15be 2cb4 a13e
000000f0: 21ad 2c3e e3d4 adbc 33b5 c8bd dd50 34be
00000100: 9738 273d d40d 5d3c e249 0cbe 037b 34be
00000110: e9c4 a63d 03f0 aebd 03dc f4bc 3dd2 b63e
00000120: 114c 4e3e 4232 213e 668c bd3d 5431 943d
00000130: a35c 2cbe 0491 6cbe afe1 593d 5b64 7f3e
00000140: 91ac 16be dd01 a53d a57a 763e 5dc3 623d
00000150: 7292 3c3e c916 133d 370e 613e 66c5 bf3c
00000160: 1a53 563d 04b7 5c3e c8ca a13e c321 153d
00000170: a0db 19be 077c 483d 27d0 193e 5c66 dfbc
00000180: 58ed 95bd f07b ce3e 8d48 483e 0ebd 2bbd
00000190: 17ab b8be 226a 573d f2de d0bd 7d23 4aba
000001a0: e796 91be 7e90 38be a932 20bd b489 8fbe
000001b0: cd2e 8fbe 563a 7cbe b40b 9a3d 96a3 c63d
000001c0: 55c8 1d3e 3898 e2bd b464 a6bd 0278 fd3c
000001d0: 8595 86be c587 fabd 712d b23d 3257 fa3c
000001e0: 4021 263e 17a6 c13d 7f2c 583e 2be7 823d
000001f0: f797 c13d 1a55 b03c eb91 59be ff04 8d3d
00000200: 9533 69bd 9d6a bcbd 78f4 d93d a123 b13d
00000210: af2b b83c d75c 253e 1f6a f6bd 0c3a f53a
00000220: 4ad2 e8bd 1995 f33d 6c39 5e3e 5bfe a03e
00000230: 979a d4bb 7015 933d 4fbd 883e 9154 38be
00000240: 2f4b d53d dfaf 81be 74e6 a0bc 3c46 a03d
00000250: 458e 7ebe b339 833d 3522 1a3e 44b7 a9be
00000260: 3681 41be 8dec e1bd 4527 3fbe 47df 06be
00000270: f265 473d 6f05 3abe df24 0e3e a409 613e
00000280: 3af3 eebd d10c 093e d76b 933d 9dfb 94bd
00000290: 4b41 4bbe 6f34 d5bd ab49 83bd e8a7 d53d
000002a0: 6c59 ad3c 3a8e a8bc 951c c43e c214 a3be
000002b0: 9cf0 47bd 031f be3e 2086 e43d 35e3 533d
000002c0: 6f3d 64bd fcf0 7f3e 04d9 6fbe 9b3f 81be
000002d0: f3a4 e8bc 23bb a3bd 1636 a0bd 680f 6e3e
000002e0: 2890 db3d 9ae3 45bd 1b77 5e3e 7f19 d6bd
000002f0: 2f4a 303e cf3f 4c3e 4502 ab3d 0d07 99be
00000300: d91d 20bd 228b 97be 31fb 8b3b c488 36be
00000310: db96 1a3e 3bcc 043e 641a 2f3e 3873 0cbe
00000320: 1734 643c c5a2 e63d f4f6 a9be a80f 6f3d
00000330: 7083 ce39 6882 a13e 21d4 443e b026 00be
00000340: f9c2 b839 e96c 4ebe bfac 8abd 4d9b 84bd
00000350: d07c e63d ed8f 3fbd 63ae 32be e1c6 593d
00000360: 3cdc 933d 64d3 9d3d 374e afbd e60f 1c3e
00000370: 9b13 f43d d185 223e 42b0 873e 8180 e1bd
00000380: 5f3a 06be 1466 813e e068 6e3e 14e6 03bc
00000390: abff 8ebe 9015 6f3d b0e9 783e 3e5e 57bd
000003a0: b453 6fbe 1ad5 923c c322 b3be a9ac cebd
000003b0: a930 673d a531 8bbe 9e6c d03c 328c 81bc
000003c0: 926a d6bd c4c6 993e 5b03 f9bb e361 c53e
000003d0: 39ec a33d 0af6 cf3d e04a 1e3c 2899 adbd
000003e0: ed81 41be f314 e4bd 62d2 5e3d 0c4a 2bbc
000003f0: 0571 adbd c831 413e 4583 f9bd 6ab5 f73d

bias f4 [24]
0.0050846604 -0.078442864 -0.08721083 0.007372783 0.052259665 0.017633948 -0.040424198 -0.14193736
0.02734275 0.00026399855 0.001513707 0.0015870053 0.13852556 0.09017546 0.021365264 0.105712034
-0.0027802053 -0.045666683 0.08210435 0.019090759 -0.11390406 0.03188568 0.018886691 0.04182148
00000000: 399d a63b a7a6 a0bd 979b b2bd 6397 f13b
00000010: 3b0e 563d 1275 903c d893 25bd 0758 11be
00000020: e7fd df3c 4969 8a39 9467 c63a 1003 d03a
00000030: a5d9 0d3e e9ad b83d 3506 af3c 8d7f d83d
00000040: 1b34 36bb fd0c 3bbd 5326 a83d 3964 9c3c
00000050: 8846 e9bd 8f9a 023d 43b8 9a3c 004d 2b3d

weight f4 [24]
0.22270994 0.21315002 0.28025287 0.22644576 0.24451466 0.23425661 0.24117962 0.27737245
0.2253743 0.2548622 0.24213171 0.22171375 0.22441125 0.23288122 0.273555 0.23278157
0.25638607 0.23526095 0.24922155 0.24174584 0.2452727 0.27255282 0.2396147 0.26411778
00000000: 130e 643e 0044 5a3e 4e7d 8f3e 66e1 673e
00000010: 0d62 7a3e f7e0 6f3e caf7 763e c303 8e3e
00000020: 85c8 663e 4c7d 823e 60f1 773e ee08 633e
00000030: 10cc 653e 6a78 6e3e 670f 8c3e 4b5e 6e3e
00000040: 0945 833e 3fe8 703e ef33 7f3e 398c 773e
00000050: c428 7b3e 0b8c 8b3e 8e5d 753e 723a 873e

weight f4 [24, 24, 3]
0.17233351 0.060722798 -0.12419646 0.29358745 0.19659108 -0.19705349 -0.028041301 0.09896716
0.27800834 -0.13520914 -0.17175673 -0.110915 0.036729477 0.08411253 0.03255807 0.0678166
-0.17588566 -0.010838691 -0.1592136 0.006458456 0.10145867 0.080508746 0.08944596 0.14360256
0.120456345 0.004500388 -0.19291173 0.15220824 0.07096661 -0.19845876 -0.004965865 -0.18429731
-0.1410428 -0.02767841 0.07548035 -0.06856041 -0.07160995 0.057035368 -0.002475188 0.45556042
-0.022900939 -0.20344485 0.20731863 0.12500563 -0.039203737 0.018758971 -0.32412934 0.111216165
0.097361624 -0.16769639 -0.11017187 0.04665793 -0.20157634 -0.05298622 -0.07689947 0.14153583
0.19826137 0.3628366 -0.00885571 0.014890217 -0.106879316 0.12596038 -0.02641737 0.032418944
-0.085938096 -0.041368406 0.46734482 0.0017839387 0.18026544 -0.020429172 -0.10293266 0.14545193
-0.19943056 0.12130028 -0.24072403 0.30336714 0.170751 0.10022444 -0.031282995 0.0824839
0.18037498 0.14019272 -0.037016813 -0.087895066 -0.13607495 0.12862757 -0.0854735 0.4149336
-0.036101624 -0.18652561 -0.10429619 0.15417412 -0.0069038644 -0.0745942 -0.0639486 -0.18425636
0.22295658 0.0128611475 -0.14791712 -0.288982 0.005666981 0.15164012 -0.08137972 -0.036454547
0.06054904 -0.15219603 -0.05348123 -0.07728996 0.12299699 -0.15407933 0.15746017 -0.21443167
0.09427998 0.26327536 -0.27781028 0.15334514 0.0025281676 0.19145273 -0.11235561 -0.13481723
-0.17825603 -0.34176728 -0.14083035 -0.025626076 -0.076868325 -0.053308744 -0.12232299 -0.09470477
-0.27081406 -0.0032039178 -0.0008056664 0.110914975 0.08271894 -0.029359976 0.004504827 -0.014958571
0.1470059 0.15480794 -0.2520937 0.0164268 0.08384582 0.15545465 -0.09617977 0.25343838
0.10417476 -0.15637577 -0.15218925 -0.17952348 0.11110938 -0.0645246 -0.07528983 -0.30553168
-0.26293343 0.12939347 0.03713364 -0.20593175 -0.051844884 0.05358172 0.10682499 0.08393552
0.039750714 0.08215375 -0.14668366 0.059813153 -0.13163204 0.28538486 -0.11112327 -0.19648027
0.0020790258 -0.29750544 -0.23548755 -0.3075425 -0.16358224 0.030094674 -0.07044663 -0.095613025
0.22781323 -0.15240785 0.06874303 -0.2492038 -0.11982157 -0.17844874 -0.2754095 -0.084969975
0.06372928 -0.34058288 -0.0136220325 0.23777851 0.18574905 0.02352301 0.08267241 -0.20179595
0.10216394 -0.23256224 0.21104088 0.11275764 0.04444197 -0.019703317 0.15287846 0.12551959
-0.34862065 -0.2673299 0.22964594 -0.12767382 0.0119284885 0.0029329276 -0.012378638 0.019443652
-0.22954829 -0.005650457 0.15382273 -0.18677312 0.17432234 -0.033374637 0.07775606 -0.20129895
0.1388823 0.018973207 -0.027789226 -0.35834682 -0.06896981 0.04924813 -0.14249763 0.10700585
0.3088844 -0.41859692 -0.06625206 0.024360532 -0.09501837 0.08582904 -0.20736207 -0.09486222
0.034733612 -0.09993495 -0.3146142 -0.043831263 -0.19973247 0.03345487 0.08286802 -0.049762323
0.17827614 -0.076416925 -0.17216544 0.30607513 0.04520963 -0.43498617 -0.011018913 -0.16612904
0.12995854 0.17005417 0.014621098 -0.20602815 -0.14427431 0.15456297 0.07447158 -0.0921384
00000000: 3278 303e 78b8 783d b75a febd 1851 963e
00000010: 2c4f 493e 64c8 49be dfb6 e5bc 4baf ca3d
00000020: 1c57 8e3e 4474 0abe ffe0 2fbe 6727 e3bd
00000030: a671 163d 3143 ac3d 9c5b 053d 6ee3 8a3d
00000040: 5f1b 34be c494 31bc e408 23be 75a1 d33b
00000050: 90c9 cf3d c5e1 a43d 722f b73d 8d0c 133e
00000060: d1b1 f63d fe77 933b a78a 45be 7adc 1b3e
00000070: f156 913d c638 4bbe b2b8 a2bb 6fb8 3cbe
00000080: 866d 10be d5bd e2bc 7195 9a3d 6669 8cbd
00000090: 3da8 92bd eb9d 693d c436 22bb 373f e93e
000000a0: c09a bbbc d953 50be 564b 543e 7a01 003e
000000b0: 1994 20bd 6aac 993c 48f4 a5be 4dc5 e33d
000000c0: 8865 c73d 9ab8 2bbe caa1 e1bd 631c 3f3d
000000d0: 076a 4ebe 1408 59bd 787d 9dbd c5ee 103e
000000e0: 0705 4b3e b8c5 b93e 8a17 11bc 19f6 733c
000000f0: 8be3 dabd c2fb 003e 3e69 d8bc bac9 043d
00000100: 5000 b0bd eb71 29bd d247 ef3e 0dd3 e93a
00000110: 8197 383e 145b a7bc 5cce d2bd 5af1 143e
00000120: 8637 4cbe 486c f83d 5c80 76be f052 9b3e
00000130: 5ad9 2e3e 7942 cd3d 9922 00bd 52ed a83d
00000140: 38b4 383e ae8e 0f3e f19e 17bd 5402 b4bd
00000150: 3b57 0bbe f2b6 033e bb0c afbd 2d72 d43e
00000160: 4cdf 13bd 9200 3fbe 3e99 d5bd d2df 1d3e
00000170: d039 e2bb d8c4 98bd 7cf7 82bd b3ad 3cbe
00000180: bb4e 643e 90b7 523c 9677 17be 73f5 93be
00000190: 15b2 b93b 8c47 1b3e 69aa a6bd 5d51 15bd
000001a0: 4502 783d 47d9 1bbe 220f 5bbd 334a 9ebd
000001b0: d9e5 fb3d f9c6 1dbe 3d3d 213e fa93 5bbe
000001c0: dd15 c13d 07cc 863e 263d 8ebe 8206 1d3e
000001d0: 9daf 253b 2f0c 443e b31a e6bd 870d 0abe
000001e0: c088 36be 1ffc aebe d535 10be c7ed d1bc
000001f0: 246d 9dbd 455a 5abd 7a84 fabd 93f4 c1bd
00000200: 24a8 8abe d2f8 51bb 5b33 53ba 6427 e33d
00000210: 8c68 a93d 5584 f0bc 3a9d 933b cb14 75bc
00000220: b788 163e f985 1e3e 6d12 81be 7f91 863c
00000230: 5bb7 ab3d 812f 1f3e e6f9 c4bd adc2 813e
00000240: 9459 d53d f820 20be 80d7 1bbe 01d5 37be
00000250: 518d e33d 7925 84bd 8e31 9abd a66e 9cbe
00000260: 369f 86be b97f 043e 7219 183d c6df 52be
00000270: 4d5b 54bd 8178 5b3d 0fc7 da3d 63e6 ab3d
00000280: a5d1 223d 3a40 a83d 3e34 16be a3fe 743d
00000290: 8dca 06be f71d 923e 9994 e3bd 2032 49be
000002a0: 4440 083b a252 98be a623 71be 3676 9dbe
000002b0: 1a82 27be 1b89 f63c 5346 90bd c3d0 c3bd
000002c0: df47 693e ce10 1cbe 25c9 8c3d 482f 7fbe
000002d0: 0365 f5bd 44bb 36be 7902 8dbe bd04 aebd
000002e0: 7f84 823d e160 aebe f22e 5fbc 367c 733e
000002f0: 0035 3e3e 54b3 c03c 2750 a93d 99a3 4ebe
00000300: 543b d13d cc24 6ebe 1a1b 583e 7aed e63d
00000310: c808 363d da68 a1bc 2c8c 1c3e 3588 003e
00000320: 687e b2be 77df 88be 4e28 6b3e edbc 02be
00000330: b56f 433c 5c36 403b c5cf 4abc 4b48 9f3c
00000340: b50e 6bbe 7827 b9bb b583 1d3e 7441 3fbe
00000350: 8e81 323e d8b3 08bd 923e 9f3d 5021 4ebe
00000360: 2937 0e3e b36d 9b3c 3ba6 e3bc 3c79 b7be
00000370: 0b40 8dbd 68b8 493d e6ea 11be e225 db3d
00000380: 1926 9e3e 5652 d6be 29af 87bd bd8f c73c
00000390: fe98 c2bd 23c7 af3d b956 54be 2047 c2bd
000003a0: d544 0e3d b2aa ccbd 1d15 a1be 6988 33bd
000003b0: ab86 4cbe f907 093d b5b6 a93d 94d3 4bbd
000003c0: 058e 363e 7a80 9cbd 234c 30be e1b5 9c3e
000003d0: bc2d 393d 82b6 debe ac88 34bc bb1d 2abe
000003e0: da13 053e ae22 2e3e 548d 6f3c 0bf9 52be
000003f0: a5bc 13be c145 1e3e 8e84 983d 0fb3 bcbd

bias f4 [24]
0.047776785 -0.0046236436 -0.07142911 -0.07104519 -0.0699069 -0.024663763 -0.04024706 -0.0593483
-0.06528737 0.039643332 -0.13349475 0.06911371 -0.036243595 0.021009102 0.072084 0.071280956
0.067948066 -0.047652453 0.09181634 -0.006883381 0.012820051 -0.12218276 -0.0896696 -0.07229927
00000000: 97b1 433d ef81 97bb 6d49 92bd 2480 91bd
00000010: 592b 8fbd a90b cabc 1ada 24bd 3417 73bd
00000020: 62b5 85bd 0c61 223d d9b2 08be 7d8b 8d3d
00000030: 2a74 14bd 481b ac3c c7a0 933d c0fb 913d
00000040: 5b28 8b3d 382f 43bd 350a bc3d fc8d e1bb
00000050: 310b 523c f43a fabd b2a4 b7bd a411 94bd

weight f4 [24]
0.2402735 0.2408482 0.23909926 0.23315425 0.26871258 0.22382507 0.2348676 0.2567893
0.27231577 0.22887915 0.26885536 0.27033308 0.22173034 0.24140546 0.2307486 0.26069131
0.2539863 0.24108203 0.26014003 0.27396744 0.22609125 0.23173212 0.22699732 0.22310522
00000000: 420a 763e e9a0 763e 70d6 743e fdbf 6e3e
00000010: b294 893e 6632 653e 2281 703e e379 833e
00000020: f96c 8b3e 4c5f 6a3e 69a7 893e 1969 8a3e
00000030: 470d 633e fe32 773e 5c49 6c3e 5579 853e
00000040: 7e0a 823e 35de 763e 1331 853e 7645 8c3e
00000050: 7784 673e 2f4b 6d3e fc71 683e b275 643e

weight f4 [24, 24, 3]
-0.25186175 -0.10847104 0.078936495 0.17526299 -0.08614809 0.20460771 0.12501034 -0.31081384
0.0024452687 -0.027813647 -0.10385181 -0.26143217 0.07254217 -0.19010831 0.0752388 -0.07876831
-0.122530095 0.0012140803 0.086825915 0.46725962 -0.32002848 0.15368763 0.09260646 -0.059024576
0.13684244 0.039239738 0.07229472 0.034940843 0.049571164 0.062479977 -0.16748461 -0.09382783
-0.14240494 0.0102667995 -0.08593603 0.2581618 0.03814903 0.047656953 -0.14560696 0.10910572
0.06565982 -0.088515796 -0.11100606 -0.21888697 -0.06290669 0.00582905 0.10288755 0.07020744
-0.23180117 0.09412418 0.07547141 -0.07249481 -0.08365772 0.050777853 0.16719499 0.094979584
0.035170123 0.3050737 0.035259604 -0.019408595 -0.24252445 0.048801236 0.3935964 -0.2664002
0.17479883 -0.1361503 -0.24541119 -0.09545342 0.053998124 0.17656408 -0.2822434 -0.20605662
0.0148002375 -0.17360346 0.041311216 0.03989678 -0.054347597 -0.09983126 0.10611842 -0.23747693
-0.19555068 0.014607557 0.06645259 -0.25506273 0.27336344 0.15120263 0.088135175 -0.16470887
-0.18764475 -0.11870646 0.22086266 0.13004892 -0.005679856 0.08887292 -0.16046718 -0.0565548
-0.06782243 0.030992731 -0.16286705 -0.12410548 0.10796745 0.22825438 0.08498051 -0.049392555
0.15399833 -0.2491223 -0.15309362 0.25589156 0.11016406 -0.39138287 0.058960974 -0.26676455
-0.054819744 0.20895678 0.43645135 -0.11856779 -0.13474582 0.06323631 -0.023129648 0.05421599
-0.024366774 -0.08200344 -0.0003267726 0.09231961 -0.03459297 0.24340639 -0.06430845 0.0046650846
0.2979058 -0.106370546 0.17475694 0.2634401 -0.07396408 0.13909772 -0.20822538 -0.079028316
-0.09394338 0.37237307 0.035790887 0.030698832 0.045736596 -0.2531931 0.0250225 -0.056111205
0.05222874 -0.15126233 -0.21263894 0.263971 -0.12841818 0.3522816 -0.109194584 0.059078272
0.11372038 0.35065854 -0.36506018 -0.1012061 -0.06968206 -0.09381292 -0.053150915 -0.16821437
-0.012044973 0.057271037 -0.0012437577 -0.07353349 0.07667753 0.16049013 -0.20155093 -0.21670465
-0.16986942 0.32357684 0.15316719 0.04320618 0.13642867 -0.10331496 -0.026644165 -0.023692137
-0.008891019 -0.101652704 -0.15226842 0.18408325 -0.11134393 0.2740667 -0.10064231 0.1533871
0.040658206 0.26968268 -0.14012066 -0.056533843 0.058464374 0.0696238 0.111656845 0.18982236
0.03373832 0.14697534 -0.21334024 0.12407373 0.2599497 0.17389551 -0.03178642 -0.22786862
-0.08550283 -0.2187377 -0.50199234 0.0448413 -0.10282463 0.10462315 0.11862407 -0.11820498
0.058439553 -0.14419797 0.046954963 0.18670522 0.028814884 0.023924518 -0.034378827 0.12654187
0.08081291 0.15063001 0.11651782 -0.016844831 -0.15843695 0.17639713 -0.06338196 0.2139505
0.15495332 0.14268325 -0.25372896 -0.38312796 0.18753427 -0.19035746 0.21933407 -0.15044491
0.17649819 0.061100114 0.1393927 -0.054667875 0.14777847 -0.0018024474 0.2124076 -0.2563512
0.35189897 0.075530246 0.054452688 -0.034666628 -0.0052440837 0.17400427 0.060822986 0.10012991
-0.081448436 -0.16412775 -0.0019736493 -0.44643933 -0.27299556 0.0076572862 0.20837148 -0.29479918
00000000: 06f4 80be 1126 debd 75a9 a13d 2478 333e
00000010: 696e b0bd af84 513e b602 003e fe22 9fbe
00000020: cd40 203b 72d9 e3bc 42b0 d4bd 70da 85be
00000030: fd90 943d c1ab 42be cd16 9a3d 4851 a1bd
00000040: 0ff1 fabd c621 9f3a c9d1 b13d a73c ef3e
00000050: c6da a3be 4a60 1d3e 75a8 bd3d c1c3 71bd
00000060: 6d20 0c3e d9b9 203d 410f 943d 211e 0f3d
00000070: 220b 4b3d 01eb 7f3d 1681 2bbe ce28 c0bd
00000080: 9ad2 11be 1436 283c 3bff afbd c92d 843e
00000090: 2842 1c3d f033 433d fe19 15be d272 df3d
000000a0: a878 863d c547 b5bd 2557 e3bd e823 60be
000000b0: 39d5 80bd 9e01 bf3b b5b6 d23d ebc8 8f3d
000000c0: 495d 6dbe 2ec4 c03d c190 9a3d 2978 94bd
000000d0: bd54 abbd 70fc 4f3d 2a35 2b3e a884 c23d
000000e0: 8c0e 103d 9f32 9c3e 606c 103d c6fe 9ebc
000000f0: 5458 78be cee3 473d 7885 c93e 9b65 88be
00000100: 77fe 323e fc6a 0bbe 124d 7bbe 157d c3bd
00000110: 232d 5d3d 37cd 343e 3582 90be 8200 53be
00000120: b27c 723c 1bc5 31be f335 293d ce6a 233d
00000130: 969b 5ebd 5574 ccbd 9d54 d93d 272d 73be
00000140: 703e 48be 8954 6f3c 4c18 883d 9597 82be
00000150: 4bf6 8b3e ddd4 1a3e 3780 b43d 71a9 28be
00000160: f225 40be 5f1c f3bd d229 623e 8b2b 053e
00000170: 161e babb 0103 b63d 8251 24be 02a6 67bd
00000180: 7ce6 8abd 78e4 fd3c 9fc6 26be 042b febd
00000190: 0a1e dd3d 84bb 693e 430a ae3d d94f 4abd
000001a0: bdb1 1d3e eb19 7fbe 93c4 1cbe 3804 833e
000001b0: b29d e13d 5663 c8be 1081 713d 5d95 88be
000001c0: ab8a 60bd c4f8 553e 8d76 df3e abd3 f2bd
000001d0: cffa 09be 0a82 813d 637a bdbc 9611 5e3d
000001e0: d49c c7bc 6bf1 a7bd ad52 abb9 1012 bd3d
000001f0: 5cb1 0dbd 863f 793e 26b4 83bd 91dd 983b
00000200: 1c87 983e cdd8 d9bd 7cf3 323e 9fe1 863e
00000210: 7b7a 97bd a26f 0e3e 0939 55be 99d9 a1bd
00000220: 6365 c0bd afa7 be3e 7799 123d 1e7c fb3c
00000230: 4c56 3b3d 87a2 81be fcfb cc3c ddd4 65bd
00000240: ceed 553d 83e4 1abe 06be 59be 3527 873e
00000250: 0e80 03be 415e b43e 69a1 dfbd 0ffc 713d
00000260: 3be6 e83d 8489 b33e 2be9 babe 2545 cfbd
00000270: 78b5 8ebd fd20 c0bd c6b4 59bd 6340 2cbe
00000280: 4758 45bc 0995 6a3d 9505 a3ba ba98 96bd
00000290: 1c09 9d3d 8657 243e 5e63 4ebe d3e7 5dbe
000002a0: 40f2 2dbe ddab a53e dcd7 1c3e f7f8 303d
000002b0: f5b3 0b3e cb96 d3bd dd44 dabc 0316 c2bc
000002c0: a3ab 11bc 4b2f d0bd 41ec 1bbe 5280 3c3e
000002d0: 4908 e4bd 7852 8c3e 8e1d cebd 8211 1d3e
000002e0: 3889 263d d913 8a3e ca7b 0fbe 0890 67bd
000002f0: 5778 6f3d ec96 8e3d 58ac e43d cb60 423e
00000300: 3131 0a3d b480 163e dd75 5abe 5e1a fe3d
00000310: 2118 853e aa11 323e 7a32 02bd 6456 69be
00000320: 1c1c afbd c7fc 5fbe 9282 00bf 83ab 373d
00000330: b895 d2bd a944 d63d 2df1 f23d 7415 f2bd
00000340: 505e 6f3d a2a8 13be d953 403d a72f 3f3e
00000350: 310d ec3c 5afd c33c d0d0 0cbd 3194 013e
00000360: 3d81 a53d c13e 1a3e e5a0 ee3d 2cfe 89bc
00000370: 4c3d 22be 73a1 343e 67ce 81bd d715 5b3e
00000380: 15ac 1e3e 8f1b 123e c3e8 81be 5929 c4be
00000390: fc08 403e 11ed 42be 1c99 603e 3b0e 1abe
000003a0: f1bb 343e 1d44 7a3d f6bc 0e3e 6ceb 5fbd
000003b0: 3d53 173e 1940 ecba 6181 593e 7740 83be
000003c0: 1a2c b43e 9aaf 9a3d c809 5f3d 98fe 0dbd
000003d0: 90d6 abbb 2d2e 323e 8621 793d e910 cd3d
000003e0: 70ce a6bd 1b11 28be 5758 01bb b293 e4be
000003f0: 13c6 8bbe f9e9 fa3b 555f 553e ebef 96be

bias f4 [24]
-0.0021151649 0.059206635 -0.044323403 0.006903198 -0.04808886 0.008489292 0.039423585 0.08930366
0.07764694 0.08624558 -0.074571885 -0.08673646 0.09130544 -0.080395795 0.08801569 0.09256458
0.089178346 0.09519495 -0.008813639 0.10302514 -0.1015761 -0.090761684 0.045772906 -0.103792876
00000000: 949e 0abb a882 723d 758c 35bd 3934 e23b
00000010: d3f8 44bd ac16 0b3c a07a 213d d6e4 b63d
00000020: 5c05 9f3d 86a1 b03d 25b9 98bd e3a2 b1bd
00000030: 59fe ba3d 8da6 a4bd 9241 b43d 8092 bd3d
00000040: 23a3 b63d 92f5 c23d 1567 10bc d8fe d23d
00000050: 2107 d0bd 43e1 b9bd 5f7c 3b3d 5c91 d4bd

weight f4 [24]
0.25549766 0.23444766 0.22297819 0.23662208 0.22729678 0.22579107 0.22565073 0.26151922
0.22445041 0.27709693 0.24137355 0.25918752 0.24046715 0.26713443 0.23193401 0.24089414
0.23101705 0.23686162 0.2248405 0.23021317 0.22918263 0.25583196 0.24374202 0.26276168
00000000: 97d0 823e 0c13 703e 6554 643e 0f4d 723e
00000010: 7dc0 683e c635 673e fc10 673e d9e5 853e
00000020: 54d6 653e a6df 8d3e a12a 773e 3ab4 843e
00000030: 053d 763e d8c5 883e 1c80 6d3e f4ac 763e
00000040: bc8f 6c3e da8b 723e 973c 663e 00bd 6b3e
00000050: daae 6a3e 68fc 823e 8297 793e b388 863e

weight f4 [24, 24, 3]
-0.016088312 0.32514322 -0.061157234 -0.17911296 0.1200154 -0.13779438 -0.102087595 0.16260809
0.15397172 0.0036530145 -0.086305924 0.30928397 -0.033252377 -0.18347393 -0.028357802 0.10685667
-0.011632932 -0.29409775 0.17305069 -0.015090398 0.11315686 0.2190531 0.11249806 0.009628695
-0.25673625 -0.12547424 -0.005120881 0.1212383 -0.07499301 0.026229331 0.11396281 -0.34834933
-0.025273064 0.22044486 0.28534576 -0.12697889 0.33666772 0.08720643 -0.18877771 -0.09599322
0.32246155 0.075513706 -0.08776388 -0.0040804003 0.07883407 -0.067385115 -0.06533468 -0.2095783
-0.21851076 -0.09001648 -0.1949746 -0.06519211 0.05266064 0.23224512 -0.13982067 0.044714108
0.02755277 0.3079475 -0.40132296 0.32716152 0.0033116413 0.08684413 -0.03493138 -0.053014036
0.20779058 -0.06052576 0.01105002 0.30690035 -0.012998169 0.060971495 0.1978148 0.3025669
0.06514488 0.20236519 0.010874861 0.033691242 0.07386157 0.020638492 -0.14549635 -0.14990553
0.03468487 0.22758175 0.06246679 -0.18312727 0.12728801 -0.14942905 -0.14529385 -0.14181936
0.26072255 0.09791437 -0.34952816 0.15764861 -0.10384789 -0.069549 -0.056841865 0.020882422
-0.11097237 -0.18103115 -0.076045096 -0.006059382 0.28168353 -0.09642145 -0.28953937 -0.20909451
-0.19857684 0.0969153 -0.12297549 0.32290888 0.113797516 0.017446276 -0.059699837 0.005527733
0.052149374 0.076616265 0.054988857 0.03593878 -0.13666531 -0.037032153 -0.056129552 -0.025833018
0.15643384 0.16275993 0.17183693 0.04200544 0.03562803 -0.07020794 -0.14433748 -0.087491386
-0.24012199 -0.06501972 -0.28541842 0.31383014 0.008831383 -0.07652924 0.24901329 0.22459939
0.36467427 -0.014724051 -0.21546902 0.17962188 -0.20336731 0.056590058 0.022106837 -0.06906592
0.007849345 -0.15525435 -0.015681049 -0.078770585 -0.07461175 0.023148818 0.008138643 -0.42173308
-0.04163302 0.14052762 0.025324982 -0.08542054 -0.18072256 -0.0053196168 0.09944079 -0.32300302
0.32760972 -0.07692354 -0.19355118 0.19721991 0.24423552 0.3191777 -0.17856492 0.22290996
0.23911947 -0.14189345 0.19619977 0.05566083 0.022980705 -0.1700775 0.12514238 -0.1301024
-0.08465525 0.1810779 0.02365587 0.14862034 -0.0760028 -0.008431962 0.06455206 0.030601755
0.079477064 -0.15322404 0.15362586 -0.019983215 0.31514126 -0.045337755 -0.020162482 -0.08459396
-0.020517536 -0.21751913 -0.04563834 -0.2952851 0.24431832 0.0058773966 -0.19408777 -0.036729686
-0.2096585 -0.18448298 0.091596715 0.19906773 -0.12523149 -0.16954038 0.08392087 -0.061101057
0.067404136 0.09813509 -0.0227154 -0.0638488 -0.12140785 0.09981192 -0.1430523 0.14117756
0.15934035 0.07824759 0.021066882 -0.07510841 -0.2592891 0.039547455 -0.2083705 -0.073265836
-0.5145802 0.09942036 -0.2354482 0.21958359 -0.19135925 0.092578776 0.16651389 -0.18027982
-0.11185324 -0.0045709196 0.18635878 -0.034626596 -0.11132387 0.08869822 0.10027478 -0.02061463
-0.069125295 0.3438362 0.11832135 0.21587944 -0.1124073 0.22558512 0.048669748 -0.090188794
-0.24722357 0.41250974 -0.051732767 0.055853274 -0.049852245 -0.15281329 -0.16675746 0.09343199
00000000: a3cb 83bc 2c79 a63e 0280 7abd 6369 37be
00000010: a2ca f53d f819 0dbe 4d13 d1bd bc82 263e
00000020: c3aa 1d3e 6a67 6f3b 29c1 b0bd 785a 9e3e
00000030: a533 08bd 97e0 3bbe 9f4e e8bc abd7 da3d
00000040: 0e98 3ebc fb93 96be 3334 313e b73d 77bc
00000050: c9be e73d 754f 603e 6265 e63d adc1 1d3c
00000060: ef72 83be 527c 00be 10cd a7bb c94b f83d
00000070: ef95 99bd e5de d63c 5565 e93d d85a b2be
00000080: 7509 cfbc 4cbc 613e d718 923e c106 02be
00000090: b65f ac3e 4999 b23d f24e 41be 1898 c4bd
000000a0: ae19 a53e eea6 9a3d 8dbd b3bd e1b4 85bb
000000b0: c273 a13d 3501 8abd 30ce 85bd b29b 56be
000000c0: 49c1 5fbe 8f5a b8bd 6ca7 47be 7183 85bd
000000d0: afb2 573d aad1 6d3e 262d 0fbe 2426 373d
000000e0: 59b6 e13c 4bab 9d3e 347a cdbe b781 a73e
000000f0: 1f08 593b 56db b13d 3514 0fbd 3f25 59bd
00000100: 0ec7 543e dce9 77bd 250b 353c 0b22 9d3e
00000110: 46f6 54bc 3fbd 793d f78f 4a3e 0cea 9a3e
00000120: ae6a 853d d238 4f3e 792c 323c d4ff 093d
00000130: bc44 973d 0e12 a93c fffc 14be d680 19be
00000140: b911 0e3d 310b 693e 2ddd 7f3d b785 3bbe
00000150: ca57 023e ee03 19be e9c7 14be 1839 11be
00000160: 6d7d 853e 5487 c83d 5bf5 b2be a36e 213e
00000170: 34ae d4bd b56f 8ebd 04d3 68bd 9d11 ab3c
00000180: 7b45 e3bd 3b60 39be 88bd 9bbd c88d c6bb
00000190: d338 903e 9c78 c5bd 813e 94be df1c 56be
000001a0: ba57 4bbe 877b c63d 93da fbbd 5054 a53e
000001b0: ac0e e93d 7eeb 8e3c d187 74bd fc21 b53b
000001c0: 959a 553d fde8 9c3d ff3b 613d 8b34 133d
000001d0: fef1 0bbe 07af 17bd 1ae8 65bd c49f d3bc
000001e0: 3130 203e 8aaa 263e 05f6 2f3e e50d 2c3d
000001f0: b2ee 113d 2ec9 8fbd 34cd 13be af2e b3bd
00000200: 8ae2 75be 0f29 85bd 5d22 92be 58ae a03e
00000210: 81b1 103c 5dbb 9cbd 57fd 7e3e 62fd 653e
00000220: 96b6 ba3e 253d 71bc e9a3 5cbe ccee 373e
00000230: 853f 50be faca 673d 6619 b53c 6f72 8dbd
00000240: 8a9a 003c fffa 1ebe 8b75 80bc 7952 a1bd
00000250: 0cce 98bd 97a2 bd3c f157 053c 66ed d7be
00000260: 6387 2abd 79e6 0f3e 5676 cf3c f7f0 aebd
00000270: 560f 39be 2e50 aebb 9da7 cb3d a760 a5be
00000280: 76bc a73e 178a 9dbd 4832 46be 04f4 493e
00000290: e018 7a3e 426b a33e b9d9 36be 8242 643e
000002a0: bcdb 743e 844c 11be 98e8 483e 9cfc 633d
000002b0: 0842 bc3c cc28 2ebe 5325 003e 9039 05be
000002c0: bb5f adbd 7c6c 393e f5c9 c13c ee2f 183e
000002d0: 5ba7 9bbd 3626 0abc df33 843d 88b0 fa3c
000002e0: dfc4 a23d c3e6 1cbe 1950 1d3e d7b3 a3bc
000002f0: 325a a13e 15b4 39bd ca2b a5bc 993f adbd
00000300: 6414 a8bc 56bd 5ebe 45ef 3abd 9c2f 97be
00000310: 952e 7a3e 2d97 c03b f2be 46be de71 16bd
00000320: b8b0 56be 1be9 3cbe 0f97 bb3d 69d8 4b3e
00000330: af3c 00be fe9b 2dbe b5de ab3d 1a45 7abd
00000340: 2e0b 8a3d 0dfb c83d a615 babc 29c3 82bd
00000350: aea4 f8bd 316a cc3d 4d7c 12be da90 103e
00000360: 1e2a 233e 4640 a03d 7494 ac3c 70d2 99bd
00000370: 8ac1 84be 83fc 213d 145f 55be 660c 96bd
00000380: 87bb 03bf e79c cb3d 5519 71be 85da 603e
00000390: aef3 43be f199 bd3d 9e82 2a3e 469b 38be
000003a0: 5013 e5bd a7c7 95bb d6d4 3e3e 9ed4 0dbd
000003b0: c5fd e3bd 6aa7 b53d dd5c cd3d 03e0 a8bc
000003c0: 9091 8dbd 4c0b b03e 7752 f23d 800f 5d3e
000003d0: cc35 e6bd c9ff 663e ee59 473d e7b4 b8bd
000003e0: 2d28 7dbe 7a34 d33e bde5 53bd 67c6 643d
000003f0: de31 4cbd 167b 1cbe 78c2 2abe 4559 bf3d
