models/teste-buried.pth (torch_old, 357844 bytes, 130 tensors)

weight f4 [24, 22, 1]
00000000: 096b df3e 6afd ce3e 7dc3 54be 0046 ce3e
00000010: d551 963e f289 63be 8722 99be 360f 91be
00000020: 7aa5 febe ca76 033e 11ea 01bd 5f39 2b3c
00000030: c953 083e 96c4 0fbf 98ce e1bd 6ef5 7a3d
00000040: f4d8 c83c 9a0e bd3c ca7d e33e 1622 943e
00000050: 9195 52be 6198 55be f4fd a8be 5861 9ebd
00000060: 6264 72bd b0a0 1a3e 7f91 563e 6a7d cfbd
00000070: ba9a 653f a339 213c bbd0 b93e 6ea8 973d
00000080: 648b 263e f118 343e 8d56 d5bd a070 3a3d
00000090: 0418 40be e64a 3fbf 01c5 5b3e bd35 733d
000000a0: 475c 8c3d 296b 333d 604e bdbe f282 39be
000000b0: 7093 473e e351 f6bb 4939 6b3e 0da1 513e
000000c0: f07f 613e 92ac 82be 8a64 70be 1148 a9be
000000d0: 9450 92be 839f 12be ff53 00be 07db 9f3e
000000e0: a8e9 e9be 0043 bf3b 0f8d 053e ba44 0bbe
000000f0: 3a7c 913e f6c1 b73e 615c 44bf 6bf6 ae3d
00000100: a089 9dbd 94b3 36bd 7ef3 ae3d 3f18 173e
00000110: b29b c53e bba7 cbbe b495 a33e 5bda 823e
00000120: dd70 01be 7eef d4be 203a 8cbe 33c8 f6bd
00000130: 2235 24bc 8ed8 023f c1d7 f13e aa7a 0cbe
00000140: 9366 47bd c718 623f a51b 3abe 1dd1 953d
00000150: e52d edbd ea0c 8cbd 2963 a4bd d66d ce3d
00000160: 8c90 0b3f 887d 583e 35dd 853e bd38 8a3d
00000170: 2cee 6a3a c823 283e 3605 63be 17cf 33be
00000180: 0c17 d13e 6937 05be 440c 803d dc74 b33d
00000190: 193c 543d 1f86 fbbc 6bc8 e23d 1763 05be
000001a0: ccb9 18bc a33d 923e 2ff3 80be b384 913e
000001b0: 3bd4 ff3e 34aa cd3e 4937 88be 2c44 a9be
000001c0: df72 cabd ab0e f53e d249 9f3e 6b69 c4bd
000001d0: d06e 4bbf d021 8b3d 9211 abbe 82f9 4d3e
000001e0: 9ffc c03e 3f5d af3c 86a1 d53d dc6b af3e
000001f0: 17de 58be 90fd 91bd ec31 d6bc 32a2 83be
00000200: aaae 573e 0918 263e dfc0 56be 4369 b53e
00000210: e461 723e 32ea d8bd c931 693e 5cb5 fbbc
00000220: 17ae a8be 5bd7 0cbf f041 abbe 8dbc e93c
00000230: 9314 ae3e 92d5 3cbe 009b 57bd 6d8d 193f
00000240: 6f6e 183f a417 ea3d 38a7 903e f565 96be
00000250: cf03 343d 3120 ea3e 1233 aebd 8bc6 57bd
00000260: 51b8 35bd ab41 9ebc 4287 54be 5a8f ef3e
00000270: a217 a1bd 305d 8e3e 140e bc3c bda3 473e
00000280: 0c34 0cbe 2f66 94be 7ad3 8fbe 0058 193e
00000290: ec54 18be 1112 ccbd aa37 64be 5259 053c
000002a0: 01f3 ee3e 47b3 bebd ce9c 833e abdc cebd
000002b0: 4f6f aebd 1a24 86bb 3164 0fbf 9f53 ef3d
000002c0: a9bb 95be af60 bd3e 6626 13bf 0fec a9bd
000002d0: 8f10 063f 7096 30be 7622 5cbc cd7e adbe
000002e0: 7179 ac3e 175a 8cbd db4c 95be 7e03 ddbd
000002f0: ee8e bbbe 678a 843e 7c31 02be a719 a53e
00000300: 2bf1 cabe f127 c33e 1ce5 58be b8be e23e
00000310: 88b7 863d 9134 2c3f dc80 933e 84b5 59be
00000320: 758e 4abe 21e3 b3bd 1bc6 cc3e 39f9 d5be
00000330: 867f 4d3d eb9b d43c e78f ab3e 7d00 08be
00000340: 7ecc d13e e811 2dbe 2482 81be 7229 713e
00000350: af4d 393e f854 cabd af55 853b e2f7 84be
00000360: b2de fc3d a0b0 183f fa0f aabd 5fa5 cb3d
00000370: e0b7 90be 226a 4cbe 294b 973e 32a3 eb3e
00000380: 5eac 7dbe 3dc8 fa3d cb07 2f3d 60e0 a5be
00000390: 725f 613e cf93 133e df55 11be ad4a 2b3e
000003a0: c26a 9b3e df2f bdbe 717c fb3e e81b b9be
000003b0: cd04 40be 6fb2 123f d609 98be a4a9 abbe
000003c0: 2317 1b3d 8e72 a5bd acf9 15bf caa8 0bbd
000003d0: 7993 1dbe 9e1a 963e 050a 57be 63cf fdbc
000003e0: db75 91bb a895 da3e 1943 ad3e c33f 1d3f
000003f0: 9e49 463d 3b70 923d bca2 423e 9b8c b6bd
0.4363635 0.40427715 -0.20777698 0.4028778 0.29359308 -0.2222059 -0.29909155 -0.28331918
-0.49735624 0.12838283 -0.031717364 0.01045069 0.13313212 -0.5615934 -0.11025733 0.061269216
0.024517514 0.023078252 0.44431907 0.28932256 -0.20564868 -0.20858909 -0.3300625 -0.077334106
-0.059177764 0.1510036 0.2095394 -0.10131343 0.8968922 0.009840402 0.3629206 0.07405172
0.16264111 0.1758764 -0.10416899 0.045517564 -0.18759161 -0.7472366 0.2146187 0.05937742
0.06853538 0.043803368 -0.36973858 -0.18116358 0.19489837 -0.007517086 0.22971071 0.20471592
0.2202146 -0.25522286 -0.23475853 -0.33062795 -0.285771 -0.14318661 -0.12532042 0.31221792
-0.45686078 0.0058368444 0.13042091 -0.13600436 0.2841509 0.35890168 -0.7670346 0.08543094
-0.076922655 -0.044604853 0.08542536 0.14755343 0.3859535 -0.39776406 0.31950152 0.25557217
-0.1264071 -0.41588968 -0.27388096 -0.12049904 -0.0100224335 0.51111686 0.4723492 -0.13718668
-0.048681807 0.8831906 -0.18174608 0.07315276 -0.11581019 -0.06838401 -0.08026726 0.10079543
0.54517436 0.21141636 0.2614533 0.06749103 0.0008961882 0.164199 -0.22169957 -0.17559467
0.40837896 -0.13009419 0.062523395 0.087625235 0.051815126 -0.030703602 0.11073383 -0.13026081
-0.009321641 0.2856265 -0.25185534 0.28421554 0.49966606 0.40168917 -0.2660468 -0.33059824
-0.09885191 0.47862753 0.31111008 -0.095904194 -0.7946596 0.067935586 -0.33411843 0.20114711
0.37692735 0.021406768 0.10431199 0.34261978 -0.2117847 -0.07128441 -0.026146851 -0.25709683
0.21062723 0.16220106 -0.20972012 0.3543187 0.23670155 -0.10591544 0.22772898 -0.030726127
-0.3294532 -0.55016106 -0.33448744 0.02853229 0.34000072 -0.18440846 -0.052638054 0.59981424
0.5954351 0.1143029 0.28252578 -0.29374662 0.043948945 0.45727685 -0.08505835 -0.05267958
-0.04436523 -0.019318422 -0.20754722 0.46789056 -0.07865836 0.2780547 0.022955932 0.19496055
-0.1369173 -0.2898421 -0.2809103 0.14974976 -0.14876145 -0.099643834 -0.22286859 0.008138971
0.46669772 -0.09311538 0.2570557 -0.10100683 -0.08517324 -0.004093659 -0.56012255 0.11685871
-0.29244736 0.36987826 -0.57480466 -0.08296978 0.52369016 -0.17244887 -0.0134359505 -0.33885804
0.33686402 -0.06853121 -0.291602 -0.10791682 -0.36632484 0.25886843 -0.1271419 0.32246134
-0.39637122 0.3811641 -0.21181148 0.44286132 0.065779746 0.6726771 0.2880925 -0.21260649
-0.19780906 -0.08783556 0.39994892 -0.41791704 0.050170444 0.025953254 0.33508226 -0.13281436
0.40976328 -0.16901362 -0.25294602 0.23550966 0.1809604 -0.09879488 0.004069052 -0.2597037
0.12347163 0.5964451 -0.083038285 0.099436514 -0.28265285 -0.19962361 0.2954953 0.46022946
-0.24772784 0.12245224 0.04273204 -0.32397747 0.22009066 0.14411853 -0.14192913 0.16727705
0.30354887 -0.36950585 0.4911838 -0.36154103 -0.18751831 0.5730352 -0.29695004 -0.33527863
0.03786386 -0.0807849 -0.58584094 -0.034096517 -0.15388288 0.29317182 -0.20999916 -0.030982679
-0.0044390983 0.42692304 0.33840254 0.6142542 0.04841005 0.071503125 0.1900739 -0.08913537

weight f4 [24]
00000000: 8a2f 6f3e 6955 6a3e 8d8c 8a3e b7db 863e
00000010: c0fe 713e d0a7 693e 7eda 7b3e b41e 8a3e
00000020: 1c69 6b3e f2ac 853e 53a0 713e 6b04 863e
00000030: 0fb0 683e 0c1b 683e 2642 683e 71b4 693e
00000040: cfbe 853e baea 873e bd93 8a3e 7305 703e
00000050: a7d7 703e c35a 6a3e c37b 883e 301f 583e
0.23357978 0.22884144 0.27060357 0.26339504 0.23632336 0.22817922 0.24595067 0.2697655
0.22989315 0.2610851 0.23596315 0.26175246 0.22723411 0.22666568 0.22681484 0.22822739
0.26122138 0.2654627 0.2706584 0.23439579 0.23519765 0.22886185 0.26656923 0.21105647

weight f4 [24, 24, 3]
00000000: d422 51be b7d3 503d ede3 8abd 08e4 42bd
00000010: 8b90 11be 19d2 7dbe e5f6 db3c ee93 9cbc
00000020: 0b0f bc3e d8f8 b23d 08e7 643e 6a20 0e3e
00000030: 9c37 e4bd 8932 623e ef3d 13be a82c 1b3e
00000040: ae5c 9ebd c71c 8ebe d95e 27be ca48 443e
00000050: b28e b53e 00f0 7dbe b64f 923e a8ce 823c
00000060: e9a5 753c b2ce a1bd b6c8 7ebd ba26 913c
00000070: 7f25 59bd 95fe 003f 9aef 9e3c 9de5 983c
00000080: 2820 80be 3cb8 b5be 1a07 453e 7dbd 683e
00000090: 2bd8 913e d27f 263d 4276 213e d396 13be
000000a0: b7fc 7b3d da21 2bbe 10c6 8abd 1ded afbe
000000b0: 5e2e 2dbe 664f 78be 7269 d9bd f58f 533e
000000c0: 518f babb cf2c 43be 63b1 89bd 6cc6 1c3e
000000d0: b9ad aa3d c5d4 903d 4449 5c3e 03cb 85bd
000000e0: 832e cebe fe6f 5dbe f6eb 663e 9aa4 23be
000000f0: 4519 9c3d 3ca3 f6bd e568 d93d 3790 253d
00000100: 292a 3abd 6adc 9e3d 568f e63d 2578 a63e
00000110: 6153 c6be 0fb0 89bd 5219 353d 425e b1be
00000120: ce4b 723d 5c6e 783e 2b36 d2bd a335 77be
00000130: a02a 7bbe 0c0a 3b3e 2abe b53d a558 5fbc
00000140: eff6 e03d b6fb 94be 8d22 d73d db61 783e
00000150: c07b 28be 972b 70be 70cf 3e3e e256 6a3e
00000160: 907e 8f3d 8e9d d43d c270 b8bd 784c 77bc
00000170: bdda 8fbe 02eb 983d 0aeb 80be 98c3 39bd
00000180: d21e e33d b1c9 c23e 9795 8dbd 6ce1 4fbd
00000190: 6cfe fbbc bed9 9abd 20aa 04bc 24b3 c43e
000001a0: 063c 443e 3602 9dbe 0bfb 443e 4bc2 a9be
000001b0: da8b e4bd 79b5 7abc 579b d7bd e7af 303e
000001c0: b96a 2cbd 5223 143d 1965 a0bd 2ed6 813e
000001d0: a671 3dbc 94a9 903d 9aaa dd3d 00a0 873d
000001e0: a570 c1be f013 0cbe b671 b53d b2e9 113b
000001f0: bdf2 1c3e 4d20 5b3e c559 05bd 88b2 aabd
00000200: d92e 11be 1930 d33e 56be 063d 18bb 933e
00000210: 8f7a 7fbd 7f29 053d d633 31bd d62f 0d3d
00000220: 8aa6 9c3e 62c1 57bd 72ba 2bbe fa64 fdbd
00000230: 6c0e a3bb a267 263e 72a1 b33e 66a9 433e
00000240: 7ebf 10bd 9b5c e03d dd61 5fbe 4c63 21be
00000250: e2e4 113d 63ae 313e 009d 693e c955 a33e
00000260: 5076 ec3d 2875 d13d edd7 2b3e da52 6bbe
00000270: 7376 b1bd af09 903e 08bf d5bc 92d0 643e
00000280: 428a b0bb 269e 233e 22de 0a3e 4c3a 51bd
00000290: 9c40 2f3e ecbf 44be 0ab3 b2be 26b0 03be
000002a0: d0bc f2bd 14d8 e63d 50e1 2dbc 126b 9b3e
000002b0: a94f 0a3e c48b c7bd 814d 343e 5a40 10be
000002c0: a061 e93d 8625 cc3d 7ea3 803e 3485 013f
000002d0: 9d98 bbbb 1606 833d 79b8 3dbe cf38 453e
000002e0: 068b 3a3d dcbd 283e 1fa3 d0bd 10f7 f63e
000002f0: 8fe1 9a3d 0e72 5e3d ce86 d6bd 651f eb3c
00000300: b5a3 e4bc 658b ad3e 78b1 a7bd b382 5dbd
00000310: b4c2 813d d66c 39bd 51bf 9c3d 2a11 13bf
00000320: db22 373e 25c0 02be 83b9 b23e b54a 21bc
00000330: 3ec1 12be fab2 b93b a4e7 c3be 490a 303e
00000340: 9c55 96bc 83b7 783e 3466 2fbe 4562 7dbe
00000350: a0c7 7cbe e685 43be 8052 943e 8538 343d
00000360: 8d88 933d 26af 58be 4d9c cb3e 0a95 9b3e
00000370: 15ac 89be dcbf 46be 1653 a5be aef5 2f3e
00000380: c134 8bbd 6bad 2bbe 87c1 9fbe 30c7 7f3e
00000390: 75eb 993d 457c 423c 639e 5bbe 7684 61be
000003a0: 0a2e 983d ea19 95be 4cb5 cebd 2f31 02bf
000003b0: 4757 083e a7af dbbd 2cb9 cbbd c355 01bd
000003c0: c625 49be 7ddf 2ebe 000b 36be e070 17be
000003d0: 6370 603e b915 5dbe 09c0 bb3d cc5d 55bd
000003e0: 0cc4 9fbd c30a 5f3e ac99 8b3b 2434 bc3c
000003f0: 1716 443e 8e20 82bd 450b c9ba 7e12 29bb
-0.20423442 0.050983157 -0.06781755 -0.04758075 -0.14215295 -0.24787177 0.026851127 -0.019113507
0.36730227 0.087388694 0.22353756 0.13879552 -0.11143419 0.2208959 -0.14379095 0.15153754
-0.07732521 -0.2775633 -0.16344775 0.19168392 0.3546043 -0.24798584 0.2857644 0.015967682
0.014993169 -0.07900752 -0.06220313 0.017718662 -0.053014275 0.5038846 0.01940136 0.018664176
-0.25024533 -0.35492122 0.1924099 0.22728534 0.28485236 0.040649243 0.15767768 -0.14413004
0.061520305 -0.16712132 -0.06776059 -0.3436059 -0.16912219 -0.24249038 -0.10615815 0.20660384
-0.005693354 -0.19060062 -0.06723287 0.15310067 0.08333916 0.070718326 0.21512324 -0.06532862
-0.4026986 -0.21624753 0.2255095 -0.1598076 0.07622007 -0.12042853 0.1061571 0.040420737
-0.045450363 0.077568844 0.11257808 0.32513538 -0.38735488 -0.06723034 0.0442136 -0.34642226
0.059154324 0.24260849 -0.10264238 -0.24141555 -0.24527979 0.18265551 0.088741615 -0.013631974
0.10984599 -0.2909829 0.10504637 0.24256079 -0.16453457 -0.23454128 0.18633819 0.22884706
0.07006562 0.10381614 -0.09005882 -0.015093915 -0.28096572 0.07466699 -0.2517932 -0.04535255
0.11089863 0.38044503 -0.069132976 -0.05075209 -0.030760966 -0.07561062 -0.008097202 0.38417923
0.19163522 -0.3066575 0.1923639 -0.33156046 -0.11159487 -0.0153020555 -0.105276756 0.17254601
-0.042093966 0.036166497 -0.07831783 0.2535872 -0.01156274 0.070635945 0.10823555 0.066223145
-0.37781253 -0.1367948 0.08859579 0.0022264537 0.15326972 0.2139904 -0.032556314 -0.083348334
-0.14178027 0.41247633 0.032896362 0.2885368 -0.06237274 0.032510277 -0.043262325 0.034469448
0.3059581 -0.05267466 -0.16770342 -0.123727754 -0.0049760845 0.1625047 0.3508411 0.19107589
-0.03533887 0.10955163 -0.21814676 -0.15760535 0.03561867 0.1735168 0.22813797 0.31901386
0.11546004 0.10227424 0.16781588 -0.22980824 -0.086651705 0.28132388 -0.026092067 0.22345188
-0.0053875754 0.15978298 0.135613 -0.051080987 0.1711449 -0.19213837 -0.3490222 -0.12860164
-0.118524194 0.112716824 -0.010612801 0.30355126 0.1350695 -0.09743455 0.1760769 -0.14087048
0.113955736 0.099680945 0.25124735 0.50593877 -0.00572498 0.06397645 -0.18527402 0.19259952
0.04554274 0.16478676 -0.10187363 0.4823537 0.07562553 0.05430799 -0.10474931 0.028701494
-0.027910093 0.33895412 -0.08188146 -0.054079723 0.06335965 -0.04526981 0.07653678 -0.57448065
0.1788439 -0.1276861 0.3490716 -0.009844472 -0.14331529 0.0056670876 -0.38262665 0.17191423
-0.018351369 0.24288754 -0.17128831 -0.24744518 -0.24685526 -0.19094047 0.28969193 0.043999214
0.07203779 -0.21160564 0.39767686 0.30387145 -0.268891 -0.19409126 -0.32289952 0.17183563
-0.067971714 -0.16765372 -0.31202337 0.24978328 0.07515613 0.0118704485 -0.21447138 -0.22023186
0.07430656 -0.29121333 -0.100931734 -0.508563 0.13314544 -0.107268624 -0.09947428 -0.03157593
-0.19643316 -0.17077442 -0.17777634 -0.14789152 0.21917872 -0.21590318 0.09167487 -0.052091405
-0.07801065 0.21781449 0.0042602625 0.022974081 0.19149052 -0.063538656 -0.0015338442 -0.0025798376

bias f4 [24]
00000000: 0aae 803d ff10 bebd 7fc1 94bd e11b 133d
00000010: 9d74 9b3d 5c03 973d 8261 743d 27f7 aebd
00000020: 1be7 013d 1b28 b03d f473 313d 803b 893d
00000030: 60c4 983d 1be6 bbbd 23a0 873d fa42 a4bd
00000040: 990e acbd defd a63c a162 92bd 29fb af3a
00000050: c1c3 1cbc 3a1c 4f3d a082 e93c af40 9e3d
0.06283195 -0.092805855 -0.07263469 0.03591526 0.075906016 0.073736876 0.059663303 -0.08543234
0.03171454 0.086013995 0.043323472 0.06700802 0.074593306 -0.091747485 0.066223405 -0.08020587
-0.08401222 0.020384725 -0.07147718 0.0013426292 -0.009568156 0.05056403 0.02850467 0.07727181

weight f4 [24]
00000000: b536 893e 1da8 6b3e f428 6b3e 2de6 893e
00000010: 01b1 863e 78ed 693e 59ca 893e cd61 6a3e
00000020: 785f 6e3e 6ca8 6a3e ffe6 703e 35f8 853e
00000030: 2ca2 893e 1cb8 6f3e b009 8c3e 9838 863e
00000040: 8ef8 873e e60a 863e 793b 6c3e 801e 6a3e
00000050: 7751 853e 6d26 713e 3977 703e 5594 6a3e
0.2679955 0.23013349 0.22964841 0.26933423 0.26306918 0.22844493 0.26912192 0.2288887
0.23278606 0.2291581 0.23525618 0.2616593 0.2688154 0.23410076 0.2735114 0.26215053
0.2655682 0.2618019 0.23069562 0.22863197 0.26038715 0.23549815 0.2348298 0.22908147

weight f4 [24, 24, 3]
00000000: 7c74 ef3d 32bc 893e d504 d9bd fcad cabc
00000010: b972 52be 6866 4a3e a1c1 353d fd51 c6be
00000020: d643 acbd 51dd a63e 86d2 6b3e cedc f03c
00000030: 9fef 1cbe 49b1 213e e154 e7bd 665e 883d
00000040: a399 833e cdff dfbd 33a8 fe3d 3fcb aa3e
00000050: 6051 bf3d 87be dbbd 293f 42be 2812 ff3c
00000060: 7f54 bcbd 501b abba 782d 39bd ab8b 923e
00000070: c3e5 c43d 2c08 c1bd 1ab9 c1bd aa04 61bd
00000080: fd32 963c 90c7 e23d 4d6f 6abe 48c0 463e
00000090: cb11 94bc 946b 173d fe1f 0f3d f254 1dbe
000000a0: d336 cfbd bf77 ee3d 33ce c0bd 3bf3 94bd
000000b0: 9d0f 9bbd 1a05 2f3e 7469 2abd eead efbc
000000c0: 82e0 e73c 1ba7 603d 243c 11bd 42c3 bdbd
000000d0: 6e8b 2b3d 3c9c 1bbd 1ec5 0ebe e8f7 dd3d
000000e0: f349 133e 7dce 31bd 6a2a e0bc 472f 2fbd
000000f0: ca1e 2e3e 1944 6d3e 1600 b23d 2ac7 e33c
00000100: 4b1d 46be 8bd1 053e 7f1b d7bd c10f ec3d
00000110: bbe3 f53d a09c 70be 4237 d23c e846 61bc
00000120: 2623 753e c4f2 11be 4992 593d 4683 713b
00000130: 123b 04be eb38 83bd 5ce4 d7bd ed48 26bd
00000140: 483b 58be 3922 a7bd 8e32 cebd 039a 4d3d
00000150: e135 6ebe 9273 1dbe c2af 50be ad4f 09be
00000160: 0ef4 673c 0835 66be 6cb8 4f3c 6bda 4b3e
00000170: 8b6f 01be e584 b13d 2998 10bd fe37 bcbc
00000180: f976 62bc ba66 e23d a104 2bbe 69a3 36be
00000190: 141d e5bd a92b 83bc c94d b2bd 9181 c03e
000001a0: 3002 6ebc e843 23be 955f 42be 0415 3fbe
000001b0: 3246 3fbc 1683 1f3e 334a be3e dee8 173e
000001c0: ac97 4a3d ae9a 203e 97b2 01be 2157 6abe
000001d0: d265 d7bd 9c91 03bc 8a92 acbd d65e 433d
000001e0: 7d85 09be d654 083e e850 cfbd 820a 3dbc
000001f0: f748 c43e ec49 44be 3d73 c0bc 28c9 d63d
00000200: 3b6d 8d3e c921 3b3d e838 163d c876 1e3e
00000210: ba06 0abe 6951 2b3e f1ff a93d 556d 6b3e
00000220: bc65 c1bd ae06 5ebb 22af 053e 3b01 ed3c
00000230: 402e 953c 800c a3bd 33a5 563e df6f b3bd
00000240: 3614 733c 18dd 3dbc 7ccc 993d daf0 433d
00000250: 7746 86bd 7339 9b3d c834 a3be d401 913d
00000260: 2b26 8dbc 095b 6b3d ebdc ec3c 6364 3d3d
00000270: 7f91 ecbd 92ec d33b 0240 9a3d ef32 90bd
00000280: 230f a8bd 0b0f c9bd 9152 b13d d2d8 933c
00000290: b59a 7f3d 3ef5 aa3c 1688 6cbe 16fc a1be
000002a0: 973e 1cbe 5717 693d c9b7 d2bc 96b0 483c
000002b0: af44 a23e 38f9 1bbc 4c02 c8bd e828 223d
000002c0: 2c64 833e ae09 72be 95ef 81ba 4576 00bd
000002d0: e343 fa3d a8b5 45be 41d4 32be cadc cdbc
000002e0: 49ba 88bd 4d0a 1bbe 0449 843d f75d 2dbe
000002f0: 5c70 763e c5cc 953d 8538 e63d 6e81 983e
00000300: 6028 07bd b732 4e3e a6a2 973d 92b6 db3d
00000310: 2cf5 50bd 3ce9 243d 5cea 8bbe 3b7e 9abe
00000320: 9458 6e3e d482 9f3e 39ac 57be 1ba5 ddbe
00000330: 8c83 d43d 0f50 7f3d d67d 76bd 3325 9f3e
00000340: c931 d33d 7a42 393e cbae 873d 0222 913d
00000350: 7583 53bd 61d2 a33e 33ad 173e 7806 8bbe
00000360: 5b5e 083e 0a5c 98bc d10e 943e 915b ae3d
00000370: f967 6abd 489e 63bd bd0d 943d bffe 7c3e
00000380: f82b a5bd fd6e 04be bf03 65bd 263a ac3d
00000390: 843e 50be d960 a5be 8d4e f6bd 6f8b 8fbe
000003a0: 8aa6 b03d fc3b d1be 8d73 f63b feb0 923d
000003b0: 23c8 c6be 2b12 9bbe de44 4abd c2eb 83bd
000003c0: f8cd b4be 6f2b 2b3e 611d 87be bc8d 7bbe
000003d0: 93ab 91be 284b 803e 40b8 c5be 9ecd a3bd
000003e0: e885 d5bb 19fb 4a3d 38cc 8f3e 1a85 983e
000003f0: eb4a 293d aa57 533e 7a6d c43e e322 c6bd
0.116921395 0.26901394 -0.10596625 -0.024741165 -0.20551576 0.19765627 0.044374112 -0.38734427
-0.08411376 0.32590726 0.23029527 0.029402163 -0.15325783 0.15790285 -0.11295486 0.0665863
0.25703153 -0.10937462 0.12434425 0.3335819 0.09341693 -0.107296996 -0.18969406 0.031136587
-0.09195804 -0.0013054404 -0.045209378 0.28622183 0.09614136 -0.09425387 -0.094591334 -0.05493609
0.01833486 0.1107322 -0.2289402 0.19409287 -0.01807489 0.03696783 0.03494262 -0.15364435
-0.10117879 0.116439335 -0.094143294 -0.07272955 -0.07571337 0.1709179 -0.041604474 -0.02925774
0.028305296 0.054846864 -0.035457745 -0.09265758 0.041881017 -0.037990794 -0.13942382 0.108383
0.14383678 -0.043409813 -0.027363975 -0.042769697 0.17003933 0.23170508 0.08691423 0.02780493
-0.19347112 0.13068216 -0.10503291 0.11526442 0.12006327 -0.23497248 0.025661115 -0.0137498155
0.2393919 -0.14252764 0.053118024 0.0036851927 -0.12913159 -0.064073406 -0.10541603 -0.04059689
-0.21116364 -0.08160824 -0.10068236 0.050195705 -0.2326274 -0.15376118 -0.20379546 -0.134093
0.014157308 -0.22481167 0.012678247 0.19907539 -0.12640207 0.08667926 -0.03530136 -0.022975918
-0.013822311 0.1105475 -0.16700985 -0.17835774 -0.11187187 -0.01601203 -0.087062426 0.3759885
-0.014526889 -0.15943873 -0.18981774 -0.1866036 -0.011674451 0.15577349 0.37165985 0.14834926
0.04946105 0.15684006 -0.12665783 -0.228848 -0.105174676 -0.008030321 -0.084263876 0.047697864
-0.13429828 0.13313612 -0.101228535 -0.01153815 0.38336918 -0.19168824 -0.02349245 0.10487586
0.276224 0.045686517 0.036675364 0.15474999 -0.13479128 0.16730274 0.0830077 0.22990926
-0.094432324 -0.0033878493 0.13055089 0.02893125 0.01821053 -0.079613686 0.20961456 -0.08761572
0.014836362 -0.011588357 0.075097054 0.047837116 -0.06556409 0.07579317 -0.31876206 0.07080427
-0.017230114 0.057459865 0.028913936 0.046238314 -0.11551189 0.0064674104 0.0753174 -0.07040965
-0.08206012 -0.09817322 0.086583264 0.018047724 0.0624034 0.020868894 -0.23098788 -0.3163764
-0.15258251 0.056907024 -0.025722401 0.012249133 0.31693026 -0.009519868 -0.09766063 0.039589792
0.25662363 -0.23636505 -0.000991332 -0.03136279 0.122199796 -0.19307578 -0.17463781 -0.025129694
-0.06676156 -0.15140648 0.06459239 -0.16930376 0.24066299 0.07314447 0.11241249 0.29786247
-0.03299749 0.20136534 0.074040696 0.10728182 -0.051015064 0.040261492 -0.2732724 -0.3017443
0.23275977 0.311545 -0.21061791 -0.43290028 0.10376653 0.06233221 -0.0601786 0.31083068
0.1031223 0.18091765 0.06625136 0.070865646 -0.05163904 0.31996444 0.14812164 -0.27153373
0.13317244 -0.018598575 0.28917554 0.08513559 -0.057228062 -0.05557087 0.07229183 0.24706553
-0.08065027 -0.12932964 -0.055911776 0.084095284 -0.20336348 -0.3230045 -0.12026701 -0.28036067
0.08625515 -0.40866077 0.007521099 0.07162665 -0.38824567 -0.302873 -0.049382083 -0.064414516
-0.35313392 0.16715787 -0.26389602 -0.24565786 -0.28451213 0.2505734 -0.38617134 -0.07998203
-0.006516207 0.04955587 0.28085494 0.29789048 0.041331213 0.2063891 0.38364774 -0.09674623

bias f4 [24]
00000000: 9ae9 a9bd 94a7 173d 7cbf 1d3d fc46 adbd
00000010: b975 30bd 62c4 613d c9d8 963d dd1e b63d
00000020: a6bf e4bd e6a2 273c c92c a73d 8121 58bd
00000030: 5bf9 debd 26d6 8438 1496 babd a4ec 9cbc
00000040: 829a 753d 9234 233d 6a9d 4fbd b311 babd
00000050: cd74 4bbd 94fd 62bd 5b45 0c3b c053 b3bd
-0.08296509 0.03702505 0.03851269 -0.08460805 -0.04308102 0.055118926 0.07365567 0.088926055
-0.111693665 0.010231709 0.08162839 -0.052766327 -0.108874045 6.334139e-05 -0.091106564 -0.019155808
0.059961803 0.039845057 -0.05068723 -0.09085407 -0.049671937 -0.055417612 0.0021403644 -0.087562084

weight f4 [24]
00000000: c888 693e 3dc8 6c3e 3009 733e 7641 8c3e
00000010: f18e 733e db43 6f3e d1d8 843e 0d4f 743e
00000020: 5092 873e 7eda 8b3e ede4 733e 4228 6f3e
00000030: 718e 883e bc90 683e 7151 6c3e 78c8 593e
00000040: fc62 873e 6243 8b3e 28a9 703e 8dd7 823e
00000050: 8837 873e 97e1 703e d933 633e 079a 883e
0.22806084 0.2312326 0.23733974 0.27393693 0.23784997 0.23365729 0.25946668 0.2385828
0.26478815 0.27315134 0.23817797 0.23355201 0.26671174 0.22711462 0.23077942 0.21267879
0.26442707 0.27199847 0.23502028 0.25555077 0.26409554 0.23523556 0.22187747 0.26680014

weight f4 [24, 24, 3]
00000000: e447 cc3d 92f7 1f3e 2872 08ba 01bc 50bb
00000010: 501b 2d3e 4f44 2aba af9a b93e 92a6 983d
00000020: 771e 40bd e2fd 2dbe d92c 253e 6fe0 0cbe
00000030: d040 1d3e c46c d33d 965a 21bd 1389 bc3d
00000040: 3a34 793e 2d9a b33d 9f2f 5e3d 17ad 5ebe
00000050: 77f4 453d 1b52 5cbe 33c9 6a3e b4fa 9abc
00000060: 6812 29bd c34f 6cbe 1031 423d d568 8c3e
00000070: 577d 5b3e f144 0dbe 1265 3cbe 8f08 423d
00000080: 8c92 35bd 777c c93c 0b2d 313e 7879 0a3e
00000090: 7e32 fcbb 7c27 c7bd 0c99 a0bb f4ba d8bc
000000a0: 6fc1 133e c964 153e 5ccf 3fbc 8f60 cd3d
000000b0: 1302 2c3e 8938 b83e f13c e43d 2141 c63d
000000c0: 4227 b4be 9002 683e adad 8e3d 5dd6 2a3e
000000d0: e628 6cbe b777 203e b5da 803d aab8 203d
000000e0: 43b9 3b3d 0f94 a03d dac5 73be 011e 34bd
000000f0: 1cd7 8f3c 8ef3 093d 1251 4ebe ecbb e63d
00000100: 8e87 913e a624 21be 9b69 bfb9 09db 3fbe
00000110: eb4e 823d 75e4 db3d 82a8 ad3e b150 4b3d
00000120: b739 b13d 9769 d2bd 8992 6ebd 5e03 d9bd
00000130: 6069 45be 0c28 2dbe 0fcb 233e bd46 9abe
00000140: b109 23be 1e95 793e e174 18be 2f2f 703e
00000150: b49c 2e3e 285d ae3e 55d1 743b a816 04be
00000160: e9a0 a43d debf 98be 2d38 8f3d 885c 93bd
00000170: cb4c 3e3e 2b5c 733d 7103 3a3c 2c53 cfbd
00000180: 041c 0bbd 4207 0cbc 124e ae3e 6636 cebc
00000190: 6eb3 843d b903 5f3e 4d3c 25be daed 31be
000001a0: 1c09 1cbe 23de 10bd bf26 92bb 731b efbd
000001b0: d8bd da3e aa7a 14be 6ccf ec3c da36 843c
000001c0: 71af 71be 357a 29bd 1935 c9bd 0a6d 92bd
000001d0: afad aebc 6ea1 f1bd 80fc b33e e294 0e3f
000001e0: 5160 18bc e867 3ebe 4f47 893e 552a 0b3f
000001f0: c9ef a3bd c2b3 a33e a45f 2a3e 15da 063e
00000200: bb4a 7d3e fb9f 65bd 2e2d afbc 3b11 553d
00000210: 8d7f 033e bd5f 293d c804 85be e217 263d
00000220: 33ef 31bd 76e5 493d 0ed5 883a f50f e4bc
00000230: 10c8 873d 4171 5dbd 3d22 9e3b 6c13 85bd
00000240: 6cec 0abe 59bd abbd fc8d 903e 681b 533e
00000250: 8f4e d73d 7157 2abe c8da 23be 648b 683e
00000260: 0454 8dbd 3c8a 423e 0b35 8e3d 9cf1 323e
00000270: ec58 b7be 1905 f13d 2fc4 90bd 8471 193e
00000280: f895 a13c 2dca 2abe 0917 363c 7af2 9abd
00000290: 34c6 053e bd8a 85bc bed3 483d 6727 16be
000002a0: c0b6 4c3e 5206 383e a261 863d bffa 233e
000002b0: 43ac e9bb 0107 1c3e 95c8 e1bb 0c71 373c
000002c0: 8000 d13d 99ed b73e a9e6 00be a70d 65bb
000002d0: 3113 943d c2b3 9c3d 7f68 8ebd 72ae 693e
000002e0: 0b04 58bd ba24 05be c075 98bd bf90 de3d
000002f0: 4829 6e3e 8d22 72be e883 ba3e 8b4a 98bd
00000300: 6482 593e 6ae7 433e a495 1ebd ee30 013d
00000310: 4c2b 13be 5026 5d3d 7d62 29be a97b 42be
00000320: 5680 623e bdfe 613d 9ef6 0abd 0e46 973e
00000330: 2ed8 3e3e 755e 5cbd dd90 3e3e a3fa 3c3e
00000340: b8fd 6d3d 0a77 ea3d 09ca d0bd 9284 38be
00000350: 602c 0f3e 0097 9b3d a591 093d a0d5 a13c
00000360: 13a3 353e 5b44 583c 6d51 ca3e 115b 29bd
00000370: e03b 33be 48ab 193d 66e7 9a3e 1e85 7fbe
00000380: 31db 123e 46ed c6bd 6df3 1ebd 8ef2 f1bd
00000390: 043f 27be d373 6d3d 4e25 703c b9db 223b
000003a0: 0c8b 113d dc28 d03d feda 893e dec3 14bc
000003b0: 870a 7fbe 9fbe 7a3d 1b3e 983e 8c56 e6bc
000003c0: da3d 303c 8012 17be 45f1 553d d0f0 f43d
000003d0: 6a1f b0be df9d 613d 7c55 883e 9515 723e
000003e0: b412 2c3d d848 2b3d f813 b73d 551e 813e
000003f0: d5e7 c2be 8fba b6bd 2db4 9ebc 47df eebd
0.099746495 0.15621784 -0.0005204999 -0.003185034 0.1690495 -0.0006495164 0.36250827 0.07453646
-0.046904054 -0.1699138 0.1613039 -0.1375749 0.15356755 0.1032348 -0.03939303 0.09205832
0.24336329 0.08769641 0.054244634 -0.21745716 0.048328843 -0.21515696 0.22928314 -0.018918373
-0.04127732 -0.23077302 0.04741007 0.2742373 0.21434532 -0.1379583 -0.1839793 0.047371443
-0.04432921 0.024595482 0.17302339 0.13522899 -0.007696449 -0.09724328 -0.004901057 -0.026456334
0.14429258 0.14589228 -0.011707153 0.10028183 0.16797666 0.35980633 0.11144436 0.09680391
-0.351862 0.22657228 0.0696672 0.16683336 -0.23062477 0.15670668 0.06291715 0.03923861
0.045830976 0.0784074 -0.23805943 -0.043973926 0.017558627 0.033679537 -0.20148113 0.11266312
0.28423733 -0.15736637 -0.0003650904 -0.18735899 0.06362709 0.10736934 0.33917624 0.0496375
0.08653586 -0.10274046 -0.058245216 -0.10596345 -0.19278479 -0.16909808 0.1599543 -0.30132094
-0.15921666 0.2437329 -0.14888336 0.23455499 0.17051965 0.34055448 0.0037356217 -0.12899268
0.08038504 -0.29833883 0.069931366 -0.07195383 0.18583982 0.05941407 0.01135336 -0.10123286
-0.033962265 -0.008546652 0.34043938 -0.025172424 0.06479536 0.21778764 -0.16136284 -0.1737589
-0.1523785 -0.035368096 -0.0044601853 -0.116751574 0.42722964 -0.14499918 0.0289075 0.016139437
-0.23602082 -0.04137631 -0.09824581 -0.07149704 -0.021323053 -0.117983684 0.3515358 0.5569593
-0.009300307 -0.18594325 0.26812217 0.5436147 -0.0800472 0.31973082 0.16638047 0.13169129
0.24735539 -0.056060772 -0.021383848 0.052018385 0.12841626 0.04135107 -0.2598021 0.04055012
-0.04344101 0.049291097 0.0010439472 -0.02783964 0.06629956 -0.054063085 0.004825859 -0.06497845
-0.1356675 -0.083857246 0.28233325 0.20615923 0.10513031 -0.16634919 -0.16001427 0.22709423
-0.0690079 0.18998045 0.06943711 0.17474979 -0.3581003 0.117685504 -0.07068669 0.14984709
0.019724831 -0.16678686 0.01111389 -0.0756578 0.1306389 -0.016301507 0.049030058 -0.14663468
0.19991589 0.17971161 0.06561591 0.16013621 -0.007131131 0.15237047 -0.0068903663 0.011196386
0.102051735 0.3592346 -0.1258799 -0.0034950764 0.07230223 0.076514736 -0.06953525 0.22820452
-0.05273823 -0.13002291 -0.07444334 0.10867452 0.23257935 -0.23645993 0.3642876 -0.07436093
0.21241146 0.19131246 -0.038716927 0.031540804 -0.14371985 0.053991616 -0.16541477 -0.18992485
0.22119269 0.055174578 -0.0339266 0.29545635 0.18637154 -0.05380102 0.18609948 0.18454985
0.058103293 0.11448486 -0.10194785 -0.18019322 0.13981771 0.0759716 0.033586163 0.019755185
0.17737989 0.013199891 0.39515248 -0.041346613 -0.17503309 0.037516862 0.30254668 -0.24953124
0.14341427 -0.09713225 -0.038806368 -0.11813842 -0.16332632 0.057971787 0.014657332 0.0024850203
0.035532996 0.10164043 0.2692489 -0.0090799015 -0.2490636 0.061216947 0.29734883 -0.02811744
0.010756934 -0.14753151 0.052232046 0.11959994 -0.34398967 0.0550822 0.2662772 0.23641045
0.042010024 0.041817516 0.089393556 0.25218454 -0.380675 -0.08922302 -0.019373024 -0.116636805

bias f4 [24]
00000000: 38c7 bb3d 351a 033d 3b46 7abd e07e 64bd
00000010: 312b 1d3c 90a4 17bd 8cc8 993c 2e2c ae3d
00000020: 336e 403d 9c5b 0b3d 18e2 83bd 9ae4 6fbd
00000030: 5cdc 3abd 9790 99bd efcd b9bd 6f4e 02be
00000040: 6a29 523d 31fa 7a3d dfcd 893b 0714 20bc
00000050: 5845 7a3d 1058 bf3c 3f5e 0cbc 6a0b 203d
0.09168857 0.032007415 -0.061102133 -0.05578506 0.009592817 -0.037022173 0.018772386 0.0850452
0.046980094 0.034022912 -0.06439608 -0.05856762 -0.045620307 -0.074982814 -0.09072482 -0.12725233
0.051309027 0.061273757 0.00420545 -0.0097704 0.061101288 0.023357421 -0.008567392 0.039073385

weight f4 [24]
00000000: 990b 6b3e 6208 713e 4359 743e 3eef 793e
00000010: 1cd1 903e cc29 813e cc9f 823e 2f59 6c3e
00000020: c92f 8a3e 69c7 703e 1162 733e 1728 743e
00000030: 90ec 873e f47a 6b3e 61b9 883e e69a 6f3e
00000040: 6d20 733e 41ca 6a3e df8e 723e 2ab5 883e
00000050: 42f8 873e 3742 6b3e 8146 723e 2bea 8a3e
0.22953643 0.23538354 0.23862176 0.2440767 0.28284538 0.252272 0.2551254 0.23080896
0.26989582 0.23513569 0.23767878 0.23843418 0.2654767 0.22996122 0.26703933 0.23398933
0.23742838 0.22928716 0.23687313 0.26700717 0.26556593 0.22974478 0.23659708 0.2713178

weight f4 [24, 24, 3]
00000000: 63cc ddbd 369b cfbd bec9 c8bd c4d3 033c
00000010: 7842 87be 7be5 82be 9600 8d3d 5451 1e3d
00000020: fd1d 1b3d 9158 f03d 5c4e 59bd bc15 62be
00000030: e277 3fbe b6e0 5cbe e742 4c3c 3f45 60be
00000040: 61bc 7c3e 0aa9 613e 90fa b6bd 2246 e63d
00000050: 89cb 093d 3808 253d 24f6 643d 648b 003e
00000060: 1d4c a2bd 9d47 873e 6200 703d 677c 01bd
00000070: 24d9 9f3d 8be8 84be 6b66 0a3e 2a3c 6cbd
00000080: ea1a 813c eda7 21bd e019 67be a8d7 9e3d
00000090: 2e3e 17bd 82e7 6b3e c4bb 853c 5218 58bd
000000a0: 1317 9e3c 1bfc 93bd a764 f8bd 5677 89be
000000b0: dab8 84bd 4459 a4bd 98d4 00be 0376 fb3d
000000c0: 6c50 34be 1670 a2bd 4410 a73c 9ca8 a9bd
000000d0: 110a d23d 206b 20be e90e f33c 83ba 4e3e
000000e0: 9cda dbbc 170d e83c 05ef d63d 9df9 013e
000000f0: 9862 8cbe a3d1 0b3d 99e2 493d 862b 853c
00000100: a0dc 84bc 24fe 94be 5f60 a53c 61a7 c8bc
00000110: 08c2 8b3e c769 563d 4769 703e d2ea 1cbe
00000120: 8a2b 263e 4857 1abd c2ed 9bbd 3580 0bbe
00000130: 86c6 403e 565a 413c b9bf 15be 819a 163e
00000140: fa5b e2bd c2c6 95bd 9fe5 1f3e 8940 a1be
00000150: 9a0e b43e e7c9 b93d 7a3b 76bc 81e7 803d
00000160: 83cc dc3d 5244 983e 442d 083e 9a87 cbbd
00000170: fde4 803e bb5d 1f3e b6b8 abbb 681d a4ba
00000180: 11f5 df3b 5423 f23b 38d6 863d 1ab1 bc3d
00000190: d94e fdbd 5710 ccbd 9db7 013d e8c5 c63e
000001a0: ecd2 ba3d 5b9c 013e c201 74be 9054 5e3e
000001b0: 39cd 8abe a607 743e 25ab acbc ed19 a13d
000001c0: 7ff0 cebd 2b44 8fbe b49a e8be 79d3 f0bb
000001d0: 3039 c9bc 6aa8 df3e 8ada 6ebd 4460 f8bd
000001e0: b7e6 36bd 4c15 893e 892e b7bc 50ed c5bc
000001f0: 7aba 38be 53e3 103d bc7f 3ebe 2db9 60be
00000200: eead 84be 61a7 9bbd 3027 073d e403 273b
00000210: 0244 e3bd 0d2f 4d3d d9d9 d13c 57b3 743e
00000220: e185 c63c 3d2c aa3d d2ce fa3d 74bd a8be
00000230: 80dc 33be a797 e33d 0c74 26be db89 433d
00000240: cb9c 243e ec8f 95bd fe62 4dbc c8f4 c7bd
00000250: 428d 233e d3a7 f1bd 9f30 95be d9c3 273c
00000260: 3b82 4e3e d0b7 8abe 94e7 6fbd 7e30 a3be
00000270: d324 593d 29a3 9c3d 944a 403e f302 433e
00000280: f04b 453d 5540 edbd bd0b a83d 978c bbbe
00000290: de90 b0be ca66 b0be 6177 3ebc 7a2f a4bd
000002a0: 5d18 0cbe 9ade 8a3d 1e70 bdbd c071 c9bd
000002b0: 5893 8e3e 6557 e6be e8a8 06be c4d7 b0bd
000002c0: 91af f53d c970 e43d d209 c83e afe6 f23b
000002d0: afae a9bd 725e 693d 6ec5 38bd c94e 49be
000002e0: 6b38 1abe 4b9b dc3d ecae 403d 5655 38bd
000002f0: 2b82 d43d 72df 793d 2afc 8f3d 081a e6bd
00000300: b150 b33d ce63 913e 3659 873b 41f2 903b
00000310: a68e 3bbd f2c1 aebe fed7 3d3d eb12 16bd
00000320: ea50 1ebe f780 b83d f86f 4a3e 43a2 07be
00000330: a94e 6abe 71a9 cebc ce41 76be ea5f edbd
00000340: 71e0 013e 57b5 94be 8031 413e ffdb 9f3e
00000350: a531 a5bd 4e51 813e 2425 a8bd 71f8 0f3e
00000360: 16cd 99be 3048 393e be45 533e de97 aa3d
00000370: cd63 1cbe d9d2 493d 3671 53be a362 373e
00000380: 7ed4 e13c fbc0 12bd 772c 17bd 78a6 673a
00000390: 29b5 53bd b56b f33c 840a 713e 57f6 613e
000003a0: 2556 473e 2fcb 563c 058a 78bd b680 4d3b
000003b0: 73fc 913d 7645 82bd 78fd 983c 8550 74be
000003c0: e6ff 9fbe 46c9 1e3e 48aa 86be 5c3b bf3d
000003d0: 5bce 63be 2172 84bd 624d a63c cb71 943e
000003e0: cc72 3c3e 237d 3b3e 58c2 043f 8dea 023e
000003f0: 5cca 93be f54c a5bd 435b 5d3e 650b 793e
-0.10829999 -0.10137026 -0.09804104 0.008046094 -0.264179 -0.25565705 0.068848774 0.03865178
0.037870396 0.11735643 -0.053053245 -0.22078604 -0.18698075 -0.21570095 0.012467123 -0.21901415
0.24681236 0.2203714 -0.0893451 0.112438455 0.033641372 0.04029104 0.0558988 0.12553173
-0.07924674 0.26421824 0.058594115 -0.03161278 0.07805088 -0.25958666 0.13515632 -0.057674564
0.015759904 -0.039466787 -0.22568464 0.07755977 -0.036924534 0.23037532 0.016324885 -0.05275757
0.019298112 -0.0722582 -0.12128573 -0.2684886 -0.0648057 -0.080248386 -0.12581098 0.12278368
-0.17608804 -0.07931535 0.020393498 -0.08284113 0.10255826 -0.15665865 0.029670196 0.20188336
-0.02683764 0.028326554 0.10494808 0.12692876 -0.2741897 0.034135472 0.049288366 0.016256105
-0.016218483 -0.29100144 0.020187555 -0.024493875 0.27296472 0.05234697 0.2347766 -0.15323952
0.16227546 -0.037680894 -0.07613708 -0.13623126 0.1882573 0.011801323 -0.14623918 0.14707376
-0.110526994 -0.07313301 0.15614937 -0.3149455 0.3516739 0.09071713 -0.015028829 0.06294156
0.10781195 0.29739624 0.13298517 -0.09937973 0.25174704 0.15563099 -0.005240525 -0.0012520971
0.006834634 0.0073894653 0.06583828 0.09213467 -0.123685546 -0.09964054 0.031669248 0.38822865
0.091222614 0.12657301 -0.23828796 0.21711946 -0.27109697 0.23831043 -0.021077702 0.07866273
-0.10104465 -0.27981696 -0.4543053 -0.0073494283 -0.024563402 0.43683177 -0.058313884 -0.12127736
-0.04465362 0.2677406 -0.022361057 -0.024161011 -0.18039885 0.035373043 -0.18603414 -0.21945639
-0.25913948 -0.07600284 0.032996356 0.0025484497 -0.11096956 0.0500937 0.025616573 0.23896538
0.02423376 0.08309219 0.12246479 -0.3295704 -0.17564583 0.1111291 -0.16255206 0.04773889
0.16075437 -0.073028415 -0.012535809 -0.09763485 0.15971854 -0.11799588 -0.29138657 0.010239565
0.20166866 -0.27093363 -0.05857046 -0.31872934 0.053013634 0.07648308 0.1877845 0.19044094
0.048168123 -0.11584536 0.08205364 -0.366307 -0.34485525 -0.34453422 -0.011625142 -0.08016868
-0.13681169 0.06780739 -0.092499 -0.09836149 0.2784679 -0.44988552 -0.1315037 -0.08634904
0.11996377 0.111543246 0.39069992 0.0074127535 -0.082852714 0.056974836 -0.04511016 -0.1965896
-0.15060584 0.10771807 0.04704182 -0.045003258 0.1037639 0.06100411 0.07030518 -0.11235434
0.08755625 0.28396457 0.004130508 0.00442341 -0.045790337 -0.34132344 0.046348564 -0.036639135
-0.15460554 0.09008973 0.19769275 -0.13245492 -0.22881569 -0.02522728 -0.2404854 -0.1159056
0.12683274 -0.290446 0.18866539 0.3122253 -0.080661096 0.25257343 -0.08210209 0.14059617
-0.3003928 0.18093944 0.20632073 0.083297476 -0.15272446 0.049273346 -0.20648655 0.1790872
0.027567144 -0.03582857 -0.03690764 0.00088367565 -0.05168644 0.029714445 0.23539168 0.22066627
0.19466455 0.013109966 -0.0606785 0.0031357235 0.07128229 -0.06360905 0.01867555 -0.23858841
-0.31249923 0.15506467 -0.2630179 0.09337494 -0.22246687 -0.06467081 0.02030057 0.28993067
0.18403167 0.18309455 0.51859045 0.12784787 -0.28865325 -0.08071319 0.21616845 0.24320753

bias f4 [24]
00000000: 8123 883d 3c12 093c 1ce0 adbd c8ab 1dbc
00000010: e6dd 463d 2a8c debd 350f fd3b 7acc 01bd
00000020: 9f1d 64bd 6702 583c c7da 8fbd f616 ad3d
00000030: 9982 8f3d 0732 62bd bab6 3dbd 0a35 91bd
00000040: 5cf2 51bd 2474 91bd e011 3abd 5823 823d
00000050: 06a9 8b3b 548e 923d 626a 6a3d c5a6 ef3d
0.06647397 0.008366164 -0.08490011 -0.009623475 0.048551463 -0.10866578 0.00772276 -0.031689145
-0.05569231 0.0131841665 -0.0702415 0.08451645 0.070073314 -0.05522349 -0.04631684 -0.070901945
-0.051256523 -0.0710223 -0.045427203 0.063543975 0.0042620925 0.07156053 0.05723036 0.11701731

weight f4 [24]
00000000: a55d 853e ba11 723e 5513 863e 1647 733e
00000010: e968 713e 5a36 6a3e e59b 833e 59b4 723e
00000020: 3df1 773e af64 743e 0901 6a3e 461f 813e
00000030: 34fc 863e bb52 743e b64d 8a3e cbdf 6b3e
00000040: dbb2 853e ea21 8a3e e837 863e 78f8 6b3e
00000050: 0b48 693e 5419 7f3e a08b 713e 223c 6e3e
0.26048008 0.23639575 0.26186624 0.23757586 0.23575176 0.22872296 0.25704876 0.2370161
0.24213119 0.23866533 0.22851957 0.25219172 0.2636429 0.23859684 0.27012414 0.23034589
0.26113018 0.26979 0.26214528 0.23044002 0.22781388 0.24912006 0.23588419 0.23265126

weight f4 [24, 24, 3]
00000000: 3479 5dbd 56e0 0b3e 3fc8 0ebe e245 513e
00000010: bac9 f6bd 3521 23be a5ba 9c3e 4eed 89bd
00000020: 0220 7ebc 73cb 3a3d 1130 84bd 775a 28be
00000030: cfbf 133e 4694 57be 561e 12bd c456 253e
00000040: ebe2 31be 33d5 e33c d39e 3dbe 1e7b 0fbe
00000050: 6ee9 acbd d6e4 8a3b 65d7 d43c 240c 0cbe
00000060: 2a0e 82be 25f6 46be ae56 f2bd 46dc 053e
00000070: ce49 993e 081a a5bd dd5e 603e bd07 33be
00000080: 6692 863d 4635 24bc fda7 e5bd 7d72 013e
00000090: 670b 9ebe 4563 833d 3f0a c23d a42e 59bd
000000a0: a4c7 41be 4394 64be e4f7 813d cf3f 8dbe
000000b0: 7443 0c3e d88d 10bd 0b64 b9bb 0f78 8d3e
000000c0: 38de f83a 1bef f23d 1b83 96bd 7adf 92be
000000d0: 7897 163b fa04 783e 6cb4 993e 91a1 ef3d
000000e0: ab3f 213e 3210 d33d 21a1 c33d 359a 793e
000000f0: 04b8 35bc 27ac 833b 13f5 34be 17d7 8d3e
00000100: 3e3b 99be 0ff1 2f3e 1842 27be 819c 6c3d
00000110: a4b9 2a3d a597 053e 29c1 e03a bfaa ae3d
00000120: fe07 83be 1baf 673d 61aa cabc 2dfa 3cbe
00000130: 6c1c e5bd d7e6 7f3e c450 153d 9058 f13d
00000140: cc89 5e3e cde7 1c3c fc60 bbbd db9a 49be
00000150: 4bba 50be 0db7 7a3e ba8e d3bd f743 333c
00000160: 3148 84be 7269 2e3d 710c 953d 5ae8 cb3d
00000170: ee48 14be ad57 583c 0bad 0ebe bd62 9dbe
00000180: 1741 b1bd 6d01 3abd 4515 aa3d e555 cebd
00000190: f72b 33be 843f 483e 20f9 913e 05ac 193e
000001a0: c8cf d8bd ea69 1cbd 119a 9bbe bbad 5d3d
000001b0: 7fb9 413c 8e90 e83d 1a73 2abe ad8f dfbd
000001c0: f88e 543d 8036 cabd e03d 9d3e 285e 343d
000001d0: 6797 61be e0f5 f33d 57c8 b13d 4137 16be
000001e0: bfdf 5bbd 1f85 e3bd 2271 b0bd 83b7 4ebd
000001f0: fa6b 79be 326a b43e 5b19 6e3d 9de0 02be
00000200: ed37 e43c 7093 8bbe 5844 dbbd 315a 863d
00000210: 6287 863e 8296 653d 2830 e0bd 1e29 5abe
00000220: 3deb 343e 80ee df3d d692 1fbe 7e5a 0f3e
00000230: ead4 8c3e 1751 28bd ffae ea3d cea6 87bd
00000240: 6193 8cbe d9e4 45bd 53c4 28bd 395b 993d
00000250: b514 8ebe 0d8f e33d eae6 963e 48eb 5bbd
00000260: 13dd aabe 51c1 ea3c 9701 05be 7822 803d
00000270: 2ca3 debd 8b77 723d 859f 2d3d b78a 033e
00000280: ada1 043e 20f4 46bd b52c 55be 19a1 e83b
00000290: d402 db3d 828d a0bd ac6b 45be 2628 0cbd
000002a0: 0932 023e bd4c 553e ff21 c0be 1567 6d3e
000002b0: cfe4 15be 6725 a63d 5dd3 f3bd 1cda f33d
000002c0: 1a8f e3bc effb e93d 7744 3b3d 51f3 7abd
000002d0: 0492 ecbd 2bb9 c83b 275d b6be 1f64 3e3b
000002e0: 3a4a 1c3e aa8d 2ebe c36e 05be e144 313e
000002f0: d18a c93d 13c0 543e 690f 863d 7ce6 88bd
00000300: 3907 26bd a57a 103e 180f d33d cbec b83d
00000310: e4da 583d 0bde e93d 64ce 633e a5b4 2c3e
00000320: 5a9e c33d 9531 15be 2cab 363d cb2f cbbd
00000330: ff3a fcbd 4aaa 853d c80a 6d3d fe07 12bd
00000340: 5e9a a2bd 1c19 c73d 4569 dfbe 3d30 163e
00000350: 9be5 71be d84b 8d3d d544 d03d 7e55 93be
00000360: 841a 133d 27a5 9f3d 29c0 03be 0215 103e
00000370: f2e0 293e e21b 163e 4814 493d 3484 083e
00000380: e61d 45be c397 ca3d 8039 1f3e 56c5 91be
00000390: 2ca2 b73d 1457 503c 44bc 55bd 9da0 1b3d
000003a0: 3661 3d3d 4f6e bebd 3128 f4bd e02b 0a3e
000003b0: a247 2abe cacd 1d3e 1b40 493e c6f1 023c
000003c0: 977d 783e c4da afbe 676e d9be b6fe 14bd
000003d0: 0fcc 50be 8cdc 47be 6930 fabd bdce bb3e
000003e0: a726 02be af12 993d bc8b 1e3e 65f0 75bd
000003f0: fc93 143e 2595 66bd 8cec 053e fd34 f53d
-0.054070666 0.13659796 -0.13943575 0.20436814 -0.12050195 -0.15930636 0.30611148 -0.067347154
-0.015510561 0.04560418 -0.064544804 -0.1644076 0.14428638 -0.21052656 -0.03567346 0.1614638
-0.17371719 0.027811622 -0.18517618 -0.14011809 -0.08442961 0.004238705 0.025981614 -0.13676506
-0.2540143 -0.19429834 -0.11832939 0.13072309 0.2993912 -0.08061606 0.21911187 -0.1748342
0.06570892 -0.010022467 -0.11213682 0.1264133 -0.30868074 0.064154185 0.094746105 -0.053022996
-0.18923813 -0.22322182 0.063461095 -0.27587745 0.13697606 -0.035291523 -0.005657678 0.2763066
0.0018987125 0.11862012 -0.07349225 -0.28686124 0.0022978466 0.24220648 0.30020463 0.11700738
0.15746944 0.103058234 0.09552217 0.24375232 -0.011091236 0.004018325 -0.17671613 0.27703163
-0.2992801 0.171818 -0.16333807 0.05776644 0.041680947 0.13046129 0.001714741 0.08528661
-0.25592035 0.056563478 -0.024739446 -0.1845481 -0.11187062 0.24990402 0.036453977 0.1178447
0.21732253 0.00957675 -0.09149358 -0.19687979 -0.20383565 0.24483891 -0.10329957 0.010941497
-0.25836328 0.04258103 0.07277764 0.09956427 -0.14480945 0.013204497 -0.13933198 -0.30739394
-0.08654993 -0.045411516 0.08304838 -0.10074977 -0.1749724 0.1955548 0.2851038 0.15007026
-0.10586506 -0.038186945 -0.3039098 0.05412076 0.011824011 0.113556966 -0.1664547 -0.10916076
0.051894158 -0.09873676 0.3071127 0.044035107 -0.22030412 0.11912131 0.0868079 -0.14669515
-0.053680178 -0.11109375 -0.08615328 -0.05046798 -0.24357596 0.3523727 0.05812965 -0.12780996
0.027858699 -0.27260923 -0.10706395 0.065601714 0.26275164 0.05605174 -0.10946685 -0.21304747
0.17667861 0.10934162 -0.15583357 0.13999364 0.2750619 -0.04109296 0.11459159 -0.06623612
-0.2745619 -0.04831395 -0.041202854 0.074881025 -0.27750173 0.11111269 0.29473048 -0.05369118
-0.3337179 0.028656634 -0.12988888 0.062565744 -0.10870966 0.059196036 0.042388458 0.12845884
0.129523 -0.04857266 -0.20817836 0.0070992825 0.10693899 -0.078394905 -0.19279355 -0.034217976
0.127144 0.20830055 -0.37525937 0.23183854 -0.14638065 0.08112603 -0.11905549 0.119068354
-0.027778197 0.11425006 0.04571959 -0.0612672 -0.11551288 0.0061255894 -0.35617945 0.0029051376
0.1526269 -0.17046228 -0.13030533 0.17311431 0.0984093 0.20776395 0.06545908 -0.066845864
-0.04053423 0.14109285 0.10305613 0.0902954 0.052943125 0.114193045 0.222467 0.16865785
0.095516875 -0.14569695 0.044596836 -0.09921225 -0.1231594 0.06526621 0.05787161 -0.035652153
-0.079395995 0.09721586 -0.43635002 0.14666839 -0.23622744 0.06899232 0.10169379 -0.28776163
0.03591396 0.07795172 -0.12866272 0.14070514 0.16589716 0.14659074 0.049091607 0.13331681
-0.19249687 0.098922275 0.15549278 -0.28470868 0.08966479 0.012716074 -0.052181497 0.03799497
0.046235286 -0.092983834 -0.119217284 0.134933 -0.16628888 0.15410534 0.1965336 0.007992214
0.24266659 -0.34346592 -0.42467043 -0.036375724 -0.20390342 -0.19517726 -0.12216265 0.36681166
-0.12710057 0.07474267 0.15482992 -0.06004371 0.14509577 -0.05629458 0.13078517 0.11972997

bias f4 [24]
00000000: 2c5a 54bd ec4e 873d 13bf babd 9002 3a3d
00000010: 73c2 adb9 cfde bd3d 489b 8d3c 7b00 d1bd
00000020: b61e ffbc 9076 b6bd 56b2 d73c e5ec bd3d
00000030: 22f7 f3bd 3218 f33c a24f 11bd b760 ec3c
00000040: baca af3d 6920 38bc 4472 6bbc 86df c83d
00000050: 8d59 0a3d 0770 4bbd 7a72 613c cae1 41bd
-0.051843807 0.0660685 -0.09118476 0.0454126 -0.00033142007 0.09271013 0.017285958 -0.1020517
-0.031142574 -0.08909333 0.026330154 0.092737 -0.11912371 0.029674623 -0.035476334 0.028854711
0.08583589 -0.011238196 -0.014370505 0.09808259 0.03377681 -0.049667384 0.0137602035 -0.04733447

weight f4 [24]
00000000: fe0c 873e 6614 8b3e cdaa 723e 2c73 703e
00000010: 4251 883e 041f 6f3e 95d8 6b3e cae7 793e
00000020: 8470 853e b1f7 893e f951 6b3e f88e 863e
00000030: 5b19 8a3e fbac 863e 9320 873e daa7 8a3e
00000040: 29e9 863e 94db 6b3e 06cf 843e 2f6d 723e
00000050: 3ad8 703e 0865 6d3e e79a 873e 26c6 613e
0.263771 0.27164 0.23697968 0.23481435 0.26624495 0.23351675 0.23031838 0.24404827
0.26062405 0.26946786 0.22980489 0.26280951 0.2697247 0.2630385 0.2639204 0.27081186
0.26349762 0.23032981 0.25939196 0.23674463 0.23519984 0.23183072 0.2648537 0.22048244

weight f4 [24, 24, 3]
00000000: 99ec 08bd f893 fb3d f86e 373d b0d9 babd
00000010: 34ab 933c faf9 813d 2dfc 31bc 365b b1be
00000020: 5476 ed3d 529e 4d3e 87dc 20bc ce57 abbd
00000030: d014 88bd 2037 ce3d 5432 093d 1bff 343d
00000040: 2e60 8a3c b0f4 8e3e 2f79 08bd ad69 f33d
00000050: 848d 43bd 4dd3 84be 70bf 29be a72a 6dbd
00000060: 9479 2abe e50c 03be b268 12be 8565 973d
00000070: 67c4 ef3d 6f85 7c3b d38e 103d 854e 0cbd
00000080: 2f8e 7cbd 2ef3 313d 42a8 973e 3340 2ebe
00000090: ba9d 983e 3df4 6fbe 078b e73d 5674 d0bc
000000a0: b546 153e 62f7 22be 9bbb 443d 271f f13c
000000b0: 8cb0 673d b42e 24be 5e0a 71bd ffa7 29be
000000c0: a3bc 793e 116f ad3e c247 4dbe fded 84be
000000d0: f9d9 883e f769 90bd 7c63 14be cabb fa3d
000000e0: 93a2 ce3e a755 4bbb 807b 09bd 61a9 1d3c
000000f0: 906a ec3d 98de a33d c109 25be 58d5 5e3e
00000100: fcd7 413e 8daa 39bd 5943 8bbd ff0c 463c
00000110: 0549 8dbc 97ee 163e ae26 233e 4dc4 9d3c
00000120: 147a 4abd cbde 6b3e 6956 02be eab3 e93d
00000130: 3256 16be 247e 503b 14bf ae3d 9feb d73e
00000140: d0d2 813c 3534 3cbd 89c3 063e 74c4 82be
00000150: 6bc7 a33c db69 6dbe d26f 84bd bbff 1b3d
00000160: ef76 4cbe c847 38be 0cdb ef3b f1c8 debc
00000170: 7281 d1be 6219 6abb 9d4b 77be 83ed b83d
00000180: 91f1 843d 05da 0cbd e3e8 b1bd 8e82 13bd
00000190: 89dd d6bd eff9 6cbd db29 943d 7c2f 37be
000001a0: cf8f 693d 8f86 ee3d 357e 8ebc 5ae7 3c3e
000001b0: 497b 81be 7256 9bbe b022 653e 61c8 753d
000001c0: 28bd c63d e4fb 3abe 60c1 513e 730d 9b3e
000001d0: bac2 33be c43d bf3e 69da b23c b759 42be
000001e0: 40c2 363e 4937 ffbd 9934 173e c202 9d3d
000001f0: a328 c8bb 788d 58be 362a 1ebd 9ca3 563d
00000200: fb41 023e 9b1e 20be 704f 723d d28b d8bc
00000210: e0a6 8abe c8e8 6cbe 8e4a 053d b580 7abc
00000220: ad45 493e 618e cd3c b855 61be 9ec8 7e3e
00000230: e54a 883e 5805 2c3d aeb2 07be 0a14 bdbd
00000240: e7d7 f7bd 28bb 80be b5f4 20be aadc 8f3b
00000250: a2f1 0dbb 431e 2dbd 4403 7a3d ec60 70be
00000260: c07a 963e e086 1b3d 736c d33d 85ec 2dbe
00000270: 0d64 12be 41b3 c03d 194f a63e bc73 eb3d
00000280: 62e0 5dbc 491f 27be 204d 54be 56ad c43d
00000290: 35a9 403c 4cf8 2cbe 8851 333e f39d 7a3e
000002a0: e0d6 063e a145 ad3d 2d40 e23c ae48 323e
000002b0: 5d1f 0fbe 913c 723d 3ec1 40be 4288 fdbd
000002c0: 8803 a8be c966 03bd 637a 83bd 8d44 b5bd
000002d0: 8c52 23bd 34c9 273e 305a 9f3d 2573 8ebc
000002e0: a62e 25bd d260 b0bd 3e5a 493e f536 31be
000002f0: 15ff bf3d 021a 323b f13d 993e 865a 26be
00000300: 30ca e23d c514 49be 9e47 87ba 1096 98bd
00000310: 7395 063e 09c1 d43b 3bc6 39bc 2548 59be
00000320: 9e51 993e a4d9 6c3e 01dc a83d fb83 aa3d
00000330: abae 58be c91a c2be b2be 913d efb3 86bd
00000340: f0ce 45bd 4f11 a3bd d052 6ebe 5c48 6bbe
00000350: cf70 62bd d6e5 cc3d 1076 a4bc f085 b43d
00000360: fca4 2a3e 1919 dcbe 8ea6 5ebe 1e2c 49be
00000370: 6bd8 00be 1d02 6cbe e0a8 42bd 8240 973e
00000380: bae1 6a3e 625e 3c3e 936c 83be 68cd cd3e
00000390: a7fb 97be b908 093e cfb8 35be c096 123b
000003a0: 9d74 65be 08e5 4d3e 1048 d8bd 072c a0bc
000003b0: d078 a03c 4239 d4be f229 8bbe 5514 74be
000003c0: 9042 f73d 7f27 4e3e bec1 eabe be95 ecbd
000003d0: d1f7 d13d 9959 3f3d 206c 16be 681f 00be
000003e0: 0504 a73c 88a6 b7be ce31 babe 1117 c83d
000003f0: d72a a03d 9fe2 e43d f981 bfbe 3a87 413e
-0.033428762 0.12284082 0.044783562 -0.09123552 0.018025972 0.06346507 -0.010863346 -0.346399
0.11594835 0.20079926 -0.009818203 -0.08366357 -0.06644595 0.10069108 0.033495262 0.0441886
0.016891565 0.27921057 -0.033318695 0.118853904 -0.04774238 -0.2594246 -0.16576934 -0.057902005
-0.16647941 -0.12797888 -0.1429775 0.0739241 0.11707383 0.003853168 0.035292458 -0.03425457
-0.061659034 0.043444805 0.29620558 -0.17016678 0.29807836 -0.23433013 0.11305814 -0.025446098
0.14577754 -0.15914682 0.048030477 0.0294338 0.056564853 -0.16033441 -0.058847778 -0.16567992
0.24388365 0.338738 -0.20046905 -0.2596282 0.267288 -0.07051461 -0.14491075 0.12242849
0.4035841 -0.0031026395 -0.033565044 0.009622903 0.11543763 0.08001441 -0.16117002 0.21761072
0.18930048 -0.045328666 -0.06799955 0.012088059 -0.017246732 0.14739452 0.15932724 0.019258643
-0.04943283 0.23034208 -0.12728275 0.11411269 -0.14681318 0.0031813467 0.08532539 0.42171952
0.015847594 -0.045948226 0.13160528 -0.25540507 0.01999255 -0.23184912 -0.064666405 0.03808568
-0.19967245 -0.17996132 0.0073198136 -0.027195426 -0.4091907 -0.0035720696 -0.24149938 0.09029677
0.06491388 -0.034387607 -0.08686998 -0.03601318 -0.10491473 -0.057855543 0.07234546 -0.17889208
0.057021912 0.11646759 -0.017394165 0.18447629 -0.25289372 -0.3033939 0.22376513 0.06000555
0.097040474 -0.18260151 0.20483923 0.30283698 -0.17554751 0.3735181 0.021832662 -0.18979536
0.17847538 -0.12461717 0.14766158 0.07666542 -0.00610836 -0.21147716 -0.038614474 0.052402124
0.12720482 -0.15636675 0.05915779 -0.026433859 -0.2708044 -0.23135674 0.032541804 -0.015289475
0.19655485 0.025092306 -0.22005355 0.24881217 0.2661964 0.041997284 -0.13251755 -0.09232338
-0.12101727 -0.2514279 -0.15718348 0.004390319 -0.0021658917 -0.042265188 0.06103827 -0.23474473
0.29390526 0.037970424 0.103234194 -0.16984756 -0.14295979 0.0940919 0.32482222 0.11496684
-0.013542267 -0.16320528 -0.20732546 0.09603374 0.011759092 -0.16891593 0.1751157 0.24474315
0.13167906 0.08460546 0.027618492 0.17410538 -0.13976808 0.059139792 -0.18823716 -0.12379505
-0.32815194 -0.032080445 -0.06419828 -0.08850966 -0.039873645 0.16385347 0.07780874 -0.01738889
-0.04032769 -0.08612217 0.19663331 -0.1730612 0.09374825 0.0027176146 0.2993007 -0.1624547
0.110737205 -0.19636829 -0.0010321026 -0.07450497 0.13142948 0.006492738 -0.011338766 -0.21218927
0.2994508 0.23129898 0.082450874 0.083259545 -0.2116038 -0.3791106 0.0711645 -0.06577288
-0.048293054 -0.07962286 -0.23273778 -0.22976822 -0.055283364 0.10004775 -0.020075828 0.08814609
0.16664499 -0.42987898 -0.21743223 -0.19645736 -0.12582557 -0.23047681 -0.047524333 0.29541403
0.2293767 0.18395379 -0.25668773 0.40195775 -0.29684183 0.13382234 -0.1774628 0.0022367686
-0.22407766 0.201069 -0.1056062 -0.019552244 0.019588858 -0.41449934 -0.2718044 -0.23835881
0.12073243 0.20132254 -0.4585094 -0.115519986 0.10252345 0.046716306 -0.14689684 -0.1251198
0.020387659 -0.3586924 -0.36366123 0.097700246 0.07820671 0.11176037 -0.3740385 0.18899241
