models/teste_mt_3-4.pth (torch_old, 353839 bytes, 131 tensors)

weight f4 [24, 22, 1]
0	0xbea66d9b	-0.32505497
1	0xbe56ea1f	-0.20987748
2	0x3e721665	0.23641355
3	0xbb8fefd4	-0.0043926034
4	0x3e43779a	0.19088593
5	0xbe66f813	-0.2255557
6	0x3e3b0d10	0.18266702
7	0xbe71a894	-0.23599464
8	0xbf211f56	-0.6293844
9	0x3d39c21d	0.045351136
10	0xbe0f99ae	-0.14023468
11	0xbe878632	-0.2646957
12	0xbf0311fe	-0.5119933
13	0xbee04d4b	-0.4380897
14	0xbe11b4da	-0.14229146
15	0x3e7e3ab6	0.24827084
16	0x3e5a74bf	0.21333598
17	0x3e4da7f7	0.20083605
18	0x3e5a7f0c	0.21337527
19	0xbe297396	-0.16547999
20	0x3dc21789	0.09477145
21	0x3e9a2363	0.30105123
22	0x3df5b660	0.11997676
23	0x3d86cf59	0.06582517
24	0x3ea77a37	0.3271043
25	0xbdd87633	-0.1056942
26	0xbdd80e81	-0.105496414
27	0x3ec404ce	0.38284916
28	0xbe46931b	-0.19392054
29	0xbd9944c8	-0.07483822
30	0xbd108050	-0.03527862
31	0x3ea3adab	0.31968436
32	0xbe8f0cd2	-0.2793947
33	0xbe822fbd	-0.25427046
34	0xbe3805d0	-0.17970967
35	0x3e9e007f	0.30859753
36	0x3eaad7dc	0.33367813
37	0xbe8604d5	-0.26175562
38	0x3d613737	0.054984298
39	0xbeb55c7b	-0.3542212
40	0xbd5e946d	-0.05434077
41	0xbc76638a	-0.01503838
42	0xbe9756fc	-0.2955855
43	0x3ea1968f	0.3156018
44	0x3d918c56	0.07106845
45	0xbe909000	-0.28234863
46	0x3f0fe110	0.56202793
47	0xbe6ed55f	-0.23323582
48	0x3f07db3f	0.5306892
49	0x3eea997d	0.45820227
50	0x3d54c787	0.051948097
51	0x3e590d03	0.2119637
52	0x3d0c1309	0.03419784
53	0x3da49f8f	0.08038246
54	0xbda56a95	-0.080769695
55	0x3c705385	0.01466835
56	0x3f0ff7e3	0.5623762
57	0x3e4d71c8	0.20062935
58	0xbe9da93e	-0.30793184
59	0x3db7a3a2	0.08966757
60	0xbef7e4db	-0.4841679
61	0x3ebd3e4d	0.36961594
62	0x3e8a3ee6	0.27001113
63	0xbed040dc	-0.40674484
64	0xbc28b4a5	-0.010296975
65	0xbdea59d1	-0.11442912
66	0x3ee56fda	0.44811898
67	0xbe875a92	-0.26436287
68	0xbd868330	-0.06567991
69	0x3e8dd04b	0.27697977
70	0xbea03126	-0.31287497
71	0xbe963680	-0.29338455
72	0x3f07d19b	0.5305421
73	0xbe5550c5	-0.20831592
74	0xbd10b09a	-0.03532467
75	0x3e8915d6	0.26774472
76	0xbebfe0d6	-0.37476224
77	0x3e493625	0.19649561
78	0xbf163e13	-0.5868847
79	0x3e1834b0	0.14863849
80	0x3ea16176	0.3151967
81	0x3d4bc188	0.049745113
82	0x3ea44b85	0.32088867
83	0xbda7d1cb	-0.08194312
84	0x3bd8bb01	0.0066140895
85	0x3e1499ab	0.14511745
86	0x3d38985f	0.045067187
87	0xbe352206	-0.1768876
88	0xbdc31f17	-0.09527414
89	0x3e05a27b	0.13050263
90	0x3d95577b	0.07292076
91	0xbd3b7591	-0.045766417
92	0xbdf77cd2	-0.120843545
93	0xbe0a369a	-0.13497391
94	0xbec0e1d8	-0.37672305
95	0x3e89a87e	0.26886362
96	0x3d263983	0.04058219
97	0x3e885ded	0.2663416
98	0xbe304166	-0.17212448
99	0x3d01f9ed	0.03173249
100	0x3db05bcc	0.08611259
101	0x3e8e034c	0.2773689
102	0xbdfd7973	-0.1237668
103	0xbee582d3	-0.44826373
104	0x3d4e76e3	0.050406348
105	0xbf27547d	-0.65363294
106	0x3e026fa5	0.12737902
107	0xbdeb0701	-0.11475945
108	0x3ed4d6cd	0.4157013
109	0x3ca14fbb	0.019691339
110	0x3d8bbc76	0.068230554
111	0x3e32c1e2	0.17456773
112	0xbf40c4d2	-0.75300324
113	0x3eeff2a4	0.46864808
114	0x3e82e483	0.25564966
115	0xbeea2a42	-0.45735365
116	0x3d85e4a7	0.065377526
117	0x3e619b06	0.22031793
118	0x3d8078d0	0.06273043
119	0x3e7bd366	0.24592361
120	0x3df881b6	0.121341154
121	0x3ea79a29	0.32734802
122	0x3f3f804b	0.74805135
123	0x3d1cb3c7	0.038257387
124	0x3e0f6a99	0.14005508
125	0xbe2b58a8	-0.16733038
126	0x3effe353	0.49978122
127	0xbf20ab75	-0.6276162
128	0x3e884356	0.26613873
129	0xbd7cb2a3	-0.0616938
130	0x3e355516	0.17708239
131	0x3f1339f4	0.57510304
132	0x3d4fd4b7	0.05073997
133	0x3e42993d	0.19003768
134	0x3e80f287	0.25185034
135	0xbdf69d9f	-0.120417826
136	0x3d3e86d2	0.046515293
137	0x3c9b0201	0.018921854
138	0xbcec1d4f	-0.02882257
139	0x3e0d08d1	0.13772894
140	0xbea15c7d	-0.31515875
141	0xbe9bbf71	-0.30419496
142	0x3e208d4a	0.15678898
143	0x3f56f257	0.8396353
144	0xbd2e171d	-0.04250251
145	0x3d427df0	0.047483385
146	0xbf1f81d9	-0.62307507
147	0x3e635f88	0.22204411
148	0x3e2d635f	0.16932438
149	0x3e496c23	0.19670157
150	0x3e96aede	0.29430288
151	0xbf0b9b32	-0.54533684
152	0xbe7f21c7	-0.24915229
153	0xbd998163	-0.07495382
154	0x3e736008	0.23767102
155	0x3e29d8c0	0.1658659
156	0x3e7179d5	0.23581631
157	0xbee36944	-0.4441625
158	0xbed5ce9b	-0.4175919
159	0xbd01757b	-0.03160618
160	0xbebd97ec	-0.3702997
161	0xbe51eec5	-0.2050124
162	0xbecdc4f9	-0.4018934
163	0xbc271931	-0.010198877
164	0xbeb335dd	-0.35002032
165	0xbd81c1cf	-0.06335794
166	0x3dbb3b28	0.091421425
167	0xbea3e30a	-0.32009155
168	0x3dd83ac8	0.10558087
169	0xbe7f5c5f	-0.2493758
170	0x3ea2e6f6	0.31816834
171	0x3e4d89d1	0.20072104
172	0x3d08ccdd	0.033398498
173	0xbe8816b5	-0.26579824
174	0x3ea34943	0.31891832
175	0xbd0675c5	-0.032827158
176	0xbec22368	-0.37917638
177	0xbe35f867	-0.17770539
178	0xbe563854	-0.20919925
179	0x3f16358e	0.5867547
180	0xbe5e8751	-0.21731307
181	0x3ce39a7a	0.027783621
182	0xbea63a38	-0.32466292
183	0x3dd05245	0.10171942
184	0x3eec01ad	0.4609503
185	0xbe9de5a4	-0.30839264
186	0x3d89bb2a	0.06725152
187	0xbe5d37e9	-0.2160336
188	0xbde1b6f3	-0.11021223
189	0x3de8ba87	0.11363702
190	0xbe8cccff	-0.2750015
191	0xbcfdc8a4	-0.030979462
192	0xbeab78a6	-0.33490485
193	0x3ea38661	0.3193846
194	0x3e7fa6e4	0.24966007
195	0x3ebcc53d	0.3686923
196	0xbe686b1b	-0.22697107
197	0x3c0b4092	0.0084992815
198	0x3ebc09dc	0.36726272
199	0x3e11d98c	0.14243144
200	0x3d897db5	0.0671343
201	0xbe51841c	-0.20460552
202	0x3ee72090	0.4514203
203	0x3cbc2f2b	0.02297171
204	0xbec88fc8	-0.39172196
205	0x3ee234b3	0.4418083
206	0x3ed62daa	0.41831714
207	0xbe24daac	-0.16099042
208	0xbe3c1435	-0.18367083
209	0xbeb2b2d1	-0.3490205
210	0xbdb4e51a	-0.0883276
211	0x3f0950db	0.53639
212	0x3f29e315	0.66362125
213	0xbe734d5a	-0.23759976
214	0xbe9677ad	-0.2938818
215	0xbe126807	-0.14297496
216	0x3f5dd420	0.866518
217	0xbe41984f	-0.18905757
218	0xbdbdb70e	-0.092634305
219	0xbe97aace	-0.296225
220	0xbe1df64e	-0.15425989
221	0xbebd86eb	-0.37016997
222	0x3eff9377	0.49917194
223	0xbe16e9fb	-0.14737694
224	0xbce91130	-0.028450578
225	0xbe4ac603	-0.19802098
226	0xbe2b704a	-0.16742054
227	0x3e5afec1	0.21386243
228	0xbeae92df	-0.3409643
229	0x3e25f713	0.16207533
230	0x3d4815b9	0.04884884
231	0xbe5680e6	-0.20947608
232	0x3ec74db6	0.38926476
233	0xbe396476	-0.18104729
234	0xbeacbb9e	-0.3373689
235	0x3da54ef6	0.08071701
236	0xbf0b76cf	-0.5447816
237	0x3d0630aa	0.032761253
238	0xbedaf607	-0.4276583
239	0x3f4f3afc	0.8094938
240	0xbe36b74c	-0.1784336
241	0xbe5a57a0	-0.21322489
242	0xbea65c21	-0.32492164
243	0x3e48626e	0.19568798
244	0x3e80ca8b	0.25154528
245	0xbd8ea638	-0.069652975
246	0xbe390b98	-0.18070829
247	0x3ea32023	0.31860456
248	0xbe220118	-0.1582073
249	0xbeeadb7a	-0.45870572
250	0xbea90c04	-0.3301698
251	0xbda35477	-0.07975095
252	0x3ed68d77	0.41904804
253	0xbe7452fe	-0.23859784
254	0xbb18811c	-0.0023270315
255	0x3db2758b	0.08713826

weight f4 [24]
0	0x3e65eab5	0.22452815
1	0x3e6b9d35	0.23009188
2	0x3e848318	0.25881267
3	0x3e69d2c2	0.22834304
4	0x3e5ab51c	0.2135815
5	0x3e566ea9	0.20940651
6	0x3e6a0c38	0.22856224
7	0x3e882392	0.26589638
8	0x3e87ef68	0.2654984
9	0x3e86bfae	0.26318115
10	0x3e67d04f	0.22638057
11	0x3e870876	0.26373643
12	0x3e67dc6e	0.22642681
13	0x3e68a1c0	0.22717953
14	0x3e5deda3	0.21672682
15	0x3e6e96dc	0.23299736
16	0x3e6a8eda	0.22906056
17	0x3e64e89f	0.22354363
18	0x3e6b0a13	0.22953062
19	0x3e694107	0.22778712
20	0x3e68b0c4	0.2272368
21	0x3e853553	0.26017246
22	0x3e657d0f	0.22410987
23	0x3e6d01fc	0.23145288

weight f4 [24, 24, 3]
0	0xbeae238b	-0.34011492
1	0x3da106fb	0.078626595
2	0xbe3af806	-0.18258676
3	0x3d4eafa0	0.050460458
4	0xbddd4cc8	-0.108056605
5	0x3d22bb87	0.03972962
6	0xbd962596	-0.07331388
7	0x3ed1dff8	0.40991187
8	0xbdbe3011	-0.09286512
9	0x3e2a399f	0.16623543
10	0xbd29229e	-0.04129278
11	0xbeb7a725	-0.3586971
12	0xbec9daab	-0.39424643
13	0xbc7221d3	-0.014778572
14	0xbe9f2373	-0.31081733
15	0x3e279fb4	0.16369516
16	0xbd8094bb	-0.06278368
17	0x3e4bf714	0.19918472
18	0xbe757540	-0.23970509
19	0xbdcbe2ac	-0.099553436
20	0xbc4d48b3	-0.01252954
21	0xbe4e8ed5	-0.20171674
22	0xbe9edb2d	-0.31026593
23	0x3e1e8285	0.15479477
24	0xbe6d928f	-0.23200439
25	0x3ed348bb	0.41266426
26	0xbdc7ee4b	-0.09762248
27	0xbcffb5ba	-0.031214584
28	0xbd3065c1	-0.04306579
29	0xbd52dca0	-0.051479936
30	0x3e27888e	0.16360685
31	0x3cd54d29	0.02603777
32	0x3d44613a	0.047944285
33	0x3e827b85	0.25484863
34	0x3eb57781	0.35442737
35	0xbd96d57b	-0.07364937
36	0xbe61110c	-0.21979159
37	0xbd93e26c	-0.07220921
38	0xbd864579	-0.065562196
39	0x3d4c7f8a	0.04992632
40	0xbd86b50e	-0.06577502
41	0x3dfe2992	0.12410273
42	0xbe2d9828	-0.16952574
43	0x3e9c1402	0.30484015
44	0xbdfe308e	-0.12411605
45	0xbe87acde	-0.26499075
46	0x3df77437	0.12082713
47	0xbe6e4d71	-0.23271729
48	0xbe80bdab	-0.25144705
49	0xbd2c70ea	-0.04209987
50	0xbe463cfd	-0.19359203
51	0x3df46542	0.11933376
52	0xbdd6d6b6	-0.104901716
53	0x3da88ee6	0.08230381
54	0xbe24cdb9	-0.16094102
55	0xbd46c3b3	-0.048526477
56	0xbd11bd6c	-0.035581037
57	0xbe814a80	-0.2525215
58	0xbb59e4f4	-0.003324804
59	0x3b43fe30	0.0029906146
60	0x3c39ed2a	0.011348048
61	0x3e0d4443	0.13795571
62	0xbe08070a	-0.13283935
63	0x3dc5e78b	0.09663304
64	0xbe6b07ea	-0.22952238
65	0x3e4a0c28	0.197312
66	0x3e357c27	0.17723142
67	0x3cc0a647	0.023516787
68	0x3e3a71a0	0.18207407
69	0x3cf71bd9	0.030164646
70	0x3dcf92bb	0.101354085
71	0xb8e30482	-0.00010825043
72	0x3c2763ec	0.010216694
73	0x3c3b1a05	0.011419778
74	0xbdac3ff6	-0.08410637
75	0xbe03c672	-0.1286867
76	0x3e99283c	0.2991351
77	0xbe5f3ec7	-0.21801291
78	0xbd8c7c60	-0.0685966
79	0x3c9bc42c	0.01901444
80	0x3ddac5e2	0.106822744
81	0x3ea66249	0.3249686
82	0xbe33c8e8	-0.17557108
83	0xbc598800	-0.013277054
84	0xbe130dec	-0.1436078
85	0x3cc2508c	0.023720048
86	0x3dd03c93	0.101678036
87	0x3e10cc91	0.14140536
88	0x3e8a3b6a	0.26998454
89	0x3c99a1d5	0.018753925
90	0x3db73680	0.08945942
91	0x3c28775f	0.010282367
92	0xbe161bc0	-0.14659023
93	0xbe79d597	-0.24397884
94	0x3c1def57	0.009639583
95	0xbdfab986	-0.12242417
96	0xbec18b43	-0.3780156
97	0xbda717b0	-0.08158815
98	0x3e4cfd66	0.20018539
99	0xbe90e00f	-0.28295943
100	0xbbfc40a0	-0.0076981336
101	0x3dc0b1b1	0.09408892
102	0xbd238705	-0.039923687
103	0xbe4ea019	-0.2017826
104	0x3ddd40db	0.10803386
105	0x3e23ed92	0.16008595
106	0x3ddc4c3a	0.107567266
107	0x3ccc0711	0.024905713
108	0x3eb2434c	0.34816968
109	0xbe19b768	-0.1501137
110	0xbd3a9752	-0.045554467
111	0x3eaa745c	0.332919
112	0xbe0c9191	-0.13727404
113	0xbe8434ad	-0.25821438
114	0x3d2f828d	0.042849112
115	0xbe893efd	-0.2680587
116	0xbe37273c	-0.1788606
117	0xbd16a194	-0.036775187
118	0x3c8725c5	0.016497502
119	0xbe0099f4	-0.12558728
120	0xbd266e7d	-0.040632714
121	0xbe1f717a	-0.15570632
122	0xbbadc49a	-0.0053029777
123	0x3d9b6897	0.07588308
124	0x3cc8fb1c	0.0245338
125	0xbd9e66b3	-0.07734432
126	0x3d5a5dea	0.05331222
127	0xbc74af88	-0.014934428
128	0x3cc758b5	0.024334291
129	0x3e236fe6	0.15960655
130	0xbe0dc38f	-0.13844131
131	0x3e15be70	0.14623427
132	0x3d7261f3	0.059175443
133	0x3e004a4a	0.12528339
134	0x3a9fe397	0.0012198564
135	0xbe13bfd8	-0.14428651
136	0x3e5f1cb1	0.21788289
137	0x3b5ac4df	0.0033381504
138	0xbc20f72e	-0.009824557
139	0xbd252d97	-0.04032668
140	0xbd635692	-0.05550248
141	0x3ea558a9	0.32294205
142	0x3d6a807b	0.057251435
143	0xbd5469bc	-0.05185865
144	0xbe8c70a2	-0.27429682
145	0x3e534330	0.20631099
146	0xbe16995b	-0.14706938
147	0x3d8f6aab	0.07002767
148	0xbdde5c86	-0.10857491
149	0xbea2961b	-0.31755146
150	0x3e1a62ed	0.150768
151	0x3dc9a764	0.0984638
152	0x3d01abf2	0.03165812
153	0x3c9f1e94	0.01942376
154	0x3cb70d33	0.022345161
155	0xbeb7a5f6	-0.35868806
156	0x3c9a43bd	0.018831128
157	0x3e6e9a85	0.23301132
158	0x3ea4f53b	0.32218346
159	0xbe708bee	-0.23490879
160	0xbd0c86a8	-0.034308106
161	0x3e93bc2a	0.28854495
162	0xbe138ab5	-0.14408381
163	0xbc4e8557	-0.012605033
164	0xbd6267d7	-0.05527481
165	0xbd27f76f	-0.041007455
166	0x3de6717f	0.112521164
167	0x3e81f84b	0.25384745
168	0x3e603b79	0.21897687
169	0xbd0cbe67	-0.03436127
170	0xbe116cdc	-0.14201683
171	0x3d62f0c6	0.0554054
172	0x3e0606b0	0.13088489
173	0x3be14db4	0.006875718
174	0x3db8bf7f	0.090209
175	0xbe34898b	-0.17630593
176	0xbdc4b422	-0.0960467
177	0x3d9f2156	0.0777003
178	0xbe0b22d7	-0.13587509
179	0x3e87e118	0.2653892
180	0x3e1dfa45	0.15427501
181	0xbe24c181	-0.16089441
182	0xbe2cc9a9	-0.16873802
183	0x3dfa767b	0.122296296
184	0x3dc8724b	0.09787425
185	0xbe539582	-0.20662501
186	0x3d05f19a	0.032701112
187	0xbe525f51	-0.20544173
188	0x3d39df7b	0.045379143
189	0x3e48309a	0.1954979
190	0xbe86737c	-0.26259983
191	0xbe88ed44	-0.2674352
192	0xbd75b62e	-0.059988193
193	0x3d5c8a6c	0.053842947
194	0xbe959b19	-0.29219893
195	0xbe392ff9	-0.18084706
196	0x3e0f5634	0.13997728
197	0x3c6421a2	0.013924034
198	0xbe3aeb07	-0.18253718
199	0xbe9640e9	-0.29346398
200	0xbdcfeaaa	-0.101521805
201	0xbdaaa373	-0.08331957
202	0xbe549645	-0.20760448
203	0xbe09a6b9	-0.13442506
204	0x3e91abcf	0.28451392
205	0x3e1cecf1	0.15324761
206	0xbd4ebf06	-0.050475143
207	0xbd007d4d	-0.031369496
208	0xbe269680	-0.16268349
209	0xbd60a5d0	-0.05484563
210	0xbe210e85	-0.15728195
211	0xbd412488	-0.04715398
212	0x3e0d7683	0.1381474
213	0x3e8a3a98	0.26997828
214	0xbcc6b2bc	-0.024255149
215	0xbc85daa7	-0.016339613
216	0xbe0b54fd	-0.13606639
217	0xbe5057e5	-0.20346029
218	0x3dd3ef72	0.10348405
219	0xbc4806c9	-0.012208649
220	0xbc5c56d1	-0.013448433
221	0x3e80cc29	0.25155762
222	0xbd06ed76	-0.032941304
223	0x3e5ad180	0.2136898
224	0x3dc98148	0.098391116
225	0x3dcd85ad	0.10035262
226	0x3e3eebd2	0.18644646
227	0xbe10fae2	-0.14158204
228	0x3daa3c6b	0.08312305
229	0x3e5b7479	0.2143115
230	0xbd974ac5	-0.07387308
231	0xbe3aae3b	-0.18230526
232	0x3dea859e	0.11451267
233	0xbddba92d	-0.10725627
234	0x3d8fcd8a	0.07021625
235	0xbdcc3140	-0.09970331
236	0x3d722794	0.059119776
237	0xbdf184a2	-0.11792876
238	0x3dd79054	0.10525575
239	0x3e33459e	0.17507026
240	0xbdfce6b7	-0.12348693
241	0x3df0d8fe	0.11760138
242	0x3e4e4e3a	0.20147029
243	0xbdf4ce3f	-0.11953401
244	0xbeb2f57a	-0.3495291
245	0xbe4bf79e	-0.19918677
246	0x3e4c718f	0.19965194
247	0x3db1b9d6	0.086780235
248	0x3dec448e	0.11536513
249	0xbe9705f6	-0.29496735
250	0x3e17a832	0.14810255
251	0xbd9943d6	-0.07483642
252	0xbd83afe6	-0.06430034
253	0xbe94a9d5	-0.29035822
254	0x3e2967de	0.16543528
255	0xbe3b0590	-0.1826384

bias f4 [24]
0	0xbd7e3886	-0.062065624
1	0x3c8cdc81	0.017194988
2	0xbdc3ec84	-0.09566596
3	0xbb49015c	-0.0030670976
4	0xbdae3812	-0.08506788
5	0xbc2d35e1	-0.010571928
6	0x3b920206	0.0044558076
7	0x3d8dc3d8	0.0692212
8	0xbdd8a2ad	-0.10577903
9	0x3c0f40bf	0.008743464
10	0xbd4aca73	-0.049509477
11	0xbc932ae3	-0.017964786
12	0xbb144b2f	-0.002262782
13	0xbd89620b	-0.06708153
14	0x3ccd5aa1	0.02506763
15	0x3da8598b	0.08220204
16	0x3d0698ff	0.032860752
17	0x3d84da66	0.06486969
18	0xbc80d81c	-0.015728049
19	0xbe03caec	-0.12870377
20	0xbdb95afb	-0.09050556
21	0xbdb6a88c	-0.089188665
22	0x3b7ed8f1	0.0038886631
23	0x396fd298	0.00022871268

weight f4 [24]
0	0x3e51e012	0.20495632
1	0x3e6b4e14	0.22979003
2	0x3e897696	0.26848286
3	0x3e692d15	0.22771104
4	0x3e8b12cd	0.2716278
5	0x3e6a4006	0.22875986
6	0x3e65a1cd	0.22425003
7	0x3e6be912	0.23038128
8	0x3e89aad7	0.26888153
9	0x3e46b98f	0.19406722
10	0x3e641c7d	0.22276492
11	0x3e8b2369	0.27175453
12	0x3e6777e1	0.22604324
13	0x3e6d7949	0.23190798
14	0x3e750847	0.23928939
15	0x3e6a841b	0.22901957
16	0x3e750b1d	0.2393002
17	0x3e810ca5	0.2520496
18	0x3e69262d	0.22768469
19	0x3e5a03c3	0.21290497
20	0x3e6820d8	0.22668779
21	0x3e6fe024	0.23425347
22	0x3e6c3292	0.23066166
23	0x3e80bd86	0.25144595

weight f4 [24, 24, 3]
0	0x3df51bd4	0.119681984
1	0xbe025ea3	-0.12731414
2	0x3e716ab0	0.23575854
3	0x3da7c136	0.08191149
4	0xbd7da332	-0.061923213
5	0xbd5bcb4b	-0.053660672
6	0xbd0c5cac	-0.034268066
7	0xbe09eb5d	-0.1346869
8	0x3e8d31a3	0.27576932
9	0x3dce25c2	0.100657955
10	0x3e861eaf	0.26195285
11	0x3d34c973	0.04413743
12	0x3e0a5f30	0.13512874
13	0xbda3c0f5	-0.07995788
14	0x3d3892fe	0.045062058
15	0xbe08a7a5	-0.13345201
16	0xbd56bb81	-0.05242491
17	0x3d3e2020	0.046417356
18	0x3dd571a9	0.104220696
19	0x3dee21c2	0.116275325
20	0xbe77984e	-0.24179193
21	0xbba7fcbe	-0.0051265648
22	0x3ced6f30	0.028983682
23	0x3c9d41da	0.01919644
24	0xbeb386bc	-0.35063732
25	0xbd7533e0	-0.059863925
26	0xbe52de5b	-0.20592634
27	0x3e372ec2	0.1788893
28	0xbe21e13c	-0.15808576
29	0xbb8df0fb	-0.0043317056
30	0xbe46594b	-0.1937
31	0x3e03e240	0.12879276
32	0x3e8b71ec	0.27235353
33	0x3e9e1a3b	0.30879387
34	0xbc6aec8a	-0.014338622
35	0xbe6bae98	-0.23015821
36	0xbbb8b175	-0.005636389
37	0x3cc5daf0	0.02415225
38	0x3d163a03	0.036676418
39	0xbde97ffc	-0.11401364
40	0xbe1308ca	-0.14358822
41	0xbe230f5a	-0.15923825
42	0x3d2ed45a	0.042682983
43	0xbd8f3989	-0.06993396
44	0xbde84beb	-0.11342605
45	0x3e26d7f0	0.16293311
46	0xbe00ca8f	-0.1257727
47	0xbd95ce83	-0.073147796
48	0xbe1ff611	-0.1562121
49	0xbd635852	-0.05550415
50	0xbde1190d	-0.10991106
51	0x3e35a796	0.1773971
52	0x3db6f053	0.08932557
53	0xbe6d642f	-0.23182748
54	0x3cc65649	0.024211066
55	0xbd711b19	-0.058863733
56	0xbd0ddae1	-0.034632567
57	0xbdc8aa1e	-0.09798072
58	0xbe1f28da	-0.15542927
59	0x3e27ab2c	0.1637389
60	0xbc792083	-0.015205505
61	0xbddf5e6f	-0.10906684
62	0x3eae2b8f	0.34017608
63	0x3e12ef06	0.14348993
64	0xbe852bb3	-0.26009902
65	0x3e03209f	0.12805413
66	0xbe0f21b0	-0.13977695
67	0x3c64d63e	0.013967095
68	0x3decec3e	0.11568497
69	0xbbbc402c	-0.0057449546
70	0xbe104ae3	-0.14091067
71	0xbcd01a43	-0.025403148
72	0x3c24c469	0.010056593
73	0x3e121cfa	0.14268866
74	0xbe606e05	-0.21916969
75	0xbdd2df84	-0.102965385
76	0xbeef322e	-0.46717972
77	0xbe0d2a7e	-0.1378574
78	0xbc55ddc9	-0.013053366
79	0x3d8bb94c	0.06822452
80	0x3d471d37	0.048611846
81	0x3eaf4251	0.34230283
82	0x3e8839dd	0.26606646
83	0x3dca36f7	0.09873765
84	0xbe740c33	-0.23832779
85	0x3e601f55	0.21886952
86	0x3eac6744	0.33672535
87	0x3e86bd87	0.26316473
88	0x3e872ae9	0.26399925
89	0x3db835ed	0.089946605
90	0xbe0a0705	-0.1347924
91	0x3dbd0f36	0.09231417
92	0x3dd8a15f	0.10577654
93	0x3de022fd	0.109441735
94	0xbe935f10	-0.28783464
95	0x3de876ee	0.11350809
96	0x3d6470b7	0.055771556
97	0x3e750929	0.23929276
98	0xbd81625a	-0.06317587
99	0x3e547dc8	0.20751107
100	0x3ef33ca2	0.47507197
101	0xbf25a603	-0.6470644
102	0x3ece2eec	0.40270174
103	0xbd5f0c84	-0.054455295
104	0xbbc23e9a	-0.005927873
105	0x3e0240a8	0.12719977
106	0xbd4b4398	-0.04962501
107	0x3d875c89	0.066094466
108	0xbdb6c8a5	-0.08924989
109	0xbdc18478	-0.094490945
110	0xbe6d8879	-0.23196591
111	0xbdcd191a	-0.10014553
112	0xbdc3d23f	-0.09561586
113	0x3c88ec55	0.016714254
114	0x3e99cbaf	0.3003821
115	0x3e581006	0.21099862
116	0xbd2619a1	-0.040551785
117	0x3d80ebe1	0.0629499
118	0x3e113a4d	0.14182396
119	0xbe50a1e8	-0.20374262
120	0xbe0bb752	-0.1364415
121	0x3ea1566d	0.3151125
122	0x3e2f7311	0.17133738
123	0x3e3ff962	0.18747476
124	0x3de75efd	0.112974145
125	0xbe906d2d	-0.28208295
126	0xbe9075a8	-0.28214765
127	0x3e2dc77f	0.16970633
128	0xbdd27987	-0.10277086
129	0xbd42efd0	-0.047591984
130	0xbe539a09	-0.20664228
131	0xbe4a8943	-0.19778924
132	0xbdc93ea4	-0.09826401
133	0x3bb3f099	0.005491328
134	0x3a479337	0.0007613184
135	0xbd938d9a	-0.07204743
136	0x3dfe8265	0.124272145
137	0xbee20398	-0.44143367
138	0x3e6fe03b	0.23425381
139	0x3e308d7e	0.17241475
140	0x3c3a75b4	0.011380602
141	0xbe0f4112	-0.13989666
142	0xbd0b2e5b	-0.033979755
143	0xbe9c98fe	-0.30585474
144	0x3dcf4507	0.10120588
145	0x3dcf1865	0.10112075
146	0x3e0e5390	0.13899064
147	0xbed5a568	-0.41727757
148	0xbcfca280	-0.030839205
149	0x3d20d43e	0.03926491
150	0xbe91210f	-0.28345534
151	0xbea22fc7	-0.31677076
152	0x3e0f309e	0.1398339
153	0x3d8af108	0.06784254
154	0x3d1920e2	0.037384875
155	0x3e976f8b	0.29577288
156	0x3db2d8e4	0.08732775
157	0x3eae6ea4	0.34068787
158	0xbeaf528e	-0.34242672
159	0x3e53fa7f	0.20701025
160	0xbe01a556	-0.12660727
161	0x3c573376	0.013134828
162	0xbdf59853	-0.11991944
163	0x3c9162e9	0.01774736
164	0xbf084225	-0.5322593
165	0x3c9f47cf	0.01944342
166	0x3e86195c	0.26191223
167	0xbda91e5a	-0.08257742
168	0xbe8b5679	-0.2721441
169	0x3e6c724b	0.23090474
170	0x3d063e6b	0.03277437
171	0x3bbd6e0e	0.005780942
172	0xbce3735f	-0.027764974
173	0xbde690d1	-0.1125809
174	0xba9e809a	-0.001209277
175	0x3da694a6	0.08133821
176	0x3e5701de	0.20996806
177	0xbc9e6572	-0.019335482
178	0x3d1a8772	0.037726827
179	0x3e2d9767	0.16952287
180	0x3cdaac01	0.026693346
181	0x3e0390cf	0.12848209
182	0x3da62d19	0.081140704
183	0xbdbb5904	-0.09147838
184	0xbd856ebe	-0.06515263
185	0x3e9a3e6e	0.30125755
186	0xbe7e59e8	-0.24838984
187	0x3e3fba7e	0.18723485
188	0xbe0d949f	-0.13826226
189	0xbe237a0e	-0.15964529
190	0xbe6f4d23	-0.23369269
191	0xbe89afb2	-0.26891857
192	0xbdddf78b	-0.10838231
193	0xbd92f240	-0.07175112
194	0x3c0673ad	0.00820629
195	0x3e487da9	0.19579186
196	0x3e242abe	0.1603193
197	0x3dd9a1cc	0.106265634
198	0xbe0b176e	-0.13583156
199	0x3db34c19	0.08754749
200	0xbca4f263	-0.02013511
201	0xbd9bf2cd	-0.0761467
202	0x3cd3eaa8	0.025868729
203	0xbe8c6f3e	-0.2742862
204	0x3e1625b3	0.14662819
205	0xbddaae41	-0.106777675
206	0xbd98787a	-0.07444854
207	0xbdc2363b	-0.09483
208	0x3eb89a3a	0.36055166
209	0xbc20c087	-0.009811527
210	0xbe4b47ff	-0.19851683
211	0xbdaf822c	-0.0856975
212	0x3dc531a1	0.096286066
213	0xbe2bab9e	-0.16764686
214	0x3c691e9e	0.014228491
215	0xbe307617	-0.17232548
216	0xbd832f7b	-0.064055406
217	0x3dc5b32e	0.096533164
218	0x3e67a70a	0.22622314
219	0x3dc33be2	0.09532906
220	0xbe51b2ef	-0.20478414
221	0x3ae1d45c	0.0017229426
222	0xbe04a9b5	-0.12955363
223	0x3ccb642e	0.024828043
224	0x3dda7094	0.10666004
225	0xbe3b9fc8	-0.1832267
226	0xbda47951	-0.08030952
227	0x3e364a3b	0.17801754
228	0x3e1319a6	0.14365253
229	0xbd16d1c8	-0.036821157
230	0xbd5d910e	-0.054093413
231	0x3df97c4a	0.121819094
232	0xbe66c502	-0.2253609
233	0xbca3d6b7	-0.019999845
234	0x3c2454b2	0.010029959
235	0x3de29fc1	0.11065627
236	0x3e08e7ab	0.13369624
237	0xbda95896	-0.082688496
238	0x3d758d5c	0.059949264
239	0xbe5180f0	-0.20459342
240	0x3cf14747	0.029452933
241	0xbddf3261	-0.10898281
242	0xbdae7145	-0.08517698
243	0xbe4b715a	-0.19867459
244	0x3e726193	0.23670034
245	0x3e4a4be3	0.19755511
246	0xbe3d9f8f	-0.18517898
247	0x3e264fc2	0.16241363
248	0xbccd1f59	-0.025039362
249	0x3d43b806	0.04778292
250	0x3de515a1	0.11185766
251	0x3d127f85	0.035766143
252	0x3c71d2cb	0.01475973
253	0x3c8468cb	0.01616325
254	0x3d71301c	0.05888377
255	0xbdcbd6cd	-0.099530794

bias f4 [24]
0	0xbd092b0f	-0.03348833
1	0xbd6b06bc	-0.05737947
2	0xbdda1435	-0.106483854
3	0xbdd14ec3	-0.10220101
4	0xbd732d0e	-0.05936914
5	0x3cecffeb	0.028930625
6	0xbd86b362	-0.06577183
7	0xbd9547fb	-0.0728912
8	0x3d6d8be3	0.057994734
9	0x3d25144f	0.04030257
10	0xbca22d55	-0.019797007
11	0xbd29f688	-0.041494876
12	0xbd7a2684	-0.061071888
13	0x3d789c98	0.060696214
14	0x3cf68643	0.030093318
15	0xbd2ab12a	-0.041672863
16	0xbd8dfcac	-0.06932959
17	0x3d7392e7	0.05946627
18	0xbd7f2019	-0.06228647
19	0x3d9c4c0c	0.07631692
20	0xbdbf11eb	-0.093295895
21	0xbcc674ab	-0.024225553
22	0xbdafd5f4	-0.0858573
23	0xbc41914b	-0.011814426

weight f4 [24]
0	0x3e67fe65	0.22655638
1	0x3e883a62	0.26607043
2	0x3e8a7d2a	0.27048618
3	0x3e8924f6	0.2678601
4	0x3e89e75c	0.26934326
5	0x3e663d4d	0.22484322
6	0x3e6bd667	0.23031007
7	0x3e8ca1e0	0.2746725
8	0x3e6e95a8	0.23299277
9	0x3e8bc0a5	0.27295414
10	0x3e6a239a	0.22865143
11	0x3e873ead	0.26415005
12	0x3e841d7c	0.25803745
13	0x3e6db926	0.2321516
14	0x3e6817f4	0.22665387
15	0x3e68f669	0.22750248
16	0x3e6c55a9	0.23079552
17	0x3e6c339f	0.23066567
18	0x3e61db18	0.22056234
19	0x3e7b845c	0.2456221
20	0x3e69746f	0.22798322
21	0x3e69dbdf	0.2283778
22	0x3e66cb0d	0.22538395
23	0x3e57c130	0.21069789

weight f4 [24, 24, 3]
0	0x3e25f957	0.16208397
1	0x3e273a41	0.16330816
2	0xbe04433f	-0.12916277
3	0xbd122e4e	-0.03568869
4	0x3dcb6fc9	0.09933431
5	0xbe5d69ec	-0.21622437
6	0xbdfdde74	-0.12395945
7	0x3e01250b	0.12611787
8	0xbe43a15f	-0.19104527
9	0x3c73971d	0.014867571
10	0x3dff8a43	0.12477543
11	0xbbac90d5	-0.0052662888
12	0xbe9401d6	-0.2890765
13	0x3e24eae5	0.1610523
14	0x3e53356c	0.20625848
15	0x3e124af7	0.1428641
16	0xbda5c919	-0.08094997
17	0x3d8c7939	0.06859059
18	0xbe1956db	-0.14974539
19	0xbe594d69	-0.21220936
20	0x3e443f29	0.19164719
21	0x3dfab874	0.12242213
22	0xbd6646a4	-0.056219712
23	0xbd2199b8	-0.03945324
24	0xbc930cb4	-0.017950393
25	0x3db4927d	0.08817003
26	0x3d9b715c	0.07589981
27	0x3e264df5	0.16240676
28	0xbdcd6a76	-0.100300714
29	0xbec1d336	-0.37856454
30	0xbd755053	-0.059891056
31	0xbeccfcc6	-0.400366
32	0xbdc8b19c	-0.09799501
33	0x3d85fa87	0.06541925
34	0x3e18a78a	0.14907661
35	0x3e056805	0.13027962
36	0xbcaa0d42	-0.020758275
37	0x3dd84425	0.105598725
38	0x3e7a1135	0.24420626
39	0xbda2675f	-0.07929873
40	0xbe0b04d3	-0.13576059
41	0x3e2922ab	0.16517131
42	0xbd38b131	-0.045090858
43	0x3ea73b7f	0.3266258
44	0x3eacefc7	0.33776686
45	0xbce2c4cd	-0.027681733
46	0xbd25d121	-0.040482644
47	0x3dfa9e09	0.12237174
48	0x3e4c8a5d	0.19974656
49	0x3d8596d4	0.06522909
50	0x3e0e1995	0.13876946
51	0xbe906cfc	-0.28208148
52	0x3e1be727	0.15224896
53	0x3dc513a1	0.096228845
54	0xbda94a97	-0.0826618
55	0x3dbe2fa1	0.09286428
56	0xbe82fbdc	-0.25582778
57	0x3e43cc65	0.19120939
58	0xbe04633d	-0.12928481
59	0x3da541a4	0.080691606
60	0xbe3700b6	-0.17871365
61	0x3d38a26a	0.045076765
62	0xbbf6f9d7	-0.0075371074
63	0xbe59a630	-0.21254802
64	0x3e95626d	0.29176655
65	0xbe52eb9c	-0.2059769
66	0xbd589c45	-0.052883405
67	0x3dbbe7e7	0.09175091
68	0x3dad3925	0.08458165
69	0x3e05a0da	0.13049641
70	0x3c58e954	0.0132392235
71	0xbd84d6b9	-0.064862676
72	0xbd94d62a	-0.07267411
73	0x3e452392	0.1925185
74	0xbe63e3c7	-0.22254859
75	0x3e147556	0.14497885
76	0xbddac0b8	-0.106812894
77	0xbdea72ee	-0.11447702
78	0x3d7db8c4	0.061943784
79	0x3ec67357	0.38759872
80	0xbe953d02	-0.29148108
81	0xbe54ddd2	-0.20787743
82	0xbddfd2d5	-0.10928885
83	0x3e1ce420	0.15321398
84	0x3bf3f625	0.007445114
85	0xbe3c2866	-0.18374786
86	0xbd8f5ff6	-0.07000725
87	0x3e6e0ccb	0.23247068
88	0x3ea2f8e1	0.31830505
89	0xbee7df45	-0.4528753
90	0xbced6685	-0.02897955
91	0x3d3f0a27	0.04664054
92	0xbe47af93	-0.1950057
93	0xbe2dbc5d	-0.16966386
94	0xbd272817	-0.040809717
95	0x3c2b559a	0.010457421
96	0xbe2666cb	-0.1625015
97	0xbe216627	-0.15761624
98	0xbd18210e	-0.0371409
99	0x3ca57104	0.020195492
100	0xbe2f79e8	-0.17136347
101	0xbc6fc64e	-0.014634682
102	0x3eb3efa9	0.35143784
103	0x3e746098	0.23864973
104	0xbcbe4d94	-0.023230352
105	0xbda9bceb	-0.08287986
106	0x3e5aff39	0.21386422
107	0xbde93bfc	-0.11388394
108	0x3c0a7110	0.008449808
109	0x3dea2bed	0.114341594
110	0x3e890f80	0.26769638
111	0xbd3c9a24	-0.046045437
112	0xbe876633	-0.2644516
113	0xbe35d67d	-0.17757602
114	0x3d597c2c	0.053096935
115	0xbdfb000a	-0.12255867
116	0x3d847ad3	0.06468739
117	0xbd7dfa5d	-0.062006343
118	0x3d765f79	0.060149644
119	0x3de8c5ad	0.11365829
120	0xbe0c3a56	-0.13694128
121	0xbda53e47	-0.08068519
122	0xbdbc0f66	-0.091826245
123	0xbdff10c1	-0.124543674
124	0x3e01f321	0.12690403
125	0xbe5b6f7e	-0.2142925
126	0x3dd426ae	0.1035894
127	0x3caeedc8	0.021353617
128	0x3e10b66d	0.1413209
129	0xbd655c1c	-0.055996045
130	0xbe761621	-0.24031879
131	0xbe639958	-0.22226465
132	0x3d1d8196	0.03845366
133	0xbcf4f426	-0.029901575
134	0xbdfee5c5	-0.12446169
135	0xbe425cd5	-0.18980725
136	0xbd9332ac	-0.07187399
137	0x3e47b30e	0.19501898
138	0x3d931b66	0.0718296
139	0x3edb49ac	0.42829645
140	0xbd848b18	-0.064718425
141	0xbeaf60f1	-0.34253648
142	0x3e4f5727	0.2024809
143	0xbd22b183	-0.03972007
144	0xbde45b68	-0.11150247
145	0xbd86eb4a	-0.065878466
146	0xbd1deac9	-0.038553987
147	0x3e67d6d5	0.22640546
148	0x3b5bf186	0.0033560707
149	0x3e230339	0.15919198
150	0x3e263694	0.16231757
151	0x3e6a614c	0.22888678
152	0xbe7e491b	-0.24832575
153	0x3e60087f	0.21878241
154	0x3e8ca639	0.27470568
155	0xbea808fd	-0.32819358
156	0xbdcace55	-0.09902636
157	0x3d8d4d41	0.06899501
158	0x3e02a3a9	0.12757744
159	0xbe058178	-0.1303767
160	0x3d8c9b33	0.068655394
161	0xbc0a3fb1	-0.008438037
162	0xbe7a3219	-0.24433173
163	0xbe10a1f4	-0.1412428
164	0xbe6c2b57	-0.23063408
165	0x3e8fed92	0.2811094
166	0xbde1e6a0	-0.11030316
167	0x3e7649ac	0.24051541
168	0xbd011f8e	-0.031524234
169	0xbdc9be1e	-0.09850715
170	0x3db75dc4	0.08953431
171	0xbe6c247b	-0.23060791
172	0x3e35455d	0.17702241
173	0x3e605b42	0.21909812
174	0xbd8e457f	-0.06946849
175	0x3c0e52c4	0.008686725
176	0xbe5e5b4c	-0.21714514
177	0xbe3c18c5	-0.18368824
178	0x3d839a20	0.064258814
179	0x3cd828b2	0.026386593
180	0x3ecf911b	0.40540394
181	0x3dfeae20	0.124355555
182	0xbe7aaf0c	-0.24480838
183	0xbd848a66	-0.0647171
184	0xbd2e9b75	-0.042628724
185	0x3d23caae	0.039988212
186	0xbe9b0810	-0.3027959
187	0xbe05f334	-0.13081056
188	0x3d9a90d3	0.07547154
189	0xbe39d986	-0.18149385
190	0xbe46d8e3	-0.19418673
191	0xbec9e777	-0.39434406
192	0xbd1bdb84	-0.038051143
193	0xbc7d6c12	-0.0154676605
194	0x3d5ad189	0.053422485
195	0x3c80f15e	0.015740093
196	0x3eaa31ee	0.33241218
197	0xbe738909	-0.23782744
198	0x3c5bf03d	0.0134239765
199	0x3d162ff8	0.03666684
200	0xbe552244	-0.20813853
201	0x3e89d901	0.26923373
202	0xbded0c47	-0.11574607
203	0x3e38ae66	0.18035278
204	0x3e67d300	0.22639084
205	0xbe069b9b	-0.13145296
206	0x3d0d766b	0.03453676
207	0x3e1df489	0.15425314
208	0xbecdf03b	-0.40222344
209	0xbe3a0f8c	-0.18169993
210	0x3e0e9c44	0.13926798
211	0x3df5b427	0.11997252
212	0xbc2ef6a0	-0.010678917
213	0x3d987084	0.07443336
214	0xbe133872	-0.14377001
215	0xbe7e2ffa	-0.24822989
216	0xbdc913c6	-0.098182246
217	0xbeb8c261	-0.360858
218	0xbdfc750b	-0.12327012
219	0xbdcba8a4	-0.09944275
220	0x3e101639	0.14070977
221	0x3d74a89e	0.05973112
222	0xbe477050	-0.19476438
223	0x3e3b565b	0.18294661
224	0x3d4791d3	0.048723053
225	0xbdb6ae2c	-0.089199394
226	0xbd0404ac	-0.032231018
227	0x3da38fac	0.079863876
228	0xbdc9ae9c	-0.09847757
229	0x3ea0c320	0.3139887
230	0x3d5b8f95	0.053603727
231	0xbd12a5e0	-0.035802722
232	0x3e18632d	0.14881583
233	0xbe11f9be	-0.14255425
234	0xbe0f80ac	-0.14013928
235	0x3e7f76ef	0.24947713
236	0xbd0ed7ec	-0.034873888
237	0xbda67f53	-0.08129754
238	0x3e6e0b0d	0.23246403
239	0xbd1cab3d	-0.038249243
240	0xbde26fa6	-0.110564515
241	0xbcebd65b	-0.028788736
242	0x3e5b18cb	0.21396177
243	0x3dc95eb9	0.0983252
244	0x3e4eb1a6	0.20184955
245	0x3e0d2204	0.13782507
246	0xbe699bef	-0.2281339
247	0xbd134703	-0.035956394
248	0xbbf47251	-0.0074599166
249	0xbe2dd765	-0.16976698
250	0x3ba78f68	0.005113531
251	0xbd6a4675	-0.0571961
252	0x3e1fedae	0.15618011
253	0xbe414bbf	-0.18876551
254	0x3d1eb346	0.038745187
255	0xbe28b395	-0.16474755

bias f4 [24]
0	0xbdfbce70	-0.12295234
1	0xbdaa8abb	-0.08327242
2	0x3d2306e7	0.039801504
3	0xbd81858a	-0.06324299
4	0xbc85b5e6	-0.016322087
5	0xbcdeb140	-0.027184129
6	0x3dcb2e18	0.09920901
7	0x3d944060	0.07238841
8	0x3dc22f00	0.09481621
9	0x3da85498	0.0821926
10	0xbd95fe3c	-0.07323882
11	0x3db51a47	0.08842903
12	0x3d98b6ed	0.07456765
13	0xbde5c512	-0.11219229
14	0xbe008f37	-0.12554632
15	0xbdc99423	-0.09842708
16	0x3c758e99	0.014987611
17	0x3dc3d8cc	0.09562835
18	0xbdc55d45	-0.096369304
19	0x3dc9fe91	0.09863008
20	0x3cf16296	0.029465955
21	0xbd8b0279	-0.06787581
22	0xbdeddc5f	-0.11614298
23	0xbd0c0a1e	-0.034189336

weight f4 [24]
0	0x3e813c25	0.252412
1	0x3e5adff1	0.2137449
2	0x3e7f09cf	0.24906085
3	0x3e6b22ff	0.22962569
4	0x3e6c0458	0.23048532
5	0x3e8a83f9	0.27053812
6	0x3e6c10fd	0.23053356
7	0x3e8af4f4	0.2714001
8	0x3e8960c8	0.2683165
9	0x3e655bee	0.2239835
10	0x3e8d68fd	0.27619162
11	0x3e513a06	0.2043229
12	0x3e67c681	0.22634317
13	0x3e665219	0.22492255
14	0x3e70b8b5	0.2350796
15	0x3e878f1e	0.26476377
16	0x3e858d07	0.26084158
17	0x3e889221	0.26673988
18	0x3e8761d7	0.26441833
19	0x3e6adc91	0.22935702
20	0x3e8969bc	0.2683848
21	0x3e82c16f	0.25538203
22	0x3e653dfd	0.22386928
23	0x3e8843df	0.26614282

weight f4 [24, 24, 3]
0	0xbcc51a0c	-0.024060272
1	0xbe743f5a	-0.23852292
2	0xbea1d9fa	-0.31611615
3	0x3e20e85e	0.15713641
4	0x3d3bc91d	0.045846093
5	0xbdaa7d43	-0.08324673
6	0xbd768699	-0.060186956
7	0xbe139676	-0.14412865
8	0xbe03ffcb	-0.12890546
9	0x3dcdaaa8	0.10042316
10	0x3d5ea7d6	0.05435928
11	0xbea81843	-0.3283101
12	0xbdd6e79e	-0.10493396
13	0x3d4caf9b	0.049972158
14	0xbd6781f0	-0.056520402
15	0xbb4b1ebb	-0.0030993659
16	0x3dbf49df	0.09340262
17	0x3e32eccb	0.17473142
18	0x3e9c30ea	0.30506068
19	0xbe661e2b	-0.22472446
20	0x3e8424aa	0.25809222
21	0x3c9f2db1	0.019430967
22	0xbd5c5172	-0.05378861
23	0xbd9fce56	-0.07803027
24	0xbe4d5047	-0.20050155
25	0xbe0be7f0	-0.13662696
26	0xbd06d81a	-0.032920934
27	0xbe7a6f50	-0.24456525
28	0x3d6b2826	0.057411335
29	0xbc5075f0	-0.012723431
30	0x3d215f72	0.039397664
31	0x3e1554df	0.14583157
32	0xbd8dda20	-0.0692637
33	0xbab68c88	-0.001392738
34	0xbe407def	-0.1879804
35	0xbe5eb4a0	-0.2174859
36	0x3e2cdeba	0.16881838
37	0x3e0dad8b	0.13835733
38	0x3e07d35f	0.13264225
39	0xbc93d948	-0.018047944
40	0xbc82eadb	-0.015981128
41	0x3e0ced0b	0.137623
42	0xbe57cfcd	-0.21075363
43	0x3d834627	0.06409865
44	0xbe42c741	-0.19021322
45	0xbc877cb1	-0.01653895
46	0x3d6da17e	0.05801534
47	0xbd9b329f	-0.075780146
48	0x3df68ddf	0.120387785
49	0xbcb7ceb1	-0.022437425
50	0xbc2ff675	-0.010739912
51	0xbcfe4602	-0.031039242
52	0xbe81e2d3	-0.25368366
53	0xbddf33d8	-0.1089856
54	0xbd88cbf3	-0.06679525
55	0x3e638e5c	0.22222275
56	0xbdca94de	-0.098916754
57	0xbba7ddbc	-0.0051228683
58	0x3e23cd71	0.15996338
59	0x3ea5499f	0.3228273
60	0x3e7e661e	0.24843642
61	0x3c9f7216	0.01946358
62	0x3d1745fc	0.036931977
63	0xbd94fdad	-0.07274947
64	0xbc0e5dc4	-0.008689348
65	0x3ec707c2	0.38873106
66	0x3a2df51f	0.0006635952
67	0xbe26d62e	-0.1629264
68	0x3da009cf	0.07814371
69	0x3df7f3e9	0.12107069
70	0x3e9c5bff	0.30538937
71	0xbe1e4608	-0.15456402
72	0xbd4b525b	-0.049639087
73	0xbe789505	-0.24275596
74	0xbd88fcd8	-0.06688851
75	0xbd8c0c70	-0.0683831
76	0x3dad2a4e	0.084553346
77	0xbd0fa318	-0.035067648
78	0x3eac5ade	0.33663076
79	0xbe71a910	-0.23599648
80	0x3d633ab7	0.055475917
81	0x3d99a3d4	0.07501951
82	0x3d81bbca	0.06334646
83	0xbe301840	-0.1719675
84	0x3e33c6fd	0.17556377
85	0x3de605ab	0.1123155
86	0x3d95c4c3	0.0731292
87	0x3e4ea088	0.20178425
88	0x3e1a947b	0.15095703
89	0xbd5cfec8	-0.053953916
90	0xbdb314fa	-0.08744235
91	0xbe8dc473	-0.2768894
92	0x3ec3147d	0.3810157
93	0xbd503b20	-0.050837636
94	0x3d022016	0.03176888
95	0xbe362cca	-0.17790523
96	0xbe84b158	-0.25916553
97	0xbe047198	-0.12933958
98	0xbd12a0bd	-0.035797823
99	0xbc751d03	-0.01496053
100	0xbe65befa	-0.22436133
101	0x3c2a1c6f	0.010382756
102	0xbe1497f4	-0.1451109
103	0xbd2af126	-0.041733883
104	0x3dfaf03c	0.12252852
105	0xbd7baefe	-0.061446182
106	0xbde538fb	-0.11192509
107	0xbdf2120d	-0.11819849
108	0xbe5e4abe	-0.217082
109	0xbdc06b76	-0.093954965
110	0xbe0f332b	-0.13984363
111	0x3e9c4b0f	0.30526015
112	0xbcda3196	-0.026634973
113	0xbb828bc4	-0.0039839465
114	0x3e19470b	0.14968507
115	0x3ccb82a9	0.024842577
116	0xbded58be	-0.11589192
117	0x3e364b61	0.17802192
118	0x3df07dd2	0.11742748
119	0xbc8fb693	-0.017543113
120	0xbee291d9	-0.44251898
121	0xbdd90c20	-0.10598016
122	0xbca550a2	-0.02018005
123	0xbeb1d57e	-0.34733194
124	0x3dcdd4b1	0.10050333
125	0xbd3785a9	-0.044805203
126	0x3e8f2036	0.27954262
127	0xbe015e06	-0.12633523
128	0x3d6a3797	0.05718192
129	0x3ea46909	0.32111385
130	0xbd805b3e	-0.06267403
131	0xbe5af96c	-0.2138421
132	0x3c9bdd28	0.019026354
133	0x3dc547ac	0.09632811
134	0x3e22de64	0.15905148
135	0xbe6af13f	-0.2294359
136	0x3e3fbdbe	0.18724725
137	0xbe73359d	-0.2375092
138	0x3e47183f	0.19442843
139	0xbe292dc0	-0.16521358
140	0xbd06167a	-0.03273628
141	0xbde959de	-0.11394094
142	0xbc15d6d9	-0.009145462
143	0xbe22da20	-0.1590352
144	0x3e983fa0	0.29736042
145	0x3ced9ed8	0.029006407
146	0xbd835dcf	-0.06414377
147	0x3e1d5bcb	0.15367047
148	0xbc84c41e	-0.016206797
149	0xbda63292	-0.08115114
150	0x3dc99b8d	0.09844122
151	0x3dc5de0b	0.09661492
152	0xbe19453a	-0.14967814
153	0x3e6ca25a	0.23108807
154	0x3e946c07	0.28988668
155	0x3d86a327	0.065740876
156	0xbe1d3476	-0.15352044
157	0x3e7f7f5e	0.2495093
158	0xbcb23b68	-0.021756843
159	0xbccf6515	-0.025316754
160	0x3dc7b812	0.097519055
161	0xbdbfd6a9	-0.09367115
162	0x3d4f2c94	0.050579622
163	0x3d84b4d4	0.06479803
164	0xbdb8d373	-0.09024706
165	0x3d28e3b9	0.0412328
166	0xbd1d881e	-0.03845989
167	0x3d1654ec	0.03670208
168	0xbe341a95	-0.17588265
169	0xbe9a9687	-0.30192968
170	0x3df26bcd	0.118369676
171	0xbe5a5f8a	-0.21325508
172	0xbdb7ac12	-0.08968367
173	0xbe5eadec	-0.21746033
174	0xbd8029fd	-0.06258009
175	0xbe487ab0	-0.19578052
176	0x3ca7601d	0.020431573
177	0xbde20536	-0.1103615
178	0xbe56d5dd	-0.2098002
179	0xbd07972e	-0.03310316
180	0xbdb12fa2	-0.08651663
181	0x3e882bcc	0.26595914
182	0xbcf0f16d	-0.029411996
183	0x3ca8f59c	0.020624928
184	0x3d14d89f	0.0363394
185	0x3d812aed	0.063070156
186	0x3e392e92	0.18084171
187	0x3e20da02	0.15708163
188	0x3c75dd37	0.015006355
189	0xbd4fbf7e	-0.05071973
190	0x3dd1ae95	0.10238377
191	0xbe31a0e2	-0.17346528
192	0x3d5e7e81	0.054319862
193	0x3e520bcd	0.20512314
194	0x3d81d2c1	0.06339026
195	0xbdf0ffa1	-0.11767507
196	0x3e71d9f4	0.23618299
197	0xbd50696a	-0.05088178
198	0x3d977dfd	0.07397077
199	0xbe8e1d37	-0.27756664
200	0x3cdccd91	0.02695349
201	0xbb4b8159	-0.003105244
202	0x3c790637	0.015199236
203	0x3e3ffd37	0.18748938
204	0xbd7b85e7	-0.061406996
205	0xbebcc0fd	-0.36865988
206	0x3d4d9f1a	0.05020056
207	0xbeac2369	-0.33620766
208	0xbe49e14c	-0.1971485
209	0x3db282f1	0.08716381
210	0x3e85f1f5	0.2616116
211	0xbbc3eadf	-0.0059789266
212	0xbe26f8b1	-0.16305806
213	0xbdb9c782	-0.09071256
214	0xbe75ea13	-0.24015073
215	0xbd025430	-0.03181857
216	0xbe38dabd	-0.18052192
217	0x3e4ae08b	0.19812219
218	0xbd6e767e	-0.05821847
219	0x3d666fb2	0.056258865
220	0xbe74fa05	-0.239235
221	0x3d0cbbbd	0.03435873
222	0xbd3a1065	-0.04542579
223	0xbe241a06	-0.16025552
224	0x3d916168	0.07098657
225	0xbe62e646	-0.22158155
226	0xbddd4092	-0.108033314
227	0xbd8cbe49	-0.068722315
228	0x3c3bd5d4	0.011464555
229	0x3dd4f098	0.10397452
230	0xbd433a20	-0.047662854
231	0x3e038f4c	0.12847632
232	0xbe3cd3d8	-0.18440187
233	0x3ead9cb7	0.33908626
234	0x3e164a94	0.14676887
235	0x3dd711d1	0.10501445
236	0x3c34182f	0.010992094
237	0x3cadc670	0.021212786
238	0x3e00efd9	0.12591495
239	0xbdfc7b96	-0.1232826
240	0x3e8ad596	0.27116078
241	0xbd192490	-0.037388384
242	0x3eb2bf3e	0.3491153
243	0x3e380b28	0.17973006
244	0xbd1b57c9	-0.037925515
245	0xbe4931dc	-0.19647926
246	0xbdec8017	-0.11547869
247	0xbebd9fb0	-0.37035894
248	0x3ce0028d	0.027344966
249	0x3cdeb94e	0.02718797
250	0x3d366ef8	0.04453942
251	0xbdf02986	-0.1172667
252	0xbea6cbe3	-0.32577428
253	0x3e0a2a14	0.13492614
254	0xbe41249b	-0.1886162
255	0xbe9c2e41	-0.3050404

bias f4 [24]
0	0xbdf81323	-0.12113025
1	0xbc22334a	-0.009899924
2	0x3dd51ed4	0.104062706
3	0x3ccb0252	0.02478138
4	0xbc03667f	-0.008020042
5	0x3d53234c	0.051547334
6	0xbacb85f1	-0.0015527589
7	0xbdfe522f	-0.12418019
8	0xbd89564c	-0.06705913
9	0xbded8e02	-0.115993515
10	0xbcd7619f	-0.026291667
11	0x3d86a8db	0.065751754
12	0xbd63580a	-0.055503882
13	0xbd5fec19	-0.05466852
14	0x3c1ad6d2	0.009450631
15	0xbd918d54	-0.07107034
16	0x3d79990e	0.06093698
17	0x3d623714	0.055228308
18	0xbda8c65d	-0.0824096
19	0xbd58411e	-0.052796476
20	0x3bb47c15	0.005507956
21	0xbe088d98	-0.13335264
22	0xbc122ca8	-0.00892178
23	0xbdbef1ff	-0.09323501

weight f4 [24]
0	0x3e6628ce	0.22476503
1	0x3e5a3588	0.21309483
2	0x3e6bf865	0.23043974
3	0x3e8a480f	0.270081
4	0x3e6a1e46	0.22863111
5	0x3e5c9ee8	0.21544993
6	0x3e644e71	0.22295548
7	0x3e6b9860	0.23007345
8	0x3e791be8	0.24327052
9	0x3e6806eb	0.22658889
10	0x3e641232	0.22272566
11	0x3e7e821f	0.24854325
12	0x3e5bfde5	0.21483572
13	0x3e460e37	0.1934136
14	0x3e84ef1a	0.2596367
15	0x3e7ebcc7	0.248767
16	0x3e689d0b	0.22716157
17	0x3e64821d	0.2231526
18	0x3e64c636	0.22341236
19	0x3e86d8e9	0.26337364
20	0x3e96a3d1	0.29421857
21	0x3e83ef9b	0.25768742
22	0x3e4bbd4c	0.1989643
23	0x3e8ba33e	0.2727298

weight f4 [24, 24, 3]
0	0x3e3ed693	0.18636541
1	0xbc316a44	-0.010828558
2	0xbc626ff7	-0.01382064
3	0x3d941418	0.07230395
4	0x3e879bb1	0.2648597
5	0xbe5ec092	-0.21753147
6	0xbe2206a8	-0.15822852
7	0xbd63b6be	-0.0555942
8	0x3c12bb37	0.008955768
9	0xbe83b404	-0.2572328
10	0x3dc58e81	0.09646321
11	0x3ea5c9a9	0.32380417
12	0x3d985b2b	0.07439264
13	0x3db10977	0.086443834
14	0xbe3ab5e6	-0.18233451
15	0xbeacc82f	-0.33746478
16	0x3e09a4b0	0.1344173
17	0x3ea2ceb3	0.31798324
18	0xbe8881fb	-0.26661667
19	0xbd0edabe	-0.034876578
20	0xbd769c57	-0.06020769
21	0x3e2b8f2c	0.16753834
22	0x3dc2c9ce	0.095111474
23	0xbd9eb460	-0.077492476
24	0xbe1fcaa2	-0.15604642
25	0xbe5789c8	-0.21048653
26	0xbe116170	-0.14197326
27	0xbe013088	-0.1261617
28	0xbe7a9a6f	-0.24472974
29	0xbdc19ce6	-0.09453754
30	0x3c5396a1	0.012914331
31	0xbcefada7	-0.029257609
32	0xbe537fed	-0.20654269
33	0xbe9d8a0e	-0.3076939
34	0x3dcb42d6	0.09924857
35	0x3eb077aa	0.34466296
36	0xbd8dabf7	-0.06917565
37	0x3e502e55	0.20330174
38	0xbd3382e2	-0.04382599
39	0xbde5ef90	-0.112273335
40	0x3dc7bdde	0.09753011
41	0x3dcbce85	0.099515
42	0xbe03c0bc	-0.12866491
43	0x3e1b90f4	0.15192014
44	0xbdad483d	-0.08461044
45	0x3d757bdc	0.059932575
46	0xbc63fb5f	-0.013914912
47	0xbeb99bbf	-0.36251637
48	0x3ea81395	0.3282744
49	0xbdfa9b1e	-0.122366175
50	0xbe88dd38	-0.26731277
51	0x3dc9b943	0.09849789
52	0x3df96f81	0.12179471
53	0xbd86d23b	-0.06583067
54	0xbc930412	-0.017946277
55	0xbe82b3ed	-0.25527897
56	0x3e8c4ac4	0.27400792
57	0x3e853fbd	0.2602519
58	0xbdd0777d	-0.101790406
59	0x3d75451a	0.059880354
60	0xbd8c92fc	-0.068639725
61	0x3ea9c080	0.33154678
62	0x3e2c6d56	0.16838583
63	0xbd218a4c	-0.03943853
64	0xbddf7d11	-0.109125264
65	0x3dd2937a	0.10282035
66	0xbdc971ef	-0.09836184
67	0x3cab568c	0.020915292
68	0x3dc1a483	0.09455206
69	0x3e928064	0.2861358
70	0x3e2ae0c9	0.16687311
71	0xbdf217f6	-0.118209764
72	0x3c300fe7	0.010745979
73	0xbd236476	-0.03989073
74	0xbe08b547	-0.13350402
75	0x3d1f050e	0.03882318
76	0x3ccf19b5	0.025280813
77	0xbbd68535	-0.0065466412
78	0x3df04cd2	0.11733402
79	0x3e6ada86	0.22934923
80	0x3ea34a0f	0.3189244
81	0x3d46827d	0.048464287
82	0x3cf72d84	0.03017307
83	0x3f09186c	0.5355289
84	0x3de7c0ac	0.11316046
85	0xbdb183b0	-0.086676955
86	0xbe358d81	-0.1772976
87	0x3d9dbde9	0.07702238
88	0xbea2f258	-0.3182552
89	0x3e690977	0.22757517
90	0xbe3e86a1	-0.18606044
91	0xbdb7d83b	-0.089767896
92	0xbea9b2dd	-0.33144274
93	0xbc8b660a	-0.01701643
94	0x3e362595	0.17787774
95	0x3d67568a	0.056479014
96	0xbd63758f	-0.055532034
97	0xbe6eae25	-0.23308618
98	0xbe1d0e69	-0.15337528
99	0xbc772729	-0.01508502
100	0xbe5ba932	-0.21451262
101	0xbdfc238a	-0.12311466
102	0x3e793b4e	0.24339029
103	0xbe36bf01	-0.178463
104	0xbe5d280e	-0.21597311
105	0xbe2e452b	-0.17018573
106	0xbe17aa59	-0.14811076
107	0x3dc6d06f	0.09707724
108	0xbd81b94a	-0.06334169
109	0xbe382dcf	-0.17986225
110	0xbdb3d1d9	-0.0878026
111	0x3d038d55	0.032117207
112	0x3e6a6c09	0.22892775
113	0x3ef42a9a	0.47688752
114	0x3e93d33e	0.28872102
115	0xbdf423d2	-0.11920895
116	0x3d83b3d0	0.06430781
117	0xbcc48230	-0.02398786
118	0xbc04ff7a	-0.008117551
119	0xbe8fd91d	-0.28095332
120	0xbde27465	-0.11057357
121	0x3e69edd7	0.22844635
122	0x3e3f6522	0.18690923
123	0xbdf2f7ce	-0.11863671
124	0xbe45498b	-0.19266336
125	0xbdfcf2bb	-0.12350985
126	0xbca410ea	-0.020027597
127	0xbe76e68f	-0.24111389
128	0x3e452920	0.19253969
129	0xbe8f50ca	-0.27991325
130	0xbe91cee4	-0.28478158
131	0x3e56cfb9	0.20977677
132	0x3d29b144	0.04142882
133	0xbd4a267e	-0.049353115
134	0x3db30afa	0.08742328
135	0xbe457501	-0.19282915
136	0xbe5a08c4	-0.21292406
137	0xbe08affe	-0.13348386
138	0x3e2cde7d	0.16881748
139	0xbd6fa3cd	-0.058505822
140	0xbdb1710f	-0.08664142
141	0xbe8756e0	-0.26433468
142	0x3daf182b	0.085495315
143	0x3d84d959	0.06486768
144	0x3c6a012a	0.014282504
145	0xbe52a739	-0.20571603
146	0x3de40fdc	0.111358374
147	0xbdb8db2b	-0.09026178
148	0x3da630b9	0.08114762
149	0xbe755468	-0.2395798
150	0xbe9296b4	-0.28630602
151	0xbe533908	-0.20627224
152	0xbd359a43	-0.04433657
153	0x3dfe3f25	0.124143876
154	0x3cdf51bb	0.027260652
155	0x3e12ba98	0.14328992
156	0x3e3165eb	0.17324035
157	0xbe1ad70b	-0.15121095
158	0x3b83e02a	0.004024525
159	0xbe312c86	-0.1730214
160	0x3e4f75de	0.20259807
161	0xbdbf726e	-0.093479976
162	0xbd40bf06	-0.047057174
163	0xbe77d198	-0.24201047
164	0xbd0a2b29	-0.033732567
165	0xbe2979d1	-0.16550376
166	0xbe206349	-0.15662874
167	0xbd5ad956	-0.053429924
168	0x3e25bcf1	0.16185357
169	0x3dcc6364	0.09979895
170	0xbb05d52e	-0.0020421254
171	0xbe528431	-0.2055824
172	0x3e10e8f1	0.1415136
173	0xbe4edfed	-0.20202608
174	0xbeae18eb	-0.34003386
175	0xbe72f67e	-0.23726842
176	0x3e1c7917	0.15280567
177	0x3de01552	0.109415665
178	0xbdd47b91	-0.10375131
179	0x3e8329ed	0.25617924
180	0x3d78c665	0.06073608
181	0xbd550719	-0.052008722
182	0x3df81bd4	0.12114683
183	0x3dfb6d27	0.122766785
184	0xbdadc8d2	-0.08485569
185	0x3eb22dd7	0.34800598
186	0xbdb0cc21	-0.086326845
187	0x3d761243	0.06007601
188	0xbcd3b695	-0.025843898
189	0x3e23ba98	0.15989149
190	0x3e1e9e59	0.15490092
191	0xbe775d20	-0.24156618
192	0xbd2e1ec6	-0.042509817
193	0x3d528466	0.051395796
194	0xbe29bbd6	-0.1657556
195	0x3e22a748	0.15884125
196	0xbd746331	-0.05966491
197	0x3e5bc0a3	0.21460204
198	0xbe126d0b	-0.14299409
199	0x3dd357e8	0.10319501
200	0xbe58fef2	-0.21191004
201	0x3c8093ca	0.015695471
202	0x3d152b0f	0.036418017
203	0xbd9110b1	-0.07083262
204	0xbd9a869e	-0.075452074
205	0xbe2b1e19	-0.167107
206	0x3dd8f23a	0.10593076
207	0xbdd498a1	-0.10380674
208	0x3e20d28b	0.15705316
209	0x3e13949a	0.14412156
210	0xbda33f42	-0.0797105
211	0xbd2846a3	-0.04108299
212	0xbde9ce11	-0.11416257
213	0x3d722bf5	0.059123952
214	0x3dc7aab1	0.09749354
215	0x3d7d14ef	0.061787542
216	0x3e241c4d	0.16026421
217	0x3d75468d	0.059881736
218	0x3daba6fd	0.0838146
219	0xbdb8a09c	-0.09015009
220	0x3e4e5b87	0.20152102
221	0x3d127977	0.03576037
222	0x3da9e54e	0.082956895
223	0xbd2bc67e	-0.041937344
224	0x3ad63cd2	0.001634503
225	0xbddcff71	-0.10790909
226	0x3c0e971e	0.008703021
227	0x3e8fb843	0.28070268
228	0xbe0caea1	-0.1373849
229	0xbe71f238	-0.23627555
230	0xbdd25059	-0.10269231
231	0xbd73e6a9	-0.059546147
232	0x3da9ab53	0.082846306
233	0xbe0ac0d5	-0.13550122
234	0xbecd63d2	-0.4011522
235	0x3dfbd4e4	0.12296465
236	0xbdd4c4d2	-0.10389103
237	0x3d24c619	0.040227983
238	0x3e22c0c9	0.15893854
239	0x3cf5061d	0.029910142
240	0x3e493822	0.19650319
241	0x3e0eab36	0.139325
242	0xbea15774	-0.31512034
243	0xbe65462f	-0.22390054
244	0x3e8bdb98	0.27315974
245	0x3e868887	0.26276037
246	0x3e0a8f61	0.13531257
247	0xbe28a092	-0.16467503
248	0xbdc57526	-0.09641485
249	0x3e3e4d33	0.18584137
250	0xbebd7dbe	-0.37009996
251	0xbdc41b5c	-0.09575531
252	0xbdc70d4b	-0.09719332
253	0xbe9bdbdf	-0.30441186
254	0xbb17cd50	-0.0023163147
255	0x3da133c2	0.078712

bias f4 [24]
0	0x3d96b457	0.07358616
1	0x3cb9ac0b	0.022665044
2	0x3da8f133	0.0824913
3	0x3db343fe	0.08753203
4	0xbc26acf5	-0.010173072
5	0xbdc35c10	-0.09539044
6	0xbd056a15	-0.03257187
7	0xbd715c67	-0.058926012
8	0x3cd7e3f9	0.026353823
9	0xbce646bc	-0.0281099
10	0xbd28aec2	-0.041182287
11	0xbd8382e8	-0.06421453
12	0x3d8d5865	0.069016255
13	0x3b1aa4ca	0.0023596757
14	0xbc219d96	-0.009864232
15	0xbdcf2df7	-0.10116189
16	0x3db36f55	0.08761469
17	0xbd7f7b18	-0.06237325
18	0x3b8cbf72	0.004295283
19	0xbd662412	-0.056186743
20	0xbd97cbad	-0.07411895
21	0x3d9b0808	0.07569891
22	0xbce7afd4	-0.028282084
23	0x3d4922d7	0.04910549

weight f4 [24]
0	0x3e6a6b03	0.22892384
1	0x3e8cce82	0.27501303
2	0x3e84cf6f	0.2593951
3	0x3e6b80ae	0.22998306
4	0x3e4426a3	0.19155364
5	0x3e8755f7	0.26432773
6	0x3e6cac57	0.23112617
7	0x3e51ff5b	0.20507567
8	0x3e6b0d08	0.2295419
9	0x3e83b25d	0.25722018
10	0x3e8b272a	0.27178317
11	0x3e872bf1	0.26400712
12	0x3e6c5b07	0.23081599
13	0x3e5e5aca	0.21714321
14	0x3e69aeb4	0.2282055
15	0x3e72678b	0.23672311
16	0x3e86233f	0.26198766
17	0x3e6ca7ba	0.23110858
18	0x3e6a6626	0.22890529
19	0x3e75502a	0.23956361
20	0x3e60701c	0.21917766
21	0x3e67cfed	0.22637911
22	0x3e8676a2	0.26262385
23	0x3e6dfff7	0.23242174
