models/teste-ss3_ss4.pth (torch_old, 60470 bytes, 77 tensors)

weight f4 [8, 22, 1]
00000000: 7769 bb3e 565e edbd 1177 a13e e761 533e
00000010: 8a50 9b3e 3576 213e fb66 03be 64b7 183e
00000020: f36f e23e c4a9 2f3d dc2c 313d e4c5 3c3e
00000030: e6cf 243f 8f1b c83e aa5a e63d dfd4 243e
00000040: e6bf dabd 96bf 0e3f 9209 ac3d dc3d d8be
00000050: 1165 78be e21e 26bd b073 863d f1f3 d5be
00000060: 2f59 ae3e 3ce6 a83e 10aa 803e 9a6c 0bbe
00000070: 5596 f7bd 3564 043f c9e8 92be 1a36 613e
00000080: d7d0 c53e 42ba 9ebe e5bb f5be 7033 7fbe
00000090: bddf 093f bd69 e4bc 9105 e0bc 2c5e 823b
000000a0: fa73 85be 0c9c d6bc f337 c8bd 44f2 5d3d
000000b0: 5d2a b43e 01c0 bb3d 62b8 03bf 9bc8 a7be
000000c0: 6e91 e33c b489 893e 98d1 bb3e 8cc9 733e
000000d0: 1a3f ec3e e52c 203e b575 96be c4f4 0abe
000000e0: c7ff 2e3d 5d7c c73e cc19 503d 8474 8d3c
000000f0: 27b9 d33e 339b 413e 8d8a 833e 0904 ffbe
00000100: e1c8 2ebd 2a54 b23e cb83 e7bd 8a7f ae3e
00000110: 95d6 0ebe a52e d7bd 14b0 40bf 5b4c ab3e
00000120: 8973 843d 83bd 1c3e 37b2 d2be faa1 023e
00000130: 99d7 6e3d 252b e2bd 0dea b3be eda1 97be
00000140: bcef 003f b8c6 683e 0dbc 3abf 06df 19be
00000150: 68e1 29bf 46ae 77be d0cc af3d 5faf 54be
00000160: 1602 aabd 9100 b63d dc4d f13e 0722 d83e
00000170: af6c ecbd 5582 0d3f 1144 fc3d 5578 2cbd
00000180: db2b 393d 1eaa 143f 75c9 4bbe 868b 18bf
00000190: f623 1bbe 3a41 2bbe 0f7d 88be 31ed 083f
000001a0: 075d 2abe 1bf1 3dbe 7183 c53e d451 aabe
000001b0: f548 f0bd d684 72bf 1a7d 193e 02cf 663f
000001c0: 137d 273d 56ff 363d 2245 ebbe c8cf 89bd
000001d0: 3a1e fb3c c130 c73c dda7 083f e2ff 073e
000001e0: ba8a fb3d fa07 a73d 767f 21be 869c babd
000001f0: b4eb ddbd 1b9f fe3e ae77 82be bfb1 d93d
00000200: 87bb 103e f343 dc3e 23ba 54bd e06a 83bd
00000210: 23cf e23e 95f1 a73d 62fc e13e 421a 35bd
00000220: 88ad 1fbf baa8 8fbd 65d7 5a3e 6ac9 da3e
00000230: 3a64 883d fc83 f03d 3041 273e be51 833e
00000240: 09c2 aabd 8445 1b3f 84fd 783e 4207 883e
00000250: 9704 0bbf 9cee 21be f4aa 99bf a4dd 3f3f
00000260: 6306 6d3d 670f 46bf 0430 2cbd 2444 e73e
00000270: 86a5 6dbd f550 05bf 4f66 d93e d0ba dc3e
00000280: 3c44 96be 4706 103e cb6e 51be 1492 b83e
00000290: cc3d 23be e737 103e 2378 223e 5a92 2a3e
000002a0: 00a4 b03e ba18 363f 2986 48be 467c dcbe
000002b0: 69d3 32be 2235 9d3d 3b68 e13e 1ac4 76be
0.366039 -0.11590259 0.31536153 0.20642816 0.30334884 0.15767749 -0.12832253 0.14913708
0.44226035 0.04288651 0.04325567 0.18434864 0.6437973 0.39083526 0.112477615 0.16096829
-0.10681133 0.55761087 0.08400263 -0.42234695 -0.24257304 -0.040556796 0.065650344 -0.41787675
0.34052417 0.32988155 0.25129747 -0.13615647 -0.120892204 0.51715404 -0.28693226 0.21993294
0.38635895 -0.31001478 -0.47994915 -0.24921966 0.5385702 -0.027882451 -0.027346404 0.0039785113
-0.26065046 -0.026197456 -0.097762965 0.05418612 0.3518857 0.09167481 -0.5145322 -0.32770237
0.027779307 0.26862872 0.36683345 0.23807353 0.46141893 0.15642126 -0.29386678 -0.13569933
0.042724397 0.3896207 0.05080585 0.017267473 0.41352198 0.1890686 0.25691643 -0.49807766
-0.04267204 0.34829837 -0.113044344 0.3408168 -0.13949044 -0.105069436 -0.75268674 0.33456692
0.06467349 0.15306668 -0.41151592 0.12757102 0.05831108 -0.110433854 -0.35139504 -0.29615727
0.50365806 0.22732055 -0.7294319 -0.15026483 -0.6635957 -0.24187574 0.08583987 -0.20770024
-0.08301179 0.08886827 0.47129714 0.4221346 -0.11544167 0.55276996 0.1231767 -0.042106945
0.04520784 0.5807208 -0.19901069 -0.59587896 -0.15150437 -0.167241 -0.26657912 0.53486925
-0.1663705 -0.18549006 0.38576844 -0.33265555 -0.117326654 -0.9473394 0.14989129 0.9015962
0.040890764 0.0446771 -0.45951182 -0.06729084 0.030654062 0.02431524 0.5338114 0.13281205
0.12282319 0.08155818 -0.15771279 -0.09111886 -0.108359724 0.49730763 -0.25481933 0.106296055
0.14134036 0.4302059 -0.051935326 -0.06416869 0.44298658 0.08200375 0.44137865 -0.044214495
-0.6237416 -0.07014604 0.21371229 0.42731792 0.06659742 0.11743924 0.16333461 0.25648302
-0.083377905 0.6065295 0.24315459 0.26568037 -0.5430388 -0.15813679 -1.2005296 0.7494757
0.05786742 -0.7736725 -0.04203798 0.45169175 -0.058019184 -0.52076656 0.42460868 0.43111277
-0.29348934 0.14064895 -0.2045242 0.3604895 -0.15941542 0.14083825 0.15866141 0.16657391
0.34500122 0.7113148 -0.19582428 -0.43063563 -0.17463459 0.0767615 0.44024834 -0.24098244

weight f4 [8]
00000000: 97f5 643e eaa8 4e3e 4f60 583e 1dc3 493e
00000010: d0bb 943e e5e6 783e 9b6c 5d3e 3c53 313e
0.2235931 0.20181623 0.21130489 0.19703336 0.2904954 0.2430683 0.21623461 0.17316908

weight f4 [8, 8, 3]
00000000: 279b e93d d6a8 67ba d96d 2ebb 5573 c6be
00000010: 11aa 9bbd 5481 c83e 651d 89be 43b7 95be
00000020: 8764 b3be 1e1b 913d 4ce5 1f3d 3171 c9bb
00000030: 1969 133e 69a8 da3d 91ce 913d 2af8 06be
00000040: 1072 503e fe6d f4be 4839 a53e 5764 8ebd
00000050: 5f9b f7be 2ef8 18bf 3b44 fcbe 5847 cabe
00000060: 0b9c 8fbe ad3c 263d f5fb e9bd f579 3c3e
00000070: b888 b3bc da03 2e3e 1db9 1f3e d43b a93d
00000080: 36a9 51bc fb62 b4be a329 a43e eb22 0a3e
00000090: d2d8 0f3f f35e aebd d6d5 0ebe daf2 013e
000000a0: 5827 afbd 04a3 1c3e 5da8 23be 7140 513d
000000b0: 2e3f c5bd 5a41 923e f1f4 86be c16b 5fbe
000000c0: 0f5c 17bf 48b4 14bd 2a11 e1be 3c83 d23d
000000d0: 5546 61be 692a 933e dda3 54be b119 523e
000000e0: 7f32 9a3e 8074 933b e22c cbbe e0e1 85be
000000f0: f97b bfbe 9f11 c6be d69c 243e f96c 44be
00000100: 2b1f 033b f31b 313d 6535 1a3e ba3b 70be
00000110: 9d2d f23d 81a4 fb3e 65b8 c3be 61c2 8e3e
00000120: 8d3e 47be 4004 883c 17dc 85be 2fbc b53c
00000130: e464 973a e46e 723e bd1d 91be 400f d43d
00000140: 46c4 1f3e aa53 61be 537b 41be 37ea b33e
00000150: ee11 2c3e 01ab 353e 18ad a0be 8c66 283e
00000160: e70d 0ebe d80b 043d 7b01 63bd f2ea cfbd
00000170: 6002 ebbd fae1 4abe 91f6 b43d 6762 083e
00000180: f7ba 7cbd e4f5 8dbe ff4f 12bf 85e8 0b3e
00000190: 21ba 253e f96c acbd 7af7 0dbe aac9 a0be
000001a0: c2d6 973e 695f 183d 904f a63e 3a9a fdbc
000001b0: 7ddd 913e 739c 953d 1e10 0fbe bd6d ec3e
000001c0: ef80 313f 92a8 c6bc 52bc cfbd fc1b 6ebe
000001d0: b5e9 9abe 3d09 953e 0f90 17be 3037 2dba
000001e0: df5a 12be 8006 5b3d 83f6 a9be c700 ba3e
000001f0: ac3b c4be 8cff 11be ba37 bbbd 9838 e7bc
00000200: b22d d7be 84a9 02bf b82c 34be 2ed7 f63e
00000210: fb70 a2ba 85fb 5dbe 3d01 0d3f 6480 46bf
00000220: 4922 a1bd 58b1 9bbe 88e1 fabc 83c6 6f3e
00000230: a862 30be 772f 20be c094 8c3e aeef 87bd
00000240: 3b63 88be f391 5a3e 464d 1e3d df5e f13c
00000250: fe6c de3d f720 a5be 4189 8d3d 7e33 29be
00000260: 6142 10be e9bb 38be 83b5 603d f6c4 fbbb
00000270: 8dcc ffbe 1517 8e3d 1020 7abd 2df7 1abe
00000280: 9d06 c8bd c55d 4dbe e8b6 9cbd bdb0 ce3e
00000290: 367e d6be c452 673e d17d 74be cadc b4bd
000002a0: 72bb 09be 3048 a8be f164 a5bb 91f2 5fbe
000002b0: 8967 06bf b172 96be a48e cbbd 3b77 263e
000002c0: 3610 49be de8c d1bd 423e a23d ad02 3f3e
000002d0: 1583 223e 0e6f 693e 1920 d6be cd94 143e
000002e0: 1006 3abe d434 22bd 5c78 02be 107f a1bd
000002f0: 8f01 f03e 7a88 d03d 4616 e1bc def4 1dbe
0.11406546 -0.0008837109 -0.0026615767 -0.38759866 -0.07600797 0.3916117 -0.2678024 -0.2924138
-0.35037634 0.0708525 0.039037034 -0.0061475267 0.1439556 0.10676653 0.071194775 -0.13180605
0.20356011 -0.47740167 0.32270265 -0.06952732 -0.48360726 -0.5975369 -0.49270806 -0.39507556
-0.2804874 0.04058521 -0.1142501 0.18405898 -0.021915779 0.16993657 0.15597959 0.082633644
-0.012796691 -0.35231766 0.32063016 0.13489883 0.56190217 -0.08514204 -0.1394876 0.12690297
-0.08552426 0.1529656 -0.15982194 0.051086847 -0.09631191 0.28565484 -0.2635875 -0.21818449
-0.59124845 -0.036304742 -0.43958408 0.10278937 -0.21999486 0.28743294 -0.20765634 0.20517613
0.3011665 0.004499972 -0.3968268 -0.2614889 -0.3739927 -0.3868532 0.16075453 -0.19182195
0.0020007591 0.043239545 0.15059431 -0.23460284 0.11825106 0.49148944 -0.3822662 0.27882674
-0.19457455 0.016603589 -0.26144478 0.02218446 0.0011550453 0.23675114 -0.28343 0.10354471
0.15602216 -0.22004572 -0.188947 0.3513963 0.16803715 0.17741014 -0.3138206 0.16445369
-0.13872491 0.032237858 -0.055421334 -0.10152234 -0.11475062 -0.19812766 0.08836091 0.13318788
-0.06170174 -0.27726662 -0.57153314 0.13662918 0.16184284 -0.084192224 -0.13863936 -0.31403857
0.29656035 0.037200365 0.32482576 -0.03095733 0.28489295 0.07305231 -0.13970992 0.46177474
0.6933736 -0.024250302 -0.10143341 -0.23252863 -0.3025643 0.2910861 -0.14801048 -0.000660765
-0.14292477 0.053472996 -0.33195886 0.36328718 -0.38326776 -0.1425764 -0.091414884 -0.028225228
-0.4202705 -0.5103991 -0.17595184 0.48211044 -0.001239329 -0.21677978 0.55080014 -0.7753966
-0.078678675 -0.3040874 -0.03062512 0.2341557 -0.17225134 -0.15643106 0.27457237 -0.06637512
-0.26638207 0.21344738 0.038647912 0.029464183 0.10860632 -0.32251713 0.06910945 -0.16523549
-0.14087822 -0.18040432 0.054860603 -0.0076833917 -0.49960747 0.06937996 -0.061065733 -0.15133353
-0.097668864 -0.20055301 -0.07652074 0.40369216 -0.41893166 0.22590166 -0.2387612 -0.08831175
-0.13450411 -0.32867575 -0.0050474335 -0.21869875 -0.5250173 -0.29384378 -0.09939316 0.1625642
-0.1963509 -0.102319464 0.07922031 0.18653364 0.15870316 0.2279627 -0.41821364 0.14509888
-0.18166375 -0.039601162 -0.12741226 -0.078855634 0.4687619 0.10182281 -0.027476441 -0.1542544

bias f4 [8]
00000000: b309 35be 94e8 5e3e 1216 d4bd 7017 efbd
00000010: 8b92 ccbd 84ec 5ebe 6517 a5bc a39d 0ebe
-0.17679481 0.21768409 -0.10355772 -0.11674392 -0.09988888 -0.21769911 -0.020152757 -0.13927321

weight f4 [8]
00000000: 8d3e 883e 8de4 8e3e 053f 903e 4882 853e
00000010: 98ab 973e faa4 8f3e f8ca 9b3e 1766 7c3e
0.26610222 0.27908745 0.2817308 0.2607596 0.29623103 0.28055555 0.3042829 0.24648319

weight f4 [8, 8, 3]
00000000: 87f8 c2bd 2561 573c 10db d93e 5ded c33e
00000010: 571b 9abe 5231 573e 841b 2bbe 7147 0e3e
00000020: 8d45 813e 8cec 6dbe 5e78 0e3e e8dc 013f
00000030: 23d9 6ebd 9b8a e93d 2272 d43e aaf5 653e
00000040: cd73 d23e 9f3a 37be d5cd 5abe 7946 14bf
00000050: cbf4 913e 8621 883e 3837 343d 74ff ec3d
00000060: 472f 3ebe 2dac 6a3e 0a81 ba3d 9b7a d2be
00000070: 9c3c 073e b09a 993d 4fc5 b33b 660d 223d
00000080: 98d0 b43e 251d 6d3e be9e 063e e444 3d3e
00000090: ea67 083e afb7 293e 0736 6abc 3cc6 b0be
000000a0: 7652 9f3e 4d5a 1c3d b1cd 923e b767 a63c
000000b0: 7cb6 29bd 2e8d 11be b2ec 613e 44fd 0cbe
000000c0: f49f d13e 5372 863e a5e2 fcbe c957 5cbb
000000d0: bb7f 983e ae47 84be f872 9a3e 1189 42bd
000000e0: 5c95 53be 57c9 f33e b36e af3e b67e fbba
000000f0: a8c9 353d fb05 383c fa00 aabd 6d66 dd3d
00000100: a3d0 993e 1064 2a3e 74ab 513d af18 e33e
00000110: 73ab 8e3e 4486 943e 4627 debc 351c 893d
00000120: c45b 65be 83eb b73e cc9d 91bd 4119 d73d
00000130: f630 3abe a466 a3be c583 90be 8bb9 173e
00000140: 4808 00be f331 62be ff37 293e 97ee 03be
00000150: a9e1 9b3e e859 cebe e18c 12be 9159 ce3e
00000160: f792 a73e 2195 bf3c 6f20 053e 54c7 6b3e
00000170: 7d91 ebbe 827f b9bc 0493 83bd 1696 95be
00000180: 6290 a1be f37c 8d3e 9f8a 793e ea16 a33e
00000190: fc2b 9439 dbb6 e4be be3e a5bd fd5a d53d
000001a0: 56ac 523e f5f7 89bd 03f1 c0be 1ae1 6cbd
000001b0: f8c0 aa3e fd81 4ebd 5f7c 7dbd a5be 9b3e
000001c0: 9c01 003e 19f4 5e3d 5673 3e3e b1da c13e
000001d0: d2d6 a3bc de18 053e 2311 08bf 8807 c43e
000001e0: 0378 97be eb41 ac3e 914c af3e 06c0 3abd
000001f0: 805f 3fbe 9083 04be b773 76bd 70b5 4a3e
00000200: 518e 45bf ccda 9fbb ee03 3d3e 4a8a 2f3e
00000210: d51c 033f 0dd9 843e 6b4f 513e 1fda d0be
00000220: 0eff 94be 840e 9bbd 6499 83bc a889 81bd
00000230: 5a8e 333e 1655 c43e 3113 e5bd cb03 bd3d
00000240: 132d 2bbd 8547 97bd 0081 cb3d 343d c93d
00000250: a536 16be 2259 463e 00d8 e33d de6f 4dbd
00000260: bf13 eabe 5fe2 c43d 5a0d 6a3e c905 c9bc
00000270: 9958 48be 04d3 cd3d 2dd0 e2bd 335a ae3d
00000280: 4abb b43e 79fe 94bd a9d6 cf3e c082 a6be
00000290: f5fd bbbe e92a 49be 5f70 edbe d7e1 92be
000002a0: 9f3a ee3e 9c51 a5bd 9021 5cbd a829 27bd
000002b0: da06 d5bd 3acb e8bd a903 613e ebc4 f03e
000002c0: c14d 15bf 70c9 b43d 6aca ea3d 9805 7b3d
000002d0: 4f60 9a3e b8b9 66be a738 eabd ada3 b43d
000002e0: d476 fabd 52f4 aebe 2619 42be 8a2a 44bd
000002f0: c33c 973e 9a4e 9e3e 04d5 9ebe d1e3 24be
-0.09520059 0.01314572 0.42549944 0.3826703 -0.30098984 0.21014908 -0.16709715 0.1389444
0.25248376 -0.23234767 0.13913104 0.507277 -0.058312546 0.1140339 0.41493326 0.22456995
0.41103974 -0.17893456 -0.21367581 -0.5792003 0.28507075 0.26588076 0.043997973 0.11572161
-0.18572722 0.22917242 0.091066435 -0.41109166 0.13206714 0.075002074 0.0054861675 0.03956356
0.35315394 0.23155649 0.13146493 0.18483311 0.1332089 0.16573976 -0.014295108 -0.3452624
0.311176 0.038172055 0.28672555 0.020313127 -0.041433796 -0.14214012 0.22062948 -0.13768488
0.40942347 0.26259097 -0.49391666 -0.003362166 0.2978495 -0.25835937 0.3016584 -0.047493998
-0.20662445 0.47614548 0.34264144 -0.0019187543 0.044381768 0.011231895 -0.083009675 0.10810552
0.3004199 0.16639733 0.0511889 0.4435477 0.2786518 0.29008687 -0.027118336 0.06694833
-0.22398287 0.3592187 -0.071101755 0.10502864 -0.1818274 -0.31914246 -0.28225532 0.14816873
-0.12503159 -0.22089367 0.16525267 -0.12883984 0.30445603 -0.40302968 -0.14311554 0.4030271
0.32729313 0.02338654 0.13000654 0.23025256 -0.46009436 -0.022643808 -0.064245254 -0.2921607
-0.31555468 0.2763439 0.24369286 0.3185342 0.0002826153 -0.44670758 -0.08068608 0.10417745
0.20573553 -0.06736747 -0.37683877 -0.05783186 0.33350348 -0.050416935 -0.061886188 0.30418888
0.12500614 0.05443201 0.18598685 0.3786216 -0.019999895 0.12997767 -0.5315115 0.38286996
-0.2958375 0.3364404 0.34238103 -0.045593284 -0.18688774 -0.12940812 -0.060168948 0.19795775
-0.7717028 -0.0048783775 0.1845853 0.17142597 0.5121587 0.25946847 0.20440452 -0.40791413
-0.2910084 -0.07571128 -0.016064353 -0.06325084 0.17534772 0.38346165 -0.11185301 0.09229239
-0.041791033 -0.07386688 0.09936714 0.09826127 -0.14669283 0.19369939 0.11125183 -0.050155513
-0.4571819 0.09613489 0.22856656 -0.024538891 -0.19565047 0.10050014 -0.11074863 0.08513298
0.3529914 -0.07275099 0.4059346 -0.3252163 -0.3671719 -0.19645275 -0.46374795 -0.28687927
0.465291 -0.080722064 -0.053742945 -0.04081121 -0.104016975 -0.113668874 0.21974052 0.47025236
-0.5832177 0.08827484 0.11464389 0.06128463 0.30151603 -0.22531784 -0.11436587 0.08820281
-0.12229696 -0.34170777 -0.18954906 -0.04789213 0.29538545 0.30919343 -0.31021893 -0.1610253

bias f4 [8]
00000000: 8252 66be 9cd4 093e 9063 a5bd e457 073e
00000010: 9d58 b83d 5858 3ebe a5bd 87bc 7b8b 48be
-0.22492412 0.1346001 -0.08075631 0.13217121 0.09001277 -0.18588388 -0.016569922 -0.19584458

weight f4 [8]
00000000: 8a1d 453e 06be 5a3e 4cc1 3a3e 131c 983e
00000010: ca15 5f3e 85bd 723e 2ec4 7e3e 484e 963e
0.1924955 0.2136155 0.182378 0.2970892 0.21785656 0.23705108 0.24879524 0.293566

weight f4 [8, 8, 3]
00000000: cb2a 053f d717 e8bd e7ca 56bd 5aee cc3e
00000010: 4cd6 1ebf e043 49be 6238 983d 2b3f eabd
00000020: 47c0 7abe bba5 5fbc 5098 923e 8079 1a3e
00000030: 6c3e ee3d 4815 07be b800 e83d c53c 98bd
00000040: 2178 0ebe 73d1 1fbd 6721 c93d a7ea fb3c
00000050: c3c3 ea3c 96ea 79bc 3d81 8fbe b537 d4be
00000060: e9bd 05bd 8725 99be 9752 6a3d 8738 293e
00000070: 0518 983e 12b2 613e fde5 4fbd 7650 48be
00000080: 65e2 1c3e 7c8f b63e fb08 b63d 00d4 833d
00000090: 1954 38bf aaad 8c3e 82a7 493e c2ff 733e
000000a0: 7f19 babd b362 36bd b019 b43e 8dd4 19bf
000000b0: e500 83bd 1997 eebd 3d3d c73d b7f4 823e
000000c0: cfd5 ecbe de99 313e cda2 0d3f 47b8 21be
000000d0: e455 fbbc b00d ab3e 3b86 0a3e d835 a0bb
000000e0: 13dd 653d af7a 0f3e 8259 a1be df73 223f
000000f0: 209b 00bf fd85 a9be 48ae 993e 60ad 1a3e
00000100: 0747 583d a7af c9bd cb64 1a3d 4db1 693d
00000110: ddad bfbe 66c4 c63c 32b7 6abe f09d b4bd
00000120: 110e c03d 2ed8 37bf 17de eebc 8e40 c3bd
00000130: 2f7d 10bf cad6 673e e2f1 313e 0b29 943d
00000140: b2a2 1dbf fa95 c03e 5671 81be 9143 583c
00000150: fd18 073e 704e dabd ab98 1abd 8c5e cebd
00000160: 18b6 f43d 1c01 b03e 9abc a53d e8d8 b0be
00000170: 82af a0be 64f0 42bc b5e7 dd3d b701 63bd
00000180: 5c56 de3e 30a3 c0bd 0bef dd3d 3847 9fbe
00000190: 596c 183e 5f18 06bf 028a 52bd 94ec 883d
000001a0: 5976 003d 1369 6e3e 181d 0c3e e5ac 38be
000001b0: 9d43 403e e3bf f6bd 5bb5 72bb e626 03be
000001c0: b1d1 673e be6e c8be 24ec 8e3e 2aed 7f3e
000001d0: e30b d33e f05b b6bd a1c9 cdbe 17eb a6be
000001e0: b8a2 d53d 23fc 8abe c32b 1bbe 1403 3cbe
000001f0: 09cf 59be 9d51 3ebf 58e1 c0be 647f 81be
00000200: 22c2 563a aa86 7dbe 90e8 833e 461e 853e
00000210: 901c 373e 8de5 0e3f 5583 91be 67ad f9bd
00000220: caa2 c3bc e3a4 31be d25c b7be 9a51 993e
00000230: 4fec 363e c8e6 8cbe 98bf b7be 30e3 50be
00000240: 44f9 b9be 5719 d7bd 57a9 12bf 3783 e0be
00000250: 8d21 c9be d036 71be 0cc3 68bd 7f3a d3bd
00000260: 2fdd 94bd a930 293e 2da5 a2be b142 6b3d
00000270: d6c5 033e dc35 b1be 8dee 443e 4d92 52bd
00000280: f25c a23e c319 98be 3251 9dbe d844 45be
00000290: be6a a33e 955b 2f3f 4152 663e 6ad3 4cbe
000002a0: 9ca7 803e 99cb 23be 7f28 9d3d 2f81 d63e
000002b0: c1ce 4f3e db3b a1bd f19c 9abe 30a6 8abe
000002c0: 46ac dabc a0c7 973e 138a f2bd b26f 78bd
000002d0: aea2 f43d ff09 8c3e 696a 6b3e eafe aa3c
000002e0: 841a a4be 90bf a9bc bc3a 863c 59c7 4fbe
000002f0: e9bc f93e 8536 d83e c17f 973e c6dd 54be
0.5201842 -0.11332672 -0.052439597 0.40025598 -0.6204574 -0.19654799 0.07432629 -0.114378296
-0.2448741 -0.013650353 0.2863183 0.15085411 0.11633 -0.13191712 0.11328262 -0.07433466
-0.13913013 -0.039018106 0.09820824 0.03075154 0.0286578 -0.015253684 -0.28028288 -0.4144875
-0.032651816 -0.29911444 0.05720767 0.1652547 0.29705825 0.22040585 -0.050756443 -0.19561943
0.15320738 0.35656345 0.08888432 0.0643692 -0.7200332 0.27476245 0.19692805 0.23828033
-0.09086894 -0.04452772 0.35175848 -0.6008995 -0.06396655 -0.11649913 0.09728477 0.25577328
-0.46256873 0.17343852 0.5532654 -0.15792952 -0.030680604 0.3340888 0.13527767 -0.004889231
0.056119036 0.14011644 -0.31513602 0.63458055 -0.502367 -0.33110037 0.3001578 0.151052
0.052802112 -0.09847956 0.03769378 0.057053853 -0.37437335 0.024263572 -0.22921446 -0.08819187
0.09377683 -0.7181424 -0.029158635 -0.09533797 -0.56441015 0.2264053 0.17377427 0.07234391
-0.6157638 0.37614423 -0.2528178 0.013199703 0.13193126 -0.10659492 -0.03774325 -0.10076627
0.11948794 0.34375846 0.080926135 -0.34540486 -0.31383902 -0.011898134 0.1083521 -0.055421557
0.43425262 -0.094061255 0.108366095 -0.31109023 0.14885081 -0.5238094 -0.051401146 0.06685749
0.031362865 0.2328227 0.13682973 -0.18034704 0.18775792 -0.12048318 -0.0037034366 -0.12807807
0.22638585 -0.3914699 0.27914536 0.24992815 0.41220006 -0.089042544 -0.40192893 -0.32601234
0.10431427 -0.2714549 -0.15153413 -0.18360549 -0.21270384 -0.7434328 -0.37671924 -0.25292504
0.000819238 -0.24758402 0.2576337 0.2599966 0.1788199 0.55819017 -0.2842051 -0.12191277
-0.023881335 -0.17348056 -0.35813004 0.2994507 0.17863582 -0.27519822 -0.35888362 -0.20399165
-0.36322987 -0.1050288 -0.5728964 -0.4385011 -0.3928341 -0.23556066 -0.056826636 -0.103138916
-0.0726875 0.16522469 -0.31766644 0.05743665 0.12868437 -0.34611404 0.19231625 -0.051409055
0.31711537 -0.29707155 -0.3072601 -0.19264543 0.31917375 0.6849912 0.22492315 -0.20002523
0.25127876 -0.15995635 0.0767374 0.41895434 0.20293714 -0.07872745 -0.30197862 -0.27079916
-0.026693475 0.2964449 -0.11842742 -0.060653396 0.11945091 0.27351376 0.22989811 0.020873506
-0.3205148 -0.020721227 0.016385429 -0.20290889 0.4877694 0.42229095 0.29589656 -0.20787725

bias f4 [8]
00000000: 38dd a437 bf07 44be c0f0 46be 8bc5 0fbe
00000010: 3876 f03d 29ce 133e 189d 5fbd 077c aebd
1.9653336e-05 -0.1914358 -0.19427776 -0.140402 0.117412984 0.14434113 -0.054593176 -0.0851975

weight f4 [8]
00000000: 0bcd 923e 15dd 963e e424 913e 5851 863e
00000010: 61f8 7f3e de38 683e 8746 5f3e 1c40 973e
0.2867206 0.29465547 0.28348458 0.26233935 0.24997093 0.22677943 0.21804248 0.295411

weight f4 [8, 8, 3]
00000000: a553 ebbd 1641 873e b215 bcbe 8d24 013f
00000010: 7eb1 073e 6410 d93d 59d8 a53c b317 fa3c
00000020: 20da 52be 43ae b03e 4189 2cbe d6f1 79be
00000030: 9258 a23e cd8d 93be de23 04bf 7b14 ecbd
00000040: c935 89be b20c 6abe 5795 5a3d d404 aa3e
00000050: 4147 94bd 344e 843e fc14 643e 717c 7d3e
00000060: 1f63 13be 5bad a53e 85f2 64bd f614 b2be
00000070: 7b37 eebc d7ac 243e 7b69 84bd 61d4 c93e
00000080: ae75 5ebe f122 b1be 66f7 c4be 0c0f f73e
00000090: 42f9 89bd edcf 35bd 14c3 7e3d 2912 92be
000000a0: 8c3c 173e 4f05 b83e 2b18 0f3e c752 453e
000000b0: c15f 3e3e 179d e73e 35d8 9fbd 2768 2c3f
000000c0: a41f fd3e f17e 4d3e 7140 203f 3a35 05bc
000000d0: ee15 4e3e bbc0 d63e 091b c23d 7563 4a3f
000000e0: d0a2 eebd 6e47 a83e c9eb d13e ae6c 33be
000000f0: 7368 1b3f 7b3f 6e3e 9fd5 0cbe b58e 85be
00000100: 4b66 a53e f68a c0be 48e9 8d3e 0893 7c3e
00000110: 23cf 71be 77a4 5d3d 0434 f13e dc22 53be
00000120: 17ec ebbe 7e3e 04be a0c3 213e 31a7 233e
00000130: d5a1 333d 5ec1 883d 3470 3fbe 904e 703e
00000140: b70d ac3d 3e08 a1bb 829f 683e 5091 90b9
00000150: 7a74 bdbe 3d75 a6be 64f9 9ebe 402f 373c
00000160: 6567 e43c ba09 483e bcbc 0abf 37cd 213e
00000170: 1040 d5bd 39a9 cb3c 6364 32bd 3c7e cebe
00000180: 7662 903d 4622 cdbe fd48 19bf 4e13 a73e
00000190: eb04 e4be 7614 babd 43a1 d3bc 001c 78be
000001a0: 6381 353e 4acf 1c3f 7e27 f9bd edd6 cbbc
000001b0: 925f 01bf 7509 2c3e 0e99 68be b6f3 183d
000001c0: 41cb 9cbe 1239 61be d15c d2be c799 a2be
000001d0: 2868 25be cf95 1ebf 93dd 6fbe 8042 87bd
000001e0: f944 843e 5ca7 e8be b3b0 79bd 8925 ed3e
000001f0: 4841 b73e 33d3 4c3e c6e9 12be fd97 be3d
00000200: 8ee7 1e3e 21ff 9cbe cfb9 043e bc61 193e
00000210: 9e1b 333e 6d7a db3d 99fc 87be a207 e5be
00000220: 4eaf 67be 9c31 b5be 1cd9 773e 9c47 aabe
00000230: da50 16bf 6cd5 c1be 54c2 1a3d 0594 22bf
00000240: f6eb 773e 0821 2bbc 9562 cabd a694 313d
00000250: e09d 873e 8611 ddbe 91e0 83be 9a37 2a3d
00000260: b5cb 193f 9c89 31be 2c08 a13e c0dc acbd
00000270: eda3 ddbd a7dd aabe 3b1d 353e 6a68 723c
00000280: 899c 803e 9ab5 093f 6ebd 48be 7d2a 3f3e
00000290: a95f 343e e6a4 5a3e 00c0 863e b497 b93e
000002a0: 421e 963d b7e1 803d c255 f43d 51a1 5abe
000002b0: b968 093e 3c35 453c da6e f13e cbd8 153e
000002c0: f71d 5c3e 2d60 12be 3832 943e 86f4 fc3d
000002d0: 8281 97be 7f77 82bc 1fdd 3dbf 0c2b 7cbe
000002e0: f251 7cbc 882b 883d 5d2b 90be b30c 88be
000002f0: 6b05 e33d 2403 7ebd 5f8e 8c3e 17da d5be
-0.11490563 0.26416844 -0.36735302 0.504464 0.13251302 0.105988294 0.020244764 0.030528879
-0.2059102 0.3450795 -0.16849233 -0.2440866 0.317082 -0.28819123 -0.5161723 -0.11527344
-0.26798847 -0.22856405 0.053365078 0.3320681 -0.07240153 0.25840914 0.2227363 0.24754502
-0.1439328 0.32358822 -0.055895347 -0.34781617 -0.02907919 0.16081558 -0.06465431 0.39419845
-0.21724579 -0.3459697 -0.3847 0.48253667 -0.06736995 -0.044387747 0.06219776 -0.2852948
0.1476919 0.3594155 0.13974063 0.19269858 0.18591215 0.45237038 -0.0780491 0.67346424
0.49438202 0.20067956 0.6259833 -0.008130366 0.20125553 0.41943917 0.09477813 0.7905801
-0.11652148 0.32866997 0.41000202 -0.17521927 0.6070625 0.23266403 -0.13753365 -0.2608544
0.32304606 -0.3760602 0.27717042 0.24665463 -0.23614173 0.054111924 0.47109997 -0.20618767
-0.4607856 -0.12914464 0.15797281 0.15981747 0.043855507 0.06677507 -0.18695146 0.23467469
0.084010534 -0.0049143126 0.22717097 -0.00027574087 -0.37002927 -0.3251132 -0.31049645 0.011180699
0.027881334 0.1953496 -0.54194236 0.1580094 -0.104126096 0.024860965 -0.043552767 -0.40330684
0.0705003 -0.4006521 -0.59876996 0.32631916 -0.44535002 -0.09085934 -0.025833732 -0.24229431
0.17725138 0.612538 -0.12165736 -0.024882758 -0.50536454 0.16800483 -0.22714636 0.037341796
-0.3062382 -0.21994427 -0.41086438 -0.31757948 -0.16153014 -0.6194734 -0.23424368 -0.06604481
0.25833872 -0.45440185 -0.06095953 0.463177 0.35791993 0.20002441 -0.1434699 0.09306333
0.15518019 -0.30663398 0.12961505 0.14978689 0.17491004 0.1071671 -0.26559904 -0.44732386
-0.22625467 -0.3538941 0.24203914 -0.3325776 -0.5871712 -0.3785814 0.037782982 -0.6350711
0.24211106 -0.010444887 -0.09882084 0.043354653 0.26487637 -0.43177432 -0.25757268 0.041556932
0.6007646 -0.1733765 0.31451547 -0.08440542 -0.10822282 -0.33372232 0.17686932 0.014795402
0.25119427 0.53792727 -0.19603512 0.18668552 0.17614616 0.21351966 0.2631836 0.36248553
0.0732999 0.06293052 0.119304195 -0.213506 0.13418855 0.012036618 0.47154886 0.14633481
0.21495806 -0.142945 0.28944564 0.12351327 -0.29590994 -0.01592612 -0.7416553 -0.24625796
-0.015400397 0.06648928 -0.28158084 -0.2657219 0.11085018 -0.062014714 0.2745237 -0.41767952

bias f4 [8]
00000000: 0d21 57be fb9b 3d3e 8547 0b3e 94b8 7cbd
00000010: 33ee 093e 3892 be3d 4496 033e 2422 9fbb
-0.21008702 0.18516533 0.13601501 -0.061699465 0.13469772 0.09305233 0.1285029 -0.004856365

weight f4 [8]
00000000: 8459 9f3e bd67 3f3e 784f ad3e fb66 553e
00000010: 3f82 233e 975c 4b3e c4fb 373e e7a8 5b3e
0.31122983 0.18691917 0.33849692 0.20840065 0.15967654 0.19859539 0.17967135 0.2145115

weight f4 [8, 8, 3]
00000000: d918 473e aba8 c4be 3c0c cdbe b0eb c4bd
00000010: ff23 02be aaf0 953d 65f3 e33e 7564 d93e
00000020: 658b a73d b9f6 52be 5305 c13e e466 5d3f
00000030: a0dc 883c e7f7 05be 3650 35bf b439 18bf
00000040: bf2f a9be dd2e 52be 9d17 57be a00e 7e3d
00000050: b526 223c a331 68be 47a7 743e 90bb 19be
00000060: b2d6 cb3e 3808 51bd 49c9 53be 5d44 913b
00000070: cf08 bfbc 5497 683f d194 96be 6fa5 ae3d
00000080: b60e e33d 7a73 15be d63b 0b3d 6a8e bb3e
00000090: 078a 85be 3de3 263d c443 90be 742e 9abe
000000a0: 57e6 f33e 6fc2 58bc af38 813d df4d 3bbe
000000b0: 9852 0a3e 8ad1 583e 03f8 473d 3c82 f1bd
000000c0: 62cb 913d 3c03 12ba 5cf0 95be af02 0bbf
000000d0: 868d c23e 2a7e d6be 2824 d8bd 8a8f 14bf
000000e0: 4d2f 2cbe 4f32 a9be ddec d23d 4c58 a33e
000000f0: 623d 913d aa7c 44be ecd1 543e 196a 7a3e
00000100: 2881 75be 1432 d23d b309 1e3e a1d7 db3d
00000110: 34e0 01bf 4829 a13e f2d9 75be aefe 38be
00000120: 20ec c63e 31b5 983e fc40 053f 283d 63bf
00000130: fdef c1bd 64bc 9b3d 9050 493e 4a56 b6be
00000140: 5e41 3e3f 933a 8bbe 5daa 953e 7b97 d4bd
00000150: 0c5e cf3d b559 2bbf 2441 3f3e 83f4 22be
00000160: 8763 f5be 1bf0 e43d f13e d2be 8dea b2bc
00000170: 4b9a dbbc e429 6f3e ea56 20bf 7725 23bc
00000180: f80e cdbe f9ff 7abe 331d 81be b729 0c3f
00000190: a478 a4be 3a6c 98be 619a 903e adcf 2ebb
000001a0: 4241 a43d 19f5 f23d 2a7b af3e 5cd6 d43e
000001b0: 6520 473d 1fb6 9f3c 39e8 933e f96e bbbe
000001c0: 51aa 3e3e 3d68 0abf fc82 8bbe 73f0 983e
000001d0: 0afe 77be 4992 833e c3f9 853e 07e0 e2bd
000001e0: 40f2 5f3d daeb 8bbe fcd3 24be 8d68 d5be
000001f0: a4b9 11be 1ad7 10be bfcd 953d 62d6 563d
00000200: c707 b5bd 1db6 25bd c3bd 66bd 493a d2bd
00000210: 4e41 a93a f804 a8be aa79 e0bd 9d5f d63d
00000220: 910c 26bd 4dd5 87be 5a05 b93e 75c4 87be
00000230: c9eb a439 cd8e 1e3f 900b 433e 2bf6 b93e
00000240: ff3c ccbe 0273 6cbe 0f59 43be 21cd 47be
00000250: c143 603e d48f 493e fca5 8dbe b0cb 0b3d
00000260: 7761 79be c1fc 8e3d b961 053f 260d c1be
00000270: 1340 0e3e 7f7a fbbe 22d7 bb3d 17e4 3fbe
00000280: e6b8 68be 8b02 52be 327d 4e3d e824 1a3f
00000290: dcd9 743e a082 ad3e 7f91 56bb 170d ffbe
000002a0: 8996 ed3e d82b b13d 1b51 aebe c16a eebe
000002b0: c0fc f13c 2ba7 923c 938d 06bd 58ee 28be
000002c0: 39ac fe3d b65e 02be 961c 4fbe c3d3 65be
000002d0: 5c18 39be 390e 53be ae8a aabd 7c96 3e3e
000002e0: f38c 48be db01 86be c5c1 3b3e 3a92 44be
000002f0: 4bab 8abd a387 b3be 45f5 b4be 77c2 b63e
0.19443072 -0.38409933 -0.40048397 -0.09615266 -0.12709044 0.07321294 0.44521633 0.42459455
0.08180884 -0.2060193 0.37699375 0.86485124 0.016706765 -0.13082848 -0.7082552 -0.5946305
-0.3304424 -0.2052569 -0.21005102 0.062025666 0.009896924 -0.22675185 0.23891936 -0.15012956
0.39812237 -0.05103323 -0.20682253 0.0044331984 -0.02331963 0.9085591 -0.29410413 0.08527648
0.1108679 -0.14594832 0.03399261 0.3663209 -0.2608187 0.040744055 -0.281767 -0.30113566
0.47636673 -0.01322995 0.0630964 -0.18291424 0.1350807 0.21173683 0.048820507 -0.11792418
0.0711887 -0.000556994 -0.29284942 -0.5430097 0.379986 -0.4189313 -0.10553771 -0.58031523
-0.16814919 -0.33046195 0.10299084 0.31903303 0.07091786 -0.1918818 0.20783204 0.24454536
-0.2397505 0.10263458 0.15433387 0.10734487 -0.5073273 0.31476808 -0.24008921 -0.18065903
0.38852024 0.29825738 0.52052283 -0.8876519 -0.09469602 0.07604292 0.19659638 -0.35612708
0.7431849 -0.27193126 0.2923154 -0.10380455 0.1012536 -0.6693376 0.18677193 -0.15913586
-0.47927496 0.11178609 -0.41063645 -0.021840358 -0.026806971 0.23355824 -0.6263262 -0.009957663
-0.40050483 -0.24511708 -0.2521759 0.5475115 -0.32123291 -0.2977007 0.28242782 -0.0026674077
0.080202594 0.11863155 0.34273654 0.41569793 0.04861488 0.019496022 0.2888811 -0.36608103
0.18619658 -0.54065305 -0.2724837 0.29870948 -0.24218002 0.25697544 0.26167116 -0.11077886
0.054674387 -0.27328378 -0.1609649 -0.41681328 -0.14230973 -0.14144555 0.073146336 0.052450545
-0.08839374 -0.04045688 -0.056333315 -0.10265023 0.0012913139 -0.3281629 -0.109607056 0.104674555
-0.040539328 -0.26529923 0.36136895 -0.26517072 0.0003145619 0.61936647 0.1904738 0.36320624
-0.39890286 -0.23090747 -0.19076942 -0.19511844 0.21900846 0.19683772 -0.276657 0.0341298
-0.24353586 0.06981803 0.5210224 -0.37705344 0.1389163 -0.49116895 0.09171893 -0.18739353
-0.22726783 -0.20508783 0.050412364 0.60212564 0.23911232 0.3388872 -0.003274053 -0.49814674
0.46403912 0.08650941 -0.34046254 -0.46565822 0.029539466 0.017901978 -0.03284986 -0.16497171
0.124351926 -0.12731442 -0.20225748 -0.22444062 -0.18075699 -0.20610894 -0.08327232 0.18612093
-0.19585018 -0.2617329 0.18335636 -0.19196406 -0.06770953 -0.3506442 -0.35343376 0.3569524

bias f4 [8]
00000000: f081 6cbd 3264 183c 5fc6 2c3e 8d0e ff3d
00000010: 1d94 583d b9ea 9bbd 3020 c9bd 996f 09be
-0.057741106 0.009301232 0.16872548 0.12453947 0.052875627 -0.07613129 -0.098205924 -0.13421477

weight f4 [8]
00000000: 1e97 903e c5aa 563e 867e 6f3e a9ea 763e
00000010: 621c 653e 5dd2 5c3e 764b 6f3e e77d 5d3e
0.28240293 0.20963581 0.23388109 0.24112953 0.22374108 0.21564622 0.2336863 0.21630059

weight f4 [8, 8, 3]
00000000: 4a18 80be d65a 5bbe 7a71 abbc 2c44 7abe
00000010: 3980 6ebe e8d7 2abd 2e11 9a3e dba3 323e
00000020: 722f 7a3c e04b 0dbb eac0 9c3d 13b6 f3bd
00000030: ee1f 943e 7432 cebe 8b5c a8bd 7e9c 87be
00000040: 7149 16ba 5474 f1be 0c4c 8b3e df4f e93e
00000050: 53ed 56bc 9f3c 963e e0ba 293f 091d 553d
00000060: 1ba8 4abe ab3f 1c3e fcdc dbbe 19ba 82be
00000070: a1c9 3d3e ccdc b6be a140 91bd e184 c6be
00000080: 6c80 1f3d 6ef9 20be ba51 1d3c 0c8c 13bd
00000090: 7f87 e23e 1cb3 10be a193 9dbe 7fec b7be
000000a0: 75a0 36be c636 b53e 46f7 95be 166a 103e
000000b0: 746e 86be 6252 f73e 3790 7abe 7df4 dcbe
000000c0: ef28 4b3d 4c1d cf3b e1f2 bd3e 9630 503e
000000d0: 4462 86be b80e 8dbe 12ed 93bd 640a 363e
000000e0: 9607 82be a7d4 0a3f 6ec3 3c3e 53fb 8a3e
000000f0: a3f9 1d3e 8854 1fbd e584 9dbe 1939 413d
00000100: 2f9b be3e d85b ba3e ab59 aabd 4638 e83e
00000110: 5149 4bbe 266e 9b3d c3fd 3fbe ea38 b13e
00000120: 1820 4fbe 660f 89be 7a50 c13d 3b67 3c3e
00000130: 14a2 28be b65e 8d3e a277 79bd 2082 543e
00000140: fe0d 6cbe 82d3 f43d a4f4 9cbe 8fde 25be
00000150: ded3 0abe 0fd5 093e f9bd dbbd 84f8 153e
00000160: aa34 82bd 48fa 36bd da36 383e f9fa c13d
00000170: 4d7d 4abd 91bc 843e b52b 7d3d 1a5c a13e
00000180: bdb4 2f3e d3d8 063d 80fa 273e 84f0 ba3d
00000190: 831b 18be 0bd0 83be 8678 69be a72b 3bbd
000001a0: 894a 463d b645 c63e e036 ee3d 8bf2 2bbe
000001b0: 38d8 803d 18d9 053e 71d3 193e f6fb 1dbe
000001c0: 71cd 1cbe 8eb8 c13e 59b3 0fbf 3b6d 7ebe
000001d0: 061e 183c 19d8 80bc b425 90be b2e2 9fbd
000001e0: 4a84 853e 5062 213f c967 f23e 0be6 cbbe
000001f0: a5e0 753d 02bd 85be d725 8f3d be78 a73e
00000200: cfcd d4be 8eed 0e3f bbc3 da3e d7c0 9f3e
00000210: ab07 9bbd ee38 bcbe 8bf5 593e 9dcb 513e
00000220: a125 ac3e 37f4 c8be a8fe 0e3e 30c9 9ebd
00000230: 40be ae3e 8fe4 a0be 8122 913e 7d6a a63e
00000240: 6221 4abe cb7e afbe e675 a13e 91f0 0c3d
00000250: d5c0 f6be 334a b8be 30b4 30be f576 cf3d
00000260: a556 b73d 834a 6e3e 4190 12be 5d44 c4be
00000270: 5570 57bf c0d5 3b3d 945e d33d cc27 4dbd
00000280: f521 d1bd f563 04bf b463 42bf c0e2 47be
00000290: c0e6 803d 9f35 55bf 6e65 8bbe 21b8 97be
000002a0: e45a 173e d559 17bc d9c4 47be e62d f0bd
000002b0: 60e7 be3d b42b af3c 487d 0c3d 0c28 5ebe
000002c0: 38f9 5f3e 565e 8d3e feb7 803e c679 0cbe
000002d0: ec74 a1be fe7a 25bd 3b68 19bf eb9f 9abd
000002e0: 7a3c 90be 7366 b23d 86bf f4bd 4485 8dbe
000002f0: c996 81be 668d fcbd b70d b73e dd8c 833e
-0.2501853 -0.2142137 -0.020928133 -0.24440068 -0.232911 -0.04170981 0.30091232 0.17445318
0.015270101 -0.0021560118 0.07653983 -0.11899962 0.2893061 -0.40272868 -0.08220776 -0.26486582
-0.00057329895 -0.47159064 0.27206457 0.4556875 -0.013118106 0.29343125 0.66300774 0.052029643
-0.1979069 0.15258662 -0.42942035 -0.25532606 0.18533947 -0.3571533 -0.07092405 -0.38773254
0.038940832 -0.1572015 0.009602005 -0.03602223 0.44244 -0.14130825 -0.30776694 -0.3592262
-0.17834647 0.3539335 -0.29290217 0.14102969 -0.26256144 0.4830504 -0.24469076 -0.4315528
0.049599584 0.006320631 0.37099364 0.20331034 -0.26246846 -0.27550292 -0.07222952 0.17777401
-0.25396413 0.5423073 0.18433926 0.2714487 0.1542726 -0.038898975 -0.30765453 0.047173593
0.3722777 0.36398196 -0.08317884 0.45355433 -0.19852187 0.075893685 -0.18749146 0.34613734
-0.20227087 -0.2676956 0.09439178 0.18398754 -0.16468078 0.2761132 -0.060905106 0.20752764
-0.23052213 0.119544044 -0.30655396 -0.1619818 -0.13557383 0.13460182 -0.10729594 0.14645582
-0.06357701 -0.04467228 0.17989674 0.09471697 -0.049435902 0.25925115 0.06180926 0.3151558
0.1715879 0.032921623 0.16404152 0.09127906 -0.14854245 -0.25744662 -0.22799882 -0.045695927
0.048410926 0.3872506 0.1163156 -0.16791742 0.062912405 0.13071096 0.15022065 -0.15428147
-0.15312745 0.37836117 -0.5613304 -0.24846356 0.009284502 -0.015728043 -0.28153765 -0.078069106
0.2607749 0.6304064 0.47344807 -0.39823946 0.06002869 -0.26120764 0.06989639 0.32709306
-0.4156327 0.5583123 0.42727455 0.31201813 -0.07569822 -0.36762184 0.21285073 0.20487829
0.3362246 -0.3924882 0.13964331 -0.07753217 0.34129524 -0.31424376 0.28346637 0.3250312
-0.19739297 -0.34276423 0.31535262 0.03440911 -0.48193994 -0.3599411 -0.17256236 0.10130111
0.08952073 0.23270611 -0.14312841 -0.38333407 -0.8415578 0.045858145 0.10320774 -0.05008678
-0.10211555 -0.5171502 -0.75933385 -0.19520092 0.06294012 -0.83284944 -0.27225822 -0.29632667
0.14780766 -0.009237726 -0.19508685 -0.117275044 0.09321475 0.021383144 0.034299165 -0.21694964
0.21872413 0.27611035 0.25140375 -0.13718328 -0.31534517 -0.040400498 -0.5992467 -0.07550033
-0.2817114 0.08710947 -0.11950593 -0.27640736 -0.25310352 -0.12331657 0.3575265 0.25693408

bias f4 [8]
00000000: 85a7 36be 2a4e c13d f898 1f3e b954 143e
00000010: 3911 45be 239a be3d 9ba7 1abe 5d7e c5bd
-0.17837341 0.09438737 0.15585697 0.14485444 -0.19244851 0.09306743 -0.15102999 -0.096432425

weight f4 [8]
00000000: 950a 5e3e 5d4c 3c3e 900b 5e3e fd84 0a3e
00000010: d6c1 6d3e 0ece 5c3e e44c 4f3e d18e a13e
0.21683724 0.18388505 0.21684098 0.13527294 0.23218474 0.21562979 0.20244175 0.31554273

weight f4 [8, 8, 3]
00000000: 6a1e fd3d 9948 f8be 41c0 713e 4824 41be
00000010: e071 efbc 57ec ea3c d5a8 55bd 270f aabe
00000020: c6a7 70bd 2e80 f2bb daa6 6abd 22e8 003f
00000030: 9928 b3be bfb4 4c3e 3524 61be 5c0a c6bd
00000040: f153 a5bd 2bd6 643e ab5b 783e 4c1a 2fbe
00000050: de3f 47be 0342 ea3e 3b0a 8b3d 8cd6 a93e
00000060: 7b88 1abe 5010 783e f1c5 2abe 86b1 b63c
00000070: 3f00 b8be 1d6c 39be 375d c0bb 140f adbe
00000080: 6383 ad3e 9c9e 7f3c 866b 1ebf 5b42 a6be
00000090: 4899 2dbd 5acb 5e3e ac3f 873e 8132 22be
000000a0: 47ce 243e 5b3a c03d 4b65 14bd 8465 a03e
000000b0: 0c20 f5be 9c90 e3bc 3406 3fbe beae 50bf
000000c0: a2d3 5fbe bc1a 0ebe 4ee4 4b3e 5398 e03c
000000d0: 2c85 1a3f aa67 f13b f38d b03d 3d1b 8f3c
000000e0: d685 64be af7f 1b3e 6c04 fe3e 32d2 53be
000000f0: 1fdd e9bd 3109 45be 04e5 19bd 544e 183c
00000100: e4a3 053d 272f 14be 4788 22be 1c10 eb3d
00000110: 5e14 42be e959 85be 20e5 a3bd fb6c b43c
00000120: 722c b63e 9461 1cbe c3d1 dabe 1fea 923e
00000130: 2661 193f 6178 03bd c85b 8fbe 33e5 023e
00000140: 01c3 f13c 2ac2 953e 7866 d83e 1ff3 8ebe
00000150: 5913 0cbe b2ee a43e f0f6 853c c07a c9be
00000160: c868 913e 984d c13e 9ab0 85bc 12bd 433f
00000170: d99b 7f3d e32a db3e 930c d93e 3ab6 0fbe
00000180: 9952 6ebe 0d8b 1dbe e900 213f f523 103c
00000190: 0626 41bd 849a 373e d1b1 543f 02af 71bd
000001a0: 74e3 30bf 266b 53be 83f7 6e3e 30e6 013f
000001b0: 7506 2cbe d719 60bd 2f30 203e ad5c 4ebe
000001c0: 9af7 233e d4bf fbbd 93b7 c33e ba9d 60be
000001d0: 13ab 02be 8d16 703d a16c 87be 7a72 b8be
000001e0: 7de4 803d 0c50 b03d 64c3 9b3e 1a3f 733c
000001f0: 9b35 28be 820f aabe c2c9 89be 89f3 ad3e
00000200: 2a1d 1b3f 20e2 02be aa09 25bd b804 42bf
00000210: 581f 3ebe 112f 69be 3cfd e63e 0462 d0be
00000220: 3c7b a9bd e1c5 8f3d 8be4 aabe 4704 d8be
00000230: 83d3 a53e d63f 173d 23a6 eebd 022b 053e
00000240: 95a8 32be 8f4d 71be 6535 9cbe 6d45 d4bd
00000250: 32f6 5abe 62c1 85bd 4f9b e8be 70e4 503d
00000260: d44e 703e e3fd 70be d7d3 783c b361 fb3e
00000270: 6f5d 753c 394b 863d c34d d6bd 3bc4 8f3e
00000280: eedb 5abe 7f3c d2be da97 3f3e dcb8 a8be
00000290: b754 d0be 2283 e23d 0c2c b7be 5888 c33e
000002a0: 6ed0 37be 8812 41bd b049 a33e 2359 b13e
000002b0: ad12 253e 106b c23e 929f 193e 696f 12be
000002c0: edc4 0ebe 0eaa 67be b07a 95be 17a4 9abd
000002d0: 02db e8be 09e9 afbd 4cea 66be c104 2ebf
000002e0: 3b75 223f 39bc 063d 7b4c dbbe 0b52 e83a
000002f0: ca5f bcbe de73 3f3e a4b1 ef3e 14fc 6d3e
0.12359317 -0.48492888 0.23608495 -0.18861496 -0.029229105 0.028677149 -0.052162964 -0.33214685
-0.05875375 -0.007400534 -0.05728803 0.50354207 -0.3499191 0.19990824 -0.21986468 -0.09669945
-0.08072651 0.22347324 0.24253719 -0.17099875 -0.19457957 0.45753488 0.06789061 0.331715
-0.15091126 0.24224973 -0.16677071 0.022301447 -0.35937688 -0.18107648 -0.005870487 -0.33800566
0.33889303 0.01560178 -0.6188282 -0.324725 -0.04238251 0.2175726 0.26415765 -0.15839578
0.16094314 0.093861304 -0.036229413 0.3132745 -0.47876012 -0.027778916 -0.1865471 -0.81516635
-0.21858075 -0.13877386 0.1991131 0.027416384 0.60359454 0.007367094 0.08620825 0.017469043
-0.2231668 0.15185426 0.4961275 -0.20685652 -0.114191286 -0.19241787 -0.037571922 0.009296019
0.032627 -0.14471112 -0.15872298 0.11477682 -0.18953082 -0.26045159 -0.080026865 0.022024622
0.35580784 -0.15271598 -0.4273816 0.28694245 0.5991386 -0.032097224 -0.2799971 0.12782745
0.02951193 0.29249698 0.42265677 -0.27919862 -0.13679256 0.3221336 0.0163531 -0.39351463
0.28400254 0.37754512 -0.016319562 0.76460373 0.062404487 0.42806157 0.42392406 -0.14034358
-0.23273696 -0.15385075 0.62892014 0.008797635 -0.047155403 0.17930037 0.83083826 -0.05900479
-0.69097066 -0.20646343 0.23336606 0.50741863 -0.16799338 -0.054712143 0.1564338 -0.2015254
0.16012421 -0.12292448 0.38225994 -0.21935168 -0.12760572 0.058615256 -0.26450065 -0.3602484
0.06293581 0.08609018 0.3042251 0.014846588 -0.16426699 -0.33214957 -0.26911741 0.33974865
0.60591376 -0.12781572 -0.04029242 -0.7578845 -0.18566644 -0.2277186 0.45115077 -0.4069978
-0.08275458 0.07020164 -0.3337749 -0.42190763 0.32387933 0.036926113 -0.11652782 0.13004687
-0.17447121 -0.23564743 -0.30509487 -0.103648044 -0.21382979 -0.065310255 -0.4543099 0.050999105
0.2346757 -0.2353435 0.015187225 0.49097976 0.01497589 0.06557316 -0.104640506 0.280794
-0.21372959 -0.4106178 0.1871027 -0.32953537 -0.40689632 0.11060168 -0.35775793 0.3818996
-0.17950603 -0.047136813 0.31892157 0.34638318 0.16120405 0.37972307 0.15002277 -0.14300312
-0.13942309 -0.22623464 -0.29195166 -0.07550829 -0.4547959 -0.0858937 -0.22550315 -0.67976004
0.6346013 0.032894347 -0.42831787 0.0017724646 -0.3679183 0.18696544 0.46815217 0.23240691

bias f4 [8]
00000000: 35dc b73d 8b28 67bc 9eaf 8fb9 0414 a93d
00000010: c494 a0bd fc47 50be 4b2b 393e aff9 b4bd
0.08977548 -0.014108787 -0.0002740593 0.08255771 -0.07840875 -0.2033996 0.18082921 -0.08836686

weight f4 [8]
00000000: 5bcd 693e 2994 693e efc6 683e f21f 633e
00000010: ec73 753e 0a88 923e 1da3 803e ef8e 6b3e
0.22832243 0.22810425 0.22732137 0.22180155 0.23970002 0.28619415 0.25124446 0.23003744

weight f4 [8, 8, 3]
00000000: 1b85 acbe 42c1 0dbe 2abb 553e 2682 39be
00000010: 8ccc bbbe b9e8 d4be 67ff 02be 37b0 3f3c
00000020: 72c9 05be 08a8 0c3e 8141 e33c e436 1a3f
00000030: a0d2 61be 358d a23c 1ed9 02bf 74cc a53e
00000040: d74a b1bd 8abe 88bd 2c10 e43e 3812 89be
00000050: c917 96be 3b23 9a3c 4326 e7bc 484b a4be
00000060: 0746 2ebd cc6c c53c 235b 3cbd 306a 653e
00000070: 3af2 d43c 02b7 7bbd 980b d6bd 7fb3 853d
00000080: fd30 83be 67d5 1f3f 1b32 213d 3f1e 07be
00000090: 31d9 b93c 031e 71bd 7a30 243c 6fa7 053f
000000a0: 954f 1fbe e6a8 f13e 7e5d 2e3e 89e3 fbbe
000000b0: 401b 753e 4a8a a3be 3713 093e 7fce 393e
000000c0: e66c c9bc 9d83 b93d e083 5d3e 335f 503c
000000d0: ef52 ad3e e5cc 973e a808 81bd ac04 d8be
000000e0: 1bf5 203e 6db5 ed3e 011e 6abe 47ac edbd
000000f0: 6b43 f43d 0ba1 9f3e 5dd7 96be 49a6 59be
00000100: d702 0c3e 2861 923e 76f1 643e c270 c3be
00000110: c4c5 8f3e 812e 5c3e e62f 6cbe 6554 83be
00000120: 429f 053e 6b83 543e b553 d5bd bd85 343d
00000130: 3b6c aa3e da4c 91be bbc0 2f3f 5a10 0cba
00000140: a00f 293c d511 c1be 0cd3 923d 166e 61be
00000150: e2da b6bc 10fc 92be 52f4 70be d63b 233e
00000160: 8644 1bbc 3488 c5be 9280 a3be 97ba 0bbe
00000170: e977 c7bd 280f cc3e 5f78 9cbe 969e c3bd
00000180: 4745 debe f394 cabd 315e 2c3c 8b60 403e
00000190: 6e81 89bd 667e e53d 3a13 d33e 8cb8 b7bd
000001a0: 5ae3 8a3e 4762 7fbe 15de 9fbe d925 a73d
000001b0: 45fb fbbe cc8a c9be 5a64 c4be e7e9 93be
000001c0: 1b44 793e fdb5 a13e 5031 a13e 7275 183e
000001d0: 7b82 efbe 6602 8d3e 62e2 263f 93d2 dbbd
000001e0: 2257 12be 542c 023e 6def 32be a81c 7cbe
000001f0: a445 c2bd a7f0 f3bd c70a 813e 1079 38be
00000200: fe65 d2bd 08ec 9dbe a67c 2cbe 51b6 5bbe
00000210: 1668 a83d b187 6b3e 770f cbbb 7a1b e33e
00000220: add7 b43e c80d acbe 34c4 a7bd f815 b0be
00000230: 3178 d3bd 64e0 c03d 118e 22bd 7bd8 2c3e
00000240: 15f9 9bbc cfe9 47be 732d 3dbe d398 adbe
00000250: 9d3f b13d 3bc9 1dbe 2270 4b3e cdac eabe
00000260: 55ea cd3e b255 d0be 74ed 9a3d baf7 9f3e
00000270: 6a3f b9be d00f fc3e 28b3 eb3e d1a5 2fbe
00000280: ba59 debb 4eda 5fbe 73c9 5ebe 9789 4f3e
00000290: 21e9 c23e 7e58 97be 0794 3c3e 7c45 59bd
000002a0: bca8 253f b381 fbbc 317f 453e 3b8b b23d
000002b0: f0e8 853e 4273 b53e 75ac a5be cd6e ab3e
000002c0: 9e42 823e dc76 273e 7a2e ed3c c0b1 113e
000002d0: c3ad 273f 7687 403e f764 cfbe 1afc 853e
000002e0: f7c0 2f3e 613a 4abb d1f8 c53e c64b 4d3e
000002f0: 425c a5bd 04b6 34be 52e7 55bf 067c febd
-0.336953 -0.13843253 0.20872179 -0.18116054 -0.36679494 -0.41583803 -0.12792741 0.011699728
-0.13065127 0.13735974 0.027741196 0.60240006 -0.22053003 0.019842723 -0.51112545 0.32382548
-0.08656853 -0.066769674 0.44543588 -0.26771712 -0.29315022 0.018815627 -0.028216487 -0.32088685
-0.042547252 0.02409973 -0.045985352 0.22403789 0.025994409 -0.061453827 -0.1045143 0.06528377
-0.25623313 0.62435 0.039354425 -0.13195132 0.022686573 -0.058866512 0.010021323 0.5220861
-0.15557702 0.47199172 0.17027852 -0.49197033 0.23936176 -0.31941444 0.13386236 0.18145178
-0.02458806 0.09058306 0.21632338 0.01271801 0.33852336 0.2964851 -0.06300479 -0.42191064
0.157185 0.4642748 -0.22863008 -0.11605125 0.119269215 0.31177554 -0.29461184 -0.21254839
0.13672958 0.2858975 0.22357735 -0.38171965 0.2808057 0.21502115 -0.23065147 -0.25650325
0.13049033 0.20753257 -0.104163565 0.044072855 0.33285698 -0.28378946 0.6865346 -0.0005343013
0.010318667 -0.37708917 0.0716916 -0.2201465 -0.022321168 -0.28707933 -0.23530701 0.15940794
-0.0094767865 -0.38580477 -0.3193403 -0.13645397 -0.09739668 0.39855313 -0.30560586 -0.09551732
-0.4341223 -0.09891691 0.010520504 0.18786828 -0.0671414 0.11205749 0.41225606 -0.089707464
0.2712658 -0.24939834 -0.31224123 0.08161516 -0.4921514 -0.39363706 -0.38357812 -0.2888939
0.24342386 0.3158416 0.31482935 0.14888552 -0.46779236 0.27540892 0.6518918 -0.10733523
-0.14291051 0.12712222 -0.17474146 -0.24620306 -0.09485939 -0.11911135 0.25203535 -0.18014932
-0.1027336 -0.3084414 -0.16844425 -0.21456267 0.08222978 0.23000981 -0.006196912 0.443569
0.35320798 -0.33604264 -0.0819172 -0.3439176 -0.10325659 0.09417799 -0.039686266 0.16879456
-0.01903967 -0.19522785 -0.18474369 -0.33905658 0.086547114 -0.15408795 0.19866994 -0.45834962
0.40217844 -0.4069038 0.07564822 0.31243688 -0.36181194 0.49230814 0.46035123 -0.17153098
-0.0067855986 -0.2186062 -0.21756534 0.2026733 0.38068488 -0.29559702 0.18415843 -0.05304478
0.64710593 -0.030701494 0.19286801 0.08717962 0.2615428 0.35439497 -0.32358137 0.33482972
0.2544145 0.16353935 0.028952826 0.14227962 0.65499514 0.18801674 -0.40506718 0.261689
0.17163454 -0.003085755 0.38666394 0.20048437 -0.080742374 -0.17647558 -0.8355609 -0.12425999

bias f4 [8]
00000000: 1bac 8dbd 42bd 0f3e d6cd 4cbd 690c 34bd
00000010: e54e 61be 5220 c5bc 337d c2bd 9b44 2dbe
-0.06917592 0.1403704 -0.050000988 -0.043957148 -0.22002752 -0.024063263 -0.09496536 -0.16920702

weight f4 [8]
00000000: e263 0a3e 7ed7 e5bc 87fd 833e 1328 603e
00000010: 058f 7d3e a4bd 8d3e 1607 503e a22d 453e
0.13514665 -0.028056856 0.25779364 0.21890287 0.24761589 0.27683747 0.20315203 0.19255689

weight f4 [8, 8, 3]
00000000: 67fa eabe 990b be3e 150e 5c3e 9b50 2f3e
00000010: ecfd 5e3e 0cab 27be 2c25 a93e 29ad 4abe
00000020: e104 d93e 59e7 81be 94ac 1f3e 00a7 ee3e
00000030: eb56 033f 8ac8 bb3e 91a7 fa3d 459d db3e
00000040: 3698 f23d 93b9 3fbe 16c7 2dbe 7eed 9e3e
00000050: 22c1 193f 8601 60bd 2c8f b63d 36a9 93bd
00000060: 2582 babb 393b 3f3e 74f7 393c 3fb8 7ebd
00000070: b708 a93e 363a 2dbe 855f 23be 48cc 6c3e
00000080: aa17 093d d82f 0dbe 6262 df3d fd16 8b3c
00000090: 45bf 0fbe f9bd 88be c65d edbd 31b9 c53e
000000a0: d3dd bd3e d7dd b23e b625 b33e bd04 85be
000000b0: a1c7 a3bd 494f 073e 45d7 81bd 80bf 04bd
000000c0: df4d acbe 6f5a 57bd d017 5c3e cbae 943e
000000d0: 5ff9 433e 092c 9c3e 4765 313e 03bd 4f3e
000000e0: c1a9 d4be 2561 0dbf b73e c43e 6c28 36bd
000000f0: f26f 043f e914 193f ab8a 113c e01d 1a3f
00000100: b6bf 0abf 9def 8dbe a40f 8c3e 9bb9 dcbd
00000110: cb30 a9be ccd3 c7bd af17 f53c bdb5 39bc
00000120: 7dcd 9ebc 0749 f3bd 6424 a7be d6c7 973e
00000130: 02bb d9bd aeab ffbd 1b1e cd3e b1c0 e83d
00000140: c4de 343e 0f57 39bf 2c83 1abd cb85 38be
00000150: 21c0 083f 574a acbd e419 e93d 5dda c93e
00000160: bcdd 18be ba01 813b ab94 5c3e 3160 21bf
00000170: 463f 64be 35f0 b2be 8d0a dfbd 9d73 eebe
00000180: 2b9e 653e 8e1a 3d3c ff41 96bd 36d4 eebe
00000190: 6715 c1be d424 8c3e 865b bbbe 4646 f7be
000001a0: 765b 183a c2ad 783d b7a4 35be fdd7 e33e
000001b0: 9f12 963e 0b48 12bf 92a4 79bd b56c 14bf
000001c0: 218c 3ebc c2bf 8b3e fc5f af3e 8325 e13d
000001d0: 1a00 bc3d 7b08 7a3d 3acf d3bd a2a7 0b3e
000001e0: b8cd c4be be18 be3e 8fcc 643e e154 afbe
000001f0: 4f73 2c3e 37b9 113e 0220 81bc d31b 313c
00000200: 3f58 45be 7587 97bd 8491 91be fff3 83be
00000210: 3135 063f fca0 d8bc 3409 f7bd ca8e 503e
00000220: 1860 343e c50e bcbe 6277 813e 2a89 a5be
00000230: 144a 31bd 693a 9fbd 75b3 e83c b7f1 08be
00000240: bdc3 4d3e ceae cc3e f6e5 c2be 93d0 c13e
00000250: 9819 eb3e ac57 76be a0a9 afbd 4b8b c0be
00000260: fdae a8be c3ef f13e 24ac 833e 2418 00be
00000270: b651 273d 7ac8 87be dbd7 8e3e 5367 c63e
00000280: 0b60 ae3e 1977 033f 71ec fdbd 8920 443e
00000290: b36b 45be e7b5 753e 9189 7c3e 08e0 5dbc
000002a0: ee4b b0be ef79 dabd e1c5 5c3e dba2 c7bd
000002b0: 62a3 bebe 77c9 afbe 3218 12be 6153 3a3e
000002c0: 815b 86bd 9d2f 5dbd 8770 fdbe befb e2be
000002d0: 89d4 10be 27d6 ddbe af6b e13d 3a40 ab3e
000002e0: 8d3c a5be b8d3 b53d 1289 4cbe 4828 cb3a
000002f0: 4939 6abe 83a1 ddbd c163 9b3e 9f05 01be
-0.45894167 0.37118223 0.21489747 0.17120592 0.21776551 -0.16373843 0.33036172 -0.19792618
0.42386535 -0.25371817 0.15593177 0.46611786 0.513045 0.36676437 0.12238992 0.42893425
0.11845438 -0.18723135 -0.16970477 0.31040567 0.6006032 -0.054688953 0.089140266 -0.07210009
-0.005691784 0.18674935 0.011350501 -0.06218743 0.3301446 -0.16916737 -0.15954407 0.23124802
0.033469833 -0.13787782 0.10907437 0.016978735 -0.14037807 -0.26707438 -0.115901515 0.38617852
0.370833 0.34934875 0.3498971 -0.25980178 -0.079970606 0.13213839 -0.063398875 -0.03240919
-0.3365316 -0.05257648 0.21493459 0.29039606 0.19138096 0.30502346 0.1732379 0.20286946
-0.41535762 -0.55226356 0.38329098 -0.044472143 0.51733315 0.5979753 0.008883159 0.60201836
-0.5419878 -0.27721873 0.27355683 -0.10777589 -0.3304504 -0.09757194 0.02991852 -0.011334834
-0.019385094 -0.11879163 -0.3264495 0.2964465 -0.10631372 -0.12483917 0.4006203 0.11364878
0.17663103 -0.72398466 -0.03772275 -0.18019788 0.53418165 -0.08412617 0.11381891 0.3942441
-0.14928335 0.0039369734 0.21541087 -0.630374 -0.22289762 -0.34948888 -0.10890684 -0.4657258
0.22423618 0.011541976 -0.073368065 -0.4664628 -0.3771164 0.27371848 -0.36593264 -0.48295802
0.00058119686 0.060712583 -0.17738615 0.44500723 0.29311082 -0.5714118 -0.060947962 -0.57978374
-0.011630089 0.27294737 0.34252918 0.10993483 0.09179707 0.061043244 -0.1034226 0.13638166
-0.384382 0.37128252 0.22343658 -0.34244445 0.16840862 0.1423081 -0.015762333 0.0108098565
-0.19271944 -0.07398883 -0.28431332 -0.25772092 0.52424914 -0.02644395 -0.12062302 0.2036697
0.17614782 -0.36730018 0.25286394 -0.3233121 -0.043283537 -0.07774813 0.028405884 -0.13373457
0.200942 0.39977115 -0.3806607 0.37854442 0.45917964 -0.24056882 -0.08577275 -0.37606272
-0.32946005 0.47253236 0.2571727 -0.12509209 0.04084941 -0.2652014 0.2789906 0.38750705
0.3405765 0.51353604 -0.12398613 0.19153036 -0.19279365 0.23995171 0.24661852 -0.013542183
-0.3443293 -0.10667788 0.2155986 -0.09747859 -0.37234026 -0.34333393 -0.14267042 0.18195869
-0.06560422 -0.054000486 -0.49499914 -0.4433269 -0.14143576 -0.43327448 0.11006867 0.33447438
-0.3227276 0.08878273 -0.19974163 0.0015499676 -0.22873415 -0.108218215 0.30349544 -0.125998

bias f4 [8]
00000000: aa9a 10be 9f2b 40be 4ce4 cdbd 6147 eabd
00000010: 1675 403e 3397 b13d 91e3 cfbc e449 16bd
-0.141215 -0.1876664 -0.1005331 -0.11439396 0.18794665 0.08671417 -0.025377067 -0.03669156

weight f4 [8]
00000000: b262 373e aeef aa3e c590 573e 2146 473e
00000010: 8e95 633e aba7 853e 9e63 793e bff3 673e
0.17908743 0.33385986 0.21051319 0.19460346 0.2222502 0.26104483 0.24354407 0.22651576
