models/test_hyper_ss3-ss4.pth (torch_old, 358231 bytes, 131 tensors)

weight f4 [24, 22, 1]
00000000: c5a8 9d3e fd4c 373d a51a 913e 9ade 0dbf
00000010: 340f 6dbe ee05 0f3f fd10 1bbe 1687 97be
00000020: 7905 0dbe 84b4 3b3e 084a 8f3d 25bb 143d
00000030: 11ff b73d 68d0 0cbf 9231 813e 488a dcbc
00000040: 6cee 113f 89c0 19be 842b b6bd b2b1 8f3e
00000050: 6b65 363e 9c8a a1be 22b3 1d3f e7ed 1a3e
00000060: 1a03 9abe 6ec8 c03e eaf5 0bbf 7e43 d03e
00000070: 9b4a 3bbe 41f3 88be 5e0e 41be 1c70 26be
00000080: ef12 673e 1dc6 aa3d 3096 b73e 8f46 3cbe
00000090: b62a a5be 383d 48bc 696a cb3e 9236 2fbf
000000a0: 9301 99bd f0c0 d33e 849c 223f e4e8 bdbe
000000b0: 8beb 043e b31a 03be 67ad d5bc e309 adbe
000000c0: 453d e0bd efa3 553d 2ad0 95bd 07cb 9bbe
000000d0: f419 9dbe 8f91 08be d85b 67be 9232 113e
000000e0: 7c77 533b 1cf5 0f3e 7f24 e53d 79ff 6bbe
000000f0: 0281 87be 11f8 b43d 43d8 083e 3806 e1be
00000100: b99f 1a3e 786b 05bd cc5c 843e f824 b9bc
00000110: a000 b53e 8b3e 81be b84d 8dbd 6c8a a73d
00000120: e68a c8bd 24f3 4b3e 6209 b73d be5d c6be
00000130: cb46 883e 2e54 ff3d 5580 2dbd 6e7c e2be
00000140: 29ad ccbc 80f4 a93e 0999 743f 972d b0bd
00000150: 3263 99be 3a4e 30bf 8f21 89be 471b 2a3f
00000160: b6f6 083f f45c b9be 66f2 7dbe 3446 22be
00000170: 976a fdbd 34ce 773e d8eb dabe 48f6 723e
00000180: 893c 95be ec56 acbe 8d99 43bd 8b81 263e
00000190: e322 85be 5492 50bc 310c cb3e 9c17 fabd
000001a0: 18d7 5ebe 18ec 68bd 63cd 2ebe 4390 2e3e
000001b0: 588e 3e3d 8592 88bd f9fb 8fbd 1655 333e
000001c0: d11f 07bf cbfb 51bd f18f 933c e170 1cbf
000001d0: 81e2 1cbe ca76 27be fa1a c73b 8497 963e
000001e0: c33c 48be 3155 f0be a54b 16bd 1b54 c4be
000001f0: 0ba7 6f3e 001e e4bc bd32 90be 844f 08be
00000200: 5026 673d 3926 5ebd 7243 013e 390f 25be
00000210: f1bd 0abf 8747 a13d 37cf c03e c9f4 bbbd
00000220: 2a1c d93e 0aca 79be 4244 673e 1e1b 21be
00000230: c2c8 073f 9118 8e3e 289b 1dbe 7f90 913e
00000240: 643d d0be 7834 163e 4f6d 453e 7bf5 e43d
00000250: 1373 84be 1b3d a3be 789a af3d 4e7f 883e
00000260: 9004 c73c 5bd6 adbd 098a 4dbd 5e73 e63d
00000270: f35c 1aba 7e2e 0fbe f5e3 d63e 01cb f33e
00000280: d8c4 0d3e eb69 1bbe 5be0 bd3e 134b 2fbe
00000290: 237d 12bd 62c6 b03e 3f76 cc3d 87ab 9e3d
000002a0: dff0 03bd 9cab 1dbe ac39 0c3f 0ab2 9c3e
000002b0: 9a67 c6bd a4f0 513e d606 9dbe 4903 aabe
000002c0: 5f5c 213e 387e 72be 7635 0e3e 459c a8be
000002d0: 8b0b d9bd 8ace 113e 005f ee3e ace8 403e
000002e0: a37d af3e e360 61be 41cf 5b3e d3b1 99bb
000002f0: 5736 8f3e c5af 32bf d655 1cbd 0db6 5dbe
00000300: 80f3 623e 9c32 ebbe fe59 25be 038d 603e
00000310: f5e4 5fbd e6a2 db3e 14c8 8d3e 379b f2bd
00000320: 923c 19bc da59 0e3e 0b66 80bd 9a69 db3e
00000330: 3693 5cbe f423 713e 981b f0be 61c3 09be
00000340: bd44 e63e 0c3e a33e f9bf 04be 553e 60bd
00000350: 3017 093e 8db7 a1be 9f63 bdbd aa87 42bd
00000360: 47cb 843e 30e6 13be d5ca 34be 6542 41bd
00000370: 3fd7 4ebe 7cbd b43d adff cebe fd6b ad3c
00000380: aae5 323e 5904 67be 4a96 343e 6f06 39be
00000390: a95a 003e abc6 5e3e a5d2 913d d8d0 9b3e
000003a0: 0801 a8be af14 283e d9b0 1f3f 6c64 cd3d
000003b0: 144b 07be 8513 07be 9505 f53d d002 823e
000003c0: f2d1 39be cb0f e03e aa9f 053e 7771 99be
000003d0: b07d 193e bf30 263d 3a24 c8be 3d89 acbd
000003e0: 256f e0be 5b06 d33e f701 8d3d fd5d 4b3e
000003f0: c59a 8abd e378 fc3e bb55 c13d aa09 fc3e
0.30792823 0.044751156 0.2834064 -0.5541779 -0.23150331 0.55868423 -0.151432 -0.2959525
-0.13771619 0.1833058 0.06996542 0.036311287 0.08984197 -0.550055 0.25233132 -0.026921406
0.5700443 -0.15014853 -0.08895019 0.28065258 0.17812125 -0.31551063 0.6160146 0.15129815
-0.3008049 0.37652916 -0.5467211 0.40676492 -0.18290178 -0.26748088 -0.18853137 -0.16253704
0.22565816 0.08338568 0.3585677 -0.18386291 -0.32259148 -0.012221627 0.39729622 -0.6844264
-0.074710034 0.41358137 0.63520074 -0.37091744 0.12980478 -0.12803154 -0.026083661 -0.33796605
-0.10949186 0.052158292 -0.07315095 -0.30428335 -0.30683863 -0.13336776 -0.2259363 0.14179447
0.0032267263 0.14058346 0.11188602 -0.23046674 -0.26465613 0.088363774 0.13363747 -0.43950057
0.15099992 -0.032573193 0.25852048 -0.022600636 0.3535204 -0.2524303 -0.06899589 0.08180699
-0.09792118 0.1991697 0.089373365 -0.38743395 0.2661651 0.12467228 -0.042358715 -0.44235557
-0.024984913 0.3319435 0.95546013 -0.086024456 -0.29958493 -0.68869364 -0.26783416 0.6644787
0.5350145 -0.3620373 -0.24799499 -0.15847093 -0.12373846 0.24199754 -0.4275806 0.23726761
-0.29147747 -0.33660066 -0.04775386 0.16260354 -0.2600318 -0.0127302 0.3965774 -0.122115344
-0.21761739 -0.05686578 -0.17070536 0.17047219 0.04652247 -0.066685714 -0.07030482 0.17512926
-0.52782923 -0.05126552 0.018012973 -0.6110974 -0.1532078 -0.16353908 0.006076214 0.29412472
-0.19554429 -0.46939996 -0.036693234 -0.38345417 0.23403566 -0.027846336 -0.2816371 -0.13311583
0.056433022 -0.05423567 0.12623385 -0.16119088 -0.5419608 0.07874971 0.37658092 -0.091775484
0.424043 -0.24393478 0.22584632 -0.15733 0.5304071 0.27753118 -0.15391219 0.28430554
-0.40671837 0.14668453 0.19279979 0.11179634 -0.25869045 -0.31882557 0.085743845 0.26659626
0.024294168 -0.08488151 -0.05018047 0.11252473 -0.00058884843 -0.13982579 0.41970792 0.47615817
0.13844621 -0.15177123 0.37085232 -0.17118482 -0.03576387 0.34526354 0.09983491 0.0774756
-0.032212134 -0.15397495 0.547755 0.30604583 -0.09687729 0.20501953 -0.30669278 -0.3320563
0.15757893 -0.23680961 0.13887581 -0.32931724 -0.10597905 0.14238945 0.46556854 0.18838757
0.3427554 -0.22009616 0.2146578 -0.0046903878 0.27971146 -0.69799453 -0.038167797 -0.21651478
0.221632 -0.4593705 -0.1614761 0.21928792 -0.05466171 0.4289772 0.2769171 -0.11846011
-0.00935282 0.13901463 -0.06269463 0.42854005 -0.21540532 0.23548871 -0.46896052 -0.13453437
0.44974318 0.31883276 -0.12963857 -0.054746944 0.13387752 -0.3158535 -0.09247517 -0.04749266
0.25936338 -0.14443278 -0.176555 -0.04718246 -0.20199297 0.08825204 -0.4042944 0.021169657
0.17470422 -0.22560252 0.17635456 -0.1806886 0.12534584 0.21755473 0.071202554 0.30432773
-0.32813287 0.1641414 0.62379223 0.100289196 -0.13212234 -0.1319104 0.11963955 0.2539277
-0.18146494 0.4376205 0.13049188 -0.2996938 0.14989352 0.04057383 -0.3909014 -0.084246136
-0.43834797 0.41215786 0.068851404 0.19860072 -0.06767801 0.4931098 0.0944018 0.49226123

weight f4 [24]
00000000: a530 6c3e 4f57 6d3e 2e46 8c3e f1cd 683e
00000010: 17cc 673e de67 713e fd0e 673e bd7d 693e
00000020: 8195 3e3e ccb2 873e b09d 693e d685 593e
00000030: dc30 6b3e 31aa 5f3e 8fcc 383e 74e6 8a3e
00000040: 0923 6b3e b2e8 643e 3acb 683e 3a25 5f3e
00000050: f93b 6b3e 61d9 6b3e 614a 693e c09d 8d3e
0.23065431 0.23177837 0.27397293 0.2273481 0.22636448 0.23574778 0.22564311 0.22801872
0.18611719 0.265036 0.2281406 0.2124246 0.22967857 0.21842267 0.18046783 0.27128947
0.22962584 0.22354391 0.22733775 0.21791545 0.22972097 0.23032142 0.2278228 0.27659416

weight f4 [24, 24, 3]
00000000: 169f 7dbe 0b28 a7be b5b8 8bbd ad9c 98bd
00000010: d1a8 a93d 80fa 813d 2ade 3fbe 266a 81bc
00000020: 1dcf dd3d 73ba f9bd 766c cdbd e966 b63e
00000030: ab5c 033e 4ce0 43be 1133 623e fe6e c83c
00000040: 7f9d 53be 0cb2 aa3d af77 083e 8c8f 28be
00000050: d5c6 ebbd c5be 73bd 79c2 ba3e b05e f0bd
00000060: 7460 ee3d 03bc d5bc e888 d7be 7c05 3b3e
00000070: 26d4 a5be ff2a fdba 4edb 163e 5606 ffbc
00000080: a3ca 06be 11da 373c eba4 b7bd 5bce e43e
00000090: 2796 dcbc 2f74 9c3d 245d 35be 6048 88be
000000a0: c0ce 463e 150e 36be 9813 273d ca5c da3d
000000b0: 1a4b 92bd 9e00 0bbe 82dd 5d3d 64a3 233e
000000c0: 6ed0 b9bd 8950 2fbd 79e2 8abe f619 2b3e
000000d0: cb49 073e 546d 30be 0121 e13d 4652 16be
000000e0: 0c99 90be 019e 2fbe 9955 423e b58e 3ebb
000000f0: 01a1 99be 0e87 e13d 7890 b93c 9958 75bd
00000100: 5a85 b63c 27c7 fb3c 1691 bb3d 3b81 1e3e
00000110: 3db8 d23e 5392 e33b 3b3d 043c 3d3f 4dbe
00000120: 9748 c7bd 8e3b bebd 116a c63d f80e 41be
00000130: ca0d 76be 080c 08bc 3a74 d13d 6f3e 88be
00000140: 710d 183e e886 b33c adae 90bb e0f6 d03d
00000150: 582d 84be c5ba e93d 6722 47bd d878 d63d
00000160: 0712 d1bd 6477 83bd d29b 5fbd 3fce 0fbd
00000170: f349 d9bc e86b afbd 7136 a03d 5bc6 093d
00000180: 48e2 20be d301 80be c41e 82be b89b 433d
00000190: 83b1 1abe 62b2 10bd ccd6 71bc e2e6 20be
000001a0: 2abf 6c3d 363f 36be 4823 6c3e f141 343e
000001b0: d214 bd3c cf05 4a3e 217b 033e bc61 913e
000001c0: bbc9 1bbe d35c 9dbc ca49 40be a554 0b3e
000001d0: 34cc 683e 0817 2b3e 026b 91be eee0 d63e
000001e0: 6775 a63e 3dbb b23d a3ff 173c e281 83be
000001f0: 152c e63c f49f b33d 95b6 55b9 7918 f93c
00000200: 600a 233e 5efc 60bc bf91 cb3c f844 143e
00000210: 8122 73bd bfa3 95be a3b4 1f3d 4dd2 bebe
00000220: b3ab a4bc f750 a83d d67e cc3d c72a a3bd
00000230: f9b4 a13c 8058 9bbe 0958 c3bc 737b b2bd
00000240: bd7b d63d 9514 9ebe c127 d8bd 32d1 80bb
00000250: 3d04 0a3d 0241 50bd c72d 173e ea53 bb3e
00000260: 82dd 753e 7d7b ffbd 4992 43be 9176 6ebe
00000270: 3551 05bf 003e 6dbc d8d6 593e 70ac d23d
00000280: 4505 7a3d 60f4 6dbe ae96 0b3e d1f8 23bd
00000290: ed7e 053e 047d ac3c 2ca0 303c 9a94 9dbe
000002a0: dca8 24be 845e babd e9bf 023e 4a95 a33e
000002b0: bb3a be3d eee7 a8be b913 e5bb 3350 11be
000002c0: d153 893e 0d1a 973c 5bc7 75bd bde8 8abc
000002d0: 540b 1cbe e461 ed3d 8513 473d 0382 35be
000002e0: 589f e1bd dc5f 813d 57fd 18be b8f5 2bbe
000002f0: 6712 c53d 4d43 5f3e 0e0a 13be 8226 1bbe
00000300: 8606 c23d 8242 d5bd 93d1 aabe 6e59 2abe
00000310: 1f8c b83e 0d63 e6bc c04b ef3d ee0a 873c
00000320: 172e 90be bb45 e83e 2edd e3bd 3999 babd
00000330: d141 91be 56da 01bd f49c 8f3e 1552 33bd
00000340: 691f 823e 095d dd3c 8e9b 8dbc b590 71be
00000350: b6b7 393e 53f4 f23d f620 7d3e 8311 2f3d
00000360: 81a7 93bd b879 f83d 5453 0f3e a65c e1bd
00000370: 4c18 6cbd 9e21 4b3e cfe6 aa3d 30e9 ecbd
00000380: aedb c7bd efbd 6ebe 9cc3 2c3e 20ff f6bc
00000390: a627 913d 0a51 973e ea74 50bb d2b5 f93d
000003a0: b153 243d 949a 4f3e 9e02 ac3d 66bc 8f3d
000003b0: 4dc3 2d3d 6a80 7f3d e507 6d3e 8582 533e
000003c0: 8ded 28be 546d 9dbd ec5d 21be b74a fc3d
000003d0: b65e ce3d 4578 67bd e79b 27be 2c49 263e
000003e0: 739c b73e 344e 6a3d e5df a8be e5c4 983c
000003f0: 4a1c c7be 849c db3e 3926 38be 0f1d c43c
-0.24767718 -0.32647738 -0.068223394 -0.074517585 0.08284152 0.06346607 -0.18737093 -0.015797686
0.10830519 -0.121937655 -0.10030453 0.3562539 0.12828319 -0.19128531 0.22089793 0.024466988
-0.20665549 0.08334741 0.13326906 -0.16461009 -0.115125336 -0.059508104 0.36476496 -0.1173681
0.11639491 -0.026090628 -0.4209664 0.18263811 -0.3238842 -0.0019315182 0.14732096 -0.03113095
-0.13163237 0.011221425 -0.089670025 0.44688687 -0.026927067 0.07639348 -0.17711312 -0.26617718
0.19414806 -0.1777881 0.04079017 0.10662229 -0.07143231 -0.13574454 0.054166324 0.15980297
-0.09072958 -0.042801414 -0.2712591 0.16709122 0.13211744 -0.17229205 0.10992623 -0.14679822
-0.28241765 -0.17150117 0.18977965 -0.002907676 -0.3000565 0.11012088 0.022651896 -0.059898946
0.022280384 0.030734612 0.09158532 0.15478985 0.41156188 0.0069449334 0.008071239 -0.20043655
-0.09730642 -0.09288703 0.09688199 -0.18853366 -0.24028698 -0.00830365 0.102272466 -0.26610133
0.14848877 0.021914914 -0.004415354 0.10203338 -0.25815845 0.114125766 -0.048616793 0.10472268
-0.102085166 -0.06419256 -0.05459196 -0.0351088 -0.02652452 -0.08565503 0.07822884 0.033636432
-0.1571132 -0.25001392 -0.25414097 0.047755927 -0.15106778 -0.03532637 -0.014760684 -0.15713075
0.057799496 -0.1779755 0.23060334 0.1760328 0.023081217 0.19728778 0.12839939 0.28394878
-0.15213673 -0.019209301 -0.18778148 0.13606508 0.22734147 0.16708004 -0.28401953 0.41968483
0.32511446 0.08727119 0.009277257 -0.2568503 0.028097192 0.08770743 -0.0002038128 0.030407177
0.15921926 -0.013732044 0.02484977 0.14479434 -0.059359077 -0.2922649 0.038990628 -0.37269822
-0.020101404 0.08218568 0.099851295 -0.079671435 0.019739615 -0.30340958 -0.02384569 -0.08714952
0.1047282 -0.30875078 -0.105544575 -0.003931188 0.03369545 -0.050843246 0.14763556 0.3658746
0.2401028 -0.124747254 -0.19098772 -0.23287417 -0.5207704 -0.014480114 0.21273363 0.10286796
0.06104018 -0.23237753 0.13631698 -0.04003221 0.130367 0.021055706 0.010780375 -0.30777436
-0.1608004 -0.09100059 0.1276852 0.31949836 0.09288546 -0.32989448 -0.0069908765 -0.1419075
0.2682176 0.01844504 -0.060004573 -0.016956681 -0.15238696 0.11590937 0.0486026 -0.17725377
-0.110167205 0.06317112 -0.14940391 -0.16792953 0.096226506 0.21803017 -0.14359304 -0.15151408
0.094739005 -0.10413076 -0.33363017 -0.16635677 0.36044404 -0.028123403 0.1168437 0.016484704
-0.28160164 0.453657 -0.11126171 -0.09111256 -0.28370526 -0.031702362 0.28049433 -0.04377945
0.2541459 0.027021902 -0.017286088 -0.23590358 0.18136486 0.118630074 0.24719605 0.04274131
-0.07209683 0.12132591 0.13996631 -0.110039994 -0.05764036 0.19837043 0.083448045 -0.115679145
-0.097586975 -0.23314641 0.16871494 -0.03015095 0.070876405 0.29554015 -0.0031807967 0.121928826
0.040118877 0.2027381 0.08398937 0.07018356 0.04242258 0.062378325 0.23147543 0.20655258
-0.16496868 -0.07686868 -0.15758485 0.12318938 0.100766584 -0.056511182 -0.16368066 0.1623885
0.3586155 0.057203487 -0.32983318 0.018648574 -0.3888877 0.4289285 -0.17983331 0.023939637

bias f4 [24]
00000000: 4d8c 8e3d dba6 dbbd cb60 fabd b98d 093d
00000010: 30be 28bd 2c7e d6bd 0b59 bcbd 8579 fbbd
00000020: 6ba5 efbd d8e2 3fbd 37e1 b83d dea8 6d3b
00000030: 4e48 42bd 4b0c c4bc e176 0a3e 242b a73d
00000040: 3331 ad3c afae c7bd 2370 adbc b6f3 873c
00000050: c1a2 9fba 34f8 003d ff2d bfbc 490b a43d
0.06960354 -0.107251845 -0.12225493 0.033582423 -0.041197002 -0.10473284 -0.09196671 -0.122790374
-0.11701473 -0.046847194 0.09027331 0.0036263983 -0.047432236 -0.023931643 0.13521911 0.08162525
0.021141624 -0.09750115 -0.021171635 0.016595703 -0.0012179242 0.031486705 -0.023337362 0.08009965

weight f4 [24]
00000000: cfba 703e c508 6c3e eb5b 3b3e f141 6a3e
00000010: 8283 8a3e f3fc 693e 77ef 863e 1021 743e
00000020: d351 8c3e cf0c 8b3e 1a45 6c3e e461 6b3e
00000030: f478 8b3e 0ab9 753e dcf0 693e 905d 823e
00000040: 4b96 693e a263 7c3e 6dc2 713e d68d 633e
00000050: 0391 653e e93d 653e aa57 6d3e 02ce 673e
0.23508762 0.2305022 0.18296783 0.22876717 0.27053457 0.22850399 0.26354572 0.23840737
0.27406177 0.2715821 0.23073235 0.22986561 0.27240717 0.23996368 0.22845787 0.25462008
0.22811238 0.24647382 0.23609324 0.22222075 0.22418599 0.22386898 0.23177972 0.2263718

weight f4 [24, 24, 3]
00000000: 9761 363e 87ca b4bd 1141 42bd f7fd 4b3e
00000010: 564d f73d 1118 873e bb2a 883b 0807 263e
00000020: fc2e 5c3e de34 26be 3e4b 00be 077b 94be
00000030: 8a69 863e d98d 39be d1cd a03d 872d fcbd
00000040: 209e 38be 45fc 7ebd abab 003e aa6f e03a
00000050: 30d3 dc3d 249f dcbc 87c8 b9bb 4dfd 813d
00000060: 2826 753e 5398 f83d 2e49 993b bbe6 27be
00000070: 9674 ad3d ec48 8e3d a8a0 f4bc a008 81bb
00000080: 1152 c4be 9cdc 60be 7e0e 373e 7f02 98bd
00000090: 2cf7 b53c 03cc ac3a 1e93 bebe 4ab5 453e
000000a0: d75d f3bd cee5 6abd af47 063d f665 453e
000000b0: 07b5 f6bd 879d 0a3e 745a 1c3e 7483 9e3d
000000c0: a04a 0abe 0f40 b3bc b3f4 16bd f669 a93d
000000d0: f383 7ebd b8d4 603e 37b0 29be 1353 8fbd
000000e0: 04f7 853e 70cf 7f3e f82f ae3e 80bc fa3d
000000f0: 5bfe 223c 2c96 163d fc0b a83c 8e09 82be
00000100: 61e0 703e 8d10 65be 0035 56be 7686 1bbe
00000110: 8106 953b d9be 1f3d 3596 353d 2676 e33d
00000120: b731 b6be 89a4 35bd dd9b 2d3d 9bf2 483e
00000130: b96a 5b3e 54bd cd3d a5b9 a7be 7f15 bebc
00000140: 7966 69be 0b80 0e3e 9f9c 6abe e719 a83e
00000150: ee22 033e 3e46 c43c af23 023e 271d e43c
00000160: 4e73 20bd 57cb 193d fe6b 213e b1b2 af3d
00000170: e3f9 4d3d a79f 3abd 286b 1a3e 8c19 11be
00000180: 32fe 97bd a2e7 7a3d 8135 823e 894f a43e
00000190: fa93 8a3e 6ae7 633d 11da 1ebd ea08 afbd
000001a0: f862 4bbe 6ba4 8bbd b253 04bd f2d3 d6bc
000001b0: c057 cf3d ddce 413e 47d2 b9be 2e62 b93c
000001c0: dee9 06be fc09 04be eed2 41bd 45b1 59be
000001d0: 3613 203d a73e 103e e5d7 273d 3528 7bbe
000001e0: 8065 44be e1b9 e7bd 3d93 90be 6d6d 4e3c
000001f0: 4952 b13c bcd7 7bbd 8a94 0c3e 644f 09be
00000200: 7b5a 933d 93de 61bd 4498 803e 9528 22be
00000210: 7081 cabe 6f72 8fbe 5df8 33bd 00aa a83d
00000220: 48ae 80bd b613 a9be 76c1 453c d90f dbbd
00000230: 9dd0 10be 7d4e dfbd 202e f2be c0f2 4bbd
00000240: 14f3 443e 74d8 ff3d 9375 e5bc 8061 a63d
00000250: e734 b43d 2e00 db3a bb59 1abe 24a7 1cbe
00000260: 9745 f4bd a71a 9c3d 1649 8a3e f345 1f3e
00000270: b6cb 8b3d 3d4f eabd 1afc 00bf b13c 8a3b
00000280: b317 05be f039 563e eccc b23d da00 d2bd
00000290: a82f 8f3d f232 633c 4811 92be 973a cbbd
000002a0: 84c5 edbd 18a7 13be ff85 ef3d 5df6 073e
000002b0: c255 f8bc 8daa d0bd 0a77 07be 9723 833e
000002c0: 4c76 5fbe e9c6 d7bd 2869 07bd 93c0 3a3d
000002d0: 5c9e 45be e767 40be 901b ac3d 66a5 0cbe
000002e0: 8088 abbc 9414 313e fb63 3abe 244c c93d
000002f0: 0790 0fbe 9619 5fbd 8af0 bebd b164 733d
00000300: 6e0d 183b 2384 e13d 5203 4cbd 4f00 bd3d
00000310: b395 be3d 3c38 de3d 2d56 913d b34b acbd
00000320: 1c47 0c3c f35a c33e 6054 78bd 1699 243e
00000330: 8184 87bd de43 d33e 0760 253e 11aa 3cbd
00000340: 1e6a bc3d fe04 403c fb3f 803d 6eea 28be
00000350: e20b 863d a592 74be 45d9 8e3e b930 8e3e
00000360: 970f 9b3d aefd 1cbe d1a4 febc 697a bdbe
00000370: 093f eebd ca60 6bbe d583 eebd 3f70 ffbd
00000380: 301c 103d 1469 6b3e ad81 483e c353 833e
00000390: 5913 c53d ab34 df3d 3334 713e 3bfe 6a3d
000003a0: c709 73bd 8f7e bebd 46ce 17be 5d60 06be
000003b0: 4480 0f3d 969c ef3c 624a 0bbe 10e9 46bc
000003c0: b81f 9e3d 49ca 47bd 3b5e 133d 52ab b23e
000003d0: 1302 abbe 3204 abbd ef15 183e 6ac6 cdbc
000003e0: f89b 5dbc 9001 ad3e 948d c33b b7a6 08be
000003f0: db66 b03d 1632 aebd 03c9 ecbd c92f e3bd
0.17810665 -0.088276915 -0.047425333 0.19921099 0.120752975 0.2638555 0.0041554845 0.1621362
0.21502298 -0.16231105 -0.12528703 -0.29000112 0.26252395 -0.18120517 0.07851756 -0.12313371
-0.1802907 -0.0622523 0.12565486 0.0017123122 0.10782468 -0.026931353 -0.0056696567 0.063471414
0.23940337 0.121384285 0.004677913 -0.1639661 0.08469503 0.069475025 -0.029861763 -0.0039377958
-0.38343862 -0.21959156 0.17876622 -0.07422351 0.022212587 0.0013183359 -0.37221617 0.19307438
-0.11883133 -0.057348065 0.032783207 0.19277176 -0.12046247 0.13536654 0.1526888 0.077399164
-0.1350503 -0.021881131 -0.036854457 0.082721636 -0.062137555 0.21956146 -0.16571127 -0.06998267
0.2616502 0.24981475 0.34020972 0.12242985 0.009948338 0.03676431 0.020513527 -0.25397915
0.23523094 -0.22369595 -0.20918655 -0.15188012 0.0045478945 0.039000366 0.0443327 0.111065194
-0.35584804 -0.044346366 0.04238497 0.19623797 0.2142743 0.10045877 -0.32758823 -0.02320361
-0.22792996 0.13916032 -0.22911309 0.32832262 0.12806293 0.023959275 0.12708925 0.027845932
-0.039172463 0.037547436 0.15763852 0.085790046 0.05028714 -0.045562413 0.1507994 -0.14169902
-0.07421531 0.06125606 0.25431445 0.3209193 0.27066022 0.055640616 -0.038782183 -0.08546622
-0.19861972 -0.068184696 -0.03230638 -0.02622411 0.10124159 0.18926568 -0.3629324 0.022629824
-0.13175151 -0.12894434 -0.0473203 -0.21259029 0.03908082 0.140864 0.040977377 -0.24527057
-0.19179344 -0.113147505 -0.28237334 0.012599331 0.021645682 -0.061485037 0.13728538 -0.13409191
0.07194992 -0.055143904 0.2511617 -0.15835793 -0.39551878 -0.28016993 -0.04393803 0.0823555
-0.062832415 -0.3302285 0.01207005 -0.10696382 -0.1414208 -0.10903642 -0.47300816 -0.04979205
0.19233352 0.12492457 -0.028010165 0.081240654 0.08799153 0.0016708428 -0.15073292 -0.15298134
-0.11927336 0.07622271 0.27008885 0.15554027 0.06825964 -0.11440895 -0.50384676 0.0042186608
-0.12997322 0.20920539 0.08730492 -0.10254069 0.069915116 0.013867127 -0.2852881 -0.099232845
-0.11609939 -0.1441921 0.116954796 0.13277574 -0.03031433 -0.1018878 -0.13229004 0.2561309
-0.2182247 -0.10535986 -0.03305927 0.04559381 -0.1929869 -0.18789636 0.08403695 -0.1373497
-0.020939112 0.17293006 -0.18202202 0.09828976 -0.14019786 -0.05446776 -0.09323223 0.0594222
0.0023201364 0.11011531 -0.049807854 0.092285745 0.093058966 0.108505696 0.07096515 -0.08412876
0.008561876 0.38155326 -0.06062734 0.16074023 -0.0661707 0.41262716 0.16149913 -0.046060625
0.09199928 0.01171994 0.06262203 -0.16495678 0.06545235 -0.23884065 0.27900138 0.27771547
0.07571333 -0.15331146 -0.03108445 -0.37007454 -0.11633117 -0.22986141 -0.11646239 -0.12472581
0.03518313 0.22989303 0.19580717 0.25649843 0.09622831 0.108987175 0.23555069 0.05737136
-0.059335496 -0.09301483 -0.14824781 -0.13122697 0.035034433 0.02924947 -0.13602594 -0.012140527
0.077208936 -0.0487769 0.035978537 0.34896332 -0.3340002 -0.083504096 0.14852117 -0.025119025
-0.013525955 0.33790255 0.005967805 -0.13344847 0.08613368 -0.08505647 -0.115617774 -0.11093099

bias f4 [24]
00000000: 1da6 823d b3a5 193d 7328 533d 8e7a 103d
00000010: 7004 e2bd a9c0 2c3d 8e6b 7c3d 28e9 d5bd
00000020: 5f8b fd3c 0af4 adbc 8561 a43d 9522 cabd
00000030: 5bda 5bbd 4d26 2ebd 74d3 d4bd f755 ca3d
00000040: fd57 81bd b0f0 9abd 81bf 84bd 859b 05be
00000050: 189c 3fbd fba7 debd 5b12 44bd 7c65 97bd
0.0637934 0.03751154 0.051552247 0.035273127 -0.11036003 0.042175923 0.06162601 -0.10444862
0.030950246 -0.021234531 0.08026413 -0.09869877 -0.053675037 -0.042516995 -0.10391894 0.09879678
-0.063156106 -0.07565439 -0.06481839 -0.13047607 -0.046779722 -0.108718835 -0.047869068 -0.073924035

weight f4 [24]
00000000: 2b10 5f3e 6ea3 723e 18df 663e fae1 643e
00000010: 6239 8b3e be27 883e dc2b 673e a10a 6a3e
00000020: 8d3f 703e 0a66 8d3e ff65 723e 312d 673e
00000030: e2b0 723e 93cc 833e 488c 673e c7ae 673e
00000040: 4bbf 6a3e a2be 6f3e 474d 653e b479 833e
00000050: 7420 6e3e 4d9f 623e bc2e 883e 848b 5e3e
0.21783511 0.23695156 0.22546041 0.22351828 0.27192217 0.2659282 0.22575325 0.22855617
0.23461743 0.27616912 0.23671721 0.22575833 0.23700288 0.25742015 0.22612107 0.22625266
0.22924535 0.23412564 0.2239276 0.2567879 0.23254567 0.22131081 0.26598155 0.21732908

weight f4 [24, 24, 3]
00000000: d3f8 72be ac73 c0bd d971 403d f3ad 303e
00000010: 80df 4d3e cb8d 263c c48c 183e 6629 ffbc
00000020: 14eb be3c d996 f93d 8358 473e 8c3f 54bb
00000030: 9f61 b8bd c8d7 223e 328f ddbd 4632 f4bd
00000040: 124a 02be b113 8f3e df84 9f3d 9e34 3bbe
00000050: d2f5 023e 32a2 163e 5db7 5f3d 1434 423d
00000060: 323f 47be f9da 283d dec2 03be 0abe b33e
00000070: 8965 74be 3deb 68bc fc63 133e f8f9 47be
00000080: da1e bdb9 74a3 2fbe cd0d 40bd a631 cd3d
00000090: 0603 023e 5b9f 30bd 9a6f bebd b836 433c
000000a0: e4f5 51be 925a c03e 3513 90bd 187e 0f3e
000000b0: 990f 06be 826d 193e 45c8 a7bd 7c24 90be
000000c0: 79db 4d3d 8118 a2be 4ce3 b1be 5438 52bc
000000d0: 5872 bdbd c95b 08be dda5 0dbe ef8f 583e
000000e0: 06ea 003e a61a 1a3d 9cc9 dc3d eb34 67bd
000000f0: b2dd 273e 9a14 8ebd 7846 323e 36a1 833e
00000100: 333e 2bbb 67a7 3b3d 672c 0ebe 926c d03c
00000110: 5063 7abd d280 c23d 2b04 6fbe 6e0c b73c
00000120: 18f9 cd3e 308d bf3d e526 efbe cf42 80be
00000130: 4cad 49be 468c 473e d158 c03c f449 2a3e
00000140: 65b3 4a3e 3fce bb3d ef4f 143e bd33 b63c
00000150: 19b3 1e3c f089 353d d04a 963d 1214 1bbe
00000160: 3d6c 513d d708 e03d 6721 72be 6f4c 2f3c
00000170: 3e50 2ebd a14e b53c 2f08 06be 53de b43d
00000180: abf8 ecbd 53e2 a3be fd6f a5bd 9583 2d3c
00000190: 6d71 3fbd 993e eebd 21d2 e13d 7704 a1be
000001a0: da0b 89be 96b7 6cbe 5064 d03d 5d9f 9f3d
000001b0: f5d4 96be 21ae 2bbc 9b31 46bd 1f15 f2bc
000001c0: 76ef 2d3e b8b3 f83c b94f c13d b80e 7bbb
000001d0: 58bf 603e 8f9a b1bd 612a e3bd 8fb7 1d3e
000001e0: 08be 4c3d 4044 38be de6f 87be 7b92 303c
000001f0: 34ce ffbd 66e8 3abe c846 8c3d bc2b 2c3e
00000200: 9221 c6bd 2896 24be bf23 0f3e 611b 8c3d
00000210: 48c4 a6bd d1ec 90be cabc e2bc f7e3 953e
00000220: a9d3 633e c3d7 4abe 6388 023f 8068 a2be
00000230: 8728 883e a69c 4a3d c870 5c3e c089 9abb
00000240: 8479 3cbe 0d42 153d 7195 773d d52d 323e
00000250: 9fb1 e3bd 6bd0 0b3e 8f02 9d3e eb08 14bd
00000260: f115 133d e204 ecbd 0d35 e5bd 67b8 1b3e
00000270: eee1 a7be 9b18 80bd 96b1 5cbe 6f04 2abe
00000280: 28a2 31bd 4fb7 6f3e 4855 6abe 6c7e 9abe
00000290: be5f 323d 189e 1d3c b63d dfbd 0619 5c3d
000002a0: acaf 89be 2d20 77be eee9 5c3e 9ceb cabd
000002b0: 5082 4e3d c944 27be a570 733e 1d4c 74bd
000002c0: 1b81 a1be e094 ddbc 0c7d 953e 974a 7fbe
000002d0: a932 343e 9b97 5e3e 75ea e13d 3da9 763d
000002e0: 52e6 39be b98c 9cbe 051e a4bd 8988 cdbd
000002f0: 96fb 873b c344 5a3d 9966 99bd 8264 3fbe
00000300: ac3c 1d3d 1445 c4bd e152 1e3d 88fc 313e
00000310: e085 003e 81e8 9a3d 6bbc 203e b00d b43d
00000320: f52d 68be 6848 1b3d d340 8cbd 7da2 d13d
00000330: 03b2 c13d b98c 8b3e 5454 353e a730 383d
00000340: 4952 fbbc bdcc 13bd ab18 c7bc 7e27 183d
00000350: e1aa 04be acd9 a1be 936c 043d 9109 05be
00000360: b07e c0b9 7e13 903e ad91 8ebd a755 4c3e
00000370: c5c6 99be 522a b6bd f4ac e43d 3750 22be
00000380: aa84 83be ca8c 883d e909 063e 9705 523b
00000390: 6ac2 853d c4d0 3d3e 804a 30bd 4b63 14be
000003a0: 03c9 4cbe ce94 76bd 7cdc 0e3d 81a4 2fbe
000003b0: 8bfe 793e a5e0 43be 6404 013e 117c 203e
000003c0: b804 723d 8b67 1ebd f095 ef3d 0d95 623d
000003d0: 8a92 3ebd b6c3 1bbe b404 973d 0efd 5f3d
000003e0: 6a6d 30be a4f7 36be f2c9 1abe 95b7 9dbd
000003f0: bb17 ddbd e98c 4e3c 3e05 943e 76ba 273e
-0.23727731 -0.09397063 0.046983574 0.17253856 0.2010479 0.010165642 0.14897448 -0.03114767
0.023305453 0.12186975 0.19467358 -0.003238651 -0.09002995 0.15902627 -0.10818328 -0.119236514
-0.12723568 0.2794471 0.07789015 -0.1828179 0.12789086 0.1471031 0.05461823 0.047412947
-0.19457701 0.041224454 -0.12867305 0.35105926 -0.23866858 -0.014216241 0.1439361 -0.1952895
-0.00036071875 -0.17152196 -0.04688816 0.10019235 0.12696466 -0.043120723 -0.0929863 0.011914901
-0.20503956 0.375691 -0.070349135 0.14012945 -0.13091888 0.1498318 -0.08192495 -0.28152835
0.050258134 -0.3165932 -0.34743726 -0.0128308125 -0.09250325 -0.13316263 -0.13832803 0.21148656
0.12589273 0.03762307 0.107806414 -0.05644695 0.16393164 -0.06937523 0.17409694 0.25708932
-0.0026129603 0.045813944 -0.13884126 0.025442395 -0.061129868 0.09497227 -0.23341434 0.022344794
0.40229106 0.09353101 -0.46709362 -0.2505097 -0.19695014 0.19487104 0.023479851 0.16629773
0.19794996 0.09170198 0.14483617 0.022241468 0.009686255 0.044321 0.07338488 -0.15144375
0.051128615 0.10939186 -0.23645554 0.0106993755 -0.042556994 0.02213222 -0.1308906 0.088314675
-0.11570867 -0.3200861 -0.08078001 0.010590454 -0.04673903 -0.11633033 0.11026407 -0.3144872
-0.26766855 -0.23116907 0.10175383 0.07794068 -0.29459348 -0.010478527 -0.04838715 -0.029551087
0.16985878 0.030359134 0.09439034 -0.0038308334 0.21947992 -0.08672058 -0.110920675 0.15402053
0.049985915 -0.17994785 -0.26452535 0.010777111 -0.12490502 -0.18252715 0.06849438 0.16813558
-0.09674372 -0.16072905 0.1397848 0.068411596 -0.081429064 -0.28305677 -0.027677912 0.29275486
0.2224871 -0.19808869 0.5098936 -0.31720352 0.2659342 0.049465798 0.21527398 -0.004716128
-0.1840573 0.036439944 0.060445253 0.17400296 -0.11117863 0.13653724 0.30666015 -0.036141317
0.035909597 -0.11524369 -0.11191759 0.15207063 -0.32789558 -0.06254693 -0.21552119 -0.16603254
-0.043367535 0.2340977 -0.22884095 -0.30174577 0.043548338 0.009620212 -0.10900442 0.0537348
-0.2689184 -0.24133368 0.21573612 -0.0990822 0.050417244 -0.16334833 0.23773439 -0.0596429
-0.31543812 -0.027048528 0.29196966 -0.24930798 0.1759745 0.2173752 0.11031047 0.060219992
-0.18154266 -0.30576113 -0.08013538 -0.10035808 0.0041498644 0.053288233 -0.07490272 -0.18690684
0.03838794 -0.09583488 0.03865326 0.1738149 0.1255107 0.07563878 0.15696876 0.08791673
-0.22673781 0.03791085 -0.06848302 0.1023607 0.09457781 0.272558 0.1770795 0.044968273
-0.030678885 -0.036083926 -0.024303755 0.037147038 -0.1295581 -0.31611383 0.032330107 -0.1299193
-0.00036715483 0.2813987 -0.06961379 0.19954549 -0.30034462 -0.08894791 0.11165801 -0.15850912
-0.25687152 0.066674784 0.13089718 0.003204679 0.06531222 0.18536669 -0.0430398 -0.14491002
-0.19998555 -0.060200505 0.03487824 -0.17152597 0.24413507 -0.19128664 0.12599331 0.15672328
0.05908653 -0.038672965 0.1169852 0.055317927 -0.04652647 -0.15211377 0.07373944 0.05468469
-0.17229238 -0.17867905 -0.15116099 -0.07701031 -0.10795542 0.012606838 0.2891025 0.16379723

bias f4 [24]
00000000: 5ffc 3a3d 87a2 863d 7509 ef3d f445 d63c
00000010: ba33 3c3d 8fbd 713c db6f b5bd 2ff5 b63d
00000020: fe52 653d 9e9b eabd c623 823a 25eb 83bd
00000030: f214 05bc 73a4 8dbc 6267 a93d 8584 223d
00000040: aa3a 1b3e 6e5c c0bb c341 9fbb 5247 b83d
00000050: a821 e63d b843 6dbb f479 bdbd 3579 e7bd
0.045650836 0.065739684 0.11671726 0.026156403 0.045947768 0.014754667 -0.08859225 0.08933484
0.05598735 -0.11455463 0.0009928874 -0.06441335 -0.0081226695 -0.01729033 0.08271672 0.03967716
0.15159097 -0.0058703935 -0.0048601343 0.08997978 0.11236888 -0.0036203694 -0.09251776 -0.11302415

weight f4 [24]
00000000: 3e71 7d3e 416b 853e fda8 6b3e b6ac 6a3e
00000010: e78e 8d3e 401d 733e f0f0 5f3e e88f 893e
00000020: bebd 583e a5af 833e bcd0 663e 62b6 683e
00000030: 4ad3 643e 8efc 873e 04bd 6b3e f266 6e3e
00000040: e277 6d3e a617 633e 49f0 893e 607a 6a3e
00000050: 52d5 6a3e a01a 673e e6ff 6c3e f952 633e
0.2475023 0.2605839 0.23013683 0.22917446 0.27648088 0.23741627 0.21869254 0.26867604
0.21166131 0.25719944 0.22540563 0.22725824 0.22346225 0.2655987 0.23021322 0.23281458
0.23190263 0.2217699 0.26941136 0.22898245 0.22932938 0.2256875 0.23144493 0.2219962

weight f4 [24, 24, 3]
00000000: b61a 7cbd a93c 1d3e 9b71 103d 3a56 afbd
00000010: cc7a a7be 92c9 d2bd d8fc 033e b669 adbe
00000020: 8590 08be 6855 533e 71a1 23be 3e8a af3d
00000030: 49de 433e 1fe8 46be 67a0 dfbb 4639 5ebe
00000040: fd91 7a3e bea3 873e 369d 08be e1c6 34be
00000050: c038 2fbe d26e 343d 7c1c 90be 1af0 cc3c
00000060: a745 0e3e c63b da3c 0372 aebd c604 e0bd
00000070: 5897 e83d 888b d7be 01c0 58be 9a23 1a3d
00000080: 1d94 1e3d 6600 693e f540 d3bc 0add 803e
00000090: 577e e1bd c30b 0b3e ec1d f33d 8a9c 59be
000000a0: a955 8abd b8b2 a73d 2cf4 993c 5089 6abd
000000b0: 558c febc 64dd 3b3c 110c 22be eebc 05be
000000c0: c59a 7cbe 8e54 d5bc 536c ff3d 5fbf db3d
000000d0: d6c4 753d 9e72 813e bdd5 ffbd 73c8 92bd
000000e0: 5be5 a5be b22d e33d ba91 41be 19d4 79be
000000f0: 6cfc 5fbc ed8d a73e 4489 87be 979a b23d
00000100: 1f8c 8fbd c1d3 16be f060 953d e7c1 6f3e
00000110: 502a fa3c 5c76 09be 58d8 353c f6e4 af3d
00000120: ae40 03be 086f a9bc 85b0 933e 41fd 25be
00000130: 0246 86be 2efc 2cbc 27bf 00bc 819d 9bbe
00000140: 2cfb f7bc 8e56 913c a4c2 3f3e 4900 77bd
00000150: c656 9ebd c570 e33d dda1 21be 897e 8d3d
00000160: b051 67be d0e2 e53b 7604 fabd fb46 3fbe
00000170: 1f95 9b3d c8e2 c1bd 5db7 b9bd 8199 533e
00000180: 542c 423e 3e19 34be f193 fcbc 2367 25be
00000190: 9a24 643e 5d5c 393e 27c1 e6bd 2d9e 04be
000001a0: 008c 8dbd 5fbb 023e d367 f5be 382f 973b
000001b0: 8534 42be 389e 92bd 2016 a0bd f3e2 9b3c
000001c0: 2893 ae3d f6b1 3abd 4f47 4c3e 9cc7 8fbe
000001d0: a343 b6be 0be3 38be 45fb d6bd 4e69 d73d
000001e0: 7c0b 48be c0d2 993e a86e bd3d 1511 29be
000001f0: 0d4b e83d 435a 8fbd 2871 783e ac5c 0d3d
00000200: e244 533d 373c 39be a82a cb3d 8868 153e
00000210: 31ae 49be 676a b8bd 233e 04be 92a4 6b3e
00000220: 153c 9ebe c0ba 883e 78ad bebe 870b 86be
00000230: f0a0 23bd ec2a edbd 1eda 45bd 9232 1b3e
00000240: 6edc 32be 414d e23b a88e 34be de9a 023e
00000250: d57c c8bd 6dce a03d add6 8d3d 97b0 11be
00000260: b63b 113d 5732 763e 31da 3bba 7960 6a3d
00000270: 16af 7c39 5549 d13e 1d11 d6bd 0e27 173d
00000280: 7670 24be 6697 fd3b 7637 b53c fa35 0b3d
00000290: 1428 b7bd 937c 38be 3751 c63d 4f9d 863d
000002a0: 3a0b a53e 8aa7 613e b026 0bbe bea1 0d3d
000002b0: 80ac 16be 34a5 1abd b72f eb3d ad81 66bd
000002c0: e2d7 0bbe bde3 03be 5bb3 013e 3734 f33e
000002d0: 9b8f 5b3d cdba 5dbe b7e0 9a3c 623f dc3c
000002e0: 2d8f d73d 7b33 9bbe f066 ab3d 014a 633e
000002f0: 6e8f 9b3d 6eb8 e5bc ec43 643e 083a bfbd
00000300: d99d 983e 6b6d 8e3d 1265 193d e8dd 193d
00000310: 5a71 223b f7a2 0c3d 8467 373d e14a 393e
00000320: af9c 1abd a039 a53d 4842 47be 4165 853d
00000330: 9866 f8bd 733a 3d3e cb49 aabe 457f d7bd
00000340: 1bcf 94bd 0e18 e3bd 4a5f 3e3e 55c2 06bc
00000350: ecc6 c43d 8e6b 83bd b788 f6bd 8afb 03be
00000360: b364 523e 4f7c a0bd 95a4 23be 25b5 523d
00000370: d7f4 d5bd 647d 853d 0adf cebd 6425 efbd
00000380: bd15 26bc ff61 56be fc45 e9bd dbd9 16bd
00000390: 1c60 b43d 9d32 163e 3add d53d 93e3 36bd
000003a0: 6bfc 8d3e 7970 3ebd 1923 043d 5d7c 003e
000003b0: 283e 1dbe c68b 1a3e 420d 2dbd 7e99 32be
000003c0: 4788 493d 67b2 8bbe 7832 49bd 92ed 683e
000003d0: bb22 233e be48 e5bd 84ef 5b3d d084 2e3e
000003e0: 30ba 9c3e 5ed6 8fbd ab90 b8be 074b 463e
000003f0: 4315 b1bd 9c61 823d e652 7c3d 4048 3bbd
-0.06154891 0.15355171 0.035264593 -0.08561368 -0.32710874 -0.10292353 0.12889421 -0.33869714
-0.1333638 0.20638049 -0.15979554 0.085712895 0.19127764 -0.19424485 -0.0068245414 -0.21701536
0.24469753 0.26492113 -0.13341221 -0.17653991 -0.17111492 0.044051 -0.28146732 0.025016833
0.13893758 0.02663983 -0.0851784 -0.109384105 0.113569915 -0.4209864 -0.21166994 0.03763161
0.03871547 0.22754058 -0.02578781 0.2516864 -0.110104255 0.13578705 0.118709415 -0.21251121
-0.0675462 0.08188385 0.018793188 -0.057259858 -0.031072775 0.011466358 -0.15824915 -0.13060352
-0.24668415 -0.026041295 0.12471833 0.107298605 0.06000217 0.25282758 -0.12491939 -0.07167139
-0.32401547 0.110927 -0.18903247 -0.24397315 -0.013671022 0.32725468 -0.26471913 0.08720892
-0.07009148 -0.14729215 0.0729388 0.23413812 0.030537754 -0.13424057 0.011098944 0.08588593
-0.12817642 -0.020682827 0.2884561 -0.1620989 -0.26225287 -0.010558171 -0.007858074 -0.30393603
-0.030271135 0.017741468 0.18726593 -0.060303006 -0.077313945 0.111054935 -0.15784402 0.069089
-0.22589755 0.0070155635 -0.12207882 -0.1867942 0.07596802 -0.09467083 -0.09068177 0.20664026
0.18962222 -0.17587754 -0.030832263 -0.16152625 0.22279587 0.1810164 -0.1126731 -0.12950964
-0.069114685 0.12766789 -0.47930774 0.004613783 -0.18965347 -0.07159084 -0.0781672 0.019029116
0.085241616 -0.045579873 0.19949077 -0.28081977 -0.35598478 -0.1805536 -0.104971446 0.10518132
-0.19535631 0.30043602 0.09249622 -0.16510423 0.1134244 -0.06999638 0.24261916 0.034512207
0.051579364 -0.18089376 0.099202454 0.14590657 -0.19695355 -0.0900467 -0.12914328 0.23011997
-0.30905214 0.2670498 -0.3724172 -0.2618067 -0.039948404 -0.11580452 -0.048303716 0.1515601
-0.174669 0.006906182 -0.17632544 0.1275439 -0.09789435 0.078518726 0.06925712 -0.1422752
0.035457335 0.2404264 -0.0007165997 0.05722091 0.00024097817 0.4087626 -0.10452483 0.03690248
-0.16058525 0.0077389954 0.022121172 0.033987023 -0.08943191 -0.18016271 0.09683459 0.06572973
0.32235128 0.22036567 -0.13588977 0.034578077 -0.14714241 -0.037755206 0.1148371 -0.056276012
-0.13656572 -0.12879844 0.12666075 0.47500774 0.05360375 -0.2165329 0.01890598 0.026885692
0.105253555 -0.30312714 0.08369243 0.22196199 0.075957164 -0.028042044 0.22291535 -0.093372405
0.29807928 0.069544636 0.037449904 0.037565142 0.00247868 0.034335103 0.044776455 0.1809497
-0.03774708 0.08067632 -0.19458878 0.06513453 -0.12128943 0.18479328 -0.33259425 -0.105223216
-0.07266065 -0.110885724 0.18591037 -0.008225043 0.09608254 -0.06416999 -0.12037795 -0.12888923
0.20546226 -0.0783621 -0.15980752 0.051442284 -0.1044709 0.06518057 -0.10101135 -0.116770536
-0.010137019 -0.2093582 -0.113903016 -0.036828857 0.08807394 0.14667745 0.10442586 -0.044650625
0.27731642 -0.04649398 0.032260034 0.12547441 -0.15355742 0.15092382 -0.04224897 -0.17441365
0.04920223 -0.27284548 -0.049120396 0.22746876 0.15931217 -0.11195515 0.053695217 0.17042851
0.306108 -0.07023309 -0.36047873 0.19364558 -0.086466335 0.06366274 0.061602496 -0.0457232

bias f4 [24]
00000000: 6824 93bd 8e78 b53d 288b 693d 8cc8 1b3d
00000010: a45f cfbc 6f71 97bd 7193 d9ba faae bdbd
00000020: 9b8f 7f3c 497a 08bc dc6a aebd a902 89bd
00000030: f56f df3d 680d 87bd 3a53 f9bd 5f81 2abd
00000040: 04d9 b2bd d74d f0bd 8cdc 02bd abed 46bd
00000050: 2789 89bc 80bb 05bd 5bf2 d9bd 5bd5 3ebd
-0.07184678 0.088608846 0.057017475 0.038033053 -0.02531416 -0.073946826 -0.0016599727 -0.0926189
0.015598203 -0.008329936 -0.085164756 -0.066899605 0.10910026 -0.06594354 -0.12174077 -0.041627284
-0.08732799 -0.11733597 -0.03194861 -0.0485665 -0.016789032 -0.032649517 -0.10641929 -0.04659019

weight f4 [24]
00000000: 9a95 683e b0a5 893e 6f57 6b3e dd13 8a3e
00000010: b293 883e c3e0 8b3e 2c77 6a3e 925a 6c3e
00000020: d298 743e b693 883e 53a8 633e 47ee 6a3e
00000030: 9a03 733e 0f57 713e 50b0 813e 012b 693e
00000040: 22b1 873e e31e 593e 989d 6e3e 55e3 873e
00000050: e858 663e 9800 893e b8b2 6d3e a093 883e
0.22713318 0.26884222 0.22982572 0.2696828 0.26675183 0.27319917 0.22897023 0.23081425
0.23886421 0.26675195 0.2223218 0.22942458 0.23731843 0.23568366 0.25329828 0.22770311
0.2650233 0.21203189 0.23302305 0.26540628 0.22494853 0.26758265 0.23212707 0.2667513

weight f4 [24, 24, 3]
00000000: b2d8 c83d 886b e3bd 7f84 cdbd d9d5 c83b
00000010: d300 40be 9eca 2abe dcf0 b4bd 50cd 233e
00000020: b53a fc3d 2164 61be 06ae 68be f4eb 74be
00000030: 7d23 18be 4737 143e c519 75be a04e aa3e
00000040: 83af 193e fb6c 383e ae69 9cbd f3fe 373e
00000050: 6519 7dbd 4b2a f5bd e608 fabc a8f9 bb3b
00000060: 543e 373d 9437 a0bd 2f6b 33be 9f1a a33e
00000070: 32c8 d33d e4ba 3c3e 642d b3bd 1069 b43d
00000080: 3b4e 893d 31f2 43be 82bc 64bd b5ed 9dbd
00000090: 24c2 f1bd 0849 123e f86c 3abd 286e 9abd
000000a0: 5ef3 ecbd 214f 31be 45f6 603d ad6a 5b3e
000000b0: 6bcc 733d 47bb 82bc 0200 2abe a4dd a2bb
000000c0: 4606 ffbc 063f 7c3e 53d6 a9bd bee2 12bb
000000d0: 2f6d 80be 517a 13bd ebe3 72be 7aba 12be
000000e0: efab 853e 339d 543d db46 2e3d c6e3 d9bd
000000f0: 1519 37be e19f d6bd 03d6 7e3e bd9b 30be
00000100: 6f8d d33d 15b2 fa3d 226f 543e a4f7 863e
00000110: 9a0c e5bd 5f5a bf3d 8496 aabe 6e56 23be
00000120: 236b 6dbe 3363 513e bfdf 3abe 3035 33be
00000130: b5f0 acbd d7b4 bbbd 7be9 023e bd27 e23d
00000140: 6f45 05be a533 1fbd b1b5 213c 6e1a 023d
00000150: a323 7abb a243 063e b21e 973d 41fc d8b8
00000160: 2603 98bb 69a7 1f3e d8d6 20bb 6f3e eabb
00000170: d093 5d3e b0ca 62bd 1bee fd3d 094b 2ebe
00000180: 2047 513e 12b8 5a3e 5fe5 733e f4a9 06bd
00000190: 8a47 40bb ddf1 1f3e a8a5 96be 4d99 34be
000001a0: 5ccb 7abe 403c 963d 60fb 4b3c ebae 273d
000001b0: 98ae 0f3e c7e1 c4bd bbed acbd ded2 a33d
000001c0: f60c 763e 9aa3 eabd 5414 b53e a8e5 f13d
000001d0: 7f63 73bd 2340 61bb 261b 533e d4c3 f63a
000001e0: b9dc 53bd b4af 063d 6031 6b3e 8fcc 07be
000001f0: e99a 4dbe ae28 bf3e 7264 35be 3b1c c23c
00000200: 6e9b ed3d 3f5d c1bc 82d1 403e 7a18 2fbe
00000210: b491 14bd 8312 afbe bd12 63bd a97b 02be
00000220: 4332 97bd ac3d c03d 4297 3abe ebba 233e
00000230: 42a0 24be 52bd a7bd f294 6abd 83dc a83c
00000240: c07e 84be 191e 81be feb9 33bc 8a7e 0d3e
00000250: 55de 62bd eb66 abbc 048e 293e 8e5d e4bd
00000260: dadb a13d e61c 0a3d f51c 40bd 068e dd3d
00000270: a4ec ab3d 5be4 4bbe 39eb 93bb 4c49 6d3d
00000280: 23be 4f3e d5c6 6b3e 8a92 85be c305 b23d
00000290: 09eb 863e d2fd 4b3e 258f 0ebe ea5c 1c3d
000002a0: 880e 61bd 9d6b 613d 9c5a 8dbe be51 753e
000002b0: 6d11 a23c fe08 9cbe 2b05 4e3d 1f3b 443e
000002c0: 5bd1 3d3e caea 9a3d 217b de3d 86db 463c
000002d0: c365 78be 5cb8 3d3d 9fe8 d03d 8667 70bd
000002e0: f20a 33be 19f2 4b3e 3a77 203e da81 923e
000002f0: 1044 1dbe 65b6 8e3d 3a80 de3d e5ed 24be
00000300: a830 59be 0b42 843d 4149 c63d fc90 a3be
00000310: b602 15bd f2a8 d43d 4f2c a1be df01 49be
00000320: 9a13 86bd 5743 d03d 7abe b13c caec b13d
00000330: 53d1 21be 74b4 3b3c 9aed c3bc 5139 aebd
00000340: 1cb2 7a3b 98d2 3c3e e2f9 543e 6cb3 803e
00000350: 9641 9f3c 31e8 013d 3eb0 323d 2f2b a5be
00000360: 22ec 353d 3a56 b13d 9cee 233c d5c0 d8bd
00000370: 77e7 65be 983a 7fbc 2570 f73d 2f99 43bd
00000380: de1d d33d 5f00 6b3b 2ff7 6fbd 298e 2cbd
00000390: 751e 7dbd f5eb 74be a8f9 c9bd 28d9 fbbd
000003a0: bc7a e4bd 30e3 f3bc 4f3c 543c fc24 bebe
000003b0: d516 883e 7192 0dbe 7835 733e 16c6 823e
000003c0: acdb c2bd 6e85 abbd aa90 94bc 33ad d0be
000003d0: d725 1fbd 0e0d 56be 1e4b 1d3e 8a22 c73e
000003e0: ccd6 283e d1b7 ae3d 6eb2 ba3e 595f 3bbe
000003f0: ea6b 083f 216d a73d e856 d13d add1 003d
0.09806956 -0.11104494 -0.10035037 0.0061290083 -0.18750314 -0.16678855 -0.08835003 0.15996289
0.12315885 -0.22010852 -0.22722635 -0.23918134 -0.14857288 0.14474212 -0.23935612 0.3326311
0.15008359 0.18010323 -0.07637344 0.17968349 -0.061791796 -0.11970957 -0.030521821 0.0057365485
0.044737175 -0.07823101 -0.17521356 0.31856248 0.103409186 0.18430668 -0.08748892 0.088091016
0.067043744 -0.19135357 -0.055843838 -0.07711355 -0.118046075 0.14285672 -0.045514077 -0.07540542
-0.11569856 -0.17315342 0.05492236 0.21427412 0.05952112 -0.015958441 -0.16601565 -0.0049702693
-0.031130921 0.24633417 -0.08292832 -0.002241298 -0.250833 -0.036005322 -0.23719756 -0.14328948
0.26107737 0.05190773 0.04254804 -0.106391475 -0.17880662 -0.10479713 0.24886326 -0.1724691
0.10329711 0.12240998 0.20745519 0.2636081 -0.11184044 0.09343409 -0.3331796 -0.15950939
-0.231854 0.20447998 -0.18249415 -0.17500758 -0.08444349 -0.09165352 0.12784378 0.11042736
-0.13014768 -0.03886761 0.009869979 0.031763487 -0.0038168214 0.13111737 0.073789015 -0.000103466686
-0.004639047 0.15591206 -0.002454212 -0.007148556 0.21638417 -0.05536908 0.12398931 -0.17020811
0.20437288 0.2135928 0.23817967 -0.032876924 -0.0029339516 0.15619607 -0.2942326 -0.17636605
-0.24491638 0.073357105 0.012450069 0.0409383 0.14031446 -0.09613376 -0.08443781 0.07999204
0.24028382 -0.11456986 0.35367072 0.118113816 -0.05942106 -0.0034370504 0.20615825 0.0018826672
-0.05172417 0.032882407 0.22968054 -0.13261627 -0.20078625 0.37335724 -0.17714098 0.023695102
0.116019115 -0.023604034 0.18829921 -0.17099181 -0.036271766 -0.3419381 -0.055437792 -0.12742485
-0.073826335 0.09386763 -0.18221763 0.15989272 -0.16076759 -0.08190407 -0.05727095 0.02061296
-0.25877953 -0.25218275 -0.010969637 0.13817802 -0.055387814 -0.020923099 0.16558081 -0.11150657
0.079032615 0.033718966 -0.046902616 0.108181044 0.08394745 -0.1991133 -0.0045141247 0.05793123
0.20287375 0.23025067 -0.26088363 0.08692505 0.26351193 0.19921044 -0.13921793 0.038174547
-0.0549455 0.05503427 -0.27608192 0.23956963 0.0197837 -0.3047561 0.050297897 0.19163178
0.18536894 0.07564314 0.10863329 0.012137299 -0.24257569 0.046318397 0.10200619 -0.058692478
-0.17484644 0.19916572 0.15670481 0.28614694 -0.15357995 0.06968383 0.10864301 -0.16106375
-0.21209967 0.06457909 0.09681941 -0.31946552 -0.03637954 0.10383786 -0.31479117 -0.1962962
-0.065467075 0.10169094 0.021697272 0.08687742 -0.15802507 0.011456598 -0.023917008 -0.08507026
0.0038253134 0.1843971 0.20798448 0.25136888 0.019440453 0.031715576 0.04362511 -0.3225951
0.044414647 0.086590245 0.010005619 -0.10583655 -0.22451578 -0.015577935 0.12081937 -0.04775351
0.10308431 0.0035858375 -0.058585342 -0.042127762 -0.061796624 -0.23918135 -0.09862071 -0.12297279
-0.11156222 -0.029771417 0.012953832 -0.37137592 0.2657992 -0.13825394 0.23750865 0.25541753
-0.09514555 -0.08375059 -0.018135387 -0.4075714 -0.038854446 -0.20903417 0.15360686 0.3889354
0.16488189 0.08531154 0.36464256 -0.18298091 0.53289664 0.081751116 0.10221654 0.031449962

bias f4 [24]
00000000: dab8 803c ec4b 273d a9c0 733d 6749 053e
00000010: c71a 3d3d 97cc 83bd 4b44 213d 53d0 663c
00000020: c25f 553d 80f0 cfbc 1eab bc3d a4e7 f2bd
00000030: 1645 d43d 28c1 42bd 49d8 663d cd89 93bd
00000040: 789e dc3d 7f5a 113d 80f6 d23c 4d6e f4bd
00000050: 9889 033c 76c9 543d 7cb1 503c 2c98 45bd
0.015713144 0.04084389 0.059509907 0.13016282 0.046168115 -0.06435507 0.03937177 0.014087754
0.052093275 -0.025383234 0.092123255 -0.11860588 0.103647396 -0.04754749 0.05635861 -0.07204018
0.10772413 0.035486694 0.025752306 -0.11935101 0.00802841 0.05194994 0.012737628 -0.048240826

weight f4 [24]
00000000: 70f8 723e c76e 633e 45a0 623e 4a65 6c3e
00000010: 1d06 7d3e c5f4 813e df0b 603e 469f 653e
00000020: 2f98 863e b2b2 563e 9b35 8e3e d77f 803e
00000030: 0858 633e 1868 873e 2729 6a3e 43f3 803e
00000040: 1048 6a3e 6100 6b3e dbbc 6a3e abd6 8c3e
00000050: 9cfc 803e 9ede 8a3e 9105 6a3e 03df 6a3e
0.23727584 0.22210227 0.2213145 0.23085514 0.24709363 0.25382057 0.21879528 0.22424039
0.26287982 0.20966604 0.27775273 0.25097534 0.2220155 0.26446605 0.22867261 0.25185594
0.22879052 0.22949363 0.22923605 0.2750753 0.25192726 0.27122968 0.22853686 0.22936635

weight f4 [24, 24, 3]
00000000: b679 f33d 7140 303d 71eb 15be 0629 7c3d
00000010: b2e4 903e 380c 7bbc 7f25 9cbe 5779 bc3e
00000020: 1718 883d 0339 833e db64 7abd 44d9 f4bd
00000030: f958 7c3d b3d6 8bbe 04a8 ff3b 60b6 b13e
00000040: c8f1 ba3e 1d95 83be 40ad 6f3e 3ee2 1e3d
00000050: b22b 0a3e 6234 a6bd 53eb 9f3d 434e 98bd
00000060: 100b 1ebe d378 b4bd 38aa 5a3d a511 ea3d
00000070: e4f0 5dbc 6972 f6bc 47ed 12be 2576 873d
00000080: 0a3b e63e 4ed5 82bd a104 353c 888e 80bd
00000090: d37f a93d a384 b5bd 48d6 523d 8d7e 123e
000000a0: 295d 66bd 4181 84be bde5 123e 899f b93d
000000b0: f907 50bc e129 83be 672c 523e b3f6 44be
000000c0: ff65 35bc 698e a93d 4c12 e0be 4ca7 48be
000000d0: 66bc b2bc 9894 e4bd 7ac9 0fbe 0363 cfbd
000000e0: 7c77 b4bd 780b b13b 7cea b83d e465 40bb
000000f0: 7f72 353e 7a9e e6bd e06f 6bbd 8e72 a53e
00000100: 9e8c 8fbd 2c64 39be e100 75bd e861 2d3d
00000110: aa45 11bd 6aba 1fbe e2d3 99bd 7220 813d
00000120: fcd1 9f3e 0021 4b3c 34ab d53e bd27 4a3e
00000130: dcd5 c8bd 7a4e 623c 6518 3c3e 2589 f3bc
00000140: 8f3b ee3d c685 dbbd 5281 8a3d 9f05 4abe
00000150: 9754 f9bd 3f58 a4bd 1d72 97be 38a3 b7bb
00000160: cb52 133e 4af8 a73d 3eb4 d33c abf8 663e
00000170: aa2d 0a3c eb95 b83c d81a 1cbe 6a59 c13c
00000180: df2a 7e3c 361d 33be aa26 77be 9957 4ebe
00000190: a963 c13d 2ca0 053e cdf5 70be d223 52be
000001a0: 09d7 ffbb f6f7 573e 2f2a c7bc 8732 7fbe
000001b0: 9372 8cbe 82ad a8bd e1f0 26be d5d7 103d
000001c0: 6fef c1be 8b2e d5bc 55b1 e0bd 4f04 2ebe
000001d0: 4780 87bd c699 cbbc e011 0b3e 6fdc 6bbc
000001e0: 085b ecbd d619 953d d766 643e 622e 87bd
000001f0: a4ec 58be 0e67 383e f8de 5a3e f98d c5bd
00000200: 0343 b8bd 2a3a 303e ff1d 6a3d bd36 65bd
00000210: f27c f53d 03d4 10be 5e58 8a3e 3074 b9bd
00000220: b858 5ebe dce3 683c 8e87 b9bd a3b4 a43e
00000230: ae78 80be cdc1 aebe 481b 893e 4467 c7bd
00000240: fa28 2fbe 942f 203e a3a0 083e 82c2 673d
00000250: 91ac 14be edaf 2ebd 61ff 21be 4d64 10be
00000260: f0f3 2a3e 47ae f5be e0a9 98be 8055 193e
00000270: 055b 95be 46c9 72bd 6f07 873e 2401 a53e
00000280: 6f08 81be 08b4 bb3e b65f 173d 3ae2 8b3c
00000290: 4c0f 5cbe 5c3a 413e 7447 0c3e 7676 023e
000002a0: 94d3 043b 2921 b2bd 1938 1abd c40b 37be
000002b0: 47a9 2cbd 320a 60bd fc7e 203e 2454 eabc
000002c0: 0cec b63e 2a34 6bbd 018c 163d 8e84 92be
000002d0: 671f cb3d 27d7 b73d 2475 5e3e 9d5b 0bbe
000002e0: d4db 38bd 6af9 59be 0673 8e3c 439c c1bd
000002f0: 6009 073c 9813 3fbe 8403 9bbe e8f4 9cbd
00000300: 4e6b 693b 1a3b 2abe 02a2 433d 2e9c 603e
00000310: 11b9 b5be 354d 8fbc 019d b63d 6efa 74be
00000320: 0e29 77bd 3d8e ed3d b0e7 373e 71dc 69bc
00000330: cf5e 1cbe 8463 f93e fae6 85be cf53 ae3e
00000340: bd4b b63d 5f9c 8ebd e9d0 6ebd d0bd 863e
00000350: 2586 71be eb13 ed3c 420e a33e 48c4 913d
00000360: 595e d93c 8a62 7dbd 6902 01be cb4d b83d
00000370: c1e3 5a3e f844 cabe b01f f33c 9693 d0bd
00000380: 1853 fa3d 2df0 dfbd e508 1c3e a8a8 82bc
00000390: 4fca 90be 783a a5be 81fc 633e a898 1ebd
000003a0: 2dd0 99be d152 38bd 49a6 b2bd 9f54 4ebe
000003b0: d07d a4bd 71d3 2d3d 95a0 f3bd 7318 28be
000003c0: f9e0 013e 7f7e 90bd 6a31 3abe 731e 46bd
000003d0: b79e 24be 5924 adbe 921c c43b 1136 3b3e
000003e0: 2307 9a3e 4f49 a93c e635 f33e df0a 34be
000003f0: 4758 803e 3873 c73e 9b92 53be 2151 0dbd
0.11888449 0.043030206 -0.14640595 0.06156256 0.2829948 -0.015322737 -0.30497357 0.36811325
0.0664522 0.25629434 -0.06113134 -0.11955503 0.06160829 -0.2731224 0.0078020114 0.34709454
0.3651259 -0.25699702 0.23405933 0.03878998 0.13493231 -0.0811546 0.078085564 -0.07436802
-0.15433908 -0.08812108 0.05338499 0.11429147 -0.013546202 -0.030083852 -0.14348327 0.06614331
0.44966918 -0.06388341 0.011048467 -0.06277186 0.08276334 -0.08863189 0.051473886 0.14306088
-0.05624119 -0.25879863 0.1434545 0.09063632 -0.012697213 -0.2561789 0.2052475 -0.19234733
-0.011071681 0.08279116 -0.4376396 -0.19595069 -0.021818351 -0.111611545 -0.14041701 -0.10126307
-0.08811852 0.0054029785 0.09029099 -0.0029357607 0.17719458 -0.11260696 -0.05747974 0.3231396
-0.070092425 -0.18104619 -0.05981529 0.0423297 -0.035466827 -0.15598455 -0.075111166 0.063050166
0.31214893 0.0123980045 0.4173218 0.19741721 -0.098064154 0.013812656 0.18368681 -0.029728482
0.11632454 -0.10718875 0.06762947 -0.19728707 -0.12174337 -0.08024644 -0.2957925 -0.005604174
0.14387052 0.08201654 0.025842782 0.22555797 0.008433739 0.022532424 -0.15244615 0.023602206
0.015513151 -0.17491612 -0.24135843 -0.20150603 0.09442837 0.13049382 -0.23531266 -0.20521477
-0.0078076166 0.21090683 -0.024312107 -0.24921618 -0.27431163 -0.08236219 -0.16302826 0.035362083
-0.37877986 -0.02602317 -0.109713234 -0.16993831 -0.06616264 -0.024853598 0.13581038 -0.014395817
-0.115408 0.072803184 0.22304855 -0.06600644 -0.21184021 0.18008062 0.21374118 -0.0964622
-0.089971565 0.17209688 0.057157513 -0.055960406 0.11986722 -0.14143376 0.27020544 -0.09055364
-0.21713531 0.014214482 -0.09059058 0.32169065 -0.2509207 -0.34132233 0.26778626 -0.09736493
-0.17105475 0.1564315 0.13342528 0.05658198 -0.14518954 -0.042648245 -0.15820076 -0.14100762
0.16694617 -0.47984526 -0.29817104 0.14974022 -0.29171005 -0.05927398 0.2637286 0.32227433
-0.25201747 0.3666079 0.03695651 0.017075647 -0.2149021 0.18869919 0.13699132 0.12740502
0.0020267712 -0.08697731 -0.037651155 -0.17875582 -0.042153623 -0.054697223 0.1567344 -0.028604575
0.35726964 -0.057422794 0.036754612 -0.28616756 0.09918099 0.08976584 0.21724373 -0.13609166
-0.04513152 -0.2128655 0.017388832 -0.09453633 0.008241981 -0.18659818 -0.3027612 -0.076639
0.0035616937 -0.16624108 0.047761925 0.21934578 -0.35492757 -0.01749287 0.08916665 -0.23923656
-0.060341887 0.115993954 0.17959476 -0.014273749 -0.15270542 0.48708737 -0.26152784 0.34048316
0.08901165 -0.06963419 -0.0583047 0.2631669 -0.23586328 0.028940162 0.31846815 0.07117516
0.026534246 -0.061861552 -0.12598576 0.08999213 0.21375944 -0.39505744 0.029678196 -0.101844
0.1222288 -0.10934482 0.15237768 -0.015949562 -0.2827935 -0.3227117 0.22264291 -0.038719803
-0.30041638 -0.045000855 -0.087231226 -0.20149468 -0.08031809 0.042437974 -0.11895863 -0.16415577
0.12683477 -0.07055377 -0.18182912 -0.048368882 -0.1607617 -0.33816794 0.005984851 0.18282343
0.3008357 0.02066484 0.4750206 -0.17582272 0.2506735 0.38955092 -0.20661394 -0.0345012
