models/teste-ss4.pth (torch_old, 59747 bytes, 75 tensors)

weight f4 [8, 22, 1]
-0.24032907 -0.42221925 -0.0001976896 0.24579735 -0.2262766 -0.14646494 -0.46413872 0.10951951
0.2695649 0.20808162 0.6567796 0.5631094 0.10195612 1.0179899 0.29016325 0.22038242
0.35173544 0.042725354 0.46998054 0.31343526 0.34243432 0.6361984 -0.07665396 -0.73407364
-0.8831169 0.14879145 -0.32655308 -0.3092933 0.0645605 -0.26924327 -0.09315377 -0.39491826
-0.5526494 0.13896148 0.2427288 0.07299056 -0.2521943 -0.22249548 0.2022194 0.026396027
0.32118142 0.22171111 -0.12535052 0.11747949 0.5641857 0.09894292 0.1610928 -0.28120732
0.8665063 -0.0563109 -0.15836413 0.36957532 0.24440001 -0.0931674 0.06822567 0.2722712
0.34235612 -0.2209275 0.6961421 -0.62838674 0.07868033 -0.4177655 0.23515448 -0.06912075
0.0140811475 0.09775891 -0.19794591 -0.12472409 -0.5357987 0.1504581 -0.075976245 -0.121679485
0.3518124 0.111259416 0.13577852 0.19051984 0.32686946 0.32137188 -0.4172193 0.16869299
0.2621918 0.18683806 0.3658196 -0.852341 -0.29399645 0.020440014 0.08543939 -0.15064262
-0.3781275 -0.6191888 -0.29512593 -0.50623274 -0.7364608 -0.080411874 0.30834582 0.26959115
-0.30349487 0.9516417 0.06625505 0.25776222 -0.013417887 -0.042852793 0.043906502 -0.3777579
0.4886001 0.27344194 0.06650667 -0.09603879 -0.41971052 -0.5362449 -0.7835924 0.1945432
0.42764175 0.2022601 0.2872952 0.24062513 -0.24580885 -0.048265576 0.1645551 0.16503933
-0.19686997 0.17859358 0.10192814 -0.3807388 0.50419885 0.5887212 0.028719202 0.38617423
-0.27093297 -0.062485866 -0.03989573 0.30680364 -0.19598123 0.6261228 0.27749258 -0.42521396
0.17491423 0.28405756 0.11749794 0.13442191 0.87693256 -0.29507276 0.5951806 0.18050201
0.047304228 -0.5615189 0.34326184 0.0623982 -0.5783367 -0.3283554 -0.2833483 -0.5175194
-0.0037178693 0.17268972 -0.61197567 0.11164677 0.57758963 -0.038973156 -0.33399343 0.48704186
0.21599662 0.96320945 -0.47648945 0.0022441633 0.09149865 0.31467295 -0.2519208 -0.020484952
-0.46846342 0.42556173 -0.016728988 0.21630554 0.31081796 -0.07297495 0.6592997 -0.060987998
00000000: d318 76be 1f2d d8be e64a 4fb9 4db2 7b3e
00000010: 0eb5 67be e8fa 15be 97a3 edbe c44b e03d
00000020: 6904 8a3e 5913 553e b522 283f f027 103f
00000030: 5fce d03d 7e4d 823f 4790 943e eeab 613e
00000040: ab16 b43e c800 2f3d 4aa1 f03e 967a a03e
00000050: 8d53 af3e e6dd 223f c0fc 9cbd 40ec 3bbf
00000060: f313 62bf c95c 183e f731 a7be b15b 9ebe
00000070: 4c38 843d 41da 89be 67c7 bebd ba32 cabe
00000080: 6e7a 0dbf eb4b 0e3e e68d 783e 137c 953d
00000090: 9c1f 81be dbd5 63be 9a12 4f3e 7b3c d83c
000000a0: e471 a43e 3d08 633e e35b 00be 1699 f03d
000000b0: 796e 103f 96a2 ca3d 83f5 243e 68fa 8fbe
000000c0: 5bd3 5d3f 42a6 66bd 352a 22be fa38 bd3e
000000d0: ff43 7a3e 8dce bebd e6b9 8b3d 2167 8b3e
000000e0: 4d49 af3e d23a 62be 5e36 323f f4dd 20bf
000000f0: 2723 a13d 5ce5 d5be 56cc 703e 2e8f 8dbd
00000100: 9db4 663c d335 c83d 55b2 4abe 586f ffbd
00000110: 1b2a 09bf b011 1a3e 6f99 9bbd 1833 f9bd
00000120: c120 b43e fadb e33d 8609 0b3e a217 433e
00000130: 6f5b a73e db8a a43e c59d d5be dbbd 2c3e
00000140: 013e 863e 7a52 3f3e b54c bb3e 0533 5abf
00000150: b486 96be d171 a73c d9fa ae3d 0f42 1abe
00000160: ed99 c1be 2883 1ebf bf1a 97be 7898 01bf
00000170: b288 3cbf fbae a4bd 81df 9d3e da07 8a3e
00000180: ae63 9bbe ca9e 733f bab0 873d 69f9 833e
00000190: b2d6 5bbc 6986 2fbd 4ed7 333d 7c69 c1be
000001a0: cb29 fa3e 9500 8c3e a634 883d fcaf c4bd
000001b0: 4ce4 d6be 5947 09bf 8399 48bf 5536 473e
000001c0: dcf3 da3e 461d 4f3e 5b18 933e 6f66 763e
000001d0: 51b5 7bbe 20b2 45bd 2281 283e 1200 293e
000001e0: 4898 49be 3ce1 363e b3bf d03d 32f0 c2be
000001f0: 2d13 013f 6fb6 163f 8844 eb3c a1b8 c53e
00000200: bab7 8abe 2ef1 7fbd b469 23bd 5e15 9d3e
00000210: 4eaf 48be 9549 203f 8213 8e3e a5b5 d9be
00000220: b71c 333e fe6f 913e c3a2 f03d e6a5 093e
00000230: a77e 603f c713 97be c15d 183f 85d5 383e
00000240: 14c2 413d b4bf 0fbf 04c0 af3e 4195 7f3d
00000250: e00d 14bf 331e a8be 0713 91be 277c 04bf
00000260: 7fa7 73bb 93d5 303e 70aa 1cbf 10a7 e43d
00000270: eadc 133f 51a2 1fbd 3001 abbe 8d5d f93e
00000280: 382e 5d3e e594 763f 6df6 f3be d012 133b
00000290: a563 bb3d d01c a13e c3fb 80be 0fd0 a7bc
000002a0: 70da efbe 3ae3 d93e 3b0b 89bc 337f 5d3e
000002b0: 8823 9f3e e473 95bd ddc7 283f 8dce 79bd

weight f4 [8]
0.20738688 0.15076116 0.27983177 0.28866816 0.18181677 0.28291872 0.2104 0.20096947
00000000: 3a5d 543e 2261 1a3e 1c46 8f3e 50cc 933e
00000010: 2d2e 3a3e b9da 903e 1973 573e f1ca 4d3e

weight f4 [8, 8, 3]
0.26092586 0.67290246 -0.0922915 0.43204698 -0.29368103 0.29240578 0.05230324 0.29895267
-0.20789956 -0.18170631 -0.13210401 -0.3744976 -0.6830369 -0.08740349 -0.22422317 0.21980411
0.05557236 -0.06258313 0.58202404 -0.16184431 -0.46598002 0.70747167 -0.16388953 0.33791578
0.11742321 -0.6130025 0.20798133 -0.4119715 0.09868113 -0.095095076 0.4736763 0.33396438
0.36909676 -0.45438874 0.022528704 0.07174598 -0.073017955 0.15592942 0.03441454 -0.48726448
0.13450916 -0.3398016 0.01673586 0.11783421 -0.48762265 -0.29315796 0.13864528 0.23735009
-0.028852802 0.020328993 -0.48190007 -0.059166193 0.44278017 -0.5020595 -0.1472759 0.17858565
0.0053959796 1.0136272 0.21192858 0.03779642 -0.20668179 -0.29922298 -0.98918146 0.22595456
0.089488246 0.052730758 -0.39383283 -0.49564925 -0.35897273 0.01101211 0.4129533 -0.13236333
-0.21969223 0.25111207 -0.4002719 0.12242989 0.1359633 0.09166675 -0.36762175 0.30811596
-0.11202676 0.19406724 -0.015801996 -0.13569939 -0.008944861 -0.07919305 -0.14400275 -0.25142604
0.3879544 0.27891657 0.51850075 -0.06925084 -0.21831489 -0.399045 0.16113953 0.011622956
0.27336997 -0.37130737 -0.02862822 0.2632133 0.09117184 0.2537346 0.04858721 -0.0141250985
0.17364928 -0.5400755 -0.31574646 -0.14292866 -0.53121364 0.065631315 0.23218384 -0.47644028
-0.15669799 0.8707169 -0.42360416 -0.071957454 -0.21091774 0.36620882 -0.4508161 -0.5264232
0.5458519 -0.39489755 -0.050377216 0.41112122 0.1777817 0.22398517 -0.039741952 -0.40696225
0.44213703 -0.095383264 0.09986331 0.15173635 0.25738004 0.37540767 -0.44210446 0.25344294
-0.74460316 0.14903878 0.64587903 -0.34913325 -0.11718621 0.054360442 -0.06092266 0.24758027
-0.046553556 0.44403404 0.5548793 0.105282076 0.40263397 -0.13103767 -0.07970516 0.097149536
-0.40518066 0.06798304 -0.27948806 0.20491154 0.013139963 0.05246842 -0.3612667 -0.0054275496
0.10989314 -0.109848864 -0.019043364 0.24162906 -0.094484225 0.40182084 -0.02947096 0.1909127
-0.14057137 0.17275867 0.39771476 -0.08417202 0.27792734 0.26679313 -0.07740292 0.42025104
0.15872903 0.11233179 -0.0071147876 0.11989809 -0.10666132 0.20778386 -0.1806686 0.028117899
0.49843776 -0.086086415 -0.17175177 -0.56919825 -0.18169095 -0.17245941 -0.40068686 0.52789557
00000000: 1398 853e 5643 2c3f 5303 bdbd 4335 dd3e
00000010: 5c5d 96be 36b6 953e ec3b 563d 5310 993e
00000020: 9fe3 54be 3811 3abe 4646 07be 26be bfbe
00000030: 82db 2ebf 9a00 b3bd c29a 65be 5414 613e
00000040: d89f 633d 962b 80bd 87ff 143f 84ba 25be
00000050: ef94 eebe dd1c 353f a8d2 27be 4c03 ad3e
00000060: 947b f03d bbed 1cbf 0ff9 543e eeed d2be
00000070: 5519 ca3d 35c1 c2bd b385 f23e 61fd aa3e
00000080: 40fa bc3e a4a5 e8be 1e8e b83c 8eef 923d
00000090: 708a 95bd f6ab 1f3e 43f6 0c3d bb7a f9be
000000a0: c5bc 093e 7afa adbe a419 893c 1053 f13d
000000b0: ada9 f9be cd18 96be 07f9 0d3e e70b 733e
000000c0: b65c ecbc fd88 a63c 9bbb f6be 4058 72bd
000000d0: 15b4 e23e f986 00bf 7ecf 16be 28df 363e
000000e0: c2d0 b03b 89be 813f ce03 593e 6bd0 1a3d
000000f0: 64a4 53be c133 99be ff3a 7dbf a260 673e
00000100: 9d45 b73d 35fc 573d 75a4 c9be bdc5 fdbe
00000110: 46cb b7be 236c 343c 9d6e d33e 418a 07be
00000120: 00f7 60be c391 803e 70f0 ccbe 86bc fa3d
00000130: f739 0b3e c7bb bb3d eb38 bcbe 60c1 9d3e
00000140: 496e e5bd 90b9 463e 3073 81bc c8f4 0abe
00000150: 778d 12bc f72f a2bd 7575 13be eaba 80be
00000160: f6a1 c63e 27ce 8e3e 77bc 043f 62d3 8dbd
00000170: f08d 5fbe a04f ccbe c301 253e 366e 3e3c
00000180: 26f7 8b3e 001c bebe bb85 eabc e5c3 863e
00000190: 4db8 ba3d 80e9 813e 6203 473d f56c 67bc
000001a0: 1ed1 313e 6342 0abf 85a9 a1be e45b 12be
000001b0: 9efd 07bf b669 863d 9ac1 6d3e fbef f3be
000001c0: 7075 20be 4ee7 5e3f a5e2 d8be 6e5e 93bd
000001d0: d2fa 57be b97f bb3e 5ed1 e6be acc3 06bf
000001e0: f3bc 0b3f 0330 cabe 5758 4ebd 7b7e d23e
000001f0: 680c 363e 5e5c 653e 75c8 22bd 5b5d d0be
00000200: c95f e23e 4d58 c3bd 2385 cc3d c660 1b3e
00000210: 51c7 833e 6f35 c03e 845b e2be 46c3 813e
00000220: 509e 3ebf 9f9d 183e 5458 253f 98c1 b2be
00000230: 53ff efbd 0ea9 5e3d 0a8a 79bd af85 7d3e
00000240: f1ae 3ebd 6e58 e33e 920c 0e3f 219e d73d
00000250: 0a26 ce3e bd2e 06be 753c a3bd 56f6 c63d
00000260: d773 cfbe b13a 8b3d 0f19 8fbe 55d4 513e
00000270: 0049 573c 20e9 563d f3f7 b8be 96d9 b1bb
00000280: a80f e13d 71f8 e0bd d400 9cbc 9c6d 773e
00000290: f280 c1bd 76bb cd3e 156d f1bc 9e7e 433e
000002a0: f1f1 0fbe a6e7 303e 45a1 cb3e 6162 acbd
000002b0: 7e4c 8e3e 1c99 883e 6c85 9ebd 252b d73e
000002c0: dd89 223e 360e e63d 2a23 e9bb 218d f53d
000002d0: 4071 dabd 4bc5 543e 3101 39be 8257 e63c
000002e0: 3c33 ff3e 134e b0bd b2df 2fbe fab6 11bf
000002f0: 310d 3abe 3399 30be d426 cdbe 2a24 073f

bias f4 [8]
0.009493141 -0.095390365 0.0714925 -0.17019576 0.051520646 -0.2044375 0.024830438 0.14603218
00000000: 1f89 1b3c 065c c3bd a96a 923d cc47 2ebe
00000010: 5007 533d 1058 51be 3469 cb3c 7689 153e

weight f4 [8]
0.21492979 0.27986085 0.28469214 0.2185146 0.2759691 0.26433563 0.21356256 0.23865342
00000000: 8e16 5c3e ec49 8f3e 2bc3 913e 4bc2 5f3e
00000010: d24b 8d3e 0057 873e 25b0 5a3e 9061 743e

weight f4 [8, 8, 3]
0.056959663 0.23641212 -0.43965876 -0.57136106 -0.07848936 -0.005117152 0.5783575 0.6738094
-0.34445447 -0.33875275 0.45415038 -0.18157262 -0.09616932 0.58626133 -0.5497384 0.18234739
-0.09588769 0.20882498 -0.50809103 0.3075215 -0.0583609 0.235253 0.22499713 -0.5896815
-0.3431899 -0.104029745 -0.42663723 0.20137419 -0.28478503 -0.1020155 -0.05016647 -0.0071074334
-0.18831512 0.386479 0.06472871 -0.1841487 -0.14170313 0.02333915 -0.06322082 0.69995844
0.407632 -0.0045178267 -0.37958977 0.13144444 -0.24351561 -0.38685724 0.21147707 0.14379324
-0.09936579 -0.6719661 -0.0024127339 -0.12877662 0.2822263 -0.3624539 -0.13473147 0.13971992
-0.39080128 0.47294697 -0.4292219 -0.037094668 0.014155179 -0.41137296 -0.08647766 -0.12937054
-0.025317445 0.40377125 -0.18223687 -0.14470477 0.14257406 0.68759555 0.18603334 -0.16529994
-0.67790914 0.4591927 -0.050095946 -0.39931414 0.18261346 -0.07184007 -0.09800534 -0.08433354
-0.16916806 -0.20758173 -0.13138646 -0.012144105 0.1271217 0.0897942 -0.22995403 0.28228974
-0.19625212 0.11907475 -0.37459415 -0.42626995 -0.20578119 -0.07794085 -0.18295026 0.21387956
-0.14412463 -0.089431964 -0.28024337 0.20597906 -0.53663087 0.2736826 -0.17573299 0.10421488
0.2591355 0.091983244 0.20925142 -0.07148426 -0.12954842 -0.011928437 0.2509845 -0.059859846
-0.119280316 -0.23045596 -0.06807592 -0.14197084 0.1925591 -0.25385115 0.13423344 0.11084116
-0.45304167 -0.2558928 0.053307083 0.29887426 -0.14924514 0.37360394 0.60455626 0.2755963
0.1809117 -0.09305748 -0.32172045 0.0054452983 -0.08725933 0.01396732 0.104575664 -0.2120678
0.046819888 0.09167117 -0.29973316 -0.41680607 0.20699447 0.49229965 0.21694757 -0.40693638
-0.08693884 -0.4192184 -0.016137391 0.40360475 -0.25853908 -0.1525393 0.036499105 0.44555885
-0.07728195 0.39400038 0.31681672 -0.30118218 0.2884237 0.40642217 -0.1787348 -0.3312242
0.011265582 -0.09853264 -0.26845363 -0.15361908 0.43176594 -0.3500348 -0.5601152 -0.35935912
-0.48448417 0.3586831 -0.27591038 -0.05660948 0.31407228 -0.10780849 0.028657421 0.36913946
-0.34192446 -0.26798743 0.20399211 0.38875186 -0.35497114 0.47008538 0.07682673 0.3504037
0.21300198 0.3610467 -0.49012756 -0.097317316 0.2079388 -0.09020659 0.19027452 0.09357546
00000000: 894e 693d 0516 723e f41a e1be b844 12bf
00000010: 08bf a0bd c8ad a7bb 3d0f 143f c67e 2c3f
00000020: 565c b0be 0071 adbe 6686 e83e 2cee 39be
00000030: 6cf4 c4bd 3915 163f a8bb 0cbf 46b9 3a3e
00000040: c460 c4bd 37d6 553e 4112 02bf 7573 9d3e
00000050: d70b 6fbd 2ae6 703e a665 663e 5ef5 16bf
00000060: 96b6 afbe 8c0d d5bd 3270 dabe 0935 4e3e
00000070: 58cf 91be 81ed d0bd 5b7b 4dbd 79e5 e8bb
00000080: aed5 40be 93e0 c53e 7c90 843d 7a91 3cbe
00000090: a01a 11be bf31 bf3c eb79 81bd 7a30 333f
000000a0: 24b5 d03e 470a 94bb 9759 c2be 5f99 063e
000000b0: 285c 79be 2712 c6be 728d 583e 893e 133e
000000c0: 4b80 cbbd f805 2cbf f51e 1ebb 05de 03be
000000d0: f77f 903e 8f93 b9be 0cf7 09be bd12 0f3e
000000e0: 1b17 c8be 1b26 f23e f9c2 dbbe 94f0 17bd
000000f0: 20eb 673c 7a9f d2be 331b b1bd b679 04be
00000100: 8866 cfbc 1bbb ce3e 4d9c 3abe 7d2d 14be
00000110: effe 113e 4306 303f 867f 3e3e 6344 29be
00000120: 748b 2dbf 4e1b eb3e 6831 4dbd e772 ccbe
00000130: 06ff 3a3e e320 93bd 06b7 c8bd 10b7 acbd
00000140: 643a 2dbe 4e90 54be 2c8a 06be 11f8 46bc
00000150: 312c 023e 06e6 b73d 1279 6bbe 4888 903e
00000160: 51f6 48be 76dd f33d ceca bfbe 0e40 dabe
00000170: 4eb8 52be 749f 9fbd 5057 3bbe 3e03 5b3e
00000180: 6895 13be 1b28 b7bd 0f7c 8fbe 2dec 523e
00000190: a460 09bf 2020 8c3e 59f3 33be 9c6e d53d
000001a0: 69ad 843e b661 bc3d 0146 563e 5766 92bd
000001b0: 57a8 04be 7e6f 43bc 0a81 803e 992f 75bd
000001c0: 3d49 f4bd a6fc 6bbe 636b 8bbd ce60 11be
000001d0: 362e 453e c7f8 81be 7e74 093e b100 e33d
000001e0: 14f5 e7be 6204 83be 8758 5a3d 0c06 993e
000001f0: b8d3 18be 0449 bf3e 33c4 1a3f f51a 8d3e
00000200: eb40 393e ec94 bebd 8bb8 a4be 796e b23b
00000210: 05b5 b2bd 30d7 643c c42b d63d 4d28 59be
00000220: 36c6 3f3d 18be bb3d a076 99be 9b67 d5be
00000230: 5cf6 533e b30e fc3e 8127 5e3e f759 d0be
00000240: fe0c b2bd cba3 d6be 9032 84bc 48a5 ce3e
00000250: 3c5f 84be 4333 1cbe 1680 153d 4a20 e43e
00000260: 0046 9ebd 6bba c93e cd35 a23e 8d34 9abe
00000270: 45ac 933e 9116 d03e 4106 37be 3896 a9be
00000280: 4793 383c 7bcb c9bd c172 89be 524e 1dbe
00000290: 6d10 dd3e c337 b3be b663 0fbf ebfd b7be
000002a0: 4f0e f8be 50a5 b73e 2044 8dbe 58df 67bd
000002b0: 15ce a03e b3ca dcbd f8c2 ea3c d9ff bc3e
000002c0: b910 afbe a635 89be 4fe3 503e 7c0a c73e
000002d0: c7be b5be 08af f03e 5557 9d3d 1d68 b33e
000002e0: 311d 5a3e 1ddb b83e 00f2 fabe 4d4e c7bd
000002f0: e9ed 543e 3cbe b8bd 53d7 423e 7ea4 bf3d

bias f4 [8]
-0.165876 0.06203118 -0.21931426 0.140884 -0.1753999 0.11972528 -0.25514403 0.104370035
00000000: 66db 29be 6814 7e3d eb93 60be e543 103e
00000010: 089c 33be 8732 f53d 3da2 82be f5bf d53d

weight f4 [8]
0.18340397 0.18273659 0.2710371 0.15078561 0.2625036 0.3144279 0.31621534 0.16101107
00000000: 40ce 3b3e 4d1f 3b3e 60c5 8a3e 8b67 1a3e
00000010: df66 863e b2fc a03e fae6 a13e 16e0 243e

weight f4 [8, 8, 3]
-0.2242424 -0.408674 -0.3782947 0.2704897 0.022546127 -0.11032495 -0.011302438 -0.35224107
0.45787433 0.174145 0.13804334 -0.42247018 0.12729865 0.51870906 0.24915437 -0.4484186
-0.58771825 -0.3046739 -0.043333102 -0.07126513 0.38408428 0.121863194 -0.1718652 -0.83449715
-0.43952784 -0.43020156 0.2265197 -0.17190441 -0.31300685 0.061081093 -0.076202266 0.027765464
-0.019412003 -0.086470105 0.102043085 0.47739488 0.18160906 0.12402813 0.15510644 -0.3155233
0.073887445 -0.3454282 -0.44610462 -0.5313442 -0.39189214 0.5790871 0.043563627 0.20142053
-0.07041592 -0.24021132 -0.5214103 -0.3219102 -0.06150484 -0.27926454 -0.007989335 -0.27106294
0.009242233 -0.0048232162 -0.12173367 -0.06261699 -0.16839361 -0.31831327 0.1154007 -0.11935718
0.35351065 -0.091430716 0.03648762 -0.37219822 0.10634549 -0.01590606 0.1310461 -0.052717805
-0.42957073 -0.021450758 0.32569835 -0.46687368 0.15356445 0.36867154 -0.19098973 0.31869933
0.16906978 0.3146608 -0.08966973 -0.056162097 0.3271432 -0.39931673 -0.02106849 0.29341465
0.330591 0.5647336 0.085981175 -0.4360403 -0.3877307 0.63368285 0.12564167 0.09867898
-0.5757169 0.40902713 -0.16633543 0.15899637 0.24131933 0.02813223 -0.12808913 0.03679426
0.14700232 0.53542084 -0.0069586057 -0.13941562 -0.053111203 0.44009796 0.14057948 0.020824406
-0.27432045 0.26488572 0.42718485 0.3439453 -0.07013415 -0.04315474 -0.24139209 0.3509104
-0.48627958 -0.21991946 0.33146393 0.21487467 -0.3470472 -0.26556766 0.6673732 -0.30495116
0.015154973 -0.19462809 -0.2941976 0.22861874 0.12118171 0.32566944 -0.22842668 -0.02199436
0.1746989 0.0021305238 0.3249723 0.5757747 0.055654887 -0.046130653 -0.8537876 -0.09034566
0.020817066 0.33329442 -0.07996939 -0.14491093 0.55915666 0.24569508 0.5142045 -0.09292935
-0.24069999 0.22013667 0.0670228 0.4889679 -0.030833999 -0.32900894 -0.057505578 -0.58274966
-0.11597579 -0.14480886 -0.022846596 -0.39129433 -0.89730513 0.028548574 0.6523988 -0.545038
-0.13185382 0.32498357 -0.12912914 0.04931571 0.25499433 -0.37202904 0.2056121 0.5345778
-0.45867053 -0.25641945 -0.020884499 -0.22906445 0.45187125 0.36354828 0.27288243 0.11110755
0.46626884 0.16759826 -0.019777503 -0.08114092 -0.060862586 -0.368912 0.11353547 -0.25322968
00000000: cd9f 65be b83d d1be d8af c1be a07d 8a3e
00000010: a8b2 b83c 0cf2 e1bd dc2d 39bc f158 b4be
00000020: 816e ea3e 1153 323e 3c5b 0d3e 034e d8be
00000030: 945a 023e 1eca 043f 5322 7f3e 1f97 e5be
00000040: b474 16bf 38fe 9bbe 0d7e 31bd 74f3 91bd
00000050: b2a6 c43e 6993 f93d 6efd 2fbe 9ba1 55bf
00000060: cb09 e1be 6143 dcbe c8f4 673e b607 30be
00000070: 6f42 a0be 2b30 7a3d ef0f 9cbd 6674 e33c
00000080: ec05 9fbc 3d17 b1bd f7fb d03d 1a6d f43e
00000090: baf7 393e 7602 fe3d 39d4 1e3e 458c a1be
000000a0: 4d52 973d f7db b0be d367 e4be 2c06 08bf
000000b0: 16a6 c8be 0d3f 143f c66f 323d 2f41 4e3e
000000c0: 3936 90bd f5f9 75be 257b 05bf 6ad1 a4be
000000d0: 80ec 7bbd c3fb 8ebe b3e5 02bc c3c8 8abe
000000e0: bc6c 173c 120c 9ebb 814f f9bd 563d 80bd
000000f0: 606f 2cbe f5f9 a2be 3457 ec3d 8a71 f4bd
00000100: 59ff b43e 0740 bbbd 0b74 153d c490 bebe
00000110: aacb d93d 6d4d 82bc f330 063e a0ee 57bd
00000120: b2f0 dbbe 80b9 afbc efc1 a63e 110a efbe
00000130: 0040 1d3e 84c2 bc3e d092 43be 8f2c a33e
00000140: a120 2d3e 381b a13e c3a4 b7bd 3a0a 66bd
00000150: 507f a73e 3e73 ccbe d397 acbc 723a 963e
00000160: 3943 a93e 6292 103f e616 b03d ad40 dfbe
00000170: a384 c6be 0a39 223f 36a8 003e 3418 ca3d
00000180: 2f62 13bf 016c d13e d653 2abe f2cf 223e
00000190: 6a1c 773e 9075 e63c cc29 03be 94b5 163d
000001a0: c787 163e 5711 093f 0405 e4bb f8c2 0ebe
000001b0: 228b 59bd 8554 e13e 11f4 0f3e f297 aa3c
000001c0: bb73 8cbe 1a9f 873e f9b7 da3e 9919 b03e
000001d0: 7ea2 8fbd 06c3 30bd 7d2f 77be 87aa b33e
000001e0: a3f9 f8be 9132 61be a4b5 a93e 1b08 5c3e
000001f0: 2cb0 b1be 7cf8 87be f8d8 2a3f 8f22 9cbe
00000200: 904c 783c 964c 47be 11a1 96be 081b 6a3e
00000210: 1e2e f83d 25be a63e afe8 69be 842d b4bc
00000220: 45e4 323e 42a0 0b3b c562 a63e f965 133f
00000230: 61f6 633d 7ff3 3cbd d391 5abf 2507 b9bd
00000240: 8d88 aa3c 91a5 aa3e fec6 a3bd 8863 14be
00000250: e424 0f3f 7e97 7b3e e8a2 033f be51 bebd
00000260: 0f7a 76be 826b 613e 4043 893d 005a fa3e
00000270: 9597 fcbc dc73 a8be f88a 6bbd 152f 15bf
00000280: b784 edbd c648 14be c928 bbbc bb57 c8be
00000290: cab5 65bf b3de e93c 9c03 273f 9c87 0bbf
000002a0: b004 07be 3f64 a63e 6e3a 04be 45ff 493d
000002b0: 9e8e 823e 977a bebe fa8b 523e 17da 083f
000002c0: ddd6 eabe 6949 83be f815 abbc df8f 6abe
000002d0: ab5b e73e 0023 ba3e 3fb7 8b3e 5b8c e33d
000002e0: caba ee3e e19e 2b3e 6e04 a2bc 362d a6bd
000002f0: 0c4b 79bd 09e2 bcbe 4985 e83d 52a7 81be

bias f4 [8]
-0.009069567 0.008818669 -0.021766355 0.080658674 -0.11344463 0.1341431 0.14811198 -0.0112910485
00000000: 8598 14bc 2e7c 103c 5b4f b2bc 6030 a53d
00000010: a855 e8bd cf5c 093e abaa 173e 17fe 38bc

weight f4 [8]
0.282943 0.20968866 0.2967516 0.24887818 0.30240074 0.2824535 0.20957677 0.29560375
00000000: e8dd 903e a0b8 563e d3ef 973e ecd9 7e3e
00000010: 45d4 9a3e bf9d 903e 4b9b 563e 6059 973e

weight f4 [8, 8, 3]
-0.3094372 0.28773123 -0.13603309 -0.10771748 -0.34809113 -0.18874696 0.0019715442 0.063622616
0.58664227 -0.089413084 0.16551001 -0.012107423 -0.0140231885 0.24094415 0.122185715 0.28840408
0.16005829 -0.08674271 -0.09171841 -0.0006308571 0.14970794 -0.30794793 -0.21687673 0.0012326407
-0.2919472 -0.24591137 0.08794528 -0.02845079 -0.026691599 0.08991277 0.20223957 0.21417241
-0.43324265 0.093986236 0.24090484 -0.3697336 -0.23353918 -0.24743408 0.09766547 0.02914875
0.05993319 0.11583792 -0.26115015 -0.3683264 0.21253878 0.34154668 0.09909621 -0.21142833
-0.072265625 0.27606878 -0.14380285 0.2558974 0.19371323 -0.24826142 -0.39806977 0.12083274
-0.1597221 0.2620397 0.2840287 0.43277276 0.09941719 -0.102595285 0.14681862 0.16873178
0.32767564 0.45565993 -0.2878729 -0.030578 -0.23563752 0.2319121 -0.31249094 0.047532663
-0.3844576 -0.22910136 0.38620853 -0.47500607 -0.41379654 0.016113384 0.7125036 -0.09801868
0.09045794 -0.14815587 0.43887883 0.051413234 0.28918427 0.015134203 0.047560126 -0.21710902
-0.43801415 0.2457214 0.18023399 0.2684757 -0.32015818 0.21356122 -0.13713166 -0.11873853
0.24451825 0.24816279 0.365928 -0.41849327 -0.11718659 -0.47887895 -0.25873244 0.14581798
0.02759866 0.25412148 -0.051117983 0.15799178 0.12228054 0.0899466 0.21636997 -0.037669957
-0.034987066 0.46407083 -0.40976086 -0.34651557 -0.0069364225 0.04861795 -0.3502133 0.6379895
0.22550976 0.07047195 -0.30763957 -0.076230735 -0.1813952 -0.34578907 0.3308562 -0.013892508
-0.072347224 0.1155258 0.38584033 -0.06197743 0.13108344 -0.07871735 0.3594291 0.11718852
0.6447132 -0.21847059 -0.08994816 -0.270382 0.09075553 -0.3239022 -0.16224512 -0.12599985
0.3119889 0.16351849 -0.009935221 -0.15975113 -0.23679776 0.3133087 0.26207313 0.2774759
-0.2856948 -0.17957236 -0.13377222 0.12740631 0.28747502 0.11528956 -0.44022435 -0.2700851
-0.2583153 -0.14230688 -0.29480445 -0.14630517 -0.5367148 -0.20446871 -0.35405806 0.9430995
-0.073897265 -0.1629157 0.20371345 -0.16457243 -0.110102534 -0.12658393 0.20830184 -0.5502941
0.31802058 -0.098473996 -0.4843442 0.4162884 -0.16309544 -0.3497633 -0.05520124 0.20591144
0.017058777 -0.21545725 0.19897327 -0.29338896 0.046315733 0.021562021 -0.018080672 0.045631245
00000000: 8d6e 9ebe 8251 933e 424c 0bbe fb9a dcbd
00000010: 0039 b2be e246 41be 0635 013b 934c 823d
00000020: 302e 163f 351e b7bd 757b 293e 365e 46bc
00000030: 84c1 65bc 10ba 763e 813c fa3d b3a9 933e
00000040: 52e6 233e 29a6 b1bd ddd6 bbbd 1a60 25ba
00000050: 0a4d 193e 5aab 9dbe ef14 5ebe 8f90 a13a
00000060: 1a7a 95be 31d0 7bbe a81c b43d a211 e9bc
00000070: 57a8 dabc 3024 b83d e417 4f3e 0350 5b3e
00000080: fbd1 ddbe db7b c03d c2af 763e b94d bdbe
00000090: e524 6fbe 5c5f 7dbe d504 c83d 5cc9 ee3c
000000a0: 817c 753d 6e3c ed3d 79b5 85be 4795 bcbe
000000b0: c4a3 593e 35df ae3e f4f2 ca3d ab80 58be
000000c0: 0000 94bd e358 8d3e 0e41 13be fc04 833e
000000d0: c35c 463e 3e38 7ebe cdcf cbbe 2877 f73d
000000e0: 318e 23be 112a 863e 366c 913e 6494 dd3e
000000f0: 3d9b cb3d 7a1d d2bd 9f57 163e 06c8 2c3e
00000100: 1ac5 a73e 424c e93e 1464 93be b77e fabc
00000110: f64a 71be 5e7a 6d3e d0fe 9fbe 9cb1 423d
00000120: a0d7 c4be 8c99 6abe 20bd c53e ff33 f3be
00000130: 24dd d3be 3700 843c a366 363f 05be c8bd
00000140: 0342 b93d 2cb6 17be bab4 e03e af96 523d
00000150: f60f 943e 73f5 773c 68ce 423d d451 5ebe
00000160: 6443 e0be 649e 7b3e 428f 383e a675 893e
00000170: c6eb a3be cbaf 5a3e 3e6c 0cbe 302d f3bd
00000180: fe62 7a3e 631e 7e3e ea5a bb3e c044 d6be
00000190: 86ff efbd 9f2f f5be 9478 84be 4f51 153e
000001a0: 9616 e23c 361c 823e 1761 51bd 99c8 213e
000001b0: 386e fa3d ec35 b83d 1790 5d3e d04b 1abd
000001c0: 994e 0fbd b19a ed3e 2dcc d1be 7d6a b1be
000001d0: ee4a e3bb 9e23 473d 284f b3be 4853 233f
000001e0: 08ec 663e 9953 903d ef82 9dbe dc1e 9cbd
000001f0: aabf 39be 440b b1be fc65 a93e 679d 63bc
00000200: c82a 94bd ca98 ec3d dd8c c53e 0cdc 7dbd
00000210: bd3a 063e 9036 a1bd 1707 b83e 8900 f03d
00000220: ed0b 253f c1b6 5fbe be36 b8bd 826f 8abe
00000230: 09de b93d 82d6 a5be 9623 26be 1b06 01be
00000240: 02bd 9f3e 6471 273e 56c7 22bc cd95 23be
00000250: 1d7b 72be ff69 a03e 732e 863e 5211 8e3e
00000260: 9746 92be d1e1 37be 96fb 08be cd76 023e
00000270: ed2f 933e ef1c ec3d 1665 e1be 9848 8abe
00000280: e741 84be e5b8 11be 9cf0 96be 06d1 15be
00000290: 2466 09bf 3f60 51be 1947 b5be f86e 713f
000002a0: 7357 97bd 60d3 26be 429a 503e ad85 28be
000002b0: 707d e1bd 389f 01be 144d 553e 13e0 0cbf
000002c0: 98d3 a23e bcac c9bd f7fb f7be c123 d53e
000002d0: 7e02 27be 2d14 b3be b21a 62bd 73da 523e
000002e0: d9be 8b3c d3a0 5cbe a6bf 4b3e 1437 96be
000002f0: 91b5 3d3d d6a2 b03c eb1d 94bc d4e7 3a3d

bias f4 [8]
-0.050232995 0.110214956 -0.012189195 0.12769711 -0.0778325 0.081245735 -0.004054579 0.1333216
00000000: 1dc1 4dbd 61b8 e13d 30b5 47bc 08c3 023e
00000010: a566 9fbd 2a64 a63d 46dc 84bb 7585 083e

weight f4 [8]
0.19191143 0.23544574 0.3105806 0.26773685 0.24467853 0.4407906 0.22428098 0.19481601
00000000: 6e84 443e b018 713e 6c04 9f3e ce14 893e
00000010: 028d 7a3e 4eaf e13e eaa9 653e d97d 473e

weight f4 [8, 8, 3]
-0.65280366 0.036678948 0.022894586 0.007980594 -0.25843978 -0.7162023 0.19297044 -0.38206002
-0.027416851 0.013537752 -0.18561159 -0.51479596 0.6105487 -0.2829738 -0.2945301 -0.099422246
0.095732264 -0.17665163 -0.05558162 -0.09334757 -0.050838858 -0.2750293 0.03352334 0.14019565
-0.6299539 -0.38808239 0.028383512 0.18858492 -0.18332885 0.40204564 0.21703514 -0.013012999
0.07565926 -0.10390217 -0.32540444 0.2653933 0.13536265 0.5917393 0.34048313 -0.0088666845
0.022304548 0.29146975 -0.15942052 -0.19863494 0.39879856 -0.21214105 -0.4147789 -0.09997967
0.33871308 0.018667836 0.2480705 0.16781795 -0.33142513 0.10551406 -0.22662899 0.035668407
0.31496686 -0.17899624 0.29382765 0.34669012 0.3892315 0.14661086 0.1114937 0.39170286
-0.05313546 0.19720604 0.02015565 -0.015293311 -0.0006951591 -0.4195202 -0.14036661 0.092879035
-0.57971776 -0.030383779 -0.09356858 0.1746807 -0.11108517 0.2976799 0.16924277 0.023523787
0.0185306 -0.26584673 -0.07860573 -0.18458527 0.13677102 -0.08810005 -0.31607345 0.27632976
0.27841583 -0.22023425 0.49451208 -0.18361562 0.05753188 -0.03582678 -0.10129179 0.38731614
-0.19979753 -0.1361581 0.031404365 0.37606186 -0.028011193 0.25445843 0.67756677 -0.69517094
-0.44106597 0.39717716 -0.3365994 -0.5421719 0.036181174 0.17983243 -0.07976742 -0.24315386
-0.0772962 0.22617537 0.11057966 0.3158259 0.16163321 -0.28794456 -0.24933462 0.13833709
-0.29942703 0.22858597 -0.19271815 -0.017247098 0.50701755 -0.35866585 -0.11921964 0.016474975
-0.30414817 0.21498744 -0.0011218981 -0.32961392 -0.26581714 0.51737744 0.24623471 0.13948143
0.04524994 -0.28626284 0.36172473 0.107790135 0.15337434 -0.41654772 0.10099472 -0.3428378
-0.1322076 -0.37251142 -0.004557753 0.4393574 -0.16872306 -0.4148003 0.28264934 -0.069454096
-0.31856743 0.3489084 -0.10827999 0.3587653 1.0174452 0.47139546 -0.12773594 -0.1920047
0.16590959 0.20943101 -0.020878028 0.2952375 0.24116609 0.15014954 0.023415284 -0.100556254
-0.038755853 -0.13588458 -0.4922955 0.4502867 -0.09717043 -0.36364278 -0.07162364 0.5875294
-0.08385693 0.04772403 0.10029482 -0.14902253 -0.46630785 -0.28748605 -0.14076555 0.05152965
0.38435084 0.23523673 -0.117680125 -0.090656966 -0.051391896 -0.23787767 -0.20452291 -0.2258583
00000000: 241e 27bf aa3c 163d 6d8d bb3c 0ac1 023c
00000010: 3852 84be 0959 37bf 0b9a 453e 5f9d c3be
00000020: 4e99 e0bc 73cd 5d3c f710 3ebe abc9 03bf
00000030: eb4c 1c3f f1e1 90be a6cc 96be e49d cbbd
00000040: 470f c43d 2ae4 34be 8ea9 63bd 032d bfbd
00000050: 683c 50bd a4d0 8cbe c54f 093d 738f 0f3e
00000060: a944 21bf bcb2 c6be 8a84 e83c 681c 413e
00000070: 8fba 3bbe edd8 cd3e 763e 5e3e 7934 55bc
00000080: 3ef3 9a3d a9ca d4bd 699b a6be a1e1 873e
00000090: 829c 0a3e 3a7c 173f ce53 ae3e 9245 11bc
000000a0: 07b8 b63c 863b 953e 223f 23be f566 4bbe
000000b0: 532f cc3e 813b 59be e65d d4be 24c2 ccbd
000000c0: cd6b ad3e 4aed 983c 3106 7e3e 78d8 2b3e
000000d0: 8eb0 a9be c117 d83d 6e11 68be 0919 123d
000000e0: 5643 a13e ca4a 37be 9470 963e 5e81 b13e
000000f0: 5a49 c73e 2821 163e cf56 e43d 478d c83e
00000100: 91a4 59bd 61f0 493e 761d a53c cc90 7abc
00000110: 563b 36ba 5acb d6be 44bc 0fbe 5d37 be3d
00000120: 6268 14bf 67e7 f8bc e2a0 bfbd 7fdf 323e
00000130: 9f80 e3bd 8069 983e fa4d 2d3e f5b4 c03c
00000140: 7ccd 973c 101d 88be 0afc a0bd ec03 3dbe
00000150: b40d 0c3e cd6d b4bd 61d4 a1be 187b 8d3e
00000160: 858c 8e3e 1685 61be b030 fd3e bc05 3cbe
00000170: 8ca6 6b3d 1abf 12bd 1272 cfbd 4d4e c63e
00000180: b997 4cbe 076d 0bbe dda1 003d 2e8b c03e
00000190: bb77 e5bc 6048 823e 0475 2d3f b9f6 31bf
000001a0: 66d3 e1be ce5a cb3e c256 acbe c7cb 0abf
000001b0: b632 143d fe25 383e 1a5d a3bd 53fd 78be
000001c0: 784d 9ebd 849a 673e 9777 e23d efb3 a13e
000001d0: 2d83 253e 786d 93be 9351 7fbe 3da8 0d3e
000001e0: 804e 99be 7112 6a3e e857 45be c949 8dbc
000001f0: e7cb 013f 0da3 b7be 6d29 f4bd 87f6 863c
00000200: 4fb9 9bbe ab25 5c3e a70c 93ba 28c3 a8be
00000210: 2f19 88be d972 043f f424 7c3e 38d4 0e3e
00000220: 0058 393d 0b91 92be fc33 b93e 13c1 dc3d
00000230: 2a0e 1d3e be45 d5be 52d6 ce3d 7088 afbe
00000240: 6e61 07be d1b9 bebe 3459 95bb 74f3 e03e
00000250: bdc5 2cbe b460 d4be 6ab7 903e f33d 8ebd
00000260: 451b a3be 1fa4 b23e e6c1 ddbd 16b0 b73e
00000270: a53b 823f bf5a f13e 36cd 02be e19c 44be
00000280: 34e4 293e 1575 563e 6608 abbc 5f29 973e
00000290: 3ef4 763e cdc0 193e 69d1 bf3c 70f0 cdbd
000002a0: 75be 1ebd 5425 0bbe 280e fcbe fa8b e63e
000002b0: 4a01 c7bd 632f babe 6aaf 92bd 5468 163f
000002c0: 2fbd abbd 467a 433d 5f67 cd3d 5d99 18be
000002d0: e7bf eebe 5f31 93be d824 10be c110 533d
000002e0: a2c9 c43e e6e1 703e 4702 f1bd 5caa b9bd
000002f0: 4f80 52bd 3496 73be 746e 51be 6647 67be

bias f4 [8]
-0.19884616 -0.20255072 0.122766465 -0.1986236 0.025776144 0.027735868 -0.21607985 0.04794048
00000000: 549e 4bbe 7569 4fbe fc6c fb3d fc63 4bbe
00000010: 7e28 d33c 5536 e33c 0944 5dbe 3d5d 443d

weight f4 [8]
0.28065887 0.25815558 0.684514 0.2709394 0.26260623 0.2283708 0.18368414 0.19102225
00000000: 85b2 8f3e f82c 843e 4f3c 2f3f 92b8 8a3e
00000010: 5374 863e 09da 693e b217 3c3e 569b 433e

weight f4 [8, 8, 3]
-0.20095311 -0.44547895 -0.21381548 -0.023653913 -0.4388739 0.0061607407 -0.02433226 0.35484117
0.076098725 0.0017148321 -0.00046604814 0.11109407 0.21191113 -0.019330394 0.3701835 -0.33862987
0.25654593 0.33714575 -0.6397085 -0.07496936 -0.03837989 -0.3946077 -0.070892915 0.8121754
0.36928046 0.2889052 0.014446878 0.10235358 -0.22866412 -0.013181766 0.06432606 0.15658163
-0.51062435 -0.43020156 0.06486002 -0.2095095 0.30280456 -0.24189156 0.42188463 0.3640435
-0.18566632 0.12517104 -0.112343065 -0.20136653 0.15510283 -0.19088577 0.09688121 0.17570144
-0.27408192 0.3645354 -0.4692696 0.048818085 0.2743627 0.2549797 -0.007998476 -0.33931008
0.096615225 0.12629707 -0.35217354 -0.6225852 0.28354734 0.05282524 0.1344139 0.2241895
0.08142866 -0.9044582 -0.38102466 0.060845852 -0.3490472 -0.14733939 0.3805962 -0.146141
-0.11697906 0.034340683 0.72105086 0.19127694 -0.07948427 0.24914667 0.14025627 -0.0039211633
0.08024153 0.40050778 0.16434793 -0.08677101 -0.2098404 -0.056803353 -0.32341105 0.32814872
-0.060739677 0.57511127 -0.08803715 0.02534112 -0.18694825 -0.076137714 -0.17863874 0.1623287
0.3378744 0.5197877 -0.0012005126 0.041151673 0.035040166 0.008552372 -0.2055636 0.64993656
0.038822602 0.15116902 -0.008525695 0.089611895 0.0709591 0.04776526 0.0049066786 -0.19696099
-0.1412466 0.6038209 0.11806024 -0.38131496 -0.0055137957 -0.123307906 0.44358587 -0.57263803
0.56731033 -0.17682958 0.107089 0.12868823 0.3112428 -0.38724482 0.12503162 0.33060014
0.16283818 -0.46611375 -0.17568804 -0.025812794 -0.08413481 -0.045249965 0.28992692 0.10147384
0.052693557 -0.3594536 0.02481482 -0.011702208 0.5812361 0.4425735 0.15564114 0.13674103
-0.1963919 0.21383782 -0.2729556 0.28583443 0.2799195 -0.008334249 -0.2985263 0.043997865
0.11639879 -0.27473044 -0.18036436 -0.25613955 -0.36856303 -0.076442435 0.46120995 -0.35142997
0.19280006 -0.047926486 -0.09117856 -0.17844075 0.2140294 0.17432342 0.09847777 0.20723696
-0.22770362 -0.33621576 0.24475124 0.2018763 -0.20952468 0.13620417 -0.19822755 0.15932766
0.39914382 0.36035815 0.49653766 0.44243112 0.37470514 0.011535393 -0.32843772 -0.038585104
-0.088179626 -0.5853063 -0.107987374 0.3618414 0.38222626 0.14195997 -0.17115591 0.38546044
00000000: a7c6 4dbe d115 e4be 72f2 5abe dac5 c1bc
00000010: 14b4 e0be 0ae0 c93b 7354 c7bc bead b53e
00000020: a6d9 9b3d 38c4 e03a ec57 f4b9 4a85 e33d
00000030: 3bff 583e c65a 9ebc b188 bd3e e560 adbe
00000040: fd59 833e 5e9e ac3e f0c3 23bf 8989 99bd
00000050: 3b34 1dbd 050a cabe 4e30 91bd baea 4f3f
00000060: 5412 bd3e 62eb 933e 99b2 6c3c c19e d13d
00000070: ed26 6abe 55f8 57bc 62bd 833d ef56 203e
00000080: 47b8 02bf 6143 dcbe 55d5 843d a989 56be
00000090: 3309 9b3e 6cb2 77be 4301 d83e e963 ba3e
000000a0: 501f 3ebe d62c 003e 1f14 e6bd 0733 4ebe
000000b0: 47d3 1e3e 8f77 43be a869 c63d 14eb 333e
000000c0: 7754 8cbe 62a4 ba3e 1b44 f0be 79f5 473d
000000d0: 4579 8c3e b38c 823e 0a0c 03bc 0dba adbe
000000e0: 34de c53d 0554 013e 1750 b4be be61 1fbf
000000f0: 1e2d 913e 475f 583d cca3 093e ef91 653e
00000100: 12c4 a63d 938a 67bf aa15 c3be 8039 793d
00000110: 51b6 b2be 23e0 16be 81dd c23e fca5 15be
00000120: b892 efbd d1a8 0c3d ca96 383f 1ade 433e
00000130: a6c8 a2bd 4e20 7f3e 579f 0f3e 1a7d 80bb
00000140: ac55 a43d 5b0f cd3e d34a 283e 00b5 b1bd
00000150: 67e0 56be a2aa 68bd 2296 a5be 1c03 a83e
00000160: 2bca 78bd 7e3a 133f d24c b4bd 2e98 cf3c
00000170: 5d6f 3fbe 17ee 9bbd 13ed 36be 7f39 263e
00000180: e0fd ac3e cf10 053f 855a 9dba a88e 283d
00000190: 4786 0f3d 401f 0c3c 447f 52be 3e62 263f
000001a0: 7304 1f3d 0dcc 1a3e 5baf 0bbc 7186 b73d
000001b0: 0153 913d 81a5 433d 34c8 a03b 24b0 49be
000001c0: f3a2 10be 0294 1a3f 91c9 f13d b73b c3be
000001d0: 12ad b4bb db88 fcbd b01d e33e 6898 12bf
000001e0: 403b 113f d012 35be 7a51 db3d d9c6 033e
000001f0: 375b 9f3e f444 c6be 4a08 003e 6c44 a93e
00000200: 0dbf 263e 76a6 eebe 91e7 33be 5a75 d3bc
00000210: df4e acbd 0758 39bd 4d71 943e 84d1 cf3d
00000220: 33d5 573d 4d0a b8be 7348 cb3c 9eba 3fbc
00000230: e4cb 143f fe98 e23e 6460 1f3e d705 0c3e
00000240: f51a 49be 4df8 5a3e d6c0 8bbe e458 923e
00000250: 9c51 8f3e 608c 08bc 70d8 98be 1b37 343d
00000260: 7d62 ee3d 78a9 8cbe 6fb1 38be b924 83be
00000270: 4bb4 bcbe da8d 9cbd b623 ec3e a1ee b3be
00000280: 616d 453e 904e 44bd d3bb babd 2cb9 36be
00000290: 862a 5b3e d781 323e b7ae c93d ed35 543e
000002a0: 232b 69be 7924 acbe 12a0 7a3e a9b8 4e3e
000002b0: a38d 56be 1b79 0b3e 2afc 4abe ca26 233e
000002c0: 945c cc3e dd80 b83e 2f3a fe3e 5586 e23e
000002d0: 5ad9 bf3e f2fe 3c3c fd28 a8be 6a0b 1ebd
000002e0: 8597 b4bd a2d6 15bf 7c28 ddbd 4743 b93e
000002f0: 29b3 c33e f45d 113e 7f43 2fbe 125b c53e

bias f4 [8]
0.01938994 0.021573741 0.007531662 -0.13882166 -0.010867878 -0.15990452 -0.1677146 0.15378265
00000000: a7d7 9e3c 6abb b03c 29cc f63b 4427 0ebe
00000010: 2f0f 32bc 03be 23be 60bd 2bbe 3379 1d3e

weight f4 [8]
0.19465324 0.2814802 0.15886872 0.20624886 0.51472217 0.1802906 0.21900168 0.4441829
00000000: 2e53 473e 2c1e 903e 7bae 223e e732 533e
00000010: d5c4 033f 199e 383e fa41 603e f16b e33e

weight f4 [8, 8, 3]
-0.1595409 -0.17249057 -0.467954 0.0058894693 -0.17491367 0.14466469 0.26316544 0.28768778
0.1929041 -0.2447197 0.05653977 -0.029033164 0.6210545 0.16579984 -0.14775214 -0.25964528
-0.40849584 -0.17675033 0.14472748 0.214353 0.020834826 0.0014617066 0.18252274 0.009547665
-0.3846724 0.025774471 0.23275614 0.28187126 0.37346494 0.22589365 0.16132204 -0.35040244
-0.35916737 0.22760157 -0.6980151 0.26466662 0.35987782 0.017240921 0.053723738 0.24031232
-0.042844474 0.268762 -0.025183948 -0.65300435 -0.09214283 0.33297953 0.19946358 0.26912633
-0.38200584 -0.23473078 -0.15193558 0.05788635 0.00025499074 0.20775993 0.30387846 0.30858624
0.13571607 0.21162677 0.23164627 0.22595876 -0.33538532 -0.09698951 -0.4216568 -0.54552895
0.030789264 0.03923485 -0.5964724 0.33003542 -0.08499094 -0.04722454 0.5789569 0.6057852
-0.06594737 0.46914384 -0.16467816 -0.2800198 0.06477835 0.08030556 0.0063382643 -0.4900604
0.24322602 -0.24722698 0.26580405 0.12019144 -0.0024303729 -0.0639538 0.54962295 0.28238845
0.12344392 0.2570091 0.008576298 -0.19313672 0.15139705 -0.4330617 -0.013158466 -0.13237423
0.3661123 -0.45937487 -0.40606776 -0.016677443 -0.10929214 0.059289776 0.029541219 0.324842
0.005814144 0.02837887 0.21602696 0.0494782 -0.09071672 0.3756939 -0.19699258 0.0006820065
-0.742326 -0.27809983 0.5355809 -0.042161323 0.19281858 -0.2770065 0.18918188 0.11199653
0.20770302 0.5596487 0.16698965 -0.32803562 -0.15079042 0.34902263 -0.072106734 -0.45983258
-0.0044825114 -0.017997539 -0.021302348 -0.022630187 0.12606776 0.5943085 -0.045271005 -0.20016317
-0.3229157 -0.14552873 0.12163478 0.4015583 -0.013078163 -0.37418303 0.031280335 0.4721636
0.5349614 -0.28567123 -0.40966365 -0.25368527 -0.052576955 0.20039141 -0.017042188 0.16837633
-0.53115326 0.0877533 -0.19691971 -0.061678898 0.3813939 0.25213704 0.09783293 -0.2531859
-0.034352068 0.09561484 -0.074749164 -0.27817237 -0.066948995 -0.30914518 0.20359756 0.10408081
-0.05837431 0.08264861 -0.796617 0.25084373 -0.18626162 0.6420967 -0.07924104 0.29585844
0.539685 0.08003963 0.021196928 -0.03349317 0.09943884 0.16693603 -0.0057541877 0.3095788
-0.36119044 -0.026599186 0.42673898 -0.29618794 0.5676968 -0.34510702 0.30731422 0.31049848
00000000: b15e 23be 5ea1 30be ab97 efbe 73fc c03b
00000010: 921c 33be fb22 143e 9fbd 863e d04b 933e
00000020: a788 453e cd97 7abe 3f96 673d f5d6 edbc
00000030: 6dfd 1e3f 6fc7 293e 564c 17be 3af0 84be
00000040: 5e26 d1be 0afe 34be 7133 143e 5a7f 5b3e
00000050: ccad aa3c bc96 bf3a 3ee7 3a3e cf6d 1c3c
00000060: c8f3 c4be fc24 d33c a057 6e3e 6e51 903e
00000070: cc36 bf3e aa50 673e 9b31 253e f367 b3be
00000080: c9e4 b7be 6310 693e 1eb1 32bf 6282 873e
00000090: e841 b83e d53c 8d3c 6c0d 5c3d 6f14 763e
000000a0: b07d 2fbd 2c9b 893e 914e cebc 4b2b 27bf
000000b0: 61b5 bcbd 4b7c aa3e 2e40 4c3e edca 893e
000000c0: 4596 c3be 445d 70be 0095 1bbe 3d1a 6d3d
000000d0: 47b0 8539 05bf 543e f595 9b3e 04ff 9d3e
000000e0: 27f9 0a3e b0b4 583e ae34 6d3e bc61 673e
000000f0: a0b7 abbe 70a2 c6bd 66e3 d7be c9a7 0bbf
00000100: c439 fc3c b9b4 203d 6ab2 18bf 67fa a83e
00000110: bb0f aebd 856e 41bd 8536 143f bd14 1b3f
00000120: 6a0f 87bd 9f33 f03e 64a1 28be c15e 8fbe
00000130: 83aa 843d 3e77 a43d 37b1 cf3b 32e9 fabe
00000140: 3e10 793e 1229 7dbe 7817 883e ee26 f63d
00000150: e446 1fbb 36fa 82bd 17b4 0c3f 3895 903e
00000160: 2ad0 fc3d b296 833e 9a83 0c3c a2c5 45be
00000170: d407 1b3e 43ba ddbe 9b96 57bc 1c8d 07be
00000180: 1273 bb3e 2f33 ebbe 1de8 cfbe 229f 88bc
00000190: 8fd4 dfbd d6d9 723d 6d00 f23c b151 a63e
000001a0: 9384 be3b ce7a e83c 2c36 5d3e a7a9 4a3d
000001b0: b0c9 b9bd f35a c03e 6cb8 49be aec8 323a
000001c0: 1409 3ebf 1a63 8ebe d41b 093f 5ab1 2cbd
000001d0: 3c72 453e ccd3 8dbe e5b8 413e 705e e53d
000001e0: 1ab0 543e 2345 0f3f 56ff 2a3e 49f4 a7be
000001f0: ce68 1abe 18b3 b23e b2ac 93bd 2d6f ebbe
00000200: 08e2 92bb 936f 93bc 4382 aebc f162 b9bc
00000210: e817 013e 9a24 183f 176e 39bd 93f7 4cbe
00000220: 3555 a5be 7c05 15be a81b f93d 0d99 cd3e
00000230: cb45 56bc eb94 bfbe cf1f 003d 6dbf f13e
00000240: 3bf3 083f 8043 92be 6fbf d1be 09e3 81be
00000250: ef5a 57bd 6833 4d3e 0f9c 8bbc d86a 2c3e
00000260: a9f9 07bf 01b8 b33d 52a5 49be 03a3 7cbd
00000270: 1046 c33e 1b18 813e a25c c83d 95a1 81be
00000280: c1b4 0cbd b7d1 c33d 1716 99bd 9c6c 8ebe
00000290: 8e1c 89bd 4748 9ebe e17b 503e 5228 d53d
000002a0: e719 6fbd ad43 a93d 17ef 4bbf 976e 803e
000002b0: 5ebb 3ebe 7360 243f 2049 a2bd c27a 973e
000002c0: cc28 0a3f d1eb a33d 2ea5 ad3c 2230 09bd
000002d0: 97a6 cb3d 47f1 2a3e a08d bcbb 1d81 9e3e
000002e0: f4ed b8be 89e6 d9bc 887d da3e f2a5 97be
000002f0: 9454 113f deb1 b0be 4a58 9d3e a8f9 9e3e

bias f4 [8]
0.09748567 -0.10646681 0.29384124 0.04187645 -0.049331892 -0.020121623 0.13068916 -0.017123053
00000000: 91a6 c73d 450b dabd 5c72 963e a486 2b3d
00000010: 3d10 4abd 1ad6 a4bc 61d3 053e a545 8cbc

weight f4 [8]
0.22500579 0.15635516 0.28043684 0.20196247 0.30926687 0.2189797 0.26976922 0.22086872
00000000: eb67 663e 911b 203e 6b95 8f3e 40cf 4e3e
00000010: 3a58 9e3e 373c 603e 311f 8a3e 692b 623e

weight f4 [8, 8, 3]
-0.010626725 -0.33331907 0.46500137 0.005007627 -0.10144023 -0.005883441 -0.4066824 -0.03338924
0.05921658 -0.064748384 -0.033047527 0.30224946 0.1889821 0.24643216 -0.027839536 -0.049655985
0.21861471 0.28561202 0.29517016 0.04298916 -0.13543458 0.3086076 -0.37600678 -0.054246563
-0.249613 0.01994546 -0.05761236 -0.40457332 -0.5484933 0.43325245 0.45301786 -0.15325679
-0.5595845 -0.16054156 -0.12747154 -0.65972036 0.048297938 0.61515105 -0.4935661 0.03537809
-0.11374731 0.14816026 0.11738871 -0.12197372 -0.030862765 0.2669577 0.066517346 0.09874538
-0.033323806 0.34077623 0.1695124 0.6103287 -0.07853015 -0.025851065 -0.076547906 -0.47130907
-0.07032976 -0.15782633 0.12918559 0.15016069 0.27005285 0.25385696 0.14447498 0.21014254
-0.065789595 0.4849583 -0.26133367 0.056172777 -0.47412825 -0.2803009 -0.089335315 0.35199276
-0.0943155 0.13668424 -0.0066351397 -0.11328287 0.122151725 0.018699432 -0.10221429 0.40603197
-0.12001817 0.29919684 0.01344761 0.031479727 0.1460575 0.13753511 0.17744197 0.43207934
0.02251451 -0.03907992 -0.110945575 -0.10575401 0.18108398 -0.007854589 0.25630838 -0.30024976
0.022309449 0.005834762 -0.085181184 0.110900566 0.50460565 0.22965214 0.15848337 -0.0630279
-0.07779222 -0.32557282 -0.48785356 0.106266916 0.32612616 0.002162396 0.035441216 -0.24997453
-0.24982299 -0.16780753 -0.057079993 0.12982474 0.29147303 0.5053189 0.05066129 0.21824335
0.2098508 -0.3029723 0.07369801 0.20321989 -0.35088345 0.08846207 -0.3433318 -0.1328379
-0.21068002 0.24358228 0.19127977 -0.44763327 0.19224654 -0.45654196 0.3395283 0.33082145
-0.2232765 0.16557738 0.360147 0.12187834 -0.07467881 0.48101372 0.048193358 -0.13823426
-0.00022065999 0.34374443 -0.5575167 0.20427135 0.40152407 -0.15000854 0.3148529 -0.26423955
0.20456037 0.5502041 -0.1423207 -0.029112864 -0.13815321 -0.1348146 0.2585026 -0.06383775
0.26363882 -0.2571242 0.3135778 -0.21555583 0.2768623 0.088420324 0.028900051 0.309562
-0.10392911 -0.06481606 -0.13142605 -0.21993339 0.40514064 0.04246886 0.058768466 0.012822945
0.033292696 0.5788623 -0.020180818 0.1283111 0.095140606 -0.056523386 0.034362104 0.36734593
0.01383137 0.37815726 0.4277746 0.1515237 0.49310917 -0.20544301 0.5426106 -0.055577707
00000000: b71b 2ebc cca8 aabe a914 ee3e 0517 a43b
00000010: e5bf cfbd e1c9 c0bb ad38 d0be 28c3 08bd
00000020: 168d 723d cd9a 84bd d85c 07bd 71c0 9a3e
00000030: 8684 413e b658 7c3e bd0f e4bc 1364 4bbd
00000040: 89dc 5f3e bd3b 923e 8b20 973e 6715 303d
00000050: 5daf 0abe d101 9e3e f683 c0be a531 5ebd
00000060: 8d9a 7fbe a964 a33c f0fa 6bbd 3c24 cfbe
00000070: 0f6a 0cbf 44d3 dd3e f5f1 e73e 59ef 1cbe
00000080: ee40 0fbf 0265 24be e687 02be 6fe3 28bf
00000090: 0fd4 453d 8a7a 1d3f b2b4 fcbe 9ee8 103d
000000a0: 5af4 e8bd 53b7 173e 7e69 f03d 5ccd f9bd
000000b0: e9d3 fcbc aeae 883e 3f3a 883d 053b ca3d
000000c0: 8b7e 08bd 397a ae3e a994 2d3e 803e 1c3f
000000d0: 6ad4 a0bd 9dc5 d3bc 26c5 9cbd 6c4f f1be
000000e0: 0d09 90bd 3a9d 21be 3a49 043e b9c3 193e
000000f0: 5e44 8a3e 8af9 813e 40f1 133e 9b2f 573e
00000100: b2bc 86bd 744c f83e 87cd 85be 6d15 663d
00000110: f0c0 f2be 9983 8fbe 6ff5 b6bd 6538 b43e
00000120: 7c28 c1bd f4f6 0b3e 966b d9bb d900 e8bd
00000130: af2a fa3d 8d2f 993c ba55 d1bd 6ce3 cf3e
00000140: 16cc f5bd 5430 993e 5d53 5c3c e3f0 003d
00000150: 1990 153e 01d6 0c3e 59b3 353e 8139 dd3e
00000160: 5a70 b83c 4412 20bd 6f37 e3bd 8f95 d8bd
00000170: 146e 393e 89b0 00bc da3a 833e 56ba 99be
00000180: 4ec2 b63c 8831 bf3b 7973 aebd d61f e33d
00000190: d62d 013f ee29 6b3e 7749 223e c614 81bd
000001a0: 8751 9fbd 7bb1 a6be f1c7 f9be 78a2 d93d
000001b0: 02fa a63e fcb6 0d3b cf2a 113d 53f9 7fbe
000001c0: 99d1 7fbe bdd5 2bbe b6cc 69bd c7f0 043e
000001d0: f43b 953e 945c 013f 3682 4f3d 2f7b 5f3e
000001e0: 21e3 563e 2f1f 9bbe fbee 963d e018 503e
000001f0: ffa6 b3be 9a2b b53d 30c9 afbe a906 08be
00000200: 81bc 57be a26d 793e d8de 433e 3030 e5be
00000210: 47dc 443e debf e9be a7d6 ad3e 6e61 a93e
00000220: 98a2 64be 1e8d 293e 3065 b83e 5a9b f93d
00000230: 34f1 98bd 6e47 f63e 6666 453d 488d 0dbe
00000240: f760 67b9 45ff af3e 6ab9 0ebf 822c 513e
00000250: 9094 cd3e d79b 19be 6634 a13e 684a 87be
00000260: 4678 513e 2dda 0c3f 85bc 11be 1a7e eebc
00000270: 0978 0dbe d70c 0abe 745a 843e 5ebd 82bd
00000280: abfb 863e c8a5 83be 458d a03e abba 5cbe
00000290: e5c0 8d3e b715 b53d cdbf ec3c e97e 9e3e
000002a0: c9d8 d4bd 48be 84bd 8d94 06be 3836 61be
000002b0: 986e cf3e d4f3 2d3d 34b7 703d 5417 523c
000002c0: ec5d 083d 5230 143f 3e52 a5bc fc63 033e
000002d0: 14d9 c23d 1185 67bd 47bf 0c3d c414 bc3e
000002e0: f89c 623c d49d c13e 4605 db3e 0729 1b3e
000002f0: ce78 fc3e a75f 52be 87e8 0a3f 73a5 63bd

bias f4 [8]
-0.16973321 -0.13605142 -0.12006924 0.13834493 0.09058754 -0.20572834 0.04800441 -0.09459557
00000000: 8bce 2dbe 1051 0bbe dde6 f5bd 4baa 0d3e
00000010: f685 b93d 73aa 52be 46a0 443d 52bb c1bd

weight f4 [8]
0.22816902 0.22602995 0.26246327 -0.010104525 0.17901644 0.009657938 0.33443832 0.11751005
00000000: 24a5 693e 6574 673e 9661 863e 738d 25bc
00000010: 1650 373e 543c 1e3c 803b ab3e 1ca9 f03d

weight f4 [8, 8, 3]
0.25040916 -0.27725092 0.26405615 -0.43966854 0.2364145 0.37065288 -0.009340686 -0.05928181
-0.16339558 -0.103903696 -0.14242299 -0.2382146 0.31548735 -0.1351775 0.17573425 -0.0077200592
0.06773072 -0.19634196 0.10057638 -0.18695997 0.21483344 -0.15802005 -0.4229128 -0.36567193
-0.046388227 0.33914858 -0.52422315 -0.10986962 -0.18392326 0.14438848 0.30240667 0.13709268
-0.19337958 0.2386747 0.03319181 -0.086688794 -0.034465566 -0.14405298 0.4866035 0.09729278
-0.17649946 -0.36027363 0.52361435 -0.4239914 0.15319987 0.018504504 -0.14196368 0.07173941
-0.04171302 0.6705814 -0.0010031825 -0.047084242 -0.016325224 0.383331 -0.23274745 0.20293278
0.1824084 0.00498779 -0.18422844 -0.48545045 0.52046424 -0.16931084 0.39564615 0.0324613
0.23340704 0.19217722 -0.44443864 -0.26506388 -0.24185559 0.08312161 0.018215923 -0.073672235
0.06275114 -0.11616385 -0.004736793 0.2959105 0.25525624 -0.21493609 -0.30849022 -0.37928984
0.28831372 0.10642935 0.523391 0.18201055 -0.16340055 0.21232319 0.110789455 0.28084847
0.24077411 0.05480042 0.21755223 -0.2855654 0.595382 0.3215331 -0.218539 0.13838162
-0.24460399 0.12703396 0.103803985 0.08706616 0.19042452 0.2473615 -0.016088787 -0.054773215
0.40841004 -0.16857193 -0.22774535 0.2098514 -0.27614212 -0.08003456 0.33947277 0.18072335
-0.22734927 -0.48159677 -0.24595393 -0.30452573 0.30614072 -0.7081468 -0.48023525 0.13151145
-0.017425291 0.16609359 0.018600969 0.19151603 0.1756551 0.33603176 0.05922538 0.3203383
-0.18988948 0.50277007 0.23091748 0.17496371 -0.17568108 -0.18198991 -0.23320542 0.3342892
-0.19055961 0.007056304 0.5870847 -0.06760026 -0.20851897 -0.45422462 0.016992772 -0.38115084
-0.31204408 0.005854871 -0.22211489 0.057210192 -0.022301365 -0.38124758 0.3553881 -0.1094798
0.12718977 -0.038363844 0.378331 0.24348 0.40749645 0.23061486 -0.3805048 0.008269132
0.123958625 0.26209414 -0.22393258 -0.22323035 -0.3648496 -0.10267205 -0.15730819 0.065336406
-0.6466308 -0.015309854 0.091077976 -0.0036234139 0.30217952 0.011525864 0.44847208 -0.04421005
-0.15072699 -0.24752945 -0.44086072 0.11201555 0.3870815 0.018886816 0.20851706 -0.17473876
0.3208048 -0.78096586 0.06611271 -0.105840586 0.5309303 0.16714051 0.1262286 0.3857406
00000000: a135 803e d5f3 8dbe 5e32 873e 3c1c e1be
00000010: a516 723e 37c6 bd3e ad09 19bc 7cd1 72bd
00000020: 2c51 27be 76cb d4bd 55d7 11be 87ee 73be
00000030: 8f87 a13e f86b 0abe aef3 333e 8df8 fcbb
00000040: 67b6 8a3d de0d 49be fdfa cd3d 6f72 3fbe
00000050: 4cfd 5b3e 02d0 21be 0788 d8be 5a39 bbbe
00000060: 9501 3ebd e2a4 ad3e 7d33 06bf 5303 e1bd
00000070: 6156 3cbe 93da 133e 0cd5 9a3e 0662 0c3e
00000080: 4c05 46be 2467 743e 23f4 073d e589 b1bd
00000090: c42b 0dbd a082 13be 1824 f93e 7041 c73d
000000a0: 46bc 34be c975 b8be 970b 063f 6715 d9be
000000b0: 6de0 1c3e c296 973c ed5e 11be 1dec 923d
000000c0: 46db 2abd 39ab 2b3f 387d 83ba 68db 40bd
000000d0: 7abc 85bc f643 c43e 5955 6ebe 9ccd 4f3e
000000e0: 45c9 3a3e 9d70 a33b 61a6 3cbe f68c f8be
000000f0: 253d 053f d25f 2dbe 2292 ca3e 24f6 043d
00000100: 4102 6f3e 1bca 443e 768d e3be 74b6 87be
00000110: fea8 77be aa3b aa3d 8f39 953c 78e1 96bd
00000120: ab83 803d 50e7 edbd 1a37 9bbb 9581 973e
00000130: f2b0 823e 3518 5cbe 6ef2 9dbe 4732 c2be
00000140: db9d 933e a2f7 d93d f4fc 053f f960 3a3e
00000150: 7952 27be 406b 593e 95e5 e23d 5fcb 8f3e
00000160: 7d8d 763e 6876 603d 03c6 5e3e a135 92be
00000170: f46a 183f fd9f a43e b0c8 5fbe e9b3 0d3e
00000180: 7879 7abe 3115 023e 2f97 d43d be4f b23d
00000190: a5fe 423e 554c 7d3e a2cc 83bc e159 60bd
000001a0: 1f1b d13e 1f9e 2cbe 1436 69be 49e3 563e
000001b0: 8062 8dbe 29e9 a3bd 60cf ad3e 8b0f 393e
000001c0: 3fce 68be da93 f6be 59db 7bbe ccea 9bbe
000001d0: 7abe 9c3e 1c49 35bf 65e1 f5be f0aa 063e
000001e0: 7cbf 8ebc 7014 2a3e 0f61 983c c71c 443e
000001f0: eede 333e 5b0c ac3e 5096 723d 6203 a43e
00000200: 6372 42be 8ab5 003f a275 6c3e b029 333e
00000210: bee5 33be 905b 3abe 67cd 6ebe f427 ab3e
00000220: 0f22 43be 9138 e73b 2f4b 163f 0172 8abd
00000230: ff85 55be 2190 e8be 6d34 8b3c 3426 c3be
00000240: 3ec4 9fbe 38da bf3b 1672 63be 3c55 6a3d
00000250: 5ab1 b6bc e232 c3be 6ef5 b53e f236 e0bd
00000260: 093e 023e 6823 1dbd 9ab4 c13e d252 793e
00000270: 60a3 d03e 4d26 6c3e 86d1 c2be 417b 073c
00000280: 05de fd3d 3431 863e 954e 65be 7f96 64be
00000290: 91cd babe b945 d2bd 6615 21be 18cf 853d
000002a0: 9989 25bf 2fd6 7abc 1787 ba3d cc76 6dbb
000002b0: 46b7 9a3e fad6 3c3c 229e e53e 9915 35bd
000002c0: 2d58 1abe 5c78 7dbe 7fb8 e1be 6968 e53d
000002d0: 8c2f c63e 86b8 9a3c 7f85 553e b8ee 32be
000002e0: 8740 a43e 61ed 47bf 1a66 873d f3c2 d8bd
000002f0: 0ceb 073f e226 2b3e 1242 013e cb7f c53e

bias f4 [8]
0.11254074 -0.15413131 0.17322758 -0.054398555 -0.13829046 0.018917698 -0.20010428 -0.07245878
00000000: c27b e63d 99d4 1dbe 9262 313e 05d1 5ebd
00000010: 049c 0dbe 4af9 9a3c 23e8 4cbe 4565 94bd

weight f4 [8]
0.29455152 0.22288837 0.04285178 -0.069221824 0.23016948 0.22819927 0.11091659 0.11455985
00000000: 75cf 963e d93c 643e 5985 2f3d 2cc4 8dbd
00000010: 8cb1 6b3e 12ad 693e 3d28 e33d 5b9e ea3d
