models/teste_4.pth (torch_old, 342564 bytes, 129 tensors)

weight f4 [24, 22, 1]
0	0x3d845fba	0.06463571
1	0xbe621a62	-0.22080377
2	0xbcc2353e	-0.023707028
3	0xbdcc2566	-0.09968071
4	0x3def8b8f	0.116965406
5	0xbed302d8	-0.41213107
6	0x3e64c182	0.22339442
7	0xbeb86fa0	-0.36022663
8	0x3e1edf79	0.15514936
9	0x3f001efd	0.50047284
10	0x3eac9aba	0.33711797
11	0xbd97f005	-0.07418827
12	0xbe3000b6	-0.17187771
13	0x3e513eff	0.20434187
14	0xbeba4966	-0.36384124
15	0xbe7ab7c8	-0.2448417
16	0x3e9ea087	0.30981848
17	0x3dfbc113	0.12292685
18	0x3c990622	0.018679682
19	0x3e6b28c1	0.22964765
20	0xbe2af3f5	-0.16694625
21	0xbdacf798	-0.08445662
22	0x3e713eed	0.2355916
23	0xbe22b467	-0.1588913
24	0xbe1c74a8	-0.15278876
25	0x3d1d0861	0.03833807
26	0xbe4197e9	-0.18905605
27	0xbedfc544	-0.4370519
28	0xbe0fd448	-0.14045823
29	0x3e96802a	0.29394656
30	0xbea3ec00	-0.3201599
31	0x3d3dadff	0.046308514
32	0x3d45c07c	0.04827927
33	0x3f0fc4f6	0.56159914
34	0x3cc333ce	0.023828413
35	0x3dea8d30	0.11452711
36	0xbc8540cf	-0.016266255
37	0x3d81362c	0.063091606
38	0x3f602076	0.8754953
39	0xbd9eb607	-0.07749563
40	0x3f0f0f72	0.5588294
41	0x3e40eace	0.18839571
42	0xbd216993	-0.039407324
43	0x3db34df1	0.087551005
44	0xbe9a8a59	-0.30183676
45	0xbe8e31db	-0.27772412
46	0x3d281807	0.04103854
47	0x3e150fbf	0.14556788
48	0x3ed76d96	0.42075795
49	0x3ef05327	0.4693844
50	0xbe9831f4	-0.2972561
51	0x3e82fc0c	0.25582922
52	0x3e5d9f64	0.21642834
53	0x3ea605c8	0.32426286
54	0x3daca4ce	0.084298715
55	0x3f1f957c	0.6233747
56	0xbe7501eb	-0.23926513
57	0xbf144965	-0.5792449
58	0x3e8bdd51	0.2731729
59	0xbec3926d	-0.38197652
60	0x3f5bfdfa	0.8593441
61	0x3f01df6c	0.5073154
62	0x3eecbdc8	0.46238542
63	0x3c8e20f0	0.01734969
64	0xbdae48af	-0.08509957
65	0xbdf8c2f4	-0.12146559
66	0x3ecf7850	0.4052148
67	0xbec82e18	-0.39097667
68	0xbd20d3fc	-0.039264664
69	0x3cfae39f	0.030626116
70	0xbda3d686	-0.079999015
71	0xbd8f28ef	-0.06990229
72	0xbe64e80f	-0.22354148
73	0xbe9530a3	-0.2913867
74	0x3e8448d3	0.2583681
75	0x3ddbd225	0.10733441
76	0xbf1efe9e	-0.62107265
77	0xbe031db3	-0.12804298
78	0xbdcdc147	-0.1004663
79	0xbe936e8e	-0.28795284
80	0xbe7b553f	-0.24544238
81	0xbe8b0fd3	-0.2716051
82	0xbe893908	-0.26801324
83	0x3e818b46	0.2530157
84	0x3e6fc7b8	0.2341603
85	0xbe654340	-0.22388935
86	0x3f123568	0.5711274
87	0x3dc0e1f5	0.09418098
88	0x3de2cbf0	0.11074054
89	0x3ee57d43	0.4482213
90	0xbdc64b5f	-0.09682345
91	0xbd2db6f3	-0.042410802
92	0x3f24bee3	0.6435377
93	0x3e7231ce	0.23651811
94	0x3db11be4	0.08647898
95	0x3f1b8037	0.60742515
96	0x3d9e3983	0.07725813
97	0x3e1b3c3e	0.151597
98	0x3e9168ca	0.2840026
99	0x3e9d9221	0.3077555
100	0x3e4ed5c1	0.20198728
101	0xbe898416	-0.26858586
102	0xbe9cfee5	-0.3066322
103	0xbed45465	-0.41470638
104	0x3e42f9c1	0.19040586
105	0x3da6093d	0.08107231
106	0xbf0302e4	-0.51176286
107	0xbc3c1223	-0.0114789335
108	0x3dc239de	0.094836935
109	0x3e95a4ea	0.29227382
110	0x3e4e433d	0.20142837
111	0xbe59b49e	-0.21260306
112	0xbe03a66b	-0.12856452
113	0x3e87045c	0.26370513
114	0xbe4c5918	-0.19955862
115	0x3e45339f	0.19257973
116	0xbdd2f954	-0.10301462
117	0x3df02f0d	0.11727724
118	0x3e71b065	0.23602445
119	0xbe8530d3	-0.26013812
120	0xbf1a8ebe	-0.6037406
121	0xbe3d81ee	-0.18506595
122	0xbe0144b5	-0.12623866
123	0x3eb6768b	0.35637316
124	0x3e81c9b0	0.25349188
125	0x3cf4f244	0.029900678
126	0x3d38b4a9	0.045094166
127	0x3db5a2ad	0.088689186
128	0x3e549199	0.20758666
129	0xbe5483c6	-0.20753393
130	0x3ea40ce2	0.3204108
131	0xbd867e49	-0.06567056
132	0xbe86c328	-0.26320767
133	0xbdde390a	-0.10850723
134	0x3f0d2d05	0.5514682
135	0x3c062c47	0.0081892675
136	0x3ccebcf9	0.025236594
137	0x3dc7aeb9	0.097501226
138	0xbe17d062	-0.14825585
139	0x3ec44ecf	0.38341376
140	0x3e6a8205	0.22901161
141	0xbd5942e1	-0.053042296
142	0xbec08f23	-0.37609205
143	0xbde09f5d	-0.10967896
144	0xbd51b529	-0.05119816
145	0xbc080ff5	-0.008304586
146	0xbe818d74	-0.25303233
147	0x3e3b14eb	0.18269698
148	0x3d2a27c8	0.041541845
149	0x3deb4fb6	0.11489813
150	0x3e819e1a	0.25315934
151	0x3c3f8eca	0.011691758
152	0xbe821b79	-0.25411585
153	0x3d656288	0.05600217
154	0xbe776143	-0.24158196
155	0x3c5df1a2	0.013546379
156	0xbe3f47c2	-0.18679717
157	0xbeffac20	-0.49936008
158	0x3eb1d04d	0.34729233
159	0x3e1351f9	0.14386739
160	0xbd8bd63a	-0.0682797
161	0x3e5bddab	0.21471278
162	0x3e9b3deb	0.30320677
163	0x3dab72eb	0.08371528
164	0xbc859c1c	-0.01630979
165	0xbe6f2b20	-0.23356295
166	0xbe699099	-0.22809066
167	0xbec6711a	-0.38758165
168	0x3c36c0b1	0.01115434
169	0xbef2a948	-0.47394776
170	0x3ef673a4	0.48135102
171	0x3cb06026	0.021530222
172	0xbe923660	-0.2855711
173	0x3ea266e5	0.31719127
174	0xbe7dfc47	-0.24803267
175	0xbcf23bd0	-0.029569536
176	0x3ea5b3fe	0.32363886
177	0xbe23065e	-0.15920398
178	0xbf0f04e6	-0.5586685
179	0xbdf0d92e	-0.11760174
180	0xbe7a83f1	-0.24464394
181	0xbe2b025a	-0.16700116
182	0x3ee2a3f7	0.4426572
183	0x3ea47470	0.32120085
184	0x3e1d8d0f	0.15385841
185	0xbe5272cc	-0.20551604
186	0xb7591c32	-1.2940773e-05
187	0xbe082504	-0.1329537
188	0xbb0dfbf6	-0.0021665073
189	0xbe734ae1	-0.23759033
190	0x3f04ed59	0.51924664
191	0x3ec446e2	0.3833533
192	0x3e0be156	0.13660178
193	0xbe0fc3ea	-0.14039579
194	0x3ee23299	0.44179228
195	0xbd9354e5	-0.07193927
196	0xbe42c31f	-0.19019745
197	0xbe6d072b	-0.23147266
198	0xbeff0277	-0.49806568
199	0xbdbf9103	-0.09353831
200	0xbe0bc8b7	-0.13650785
201	0x3e46efc6	0.19427404
202	0x3e0b21c2	0.13587096
203	0x3dc68f3c	0.096952885
204	0xbdb42c10	-0.08797467
205	0xbe0082ac	-0.12549847
206	0x3e68b713	0.22726087
207	0xbe054b0c	-0.1301691
208	0x3d7ae97d	0.061257828
209	0xbedea14d	-0.43482438
210	0x3e534e49	0.20635332
211	0xbcdf5019	-0.027259873
212	0xbe4512df	-0.1924548
213	0x3e59053f	0.21193407
214	0xbda11359	-0.078650184
215	0xbdb6a575	-0.08918277
216	0x3e596221	0.2122884
217	0xbc170116	-0.0092165675
218	0xbe8158fd	-0.25263205
219	0xbc5172c1	-0.012783707
220	0xbe84a0cb	-0.25903925
221	0xbed318aa	-0.41229755
222	0x3ce38431	0.027772995
223	0xbd9831c4	-0.07431367
224	0xbc7fcf0b	-0.015613328
225	0xbe91f8e4	-0.285102
226	0x3e875b54	0.26436865
227	0xbdb63280	-0.08896351
228	0xbd8386d9	-0.064222045
229	0xbd9b0ab9	-0.075704046
230	0x3f1d12e9	0.6135698
231	0xbe9f4b4d	-0.31112137
232	0x3e60c7e3	0.2195125
233	0xbf22acfb	-0.635452
234	0x3d21d683	0.039511215
235	0xbe5e245e	-0.2169356
236	0xbde420db	-0.11139079
237	0xbf1772f5	-0.59159786
238	0x3da48076	0.080323145
239	0xbec6bd70	-0.38816404
240	0xbd42bcd9	-0.04754338
241	0xbead5750	-0.33855677
242	0x3f065b19	0.52482754
243	0xbdbbf972	-0.09178437
244	0xbd44878b	-0.047980826
245	0x3dda7226	0.10666303
246	0xbe8d9711	-0.27654317
247	0xbe885cdf	-0.26633355
248	0x3dd5345f	0.104103796
249	0x3f0e92ef	0.5569295
250	0x3e61937a	0.22028914
251	0xbe271a16	-0.16318545
252	0xbce592e0	-0.028024137
253	0xbf2fb5d8	-0.68636847
254	0xbe6b1665	-0.22957762
255	0xbeba1fb9	-0.36352327

weight f4 [24]
0	0x3e652175	0.22376044
1	0x3e5b851d	0.21437497
2	0x3e865c4d	0.26242295
3	0x3e8a2a92	0.26985604
4	0x3e6d8787	0.23196231
5	0x3e89db5f	0.2692518
6	0x3e69b7fb	0.22824089
7	0x3e8c7670	0.2743411
8	0x3e6bfe57	0.23046242
9	0x3e5b5e0f	0.214226
10	0x3e790472	0.24318102
11	0x3e681721	0.22665073
12	0x3e826ec2	0.25475127
13	0x3e5492d1	0.20759131
14	0x3e61c14c	0.22046393
15	0x3e6adaf0	0.2293508
16	0x3e6a0c5d	0.22856279
17	0x3e6a38c6	0.2287322
18	0x3e67d221	0.22638752
19	0x3e6b762f	0.22994302
20	0x3e7bfe6a	0.2460877
21	0x3e64c111	0.22339274
22	0x3e74397b	0.23850052
23	0x3e8b8f66	0.27257842

weight f4 [24, 24, 3]
0	0x3e938e56	0.2881953
1	0xbd6df3cf	-0.058093842
2	0xbe25bbaf	-0.16184877
3	0xbe5c31c1	-0.21503355
4	0xbe44c047	-0.19213973
5	0xbd9c2239	-0.07623715
6	0x3de864a9	0.113473244
7	0xbe82fe46	-0.2558462
8	0x3d94a37d	0.072577454
9	0x3e68ba8e	0.22727415
10	0x3a9a8220	0.0011788048
11	0x3ed775dc	0.42082107
12	0x3e1a9c41	0.15098669
13	0x3cfa3030	0.030540556
14	0x3e3f41ef	0.18677495
15	0x3de07eff	0.109617226
16	0x3d8bb7f6	0.06822197
17	0xbe635692	-0.22200993
18	0x3e6ed6ed	0.23324175
19	0xbe6304f6	-0.22169861
20	0xbe1f5723	-0.15560584
21	0x3d2a3d18	0.04156217
22	0x3dd84789	0.10560519
23	0xbe96da68	-0.29463506
24	0x3e1b22c0	0.15149975
25	0x3bfba2ff	0.0076793428
26	0x3e51a791	0.20474078
27	0x3e59ba58	0.21262491
28	0xbd9bc7a2	-0.07606436
29	0x3d297c1b	0.04137812
30	0xbe453265	-0.19257505
31	0xbec77589	-0.3895686
32	0xbdb4509c	-0.088044375
33	0x3de6f410	0.1127702
34	0xbe2b5346	-0.16730985
35	0xbdbd3eaf	-0.092404716
36	0x3dc0b4c0	0.09409475
37	0x3e06acba	0.13151827
38	0xbe08d0d4	-0.13360912
39	0xbe71e1b3	-0.23621254
40	0xbe4ac7fb	-0.19802849
41	0xbda0f54a	-0.07859285
42	0xbe2035ff	-0.15645598
43	0x3e5a0fe5	0.21295126
44	0x3d91755e	0.07102464
45	0x3eb0b194	0.3451048
46	0x3ea6ee7a	0.32603818
47	0xbd0d2874	-0.034462407
48	0x3dbecc5c	0.09316322
49	0x3c7b8ce3	0.015353414
50	0x3d8d8a02	0.069110885
51	0xbcb4bf66	-0.022063922
52	0x3e9f2a04	0.31086743
53	0xbe839f01	-0.25707248
54	0xbdddc31c	-0.1082823
55	0x3e1cf4a0	0.15327692
56	0xbe1fb709	-0.15597166
57	0xbbdf79aa	-0.0068199234
58	0x3e0b6813	0.1361392
59	0x3e20cd9f	0.15703438
60	0x3d538dc3	0.051648866
61	0xbd925833	-0.07145729
62	0xbdace329	-0.08441765
63	0x3de174e2	0.11008622
64	0x3cf71562	0.030161563
65	0x3e0c00fe	0.13672253
66	0xbdafc2ba	-0.08582063
67	0xbe9cab3c	-0.3059939
68	0xbe688613	-0.22707395
69	0x3de742cf	0.112920396
70	0x3d885dbb	0.06658503
71	0x3e59ac99	0.21257247
72	0xbdc6d8b9	-0.09709305
73	0xbd652f80	-0.055953503
74	0x3e5e1c07	0.21690379
75	0x3e90a0ef	0.28247783
76	0xbdee678f	-0.11640846
77	0xbb5e9b96	-0.0033967248
78	0x3e768ce7	0.24077187
79	0x3e16f953	0.14743547
80	0x3d74baa7	0.059748318
81	0xbc37b0fe	-0.011211632
82	0xbe146acb	-0.14493863
83	0xbe3c5e63	-0.1839538
84	0x3e8f5e23	0.28001508
85	0xbdedd058	-0.11612004
86	0x3de4cca1	0.11171842
87	0xbc6bb324	-0.014385972
88	0xbdd075ca	-0.101787165
89	0xbd81db05	-0.06340603
90	0xbd93bf6c	-0.07214245
91	0xbde0e14a	-0.109804705
92	0x3e797458	0.24360788
93	0x3da41683	0.08012106
94	0xbc886ee5	-0.016654441
95	0x3d9cd673	0.076580904
96	0xbdfe003d	-0.12402389
97	0x3cd143ac	0.025544964
98	0xbcdd83c0	-0.027040362
99	0xbe13ee23	-0.1444631
100	0x3e9c1beb	0.3049005
101	0x3cdf5422	0.027261797
102	0x3e249bcc	0.16075057
103	0x3cbcfdf4	0.023070313
104	0x3e6f7ce3	0.23387484
105	0x3e4f2e9d	0.20232625
106	0xbe5e23f7	-0.21693407
107	0xbd3aed89	-0.045636687
108	0xbdbc8b09	-0.09206206
109	0xbebc4391	-0.367703
110	0x3ea7cfcb	0.3277572
111	0xbe3844e8	-0.17995036
112	0xbd9e1c9f	-0.07720303
113	0xbe3443b6	-0.17603955
114	0x3da7856b	0.08179744
115	0x3e8d3b8e	0.275845
116	0xbe9e225f	-0.30885598
117	0x3c5a91ff	0.013340472
118	0xbd0754d8	-0.033039898
119	0xb846c28a	-4.7388057e-05
120	0x3dbf13c3	0.09329941
121	0xbca224ef	-0.019793002
122	0x3df6c912	0.1205007
123	0xbe1fdfcc	-0.15612715
124	0xbe3b1db2	-0.18273047
125	0xbeb7b182	-0.35877615
126	0x3e290448	0.1650554
127	0xbdc924aa	-0.09821446
128	0xbe0be6db	-0.13662283
129	0x3e2e3664	0.17012936
130	0x3cd5eb8f	0.0261133
131	0x3e877b77	0.26461384
132	0xbe244240	-0.16040897
133	0xbab9a658	-0.0014163954
134	0xbe485104	-0.19562155
135	0x3eb1a736	0.34697884
136	0x3bd70ed9	0.0065630493
137	0xbd884283	-0.06653311
138	0xbd9931de	-0.074802145
139	0x3d038381	0.032107834
140	0xbe064903	-0.1311379
141	0xbdcbb296	-0.09946172
142	0xbe96c8d4	-0.29450095
143	0x3e2edb20	0.17075777
144	0xbd3cfe25	-0.04614081
145	0x3e5d5677	0.21615015
146	0x3b1c3cd0	0.0023839958
147	0xbd0964e7	-0.033543494
148	0xbdd6a3b7	-0.10480445
149	0xbe0a7986	-0.1352292
150	0x3e81ed08	0.25376153
151	0xbe643b09	-0.22288145
152	0xbc57f485	-0.013180857
153	0xbe5150fc	-0.2044105
154	0x3d1d2323	0.038363587
155	0x3c37a26f	0.011208161
156	0xbd07b186	-0.033128284
157	0xbd8af054	-0.0678412
158	0xbd263b89	-0.04058412
159	0x3d00db81	0.031459335
160	0x3e18e554	0.14931232
161	0x3e3735c6	0.17891607
162	0xbe0be366	-0.13660964
163	0x3d606b89	0.054790054
164	0xbdde05e7	-0.108409695
165	0x3e201efb	0.15636818
166	0xbd1dc115	-0.038514215
167	0xbca4fd02	-0.020140175
168	0x3e5242f0	0.20533347
169	0x3dfd7a72	0.1237687
170	0x3ec51b6e	0.3849749
171	0x3df92e42	0.12167026
172	0xbe9389aa	-0.28815967
173	0xbdf4a3a2	-0.11945273
174	0xbd5d3b05	-0.054011364
175	0x3de8b02b	0.113617264
176	0x3c05a68e	0.0081573855
177	0x3dad0223	0.08447673
178	0xbeacae30	-0.33726645
179	0xbe42a1f2	-0.1900709
180	0xbea3dc8b	-0.32004198
181	0x3dc926ed	0.09821878
182	0xbe8f2a1b	-0.2796181
183	0xbbcb029e	-0.0061953804
184	0x3d70e8cb	0.05881576
185	0x3d759c18	0.059963316
186	0x3dd5d798	0.10441512
187	0xbdaf15f1	-0.08549107
188	0xbcfbdeb6	-0.030745845
189	0xbe1dfc90	-0.15428376
190	0xbdc3cd2f	-0.0956062
191	0xbe0e80bd	-0.13916297
192	0xbc095b81	-0.008383633
193	0xbea16353	-0.3152109
194	0x3df728e2	0.12068345
195	0xbd137ad9	-0.03600583
196	0x3dbb3e9c	0.09142801
197	0x3e21f0aa	0.15814462
198	0xbe12ff51	-0.14355208
199	0x3e0b0c4e	0.13578913
200	0xbeaadce3	-0.33371648
201	0x3dce29cc	0.10066566
202	0xbe22fed0	-0.15917516
203	0x3dcaa630	0.09894979
204	0x3d6b9c1a	0.057521917
205	0x3dc1572b	0.09440454
206	0xbdbcb29b	-0.09213754
207	0x3e124fd8	0.1428827
208	0x3dcfaa57	0.101399116
209	0xbdee4271	-0.116337664
210	0x3c83e21a	0.016099025
211	0xbcfb18c3	-0.030651456
212	0xbdae77db	-0.08518954
213	0x3e55fe2e	0.20897743
214	0x3e6ed542	0.23323539
215	0x3e36f16e	0.17865536
216	0x3e0d2b81	0.13786127
217	0x3e91b703	0.2845994
218	0xbe912869	-0.28351143
219	0x3d79d128	0.060990483
220	0xbe553277	-0.20820032
221	0x3e2a6709	0.16640867
222	0x3e15dd4a	0.14635196
223	0x3d52783e	0.051384203
224	0xbd46fde9	-0.04858199
225	0xbd1bf6ff	-0.03807735
226	0xbe7c20b2	-0.24621847
227	0xbea742fa	-0.32668287
228	0x3d5eb694	0.05437334
229	0x3c9cc271	0.019135686
230	0x3e513c13	0.20433073
231	0xbe5c033d	-0.2148561
232	0x3dcd370e	0.100202665
233	0x3ce6c7e4	0.028171487
234	0xbe5674db	-0.20943014
235	0x3e159db7	0.14610945
236	0xbe5a880d	-0.21340962
237	0xbd462af5	-0.04838081
238	0xbe229c90	-0.15880036
239	0xbd60dbe0	-0.05489719
240	0xbdaf3f11	-0.08556951
241	0xbd88e92a	-0.066850975
242	0xbd7681ee	-0.060182504
243	0xbe168bbe	-0.14701745
244	0xbe0f926c	-0.140207
245	0x3eaa4f40	0.33263588
246	0xbdef2a0f	-0.11677944
247	0x3ea3828f	0.31935546
248	0x3e45c465	0.193132
249	0xbdb56814	-0.08857742
250	0xbe778e0c	-0.2417528
251	0xbd9059e1	-0.07048393
252	0xbe31ae82	-0.17351726
253	0xbb7324f3	-0.003710088
254	0xbddf87db	-0.10914584
255	0xbe84b2d5	-0.25917688

bias f4 [24]
0	0x3d8f2e49	0.0699125
1	0x3d5435c7	0.0518091
2	0x3d589f45	0.052886266
3	0xbe00aa7c	-0.12565035
4	0xbd499ad0	-0.049219906
5	0xbdd12790	-0.10212624
6	0x3d805248	0.06265694
7	0x3dce236a	0.100653484
8	0xbcdc4e90	-0.02689293
9	0xbd1fa121	-0.038972024
10	0x3dfada7d	0.122487046
11	0x3dba79cc	0.09105262
12	0x3dcf1446	0.10111289
13	0xba7e9629	-0.00097117067
14	0xbd635d48	-0.05550888
15	0xbd4c9ba3	-0.049953114
16	0xbd9bc045	-0.07605032
17	0x3d0581ab	0.032594364
18	0x3ca6ae14	0.020346679
19	0x3c81c8c9	0.015842812
20	0x3d1e7f14	0.03869541
21	0x3cf3a76b	0.029742917
22	0xbda20b2c	-0.07912287
23	0x3dc9671b	0.09834119

weight f4 [24]
0	0x3e6d3a3b	0.23166744
1	0x3e6c2968	0.2306267
2	0x3e8ddab3	0.27705917
3	0x3e8761b3	0.26441726
4	0x3e6a9d28	0.22911513
5	0x3e55966a	0.2085816
6	0x3e6a5a8f	0.22886108
7	0x3e7d0f02	0.24712756
8	0x3e6c220e	0.23059866
9	0x3e679a26	0.22617397
10	0x3e66efaa	0.22552362
11	0x3e89302c	0.26794565
12	0x3e741185	0.23834808
13	0x3e63a2da	0.22230092
14	0x3e8ed8a3	0.27899656
15	0x3e664780	0.22488213
16	0x3e6800a6	0.22656497
17	0x3e6887ba	0.22708026
18	0x3e794dc1	0.24346067
19	0x3e88b9e0	0.2670431
20	0x3e8ad6b8	0.27116942
21	0x3e5f305d	0.21795793
22	0x3e69433f	0.22779559
23	0x3e6b45eb	0.2297589

weight f4 [24, 24, 3]
0	0x3d313279	0.043261025
1	0xbe899c50	-0.2687707
2	0xbe59a318	-0.21253622
3	0x3d012fba	0.031539656
4	0x3d6e08f2	0.058114
5	0x3d514502	0.0510912
6	0x3d2250f0	0.03962797
7	0x3dedf35f	0.11618685
8	0x3dd3e8ea	0.10347159
9	0x3accf9a3	0.0015638362
10	0xbe49a2a2	-0.19690946
11	0x3dd13847	0.10215812
12	0xbd4c2435	-0.049839217
13	0x3e5be88b	0.21475427
14	0x3eaac92e	0.33356613
15	0x3de7609a	0.11297722
16	0x3dfde98e	0.12398063
17	0xbd0dca27	-0.034616616
18	0x3dae1f76	0.085020944
19	0xbdc3a696	-0.09553258
20	0xbd5ce31b	-0.053927522
21	0x3df106e3	0.11768892
22	0x3ddf0dd1	0.10891307
23	0xbed0eb4a	-0.4080451
24	0x3f008ea4	0.5021765
25	0x3da4f638	0.08054775
26	0x3c2480f7	0.010040513
27	0xbd1000cf	-0.03515702
28	0xbd881698	-0.066449344
29	0x3daa5c39	0.08318371
30	0xbdcfdf9a	-0.101500705
31	0x3d7fb3ff	0.062427517
32	0xbd56e0e4	-0.052460566
33	0x3ddaf27d	0.10690782
34	0xbc66b6a1	-0.014081628
35	0x3d05418f	0.032533225
36	0x3cda11b8	0.026619777
37	0x3dd160e8	0.102235615
38	0xbe43bc0d	-0.19114704
39	0x3eb97e36	0.36229104
40	0xbd96d945	-0.073656596
41	0xbd9535e8	-0.072856724
42	0xbe6336cc	-0.22188872
43	0x3e0ae1ef	0.1356275
44	0xbe182668	-0.14858401
45	0xbdbe58ed	-0.09294305
46	0xbe86345c	-0.26211822
47	0xbe1899dd	-0.14902444
48	0xbd5fb808	-0.054618865
49	0x3c8f4f7e	0.01749396
50	0xbe26ba24	-0.16281945
51	0xbe76c0bb	-0.24096958
52	0xbdd2a187	-0.10284715
53	0xbdcab15f	-0.09897112
54	0xbd9e97fb	-0.07743832
55	0x3cce9b65	0.025220582
56	0x3dcc788a	0.099839285
57	0x3b3ede13	0.0029124066
58	0xbdc84e77	-0.09780591
59	0xbe022758	-0.12710321
60	0xbdb9fff5	-0.09082023
61	0xbd98759d	-0.07444308
62	0x3d2e40b7	0.042542186
63	0x3df64b32	0.12026061
64	0xbdd2b51f	-0.10288452
65	0xbe165592	-0.1468108
66	0x3d5ea54e	0.054356866
67	0x3e6ccdf6	0.23125443
68	0x3de2fb1a	0.1108305
69	0xbd94c652	-0.07264389
70	0x3df63c3f	0.1202321
71	0xbcd5f6cc	-0.026118658
72	0xbd65fdf9	-0.05615041
73	0x3d925d60	0.07146716
74	0x3dfe92df	0.12430357
75	0xbe290d76	-0.16509041
76	0xbdca7dd1	-0.09887279
77	0x3d278409	0.040897403
78	0xbd0abbda	-0.033870555
79	0x3e0c403d	0.1369638
80	0x3d62452d	0.055241752
81	0x3e157df0	0.14598823
82	0x3e02b4c3	0.12764268
83	0xbe8eae3e	-0.2786731
84	0xbe49d11f	-0.1970868
85	0xbe69b253	-0.22821932
86	0xbdcfd154	-0.10147348
87	0xbe31c7e8	-0.17361414
88	0xbdf832d9	-0.121190734
89	0x3d81a72f	0.06330716
90	0x3d6e39b1	0.058160488
91	0xbd581b07	-0.05276015
92	0x3e49b16b	0.19696586
93	0xbd7925af	-0.060826954
94	0xbdcf397c	-0.10118386
95	0x3d907e8b	0.07055386
96	0xbea145b0	-0.3149848
97	0xbe879022	-0.26477152
98	0x3debf4f5	0.11521331
99	0xbda4dd8c	-0.08050069
100	0xbe1d2086	-0.15344438
101	0xbdcc7604	-0.09983447
102	0xbdef6f2c	-0.11691126
103	0xbde5bbb5	-0.11217443
104	0xbe2fddfa	-0.17174521
105	0xbe6173be	-0.22016808
106	0xbe2f66ee	-0.17129108
107	0x3e0e1435	0.13874896
108	0x3e550925	0.2080427
109	0x3d279e50	0.040922463
110	0x3e898525	0.26859394
111	0x3dd356c8	0.103192866
112	0x3cc1e48c	0.02366855
113	0x3d893005	0.06698612
114	0x3daaf522	0.083475366
115	0xbda9b4fd	-0.08286474
116	0xbd65b51e	-0.05608093
117	0xbdcfccfa	-0.10146518
118	0x3e9e83cb	0.30959925
119	0x3d656d71	0.056012575
120	0x3e2152ef	0.15754293
121	0x3d3eaa29	0.046548996
122	0xbd689374	-0.056781247
123	0xbd690d7c	-0.056897625
124	0xbea80961	-0.32819656
125	0x3e5ac2a3	0.2136331
126	0xbe86f174	-0.2635609
127	0x3e153eab	0.14574687
128	0x3e024471	0.12721421
129	0xbea21965	-0.3166
130	0x3db5ed9d	0.08883212
131	0x3eb8c4d3	0.36087665
132	0xbd53b44d	-0.05168562
133	0x3dfaa891	0.12239183
134	0x3e093327	0.1339842
135	0x3d571b46	0.052516244
136	0x3e016c5d	0.12638994
137	0xbcc91313	-0.024545228
138	0xbd75c045	-0.059997816
139	0xbd34ea71	-0.044168893
140	0xbc29d3ea	-0.010365466
141	0x3dba1c46	0.09087424
142	0xbd7ee37a	-0.062228657
143	0xbd92597b	-0.07145973
144	0x3d18db05	0.03731825
145	0xbaf07ae9	-0.0018347177
146	0xbd479fc5	-0.048736352
147	0xbc2457b2	-0.010030674
148	0x3e658a70	0.22416091
149	0x3d3a8678	0.045538396
150	0xbcd708b9	-0.026249276
151	0x3c6271cb	0.013821076
152	0xbcb517b5	-0.022106031
153	0x3eb90a63	0.36140737
154	0xbea33ace	-0.31880802
155	0xbe0f833e	-0.14014909
156	0x3d56cc6e	0.052441053
157	0xbe1e2b3d	-0.15446182
158	0xbe7bf900	-0.24606705
159	0xbe147a6c	-0.14499825
160	0xbe885541	-0.26627544
161	0xbdc04c1c	-0.09389517
162	0xbda438f8	-0.080186784
163	0x3d85d6a0	0.06535077
164	0xbe65604c	-0.22400016
165	0x3dfbf62d	0.12302814
166	0x3e42e27d	0.19031711
167	0xbd60d3a8	-0.05488935
168	0xbcdd6ab9	-0.027028428
169	0xbebd8b95	-0.37020555
170	0x3e2b9582	0.16756251
171	0x3d8e32b3	0.06943264
172	0x3b3b152f	0.0028546562
173	0xbd9b27f2	-0.07575978
174	0xbe8501b5	-0.25977865
175	0xbdcf3ec1	-0.10119391
176	0xbd3aa00e	-0.045562796
177	0x3e9b1e01	0.3029633
178	0xbdad709e	-0.08468746
179	0x3dd06df6	0.101772234
180	0xbdc35c52	-0.09539093
181	0xbe271897	-0.16317974
182	0xbe1c3081	-0.15252878
183	0x3e4b62f4	0.19861966
184	0xbe679dc4	-0.22618777
185	0xbaef0bea	-0.0018237804
186	0x3dc9b8b0	0.098496795
187	0xbdaa7ba2	-0.08324362
188	0x3dca5991	0.09880365
189	0xbe06f3e0	-0.13178968
190	0x3e0a7224	0.13520104
191	0x3ce5a29e	0.028031643
192	0x3d929cb0	0.07158792
193	0xbd517390	-0.0511356
194	0xbd027c54	-0.03185685
195	0xbe1abaff	-0.15110396
196	0x3e665ca9	0.22496285
197	0xbe88aa1b	-0.2669228
198	0xbe8e2213	-0.27760372
199	0x3e7c63cd	0.24647446
200	0x3dec648e	0.11542617
201	0x3c1f3bc5	0.00971884
202	0x3e234fb1	0.15948369
203	0x3dbf43ab	0.093390785
204	0xbe4474cd	-0.19185181
205	0xbe4df6e7	-0.20113717
206	0xbd26f32a	-0.040759243
207	0xbe4f2a3e	-0.20230958
208	0xbc86e690	-0.016467363
209	0x3d8a318a	0.0674773
210	0xbe59a830	-0.21255565
211	0xbd0f1379	-0.03493068
212	0xbdb86c5d	-0.09005044
213	0xbcaa5fd9	-0.020797657
214	0xbd3abc37	-0.045589652
215	0x3d193fbb	0.037414294
216	0x3db6ec58	0.08931798
217	0x3e944f0a	0.28966552
218	0xbe34f3ae	-0.17671081
219	0x3e06456f	0.13112424
220	0xbe3a61d0	-0.18201375
221	0xbcbc0f57	-0.022956533
222	0xbd9aa82f	-0.0755161
223	0xbdae11fe	-0.084995255
224	0xbbcad96d	-0.00619047
225	0xbdeb09e2	-0.11476494
226	0x3c980942	0.018559102
227	0x3e01f50d	0.12691136
228	0xbd6309c8	-0.05542925
229	0xbe2671ae	-0.16254303
230	0xbe99927c	-0.2999457
231	0x3e24c66c	0.16091317
232	0x3e5f2fb5	0.21795543
233	0xbc6fbe65	-0.014632796
234	0x3db02570	0.08600891
235	0x3d582153	0.052766155
236	0xbddcf280	-0.10788441
237	0x3e8d1254	0.27553046
238	0xbd4bd21d	-0.049760927
239	0xbdb5f886	-0.08885293
240	0xbe0a523f	-0.13507937
241	0x3cd8a8c5	0.026447663
242	0xbda05d92	-0.07830347
243	0x3d0c0c0b	0.034191173
244	0x3db707a8	0.08937007
245	0xbdb7d71f	-0.08976578
246	0xbe836303	-0.25661477
247	0xbe902349	-0.2815192
248	0x3d740a60	0.059580207
249	0x3df0e871	0.11763085
250	0x3dcf16d1	0.10111774
251	0xbdf3a066	-0.11895828
252	0xbd0445de	-0.032293193
253	0xbeaf54bb	-0.34244332
254	0xbecc9913	-0.39960536
255	0x3e55139f	0.20808266

bias f4 [24]
0	0x3dacbcef	0.08434474
1	0xbd084fa6	-0.033279084
2	0xbde0b2c2	-0.10971595
3	0xbcdc69d1	-0.026905926
4	0x3d89babb	0.06725069
5	0x3db55d83	0.088557266
6	0x3d92485b	0.07142707
7	0xbd4b5364	-0.049640074
8	0x3cb55403	0.022134786
9	0x3cbb0e78	0.022834048
10	0xbd15f997	-0.03661498
11	0xbd949e0b	-0.07256707
12	0xbc824172	-0.015900347
13	0xbdd0393d	-0.10167167
14	0x3c3ee63c	0.011651572
15	0xbddb3cab	-0.10704931
16	0xbd0682dd	-0.032839645
17	0xbdb4ad25	-0.08822087
18	0x3ba69e9d	0.005084826
19	0x3b7e62f2	0.00388163
20	0xbdaba556	-0.08381145
21	0x3cfb99eb	0.030713042
22	0xbdbce85e	-0.09224008
23	0x3d8bdf2f	0.06829678

weight f4 [24]
0	0x3e87b632	0.26506191
1	0x3e849b51	0.25899747
2	0x3e62ede9	0.22161068
3	0x3e7bce6a	0.2459046
4	0x3e65ddbf	0.2244787
5	0x3e59ac1e	0.21257064
6	0x3e8a780b	0.2704471
7	0x3e86ebe2	0.2635184
8	0x3e84b920	0.2592249
9	0x3e7f770a	0.24947754
10	0x3e7cd747	0.24691497
11	0x3e4bf41f	0.19917344
12	0x3e90d09f	0.28284165
13	0x3e848551	0.25882962
14	0x3e834041	0.2563496
15	0x3e6216d1	0.22079016
16	0x3e5ec9af	0.21756624
17	0x3e5ac508	0.21364224
18	0x3e6c0595	0.23049004
19	0x3e57e6de	0.21084163
20	0x3e66f30d	0.22553654
21	0x3e716bc8	0.23576272
22	0x3e84eed8	0.25963473
23	0x3e6bc959	0.23026027

weight f4 [24, 24, 3]
0	0x3e3cf389	0.18452276
1	0x3dd77ce6	0.10521869
2	0x3e9b1463	0.3028899
3	0xbbe53792	-0.00699515
4	0xbe24991d	-0.16074033
5	0x3d8aafdd	0.067718245
6	0x3db13434	0.08652535
7	0xbe9e38c4	-0.30902684
8	0xbe89e443	-0.26931962
9	0x3cdb830f	0.026795892
10	0x3c8ce010	0.017196685
11	0x3eaa4617	0.332566
12	0xbdf0ebc8	-0.11763722
13	0x3d397c13	0.045284342
14	0x3e89f644	0.26945698
15	0xbda1f1f4	-0.07907477
16	0xbdd5d12d	-0.10440288
17	0x3ca25f43	0.019820815
18	0x3e0f9e29	0.14025177
19	0xbc981acf	-0.01856747
20	0x3b283edc	0.0025672233
21	0x3cf7ce74	0.030249812
22	0xbe7a5824	-0.24447685
23	0xbe435dd7	-0.19078766
24	0xbe1b39cd	-0.15158768
25	0x3e4f0f6a	0.20220724
26	0x3ecdf924	0.40229142
27	0xbed42be7	-0.41439745
28	0xbd1df0cf	-0.03855973
29	0xbeaedbf9	-0.341522
30	0xbd72e983	-0.059304725
31	0xbdeba2ea	-0.11505683
32	0xbc3809d6	-0.011232814
33	0xbdbb716c	-0.09152493
34	0xbdd4ad10	-0.103845716
35	0xbd354d4f	-0.04426318
36	0x3dacdc6d	0.084404804
37	0x3e4b7b3b	0.19871227
38	0x3e28bc6f	0.16478132
39	0xbe4857ce	-0.19564745
40	0xbe970944	-0.29499257
41	0x3e809d97	0.25120232
42	0xbdd41952	-0.10356392
43	0x3d5f2852	0.05448181
44	0x3d8ac17e	0.06775187
45	0x3e22af92	0.15887287
46	0xbd73612a	-0.059418835
47	0xbe607498	-0.21919477
48	0xbc3581e0	-0.011078328
49	0x3dfebc65	0.12438277
50	0xbd59bcef	-0.053158697
51	0x3cf81b70	0.03028652
52	0x3e346ff0	0.17620826
53	0xbe6896fa	-0.22713843
54	0x3e3b4503	0.18288045
55	0x3e2b716d	0.16742487
56	0x3dbef6c5	0.09324411
57	0x3e8772f8	0.26454902
58	0xbe1c4680	-0.15261269
59	0x3d064efe	0.032790177
60	0x3d6bd0d0	0.057572186
61	0x3caf9d44	0.021437295
62	0x3bc3b161	0.005972073
63	0xbca693da	-0.020334173
64	0x3e12cf74	0.1433695
65	0xbd80267d	-0.06257341
66	0x3c852add	0.01625579
67	0x3e2940f0	0.16528678
68	0xbc1dda01	-0.009634496
69	0xbe8c010f	-0.27344558
70	0xba31478c	-0.00067626755
71	0xbe93e893	-0.28888378
72	0x3e40e9b5	0.18839152
73	0x3da8911c	0.082308024
74	0xbd93f045	-0.07223562
75	0x3c9433ae	0.018091049
76	0x3e9aa53b	0.30204186
77	0x3e7c9f5e	0.24670169
78	0x3d75c4cc	0.060002133
79	0xbe019d95	-0.12657769
80	0x3dd84a0a	0.10560997
81	0xbe4d59e2	-0.20053819
82	0xbc87c2cc	-0.016572379
83	0x3d2dbcd5	0.042416412
84	0xbb829419	-0.00398494
85	0xbd59036f	-0.05298179
86	0xbe09e097	-0.1346458
87	0xbe0e8295	-0.13917
88	0x3c9be118	0.019028232
89	0x3d57c7eb	0.05268089
90	0xb9918b96	-0.00027760555
91	0xbc1f2341	-0.009712995
92	0x3e602d5c	0.21892303
93	0xbe7c0c47	-0.24614058
94	0x3da4f255	0.08054034
95	0xbe78725c	-0.24262375
96	0xbe871e3d	-0.26390257
97	0x3dd5c1f1	0.10437382
98	0xbd339bca	-0.043849744
99	0xbe2b5083	-0.16729932
100	0x3e787a59	0.24265422
101	0x3dd84471	0.10559929
102	0xbe94c123	-0.29053602
103	0xbc0a2a34	-0.008432914
104	0xbe44598b	-0.19174783
105	0xbe3850c4	-0.1799956
106	0x3e468083	0.19384961
107	0xbc614b69	-0.013750889
108	0x3e442fa0	0.19158792
109	0x3e100a31	0.14066388
110	0xbeaecb91	-0.34139684
111	0x3eab8e3c	0.33506954
112	0x3d141e25	0.03616156
113	0x3b486480	0.003057748
114	0x3d8b6144	0.06805661
115	0x3e26c9e8	0.16287959
116	0x3d9008a6	0.070328996
117	0xbe918e0b	-0.28428683
118	0xbe499335	-0.19685061
119	0xbe3f70b4	-0.18695337
120	0xbe12bffb	-0.14331047
121	0x3d81ac98	0.06331748
122	0xbc625160	-0.013813347
123	0xbe46e156	-0.19421896
124	0x3e904135	0.2817475
125	0xbe1639d7	-0.14670502
126	0x3e3252c9	0.17414393
127	0x3e082993	0.1329711
128	0x3e4761e2	0.19470933
129	0xbe307f6b	-0.17236106
130	0x3e9a61f0	0.30152845
131	0x3e2fa1f6	0.17151627
132	0xbe13376b	-0.14376609
133	0xbe827601	-0.25480655
134	0x3cabdeb0	0.02098021
135	0x3d4fb158	0.050706238
136	0x3d37b469	0.044849787
137	0x3e120725	0.14260538
138	0xbdcb6738	-0.09931797
139	0xbc5ba6b3	-0.013406443
140	0x3d953275	0.072850145
141	0xbd830a0f	-0.06398403
142	0x3e80d265	0.25160518
143	0x3d6c6644	0.057714716
144	0xbe43e36a	-0.1912972
145	0x3d269d44	0.040677324
146	0xba60ce64	-0.00085756765
147	0x3e641406	0.22273263
148	0x3b98ee1f	0.004667058
149	0x3dbb5539	0.09147114
150	0xbd2e670c	-0.042578742
151	0x3c11792b	0.008878986
152	0xbe881fda	-0.265868
153	0xbe89b129	-0.26892975
154	0xbeaee35c	-0.34157836
155	0xbea9129e	-0.33022016
156	0x3c460934	0.012087155
157	0x3eaf84ce	0.3428101
158	0xbd1e2ba9	-0.038615856
159	0xbdaf236c	-0.08551678
160	0x3ea7a453	0.32742557
161	0xbc53e363	-0.012932631
162	0xbdac57ce	-0.08415185
163	0x3d05adda	0.0326365
164	0xbe021bb5	-0.12705882
165	0xbe9767b2	-0.295713
166	0x3c8b2fae	0.016990509
167	0xbe7fd598	-0.24983823
168	0xbeb543e8	-0.3540337
169	0x3bb2b44b	0.0054536215
170	0x3e193a45	0.14963634
171	0xbd159207	-0.036516216
172	0xbe8da4ce	-0.27664798
173	0xbd8f3472	-0.06992425
174	0x3e68a492	0.22719029
175	0xbe8b421f	-0.27198884
176	0xbde1fdd4	-0.11034742
177	0xbd985e0b	-0.07439812
178	0xbceb5084	-0.028724916
179	0xbc659970	-0.014013633
180	0x3d271011	0.040786806
181	0x3eb98a91	0.3623853
182	0xbd73f732	-0.059561916
183	0x3ebb224a	0.36549598
184	0x3e97c469	0.29642037
185	0x3da0efd1	0.07858241
186	0xbe28d79e	-0.16488501
187	0xbd85bc39	-0.06530041
188	0xbd015b39	-0.031581137
189	0x3d4443b1	0.047916118
190	0x3e0ec4fa	0.13942328
191	0x3e2cba22	0.16867879
192	0x3caa5466	0.020792197
193	0x3e3ea96f	0.18619321
194	0xbdff9588	-0.12479693
195	0xbeb089d1	-0.34480146
196	0x3e353636	0.17696461
197	0xbe1e40a3	-0.15454344
198	0xbdd69754	-0.10478082
199	0x3d573f57	0.05255064
200	0x3e0c6f36	0.13714299
201	0xbdc5f39c	-0.096656054
202	0x3ebe2dac	0.3714422
203	0xbe640222	-0.22266439
204	0x3cc74f92	0.024329934
205	0xbe350d54	-0.17680866
206	0x3e460975	0.19339545
207	0x3c9da800	0.019245148
208	0xbd2f1252	-0.04274208
209	0xbd920f87	-0.07131868
210	0xbd659366	-0.056048773
211	0x3e53a38b	0.20667855
212	0xbe5f884c	-0.21829337
213	0x3d9dab05	0.07698635
214	0xbe28a3c1	-0.16468717
215	0xbc9b4be2	-0.018957082
216	0xbe491d76	-0.19640145
217	0xbc3bc17b	-0.011459704
218	0xbec5968d	-0.38591424
219	0xbcaf9c52	-0.021436844
220	0x3ddb984b	0.10722407
221	0x3c197c8e	0.009368075
222	0x3e6fb43c	0.23408598
223	0xbb62656b	-0.0034545313
224	0xbe113d56	-0.14183554
225	0x3db8214c	0.08990726
226	0xbbe7b2e0	-0.007070884
227	0xbce9a4a9	-0.028520899
228	0x3ddea8e1	0.10872055
229	0xbc5c25d6	-0.013436755
230	0xbe1ece97	-0.15508495
231	0x3d931382	0.07181455
232	0x3e64c412	0.2234042
233	0x3dcd770c	0.10032472
234	0xbe15926e	-0.1460664
235	0xbe269ff8	-0.1627196
236	0xbddc16db	-0.10746547
237	0x3df746d2	0.12074055
238	0x3b73c22c	0.0037194593
239	0xbe6c8bca	-0.231002
240	0xbe7795f6	-0.241783
241	0x3ec38626	0.38188285
242	0x3e058a4f	0.13041042
243	0x3c9d20a4	0.019180603
244	0xbe650f63	-0.22369151
245	0x3e785dc5	0.2425452
246	0xbd31ece5	-0.04343881
247	0x3df13284	0.11777213
248	0x3eb12250	0.3459649
249	0x3e3b9686	0.18319139
250	0xbd967584	-0.07346633
251	0x3e7b2c7b	0.24528687
252	0xbe9f729c	-0.31142128
253	0xbd2facfc	-0.04288958
254	0xbe26a736	-0.16274723
255	0xbdd30ed9	-0.10305566

bias f4 [24]
0	0xbd2f6f09	-0.0428305
1	0x3d56eb85	0.052470703
2	0x3d9a7c08	0.07543188
3	0x3d596885	0.053078193
4	0xbced8af8	-0.02899693
5	0x3d11e4d3	0.035618614
6	0x3d463ec0	0.048399687
7	0xbb83cafb	-0.004022
8	0xbd58d733	-0.052939605
9	0xbdba0a25	-0.09083966
10	0x3dd33a36	0.10313837
11	0xbceea1fd	-0.029129976
12	0xbce89106	-0.028389465
13	0xbe0bbcfa	-0.13646308
14	0xbdccad12	-0.09993948
15	0x3ce27bed	0.027646983
16	0x3c821e3e	0.015883561
17	0x3d8e3c3a	0.06945081
18	0xbde32b53	-0.11092248
19	0x3dd1a919	0.10237331
20	0x3b4da54e	0.0031379047
21	0xbdbd9dd9	-0.09258623
22	0xbdb62b3e	-0.088949665
23	0xbde2602f	-0.11053502

weight f4 [24]
0	0x3e695a78	0.22788417
1	0x3e64bd9a	0.22337952
2	0x3e650da4	0.22368485
3	0x3e65ae64	0.22429806
4	0x3e6c10ce	0.23053285
5	0x3e6d597a	0.23178664
6	0x3e92783f	0.28607365
7	0x3e6fe782	0.23428157
8	0x3e87335b	0.2640637
9	0x3e6b4de4	0.22978932
10	0x3e61dc02	0.22056583
11	0x3e8714a9	0.2638295
12	0x3e5df671	0.21676041
13	0x3e83d9a6	0.2575199
14	0x3e8cdd48	0.27512574
15	0x3e5b86c6	0.2143813
16	0x3e8757ba	0.26434118
17	0x3e6a9261	0.22907402
18	0x3e8a2ad2	0.26985794
19	0x3e661659	0.22469462
20	0x3e65e923	0.22452216
21	0x3e8ada27	0.27119562
22	0x3e6765f4	0.22597486
23	0x3e8808f4	0.2656933

weight f4 [24, 24, 3]
0	0xbea13a00	-0.31489563
1	0x3ca6fad9	0.020383285
2	0x3de3ee9a	0.11129494
3	0xbe45bf4a	-0.19311252
4	0xbe1b109c	-0.15143055
5	0x3e255345	0.16145046
6	0xbea53059	-0.3226345
7	0xbe5e5c9b	-0.21715014
8	0xbe4b0fe6	-0.19830284
9	0x3dbc5ef6	0.091978
10	0x3c0074cb	0.007840346
11	0x3db2d54f	0.08732092
12	0x3c678dca	0.014132926
13	0xbdb7d59b	-0.08976289
14	0xbdb907bd	-0.09034679
15	0xbd738dcc	-0.0594614
16	0xbdf28e70	-0.11843574
17	0x3e689a25	0.22715051
18	0x3da92b58	0.0826022
19	0xbddee114	-0.10882774
20	0xbe002e1e	-0.12517592
21	0xbe3effaa	-0.18652216
22	0xbe5a43ee	-0.21314976
23	0xbd512885	-0.051064033
24	0xbe081e4c	-0.13292807
25	0x3e215c5b	0.15757887
26	0xbef9f324	-0.48818314
27	0x3d205ee7	0.039153006
28	0xbe180a58	-0.14847696
29	0xbe8006c1	-0.25005153
30	0xbdfd245c	-0.123604506
31	0xbdcc18de	-0.099656805
32	0x3ebddcb7	0.37082455
33	0xbe39693f	-0.18106554
34	0x3dcdb51d	0.1004431
35	0x3d1583b4	0.036502555
36	0xbdba4457	-0.09095066
37	0x3d1b4c54	0.03791459
38	0x3da22649	0.079174586
39	0x3ccfd7c2	0.025371436
40	0x3e334fb7	0.17510878
41	0x3d2fb9f1	0.042901937
42	0x3e91b77b	0.28460297
43	0x3de7d62d	0.11320148
44	0x3ed0298c	0.40656698
45	0x3ec1f64c	0.37883222
46	0xbf08f30b	-0.53495854
47	0x3e079c04	0.13243109
48	0x3df702e5	0.12061099
49	0xbeb2c8d5	-0.34918848
50	0xbd932310	-0.07184422
51	0xbec0b254	-0.37636054
52	0xbdd8b06d	-0.105805255
53	0xbdb567a9	-0.08857662
54	0xbe1e44f6	-0.15455994
55	0xbd039c95	-0.03213175
56	0x3d001711	0.031271998
57	0xbc85f403	-0.016351705
58	0x3c838add	0.016057426
59	0xbcc585ad	-0.024111593
60	0x3dc5b6c5	0.09654001
61	0xbe77ac93	-0.24186926
62	0xbd49c99f	-0.049264546
63	0xbd0e4c19	-0.03474054
64	0xbdf4b0db	-0.11947795
65	0x3e0dde8f	0.1385443
66	0x3e1c6f28	0.15276778
67	0xbd4f6b9f	-0.050639745
68	0x3e6f71c8	0.23383248
69	0xbdd5f77a	-0.10447593
70	0xbe15307d	-0.14569278
71	0x3e0204f0	0.12697196
72	0x3d43aac9	0.047770295
73	0xbe0f271c	-0.13979763
74	0xbdcb5628	-0.099285424
75	0xbdbdcbb1	-0.09267367
76	0xbdba20d2	-0.09088291
77	0x3e2827f9	0.16421498
78	0x3e47099f	0.19437264
79	0x3e1aa23c	0.1510095
80	0xbeb8a561	-0.36063674
81	0x3d14fa5c	0.036371574
82	0xbe3b7b27	-0.18308698
83	0x3e61692a	0.22012773
84	0xbd8a0b91	-0.06740487
85	0xbcb1ce6b	-0.021704873
86	0xbe47a271	-0.1949556
87	0xbda3d7e4	-0.08000162
88	0xbd88566d	-0.066571094
89	0xbd1354e2	-0.035969622
90	0xbe886f32	-0.26647335
91	0xbd20c14f	-0.039246853
92	0x3ebd1b75	0.3693501
93	0xbde9db3a	-0.11418767
94	0xbd3d5cfd	-0.04623126
95	0xbdb22679	-0.08698744
96	0xbde77dcd	-0.113032915
97	0xbd6bb06c	-0.057541296
98	0x3e42eaf8	0.19034946
99	0x3dafc867	0.085831456
100	0x3e96af11	0.2943044
101	0x3caebf9e	0.021331605
102	0xbd8d8c25	-0.06911496
103	0xbe2aef75	-0.16692908
104	0xbd9433d0	-0.07236445
105	0xbd44976c	-0.04799597
106	0xbe9d4268	-0.30714726
107	0x3e64390c	0.22287387
108	0xbb835190	-0.0040075257
109	0xbb92bfea	-0.0044784443
110	0xbe6240f6	-0.22095093
111	0xbc8558c2	-0.016277675
112	0x3e8f2557	0.27958176
113	0x3d093e73	0.03350682
114	0x3e04b9fa	0.1296157
115	0xbded6d75	-0.11593143
116	0x3e3816a0	0.17977381
117	0x3dffeb1c	0.124960154
118	0xbcd22374	-0.025651671
119	0x3d370209	0.044679675
120	0xbdc2c919	-0.095110126
121	0x3d420a4a	0.047373094
122	0xbdbd6db2	-0.09249438
123	0xbe1554d0	-0.14583135
124	0x3e05f142	0.13080314
125	0xbe7a5748	-0.24447358
126	0xbdc638d6	-0.09678809
127	0x3ccdc153	0.025116598
128	0xbe2c699c	-0.16837162
129	0xbd1adf31	-0.03781051
130	0x3d0ad5a1	0.03389514
131	0xbd7fb1f7	-0.06242558
132	0x3de6ca82	0.11269094
133	0xbdc69441	-0.09696246
134	0x3c938c9b	0.018011382
135	0x3d89d156	0.06729381
136	0xbddc7983	-0.10765364
137	0x3df7a1c0	0.12091398
138	0x3e791fb8	0.24328506
139	0xbdb386d3	-0.0876595
140	0x3e9f1a99	0.3107498
141	0x3ecadf99	0.39623716
142	0x3e0bb683	0.13643841
143	0xbeb92a01	-0.3616486
144	0xbd58cd45	-0.052930135
145	0xbddf6a53	-0.109089516
146	0x3d6c2e60	0.057661414
147	0xbe704d0d	-0.23466893
148	0xbe35e481	-0.17762949
149	0xbe5000bf	-0.20312785
150	0x3cc17b9b	0.02361851
151	0xbdcdd206	-0.100498244
152	0x3d99a6db	0.07502528
153	0xbd0b3ea4	-0.033995286
154	0xbd6f2fef	-0.058395322
155	0xbea2be85	-0.3178598
156	0x3d3a8097	0.04553279
157	0xbe3c1aa7	-0.18369542
158	0xbe9b8ce2	-0.30380923
159	0x3e1bef64	0.15228039
160	0xbdbbe6e0	-0.09174895
161	0xbdd4795a	-0.103747085
162	0xbd77ea8e	-0.060526423
163	0x3e3da038	0.1851815
164	0xbe90f536	-0.2831208
165	0xbe0a5dd5	-0.13512357
166	0xbe10167e	-0.1407108
167	0xbb1980ce	-0.002342272
168	0xbde66136	-0.1124901
169	0x3dfba7fd	0.122879006
170	0x3e859b39	0.26094988
171	0x3de37f4d	0.11108265
172	0x3d96a000	0.07354736
173	0x3d64ce2e	0.05586069
174	0x3db5c586	0.08875565
175	0x3df0b602	0.11753465
176	0xbe91154f	-0.2833657
177	0xbe757798	-0.23971403
178	0xbe70e4c1	-0.23524763
179	0x3ea01ef0	0.31273603
180	0x3e8b1a0b	0.27168307
181	0x3dcf495f	0.10121416
182	0xbe1e2914	-0.15445358
183	0x3dff47ec	0.1246489
184	0xbd511eef	-0.05105489
185	0xbdc42ae8	-0.09578496
186	0x3d83f9dd	0.06444142
187	0xbdf7a047	-0.12091117
188	0x3ea65c0b	0.32492098
189	0xbe0d49ad	-0.13797636
190	0xbd1f6d72	-0.038922735
191	0xbec9d59b	-0.3942078
192	0xbe3fd9ad	-0.1873538
193	0xbe21d79a	-0.15804902
194	0xbd85bb7a	-0.06529899
195	0x3e0a9998	0.13535154
196	0xbc3d9eeb	-0.0115735335
197	0x3eac5062	0.33655077
198	0x3ddf2023	0.108948015
199	0x3e1230d1	0.14276434
200	0x3b042119	0.002016133
201	0xbe115281	-0.14191629
202	0xbbb2197e	-0.005435168
203	0x3d93f191	0.072238095
204	0xbd22fdba	-0.039792754
205	0x3b4deea6	0.0031422763
206	0x3e0c49fb	0.13700096
207	0x3db9efda	0.09078951
208	0xbc7e6fd6	-0.015529593
209	0xbdff63de	-0.1247022
210	0xbe2e2888	-0.17007649
211	0xbe3a1854	-0.18173343
212	0xbe2cc3a7	-0.1687151
213	0xbe47e9e9	-0.19522823
214	0x3e5673b9	0.20942582
215	0x3d6998df	0.057030555
216	0xbdfe7ea9	-0.12426502
217	0x3dc744f0	0.09729946
218	0x3e3ee306	0.1864129
219	0x3db4701c	0.08810446
220	0xbd60b834	-0.05486317
221	0x3de564ac	0.11200842
222	0xbc74b22f	-0.01493506
223	0x3e1624a9	0.14662422
224	0x3d1a0a13	0.037607264
225	0x3de99395	0.11405102
226	0xbe222a47	-0.1583644
227	0x3e1032d1	0.14081885
228	0x3d977639	0.07395596
229	0xbcc2403b	-0.023712268
230	0xbe72210c	-0.23645419
231	0xbe1fd83d	-0.15609832
232	0x3da9e50e	0.08295642
233	0xbeb0c436	-0.34524697
234	0x3e823225	0.25428882
235	0x3e720a4f	0.23636745
236	0x3e07d7f7	0.13265978
237	0xbe0b3b1b	-0.13596766
238	0x3eca9470	0.39566374
239	0xbeb2c2d3	-0.34914264
240	0xbe76ab7f	-0.24088858
241	0xbd861ec7	-0.06548839
242	0xbe3294b9	-0.17439546
243	0xbd848f10	-0.064725995
244	0x3e7814c1	0.24226667
245	0x3d864046	0.06555228
246	0x3df5b9e6	0.11998348
247	0xbc8c2b0d	-0.017110372
248	0xbe280a5e	-0.16410205
249	0x3e13f716	0.14449725
250	0xbd949fd2	-0.07257046
251	0xbe8af2ca	-0.27138358
252	0xbd983ed5	-0.07433859
253	0x3e8526d9	0.260062
254	0xbcec57ac	-0.028850399
255	0x3e6d5bba	0.23179522

bias f4 [24]
0	0xbdd2d7e3	-0.102950834
1	0xbd897f91	-0.067137845
2	0x3dba5d12	0.09099783
3	0xbd91a4de	-0.07111524
4	0x3d001174	0.031266645
5	0xbdf7f7d0	-0.12107813
6	0xbd9a3155	-0.075289406
7	0x3d18669d	0.037207235
8	0xbd9dddb4	-0.07708302
9	0xbcd4eb8b	-0.025991222
10	0x3d88f7e2	0.06687905
11	0x3d3bf7ea	0.045890726
12	0x3ceac213	0.028656995
13	0xbddf2b58	-0.10896939
14	0xbd14ffb2	-0.036376663
15	0x3c0c18b3	0.008550811
16	0xbc051eea	-0.008125046
17	0xbbf70c31	-0.007539295
18	0x3d07a08e	0.0331121
19	0x3ba8b9c6	0.005149099
20	0xbd88890e	-0.06666766
21	0x3db5cd57	0.08877056
22	0xbd99bcc4	-0.07506707
23	0xbde132bc	-0.10996005

weight f4 [24]
0	0x3e8989d9	0.26862982
1	0x3e85ec2b	0.26156744
2	0x3e7f3bfb	0.24925224
3	0x3e7172ae	0.23578903
4	0x3e669ff6	0.22521958
5	0x3e815b4d	0.2526497
6	0x3e89da6e	0.2692446
7	0x3e68e3e2	0.2274318
8	0x3e653511	0.22383524
9	0x3e838a3a	0.25691396
10	0x3e6952c9	0.22785486
11	0x3e6b17a2	0.22958234
12	0x3e7a274b	0.24429052
13	0x3e833fad	0.25634518
14	0x3e6debb9	0.23234452
15	0x3e67006e	0.22558758
16	0x3e89cbd0	0.2691331
17	0x3e5b46d7	0.21413742
18	0x3e6c4bf9	0.23075856
19	0x3e6bb6a1	0.23018886
20	0x3e6bc7a4	0.23025376
21	0x3e8419d5	0.25800958
22	0x3e681738	0.22665107
23	0x3e67c3ac	0.22633237

weight f4 [24, 24, 3]
0	0xbed0adaa	-0.40757495
1	0xbc98a014	-0.018631019
2	0xbe53bb94	-0.20677024
3	0xbd0cf2b9	-0.034411166
4	0xbe556208	-0.20838177
5	0x3d823468	0.06357652
6	0xbddcbc58	-0.10778111
7	0x3e3b9bf5	0.18321212
8	0xbee9d803	-0.45672616
9	0x3bfb0feb	0.0076618097
10	0x3e4eb1b8	0.20184982
11	0x3f04559c	0.5169313
12	0x3dd347ed	0.10316453
13	0x3e3cf69b	0.18453448
14	0x3c1e3d47	0.009658164
15	0x3c58861b	0.013215567
16	0x3c9a0bc2	0.018804435
17	0xbdf3a801	-0.118972786
18	0xbe51f975	-0.20505317
19	0xbdd75a0d	-0.10515223
20	0x3dcf0cb7	0.10109847
21	0xbc9fc32c	-0.019502245
22	0x3e991239	0.29896715
23	0x3e75002e	0.2392585
24	0xbe090f3a	-0.13384715
25	0x3dc369a5	0.095416345
26	0xbe1f886d	-0.15579386
27	0xbbe38997	-0.006943892
28	0xbd91568b	-0.07096585
29	0xbdfba6c7	-0.1228767
30	0x3e2dfcc6	0.16990957
31	0xbb3767fb	-0.0027985561
32	0xbe8203f6	-0.25393647
33	0xbddff63b	-0.109356366
34	0x3e683952	0.22678116
35	0x3ab47f7e	0.0013770906
36	0x3e0409c4	0.1289435
37	0x3c249c87	0.010047085
38	0x3de69807	0.11259466
39	0xbd7d99fd	-0.061914433
40	0x3df05150	0.11734259
41	0x3d9e98d9	0.07743997
42	0x3d8be084	0.06829932
43	0xbc88cb61	-0.016698541
44	0xbd6908a3	-0.056893002
45	0x3e81f344	0.2538091
46	0x3e209cb3	0.15684776
47	0xbdd5124c	-0.104038805
48	0xbe1d4679	-0.15358914
49	0x3e172cc4	0.1476317
50	0x3dcb5e94	0.09930149
51	0x3dd837aa	0.10557492
52	0x3d7704a8	0.060307175
53	0xbe4f5280	-0.20246315
54	0x3da5f940	0.08104181
55	0xbd4cb8e8	-0.049981028
56	0x3db17404	0.08664706
57	0xbd005aca	-0.031336583
58	0xbd877bb3	-0.06615391
59	0x3e96b128	0.29432034
60	0x3d01e5d9	0.03171334
61	0x3e11e8c1	0.14248945
62	0xbd4d1bac	-0.050075218
63	0xbc7c35cc	-0.015393686
64	0xbeab8ebb	-0.33507332
65	0x3cec554a	0.028849263
66	0xbc444769	-0.011979916
67	0x3ce74cc6	0.02823485
68	0x3e4376d2	0.19088295
69	0x3dc84ed8	0.09780663
70	0xbe4ed122	-0.20196965
71	0xbdaa996d	-0.08330045
72	0xbdbaf8b6	-0.09129469
73	0x3f121eea	0.5707842
74	0x3de5aa1f	0.11214089
75	0x3e918dce	0.284285
76	0xbd457567	-0.048207667
77	0x3cbf6930	0.023365587
78	0x3a29142d	0.0006449845
79	0xbe0b0180	-0.13574791
80	0x3cfc24a0	0.030779183
81	0x3e85812a	0.26075107
82	0xbebd199c	-0.369336
83	0x3dc2eb73	0.095175646
84	0x3e1fbaf8	0.15598667
85	0x3e7a74e6	0.24458656
86	0xbdc49509	-0.09598739
87	0x3d1ca8cc	0.038246915
88	0x3e2b94c9	0.16755976
89	0x3d868237	0.06567805
90	0xbe4070a8	-0.18792975
91	0xbde52a9c	-0.11189768
92	0xbef91759	-0.48650625
93	0x3cc9eb68	0.024648383
94	0x3ea34d0a	0.31894714
95	0x3d9139bb	0.07091089
96	0xbdac9493	-0.08426776
97	0x3d89efd2	0.06735195
98	0x3e4d124f	0.20026515
99	0xbe61ec58	-0.22062814
100	0x3e184f61	0.1487403
101	0xbe101744	-0.14071375
102	0xbc4a3a48	-0.012342997
103	0x3cbd0069	0.023071485
104	0xbdc30a0d	-0.095234014
105	0xbd9911ad	-0.074740745
106	0x3e86130b	0.26186404
107	0xbdb01f76	-0.08599751
108	0xbc87602f	-0.016525356
109	0xbe30534c	-0.17219275
110	0xbd7fe34e	-0.062472634
111	0xbdc5ec57	-0.09664219
112	0xbce6e412	-0.028184924
113	0xbe9c61da	-0.30543405
114	0xbea0afce	-0.31384128
115	0x3d2bbdec	0.04192917
116	0x3e2a6840	0.1664133
117	0x3da2ef51	0.07955802
118	0x3dd92f88	0.10604769
119	0xbb0ec594	-0.0021785246
120	0xbe509e75	-0.20372947
121	0x3e11716d	0.14203425
122	0xbbdaad0e	-0.0066734618
123	0xbd7065ec	-0.05869095
124	0x3e235faf	0.15954469
125	0x3ea0d90e	0.314156
126	0xbd1c8418	-0.038211912
127	0xbd51a5ac	-0.051183388
128	0xbdc1396f	-0.09434783
129	0xbe726c0f	-0.23674034
130	0xbdb37f53	-0.087645195
131	0xbda47fe9	-0.080322094
132	0x3d0f9059	0.03504977
133	0xbdcbc2a2	-0.09949233
134	0xbdbae98f	-0.09126579
135	0x3e0ed0de	0.13946864
136	0x3da58831	0.08082617
137	0x3e1aa3d5	0.1510156
138	0xbe31481f	-0.17312668
139	0xbe1f7489	-0.15571798
140	0xbd49467e	-0.049139492
141	0x3e3475a6	0.17623004
142	0x3e80e94a	0.25177985
143	0x3eaa0f80	0.3321495
144	0xbdff61a9	-0.12469799
145	0x3e323e82	0.17406657
146	0xbe513037	-0.20428549
147	0x3ec15d90	0.37766695
148	0x3d38969a	0.0450655
149	0xbd633a09	-0.05547527
150	0x3d1d4a20	0.03840077
151	0x3cdb86bd	0.026797647
152	0xbd98a178	-0.07452673
153	0x3d53b228	0.051683575
154	0xbd4c0898	-0.049812883
155	0x3e157b82	0.14597896
156	0xbd37b3c6	-0.04484918
157	0xbe873469	-0.26407173
158	0x3e209fbc	0.15685934
159	0xbe12927b	-0.1431369
160	0x3ce114fa	0.027475823
161	0x3e75c5a3	0.24001174
162	0xbe13e4ed	-0.14442797
163	0x3ec2fcf6	0.3808362
164	0xbe846988	-0.25861764
165	0xbe7b14de	-0.24519679
166	0xbe6fdffb	-0.23425286
167	0x3c2cd5a6	0.010548985
168	0xbcd26174	-0.025681235
169	0x3d53fc40	0.051754236
170	0xbdfe8f0c	-0.12429628
171	0x3d944a05	0.072406806
172	0x3de7bd02	0.11315347
173	0xbf01b5a9	-0.50667816
174	0x3d08ba17	0.033380594
175	0xbda8a928	-0.08235389
176	0xbdcd0479	-0.10010619
177	0xbe6fc434	-0.2341469
178	0xbe37791d	-0.17917295
179	0xbdf83335	-0.12119142
180	0x3dc1184d	0.09428463
181	0xbcb8291a	-0.022480536
182	0x3ea70825	0.326234
183	0x3e669728	0.22518599
184	0xbdc3e5ff	-0.09565353
185	0xbced4163	-0.028961843
186	0x3ea09164	0.31360924
187	0xbe144ff9	-0.14483632
188	0x3e264aa5	0.16239412
189	0x3c8e35d4	0.017359652
190	0xbdbea546	-0.09308867
191	0x3c7eef45	0.015559976
192	0x3e9535c3	0.2914258
193	0xbe429a7a	-0.1900424
194	0xbed165f2	-0.4089809
195	0x3e285c6d	0.16441508
196	0x3d7efbc4	0.06225182
197	0xbe3d05c2	-0.18459228
198	0x3dd6aba3	0.10481956
199	0x3dd831dc	0.10556385
200	0x3dbf1cc9	0.09331662
201	0xbcc2eceb	-0.023794612
202	0xbd56b480	-0.052418232
203	0x3e568eab	0.20952861
204	0xbe20f53e	-0.15718552
205	0xbcd2bd46	-0.025725018
206	0xbdcafa40	-0.09911013
207	0xbcdff7f7	-0.027339919
208	0xbeb5ae3c	-0.35484493
209	0xbe5c217b	-0.21497147
210	0xbe1e9e61	-0.15490104
211	0xbe2fcba1	-0.17167522
212	0xbe0ea5f1	-0.13930489
213	0xbdf5206b	-0.11969074
214	0x3dbbd7af	0.09171998
215	0xbd88a8ed	-0.06672845
216	0x3dc08455	0.0940024
217	0xbdfc18e1	-0.12309433
218	0x3db207ff	0.086929314
219	0x3b7ceee8	0.0038594548
220	0x3e3717c0	0.17880154
221	0xbdcd24fa	-0.10016818
222	0xbb6e80d2	-0.00363927
223	0x3d63ffe8	0.055663973
224	0x3d85ec58	0.065392196
225	0x3da1e8bf	0.07905721
226	0xbe6095f2	-0.219322
227	0x3de12887	0.10994058
228	0xbe4988bd	-0.19681068
229	0xbe8b4441	-0.2720051
230	0x3d6290a0	0.055313706
231	0x3dd667e5	0.10469035
232	0xbba36f0d	-0.0049876035
233	0xbbb1130a	-0.005403881
234	0x3e1002be	0.14063546
235	0xbd82d2f8	-0.06387895
236	0x3d2d37a6	0.0422894
237	0xbe3625a1	-0.17787792
238	0xbd67ccec	-0.056591913
239	0xbdabc214	-0.08386627
240	0xbdabbf22	-0.08386065
241	0x3d263395	0.040576536
242	0xbd0f1575	-0.034932572
243	0xbe9afda0	-0.30271626
244	0xbe9c6847	-0.30548307
245	0xbec009fd	-0.3750762
246	0x3e63039c	0.22169346
247	0x3c174421	0.009232552
248	0x3e2293ee	0.15876743
249	0x3e0195b0	0.12654757
250	0xbdb0ec98	-0.08638877
251	0xbe87ca15	-0.26521364
252	0xbef2a267	-0.47389528
253	0xbe3b78f2	-0.18307856
254	0xbdc3ef54	-0.095671326
255	0x3df58434	0.11988106

bias f4 [24]
0	0xbd1bd0eb	-0.038041037
1	0x3d90df79	0.07073874
2	0xbddecf49	-0.1087938
3	0x3daadddd	0.08343098
4	0x3d973337	0.07382815
5	0xbd77aab3	-0.060465526
6	0xbd64f5a9	-0.055898342
7	0xbdbf3f11	-0.09338201
8	0xbd6ec3c2	-0.058292158
9	0x3d96bbae	0.07360016
10	0xbbdf202e	-0.006809256
11	0xbe03bb7c	-0.12864488
12	0xbdc9196e	-0.098193035
13	0xbd8c8474	-0.06861201
14	0xbdc90da6	-0.09817056
15	0xbcb0cbd1	-0.021581562
16	0xbd949792	-0.07255472
17	0xbdc9bc0b	-0.098503195
18	0xbd2d743c	-0.042347178
19	0x3d242278	0.040071934
20	0xbe0b3dcf	-0.13597797
21	0x3bedb225	0.0072539025
22	0x3dc65688	0.09684473
23	0x3c455961	0.012045235

weight f4 [24]
0	0x3e6bfae7	0.2304493
1	0x3e67f384	0.22651488
2	0x3e6adf1c	0.22936672
3	0x3e873b9c	0.26412666
4	0x3e678557	0.22609459
5	0x3e6e37f0	0.23263526
6	0x3e8acd28	0.27109647
7	0x3e6db4e6	0.23213539
8	0x3e8d71bb	0.27625832
9	0x3e68e68f	0.22744201
10	0x3e8cee55	0.27525583
11	0x3e595064	0.21222073
12	0x3e855dee	0.26048225
13	0x3e6f7ece	0.23388216
14	0x3e8ab2b6	0.2708947
15	0x3e6cb664	0.23116452
16	0x3e89f168	0.2694199
17	0x3e855e42	0.26048476
18	0x3e6c02d5	0.23047955
19	0x3e66d5fa	0.22542563
20	0x3e8a843e	0.27054018
21	0x3e8afa7c	0.2714423
22	0x3e883a21	0.2660685
23	0x3e649d81	0.22325708
